car_ros2/car_ros2/losses/exp1.pth (torch, 123981 bytes, 4 tensors)

fc.0.weight f8 [300, 47]
0.44631184331077683 0.05956375321030577 0.019403074890710085 0.02206607351858986 -0.0685748708403156 -0.02571488726709318 0.07021432885231563 -0.04596679165570523
-5.063166359848299e-05 -0.048095565561742444 -0.28046287761792466 -0.09700166804433345 0.037809164526331936 0.058898700895693476 -0.11825201885546835 0.08287496250704494
-0.0028473431965495063 -0.025514014011645086 0.31869857877871005 -0.02574107297203152 -0.41116199247513124 0.09200916783410562 -0.04276316165600302 -0.0015166772032641845
-0.018859462880264747 -0.2686993633420943 -0.02681506427575673 0.08282120973379985 -0.03416309798414097 0.06096176689199621 -0.03602673649102555 0.14221355957503487
-0.057078551147104924 -0.017087449787116432 -0.002529381643402259 0.6477046467632939 0.15541584169069778 0.08485598199366566 0.006891187207175255 0.019523037962636942
0.09502871334552765 0.10251103341579437 0.013363954611122608 -0.02604570798575878 -0.32216041111001953 -0.0863594338297844 -0.009387352503836155 -0.0794394788431893
-0.030868102679492724 0.18746976811106714 -0.006046175581444894 0.008938649305031928 -0.07301353025787806 -0.10652833729783434 0.11042363233628491 -0.11839694093507114
-0.05896590860935213 0.10579079502842528 -0.060989388234760064 0.0010949203063662148 0.06598979947932981 -0.062043564930515285 0.005373314200312766 -0.06359671707805704
0.12459240336423895 0.23269592965190994 0.5528532940153341 -0.04709183258506975 -0.15953558608319077 0.053713728895838246 0.04984972079754752 0.009708913804742604
0.08163940384125382 -0.018224250318763083 -0.14357684766530318 0.08487478419530081 0.10082596607576656 0.0977092078020126 0.032146319572228084 0.07431292618177199
0.011464340184799731 0.02703195062306207 0.1635710348036233 0.14302437514576316 -0.33828413292582965 0.044337275922015605 0.15848124517953496 -0.004369668196886778
-0.06935238838195801 0.13955658674240112 -0.13158752024173737 -0.38425046404005075 -0.06358219683170319 -0.04181584343314171 -0.23782233193341126 0.07971891421342839
0.3443358287915266 -0.21183154161411719 -0.15833373867774297 0.08564404033700083 -0.08096779217268107 -0.10185193641665995 0.06913339255565326 0.09386842678176774
0.09283832914642826 0.009927892171403998 0.11450537020207728 -0.10262948539183464 0.1344545168972923 0.12954706282860756 0.07229489364596978 0.44982794232234447
0.1554063017238218 0.517563422251751 0.05629224440316593 -0.13342371026867758 -0.032484480347503265 0.20157147913635856 0.10429362060533122 0.056291201564684354
0.1325031256288406 0.23605685721245315 -0.2606775704440806 -0.18602605157454868 -0.024474244401281472 0.1175447549674322 -0.1060896815814647 0.34995987785713106
-0.15667455453006754 -0.18131872076240702 0.03678476921297623 0.1102866386166899 0.19514208292836696 -0.49635399396994295 0.11911200731992722 0.00022199850354809314
0.09437690675258636 -0.01148398406803608 -0.06924402277592322 0.017680779099464417 -0.038456253707408905 0.17070236066673206 -0.13035338990170045 -0.2825810498459649
-0.268910876490022 -0.3800293913380274 0.394662013045627 0.0673360050855001 0.6322688383827554 -0.19447358845916493 0.601939106306583 0.344346767062352
0.12128642673324681 0.03489803646799456 -0.0002620275865793566 -0.1433400463475261 -0.34377978462425457 -0.07246460515853234 -0.13105029382300584 0.2553399975411832
0.0944492492905447 0.20946030873614008 0.04970981956290578 0.5508474934854642 -0.12133847660011238 -0.2827428501596649 -0.2609545609813818 -0.01627218281914475
-0.19288749495503987 -0.07965818115302088 0.11306588275213489 0.00618833886173589 0.05080467066167577 0.1802678631098795 0.09255724289650409 -0.20122154415232146
-0.10573832129882829 -0.10908818317666419 0.1328344032788572 -0.342002281815143 0.22201885138057992 0.10169362276792526 0.0268274936825037 -0.1414949744939804
-0.11658596992492676 -0.3594390984449865 -0.024656960740685463 0.010791227221488953 -0.263697356863162 0.017616188997657996 -0.10425471049868996 -0.3032117812009808
0.1862192999240143 -0.2663984054514903 -0.06329722770608122 -0.061167456661125975 -0.05747421396136491 -0.32946977679269246 0.09698995995474502 0.119454551390632
-0.1506289871660446 0.1780356352232892 -0.12681908784260393 -0.1029393960607603 0.08137795526763326 0.418753456887542 -0.16547801871832787 0.346180977878606
0.2008384013842578 -0.2126557055620271 0.016022292263998827 -0.36883259204876073 -0.2683126034928445 -0.014076866839233254 0.08006761240528387 0.5358376088597622
-0.06509453552295334 -0.0001425350971787791 0.17875355312275773 -0.024926827693539242 -0.2753791531463592 -0.02377305594549991 -0.22624412343685402 -0.05335677259764999
0.13075865557694158 -0.43503194542000917 0.09423110308956324 0.5906927761356621 0.06830808520317078 0.010412663221359253 0.02155536413192749 0.008316014893352985
-0.21336025009676235 -0.13924401998519897 -0.07499207556247711 0.04025260075296895 -0.0346190778299034 0.009857171442157996 -0.12481411594234669 -0.011070298951641282
0.08105490252949472 -0.030292950476987133 -0.0064518089735158156 -0.0954509281878039 -0.000331566350943786 -0.3059197842431642 -0.13162802538425888 0.020293958122043813
-0.11126321893768541 -0.027006905013016207 -0.3811458442243599 0.07579110735223568 -0.029085258257581674 -0.6434436310246543 0.022085881854675003 -1.1147334778412548
00000000: b795 b58c 5f90 dc3f 286c 21e8 237f ae3f
00000010: f1c6 6350 66de 933f d132 7420 7d98 963f
00000020: 142a 966b 1f8e b1bf ca78 54df 0055 9abf
00000030: e29b 21f6 90f9 b13f 6a02 ba95 f588 a7bf
00000040: 5ea3 e1b6 aa8b 0abf 9132 5762 fb9f a8bf
00000050: 3a1b c791 1af3 d1bf 8b69 e8ef 19d5 b8bf
00000060: 4965 420a b95b a33f 6e6e 3f74 f827 ae3f
00000070: 0293 aba9 c345 bebf f7fe 9f25 4b37 b53f
00000080: 8c00 1cbd 4f53 67bf 9b2c 147f 5820 9abf
00000090: 25b8 48b9 8e65 d43f 7ab7 502a de5b 9abf
000000a0: 1f7d c263 7a50 dabf b897 c7ae e98d b73f
000000b0: ef7a 9299 0de5 a5bf a197 24bf 67d9 58bf
000000c0: 01d8 2921 e54f 93bf 06a9 80d0 5e32 d1bf
000000d0: 7a05 6b80 6875 9bbf abc9 3853 c533 b53f
000000e0: e0d3 2459 d37d a1bf 250a 3776 6136 af3f
000000f0: b768 05ae 1872 a2bf 3715 b6cd 0d34 c23f
00000100: b1b2 f55c 6639 adbf 68e4 0758 5f7f 91bf
00000110: 5f20 006e 7fb8 64bf 3a19 6a18 ffb9 e43f
00000120: 14c2 ab92 aae4 c33f e362 8823 1fb9 b53f
00000130: cf86 f7fa ee39 7c3f f2b9 45e6 d8fd 933f
00000140: 0000 0040 cd53 b83f 0000 00c0 293e ba3f
00000150: 0000 00a0 8f5e 8b3f 0000 00e0 b9ab 9abf
00000160: 0724 72b3 469e d4bf 0000 00e0 a61b b6bf
00000170: 0000 0020 ad39 83bf 5c8d a44b 2556 b4bf
00000180: 69f1 fd4d e39b 9fbf 5a4b 8365 02ff c73f
00000190: d1fb 35e6 dfc3 78bf abf4 7b33 6d4e 823f
000001a0: 0183 9fc4 03b1 b2bf d49c caec 7045 bbbf
000001b0: d601 9721 b944 bc3f 1038 430d 434f bebf
000001c0: 1fb8 1c92 c730 aebf ca6b dd04 1b15 bb3f
000001d0: 7e20 be47 003a afbf 199d 15ba 6df0 513f
000001e0: 3821 a21e b5e4 b03f ba8d 9b94 2cc4 afbf
000001f0: 2b01 2f0c 5402 763f 49b4 fbdb df47 b0bf
00000200: d189 c7a9 49e5 bf3f e635 e2ef fac8 cd3f
00000210: f403 2964 f9b0 e13f 3d21 b9b1 6b1c a8bf
00000220: 7d43 637e a96b c4bf 1f5d e8a9 5d80 ab3f
00000230: c994 1411 e785 a93f 871d 2b5a 44e2 833f
00000240: c228 90e9 51e6 b43f 04ec 73bc 60a9 92bf
00000250: 4fb6 97e4 b960 c2bf 40b6 5f96 5aba b53f
00000260: c90d e202 bbcf b93f 2518 077c 7803 b93f
00000270: 69bc 7f7e 7b75 a03f f8ea 9e03 2c06 b33f
00000280: 56bc 4fb1 9d7a 873f ff17 7e7f 43ae 9b3f
00000290: e3f7 864a e5ef c43f e814 e46a 9f4e c23f
000002a0: 9704 eb7d 72a6 d5bf 8b56 281c 60b3 a63f
000002b0: afa8 890a 1d49 c43f 0000 00e0 ede5 71bf
000002c0: 0000 0000 14c1 b1bf 0000 0080 fddc c13f
000002d0: 0000 0020 dcd7 c0bf 0397 2142 8f97 d8bf
000002e0: 0000 0040 ec46 b0bf 0000 00e0 e268 a5bf
000002f0: 6bcb f450 f670 cebf 8a57 6b71 7568 b43f
00000300: d80a e024 9909 d63f ff37 bfc3 4b1d cbbf
00000310: 66b6 bcaa 4744 c4bf cb3f 5890 c4ec b53f
00000320: a436 6923 4eba b4bf 939e f1ef f712 babf
00000330: 248b 16dc b9b2 b13f fe97 27df c207 b83f
00000340: 1ccb 7fb3 40c4 b73f c11e 8e21 1355 843f
00000350: bffa 3b54 3950 bd3f 44fd 5c0b ed45 babf
00000360: edc9 6f3c ce35 c13f 1a24 1287 ff94 c03f
00000370: b292 e00b eb81 b23f 0e7e 4623 fbc9 dc3f
00000380: f680 bf8b 5ae4 c33f e1aa 852a e18f e03f
00000390: 5fc7 7549 56d2 ac3f abb6 0e34 0714 c1bf
000003a0: 7dae 7049 cea1 a0bf 8137 591f 18cd c93f
000003b0: 996b ae99 fcb2 ba3f beb4 8b4b 33d2 ac3f
000003c0: 84c9 98c7 dcf5 c03f f3ac dc70 1c37 ce3f
000003d0: 7eea f6f9 f0ae d0bf b1bc db9f b3cf c7bf
000003e0: 6cf6 30bd c60f 99bf bfc5 66be 6917 be3f
000003f0: b0df d580 b128 bbbf ffbe 931d be65 d63f
00000400: 9537 e96b e90d c4bf 3ade e9ab 7335 c7bf
00000410: ae72 8509 74d5 a23f 5361 0bc2 be3b bc3f
00000420: 7f15 2070 6afa c83f b2c0 d58a 43c4 dfbf
00000430: 0000 00e0 1f7e be3f 0000 00a0 0819 2d3f
00000440: 0000 00c0 1529 b83f 0000 0040 ea84 87bf
00000450: 1f1d 44ed f9b9 b1bf 0000 0000 e91a 923f
00000460: 0000 00c0 89b0 a3bf 34f1 3430 93d9 c53f
00000470: 1978 467d 6baf c0bf 6cb2 e3d3 ce15 d2bf
00000480: c20d 04f7 d535 d1bf 0233 d4cb 6652 d8bf
00000490: 9e49 c075 2442 d93f c17d afb3 ee3c b13f
000004a0: 7348 e4db 8b3b e43f 9316 2fb3 82e4 c8bf
000004b0: d1a5 f8cc 1543 e33f 4e08 c105 c709 d63f
000004c0: 559b 4494 a00c bf3f c938 a6ca 27de a13f
000004d0: 4bf9 3dea 172c 31bf 2187 a275 f758 c2bf
000004e0: 992c ffec 7c00 d6bf c600 4655 0a8d b2bf
000004f0: 99ed 0c8b 41c6 c0bf e034 b392 7d57 d03f
00000500: 03ab d574 d32d b83f ec77 ea6b 98cf ca3f
00000510: a21f a0c2 9073 a93f 0951 33ec 8aa0 e13f
00000520: 1c73 bed4 0910 bfbf 0b45 a777 7518 d2bf
00000530: 7a0d 4ac2 7ab3 d0bf 39c9 2bb4 a7a9 90bf
00000540: 50d3 5195 89b0 c8bf c53b e982 7a64 b4bf
00000550: eeba b6bc e2f1 bc3f 1d8c 7190 f158 793f
00000560: 79af f3dd 1103 aa3f 87d2 4970 0413 c73f
00000570: 0598 3fdb d4b1 b73f 7642 b1a7 a0c1 c9bf
00000580: 8e93 e9a7 aa11 bbbf 54b3 1f03 34ed bbbf
00000590: 1ce5 eebc b700 c13f 266b e389 5de3 d5bf
000005a0: aa35 e31c 1d6b cc3f 0000 00e0 9708 ba3f
000005b0: 0000 00a0 aa78 9b3f 0000 00e0 811c c2bf
000005c0: 0000 0000 94d8 bdbf 7165 2ed9 0c01 d7bf
000005d0: 0000 00a0 ac3f 99bf 0000 0000 b619 863f
000005e0: 0436 f1e0 6ae0 d0bf 3219 806e fa09 923f
000005f0: f1ba 0bcc 6fb0 babf a649 0163 d267 d3bf
00000600: 4b61 87b5 08d6 c73f 88b9 c7e5 ab0c d1bf
00000610: 4dd2 ec42 3f34 b0bf fdc8 e043 5751 afbf
00000620: e59c a79a 426d adbf 0915 1667 0816 d5bf
00000630: 50c5 0b82 55d4 b83f 01c4 94cf 9294 be3f
00000640: 0d98 da86 cf47 c3bf 163f 6727 dfc9 c63f
00000650: ca71 659d 9b3b c0bf 800b 8d7b 3c5a babf
00000660: e165 7d88 2fd5 b43f e5cf 9a4c dbcc da3f
00000670: 6b11 4d3b 622e c5bf 3019 9f42 d427 d63f
00000680: acf7 dc9e 12b5 c93f d92d 595a 4d38 cbbf
00000690: 9391 1fd5 2568 903f f417 2304 f49a d7bf
000006a0: f9ce 46a0 082c d1bf 7d21 a315 55d4 8cbf
000006b0: 1cdf bfa0 4f7f b43f e59f c0e9 9425 e13f
000006c0: 432a 3815 09aa b0bf 25b2 6d29 afae 22bf
000006d0: 9f5f 5a7c 65e1 c63f f975 f216 6b86 99bf
000006e0: e8e1 30e2 cf9f d1bf d662 3fc7 f657 98bf
000006f0: a267 8943 91f5 ccbf 996e a732 9451 abbf
00000700: 299a af1a b3bc c03f 1dd4 923a 90d7 dbbf
00000710: 3d22 0992 871f b83f 478e 6f89 f4e6 e23f
00000720: 0000 0080 a37c b13f 0000 0000 3c53 853f
00000730: 0000 0000 9c12 963f 0000 00a0 fc07 813f
00000740: f64a 3780 634f cbbf 0000 0080 bfd2 c1bf
00000750: 0000 0040 ae32 b3bf 8a3a a027 fd9b a43f
00000760: e5b8 317e 97b9 a1bf ec12 cd27 ff2f 843f
00000770: 2731 0d62 d1f3 bfbf d649 a25f 06ac 86bf
00000780: 056e 8b9b 03c0 b43f 095c 647e 1d05 9fbf
00000790: 731f a948 366d 7abf 9a80 f0d6 786f b8bf
000007a0: 7af0 3da2 c2ba 35bf 6385 2193 3094 d3bf
000007b0: f497 21e8 2fd9 c0bf 3e25 c379 f0c7 943f
000007c0: 9fc5 950e bf7b bcbf 8b36 30b7 b2a7 9bbf
000007d0: c1cb fc89 b164 d8bf 5ecd 67c7 0b67 b33f
000007e0: de50 0ca4 86c8 9dbf 9040 0219 1797 e4bf
000007f0: c99b 1371 ae9d 963f 3c5a 71c5 f2d5 f1bf

fc.0.bias f8 [300]
-0.13446415536651418 -0.21546465356947084 0.05472252954121917 -0.35867279132943153 -0.08223670731111779 -0.2392544329619737 0.5109497871442182 1.4338446042432886
0.13527252834133321 -0.08109309365934428 -0.15533672710241164 -0.05123215398553885 0.19912229592264843 -0.31695072172609845 -0.42501558571631803 -0.13758854667688264
0.1912047905362945 0.16188174734659427 0.7007481008453192 -0.002715355781537176 -0.08484411397489808 -0.2614523728933208 -0.047407554346991426 -0.2413138535733358
-0.029033059343573496 -0.6768084909064511 0.5542088404448049 0.11657921880747257 -0.11178007992946243 -0.07154457144191959 -0.3456271721893363 -0.2628143064247476
-0.037215033177386524 -0.4271194759223268 -0.03286452792474595 -0.37173037203477005 -0.34072536179738894 -0.09365998426413807 -0.3597719769964483 0.13581331438577107
-0.16711014249724124 0.5734438453748875 0.324733320537203 0.1989935682935484 0.4084944065710191 -0.19886741025435264 0.043605299851522186 -0.38888161929839216
0.036324237445318076 0.35578906145996175 0.2094761399867314 -0.023908044547730867 -0.2025939837902162 0.5094453235095803 0.00592303659605675 0.13126528830452133
-0.42247736398334046 -0.09163991457866043 0.29067204805761315 0.12775355172855893 -0.4088372775187271 0.9705149944690549 0.04486991616185332 -0.011286981872141845
-0.21010070483247295 0.44357785594415916 0.4966045203938657 0.017416774931923982 0.23159112890327246 0.3274001066188996 -0.18344180415856975 -0.4496751812893033
0.3750936998568423 -0.3812925564241337 -0.20713277457109938 -0.5975326387241267 -0.12907246207379844 -0.9422023023406111 1.090514169054835 -0.14485845249954832
-0.09679610841509555 -0.22435771760360557 -0.36792413165024007 -0.22283946147063502 0.029994106266020306 0.2376882093075824 -1.6411944377719068 -0.4342974254422279
-0.10485884972927749 -0.2189787606713227 0.19819993435807917 0.05735202718471096 -0.13107201791520032 0.01771334817071505 0.19999636305243243 0.5405139484810488
-0.23501395758725768 0.042994157550115604 -0.26856546927850516 -0.2243022561919819 0.0762094501327921 -0.046903835549550174 -0.05845045990694006 -0.21025074592520185
0.22540143705719387 0.8525116426847063 -0.42985180509164383 0.2350004451872916 -0.5457243226068181 0.15029462546005795 0.3453940005593677 -0.2076274082528723
0.3058133878121689 0.6148974770651404 -0.28634013540135184 1.0493622177235769 -0.32284853700405247 -0.1408840209331634 -0.9327282243826635 -0.18166428861600514
-0.7928579432960032 0.0027117027081932374 -0.018214022234793105 -0.3425437270866063 -0.08732115185779309 0.5884807641573758 -0.41126897560568626 -0.12263433226546568
-0.03088222274816544 0.09858467068958551 -0.04055022762383279 -1.3164033412321756 -0.27622359155625203 0.01564694910055774 -0.26217630111778045 0.033296867907412174
-0.3158116878352854 0.060819459598716194 -0.24306373025315353 -0.2680107654874932 1.0677899659565306 -1.7277518509788263 0.44554138556593675 0.19513465049469997
0.015722534248363274 -0.022091653069511892 0.3747406629117053 -0.5298785240458321 -0.3984166171796765 0.08506703507862352 -0.1681010906430274 0.03490131095531328
-0.3276663989505878 0.08283084095062716 0.1737740923671408 -0.13185656814858146 -0.10559381556027025 0.9538401551596688 0.0007317469982373586 -0.44702587577170577
-0.23101214893046645 -0.23410481207841433 -0.30244294595179044 -0.021350824103788895 1.1139875483505588 -0.34954146234041444 -0.18670990529974824 0.2898159779620576
-0.05911474038234591 -0.2393265843341586 -0.6243724633667412 -1.1637786138907815 0.05789407394255342 -0.07140173270799444 0.9263006193612863 0.30156327905832203
-0.29203846081923507 -0.16020075184803764 0.31515674570154745 1.542155919092025 -0.2738533485329484 0.24512624149103412 -0.26843559597619826 -0.05663807144146368
-0.17423498599615153 0.02659368542196367 0.19248567619136187 -0.022861545938875093 -0.24564776655504056 -0.07818155099650208 0.02875117485577838 -0.6029744921978919
-0.3737122785830565 -1.1838594569606347 1.1472727593216177 0.4034436460714272 -0.13310157698841985 -0.7942129800325396 -1.1664787851168739 0.7089647969338927
-0.010655236835679796 0.016372327362671468 -0.14446120350851724 -0.20542388935598552 -0.1807367965636702 -0.2903637409733952 -1.2080888190174288 0.3518514025851241
0.676328103901889 0.1769655276996005 0.01232281176583102 -0.35143482055253367 1.78360446534983 -0.005497695739981456 -0.14602806747836486 0.04402300768472842
0.9451956019348949 -0.22475412395103747 -0.167302793519404 -0.2892253550704405 -0.11445070644237466 -0.22219586591981555 -0.391631226167033 0.011402727471043006
-0.03908324493976725 -0.10555694053114996 -0.4271936467634904 -0.1821753604007657 -0.55561725611018 -0.13446574954446372 0.5846964246671335 -0.32561049501455863
-0.20004716714283255 0.12769625371237023 -0.2586580451979719 -0.26269940519871937 0.12959283272400432 0.08586411057719588 -0.614685071484777 -0.30126538643189527
0.9526222580198459 0.06671222215735861 -0.05788986291906711 -0.009738855933379555 0.19254238210340172 0.11948884769024166 0.21997864835279227 -1.465134637052385
0.31367520771888285 -0.0423733540278704 -0.09102940686249264 0.09057987793728892 0.6119962738484626 -0.1712019639611314 0.27529953389586875 0.010275702095284141
00000000: ce47 e416 1f36 c1bf 2f2e 4384 5894 cbbf
00000010: b4c5 7765 9704 ac3f 6e65 2eb9 7ef4 d6bf
00000020: ea95 6e00 770d b5bf 6152 7fa6 e39f cebf
00000030: afd7 355e b359 e03f f755 2c0a 07f1 f63f
00000040: 29fa a236 9c50 c13f fac6 3259 84c2 b4bf
00000050: 6ce2 62e9 12e2 c3bf 9438 bed3 193b aabf
00000060: e933 72e2 d67c c93f cb75 10ae eb48 d4bf
00000070: 9c47 3c92 7433 dbbf 4604 2462 809c c1bf
00000080: ad90 1809 6679 c83f 7623 5685 8ab8 c43f
00000090: 15ac fb47 876c e63f 4c2a eb88 833e 66bf
000000a0: aec0 c706 58b8 b5bf 4e75 c2bb a2bb d0bf
000000b0: 24e1 018f cd45 a8bf aca8 9552 5fe3 cebf
000000c0: c6ad 88a1 d7ba 9dbf 7225 c347 6aa8 e5bf
000000d0: 24aa 9b2d 14bc e13f d0db 2bbc 22d8 bd3f
000000e0: b42c a48b 9e9d bcbf 2ea4 8cba be50 b2bf
000000f0: d560 4a6e c11e d6bf 43f9 c018 f3d1 d0bf
00000100: 5336 d54c d90d a3bf 228c 24ed ec55 dbbf
00000110: 2441 4591 9ed3 a0bf 996e b42f 6eca d7bf
00000120: 799a 75bf 71ce d5bf acbc 5bc9 19fa b7bf
00000130: 7de3 cd0a 8106 d7bf f5f9 d2a7 5462 c13f
00000140: b182 6d7a dd63 c5bf af48 3fe8 a659 e23f
00000150: cd3d e843 6ec8 d43f 6fb2 f709 9f78 c93f
00000160: b692 34b9 c524 da3f 312e a4bf 7c74 c9bf
00000170: c2d0 9611 6f53 a63f 48bc 39bb 6fe3 d8bf
00000180: 7d72 c227 1799 a23f 39af cf7b 3fc5 d63f
00000190: ab85 4439 1dd0 ca3f 7d77 c6b5 597b 98bf
000001a0: 1067 5f83 99ee c9bf 775c 7247 604d e03f
000001b0: feb6 9107 c142 783f 5818 2f0c 4dcd c03f
000001c0: 86f5 667f de09 dbbf f3a2 1fa4 b675 b7bf
000001d0: d633 11ef 5e9a d23f db9d 4f77 3a5a c03f
000001e0: ee07 15d4 632a dabf f5b5 3076 750e ef3f
000001f0: 8095 fa8c 30f9 a63f c755 1710 a11d 87bf
00000200: 5e9e 0f74 94e4 cabf 3ba3 2060 9463 dc3f
00000210: 76cb 8853 5ec8 df3f 2908 f0fa b3d5 913f
00000220: 9375 5732 c7a4 cd3f 44a5 a893 1ff4 d43f
00000230: 1247 ca62 057b c7bf aa77 5d69 7ac7 dcbf
00000240: 9f87 7401 8901 d83f 6131 03e5 1867 d8bf
00000250: e136 5ba6 5383 cabf 4c9b b3c4 fc1e e3bf
00000260: b9e8 b549 7285 c0bf 3f9a 5871 8526 eebf
00000270: 61a4 3efc be72 f13f 0472 04c6 b88a c2bf
00000280: 27dd 0538 a1c7 b8bf 6839 dbf1 c0b7 ccbf
00000290: ea34 36a8 118c d7bf 0f27 a3e3 0086 ccbf
000002a0: 07f4 f065 c6b6 9e3f a478 cf36 916c ce3f
000002b0: 1ab8 4919 5542 fabf 3dba c06d 87cb dbbf
000002c0: 8f8e 4892 07d8 babf 6f0c cdfb 7e07 ccbf
000002d0: f192 118e 9d5e c93f db3a 3cb2 3e5d ad3f
000002e0: d9e9 2ec7 f7c6 c0bf 0a2f 62ac 7223 923f
000002f0: a987 5017 7b99 c93f fe40 78e8 e34b e13f
00000300: 3a6c f8f6 ef14 cebf 2192 3189 5403 a63f
00000310: 69b5 d838 2d30 d1bf dabc 61b3 efb5 ccbf
00000320: 8e6b f767 7682 b33f 260c 7c8f c703 a8bf
00000330: 2c12 79fb 37ed adbf 1fab da16 7fe9 cabf
00000340: 05e7 504c f4d9 cc3f 1948 197f c647 eb3f
00000350: f9b0 3f25 b182 dbbf 59fb 4f9d 7e14 ce3f
00000360: 154c c7da 9276 e1bf 4ac9 8eb2 da3c c33f
00000370: 15c6 2870 ef1a d63f 8c83 19f0 8893 cabf
00000380: 4343 d550 7292 d33f f167 4c79 3dad e33f
00000390: 662f 4593 6553 d2bf 227e 6c09 30ca f03f
000003a0: 429b ffe8 8ca9 d4bf dfec 37d3 7c08 c2bf
000003b0: 37f3 78dc e8d8 edbf f879 3a81 c640 c7bf
000003c0: a490 1a9f 175f e9bf 425d 574e da36 663f
000003d0: 0ae7 4e57 b2a6 92bf f45c 5286 3cec d5bf
000003e0: f76f 7ad3 ad5a b6bf 4d31 8c9c d5d4 e23f
000003f0: 797e 051c 3b52 dabf cd6c 72ae f664 bfbf
00000400: a2b4 ece2 969f 9fbf c6aa 7f50 d83c b93f
00000410: 45bc fada ffc2 a4bf 46ff 2ef3 fc0f f5bf
00000420: 7389 07b7 a5ad d1bf 3d21 adfa c005 903f
00000430: 4c93 c51b 7fc7 d0bf 4371 717d 490c a13f
00000440: 7b9d bc39 4236 d4bf a6ae df6b ba23 af3f
00000450: c8f9 235a b61c cfbf 4fa9 2fa0 1627 d1bf
00000460: ea7b 6cee aa15 f13f 9feb f81f dfa4 fbbf
00000470: 5d4b 0104 c083 dc3f d676 1817 2cfa c83f
00000480: 2dba a069 9119 903f 02e3 cabd 319f 96bf
00000490: 03fa eb42 c0fb d73f ac25 74ce c3f4 e0bf
000004a0: f30e 3e69 a87f d9bf 1d60 a105 f4c6 b53f
000004b0: 01eb 5d27 5684 c5bf 56fc 47aa 95de a13f
000004c0: 4e6a df7c 7cf8 d4bf d5ad fbe8 6634 b53f
000004d0: 2cf2 cdbd 3a3e c63f 7f00 fb0f ade0 c0bf
000004e0: 60c0 7d40 3208 bbbf 09b7 00ca db85 ee3f
000004f0: fa79 93b6 56fa 473f 5fef 396b 129c dcbf
00000500: d248 515c ce91 cdbf 1644 db7f 25f7 cdbf
00000510: 9a34 71a8 395b d3bf 2bdd 128d fddc 95bf
00000520: e511 859b e4d2 f13f 3347 5627 e35e d6bf
00000530: b603 8d34 1ce6 c7bf 8a23 cd50 588c d23f
00000540: 95b2 4e89 4944 aebf 12a9 63e6 40a2 cebf
00000550: 0ddc d5f5 dbfa e3bf 341f e752 d69e f2bf
00000560: 7152 6ec4 4aa4 ad3f 38cb db4a 6247 b2bf
00000570: 097b 4d32 41a4 ed3f 90b8 4e11 d04c d33f
00000580: 8123 9915 c2b0 d2bf fdaf fd4e 7581 c4bf
00000590: 4db9 f932 872b d43f 4154 5daf abac f83f
000005a0: b457 f631 d086 d1bf bc35 4cf3 4b60 cf3f
000005b0: de33 737e 0c2e d1bf ec64 1951 aaff acbf
000005c0: 1d14 56ff 544d c6bf f276 ab04 603b 9b3f
000005d0: 3a5d 18e2 5ea3 c83f d6e9 9260 0469 97bf
000005e0: 5a3c d8d1 6271 cfbf 6337 aec4 b403 b4bf
000005f0: df98 e8ae f270 9d3f 28fd 8929 914b e3bf
00000600: 012f a8e7 e6ea d7bf c84c 2b9d 16f1 f2bf
00000610: 660c 4eae 3a5b f23f 47f8 694c 05d2 d93f
00000620: 880b 1bf4 7809 c1bf f98c e956 316a e9bf
00000630: 66e0 98a8 e5a9 f2bf 4d15 1bf1 d6af e63f
00000640: f54b ecad 69d2 85bf c00c 544a e8c3 903f
00000650: 9d10 4e68 b47d c2bf 33f0 4c7b 544b cabf
00000660: d25e 3623 6222 c7bf 5732 dbcc 5195 d2bf
00000670: 6b7d 05f1 5454 f3bf dde8 c9be bb84 d63f
00000680: 4bfa f3d5 7aa4 e53f 009d fe70 cea6 c63f
00000690: ac68 3bcc b33c 893f 7fb8 3c79 e87d d6bf
000006a0: 57d5 fad5 a489 fc3f d958 8176 c084 76bf
000006b0: 6d0f 0f37 0cb1 c2bf ed0f 8e04 2f8a a63f
000006c0: e144 d4d8 0a3f ee3f 1563 013e bec4 ccbf
000006d0: f7fe 588d 2d6a c5bf dde5 4c10 ab82 d2bf
000006e0: 8991 2c39 a44c bdbf 104c b704 ea70 ccbf
000006f0: d1b4 1e6b 7c10 d9bf 4d2e 962c 505a 873f
00000700: b4fb ac15 b802 a4bf 8975 7297 c705 bbbf
00000710: 6b1f 7a05 2457 dbbf 7276 87af 8551 c7bf
00000720: 70c4 02d7 9dc7 e1bf 6ae0 5c76 2c36 c1bf
00000730: 2712 c146 d5b5 e23f 049a d466 cdd6 d4bf
00000740: c098 4444 259b c9bf b717 c2d0 5958 c03f
00000750: bd3e 3e79 da8d d0bf 2e75 802a 11d0 d0bf
00000760: 873c 2c79 7f96 c03f 6745 d4ba 30fb b53f
00000770: b1ba eb06 80ab e3bf 2013 899d ee47 d3bf
00000780: 9561 74ac e17b ee3f a0ca 685c 0d14 b13f
00000790: f7be 0378 bda3 adbf 8ee3 df1d f7f1 83bf
000007a0: 9d30 1d91 3aa5 c83f e5f9 1035 d296 be3f
000007b0: e52b 3fa6 4228 cc3f 7807 6604 3171 f7bf
000007c0: affd ad2d 4113 d43f 6806 8bd3 f5b1 a5bf
000007d0: f2dc 7205 b44d b7bf 7694 6a2d 3e30 b73f
000007e0: 087f ae35 7995 e33f 04ad 1c2a f2e9 c5bf
000007f0: 87f4 abef 819e d13f f19d 8a63 6d0b 853f

fc.2.weight f8 [3, 300]
0.7177267032595626 0.3499189831599862 -0.001495526877088308 -0.0017185141740078409 0.05130569190293012 -1.9102991759188954 -0.19839300040465785 0.11771646907659103
-0.6071314104732247 -0.05404705257446888 0.2940559858754029 -0.26945723499451485 -0.21512104111074373 1.232815021428589 0.014471293855931898 -0.23447592879916193
0.04542267523508253 -0.08446693684181887 0.09777155305189787 0.012665912680150385 -0.2945801973691368 0.012789253721222934 -0.7465882404179864 -0.031096681067860746
-0.01107726224485511 0.11442940164274933 -0.05736771013594521 -0.12406060168473154 -0.2745666213733002 -0.038856241013776785 0.04876707281763758 -0.1771715479969312
1.8313762548764172 -0.039242858773564725 0.5390814160844362 -0.10490354652921431 -0.007492998968623452 0.7520791884250071 -0.3891641759368115 0.113429676967568
-1.3451865370038507 0.06868310755141167 0.02916752990912979 1.385011449325809 -0.06189536697230512 0.02170015455486132 -0.09610660879749008 0.02280369835567385
0.30737023055734985 -0.05682728730799977 -0.010434911594806204 0.36987476749382536 0.01434277185348337 -0.1168760693359548 0.0015319627167002044 -0.20341600552749148
0.0038970577888588673 -0.2208483990519231 0.05448176156378119 -0.11131346797127933 0.3119835893603774 -0.043198376132931836 0.212887381160221 -1.1727344909914232
-1.7011065492348239 -0.12456380099908841 0.03263041743921033 -0.302685166050754 -0.12109772484399287 0.10829785726823099 0.36357964144208316 -0.044163255108443385
-0.07255399810924747 0.008659199755895297 0.036206297577125825 -0.007615153300570023 -0.017349594413329183 0.010735582988343621 0.07128575461496023 0.6599714460325452
-0.09018988132608248 -0.5556466885653546 1.0460926289214685 -0.035384789430352906 0.2269590283838959 -0.06579778806122016 -0.022639370810188904 -0.058533180125762516
0.31649608946333635 -0.0046005975471454736 0.14028913021470046 -0.15077257422714405 0.11665545300678128 -0.04482211700503579 -0.04024496586956865 0.09682367482288037
0.7855792249632719 0.03539974477173112 1.692450976564527 0.0336545282138497 -0.019685387199614632 -0.6037557207266175 -0.049052913774031426 0.022701592517249083
0.13081955841681228 0.019798306807076404 0.002570974758808351 -0.12119434870151743 0.13282202885235808 -0.09410113368529383 -0.34279899175590683 0.3985251264317432
-0.3865944880566599 -0.06618189612444549 0.01851794984167809 -0.0599233948817129 0.04208698876484202 0.022289042968292934 0.1784554155308945 0.04794670423495145
-0.1113488218040478 0.09893168045065316 0.04843531482073702 -0.07539410338090774 -0.03800610450736071 0.20981072892291358 1.2100371959936824 -0.34289109023066366
-0.20467424554749702 -0.006209980532521022 0.45487675027156527 -0.031514645723581695 0.04119666377282201 -0.061613367831342906 -0.12870037500936404 0.26049413576369096
-0.035902226498783156 1.2498312731068277 -0.3813479958608674 -0.735389166237607 -0.0850187022718897 -0.021695157788577245 -0.10795820755051984 0.002534626898346027
-0.09467124484009776 -0.27681088267100035 -0.029478986671675807 -0.00890463879349394 -0.07802357952669538 -0.20791506634480467 -0.9209957513832693 -0.010344969348998253
-0.12065078172330511 0.5978555705148995 -0.008341362993615311 0.4860250248145815 -0.756089841244681 0.029497001750867644 0.001518294885862793 -1.1658632505477082
-0.04137295485021857 0.15008726247635235 1.1762464620142146 -0.5812442485580337 -0.010203273129713326 0.015207794428498863 1.2624813659117682 -0.014877623921099686
0.018365736954671308 0.22131648280158622 0.02530351793227111 -0.009240677479346515 0.00416263271839227 0.0015840259839184096 0.04747130808674404 0.21120405665125275
0.05567136392866157 -0.05069996744621747 0.12234228728338158 -0.0726796975783191 -0.04725377533443338 0.1589114078929389 0.034709411845056506 -0.13029688256496227
-0.026473434549409047 0.04119151547680512 0.4031257330335649 -0.015889991901049335 0.21242305586029625 0.031149386080331864 -0.008988667879945598 -0.14975059922223632
-1.1462591930100172 0.07729613454936878 0.023986984013585084 -0.0546618287249928 -0.06029827013547312 -0.006949245286431349 0.019758788125490406 0.03913796662320701
-0.0014237078175472005 0.005474795260537877 -0.04980017797972364 -1.5992475932654524 0.6619934983325795 -0.19176818809079768 -0.01820167042808493 -0.03342570457872967
-0.12457828424226758 -1.0875502341508265 0.061759702048123234 0.026726335859531658 0.11918993160647004 0.1177298121272112 -0.3699050676372634 0.020470078714808947
-0.0021868463452836746 0.03248323052438644 0.04262505697132338 0.010534496176735375 -0.817182279567676 -0.6170287675884208 0.217963291459172 0.0796043410010653
-0.006072554600717775 0.035342742506833856 0.03493429609088645 -0.20447264365070125 0.019670511819080378 -0.023920072454156237 -0.04835637835727705 0.44331892207008206
-0.1168446877828356 -0.3622198800869294 0.6230828924915197 -0.2214101954527863 0.005530208474292094 0.638346671598292 -0.03901868672598792 -0.06483571635171362
0.22963931727279308 0.11938031570422995 0.0024309721672802925 -0.04324339593638736 0.04518211276501231 -0.024804310026403653 -0.3669099459590603 0.16531314882858875
-0.0872257992887646 -0.4181281501780959 0.07808159793572612 -0.01989239004912537 -0.017791733547072558 0.03447912623520285 -0.03219766460268815 -0.051271460118169895
00000000: 29e7 befd 9df7 e63f 63fd 3a97 1265 d63f
00000010: dda5 c0c1 b180 58bf 8372 348b f827 5cbf
00000020: b2ba a459 bd44 aa3f c75b 62de 9590 febf
00000030: 1e25 3f1c f164 c9bf 1e72 e2a0 aa22 be3f
00000040: 556b 0bda 9e6d e3bf 754c 8126 0eac abbf
00000050: 01c9 a132 d0d1 d23f b535 fe8e c93e d1bf
00000060: 5545 2016 1689 cbbf 6fda 703e 9cb9 f33f
00000070: ec7b bc2e 20a3 8d3f c520 f2a6 4e03 cebf
00000080: 1855 4311 a441 a73f 6b33 540b a09f b5bf
00000090: 9f47 d676 8e07 b93f 42c4 e105 96f0 893f
000000a0: 8ffa 6fe6 66da d2bf 2b7f c893 4031 8a3f
000000b0: cc8c 8505 0de4 e7bf 346b cdf0 ced7 9fbf
000000c0: 5e23 91f8 acaf 86bf 2ba7 c1c9 3e4b bd3f
000000d0: afb5 c2ed 4c5f adbf c83f f582 6fc2 bfbf
000000e0: 4bc7 d7e0 7f92 d1bf eaa0 cc18 f7e4 a3bf
000000f0: ce2e bf6d fff7 a83f 8ad9 36aa 8ead c6bf
00000100: bfd7 1530 514d fd3f 6369 11d6 a317 a4bf
00000110: 44d9 7eab 2740 e13f d1cf 9375 f5da babf
00000120: 17a4 4e98 fab0 7ebf 3e34 c95f 0811 e83f
00000130: ea18 1bdc 10e8 d8bf 70b7 f830 ba09 bd3f
00000140: 6e37 7751 e285 f5bf 1591 b854 3795 b13f
00000150: ae5e 42cc 17de 9d3f e009 f7c3 0129 f63f
00000160: 2e06 d7e1 bfb0 afbf e76c 86b8 9038 963f
00000170: a6f5 b655 719a b8bf 7c70 a94a da59 973f
00000180: c17f 0030 f4ab d33f fc39 0459 7718 adbf
00000190: a56e 4a20 e65e 85bf f319 8037 07ac d73f
000001a0: df8b 5b40 be5f 8d3f e5a2 7b0f 97eb bdbf
000001b0: 2232 1571 8419 593f ab9c 9c21 8909 cabf
000001c0: 2be4 1ef8 b8ec 6f3f dca6 a6a5 c244 ccbf
000001d0: a631 4a90 08e5 ab3f 347e 8a18 0a7f bcbf
000001e0: c641 4c04 8af7 d33f 4b66 76f9 181e a6bf
000001f0: e038 e8c9 e43f cb3f 9e30 db3d 85c3 f2bf
00000200: 8799 3f80 bb37 fbbf 3379 8ecb 69e3 bfbf
00000210: 6c31 831f efb4 a03f 4207 4b9a 315f d3bf
00000220: 5230 d3af 4200 bfbf 44a5 318b 68b9 bb3f
00000230: c10c 5f8b e344 d73f b957 c0f0 909c a6bf
00000240: 69c1 1219 e692 b2bf 60bc 161e eabb 813f
00000250: 2589 01c0 a189 a23f 5c60 1426 1131 7fbf
00000260: a39c 6a92 17c4 91bf af1a b58e 89fc 853f
00000270: 78ef bd80 c83f b23f 941d 2070 7c1e e53f
00000280: e5c3 b91e af16 b7bf ca9a 7090 dbc7 e1bf
00000290: b4de dc9f cbbc f03f 1a28 c282 f41d a2bf
000002a0: 1b6b 3852 fe0c cd3f a040 dfb3 1fd8 b0bf
000002b0: 4f57 ed74 c62e 97bf 46f7 bd9c 0ff8 adbf
000002c0: 93a4 63d0 7841 d43f f9dd 1c80 13d8 72bf
000002d0: 80d2 2085 fef4 c13f 833b b805 844c c3bf
000002e0: c96e 90bb 21dd bd3f 7f25 59ad ecf2 a6bf
000002f0: f613 7af8 fc9a a4bf 62c2 d7b4 6fc9 b83f
00000300: 054c f40a 7723 e93f 5ea4 2954 ea1f a23f
00000310: b4d8 a679 4714 fb3f ebe2 1494 2a3b a13f
00000320: 19ff ecf8 6728 94bf 4066 6984 f751 e3bf
00000330: a0ae dda8 761d a9bf f4fd b615 163f 973f
00000340: 45e7 89fe b1be c03f 03a1 02e1 0146 943f
00000350: 7be8 4090 b90f 653f be0e 22c4 9706 bfbf
00000360: c9fb 0def 4f00 c13f 68e2 b10b 0317 b8bf
00000370: 8f60 ac2e 6bf0 d5bf 8a26 2a88 6f81 d93f
00000380: 151a c1ce f6bd d8bf 5917 71f7 4bf1 b0bf
00000390: bffd d593 5ef6 923f 2a83 907a 47ae aebf
000003a0: 190b aa00 6d8c a53f 428c 6e5a f0d2 963f
000003b0: 7ce8 bf86 a0d7 c63f 57bb 476d 788c a83f
000003c0: 57b5 183c 5b81 bcbf a9e9 122c 9653 b93f
000003d0: 7dc8 407a 83cc a83f cc0d 5528 074d b3bf
000003e0: 3aa0 d03f 8975 a3bf 6e73 89f5 13db ca3f
000003f0: 54c8 7bf6 4f5c f33f e059 a878 edf1 d5bf
00000400: 68e0 7a03 c432 cabf b64f bcf4 a26f 79bf
00000410: ee22 885f b31c dd3f 77a3 7409 b022 a0bf
00000420: 9a97 37a7 ba17 a53f a700 aa8f c98b afbf
00000430: b8f6 d2fe 4079 c0bf d8e8 7998 efab d03f
00000440: 5feb 54d1 c661 a2bf 9e30 b813 4fff f33f
00000450: 3f86 a76c 0168 d8bf e557 5adc 4e88 e7bf
00000460: 5a5e ce21 c9c3 b5bf 26e7 bb64 4137 96bf
00000470: bda6 c32a 26a3 bbbf cec4 5974 7fc3 643f
00000480: 54b7 75ec 5f3c b8bf fdec 0ffe 44b7 d1bf
00000490: bf3e b24e bd2f 9ebf 16bc 3463 983c 82bf
000004a0: 994e 6272 5af9 b3bf 32f7 25fd f59c cabf
000004b0: 5b46 fe14 cc78 edbf dead 4148 be2f 85bf
000004c0: bf09 bd39 f8e2 bebf 29f9 6201 a221 e33f
000004d0: fbd7 17ca 4615 81bf 1570 a7b4 081b df3f
000004e0: c67a 9f52 e331 e8bf 996e 6647 7634 9e3f
000004f0: d188 59b8 30e0 583f de5e 4b39 60a7 f2bf
00000500: 9788 0a00 d62e a5bf b2e8 f035 0f36 c33f
00000510: 2930 66cf e7d1 f23f 696f d189 8d99 e2bf
00000520: 2af4 3b23 74e5 84bf 4bb1 b79d 4325 8f3f
00000530: 4268 26a9 1f33 f43f 766b 77e1 2878 8ebf
00000540: 9058 59be 77ce 923f 646a d937 1954 cc3f
00000550: b5ae f857 2ae9 993f f38d 88bc c6ec 82bf
00000560: a987 4036 d60c 713f 8820 01f3 e2f3 593f
00000570: 4f39 76c7 284e a83f b8c1 0c0a bc08 cb3f
00000580: f16c cbfe f480 ac3f 29f6 2d9c 58f5 a9bf
00000590: 37ca ccfa d251 bf3f e49a 2efc 229b b2bf
000005a0: 6a0c 5997 a531 a8bf 4445 ee81 3557 c43f
000005b0: b2cf 7999 6ec5 a13f eb91 b178 91ad c0bf
000005c0: f3f7 681e da1b 9bbf b2ec b0e7 0d17 a53f
000005d0: 3488 e3df cfcc d93f 7fe1 314e 7745 90bf
000005e0: a20d ebbe ad30 cb3f 93a2 05ea 9fe5 9f3f
000005f0: 12bc a194 a668 82bf e0a2 1b13 072b c3bf
00000600: 5f7a 2be1 1357 f2bf 4f2b fff1 adc9 b33f
00000610: f5da 783f 0b90 983f 6e42 6d9d a2fc abbf
00000620: 4876 7934 6adf aebf 662e cbd3 cf76 7cbf
00000630: cbf4 3ad3 a53b 943f 4073 5b3d e409 a43f
00000640: 23b8 fca0 7653 57bf 2478 8a29 bd6c 763f
00000650: 780a 84af 687f a9bf 5e82 f4a4 8496 f9bf
00000660: 1019 30fd 0c2f e53f fdae 2128 dc8b c8bf
00000670: f780 e26c 75a3 92bf 67d6 0588 2c1d a1bf
00000680: c0c1 9cc8 5ce4 bfbf 86f5 0613 9b66 f1bf
00000690: 15c9 03b9 f79e af3f 609b d509 265e 9b3f
000006a0: d623 433a 3b83 be3f aec0 d97c 8a23 be3f
000006b0: 161c 084e 86ac d7bf 93b0 81ba 1bf6 943f
000006c0: 2d90 1931 26ea 61bf 1695 8a59 a4a1 a03f
000006d0: 442b 5d93 f3d2 a53f ada8 7824 1c93 853f
000006e0: 0ca5 b373 5b26 eabf 7178 2f1d b3be e3bf
000006f0: 2fd8 459c 38e6 cb3f f91d 3839 f360 b43f
00000700: 90b3 9cf6 88df 78bf 8b83 6fa6 7118 a23f
00000710: d932 7076 e8e2 a13f b305 b4da 282c cabf
00000720: 5589 d5b3 8124 943f 535b a2e3 807e 98bf
00000730: 74ec 31cf 2ac2 a8bf 5e4b ff53 565f dc3f
00000740: 8615 bd90 88e9 bdbf 44cd bb4a 9c2e d7bf
00000750: 5657 be88 4bf0 e33f 693f 3c56 2b57 ccbf
00000760: 0927 9808 d8a6 763f c0cd c0ff 556d e43f
00000770: aa8b d7de 41fa a3bf 4ae5 57d1 1299 b0bf
00000780: 30fd c736 d264 cd3f e35e bc57 b58f be3f
00000790: 252f 973e 1eea 633f 9e28 a196 ff23 a6bf
000007a0: 253c 6121 1c22 a73f 70f7 7311 4d66 99bf
000007b0: a329 9eda 737b d7bf 1da6 e833 fb28 c53f
000007c0: 5f0d 5013 6e54 b6bf 4e52 a392 9cc2 dabf
000007d0: 51a9 8dd5 27fd b33f 6513 cdb2 ab5e 94bf
000007e0: c831 e506 ff37 92bf fb52 267f 3fa7 a13f
000007f0: 52c6 f358 367c a0bf 66f6 d9b8 4040 aabf

fc.2.bias f8 [3]
0.2715081647012418 -0.02510726673633307 0.06554717194525124
00000000: bf48 ffc7 6360 d13f 5116 1926 b8b5 99bf
00000010: f5a2 d90f b3c7 b03f
