car_ros2/car_ros2/losses/exp1_delay.pth (torch, 202669 bytes, 8 tensors)

fc.0.weight f8 [100, 40]
0	0x3fb5c1847e27da57	0.08498409347507994
1	0x3fb3eae7bca5f2cd	0.07780311923665835
2	0xbfa85cf83b7d951e	-0.04758430219843944
3	0xbfc09bed8768ec37	-0.12975854026612563
4	0x3f9c84c260abf614	0.027850186491369014
5	0x3fbf3a86537f5861	0.12198676622878814
6	0xbfa7ff5c3e8d6efd	-0.0468701197011949
7	0x3fa66c92563a7310	0.04379708578674102
8	0x3f7e250f61f2411b	0.007359562004367849
9	0x3f8a84dd7845fd8f	0.01294873259825982
10	0x3fb0d179ea633128	0.06569635364866555
11	0x3fc37c8b8d9a7a7b	0.1522383157179837
12	0x3fc34e052f9b1084	0.15081848930833897
13	0x3fb422d64cacc6f2	0.07865657207437574
14	0xbfc1b215aa9fec75	-0.13824721175464885
15	0x3facfed6f43ec994	0.0566317723418194
16	0xbf96b91fd7bcebce	-0.02219056848774042
17	0x3fbe65b64d8dcd08	0.11873950379758835
18	0xbfc03a5fd2c0f4ad	-0.12678144255361215
19	0xbfa3167bfcdaa89f	-0.03728091680143674
20	0x3fb6366eb70cb725	0.08676807373987268
21	0xbf9eaf34bc763773	-0.02996523285178605
22	0xbfc0468722d5e660	-0.12715233994440478
23	0xbfc0d6a5015abb67	-0.1315504318822278
24	0xbfc2462c9157abf7	-0.14276654335785086
25	0xbfbe695ac23b0167	-0.11879508249240232
26	0xbfbc11c217c578f9	-0.10964596824985397
27	0xbfb6e61179d43260	-0.08944806312883591
28	0x3fa5e86232009faa	0.042788570979893706
29	0xbfc47776f3cbce97	-0.15989577201945757
30	0x3fc1ee6b62b1bfa5	0.14008848494586093
31	0xbfc07283650d5684	-0.12849466737923276
32	0xbfbfb58813d70729	-0.12386370167135098
33	0xbfa90823355eccc3	-0.04889020945065561
34	0x3fa7b07d896ae43f	0.04626838972530622
35	0x3fb7c15c8fb3a5bc	0.09279421337455224
36	0xbfba8d1d6da0cdec	-0.10371574331730188
37	0x3f7e6fb017686b8d	0.00743073259084327
38	0xbfc4985288f08754	-0.16089851080419726
39	0x3fa0d6eab2bde0b8	0.032889684981399936
40	0x3fb175d9916eba2d	0.06820449638937794
41	0x3fb507287139df8d	0.08214047207172666
42	0x3faa3c639a1f6d04	0.05124198204404176
43	0xbfc1b95886544a15	-0.13846880492253946
44	0x3fbcdc45374bfa69	0.11273605918902664
45	0xbfa09a0139b9cfca	-0.0324249632803056
46	0x3fa9f6f37f655507	0.0507122128498541
47	0x3f6114147daae0c5	0.002084770222918394
48	0x3f9bd09c923c3a36	0.027162977624408856
49	0xbfbdd430cba13385	-0.11651902171543156
50	0x3fa914433466a5c6	0.04898271574650041
51	0xbfb12f852279d1bc	-0.0671313485307285
52	0x3fa4f23bf6171f9a	0.04091060046226787
53	0xbfacbf47b5997347	-0.056146851461312645
54	0x3fb39900a9863d2c	0.0765533841970309
55	0xbfbdffaed09a1ce5	-0.11718266098806714
56	0xbfb616293f82749d	-0.08627565193678995
57	0x3fb6291afc62fd89	0.08656471883568008
58	0x3faae79176c213a5	0.05254797529872882
59	0xbfb2a15eab2453a3	-0.0727748077227504
60	0x3fad80afbce7e504	0.0576224248979518
61	0x3fbf7610be2c5e6b	0.12289528506186691
62	0xbfc03a09d8890266	-0.1267711932469126
63	0x3f99270478b5065c	0.024562902324083744
64	0x3fc37cfdf1eddb02	0.15225195229478322
65	0xbfb9f5a3ef3ae289	-0.10140442457749023
66	0x3fba0f13be89e95b	0.10179255868744035
67	0x3fc0b6dab85f0328	0.13058027269837535
68	0xbfc1582fd84e88c7	-0.13550375043729998
69	0xbfb168b90624a658	-0.06800419235210009
70	0xbf9155ec23fd9e5e	-0.016929330536554203
71	0x3f6b7a402a3c506e	0.003354192087394784
72	0xbfb5a6ba97337716	-0.08457533065253772
73	0x3fc13d526d168b27	0.13468389822545498
74	0x3fa8754f65e545c5	0.04777000540583346
75	0x3fc15b344bc42cac	0.13559583377386752
76	0xbfc23b47e6c242a5	-0.14243410842438667
77	0x3fb521d5fb928ff2	0.08254754440218884
78	0x3fbf3a68ccb5b4d8	0.12198500631139397
79	0x3faccbbf0fb8dcdf	0.056241961163715486
80	0xbfbbca44174266b9	-0.10855508392196613
81	0xbfac1303397ba8af	-0.054832554594967824
82	0x3fad02ead15d73a1	0.056662881905800384
83	0xbfa5b21d2eb0939b	-0.04237452692931428
84	0xbfc16db6e72e8ee9	-0.13616071975876956
85	0x3f8fd9533c83cc04	0.015551233562723261
86	0xbfa58baee28c56f1	-0.04208132281762101
87	0xbfc18a05425b84a3	-0.1370245527278132
88	0xbfc026a6188e08b5	-0.1261794681450447
89	0x3fa7f21861856b23	0.04676891508525773
90	0x3f8e5dde7dd594bb	0.014827478614004233
91	0x3fc2931188ea3c96	0.14511317429830645
92	0x3faa26293a1f8de0	0.05107239565384325
93	0x3faa92b8960ffa77	0.051900642698446235
94	0xbfb2ccda0a283db6	-0.0734382891462165
95	0x3fbb240cb371412f	0.106018823441677
96	0xbfb31126675a0fad	-0.07448043845403048
97	0x3fb18c9abd350e40	0.0685517036372909
98	0x3fbecfe130373548	0.12035949160709436
99	0x3fa387241502581d	0.03814041859111248
100	0xbfa26206271f4f7a	-0.035904114032432724
101	0xbf9ed7a7759cef1c	-0.03011953025200774
102	0x3faa6cffefdd5e1d	0.05161285212551212
103	0xbfb1d95ed375212b	-0.06972305929696591
104	0x3f83c41a9364dace	0.0096513820868557
105	0x3f96bfef27d85266	0.02221654587454438
106	0xbfbfcdd6e3726da4	-0.12423461010842246
107	0xbfbff95db7ce8b8c	-0.12489877450438608
108	0xbfb87f1ddb44a1d5	-0.09568964579796753
109	0x3fbfafac6f4829ec	0.12377431599467287
110	0x3fbcb657c261cd85	0.11215733047156647
111	0xbfc0dd49898aa819	-0.1317531510915735
112	0xbfc28a620b1b24e7	-0.14484811346327506
113	0xbf9c9718903a024e	-0.02792013531007092
114	0x3fa60e5d4aa5c064	0.04307834182952844
115	0xbfadc6cad0122215	-0.05815728940894275
116	0xbf991851ac6841d0	-0.024506832263854694
117	0xbfbcf585ab27a235	-0.11312137058815426
118	0x3fa07f3fcf35a641	0.03222083477414773
119	0xbf94bdd90cb7c288	-0.020255462075456282
120	0xbfbbe1bb85e213b6	-0.10891315477972693
121	0xbf851cd15d64af7e	-0.010308871901166358
122	0xbfc09fa544645628	-0.12987199630212953
123	0x3fc1ddec05ba4b2b	0.13958502082513155
124	0x3f9246844ea74c60	0.017847125340108128
125	0xbf906e56f6be4823	-0.016045912561431074
126	0xbfbda7a179962ecd	-0.1158390924303447
127	0xbf968f992b7d146e	-0.022032159118016308
128	0x3fb1081352cf8766	0.06652947208160995
129	0x3fa8f5782d4c2f49	0.04874778321217705
130	0xbfb500c777ba2d1f	-0.08204313920048321
131	0x3fbfd5756790c63b	0.12435086992697901
132	0xbfb15b934b8c93a7	-0.06780357927762158
133	0x3fa13d6f3cabbac8	0.03367183318720418
134	0x3fbeea5d25f88323	0.1207636087133435
135	0x3f9270b112a46abb	0.018008009684403286
136	0xbf9530d28f1fcae9	-0.020694055543525023
137	0x3faf10e0440178fa	0.06067562894962637
138	0x3fa386933b42dd52	0.03813610170748895
139	0xbfa1bd267fc26f5b	-0.03464622792782165
140	0xbfc205f5814b2896	-0.1408068543735836
141	0xbf79230ffbb35bab	-0.006136953768154744
142	0xbfb6bc90fc785d70	-0.08881479419539118
143	0x3f9c0c7e49ac0a6b	0.027391408201774697
144	0x3f905407686c8bec	0.015945544956718224
145	0x3fabaf02d2f8feeb	0.05406960320806128
146	0xbfb73577d5b759d6	-0.09065960853272456
147	0xbfa688bc41550ac5	-0.04401195809852746
148	0xbfb553d3fbdcee24	-0.08331036471366154
149	0xbfbc43dbc09c9802	-0.1104104371302981
150	0xbfa66dda0f254d5e	-0.04380685267337968
151	0xbfc2eaadf4b1e1a0	-0.14778685043326067
152	0xbf8cde0c95fb19c3	-0.014095400168469113
153	0x3fb44a5600db2220	0.07925927658937626
154	0x3fa0284aab3db3ca	0.03155740108818568
155	0xbfb24fda93156b69	-0.07153097239408414
156	0x3f83e19582b95c8e	0.009707611133462881
157	0x3f919f0469e97917	0.017208165134769162
158	0x3fc0448436382b56	0.12709095618660154
159	0xbfbc5bb065a25d1c	-0.11077406388573191
160	0x3fbae45102b85d01	0.10504633251581554
161	0xbfb4f6f28d64d706	-0.08189311935424479
162	0x3fa898a499507543	0.04803957339775391
163	0xbfb16add2a4071b9	-0.06803686410461908
164	0x3f9373baa6e6009e	0.018996159016297136
165	0x3fae0ece63336a32	0.05870671235034698
166	0x3fba3560b75c1a19	0.10237698055798496
167	0xbf91e1f53c55dcd4	-0.01746352368124067
168	0xbfbc6e2341e3a208	-0.11105556830046492
169	0x3facc0d6ab090f2d	0.05615874135813068
170	0xbfa62033b479ac24	-0.043214431553529914
171	0xbfbb89d81ba40dfd	-0.10757208514046819
172	0xbfb76fff1394fa0c	-0.09155267932963101
173	0xbfb98a9461383ed4	-0.0997708070137791
174	0x3fac896dfb229c26	0.05573600473990607
175	0xbfb35dd507f3f4b3	-0.07565051502384072
176	0x3f8c4daf2ed47aa6	0.013820046059263302
177	0xbfc1bad015b73441	-0.13851357517560994
178	0xbf9167bfc666b5e8	-0.01699733398861794
179	0xbfbfd31cf2eca393	-0.12431507998247886
180	0x3fc4d961267216bf	0.16288389565686676
181	0xbfb881096b935cf2	-0.09571894527777028
182	0xbfa5eccfcdda53be	-0.042822355154533906
183	0x3fc0dbccb3fa7d59	0.1317077521134518
184	0x3fb24bedac2c0a64	0.07147107556742466
185	0x3f98272501d06a36	0.023586824641919267
186	0x3fb82bdfc4022a75	0.0944194654022484
187	0xbfbf1862408eddc8	-0.12146581722378536
188	0xbf977383cd25b8c4	-0.022901591678810687
189	0x3faaf77a1831d65e	0.052669349149181185
190	0x3faba8d50f1dbe88	0.05402246293567453
191	0xbfc0d7b314025752	-0.13158262707718876
192	0xbfc414b11b8caf42	-0.15688146443550904
193	0x3fc22747414402ac	0.14182367979812704
194	0x3fba5d27573385c7	0.10298391226708424
195	0x3fb489d8dafaf2f7	0.08022837969015116
196	0x3fc35899b51b89e1	0.15114137023108667
197	0xbfc21de003e8c1eb	-0.14153671446685165
198	0x3fc02f37e817f637	0.12644099075980517
199	0x3fa38c4042804b25	0.0381794053247602
200	0xbfb2d7304e18003f	-0.07359601885400567
201	0xbfa15cb5007ed51b	-0.03391042357490389
202	0x3fc22a941e8c0728	0.1419243954806515
203	0x3f6b1e260406fa0b	0.0033102743620638856
204	0x3fb6782ddbe3bb87	0.08777128809354738
205	0x3fbf29fbae38a6eb	0.12173436168145783
206	0x3f9b0d275afd1da6	0.02641736500598104
207	0x3fb96244845f31fc	0.09915569526419427
208	0xbfb7878843e69aec	-0.09191180856451425
209	0x3fbaa329fd939a6a	0.10405218544802045
210	0x3fa88ef936bbd319	0.047965801173552154
211	0x3f97de5a615c67d1	0.02330914706462989
212	0x3fc3f4be89f5103f	0.15590650306887885
213	0x3fb7c44534d27778	0.0928385976753513
214	0xbfc13314a5a44227	-0.13437135780306272
215	0x3fc25a18618ab988	0.1433744884756829
216	0xbf98db8973c1b0cc	-0.024274966898176584
217	0x3fc43e701b1b0774	0.15815545390620012
218	0x3f734f6975d043c4	0.004714405015889992
219	0xbfc0ab0f30e43491	-0.13022031676556314
220	0xbfa38f3d1896bbd0	-0.03820219922214785
221	0xbfb02bafbfae20e7	-0.0631666033715451
222	0xbfc1cf1f2dc9c8d9	-0.13913335548165298
223	0x3fbccf31d841a77b	0.11253654031466269
224	0xbfb10451b2d955dc	-0.06647215477399676
225	0xbfb7974b1aef761c	-0.09215230376818123
226	0x3fad46d1963f2d85	0.057180928793594744
227	0xbfb379c4784f965e	-0.07607677399900001
228	0x3fbf236f010aea01	0.12163442397551451
229	0xbfa1165217bf1f84	-0.03337341823458842
230	0xbfbf2b4ada17282d	-0.1217543394515423
231	0xbfb5490214107d35	-0.08314526548246166
232	0x3fa45ad830c3afec	0.03975558848637192
233	0x3fc4477986bf6043	0.1584312351176341
234	0xbfbaff102b3c2fec	-0.10545445495171152
235	0xbfacfcdc7896307e	-0.056616677970937154
236	0xbfbbd03d8898db4c	-0.10864624581232113
237	0xbfc405154b9be14e	-0.15640512649384636
238	0xbfa69562a2e42518	-0.04410846937578067
239	0x3fb4364b71f6a071	0.07895347149190159
240	0xbfc3b1a231e74d71	-0.1538584464711721
241	0xbfb00b7928e446bf	-0.0626750683625472
242	0x3fc2745456d1cf9c	0.1441750930713369
243	0xbfb9bc12323a3fa8	-0.10052598692186498
244	0xbfc03bcb156610bc	-0.12682474655969667
245	0xbf782cd560ee3ab7	-0.00590213156728108
246	0xbfa2cb8f03fd947d	-0.036709279286506004
247	0xbfbb168d40d52fc2	-0.10581286270934157
248	0xbfbbff22cd644fbd	-0.10936181559037457
249	0xbf8a47ab10206fb1	-0.012832008771560629
250	0xbfc36dd15c96f6dc	-0.151788873872582
251	0x3fc2ca7b79cd8a4b	0.14680427024275597
252	0x3fb649fccfdcd5f2	0.08706646036883806
253	0xbfc235d02dd27498	-0.14226724851042571
254	0x3fbc5b547aeb8d07	0.11076858521441944
255	0xbf970ce33bbf4f96	-0.022510099908529556

fc.0.bias f8 [100]
0	0xbf99814728c1d184	-0.02490721880208603
1	0xbf75c061851c1ef3	-0.005310421883912164
2	0x3f83f967f6411138	0.009753048136311379
3	0x3fc0702610b8e2cf	0.12842250648988915
4	0xbfb4ec8734c29c79	-0.08173413312998602
5	0xbfa60342217ad1e6	-0.04299360903442899
6	0xbfc3248bab4a2b8a	-0.14955278266674227
7	0x3fc3d9b67aa23e1d	0.15508156764961792
8	0xbf95a2f8d4dad4a1	-0.02112950133478775
9	0xbfc116fcf6abdbfe	-0.1335140423250038
10	0x3fac3c39f77f2e99	0.05514699121667128
11	0x3fa7859768f45c69	0.04594109684165277
12	0x3fc61a54b8505954	0.172678556439403
13	0x3faad94e2fd4ee11	0.052439158762776945
14	0xbf4e867ffce6f02b	-0.0009315609875595368
15	0xbfb8780aa4006bb0	-0.0955816889185559
16	0x3fc6a5f2a39800a3	0.17693932521797703
17	0xbf87ad968e69a374	-0.011561561795319732
18	0xbfb9008bab4f26e4	-0.09766457493165209
19	0x3fc56253d2c1af6a	0.1670632151684644
20	0xbfb433b4f1b13587	-0.07891398335160292
21	0x3fc13228b49905c0	0.13434323137520998
22	0x3fac07a15d0faa30	0.05474571476937162
23	0x3fc481bcc8610758	0.16020927223331216
24	0x3fb47c16d39c3aa3	0.08001845041529036
25	0x3fc895d0f1bc560c	0.1920720272398032
26	0xbfc090ad8cf1c5f9	-0.12941522008945563
27	0x3fb1ddf576390edf	0.06979307304669245
28	0xbfabc168de2b71c7	-0.05420997345001726
29	0xbfc3f8a1279fc6b7	-0.15602507052203915
30	0x3fc158e863a70ed9	0.13552574983451995
31	0xbfbdeb72abc25bc2	-0.11687390034999992
32	0x3fc004842c1ccb88	0.12513782648019522
33	0x3fafacae2174b87d	0.06186432035825449
34	0x3fc2f8b5b8f1ca43	0.14821502237789916
35	0x3f928f9b11471b9a	0.018125937394667703
36	0x3fc20ea7dcf58321	0.14107225693717232
37	0xbf91e1e062c81393	-0.017463212994715937
38	0x3fc947d0215a8e52	0.19750405911064434
39	0xbfb448cddc973797	-0.07923590312495175
40	0xbfbbe5363ac98452	-0.10896624503358623
41	0x3fa37c6c7889ab07	0.03805865260513568
42	0xbfb5f3de1c0220f3	-0.08575237449452171
43	0x3fa51ec5785ecb9f	0.04125039190639445
44	0xbf7c6c9df60ab4b0	-0.006939522777128435
45	0xbfa37ab87e57a564	-0.0380456594683192
46	0xbfb2f4f29642fc9b	-0.07405010384080628
47	0xbfbc2787e1558d47	-0.10997819186518597
48	0xbfb191cd33132d08	-0.06863100525804466
49	0x3f9dd07c8a8d02f1	0.029115625339957544
50	0x3fc9f9787d720a5e	0.20292574048297046
51	0x3fbbd2e10c5b1ed5	0.10868650962504074
52	0x3fb7d0b6e2a04472	0.0930284789358369
53	0x3fa0cb6c984c9d7c	0.032802003470631086
54	0xbfa4aba2294da3f5	-0.040371959249405544
55	0x3fbdf5e29b12bd02	0.1170331600758239
56	0xbfafcd8ae7782eb5	-0.062115040545987744
57	0x3fc8160a450a4108	0.1881726109609263
58	0x3f8ed07ff331cba9	0.015046119317252709
59	0x3fb6df5e965aadb1	0.08934584780461453
60	0x3fb24ecbd48bc966	0.07151483477699613
61	0x3fa404b7e57945a8	0.03909849811737881
62	0xbfa971910e3da6fd	-0.04969456957662819
63	0x3fc494ed5a3c02ad	0.16079489618279777
64	0x3fc8bc87f52d3769	0.19325351211085298
65	0xbfbe48302b409f45	-0.1182890039059404
66	0x3fb7f6d41981dfba	0.09361005423295313
67	0x3fa6534fb04230bb	0.04360436464875891
68	0x3fc92b5c3d3f474e	0.19663575163445518
69	0xbfb528027a1e04c2	-0.08264174920442982
70	0x3fb841ed866f0919	0.09475597889016675
71	0x3f8c568921b2259c	0.013836928692643018
72	0x3fc05a072aa7812d	0.12774743635874
73	0x3fc4117378e081ee	0.15678256418415465
74	0xbf9907e5e9257ff2	-0.024444191317684223
75	0x3fb419322483526c	0.07850945846014107
76	0xbfb8d3ee51db45d2	-0.09698380945635357
77	0x3fc987fe52350371	0.19946269048707735
78	0xbfba5cca79b9e7c9	-0.1029783770735825
79	0x3fc351c351069edd	0.1509327073701944
80	0xbf90ced9b8bd79f9	-0.01641407194198938
81	0xbf9f62ec92564551	-0.030650803024007193
82	0x3fa246d23049ea4f	0.035696571726437136
83	0x3fc246154b2417b9	0.1427637688540793
84	0x3fbcb82c12560a3f	0.11218524406107465
85	0x3fc3180636f19c13	0.14917066271593224
86	0x3fcc4a163950b110	0.22101095007509075
87	0x3fce22ab4f18e44f	0.23543301927728286
88	0x3fb4c476048f94a5	0.0811227570662419
89	0x3fa8c7b1da7f2b78	0.04839854995915166
90	0xbf94525529f966a4	-0.019845324217704033
91	0x3fbabbc90ca7c838	0.10442787703485201
92	0xbfb0c168126ae1ab	-0.0654511494602789
93	0xbfb7cc2fcc53bb41	-0.09295939196065907
94	0x3f7591561f4a7abf	0.005265556731187614
95	0x3fbe63309a446d85	0.11870101705829057
96	0xbfae0a4567070762	-0.058672112299531745
97	0xbf74d0ca7b74de26	-0.005081931062981526
98	0xbfa0d9b0a32302f2	-0.03291084281364033
99	0xbfbb0f35629692d1	-0.10570081383645948

fc.2.weight f8 [100, 100]
0	0x3faa8ccae951e638	0.051855412465510786
1	0x3fb458f1167d12cb	0.07948214339291863
2	0xbfb56230b027272d	-0.08352951336487698
3	0x3f660bb0806dad46	0.002691120843726277
4	0xbfa2ac1d19239a9d	-0.036469373053298094
5	0x3fa289d4a6b0760c	0.03620781454831609
6	0x3fa02636791cb489	0.031541540416904
7	0x3fab889c90141f41	0.05377663859149929
8	0x3fb7e72221c7b592	0.09337056469640562
9	0xbf7dfc903634fde2	-0.007320941283353007
10	0xbfa1b486c3813c54	-0.03458043228658228
11	0xbfb7808e287d1bb8	-0.09180534828656917
12	0x3fb39da31686c280	0.07662410068474834
13	0xbf9574f52934e9ea	-0.02095397056585028
14	0xbf9830e942cf8739	-0.02362408132820024
15	0x3faa5e1ca270db53	0.05149926646156779
16	0x3f99840af460f632	0.02491776577539024
17	0xbfa29cc4df59e613	-0.036352302803560964
18	0xbfb1712495920c6b	-0.06813267375587066
19	0x3faac578001ba1a6	0.0522878170139081
20	0xbfa585eb369dac24	-0.042037344376545854
21	0x3f8847cfc383dd6e	0.0118557197133515
22	0xbf9b2f10063cb017	-0.026546717053108262
23	0xbf9b87ce3dd0fa1a	-0.026885244868248483
24	0x3fb59805e0e2ea16	0.0843509363211655
25	0x3fb7c555cc0cb477	0.09285484534912479
26	0x3fa74dfcb96c419a	0.04551687015021173
27	0x3fa98438b9675380	0.04983689559200055
28	0xbfa37e0efce4e4af	-0.03807112538420065
29	0x3fb935ba541efa86	0.09847607187018967
30	0x3f916db32ea59ef0	0.017020034525017047
31	0x3fb6c91edc657069	0.08900635605590569
32	0x3faaac0d8ddd8590	0.05209390980486284
33	0x3f506a383c2fd190	0.0010018872424072157
34	0xbf89cce8f0b5ad40	-0.012597865911365802
35	0xbfb3501d1f22e92d	-0.07544118890919967
36	0x3f660d5f1d5f5f0b	0.0026919229230592027
37	0x3fa417de3123861b	0.039244597910293964
38	0x3fb86cfc62bfb283	0.09541299258098417
39	0x3fac66f1cb631463	0.05547290427924947
40	0x3faf840b13a9f1a8	0.06155428519284395
41	0xbfb6648a24451a03	-0.08747161279197972
42	0x3fac40adef5b1ed2	0.055180964916471745
43	0x3f5cbdf188f2727d	0.0017542704334011776
44	0xbfb565859e32f4f2	-0.08358035194665428
45	0x3fb05929f2f42892	0.0638605325840749
46	0x3f828a41c7587828	0.009052766700786988
47	0xbfa20b19fe9fd481	-0.0352409480400775
48	0xbfad3a0b20a770ce	-0.05708346150979225
49	0xbf759210f4550df0	-0.005266252735342189
50	0xbfb02664010d2857	-0.06308579469364993
51	0xbfb28937f953b225	-0.07240629040797637
52	0x3fabca9620858730	0.05427998682968249
53	0x3f945154f0706d59	0.0198415061714575
54	0x3f73d4deca88ee6d	0.004841680791794906
55	0xbfb6505507c2725e	-0.0871632713264687
56	0x3fa283e21d05e7e8	0.03616243938718339
57	0x3f86d2da563ed572	0.011144357449533546
58	0x3f954d4bad5316c2	0.02080267186536023
59	0x3f55277311dd0221	0.0012911437729173985
60	0x3fb8b4f777a49d38	0.0965113322350718
61	0x3fb21586d5338f7a	0.07064097123253346
62	0x3fab87685998e471	0.053767453133738104
63	0x3fa0265e75e32a18	0.03154273213438702
64	0x3fb3ccb9b1302fe2	0.07734261108288323
65	0xbf83e6cab01214fd	-0.009717544077157298
66	0xbfb0efe89bcea04a	-0.06616071514020053
67	0xbf9b3f1ed8447bc0	-0.02660797305099627
68	0xbf9fad6fe9a96aff	-0.030935047756751818
69	0x3f97dc0015ebff19	0.023300172174457765
70	0xbfab2de2cd2e7d49	-0.05308445696504777
71	0x3f94936a913ba1bb	0.020093598474802948
72	0xbf9bd7a3cfd76365	-0.0271897883993434
73	0xbfb15e16684ebd91	-0.06784191176006106
74	0x3fb395818d5d197b	0.07650003148328281
75	0xbfa888fb273d5799	-0.047920082607262056
76	0x3fb4647c2e3d6e45	0.07965828064828269
77	0xbfb74e5db6022308	-0.0910395211559597
78	0x3fb6afb6de80fedc	0.08861868793701028
79	0x3fb904342deba3d3	0.09772039528947056
80	0x3fb3510d9b82fd3c	0.07545552298232833
81	0xbf9b361b90a9cc8b	-0.026573591904206977
82	0x3fa0b6174075d686	0.032639242762269524
83	0xbfaa4b49bd0da7c4	-0.051355652168083604
84	0x3f811a67ae290bce	0.00835114479298751
85	0x3fb278de2cc4fc90	0.0721567973423467
86	0xbfa65fdb84d478ba	-0.04370008465251503
87	0xbfae9bfbf5938663	-0.05978381512410349
88	0x3fad153921e62448	0.05680254496389431
89	0xbfb626656b977964	-0.08652337910414115
90	0xbf96fbd574959c1b	-0.022445044747112158
91	0x3fb50a94f6ed887d	0.08219271687042524
92	0x3fa13f3427a39c85	0.033685331190832314
93	0xbf70e10f5ffee287	-0.0041208839974663574
94	0xbfb51315ed8a1796	-0.08232247399618439
95	0x3fb087ab7c92f433	0.0645701579223477
96	0x3fa1e1f7d14bd880	0.034927124308453905
97	0x3f7026e81911dd87	0.0039433542561860884
98	0x3facbcadb03820ed	0.05612700248826905
99	0x3f6ec684af8d1ed3	0.003756770278787383
100	0xbfaef1880defb959	-0.06043648882028902
101	0xbfa5c32368517743	-0.042504412159117176
102	0xbfb1690b149c72d0	-0.06800908330155697
103	0x3f577674e1ca6a2d	0.001432050840924358
104	0x3f48f8e2a1681a84	0.0007620913118565197
105	0x3fae947c5132e808	0.05972660533139168
106	0x3fb6b8e2e0dfb6db	0.08875864019475037
107	0xbfb5db1a9b27972f	-0.08537451065020883
108	0x3fa534df8539c794	0.04141901494303038
109	0xbfb40a31ead34d1a	-0.07828056319276691
110	0xbf91b8e8188975bf	-0.017306925294510608
111	0xbfa62052e4e7aa9d	-0.043215361063478876
112	0x3f93a65511fb5f67	0.01918919489148099
113	0x3f9641f1a11a4f4d	0.021735930879528898
114	0xbf8f6ded16a33cb0	-0.015346386197420209
115	0xbfa6956a9b5c36f7	-0.04410870691763862
116	0x3f74245d280dade3	0.004917491810242566
117	0x3f9bd3dd0099fa68	0.027175381814681293
118	0xbfae3cb197718c66	-0.059056806313287066
119	0x3fabcef969275a4a	0.05431346329321636
120	0x3fb2882625336316	0.07238996895047153
121	0xbfa4ca122bed7f1c	-0.04060417925097523
122	0x3fb5e54f7ac27cfd	0.0855302500444743
123	0x3fb44aa0c0d91665	0.07926373203471256
124	0xbfb7a41ad9ec4b5a	-0.09234779186617229
125	0xbfb21e5f67872e35	-0.0707759502176309
126	0xbfa8fc620a1bdd62	-0.048800529226293646
127	0x3faa8d3d66f0a760	0.05185882455437141
128	0xbf8183c9a692f8f1	-0.008552146335543106
129	0xbf9e1b62960032f0	-0.02940134087116325
130	0x3fb78475c31700c0	0.09186492932258528
131	0xbfb68453291804a7	-0.08795661690966715
132	0xbfa86a44fb0eff0a	-0.047685771605300145
133	0xbf474308a6d25050	-0.0007098953480118107
134	0x3faa3466de2389c4	0.05118104421287087
135	0xbfb3e6406d3bb599	-0.07773211161448614
136	0x3f87ae21149ea615	0.011562593881381958
137	0xbfb7aa10c06bd706	-0.09243874261650484
138	0x3fa577052249d063	0.041923675952518356
139	0x3fa5b4c78d474c91	0.0423948631247636
140	0xbfa4460cf8c199b2	-0.03959694420409522
141	0x3fb8ddc1ff513316	0.09713375552491885
142	0x3f99f5de8bbf8f23	0.02535197952228353
143	0xbfb37f374c321d72	-0.07615991220710841
144	0xbfb86007c0b7dbe5	-0.09521530585321576
145	0x3fb2a5b33d4efdac	0.07284088370123837
146	0x3fa071fdcef6ece4	0.032119685663440284
147	0x3f911aba6218b13b	0.016703521954853456
148	0x3fa26993732e5e61	0.03596173077602028
149	0x3fb103205d585859	0.06645395544941958
150	0x3fb12db73a0b70d5	0.06710381667238903
151	0xbf7c2e87520c1c84	-0.006880310626690481
152	0xbf4c20f359492237	-0.0008584202028681435
153	0xbf8354c749891bfb	-0.009439045840862184
154	0x3fa2e9139624158b	0.03693448264861406
155	0x3f97502d6ff9c18c	0.022766790351342034
156	0x3fb7b10ea3f64961	0.09254542830448066
157	0x3fa85e18682b5d1e	0.04759289046858782
158	0x3fb2ae02799b38e7	0.07296767681984627
159	0xbf8099db4d76267a	-0.008105958272398118
160	0x3faacbf062f91495	0.05233718116918699
161	0x3f99ceb152d37302	0.02520253246335625
162	0xbf9b4e6b381eafe9	-0.026666331577572953
163	0x3f938da7b9a03a6d	0.019095059113221447
164	0x3faa40a0c1d31102	0.05127432218572105
165	0xbfabd705a835dfd4	-0.054374863418103964
166	0xbfb9bc8603fa3c50	-0.10053289029222978
167	0x3f98a4134a632777	0.024063397803537136
168	0x3fa75ddc51aa62ce	0.04563797470945517
169	0xbfb74dc9591621c2	-0.09103067803346845
170	0xbfa36d34e75896f3	-0.03794255565689566
171	0x3f9d299108b6e05f	0.02847887626350631
172	0xbf986a7f2825b89b	-0.023843752694511094
173	0xbf7dec34c15bcb4d	-0.007305341792504927
174	0x3fb6002097611101	0.0859394425943414
175	0xbfaccccd8b34ac66	-0.056250022166147315
176	0xbf98574105597389	-0.023770347548964153
177	0xbfa9ed380404e037	-0.05063796090183852
178	0xbfa7cd4711353982	-0.04648801884706001
179	0xbf9f088973201c72	-0.030306003238390784
180	0x3f8e0a94e17aa27f	0.01466862023456028
181	0x3fae81bfb0bba1d8	0.05958365471252919
182	0xbf8acd2fdff5aae6	-0.01308667566509798
183	0x3fa97110b34121b0	0.04969074428715048
184	0x3fb3dc5f00ca0987	0.07758134621875544
185	0x3faad49906fa74cb	0.05240324220833655
186	0xbf49be96685c6a40	-0.0007856592571642909
187	0xbfb2108abf601bc5	-0.07056491062404209
188	0x3fb1dd8686144ed0	0.06978646062298854
189	0xbfa37c15e51e8040	-0.03805607244362408
190	0xbfb145bd82c4b639	-0.06747040217006707
191	0xbf98f568006a3f42	-0.02437365057500008
192	0xbfa6a50ed31f78c5	-0.04422804190811428
193	0xbfb43e3a32a39a8a	-0.07907451378160082
194	0xbfb5d483d676f230	-0.08527397142365412
195	0x3fa2fe30c0fb42fb	0.037095569188414466
196	0xbfa3848005a97eae	-0.038120270434544565
197	0xbfb1dcf52cc009d2	-0.06977779715092616
198	0x3fb4c5a8270d7e79	0.08114100411830262
199	0x3f685172ef9ad2ef	0.002968525394715697
200	0xbfa067b499756356	-0.03204120991967467
201	0xbf9c874c4ca0cafa	-0.027859871079452404
202	0x3fb210c173057862	0.07056817110194083
203	0xbfb654ad2dea5e21	-0.08722956057533128
204	0xbf92ee8558246649	-0.018488009934207992
205	0x3fb182212266613f	0.06839186754075842
206	0x3fb62d055e156795	0.08662446543658427
207	0x3fae0a9a65892f99	0.05867464532329265
208	0x3fb89b93d05fe294	0.09612392270345033
209	0x3f90c5133855cf32	0.016376781762530608
210	0xbfb6d7c3190d63c2	-0.08922976838711263
211	0xbfb2db11d9779e13	-0.07365523871668982
212	0x3fa42fbbed6be891	0.03942668221675761
213	0xbfb32c8fcef53caa	-0.0748987083691072
214	0x3fa591227747eb18	0.0421229143721204
215	0x3fb51d6ee382a699	0.08248036436512009
216	0x3fb155ba23cdf8e1	0.06771434187064386
217	0xbfb4b07171a223ac	-0.08081730865718723
218	0x3fb3b5b978ec81f3	0.07699164583437561
219	0x3f8f081c9eb486d3	0.01515219077424793
220	0x3fb555b46ed9c5cc	0.08333900171580594
221	0x3fad2bfc578e8830	0.05697620934303449
222	0x3fa190c0df324d92	0.034307505841890365
223	0x3faeae2474721e43	0.05992235108811574
224	0xbfb0f21de55968ea	-0.06619440888735864
225	0x3fafebd5368a2522	0.0623461369587608
226	0xbf92234980cc5b55	-0.01771273468610997
227	0x3f95156474a612f4	0.02058941804854704
228	0xbf97a8547a9b7ace	-0.023103065474851907
229	0x3fb0e081b834131a	0.06592570063737604
230	0x3fb47879caeec7fd	0.07996331409847808
231	0xbfb0b70324c5e43c	-0.0652925457742563
232	0x3fb5b32614e1f886	0.08476484308082108
233	0xbfb4adfaa2ce88cf	-0.08077970957541257
234	0xbfaf2e43c075fd87	-0.06089984630943506
235	0x3fb1be2ed836fd16	0.06930821207696555
236	0x3fb086486afaad31	0.06454899417683603
237	0xbf769505f1c893dc	-0.005513213368009109
238	0x3fb735db5674108f	0.09066553936651388
239	0xbfb8e14156d12404	-0.0971871220546206
240	0xbfaaf5c5c3ae7bca	-0.052656345498000315
241	0xbf82e57a2630b42c	-0.009226755419229425
242	0xbf93ba98552968c5	-0.019266491124974267
243	0xbfb5e068ce1201c1	-0.08545546561254637
244	0xbfa4145f3caec7b2	-0.03921792617565191
245	0xbfb56f7ba392cb33	-0.08373234504214792
246	0xbfb2ca642fed53aa	-0.07340074701399027
247	0x3f7613e5fdcf5f26	0.005390070346912334
248	0xbfae383562307336	-0.059022587047570615
249	0x3fb0974c02867ffb	0.06480860768942868
250	0x3fa51bf439d8defa	0.041228897153301206
251	0x3f94985a5b7fa2e8	0.020112430414800736
252	0xbfb6e6f7623848f8	-0.08946176670022854
253	0xbfb86722b666f427	-0.09532372430017287
254	0x3fa16085e75813e5	0.03393953751587001
255	0xbfb614f94bf15995	-0.08625753501960383

fc.2.bias f8 [100]
0	0xbfb4b475c0564074	-0.08087860055661783
1	0xbfb207385f0f6656	-0.07042267151646206
2	0xbfb2fa11047aa9c5	-0.07412821158747025
3	0x3fbc192eb8a02ca7	0.10975925452673839
4	0x3fb556c5c4dcee98	0.0833552938101384
5	0x3f75dc6c61f430c5	0.005337165231378009
6	0x3fb8f88e3c8e1dae	0.09754265764615042
7	0x3fb3b8b06b218e3d	0.077036882548378
8	0xbfac4f95e574257d	-0.0552946894259305
9	0x3fa1b9e2e30bb0c7	0.034621324744735164
10	0x3fae987d3a075534	0.05975715001447171
11	0x3fc38d02ff7206e4	0.15274083588524612
12	0xbf6c015da5830c7d	-0.0034186200174147184
13	0x3f99bb728d629575	0.025129117850743527
14	0xbfb4e767c5f0f3b1	-0.08165596563863066
15	0xbfa70be600add6bc	-0.045012652953045657
16	0x3fcdc8080de9e940	0.232666975778395
17	0x3fb76d9cb22377d6	0.09151629780851009
18	0xbf990beb9fdcf447	-0.024459535248059685
19	0x3f964105a6f16e68	0.021732414545438422
20	0xbfb7e0da571adc30	-0.09327473284325616
21	0x3f506e18d7139d27	0.0010028116778871361
22	0xbf85dfaca3941a1c	-0.01068053125574147
23	0xbf8b5a0578d2b1ef	-0.013355295896269019
24	0x3f9b3c8dbb5416fc	0.026598181303618226
25	0xbfacca3ced3e8025	-0.056230453453509
26	0xbf927b466dbca468	-0.018048382232482757
27	0xbfb0d57879f43e76	-0.06575730302233204
28	0x3fafc01c14261d4f	0.062012555560665754
29	0x3fc1ab7dd5918055	0.13804600647108836
30	0x3f9a6e5a4c55a424	0.025811587246980974
31	0xbfba195e12857f03	-0.101949576875537
32	0x3fc165afc00e5588	0.13591572644933714
33	0xbf9d94efe17efa35	-0.028888462198432847
34	0x3fae60ff3f558c14	0.05933377884027649
35	0xbf5472da101d50d5	-0.001248085929963107
36	0xbfb025f1bdc2abbc	-0.06307898409674711
37	0x3fb9b6f3ee69a782	0.10044788904784066
38	0x3fabea2a12955b0e	0.05452090718124768
39	0x3fbeb0f08328a8de	0.11988738252754014
40	0x3f997abd41dcf85d	0.024882275719612646
41	0x3fa4566b5a0f7578	0.039721827262591825
42	0xbf9cbc06d27366fb	-0.028061014742752893
43	0x3fca0d124b325115	0.20352390929895905
44	0x3f85baa016a32efd	0.010609865847434724
45	0xbfb97803bf731d79	-0.09948752807678386
46	0x3fabfc1bf8962902	0.05465781602386423
47	0xbfadc0b12844dc1a	-0.058110748448989294
48	0xbfa419ef626d6fc6	-0.03926036907679946
49	0x3f88893f36705a6b	0.011980527733652843
50	0xbf9060c5e639c839	-0.01599415986715533
51	0x3fb28ac143345fd8	0.072429732234354
52	0xbf7983a1f73ebaa6	-0.006229050330076069
53	0x3fbc6e136fcbab46	0.11105462531456309
54	0x3fbe75852f578a1f	0.11898071676072462
55	0xbfa54df803de3082	-0.04161047980514444
56	0x3faf6f5e26557fba	0.061396543673935836
57	0xbf77171dded9cafb	-0.0056372801606012725
58	0x3fb61d71367a8d95	0.08638675289198823
59	0x3f4336eaf558fd49	0.0005863806970366837
60	0x3fc2ca055df7a4ad	0.14679019058465795
61	0x3fac6db4690b2ebb	0.05552448065063006
62	0xbf9d7f44f581eea6	-0.028805806622115647
63	0x3fa622ddb012add2	0.04323475622490104
64	0x3fc5ca1135fc52ec	0.17022910247819512
65	0x3faeaceb179a4f85	0.05991301215286086
66	0x3f4db8db7b1d1ee0	0.0009070464786668751
67	0xbf88d59ff4683d95	-0.012126207014289384
68	0x3fb07dbf01fdbed1	0.06441873358357532
69	0xbfb84590ade32d54	-0.09481148000047784
70	0x3fa718cd4d710a82	0.045111098960224374
71	0xbf8e2e4f1310bcda	-0.014736764687852167
72	0x3fad406138f37206	0.05713180370523578
73	0x3fa3b4dc5e0eef47	0.03848923347638205
74	0x3fc444330cc3c8de	0.15833128093033272
75	0xbf843dadf3acfe29	-0.009883269308942637
76	0x3f9a9b9de8fedae6	0.025984256120603975
77	0xbfb26cda83c84a04	-0.07197347371428725
78	0x3f48439ca6cb4f0e	0.0007404818439575593
79	0xbfa70f73c230a220	-0.045039765791731634
80	0x3fb31a7ca6030227	0.07462290814420013
81	0x3fc0f7dfba6a5474	0.13256451227485722
82	0x3fc3eb82ef7df470	0.15562473958917478
83	0x3f89e1542581c66f	0.012636811632748405
84	0xbfaea465c7c02e32	-0.05984800399172875
85	0x3f7df3e1e2cc31ef	0.007312662474543859
86	0x3fa2fa0398401c23	0.03706370576406239
87	0xbf82624ed25b8913	-0.008976569933512956
88	0x3fab89525baecd15	0.053782056514501665
89	0x3f4e6e31fa6f0291	0.0009286636385397886
90	0x3f9982e9398f2f98	0.024913448465482796
91	0x3fc0537a3d5a6ded	0.12754753108752884
92	0xbf6b32dc01a00af3	-0.003320150089167634
93	0x3fa42e168baa57b5	0.03941412405872261
94	0x3fcd1e840a49accf	0.22749376776059768
95	0x3fa28ed24fea9a58	0.03624589181463439
96	0x3fbee0c218f5e411	0.12061703786265833
97	0xbf84e6f08edc663f	-0.010206107482690572
98	0xbf83efe45c1b4978	-0.00973490148627286
99	0x3fb3f57a3a66abb5	0.07796443868453092

fc.4.weight f8 [100, 100]
0	0x3fab825f9239e82d	0.053729044532659344
1	0x3fb72a38ec787365	0.09048801205831365
2	0xbf94fa85f735d3b4	-0.020486920560376112
3	0x3fb45b8e2c025b4b	0.07952202391093725
4	0x3f8ce40e5354dc74	0.01410685722167513
5	0xbf9fec9cf6e8c884	-0.03117604500784711
6	0x3fb3bdddf512de51	0.07711589081997629
7	0x3f7f1a3c9c19012d	0.007593380696164592
8	0xbfb1e94e9121ced7	-0.06996623080504648
9	0xbfa9316d6a58408d	-0.049205226165328055
10	0xbfb84f8b1eae4b9c	-0.09496373652500129
11	0xbfb86331c97d6893	-0.09526358765779923
12	0xbf971cc0edb7da0f	-0.022570623883405413
13	0xbf884dd6073748f8	-0.011867210478986298
14	0x3f9e2af470156f48	0.029460734692619256
15	0xbfad926a730ba0cf	-0.05775768904078548
16	0x3faf54795f6dd5c5	0.06119136133103668
17	0xbfb47cb5bf3c63aa	-0.08002792281003104
18	0x3fb2cb354dab37fe	0.07341321130954268
19	0xbfa9a870f868ee6a	-0.05011323006007447
20	0xbfad74e47ad79f64	-0.05753244399585247
21	0x3fb5d02502dac5c2	0.0852072841614904
22	0xbfa88138a94574be	-0.04786088053035929
23	0x3fa158c1e6a99570	0.0338802904196126
24	0xbfb8801331174210	-0.09570426891810535
25	0x3fb5c7f9c43c680e	0.08508263626973209
26	0x3fb15069ed3dc1bf	0.06763326684973146
27	0x3f7f5f88e78d9e54	0.00765946844408168
28	0x3facbeec18170e04	0.056144121113472806
29	0x3fb03052b82e3cc5	0.06323735233876267
30	0x3fb7df989d3f758e	0.09325555647907022
31	0xbfb63bf2b744ce6a	-0.0868522355493099
32	0xbfb1f72c6622a102	-0.0701778172830281
33	0x3faef471ba1ca747	0.06045871159433474
34	0xbfb4b8d167f634ab	-0.08094509876373716
35	0xbfa058243f46d086	-0.03192246696872396
36	0x3f9c45af87314297	0.027609579683771725
37	0xbfa3fd4a7fe1807a	-0.039041832075555186
38	0x3fb8b10ce8df1af5	0.09645157513942222
39	0xbfb8a171b7fc7d90	-0.09621344320156866
40	0xbf8b849149408951	-0.013436446235634366
41	0x3fac7f25707fb0b6	0.055657548887979955
42	0xbfa5c18216b67fc6	-0.04249197509056972
43	0xbfa08782d7b9eccb	-0.03228386767747223
44	0x3fac6f93490525fa	0.05553875223501943
45	0x3fb45609e0000000	0.07943784445524216
46	0x3fa9f09d2713cd09	0.050663863201316835
47	0x3f7bffacf780ebdb	0.006835628177266319
48	0xbfb817d43db9289c	-0.09411360270419994
49	0x3f918b804f6ce0fb	0.01713371739171608
50	0xbfa5814fabaf194c	-0.04200219126464563
51	0xbfb49d54e7f1e927	-0.08052569067686886
52	0x3f9a451c54240221	0.025654261241472413
53	0xbf96e0406f34d328	-0.022339827334877743
54	0xbfb21c08c6cdd01d	-0.07074026921856143
55	0x3f9ba462cc8a415a	0.026994270071157934
56	0x3fac9d4a07e48705	0.05588752123209243
57	0x3fa54a9e3e17bdd3	0.041584916190796094
58	0xbf8380b56eca94c3	-0.009522836154540198
59	0x3f937e859ee8a357	0.019037330459613724
60	0xbfa710cbf8aa3d69	-0.04505002413236065
61	0x3f981ac42e3ce47c	0.023539605447898
62	0xbf98b1d6e4758763	-0.024115903562580764
63	0x3faad4172dbe04dc	0.05239937241914003
64	0xbf8866286eb9c402	-0.011913600806311212
65	0x3fa55030c70c0b7c	0.04162743024610102
66	0xbfb20dd1153dfb8e	-0.07052332657438695
67	0x3fa7f8b843903408	0.04681945633647194
68	0xbf8817dff8ffb941	-0.011764287744850168
69	0x3fa28de000000000	0.036238670349121094
70	0xbfb5843e9bf59d32	-0.08404914195636051
71	0xbfb0bceae3673f5a	-0.06538265277708658
72	0x3fa2190288db3a11	0.03534706040010261
73	0xbfb7cfef9558f972	-0.09301659961872646
74	0x3fb34249efd8782a	0.0752302370605952
75	0xbf885086a66f0c81	-0.011872341112285635
76	0x3fb86d7154378913	0.09541996294095538
77	0xbf78e67e4043cc9d	-0.006079190414527561
78	0x3f7a2c23c49b7ac6	0.006389751166095697
79	0x3f96e5730576e598	0.022359654625437736
80	0xbfb2e9f8cff22c96	-0.07388262821966615
81	0xbf8656f4ab2bde87	-0.010908042405829889
82	0xbf76f382b1f2de99	-0.005603323486120048
83	0x3fa5adaecf2fb9cf	0.042340719977676515
84	0xbfae0266244f4908	-0.0586120528529524
85	0xbfb1fb7a1abfc59d	-0.07024348404936238
86	0xbfa0887d48225f0d	-0.03229133134408189
87	0x3fa1e6cd89b5a417	0.03496401124977682
88	0x3fb8a1837f27b37f	0.09621450285312781
89	0x3fb78b349ecdccad	0.09196785809563109
90	0x3facb5632816ef78	0.05607137550711533
91	0xbf66b61dac4f8844	-0.0027723865082274497
92	0xbf97fc99e1eea532	-0.023424534239585522
93	0xbf9129513a4f4815	-0.0167591754760182
94	0x3fb1d3b3c6cefe58	0.06963657001232926
95	0xbf9ddc5b90b72b18	-0.02916091032765697
96	0xbfb76d4e7058a2a0	-0.09151163332775036
97	0x3fa00dcb1a0d93e6	0.031355235033323756
98	0x3fa55801f4e46c16	0.04168707003028531
99	0xbfad578548fcb894	-0.057308354529923694
100	0x3fb8292806c255f9	0.09437799611108479
101	0xbf8fac302f94b11c	-0.015465141727496738
102	0x3fb6a3bd954faeb1	0.08843598265928666
103	0x3f89c70869f90552	0.012586656316787046
104	0x3fb50c42b6cffdac	0.08221833193964895
105	0x3fb597e1783f99a7	0.08434876619103325
106	0x3f8e89ef724415d4	0.014911528277035048
107	0x3f72fa273eed44ce	0.004633096031129115
108	0x3fb63f6be0132816	0.08690523357941546
109	0x3f98d8dab661b971	0.024264733678529497
110	0xbf9a82e57fdcbf39	-0.025889955453009626
111	0xbf7f9f2af9db33a8	-0.0077201536893882
112	0xbfa6d60ea5582038	-0.04460187691080403
113	0x3fafaf820d73234f	0.061885894910637
114	0xbef27efe6d14191c	-1.7639226659782033e-05
115	0xbf52242f0d70707c	-0.0011072597024002475
116	0x3f6ad8f1c23b7cb8	0.0032772752618793442
117	0x3fbca6207224de68	0.11190989290923314
118	0xbf80c79319fbe81a	-0.008193158369511667
119	0x3f9aa8281fa9c697	0.026032092030112777
120	0xbf9d68f55458be51	-0.028720696709738928
121	0x3fb6bffaa9c1271c	0.08886686939618155
122	0x3fb85363c16e4232	0.09502242538861408
123	0xbfa722a39ce9c25a	-0.04518615045970327
124	0x3fb4cb27556ad538	0.0812248786486024
125	0x3fb856525c2f5692	0.09506716490371961
126	0xbfac0681c36fcbe6	-0.05473714361860242
127	0x3fbb999c6e64eee9	0.10781266875431651
128	0x3fa9bea96a607fe4	0.05028275893732806
129	0x3fa40299fb95b9cf	0.039082347832721014
130	0xbfb3c72e53b45a85	-0.07725801032607123
131	0x3f97ea4773cc50ac	0.0233546413829379
132	0x3fa9d76db98b19d5	0.050471714877449315
133	0xbf9555039704c844	-0.02083211526150587
134	0xbfb0254d65c11c22	-0.06306918844448764
135	0x3fa9393504b4f955	0.04926458055932651
136	0xbfac4df68593c078	-0.05528231030064118
137	0xbfb4bb4ac75a8548	-0.080982850714027
138	0x3fb98b315c6494d8	0.09978016381917898
139	0xbfb514f529194abe	-0.08235103848827927
140	0x3f9da02647e06043	0.028931234490386492
141	0xbf9cc95f445d49d1	-0.028111923740036297
142	0xbf904a47729fe893	-0.01590835225213334
143	0x3fc3e2394486a788	0.1553412994956569
144	0x3f8cdb761e04a846	0.014090464392740764
145	0x3fb6ad4c210c6304	0.08858180815549238
146	0xbfb5bb3c285d3679	-0.0848882292313763
147	0xbfb555f6abdfe487	-0.08334294983059652
148	0x3f65242b9c8f61b0	0.002580723933061267
149	0x3f9eb4fde635324c	0.02998730390145203
150	0x3f3a1d4f1805ff24	0.0003984754657935122
151	0x3fa3302efe7aa9d7	0.03747698646960245
152	0xbfb11ad355a3701d	-0.06681557503492326
153	0xbf8296193fc2bd20	-0.009075352915117352
154	0x3f7e66b0389eef12	0.007422150005307564
155	0x3fadbb2fd2f3d8c2	0.0580687470446022
156	0xbf921245e273b1ea	-0.017647830912140984
157	0x3fa7c3de75dfc8c5	0.04641623677152177
158	0x3fac85a4145300a0	0.05570709941957941
159	0xbf8b566ca9b4c323	-0.013348435334223979
160	0x3fab2479f0631db5	0.05301266726888391
161	0xbfa07bd444cdb4e8	-0.03219474162947639
162	0xbf895d777352cf3e	-0.012385304648297454
163	0x3f91c60130472b35	0.017356890269904574
164	0x3f97488e730c6d7e	0.022737718364721264
165	0x3fb4aac16bdf37f6	0.08073052295296165
166	0x3fb4055ade129221	0.07820671006863524
167	0x3fb1b3b370809ce8	0.06914826866760715
168	0x3fb09d12d32bebef	0.06489675193363074
169	0x3fb88ed842a7062a	0.09592963816887648
170	0xbfb0f822d70dd0d6	-0.06628625631657611
171	0xbf980466128feed8	-0.02345427978796874
172	0xbfb5a0dfbee395a7	-0.08448599253059418
173	0x3fae56cd84bdf152	0.05925600285897538
174	0x3fa0a7891ce90900	0.032528195170486995
175	0x3f5668cf6bb18f83	0.001367762145286528
176	0xbfb09e0ccbd5c123	-0.0649116513866415
177	0xbfac5709bacaf969	-0.055351547290672105
178	0xbf81188e3fba88d4	-0.008347617454380098
179	0xbfa1cf61fbe0674f	-0.034785329815533055
180	0x3f8b49dcc5aa5faf	0.01332447508075049
181	0x3fb06febfd4af6f4	0.06420779165179252
182	0x3fbc3d4cf7be93b4	0.11031037376831315
183	0x3faa21b266c3d300	0.05103833679632963
184	0xbfa6435c24c5485d	-0.043482665527918775
185	0xbfb4d27de6acc522	-0.08133684999190341
186	0x3f9e397cf61547ec	0.029516174812051973
187	0xbfab1f2e51677b5d	-0.052972266613997766
188	0x3fa6ada5c41c45c3	0.044293575467360145
189	0xbface9d5e691502d	-0.056471523662054636
190	0x3f926395c625e211	0.017958011836045232
191	0x3fa62e4637319cbd	0.04332179473640838
192	0xbf7e442899300cc2	-0.00738921984430191
193	0x3fb5b1d6ba651f3c	0.08474485445651408
194	0x3fbb47ec68b9dd43	0.10656621510303403
195	0x3f621bf2b7fb45c2	0.0022105923270394354
196	0xbfa674e536838676	-0.043860590843689914
197	0xbfa25487c6df086e	-0.035801165605804694
198	0x3fac2d6c2e8a3b6e	0.05503404682268963
199	0x3fb339d66c640453	0.07510128160721878
200	0xbfb2fe906d135e29	-0.07419684088687774
201	0xbfafbfb9f047973a	-0.062009630757343406
202	0xbf9e790716a9109c	-0.029758558996278425
203	0x3fc07bf032578629	0.1287822957811369
204	0x3fbe945f5b6ff92f	0.11945148451193142
205	0xbfb58f098339e83a	-0.08421382383122103
206	0x3fbc155ad28434c0	0.10970084800301816
207	0xbf6b03546506c583	-0.0032974861462313223
208	0x3f843c5a9894798e	0.009880740910884336
209	0xbf853a018176bfb0	-0.010364543689178024
210	0x3fb4a331d51fdf55	0.08061515286669636
211	0x3fb5d1482d412e96	0.08522463898514795
212	0xbf9e64e8e476b2a1	-0.02968181509429491
213	0x3fb14be8c33680b7	0.0675645329088209
214	0x3fb269e7d77c21df	0.07192849169599168
215	0xbf8f2fd0e4fb3fb7	-0.015227920520743383
216	0x3fc494b737bb2872	0.160788442814297
217	0x3f858be6e6112be4	0.010520748039331403
218	0x3f98819ddd7864ec	0.0239319483208406
219	0x3fa01adb621cc1be	0.031454902388194025
220	0x3fb3586ce1a9b154	0.07556801328036516
221	0xbfaeb0440a549b71	-0.05993855119805048
222	0xbfb5f7325cd57952	-0.08580317274524887
223	0x3fa50f1473dc22cb	0.041130675452284736
224	0xbfb562620611794c	-0.0835324539961892
225	0x3fb23607618b1133	0.07113691455294173
226	0x3f9c9e8962bccd49	0.027948519374331657
227	0x3f4ffe46bf5018ae	0.0009763570257071052
228	0xbf752b1b374c99e1	-0.005168062508153133
229	0xbfaebfc437ff0d16	-0.06005681212948326
230	0x3fa383916dec1b72	0.03811315981697917
231	0x3fa693a36bb6a2a7	0.044095141314135326
232	0x3fb80fa87c592c59	0.09398892436836216
233	0x3f72190b194e4130	0.004418414454349581
234	0xbfae37b05d770058	-0.05901862278869946
235	0x3f4c02f7ed23684d	0.0008548460557691401
236	0xbf8dc0f8e9a79e4a	-0.01452822173173653
237	0x3fb8a29263e4b330	0.09623064936449732
238	0xbfb01099844bf632	-0.06275329093838236
239	0xbfa3b6ead1488dd8	-0.03850492291192226
240	0x3fb23a7d440c16f0	0.07120497618970112
241	0xbf91db82ce22a976	-0.01743893035078644
242	0x3f9889c50df99be7	0.02396304986759992
243	0x3fc5e734e0b2d435	0.17111836406334793
244	0xbfb44ea8f175b5f7	-0.07932525534643974
245	0x3fa8b2709a3bf42b	0.048236388041893306
246	0xbfad54c1a8bb2895	-0.057287265631729735
247	0x3fa446ac9722b3e3	0.03960170121113273
248	0xbfae62ace10a6524	-0.05934658286168773
249	0xbfb65bb0d4709bcd	-0.08733658968468135
250	0xbfa6a56c06931872	-0.044230819513857336
251	0xbfac102647543223	-0.05481071110452642
252	0x3f897c71a0f15f70	0.012444389080129986
253	0x3fb4e518e9921f2f	0.0816207475892241
254	0xbf99d7a60ca91b22	-0.025236696741809735
255	0xbf8eab1a09ce4673	-0.014974788116691706

fc.4.bias f8 [100]
0	0xbfb8c84423b121a6	-0.09680581923851736
1	0x3fba499ca7aae23a	0.10268572896428277
2	0x3fc3c37cff9eae30	0.15440332871854556
3	0xbfbd71001ebf5056	-0.11500550032298071
4	0xbfa79091466e9e67	-0.04602483734862233
5	0x3fc7f038c2b202ca	0.1870184851323045
6	0x3fa77b421d6d588a	0.04586226090639041
7	0x3fb948581dee4423	0.09876013499003071
8	0x3faa8b05ad8b1a61	0.051841905054563105
9	0x3f8e007055584c4b	0.014649274448890767
10	0xbfb1faee914d66ce	-0.0702351670019212
11	0x3f8c3557ab6936bf	0.013773617666767433
12	0xbfb0e97cdbabebf7	-0.06606273997378752
13	0x3faf866eed3b67dd	0.06157251974009601
14	0xbfb6ffbd422a0c70	-0.0898397718938655
15	0xbfabcb6509d3c3ff	-0.054286153268442654
16	0x3f82cb8c69ebee4e	0.00917730043646894
17	0xbf8ae6a1c09702fe	-0.013135207834126469
18	0xbf7a398213498f7f	-0.006402500254441778
19	0xbfa82b7f364a5673	-0.047206855180019235
20	0x3fb6cbf492cfcb62	0.08904961189527463
21	0x3fb845533b9fb9b8	0.0948078175131063
22	0xbfb59042a0000000	-0.08423248678445816
23	0xbfb14103f475cd08	-0.06739830702081318
24	0x3fc6d453361825c0	0.1783546461231662
25	0xbfb3e0032c1dd62d	-0.0776369078356189
26	0x3fb2a19aff510b0f	0.0727784035998804
27	0xbf9342a79105fe9a	-0.018808954454924455
28	0x3fbed492fd5d9595	0.12043112455065448
29	0x3fa3579efb88753a	0.03777787037345566
30	0x3fb5dcee300b9de4	0.08540238068564282
31	0xbfad0178ba1e5355	-0.05665185234025808
32	0xbfb2ec5fce5165b1	-0.0739192846971466
33	0xbfb9ce037c46b05f	-0.10079976829610036
34	0xbfae6b25caa7b6ad	-0.05941122149293441
35	0x3fac0226a7694120	0.054703910766536135
36	0x3fc689f6f9713f7d	0.17608534984401195
37	0x3fa27baa7ac6ec71	0.0360997462152789
38	0x3fbba9a39310f400	0.10805723515018428
39	0x3fd12c73d552a4ff	0.26833816368396407
40	0xbf99b15d61a308b7	-0.02509065540721941
41	0x3fbe4b482c14f362	0.11833621097771421
42	0xbfa23da02f71352c	-0.03562641696098931
43	0x3fc8734de73e5b6d	0.19101880828085474
44	0x3fb3f00307edfc92	0.07788104003519639
45	0xbfb89b6aa4027def	-0.09612146858352565
46	0xbfa5e0c3d149c216	-0.042730445192209185
47	0x3fc106d0c8ffeae6	0.13302049459874538
48	0x3fb37fe1a7d90094	0.07617006633609186
49	0x3fb064d5230b01e1	0.0640385828546708
50	0xbfaa1e306c5828e1	-0.05101157496035725
51	0xbfa2bd507968dbb1	-0.03660060388613518
52	0x3fc3e675522df3bb	0.15547052872343933
53	0x3fa345907123ddf2	0.037640107928321856
54	0xbfb659888b1ce5e6	-0.08730367084799404
55	0xbfb3e0487a2b534d	-0.07764103872916657
56	0x3fc1eb2b0edbbe48	0.13998926377779441
57	0xbfa6c5807902ee51	-0.044475569507508646
58	0xbfa1633752f05c08	-0.03396008384168431
59	0x3fb6d817a9171fc9	0.08923480871373991
60	0x3fb8050a7c176fce	0.09382691888407566
61	0xbfb29bc16707d9fd	-0.07268913998982636
62	0xbfae64fc1f2c2a3c	-0.05936420326732558
63	0xbfb244182ee743ee	-0.07135153908826883
64	0x3fbd59a6afa5beaf	0.11464921749370192
65	0xbf75b9761b3ed424	-0.005303822854263483
66	0xbfb48214bae6756c	-0.08010987818712118
67	0xbfb5700b55e52df2	-0.08374091002513476
68	0x3fc8f27e8b181be2	0.1949003390475062
69	0x3faad92cb4b61ed3	0.05243816095304301
70	0x3fb9fb297ba763f1	0.10148867863553314
71	0x3fb466cbb4025938	0.07969353813891622
72	0x3fbbbe788e3f456f	0.10837510559874429
73	0xbf80fb9c8f994b77	-0.008292410976684412
74	0x3fb6148f8e1cd231	0.08625123233361688
75	0x3f786c03f85257e0	0.0059623866155984195
76	0x3fbc2647edc45df8	0.1099591212736114
77	0x3fcbe2c3121c5823	0.21785772690117353
78	0xbf9d39cef0d7ee89	-0.02854083390228238
79	0x3fb31f5a06838401	0.07469713839556393
80	0x3fc9deb5418df8d1	0.20210900975138782
81	0x3fc0253d93c49fa3	0.12613649096715304
82	0x3fb7ca32bfd008d3	0.09292905028272296
83	0x3fb07ba9ef6595ff	0.06438695997857023
84	0xbf95890331d3f513	-0.021030473629243106
85	0x3fb8da129ac6035a	0.09707752493524194
86	0xbfa0a683b588d00e	-0.03252040472980876
87	0x3fc5dbaf7d51d18c	0.17076676959153436
88	0xbf9baad9519da21c	-0.027018924337797498
89	0x3fcda57906bce0b0	0.23161232785219488
90	0xbf969f9503cafbf5	-0.022093132359028506
91	0xbf6faa31d55e3d54	-0.003865334826464265
92	0x3fa90f829a2be7db	0.048946458167804706
93	0x3f9994f4c8a4ed4a	0.02498228525767602
94	0x3fcfd31e4267d719	0.24863031618559076
95	0x3f99de639d5fdb84	0.025262409668325173
96	0x3fbfe32d9380ab98	0.12456021166933195
97	0x3fb3195c4fa0df82	0.0746057218938159
98	0x3fb0426312b31a18	0.0635129852918016
99	0xbfa9aa06f07d4e91	-0.050125328880907045
