car_ros2/car_ros2/losses/exp2_delay.pth (torch, 202669 bytes, 8 tensors)

fc.0.weight f8 [100, 40]
000000 1c 47 1d 8f 71 8a 98 bf 27 00 33 de 16 47 c1 3f
       -0.02396562038422366 0.13498197412082044
000010 e6 e9 81 b8 e1 bf b0 3f 20 2e 2e 8a eb e6 a0 bf
       0.06542788271500619 -0.03301178037426333
000020 5c 22 be 25 8c db a5 3f bc 70 3c 88 f4 e4 bd 3f
       0.042690639121307966 0.11677482915951293
000030 0d 53 66 a5 6b 70 bb bf 9d a3 60 94 13 ce c3 bf
       -0.10718415058211068 -0.1547264551639075
000040 0e 56 b9 f5 a7 91 8e 3f d2 59 9e 54 fe c0 95 3f
       0.014926254450226242 0.02124402419539157
000050 2d 14 ba e1 42 24 a9 3f 75 27 bf b3 57 d9 a1 bf
       0.049104776434468846 -0.03486131734059842
000060 10 fa fb 2f 14 8f c6 3f 76 76 66 d1 a5 3c c3 bf
       0.17624142020208966 -0.15028832172986356
000070 94 06 0e 5d 10 f4 8e bf 0d 41 08 37 c4 5a 87 3f
       -0.01511395248394657 0.01140359204239918
000080 ff 05 cc 80 82 86 c4 3f 36 a5 67 74 6e e8 bb 3f
       0.16035491265215282 0.10901537267604486
000090 4c a0 d9 63 da cb b4 3f d6 a5 7f d7 5a ba b5 3f
       0.0812355512404121 0.08487479935833817
0000a0 bb 5b 68 da 8b 2a b7 bf 35 e4 5f b2 25 92 99 bf
       -0.09049295503824244 -0.024971570026512253
0000b0 f5 14 d4 57 43 15 ba bf 88 f4 4f 74 98 39 bf 3f
       -0.10188694853066578 0.12197258796364185
0000c0 6c 3c fb 50 1a 73 a2 bf 20 14 cd 0f 03 44 a9 bf
       -0.03603441465895049 -0.04934701507458095
0000d0 35 38 43 6b 63 a2 c1 3f 82 3b c1 a5 5e 6d aa bf
       0.13776819932394493 -0.05161567471861074
0000e0 0b bb 09 7b a8 84 82 bf 51 b6 19 3d fb e5 ab 3f
       -0.009042087797948925 0.054488993843602736
0000f0 19 8c 02 99 b6 55 c3 bf 3f 38 26 e5 76 e0 a9 bf
       -0.15105326148213363 -0.05054065272553076
000100 61 1b 27 96 5c 91 c3 3f e3 62 8b 1c 07 ee 58 bf
       0.1528735860030919 -0.001521593994928399
000110 c5 d6 a0 9a 44 f3 ad bf 5b c3 9a 64 3f 68 91 bf
       -0.05849661243011676 -0.01699923564473536
000120 e3 8a 27 c3 83 57 c3 3f af 2f b2 68 97 0f b4 bf
       0.1511082365896846 -0.07836290651374499
000130 ad a6 5d a7 b0 ec af bf ef 9d e0 1b 96 36 90 3f
       -0.06235267680206156 0.01583323044920165
000140 57 0f c8 1b ea f7 c5 3f a3 c8 37 cc 29 df bb 3f
       0.17162824970739152 0.10887395129955961
000150 a3 45 96 03 d4 b6 a2 3f b7 b6 2d d8 83 ef b1 3f
       0.03655111831461546 0.0700609591273985
000160 1e d3 d5 da b9 c6 cc 3f 5c 45 52 3d dc 47 c9 3f
       0.22481463609042235 0.19750550264556466
000170 36 d3 b9 3b d4 53 a6 3f 7f 96 81 32 bb 3a a7 bf
       0.043608314791447375 -0.04536995879679483
000180 f4 01 5a 14 0f 09 8c 3f 94 5c 2f f6 df 35 bd 3f
       0.013689153488713558 0.1141033149755109
000190 bd e9 08 3b ca c0 96 bf 56 7b a2 8a 70 20 b3 bf
       -0.022219810345839742 -0.07471373924861999
0001a0 fa d5 20 75 33 db aa 3f 14 2d 36 8e 29 b5 b6 bf
       0.05245362095631019 -0.08870181772197255
0001b0 4f 48 02 9a 9f 57 d1 bf 00 78 fc 88 d6 58 9d 3f
       -0.27097311057980716 0.028659202681517115
0001c0 f8 c4 62 b9 98 42 c6 bf d4 97 3b 87 77 1d c2 bf
       -0.17390736629526038 -0.1415242586437545
0001d0 3b d5 93 15 70 a6 d0 3f 59 67 53 b7 8b e2 c0 3f
       0.2601585589139465 0.13191362811522359
0001e0 06 38 cf 1e 0a 50 bf 3f 9c 07 ec 17 8c b4 76 bf
       0.1223150563448315 -0.005543277015705696
0001f0 ad f7 65 a2 2f 4a 83 3f 0c 2c 90 61 b8 a1 cc 3f
       0.009418842452529075 0.22368531001879466
000200 90 b7 ed 53 c4 17 b8 3f 24 0d 27 f0 36 91 9d bf
       0.09411265419995929 -0.028874262244937957
000210 09 0b 4e f2 05 1e 9a bf 6d 70 3a ac 1a 1e bf 3f
       -0.025505154527773608 0.12155310349265998
000220 7a f9 28 0d f3 0a 76 3f 4a 7d f7 06 b5 41 6d bf
       0.005381535930210618 -0.0035713706672450317
000230 02 39 79 d1 d6 01 d0 bf 33 eb af 2e c6 5e b2 3f
       -0.2501122518196014 0.0717586387617473
000240 73 df b1 92 fe 6e af bf 7b 92 79 fb df d5 b6 3f
       -0.06139369526584817 0.08920097245715823
000250 f7 f6 83 63 11 23 b4 3f 9f 76 d5 96 d2 f0 cb bf
       0.0786600940664036 -0.21828682293828636
000260 05 d2 51 96 92 17 b2 bf ba 11 c2 b7 4f a5 c2 bf
       -0.07067218942558647 -0.145669903493525
000270 a4 50 cd 29 0a 47 84 bf 6d 3b 75 b8 5c 5a 98 bf
       -0.009901122475334319 -0.023782204397601193
000280 09 4a 06 46 9e 95 90 bf 4c 2d 02 49 ce f2 bf 3f
       -0.016195748352013015 0.12479867250856563
000290 4d 59 0b 16 96 5e 6e bf 36 99 64 42 c1 6c af 3f
       -0.003707211625037099 0.06137660918675396
0002a0 bc d2 0b 21 67 bb d3 bf 7d c9 de 25 02 84 9d bf
       -0.3083131621090549 -0.028823884545724255
0002b0 aa 78 a6 cc 5e aa b7 3f ce e7 18 50 0c b6 a5 bf
       0.09244339462609 -0.0424045417571076
0002c0 ad cf 32 30 09 5b c6 bf e5 3b d4 09 ce e9 bb bf
       -0.17465319493714784 -0.10903632869688769
0002d0 c4 85 fa f4 cc 8b 86 3f 97 58 94 e8 d6 2b a7 3f
       0.011008836008218455 0.045256343737649356
0002e0 42 44 3d c2 0d 62 a3 bf 50 cd 4e 4c 33 9a c9 3f
       -0.03785746570668681 0.20001832223861493
0002f0 cb d9 cd 94 97 8a dc 3f 36 22 b6 27 c2 a7 a4 bf
       0.44595899135256606 -0.0403423951602843
000300 a4 b2 35 39 ec 86 a5 bf 60 78 3b 04 09 21 a2 3f
       -0.04204500387536328 0.03540828873313795
000310 37 0f e1 c7 03 c7 ba 3f 88 d4 d3 46 9b c3 b0 bf
       0.10459922437536028 -0.06548471907793119
000320 5c e7 3d 76 e5 b5 be 3f 06 ed ca 1b e1 8d 99 bf
       0.11996301781428315 -0.024955289193468587
000330 af d5 4a 1a ca 31 c8 bf 6b b6 e0 e2 52 e1 a3 bf
       -0.18901945384793126 -0.03882845897201722
000340 08 0f d9 b9 44 6d 9c 3f 1c d4 9e 7e 78 33 d7 bf
       0.027760576098685014 -0.3625165211227015
000350 46 06 cd ad 84 d9 a7 bf 8c e8 48 72 3a e5 c2 3f
       -0.04658140775292145 0.14762049274742528
000360 22 dc b6 2f 18 a0 90 3f 81 55 58 66 40 da b2 bf
       0.01623571196770624 -0.07364275454195558
000370 41 9f 28 db 8e af ce 3f 5e e4 88 ab 2e a2 d3 3f
       0.23973260594470427 0.30677382232130934
000380 ba 33 fc c4 bb ba d6 3f 90 df aa 6b 20 c5 a2 3f
       0.35514730679352235 0.03666020693111627
000390 34 a4 75 ba 16 ce 7a bf 59 ce ba 94 5e 30 a1 3f
       -0.0065441978289096266 0.03357215467022163
0003a0 60 3c 65 10 dc 9b cc bf 90 b1 b4 43 7c 79 d8 bf
       -0.2235064582878037 -0.3824148808660306
0003b0 b0 ae a9 53 4a 44 91 3f 41 cc 0e 83 16 22 6e 3f
       0.016862069469808005 0.0036783637701432175
0003c0 04 bd c5 ad 2c b9 b1 bf 4f 4c fb be 28 d7 b2 bf
       -0.06923178904047594 -0.07359556830060508
0003d0 9d 46 78 d8 e6 54 c2 bf 35 ac cd 28 83 9b b1 bf
       -0.1432159955007152 -0.06877918001343704
0003e0 e4 d6 9f 1c e1 bc 91 3f 4b 41 cc 25 1d 9b b1 3f
       0.017322080013363897 0.06877309963988869
0003f0 52 a7 86 9d 67 62 ba 3f b4 60 99 5d 10 65 c4 bf
       0.10306403728341465 -0.15933422632475003
000400 b5 98 98 3d c9 f3 9a 3f ee d2 f7 78 d6 b1 a3 bf
       0.026320595154310584 -0.03846616961155812
000410 39 f2 d3 0d b1 1a bc bf f9 e7 af cc 90 59 be 3f
       -0.10978228175731254 0.11855416295284717
000420 9f f7 62 db 9f db b8 bf a4 49 27 99 92 19 84 bf
       -0.09710120302312795 -0.009814400957940013
000430 55 cd a1 de 13 65 65 3f cc a2 a3 ab 31 f3 c1 3f
       0.002611674125597633 0.14023419266529513
000440 47 49 86 da 8d 28 b0 3f fb 63 eb fc 1d bc a8 bf
       0.06311880669662627 -0.04831021988292857
000450 cf 7e f2 f6 9c 5a b3 3f 68 a1 77 1e c2 f4 be 3f
       0.07560139683709653 0.12092221492605904
000460 d4 aa 3d 81 c7 1f a5 bf 42 2e fb e8 f3 07 8d bf
       -0.04125808193824346 -0.014175324962159345
000470 8f a2 c5 23 d8 a8 b7 bf 82 84 5c c3 32 32 93 3f
       -0.09242010949459199 0.01874617879287089
000480 b2 b8 21 07 b9 d5 aa bf a6 67 c9 24 2b a4 b0 3f
       -0.052411825295039974 0.06500501297105518
000490 be 34 37 d1 25 04 c1 bf b5 e9 7d 8a a8 05 a3 3f
       -0.1329390784798416 0.03715254488539036
0004a0 7a 49 67 d8 68 04 a7 bf 33 dd 7d 48 0f 9e b2 bf
       -0.04495551721233233 -0.07272429961982567
0004b0 99 d8 e9 cb f5 9c b1 3f b7 17 0e 4b 01 88 a7 bf
       0.06880127170902241 -0.045959511196130114
0004c0 06 c4 97 f0 dc fc c1 bf ac f1 37 ca 40 56 c5 bf
       -0.14052926776597036 -0.16669473527862289
0004d0 ef db 18 c7 05 9d b4 3f 1d 31 70 7e 33 0d c1 bf
       0.0805209742619437 -0.13321536706679007
0004e0 74 47 04 0a ab d1 b3 bf f6 bf fc b1 3a 23 b9 3f
       -0.07741803164051736 0.09819380612748305
0004f0 37 cc ad ea 34 6d bc 3f 82 22 4d 60 93 11 80 bf
       0.11104136208977954 -0.007846022964842495
000500 8c 2d 34 d4 a2 2e 64 bf d7 b6 2a 96 05 ff bf 3f
       -0.002463644051777519 0.12498507419760628
000510 ed 3b ed 5e e7 ee a3 3f cd eb 6b 85 9d 62 bf 3f
       0.03893206628583088 0.12259850032198401
000520 87 73 d0 5c 39 0a b8 bf 9d 90 a8 e1 ba 24 b5 bf
       -0.09390600696538175 -0.08259170541038192
000530 5b ba 8c dd d1 e3 ac 3f 62 c6 05 13 e5 92 a1 bf
       0.056425627035754565 -0.03432384354790653
000540 af b5 a6 6d 66 5d ba bf db 51 48 1e 84 10 b8 bf
       -0.10298767258674134 -0.09400201548880409
000550 8d 3d 3f 40 17 9f c9 3f a3 10 c2 a9 91 65 b4 bf
       0.20016756665289073 -0.07967481989368479
000560 6d 14 69 38 ff 4c b6 bf 25 42 9b 33 11 a8 83 3f
       -0.08711238028725328 0.009597906482128835
000570 d7 01 0f 7b 88 7d b4 bf d0 de 74 e4 94 31 94 3f
       -0.08004048351632008 0.019720388835792246
000580 fb 90 26 54 60 4d ab bf 06 6f 63 5e 2c 48 57 3f
       -0.05332470919828044 0.001421016053021641
000590 bf 32 14 6f 02 fa b5 bf 69 fa 02 f1 c7 a4 c0 bf
       -0.08584609233748618 -0.1300287176909081
0005a0 8c 22 28 17 d6 69 b3 3f ef 5b 44 ab 76 9e b0 3f
       0.07583368363715176 0.06491796189617081
0005b0 f5 17 58 2a 5b 43 49 3f 3d 2d 12 3d 0c 26 c4 3f
       0.0007709689277255448 0.15741112691862638
0005c0 91 42 ef 55 2b 6c d7 3f fa 8c 94 3a 03 3c bf bf
       0.3659771289067431 -0.12200946979696772
0005d0 33 24 f0 c7 c6 5f a2 3f 05 d7 58 98 d1 aa aa bf
       0.035886966616154224 -0.052084493491220164
0005e0 97 74 8e 8f 5b ab c2 3f 1e 35 66 71 d4 11 8a 3f
       0.14585442075341312 0.012729320250196848
0005f0 7a c3 1c d1 1c ae c5 bf 61 54 fd 7a e1 86 b6 bf
       -0.16937599382938712 -0.08799561741518992
000600 e9 64 56 a9 37 ca bd 3f 0a dd 2c 7b 57 74 8d bf
       0.11636684307304147 -0.01438206047678971
000610 05 25 2c 22 cc 8e a8 bf a9 14 31 fd 69 c8 c6 3f
       -0.047964457675400175 0.1779911505019858
000620 4c 27 c4 05 f2 2f c9 3f e8 46 fc 75 5e 37 d1 3f
       0.19677567750505387 0.2690044548227051
000630 f3 c1 0a 4e 8a 80 99 3f 30 d6 01 1b 46 e5 c1 bf
       0.0249044046528883 -0.1398093826170892
000640 2c 3c 52 1d 49 35 9f 3f 26 c6 49 62 59 3a a4 bf
       0.030476705946565527 -0.03950766873175508
000650 25 29 d3 fb 92 1a b0 3f 27 6d 93 02 d1 13 ad bf
       0.06290548942630332 -0.056791812481345176
000660 68 8a 65 82 c4 d7 ca bf 6e 30 1c d8 cb 47 b5 3f
       -0.20970970503829567 0.08312677408338384
000670 83 0c c4 c0 b6 6d b1 3f 98 dd 30 28 d2 dc 76 bf
       0.06808035093495061 -0.005581684995426349
000680 70 9a 5f 07 53 55 bb 3f 5a 67 21 05 58 f5 b5 3f
       0.10677069597259403 0.08577489972358646
000690 87 48 b4 32 c8 32 c9 bf 83 67 25 d8 ab 78 b4 3f
       -0.19686224437515795 0.07996629740719467
0006a0 4c 0c 0a 56 49 b0 c5 bf 22 4f b8 8e b4 06 82 3f
       -0.16944233609328518 0.008801851850001766
0006b0 a0 61 b5 52 62 a7 85 3f 9f bd 06 da 5f 4a c3 3f
       0.010573166035712955 0.15070722719017923
0006c0 73 d2 14 e2 08 7e b6 3f 36 0c 3b a7 54 11 c4 3f
       0.08786063689769623 0.15677889028128938
0006d0 90 f6 62 0f 82 15 a8 3f f2 25 d4 a4 59 3d c7 bf
       0.0470390933782997 -0.1815597586467415
0006e0 e4 f6 63 5f 54 ff 6c bf 20 d2 0d 46 f4 12 af 3f
       -0.0035397193815914652 0.0606914840235826
0006f0 cb 2c 7d a3 09 76 c5 3f e2 ba 22 bb 62 9c a7 3f
       0.16766472323283774 0.046115002959927556
000700 c2 73 12 7a d1 75 d1 3f 1d 48 f5 8d 54 90 94 bf
       0.27281605645276497 -0.020081826366841072
000710 56 01 2b 88 72 1d c9 bf c2 9a e6 b4 ce aa d4 bf
       -0.1962111630327949 -0.3229252592667927
000720 fb 18 cd c9 3b 36 b5 bf 91 2a 7a 18 14 71 c7 bf
       -0.08285878826891128 -0.18313838191200607
000730 16 45 93 53 e8 07 d0 3f ad e1 cf 69 d1 de c9 3f
       0.2504826370396399 0.2021123663578356
000740 e2 83 b1 1a f1 43 de 3f 87 77 b2 6e ff 53 a6 3f
       0.47289683920649683 0.043609602225145365
000750 6a dc 39 ee 69 9d c4 3f e2 b8 c3 54 0c 4b d2 bf
       0.16105388767366274 -0.2858305766848287
000760 bc f3 65 a3 42 67 a3 3f f1 5b 1b 18 c0 3f d8 bf
       0.03789718861205624 -0.3788910136622113
000770 24 5a 91 32 ed cf 71 3f 4a 28 67 fd 3a 80 9b bf
       0.004348684838154902 -0.026856347767342727
000780 f5 12 59 37 e8 af 91 3f e2 cc 96 ea dd dd a0 3f
       0.017272594812555792 0.032942709814415286
000790 35 52 eb 81 18 4a a1 3f 78 90 c7 30 02 1a ba 3f
       0.03376843057563798 0.10195935908228815
0007a0 d6 dc 23 ee 54 1a 98 3f c4 52 ff e3 60 2b e3 bf
       0.02353794768802405 -0.5990452244828579
0007b0 fc 66 87 2c b8 9d a0 3f e6 1a 3e 49 e7 63 bb bf
       0.032453303752573576 -0.10699315584325184
0007c0 ac 5a f3 cf 42 f2 d2 bf bc 85 68 e1 58 3a 62 bf
       -0.296036437107811 -0.002225087733010082
0007d0 36 f8 61 d6 3d b0 df 3f 15 b3 ad ed 60 87 ac 3f
       0.4951319306927674 0.05572035695408865
0007e0 be 4d 8d d6 bc f8 9c 3f fc 31 6a 91 28 d5 ac bf
       0.028292608828747616 -0.05631377005656543
0007f0 31 99 bf 47 7d 50 61 3f 0a 92 ae ae 19 af d6 3f
       0.0021135756378384486 0.3544372754934392

fc.0.bias f8 [100]
000000 04 22 dd 5e 92 d4 bf bf 77 b1 18 72 2f 03 b8 3f
       -0.12433733764658689 0.09379860435064367
000010 e8 62 d2 9a ed 84 97 3f f7 17 d0 9b c0 63 a9 bf
       0.02296801812608154 -0.04958917524349709
000020 a7 0f c9 51 3f d2 b6 3f 38 ee 4d 45 5b 11 9c bf
       0.08914561983789203 -0.027409959893232222
000030 62 0b 16 47 a2 5c a7 3f b1 90 23 aa 30 f8 47 bf
       0.04562861554861432 -0.0007314908619062891
000040 7f 0a 76 45 22 d5 d0 3f fe f9 bb 6d 50 10 c3 bf
       0.26300865920362776 -0.1489353690921717
000050 f4 a8 75 ec 42 4c 7c 3f 7f 7c 9c a4 3a 03 8c bf
       0.0069086660581467625 -0.013678033970391688
000060 76 e2 b0 b7 fa 87 80 3f 2c 1d 32 5c 3a cc 8b bf
       0.008071860056689344 -0.01357312768801807
000070 e3 1b 6c bf 0b 27 98 bf 05 5f b9 23 89 0a 93 3f
       -0.023586448248376867 0.018594878011156463
000080 2e ce 7d c6 83 d6 99 3f 7b 11 22 a3 34 6a a9 3f
       0.02523237132068184 0.04963840953226658
000090 b7 0d b8 f6 31 de c0 bf 9a 29 52 28 39 4b c3 3f
       -0.13178085848640617 0.15073313206478361
0000a0 03 56 09 34 5c 8a 8e 3f 91 13 2e f6 e4 9a 9f bf
       0.014912338579203604 -0.0308643126732196
0000b0 51 cd 69 bf a7 05 c0 3f 78 9c a9 86 77 4b c1 3f
       0.1251725849757386 0.13511556697196503
0000c0 f5 7c 12 1f 45 0e a1 3f 3f be 5c d2 e1 34 cb 3f
       0.03331199650096465 0.21255133411021807
0000d0 41 8b bb 8d 22 66 91 bf 38 9b 4e a0 e5 04 c6 3f
       -0.01699117651049709 0.17202444388859717
0000e0 48 cd 37 79 86 18 b0 3f b9 05 48 74 f6 99 d2 3f
       0.0628742261831593 0.29064713817214344
0000f0 78 be 65 d7 63 3c b3 3f ad de 59 30 9e 4e 94 3f
       0.0751402283547068 0.019831153584589135
000100 df 0a 08 57 5e dc a2 3f 04 e5 55 35 e0 10 87 3f
       0.03683752834696973 0.01126265681044681
000110 ef fa 57 64 a8 db 80 3f 3e 49 42 b1 ff 4a 8a bf
       0.008231463968511458 -0.012838361355794189
000120 3c 51 b4 46 cc 46 b4 bf a4 d7 21 eb 0a 16 bb bf
       -0.07920529104405188 -0.10580509415180345
000130 b1 ba d6 dc 0b 1e b6 3f 0f 49 95 17 9f d9 cd 3f
       0.08639597074100426 0.23320377971192172
000140 9c fd 3e d8 cd 97 b9 3f 32 30 fd fa 4e 97 a9 3f
       0.09997259644932516 0.04998251737433214
000150 db 6f 47 c7 83 45 72 3f cf 47 f4 be 6b 43 95 3f
       0.00446082569075298 0.020765002756043146
000160 16 93 93 93 7b 08 c1 3f 8f 12 ec 20 a1 17 7e bf
       0.13307137208826053 -0.007346753510095851
000170 6b 65 ba 92 f4 de 98 3f a6 3c 00 16 37 94 9b bf
       0.024288007217000123 -0.02693258353980057
000180 b7 fe 62 22 56 5c a1 bf 71 90 0c fd af a9 9e 3f
       -0.03390759629973899 0.029944181270494533
000190 47 f1 6a 7e 06 94 56 bf 2d 1f 30 f6 ce 53 b7 3f
       -0.0013780654350475528 0.09112256536911607
0001a0 59 47 28 ed c6 70 a6 3f 49 43 bf 8a ee b8 cf 3f
       0.04382917065608067 0.2478311707950758
0001b0 1b 3c 21 15 c4 be c2 3f 6c 14 4a 76 cf a2 9c bf
       0.1464467147038427 -0.027964822382746155
0001c0 1b 28 9f 5a fe 9d b9 3f 26 95 95 16 14 61 9f 3f
       0.10006704056209552 0.03064376247256919
0001d0 eb d0 41 e4 28 29 c0 bf 42 fd a9 40 0b 68 97 bf
       -0.1262560953651993 -0.02285783369233952
0001e0 15 0e 64 5e 4e b4 ce 3f d1 e3 45 18 c7 da b2 3f
       0.23987750634124497 0.07365078299143525
0001f0 37 2e 46 db b9 81 b1 3f ed 42 52 a0 39 6b a5 bf
       0.06838571170208572 -0.04183368761107951
000200 0b 0b 18 8c 71 30 a1 3f 45 1a 2e 86 35 f2 9f 3f
       0.03357271990900842 0.031197391810133607
000210 c7 fc f1 e8 b2 1b b3 3f a0 e2 25 27 82 80 9c 3f
       0.07464140116825312 0.027833970679668085
000220 89 6c 71 46 dc eb b6 3f 28 e6 6d 49 09 c5 a5 bf
       0.08953644485284164 -0.042518892491852533
000230 db da b1 8b c6 91 b0 bf 63 dd e0 64 24 b7 a6 bf
       -0.06472435865894559 -0.04436601382661356
000240 c0 44 2b 86 80 8e 7f bf 61 ef 49 0e b3 0a a0 bf
       -0.007704259917504064 -0.03133163022445618
000250 9a 1f 75 30 93 42 7f 3f b5 20 0d ad b0 c1 83 bf
       0.007631850202706314 -0.009646778374772994
000260 31 c2 8f 8d 6d ab c0 3f d1 82 3c 44 bf 1c ad bf
       0.13023156559167284 -0.05685994823421015
000270 21 68 45 d7 07 e9 cd 3f bc 8b da bf bc 58 b2 3f
       0.23367403041157878 0.07166652378013699
000280 0a 76 f4 df 6f b3 97 3f 68 66 e5 11 d5 85 90 3f
       0.023145435375331792 0.016135529725352177
000290 60 22 49 9c f1 d0 83 3f 99 48 1a dc 91 fb 9a 3f
       0.009675872404060815 0.02635028749370658
0002a0 e9 ae 1f 37 45 f5 97 3f 8e f5 0a ff 84 95 9c bf
       0.023396569718825786 -0.02791412169130108
0002b0 1f 57 32 88 80 4b 80 3f e8 78 81 e8 73 23 a7 bf
       0.007956508785621317 -0.04519235814290018
0002c0 ef 70 f6 45 9a cc 9c 3f 30 11 57 d3 51 0c ad 3f
       0.028124247093374185 0.05673461632571486
0002d0 71 f5 b0 04 61 47 b6 3f 6d 9a a6 6f 4a 30 98 bf
       0.08702665676624634 -0.023621714653609894
0002e0 20 fb 00 f9 85 78 a1 3f ff d1 61 d5 fa 70 85 bf
       0.034122645040488786 -0.010469398152260998
0002f0 c1 77 3a 07 a3 6f 90 bf 53 3f f4 73 b6 f5 8e 3f
       -0.016050860706506635 0.015117097295415915
000300 84 69 a6 d5 35 1f a0 3f 1d f2 89 d8 c8 16 95 3f
       0.03148811562569434 0.02059472867630251
000310 77 b7 ca 89 cc db 8e 3f 11 5a 99 59 62 a6 ce 3f
       0.015067670779298699 0.23945264220192589

fc.2.weight f8 [100, 100]
000000 7f 0d ae 35 72 f5 ae bf 3f a5 3a e2 75 9a b5 bf
       -0.06046635537407052 -0.08438812993212695
000010 ac f4 f5 88 43 7c 8a bf c4 0d 53 fa d3 13 9b 3f
       -0.012932326905451617 0.026442825463858247
000020 47 b6 1d fa 88 dd 7b bf 0e 92 74 9f 50 57 b9 bf
       -0.006803069178074112 -0.09898857014611215
000030 27 6b 94 7a 11 bc b6 3f 58 b9 03 3e fd 98 7a 3f
       0.0888071941630356 0.00649355814696969
000040 ef d8 ed 7a 9a f6 aa 3f f4 fb 27 00 0f 75 a0 bf
       0.05266268492316494 -0.03214308621317477
000050 fd be 51 ae e6 7c 94 bf ae ba 6f a8 a7 98 a9 bf
       -0.020007709874731983 -0.04999278956517138
000060 33 9f f3 d7 33 5d ae bf b3 3e 87 c5 8d ce 87 bf
       -0.059304828749928616 -0.011624438849053708
000070 f6 2d e4 6c 6a 8c b7 bf d4 28 52 8a f7 d1 a8 3f
       -0.09198632391433378 0.04847692073333723
000080 9a a6 d9 7a 6e 4c b0 bf a6 32 8b 2b 78 03 50 bf
       -0.06366625308296606 -0.0009773896728574676
000090 c6 8c 9e 4f ad 96 85 3f 43 37 c0 37 35 34 80 bf
       0.010541299812592785 -0.007912078632240976
0000a0 3d be 6a 1a aa 90 b3 bf 0c 46 5d f9 60 5d 8c 3f
       -0.07642615456529085 0.013849980936046634
0000b0 a5 0b a8 18 a0 39 90 3f 8e b1 21 bc 1d a4 b6 3f
       0.015844823365124622 0.08844171374375362
0000c0 77 5e eb 7c fa dd 9b 3f 9f 9d f1 b7 36 f0 b2 3f
       0.027213968157268256 0.07397787085357387
0000d0 f0 ec e2 90 f7 3d 92 3f 13 3b cb 15 99 52 b8 bf
       0.01781451055351807 -0.09501034528805645
0000e0 51 6d 78 97 25 85 b0 3f f4 66 bb bc 96 56 b5 bf
       0.06453165958412412 -0.08335249049869359
0000f0 6b 5d b1 5f f7 ed b6 3f a5 c4 39 42 68 7f af bf
       0.08956857763529562 -0.06151891525667822
000100 45 ba 96 f6 f0 a3 b7 3f 23 42 ef 38 41 48 b8 bf
       0.0923452951453579 -0.09485252037053064
000110 52 46 89 6a 16 37 9f bf 9f e0 91 53 13 d2 9d bf
       -0.030483579876380347 -0.029121686912248475
000120 61 15 44 33 83 6f a7 3f 71 3a 16 19 28 3b b9 3f
       0.04577264786534375 0.09855890858146112
000130 45 77 91 40 bd 3b b2 3f 65 e7 33 8d f6 1f 41 3f
       0.0712240488660117 0.0005226091256240571
000140 75 ac 60 98 79 15 90 3f f4 cf d7 af a0 8d b4 bf
       0.015706920552628085 -0.08028606694261936
000150 75 d3 8a 20 23 17 aa 3f 54 ad 40 3d 08 c9 b3 bf
       0.050957772943923375 -0.07728625770021341
000160 f2 bf 16 95 b1 bb a7 3f af 5e a2 6c bd ad b5 bf
       0.04635386414463473 -0.08468231107905909
000170 0b 0f ba cc d6 ca b6 bf 0e d2 f6 68 7a f7 b3 3f
       -0.0890325784512777 0.077994967103969
000180 c4 83 66 63 23 b1 ad 3f e1 d4 61 9d 5e 36 a7 bf
       0.05799208248504997 -0.04533668204468611
000190 b7 cd b2 62 94 0a 98 bf 5c ca 3f 13 c4 00 b2 3f
       -0.023477858089518935 0.0703241869921753
0001a0 18 ff 4a a0 35 8f b1 bf e6 d4 e0 47 ff f1 b6 bf
       -0.06859145320322246 -0.0896300840839391
0001b0 96 1a d6 98 3c 64 8e bf 36 71 e5 9a b6 ac 93 3f
       -0.014839623846240085 0.019213536457173684
0001c0 05 60 62 e0 1e 8e af bf f6 1a 99 7c 31 64 af bf
       -0.061631169214877025 -0.06131128927204614
0001d0 c0 52 56 e2 5a 9b b1 bf 2d ec ad a0 00 69 a8 3f
       -0.06877677942095328 0.047676105131323566
0001e0 e8 a2 9f 3b 45 a2 b3 bf 30 d0 c0 1f dc 6c 9a bf
       -0.0766948004308109 -0.025805892408428288
0001f0 92 d9 8a 90 8d a1 9b 3f be 04 ca ad 7f 74 ac 3f
       0.026983463236967938 0.0555763148922863
000200 c1 67 90 ec 48 00 b1 bf a3 d9 84 d8 43 c3 84 bf
       -0.06641059661379158 -0.010138063473829123
000210 76 28 57 87 93 f1 a4 3f 84 cc 14 68 32 09 7f 3f
       0.04090558077912558 0.007577130222944043
000220 b7 19 4b 89 fe 97 b2 3f e3 de 9e 98 b1 86 a6 3f
       0.07263174869431209 0.04399638164562505
000230 c5 56 79 7f 64 01 90 bf ef ba 25 cb 63 29 81 bf
       -0.015630312233347227 -0.008379726063791419
000240 0a 37 fe 5a 77 77 b8 bf 23 4f ac 74 64 e4 b8 3f
       -0.09557291003713089 0.09723499153579644
000250 fb 52 a2 2d 30 0c b1 3f 01 b8 e4 5d c1 cc a9 bf
       0.06659222711671113 -0.05039028426323001
000260 15 a2 07 aa 6a a2 89 3f 8b 2b 53 b3 cc c1 b3 bf
       0.012516816438577863 -0.07717589738892465
000270 26 92 40 47 81 aa 93 bf c3 fd 41 b5 b1 c8 a4 3f
       -0.019205112432375902 0.04059367501849522
000280 13 61 6a 07 d4 c0 a8 bf 56 db a0 ba 83 84 b7 3f
       -0.0483461627056291 0.09186576181751369
000290 01 a2 d9 68 a0 2f b1 3f 9f 68 ff f6 50 66 9c bf
       0.0671329742414244 -0.027734055591147052
0002a0 d0 47 7e 8f c1 7b a7 bf 65 ab 02 08 68 fc b2 bf
       -0.04586605908038133 -0.0741639155918797
0002b0 97 74 34 7e e4 7f b2 3f 66 7c ba af 08 45 b8 bf
       0.07226398545431532 -0.09480337419744131
0002c0 b9 df 84 ed 72 62 b0 bf 81 7b 4a b3 6b 97 ab bf
       -0.06400221155934006 -0.05388962329492753
0002d0 be 45 ee 14 61 4a a4 bf e9 7e 39 e3 45 4e aa bf
       -0.0396299684572443 -0.05137842558610634
0002e0 b0 11 4c a6 90 9c ae bf 49 cc 3b 83 1c 03 b7 3f
       -0.05978824644083447 0.08989122585244148
0002f0 50 13 0e 95 5a c7 b0 bf 13 18 17 4a b0 56 b4 bf
       -0.06554189814603473 -0.079447763527327
000300 41 47 58 fd cf b5 74 3f 93 8e 42 51 03 23 a0 bf
       0.005056202373013908 -0.03151712767546857
000310 37 0d ea a3 55 26 86 bf 04 41 89 c1 c8 52 b2 bf
       -0.010815304817930567 -0.07157568669322606
000320 ab d9 82 b9 bb 99 b1 3f 9e a7 b8 4c ae 67 b0 3f
       0.0687520339878122 0.06408204434469986
000330 95 cf 6b 96 5c 07 a3 bf b4 3b 7f 87 3c 5f 96 3f
       -0.0371655400867034 0.021847673196869713
000340 9b 05 26 7b 41 65 c1 3f ba 3f 6d 82 0c b4 b1 bf
       0.13590258133994557 -0.0691535776543323
000350 49 a7 da 4c f7 9f c9 bf de cf 4a 64 fb bb c1 3f
       -0.2001942754043802 0.13854925534326318
000360 56 9d 6f bf df 84 b9 3f 7e 79 3c 1d ba f9 77 bf
       0.09968374656420073 -0.005853392609223794
000370 5b 10 c9 07 0d 8e ca 3f 1a 1b 8c 98 80 c1 c0 3f
       0.20746004943987625 0.13090522240255426
000380 f6 16 79 94 5f 74 b5 bf 5a 34 95 8b c2 31 a7 3f
       -0.08380696654156936 0.04530151323215455
000390 46 63 fa 89 a5 e1 c3 bf d8 70 97 91 8f c6 bb bf
       -0.15532368886194997 -0.10849854759675581
0003a0 3a 77 cd e0 93 64 c0 3f 3f 9c 99 72 13 7e be 3f
       0.1280693862599323 0.1191112665925269
0003b0 fd 89 57 5f 02 85 b8 3f f0 f8 f6 6d 70 ef 9b bf
       0.09577956035312947 -0.02728057547732815
0003c0 9b 35 5e 8e 7c 9c c9 bf e4 c7 23 7e 35 3d c7 3f
       -0.200088090434673 0.18155544909637833
0003d0 97 14 76 80 33 b0 85 3f 36 89 c9 f6 f9 23 b8 bf
       0.010589983327699932 -0.09429895663337082
0003e0 c4 f5 db 61 7a 2c a5 bf ce 5e 84 ca 81 41 b6 bf
       -0.04135496563501875 -0.08693705744041866
0003f0 e0 b3 e4 47 03 6a b4 bf 10 2e a7 bc 7f 92 a4 3f
       -0.07974262719353886 0.04018019845861087
000400 6e 88 cc 7c 93 14 c1 3f a3 9f b4 95 a4 b8 8f bf
       0.13344043344210682 -0.015488897150660657
000410 11 de d6 38 b3 fc b7 bf 94 70 c3 ff 67 e1 be 3f
       -0.09369964730910164 0.12062692636703992
000420 4e d1 8d 67 f6 5e 97 bf f2 de a6 74 43 6e 97 bf
       -0.0228231907562571 -0.02288155936704945
000430 15 1d 4e 53 82 d4 ad bf b1 99 7f 8a 5c 4b c7 bf
       -0.058261940640529065 -0.18198735010737502
000440 aa cf 59 fa d4 44 a5 bf fd eb 48 cd 20 dd b1 bf
       -0.04154077106514305 -0.06978039752804928
000450 19 fd da 4b b8 4d d0 3f 6f 88 ba 3c a4 6a b1 3f
       0.2547436466956739 0.06803347094185751
000460 46 c5 6c 36 1d 94 8c 3f 07 a1 bf 7e e3 c3 a6 3f
       0.013954380248466191 0.04446326181624909
000470 06 4e e9 46 71 90 c3 3f ef 1f 9d 31 76 b3 81 bf
       0.15284553492038827 -0.008643077267734582
000480 78 d1 bb ea ec 05 c6 3f ff da 8c 6d 28 13 a2 bf
       0.1720558305893396 -0.03530241334231298
000490 a4 1a d7 ca b6 f4 c8 3f 30 b1 ee bb 22 89 d2 3f
       0.1949680796080503 0.28962009766361785
0004a0 4a 06 cb 98 30 37 85 3f 15 92 e4 1d 69 f7 94 3f
       0.01035917249953679 0.02047504658652784
0004b0 b5 dd fd 47 ff f3 9c bf 57 51 b4 34 65 81 ac 3f
       -0.028274525422117686 0.055674708064688154
0004c0 9a ca ff 5b 19 60 b5 bf 7a 5b 3e 84 9e 90 a6 3f
       -0.08349760528634889 0.04407210697461657
0004d0 e0 77 f6 76 60 54 c2 3f a1 c3 4e 06 13 fb c1 3f
       0.14319997605065193 0.1404746800231154
0004e0 64 f8 23 75 97 e1 81 bf ff 69 a6 dc 96 52 a1 3f
       -0.008731063139290458 0.0338332313869678
0004f0 1e 24 3f d4 54 33 ac 3f 96 28 7e fb 77 7c c6 bf
       0.055079127224935784 -0.1756734827034207
000500 24 e7 26 2a 2f 77 b6 bf 1c 7e ce 28 47 63 a8 3f
       -0.08775610713101095 0.04763243077399812
000510 83 12 b4 9d a2 9f b3 bf 1a a5 3f 2e fb 95 96 3f
       -0.07665459013157698 0.022056507776061364
000520 e5 88 1a 51 50 19 a3 bf 8e d5 4d e6 e2 f5 84 bf
       -0.03730250349077994 -0.010234615948983696
000530 5f af 8d f9 09 af be 3f 66 5d 39 9a 1d 38 bd bf
       0.11985838263143254 -0.11413750663029062
000540 6f c1 f2 04 4a 63 66 bf de 32 9d 43 18 bb bf bf
       -0.002732891625406512 -0.12394858980878662
000550 de a0 ce ba 6a 9d b1 3f 6b e2 3b 46 f9 ee 7a 3f
       0.06880824146958583 0.006575559356627107
000560 5b 8a 9a 5e 43 52 b6 bf 8d a4 2b 59 ca 1a a5 bf
       -0.08719273624095918 -0.041220019707744894
000570 2e 6c 27 8e c5 31 97 3f 08 4e eb d2 38 60 6d bf
       0.02265080146922232 -0.003585921272454721
000580 7b 1e 24 bf ce d0 7f 3f 7f d6 0c 16 96 ae b1 3f
       0.007767493824082923 0.06907022512754145
000590 d8 65 99 d5 41 37 bd bf 87 20 10 5b 6b 18 c2 bf
       -0.11412440743278951 -0.14137021967349403
0005a0 9d 9f cc 22 32 6c 9b 3f 22 c8 29 8a ec 02 c5 bf
       0.02677992188833366 -0.16415173288584223
0005b0 2c 7e f4 b9 34 ad c0 3f b2 94 03 d9 83 29 a1 3f
       0.1302858264907497 0.03351985954376725
0005c0 de 3b df a4 47 e6 d0 bf 89 5c b5 5b 37 11 55 bf
       -0.2640551672056385 -0.0012858429534697033
0005d0 7b f7 dc 59 c6 09 c3 3f a7 b9 9b d4 03 eb ae 3f
       0.14873580348824675 0.060386771872674765
0005e0 c3 70 c2 86 74 fc b7 3f 11 61 72 b7 fd 92 ba 3f
       0.09369591035869278 0.10380540589028821
0005f0 58 48 f8 00 1d 33 bf 3f bc 3b 52 e7 56 22 b6 3f
       0.12187367700269769 0.08646147868624515
000600 58 4b 80 b7 34 13 c5 3f a0 f6 ac 0d f9 9c 9c 3f
       0.1646486183168132 0.02794255395860168
000610 3d 4d 44 39 d0 9d a5 bf 53 be 0b b3 18 3b ba 3f
       -0.04221964549119626 0.10246424075352793
000620 67 1c 68 52 19 ac 7a 3f d9 8c 29 49 5c 9e c3 bf
       0.006511782563854407 -0.153270278667242
000630 0e 7b f8 9b 53 2e ab bf 2e ce 5e 83 b5 e6 c2 3f
       -0.053087818898566494 0.14766568102423733
000640 31 b9 29 82 1e fe b2 3f 7c 36 36 07 fc c8 b5 bf
       0.07419005086714915 -0.08509802986210419
000650 74 3d 79 47 0b 19 a4 3f d7 39 aa 9d 8d c6 b5 3f
       0.039253571009448956 0.08506093119851897
000660 8f 14 1b 51 64 7f be 3f b3 74 7b 87 82 04 ae bf
       0.11913134555932657 -0.05862815765224507
000670 0f 4a 18 a6 12 45 a9 3f a4 3e f3 56 ea 9d ab 3f
       0.04935510900044814 0.053939173807177526
000680 a1 ec cf 86 32 a2 a4 3f 47 77 44 47 21 ec a8 3f
       0.04029996772438805 0.04867652888263634
000690 e3 c0 d6 75 d8 8c b8 3f b2 3c 4c 19 ce 4e 9e bf
       0.09589913250852393 -0.029597492498450513
0006a0 83 e4 23 21 5e e1 a9 bf 86 aa de 43 55 c9 9c bf
       -0.05054754404586339 -0.028111774699633794
0006b0 02 62 ed 47 4a 85 a9 bf 18 ab ad 03 d9 20 b5 bf
       -0.04984504821795001 -0.08253246631435862
0006c0 4f 51 d8 cf 57 c4 9e 3f 22 fb ea bc 86 82 8c 3f
       0.030045864163257104 0.013920834198299984
0006d0 f1 d3 a3 0a f8 64 b6 bf b6 2d 42 a8 a6 99 a9 3f
       -0.08747816333546134 0.0500003891366662
0006e0 29 18 d2 2e 62 17 9b 3f 1d 26 5f c9 5c b3 b2 bf
       0.026456388576228704 -0.07304935375500361
0006f0 f6 4a 04 4d 8f 92 b1 3f c9 c9 ab 18 37 d8 b0 3f
       0.06864257459919174 0.06579918243713857
000700 11 91 1b 55 fc 54 86 3f ab 97 43 87 39 5a b8 3f
       0.01090428480842623 0.09512671997398907
000710 b0 93 b3 8f ae d8 b7 bf 04 5b 41 50 56 4a b4 bf
       -0.0931500531037972 -0.07925929507596768
000720 9e a2 30 79 b1 50 99 bf 4c 99 26 5d 8b 85 81 bf
       -0.02472188284096665 -0.008555496959911445
000730 44 3e 61 b6 4d 24 a7 3f 87 ca e5 fc 95 ab b7 3f
       0.045198849213758524 0.09246194290407504
000740 22 04 0a d1 11 c8 ad 3f 9e 77 1a 63 6e db bb bf
       0.05816703488108767 -0.10881700438991834
000750 f0 cc 8a 13 b1 1a a6 bf ee 59 c9 8e c9 36 a8 3f
       -0.04317239154388541 0.04729299419402709
000760 b6 4a 9f d3 37 5d 93 3f ac 27 f8 00 06 0f b0 bf
       0.01891028622760401 -0.06272923968950178
000770 0b d0 f7 b4 0b 9c b1 bf 02 91 a8 75 56 e0 9f bf
       -0.0687873188797427 -0.031129218035986568
000780 f8 bc c0 ab 52 9b 97 3f 30 d5 77 da a2 85 9b 3f
       0.02305344746872337 0.026876968940958423
000790 91 f6 55 65 48 9c 80 bf c8 4b 82 ef f4 69 b6 3f
       -0.008110585777781483 0.08755427214991507
0007a0 24 29 73 46 18 26 b3 bf b2 a4 7f de 79 56 bf 3f
       -0.07480003089873272 0.12241326982588666
0007b0 bb 32 31 8d 7a dd 7e 3f 0a a7 95 28 99 30 b1 bf
       0.007535437313958833 -0.06714780083498453
0007c0 a5 83 b1 1f 9d 4d b3 bf 00 56 cc c1 25 5a 90 bf
       -0.07540304206624045 -0.015968885377409592
0007d0 14 e4 05 ab 69 4e a2 bf de 23 b7 53 ed 4f 79 bf
       -0.035754491926987125 -0.006179740008016103
0007e0 31 ba 00 e4 51 ed a3 bf 4c 3e b2 3c a7 60 9c 3f
       -0.03891998203504377 0.027712452964406872
0007f0 c8 00 14 9d d6 a8 aa bf 7d b6 06 57 f6 43 bd 3f
       -0.05206938426454283 0.11431827187217354

fc.2.bias f8 [100]
000000 32 61 b1 82 d1 ce b5 3f c7 94 77 71 f8 ad cb 3f
       0.0851870483469426 0.21624665775667593
000010 b4 fd d5 12 e4 12 9c bf 2b 25 61 2f d0 1b cc 3f
       -0.02741581311192727 0.21959879220438813
000020 56 26 c4 55 40 39 c2 3f d7 0e 6e ec d7 22 b0 bf
       0.14237217128566 -0.06303166887488075
000030 da a9 b1 e4 99 70 bd 3f b0 8c a9 9e be 76 bf 3f
       0.11499940713262138 0.12290564893332845
000040 ba fc 07 eb 27 76 c3 3f 73 7c 47 7e a8 0f b4 bf
       0.15204333282597365 -0.07836392481793712
000050 64 36 b0 d6 d4 a4 b8 3f 20 d0 c6 85 b5 6c ae bf
       0.09626512757696443 -0.059423134403374656
000060 68 b7 3c a1 76 30 c5 3f 1f c3 a0 8d af 6b c1 3f
       0.1655414855280768 0.13609880843571262
000070 98 21 6d f8 ed e3 ac bf b1 ed a9 64 f2 ca b4 3f
       -0.05642646462962658 0.08122172315227406
000080 5e 0f 55 86 20 66 a6 3f 85 52 81 57 85 02 aa 3f
       0.043747917554837853 0.050800482684882055
000090 d8 71 ad c3 bb 3a b6 3f ec c2 4c d8 a2 42 b3 bf
       0.08683370139392055 -0.07523553639181174
0000a0 c6 34 1f 73 8a ee 7e 3f 32 ab ed d7 15 99 ae 3f
       0.0075517090026099905 0.05976169834942481
0000b0 c9 42 c0 de 37 8d aa 3f 52 19 1a f6 68 f2 ca 3f
       0.051858659688269144 0.2105227662725136
0000c0 de d2 e2 08 7b f2 8e 3f 6d de d7 df fd 66 a6 3f
       0.01511093254917156 0.04375451428853414
0000d0 28 1c d4 13 0d 71 83 3f 2e 01 f8 1d 3a 9a b0 3f
       0.009492971580142465 0.06485331756266952
0000e0 54 80 51 78 3e 9e b1 3f 24 2c ca e3 f6 52 cb 3f
       0.0688208621736533 0.2134693729643412
0000f0 91 8a ba ea b6 5b 98 bf 46 f5 47 05 27 0d 95 3f
       -0.023787363125516384 0.020557985017139367
000100 5e 7c f2 40 c3 17 a2 3f 45 bf 53 63 43 48 c2 3f
       0.03533754508793473 0.14283029890020252
000110 5f 0f e6 7a 60 50 95 3f c3 f3 9c 76 5a 94 aa 3f
       0.02081442594636884 0.05191309640802146
000120 42 7c be c4 3e 7b b7 3f e2 04 c1 bc 14 ad c0 3f
       0.09172432235071518 0.13028201309683768
000130 21 be ac 07 3b cf a8 3f 92 c8 98 00 bc f4 a9 bf
       0.04845604389845116 -0.05069530017171177
000140 05 a6 c8 3f a9 11 b3 bf c8 51 8d e4 dd cf 73 3f
       -0.07448823744984885 0.004836909073521807
000150 7d a2 09 c8 e5 fa a5 3f b7 a9 f2 6f 2c 33 c8 3f
       0.04292982165208501 0.18906169382291946
000160 24 3e de a4 5e 79 c4 3f ec 5c 19 ed 58 28 7e 3f
       0.15995390939905108 0.007362696998448142
000170 7d 72 2f 36 0e 81 92 bf 40 2a 03 4b d3 bf b1 3f
       -0.018070432717524277 0.06933327275616197
000180 b8 5e 67 4e a2 46 77 bf 2e 80 89 67 e7 3f b6 3f
       -0.00568259621510208 0.08691259649049307
000190 02 74 99 f0 fe 95 cc 3f af 9d aa 23 6c ec a2 bf
       0.22332751033800952 -0.03696000991231629
0001a0 30 0d 8e d4 36 ec a0 bf f8 15 da 76 48 77 b6 3f
       -0.03305217117942971 0.08775761510522517
0001b0 dc e6 4e 62 20 cf 9f 3f db d3 26 84 6a 6d c8 3f
       0.03106356239343354 0.19083911373823423
0001c0 6e 79 3f 8d c7 49 b5 3f a1 8e 6a bd 58 60 63 bf
       0.08315703581272313 -0.0023652775956451576
0001d0 bc 0a da 4d 57 80 b7 3f 64 ee f4 86 2e fc c0 3f
       0.091802078730363 0.13269597615895912
0001e0 59 30 50 0e 09 c7 a0 bf 00 55 9d de 4b 65 b8 3f
       -0.032768519398900416 0.0952956598751662
0001f0 56 9d 94 d6 fe 27 ae bf aa 58 71 b2 cf 6c ac 3f
       -0.05889889115706619 0.05551766446358049
000200 b6 73 2f 27 e7 dc 9b 3f 13 03 8b 5f e9 d7 b4 3f
       0.02720986534756139 0.081419549776012
000210 b9 97 75 21 47 7d bd 3f 1d 8d 9b 3c 20 70 a7 3f
       0.1151928383529527 0.04577732791747222
000220 24 2b 22 85 4a 1c 9f bf 9c 62 6a 7b 6d 55 9d bf
       -0.030381359458753768 -0.02864619317787974
000230 b2 83 97 dc d8 8f b4 3f c6 0c 0b 19 b1 a1 ba 3f
       0.08031993279975216 0.10402972089200366
000240 d6 f5 bf fa e4 51 bd 3f 2a 65 d4 ad 9d e6 a5 bf
       0.11453086015531908 -0.042775084943239186
000250 33 ca e0 b2 8a 55 c0 3f 15 c9 bd 21 af f6 b0 bf
       0.1276105283191825 -0.06626410077823082
000260 f8 cb 9d cb 97 ec b0 3f 08 c1 27 5d d0 f3 ac 3f
       0.06611012192824706 0.05654765259885336
000270 67 17 8b b4 a1 99 ae 3f aa ed 0b 0a ad d3 ac 3f
       0.05976586655519505 0.05630245921744444
000280 fa a1 74 9c 73 9e ab 3f 8a d8 bf c8 af 7f b2 3f
       0.05394326481684071 0.07226084376438471
000290 2e ed e1 cd b1 91 ca 3f 10 72 be 52 8d b8 d5 3f
       0.20757124474389727 0.33938916283094134
0002a0 7f a0 41 c6 9a 15 a6 3f d5 4e d8 98 92 f1 b3 bf
       0.04313357992288135 -0.07790485602918847
0002b0 50 04 d0 df 39 d2 b8 3f 18 b6 38 c7 b7 ee c4 3f
       0.09695779527830095 0.16353509166349123
0002c0 cb 02 1b 49 44 b9 af 3f c6 80 2a 4d 75 82 ad bf
       0.061960348056805246 -0.05763594214408978
0002d0 63 a2 8e 26 e5 4e b9 3f 9d 18 d0 3a 0c 7f a5 3f
       0.09886009398781818 0.04198492258005724
0002e0 7d d9 df a3 9c 22 c6 3f ec c9 0e 97 dc 13 ab 3f
       0.17293127061538974 0.05288590759245779
0002f0 e0 63 df 57 1c 8d 93 3f 9a 54 5f 5c 04 92 ca 3f
       0.01909298216182609 0.20758108625765176
000300 6c 70 ff c5 a8 24 c2 3f b8 63 bc 28 3c 7c c5 3f
       0.14174375217305923 0.1678538512140031
000310 3e 9d ce a2 d6 c0 11 bf 62 68 3c fe 90 f8 af 3f
       -6.772336992232495e-05 0.062443285975135834

fc.4.weight f8 [100, 100]
000000 23 70 0a 43 85 70 a8 3f 2e 19 38 cb 07 9b c2 3f
       0.047733463700950794 0.1453561537056855
000010 0d c6 d9 2f 47 8f b9 bf df ba b7 6f 0a 91 c7 3f
       -0.09984249990682077 0.18411379294362626
000020 4c 27 f7 d1 64 21 a7 bf 8c 90 bb 24 ba 2d ae bf
       -0.04517664969496468 -0.05894262026211647
000030 d6 e0 90 26 e9 77 d2 3f c4 ca a3 fa d2 b4 c5 bf
       0.28856877104000256 -0.1695808147265635
000040 51 8e e0 50 f7 b3 bb 3f 15 df ee 42 ec 1a b4 3f
       0.10821481442013094 0.07853581079586676
000050 90 5c 25 c5 9d 55 c2 bf ea 3c 9c ab 1e e9 b1 bf
       -0.14323780180231838 -0.06996337594704341
000060 81 6f 00 b0 e2 4c 98 3f c1 ae 52 5c 9f 24 95 bf
       0.023730794899264666 -0.02064751626009698
000070 ee 28 40 ea f2 d5 a4 3f 8a 6a 71 8c 43 6f b4 3f
       0.040694800467535916 0.07982275179657897
000080 29 0f ba 04 5e a9 ab 3f a8 c6 94 47 ff 3e b7 3f
       0.05402654464435692 0.09080501077257941
000090 ed 8d 82 59 b9 3c c2 bf 44 26 53 4b fe 12 a8 3f
       -0.14247815008739853 0.047019907660410115
0000a0 e2 5f 45 a8 e1 43 a1 3f 5e 81 02 2b b7 a0 cb bf
       0.03372101954545294 -0.21584214782798034
0000b0 4e 71 27 77 f7 86 d4 3f 75 de 69 62 cd bd cb 3f
       0.3207377112974158 0.2167298059973636
0000c0 17 eb 8c 46 7b 0e b4 3f 43 84 39 72 98 e5 be bf
       0.0783459708444919 -0.12069084919632282
0000d0 32 6a 85 35 6e f2 ae bf 81 e5 3e 09 82 9d bc bf
       -0.06044334796270724 -0.11177838063931313
0000e0 52 21 08 72 89 22 c7 3f 2f 9c 8b 78 6c 8e d1 bf
       0.18074148242909388 -0.2743178536606505
0000f0 13 29 e7 f4 1f 7c b2 bf 3d a4 97 f3 10 14 b1 bf
       -0.07220649460865429 -0.06671243617133
000100 6d af 03 59 3f eb 97 bf 29 84 a3 36 0f 60 3f bf
       -0.02335833531189684 -0.0004787480489892326
000110 f9 6b 89 60 83 15 9a 3f c1 fc 13 d7 ed bc a9 3f
       0.02547269131387606 0.05026953936066426
000120 cf 8b ae d6 ae b0 b1 3f e9 c5 4b df df 95 bc 3f
       0.06910221806769744 0.11166190339624617
000130 4a 54 b8 4e 10 cd a5 bf 14 ad 86 51 bb e0 b5 bf
       -0.042580136880282796 -0.08546038380034232
000140 ec 21 20 cf a4 0f 96 bf cf da 0e f3 aa 27 b8 3f
       -0.02154405130571206 0.09435528215440601
000150 08 2c 54 a4 80 80 a9 3f 7d 6c 16 bb c9 85 be bf
       0.0498085213276554 -0.11922894303863703
000160 a1 80 28 e6 d8 13 c0 bf 4f e9 b5 49 16 aa bb 3f
       -0.1256056903666876 0.10806407260489446
000170 78 e3 67 97 16 6f b5 3f 91 e9 6c fa 9b bb ab 3f
       0.08372632214003584 0.05416572029067191
000180 e2 76 9e 58 8e 12 84 3f d1 f2 89 58 32 5a ae bf
       0.009801017836987783 -0.05928189593121192
000190 52 9f dc 16 77 94 d7 3f 88 50 e8 17 e5 6f 85 bf
       0.36843659622762914 -0.010467328826998093
0001a0 8e 2c 83 fc 6d e8 9d bf 21 d6 5e 0c 8c d4 88 bf
       -0.029206961190351204 -0.01212415135146744
0001b0 f3 61 c8 6a ff a7 aa bf 9f 10 4d 7e 9f 66 a5 bf
       -0.05206297091007519 -0.041798576514822765
0001c0 be 38 37 47 8a c6 bb bf 79 fa ce e2 8f 61 a0 3f
       -0.1084982322565535 0.031994339405618306
0001d0 ad 01 af 15 bd 5f bf 3f a2 cb eb 3e d4 be c4 3f
       0.12255460528741109 0.162073641513044
0001e0 c8 d2 b3 e2 43 47 b3 3f 34 e4 b5 20 9c 2e ab bf
       0.07530617031791131 -0.05308998011873492
0001f0 02 6b 25 f6 81 35 b4 3f c9 b6 ee 78 2a 0d 99 3f
       0.07894146212985834 0.024464286452419857
000200 ee 7b 48 f6 85 23 93 bf 0c c4 52 d6 51 b7 a2 bf
       -0.018690198094301218 -0.036554868137848556
000210 7f 9a d9 ff 9c fa 76 3f 07 20 c9 79 79 a1 a4 3f
       0.005610097197495833 0.04029445277825521
000220 e0 fa de 9c 4a 6d ab bf 47 74 b0 30 fc bc 95 3f
       -0.0535682026379527 0.021228733512647115
000230 b7 29 96 37 13 c2 c3 3f 1d cb fa 33 69 70 c6 3f
       0.15436020101726708 0.17530550993031904
000240 20 fe 52 52 a1 3c a2 3f 77 bd 03 47 9b fb c5 3f
       0.03561882142957651 0.17174092261800997
000250 e4 5c 34 77 54 aa bd 3f 72 8a 55 f3 da 83 af 3f
       0.11588027868525647 0.061552850917696925
000260 6a 1e 46 a7 bb 9b 4c 3f 7f 14 fd 66 3c 98 68 bf
       0.0008730570103105521 -0.0030022792560964735
000270 18 96 b7 4f 20 ca 85 3f 18 fb 90 d3 1a 3a c0 3f
       0.010639431412481179 0.12677321749102854
000280 c4 75 cc 1e a4 44 cc bf af 6d 64 aa 21 95 ae 3f
       -0.22084475997773556 0.05973153309806933
000290 e6 85 49 7e 8d b3 ca 3f e6 fd 37 e2 ee e7 96 3f
       0.2086045138012615 0.022369129712385936
0002a0 ba 44 25 a9 53 2e ad bf fe bf e1 cc 14 4e 95 bf
       -0.0569940704323328 -0.020805668835635054
0002b0 c4 7f 33 44 9b c4 b2 3f d3 aa 81 55 0c a4 d7 3f
       0.0733124772555121 0.3693877062820949
0002c0 3e c6 6d 76 6b 7a cd 3f f0 58 87 86 e4 ed b2 3f
       0.23029845507294228 0.07394245418922529
0002d0 86 fe fb 75 cd 01 b6 3f 9c f1 cc b0 ab b7 b0 3f
       0.08596500521161418 0.06530259195728266
0002e0 14 68 dd 88 7d 07 9e 3f ea 5a 82 03 e8 e0 c9 3f
       0.029325448492592512 0.20217609568927425
0002f0 6d 24 69 73 0f f0 a2 3f ce 1e a7 cc 2e 9b d7 bf
       0.036987765157911 -0.3688466070711741
000300 a1 c4 4a 1e 9d b5 a1 bf ae 3d 4a db df d9 9d 3f
       -0.03458872790123136 0.029151437529945028
000310 84 cf 49 37 ff 25 b2 bf 25 38 e8 89 d2 58 c1 bf
       -0.07089228725254598 -0.1355231450438065
000320 07 89 6d 61 51 12 61 bf 9e fb e9 00 82 50 97 3f
       -0.002083929964485812 0.022768050485406748
000330 c2 b8 01 6a 42 c4 b2 3f 22 1f 9a 57 a8 b8 b5 3f
       0.07330718124441929 0.08484890116426105
000340 d8 01 a1 46 61 01 87 3f 23 c6 22 eb 0b bf b7 3f
       0.011233100860523246 0.09275888910885803
000350 d2 2a ed 1a 93 f1 9c 3f 96 0d 22 54 6a da b8 3f
       0.028265284079035898 0.09708275369671635
000360 f9 25 2a 6b 2b be b0 bf 07 2c 1d f9 5d 52 88 3f
       -0.0654017578728129 0.011875852742056393
000370 9b a5 47 0f 89 02 a2 bf ca f7 33 76 4b ac b5 bf
       -0.03517559348604068 -0.08466025958838866
000380 83 3a 86 e4 bb 97 ba bf dc 1e dc f9 cc 17 88 3f
       -0.10387777642447742 0.011764146208875052
000390 fd c7 80 25 bf bf 94 3f 06 81 44 2e da 25 c4 3f
       0.02026270548248731 0.15740515956077433
0003a0 d1 df 9d 28 87 f7 ac 3f 1e fd a8 b7 50 fe 95 3f
       0.056575988491146874 0.021477948388789796
0003b0 fa a0 6e 8f 2b d1 c0 bf 4e 92 79 f0 57 ff a5 bf
       -0.1313833666183724 -0.04296374140247804
0003c0 78 c0 6e 83 c1 7e a3 bf 67 34 de 07 45 d3 7a bf
       -0.038076445859929586 -0.006549138690286594
0003d0 a7 c4 86 b9 f0 93 bc 3f 7b 9e a6 a1 95 e1 bc 3f
       0.11163239030317361 0.11281714626840682
0003e0 26 ba a0 7c 7e f2 c4 3f 69 c0 21 d5 c6 37 91 3f
       0.163650332311094 0.016814333685431757
0003f0 f9 64 20 a6 eb 2d 75 bf 2f d1 83 81 6e 05 c1 bf
       -0.0051707463299177575 -0.1329782612225556
000400 69 8d d8 8b fe e4 b4 bf ca 00 e1 16 88 f2 b0 bf
       -0.08161917604643566 -0.06620073851172772
000410 d2 1e 00 23 c2 7e ba 3f 0a 25 12 89 c7 56 73 bf
       0.10349667887214345 -0.004721431193624124
000420 27 89 2b 00 7e 66 b6 bf ee 48 2c ec 82 a4 a6 3f
       -0.08750140670921223 0.044223872499189784
000430 00 df b5 10 c2 33 90 3f 9b c6 f4 eb 41 1e b8 bf
       0.015822441358493755 -0.09421169291160895
000440 ad fb 02 0f 4f cc ad 3f e9 9e 4e 68 11 2f b4 bf
       0.058199377615430016 -0.07884320065079077
000450 fb 75 62 43 c6 51 b8 bf 6b 7a 75 53 ef 46 55 bf
       -0.09499777932293078 -0.001298650471504149
000460 07 2f 39 5c 78 20 94 bf 4e 47 e9 af 85 08 c5 bf
       -0.019655113819950134 -0.16432257737556671
000470 32 0b c6 af 4b f1 a6 3f 43 30 93 9b a6 61 aa bf
       0.04480968971895151 -0.05152626656635608
000480 1c 96 cb 3c 95 72 c7 3f 67 cf cb 8a a5 a6 c0 bf
       0.18318429440039175 -0.13008565213351206
000490 ad 6d 71 c1 1f 56 b4 bf 70 c3 9e f2 c8 8e 9c 3f
       -0.07943914864283981 0.027888431366310085
0004a0 08 db e3 db 4e 35 ae 3f ef b0 f5 b7 a1 65 b4 3f
       0.0590004580898747 0.07967577687458392
0004b0 f1 9f dd 87 0e 91 c3 3f 31 d6 3f c4 72 d3 ad bf
       0.1528642810255856 -0.05825384755727859
0004c0 e4 64 f8 b3 78 c8 b3 3f 73 df b3 d8 40 fa b2 3f
       0.07727770227247138 0.07413106241790306
0004d0 4e 99 e9 7f 96 07 ad bf 62 14 37 ea b6 1c b7 3f
       -0.05669851600105123 0.09028189867156436
0004e0 e2 58 83 74 30 b9 b1 bf fd ad 16 59 0a f7 c0 bf
       -0.06923201412732596 -0.1325390753748791
0004f0 61 b4 80 8b d4 2b b5 3f 9c a6 ae ff 16 f0 9d 3f
       0.08270004659489551 0.029236182551960796
000500 c6 25 7a 24 60 19 92 3f 65 de d5 50 00 70 c4 bf
       0.017674925066364165 -0.15966800639192794
000510 ee 04 9d d0 79 3b 66 3f 58 60 85 73 38 30 b1 3f
       0.0027139071652589808 0.06714203663193652
000520 28 ea 0f 8a bf 90 c1 bf c5 a5 91 47 55 9d c5 3f
       -0.13722986451451047 0.16886392588211954
000530 17 d5 c4 e8 11 b1 ca 3f 5d ec c8 ad ac 05 84 bf
       0.20852874627750204 -0.009776448300831736
000540 34 05 a0 d8 86 d5 b6 3f 51 b2 c0 c1 b9 cc a9 3f
       0.08919565952966907 0.05039005746980208
000550 9a 8a 52 b2 ad 88 a8 3f c2 69 5d 05 c5 85 c5 3f
       0.047917774217485845 0.1681448246188904
000560 32 99 3a 6c 6c 5c bf bf 65 2e 40 33 f6 d1 b0 3f
       -0.12250402109439021 0.06570376158941256
000570 fd 49 ee 08 83 f0 c0 bf 77 77 56 6e 92 7a 97 3f
       -0.13233983932566665 0.022928512558443494
000580 0b 79 8e 45 69 6b 74 bf 8f a8 c2 a5 f8 05 a8 3f
       -0.0049852478195176 0.046920557245656906
000590 57 c5 bf e8 ee 5f be bf b2 1c eb 26 99 ce ab 3f
       -0.11865132505751795 0.05431059455946165
0005a0 1d f9 a4 52 b7 88 86 3f a0 8d bf 86 19 f8 6b bf
       0.011002952775581104 -0.003414201599285696
0005b0 ee 71 5f 9a 60 c3 d0 3f 76 08 7a 04 c7 e5 cb 3f
       0.26192488742324727 0.21794975012386758
0005c0 b0 aa 79 4c 52 48 b1 bf b7 4a fc a8 e1 4a c7 3f
       -0.06750978819915576 0.1819727015614114
0005d0 96 3f 09 b9 de 4d bc bf 97 1a a4 ca 83 47 c5 bf
       -0.11056320207103307 -0.16624495882588938
0005e0 75 05 99 69 fe e3 a5 bf 19 6e 3d d8 5c 15 ac 3f
       -0.042755079641675055 0.054850484272460594
0005f0 5a 67 30 8a cf 57 a1 3f bd 59 50 fe be 62 c6 bf
       0.03387306749227888 -0.1748884908453884
000600 d9 63 d7 42 a5 01 c1 3f 84 2a d1 18 a9 af c1 3f
       0.13286271823633802 0.13817323409815085
000610 73 ed f8 a2 3d 3f be 3f 1d d7 e7 5b f3 dd c2 bf
       0.11815247753923135 -0.147398395419878
000620 19 00 cd ff 93 bf b5 bf 0c d9 91 b3 7d 21 d0 bf
       -0.08495450015198037 -0.2520441297159699
000630 37 f6 1d cb 37 0d 96 3f 26 2b da 39 c6 71 98 3f
       0.02153479745128647 0.023871514588374464
000640 e3 9f 7e f1 1a 34 a7 bf d7 89 f9 5f b3 64 b9 3f
       -0.04531940648968182 0.09919282048352983
000650 47 36 69 6e 0f 98 b6 bf a0 66 1c 16 1f 74 94 bf
       -0.08825775571423221 -0.01997421810583566
000660 0e b3 5f 34 c0 1d b8 3f 1c 2f 72 d7 20 51 ac bf
       0.09420396116884097 -0.05530645971256673
000670 4d a0 73 13 46 fa 89 bf f7 76 9b b2 87 b1 a1 bf
       -0.012684390514962863 -0.03455757193817804
000680 92 39 a2 26 ca c5 a7 3f 21 1d a3 ad 37 40 91 bf
       0.04643089028933213 -0.01684653279587878
000690 ab 97 67 c7 d5 97 b3 bf 0f 61 f9 16 45 00 ac 3f
       -0.07653556936528953 0.05468955903478633
0006a0 6a 08 25 4d 16 2c a8 3f da f2 4f d8 b3 68 a3 bf
       0.04721135799128791 -0.037908191829023344
0006b0 6a 49 49 d3 3f 1f b8 3f 54 05 b2 17 f7 78 a5 3f
       0.09422682674747809 0.041938516275886656
0006c0 15 63 e0 ed a2 fe a8 bf 2b ae ce 54 7c 78 99 3f
       -0.04881772187963499 0.024873678852300223
0006d0 1c 2b 0d fb da 13 a0 bf 6b 4f 2f 00 e6 71 a4 3f
       -0.03140148462860834 0.03993147613769462
0006e0 c5 63 ac ba 11 46 b8 3f fa f1 9d 03 4e 03 a1 bf
       0.09481917197662344 -0.033228338185811127
0006f0 28 06 3b 17 32 21 9f bf 32 4e 57 66 7b 41 a6 bf
       -0.030400068920022033 -0.043468338244249685
000700 c2 91 8f dc 18 b5 af bf 16 b5 9f 25 1a 3d 8a 3f
       -0.061928536342552146 0.012811855576695435
000710 1a 5c 0b e5 dd 7b 91 3f b8 9b 70 7d d3 f7 b3 bf
       0.017074076752432978 -0.0780002766847322
000720 06 00 11 5c 1b ab a1 3f 63 82 bc a7 87 6e b0 bf
       0.03450856684548857 -0.0641865524780854
000730 e5 a3 da 43 47 d3 b7 3f 9f d4 48 cf 47 c6 92 bf
       0.09306760222047179 -0.018334505106584072
000740 e7 f0 5a 60 eb f8 a1 bf 17 6a 68 d5 29 31 9a bf
       -0.035102229606737194 -0.025578168535597436
000750 c2 ac 84 80 4f f3 89 bf ea bb 5d 02 7d 3d 9f bf
       -0.012671109304014275 -0.03050799681608033
000760 9d 9a da a3 e5 5c b1 3f 9c cf 73 95 ea 34 7b 3f
       0.06782374620761762 0.006642261832201426
000770 4e e6 68 eb 1c 79 ab bf ba 5d e2 14 3b 81 ae bf
       -0.05365839360861156 -0.059579702662797954
000780 44 a8 ad 08 0e b9 aa 3f 33 b8 37 ce 4d 3d b3 3f
       0.052193106231087444 0.07515417370424941
000790 cc ed d1 fe 12 66 ab 3f ad 84 a0 49 9b 67 ab bf
       0.05351313934894683 -0.05352483056800259
0007a0 db b8 7a 1d 9d 41 96 3f 59 f1 f7 8a 40 24 b0 bf
       0.021734671520499 -0.06305316345964708
0007b0 f4 3d e7 0e 65 6a b2 bf 5a 68 6a 67 20 6f a5 bf
       -0.0719359551796897 -0.04186345350645189
0007c0 95 5b 89 8f 34 c0 97 bf e7 a7 d0 50 c4 90 a2 bf
       -0.023194142590309125 -0.03626073347579944
0007d0 9c f5 0d d3 de 62 ab bf 09 2e 99 31 8a e0 b2 3f
       -0.05348869634961348 0.07373870573899678
0007e0 0e 2e ae fe bf 79 b1 bf 09 ae 13 61 bb 64 93 3f
       -0.06826400726111378 0.018938949394323532
0007f0 a1 34 38 fd db 52 57 bf d0 87 f0 ff c3 2b 98 bf
       -0.0014235637980875365 -0.023604452606498516
