car_ros2/car_ros2/losses/exp31.pth (torch, 123591 bytes, 6 tensors)

fc.0.weight f8 [100, 47]
00000000: eb8c da37 0c89 b9bf c205 cb9a b99f 95bf
00000010: d978 1bdd da97 a23f 30a3 c767 bafe 953f
00000020: 6f50 ab68 ebd6 a8bf 1d89 aa9d d68f 803f
00000030: f7fe 5656 1972 aabf 7e87 a7d4 76b8 b3bf
00000040: 07d9 ca98 5dc2 96bf f941 8483 9223 b2bf
00000050: bb93 f740 66b3 b93f 3ece 7a73 64eb 7b3f
00000060: 6600 8519 e40d ab3f 2c22 bc2f a30c b9bf
00000070: 1a86 2b80 2d25 a33f 770b 9a9f afac bdbf
00000080: 0b8f b26c 54a8 b43f d23c 9106 559c c1bf
00000090: 5777 5045 2cbb cb3f 291e 3c8a e63d 7ebf
000000a0: 1db0 8292 42ea babf 0a6a 9fea 68cd 933f
000000b0: 382c ee23 720f ba3f de6d 6c37 1881 713f
000000c0: 9739 675c 2ec1 983f a3d1 3b2b e9c4 473f
000000d0: 2e3d 66ea 2a43 a13f fd68 5df1 6f1c 823f
000000e0: 962e 84c1 32fb 923f ee81 5b63 e20a 303f
000000f0: 4cbb e827 3e51 c4bf b1ef 57b1 3063 a13f
00000100: edc1 142b 7a23 bf3f 5827 893a 973f b13f
00000110: 850d 591b 3edf b6bf d75d dc33 a62a c2bf
00000120: f4c4 63c7 2aec a03f 607c 0e06 f754 cd3f
00000130: 828f 5f3c 5e6d b3bf 600f 0fcf 5493 b8bf
00000140: 1a5f c35a 44ef c1bf 32d6 bc17 5b49 7e3f
00000150: 6b55 0b4d aacd b43f 33f5 6342 21fc a9bf
00000160: 1fa9 6175 f7e1 c43f 0000 0040 82e3 93bf
00000170: 0000 00c0 18a8 c13f 1f1a 852c 3f1c aabf
00000180: 4e99 f288 765c c9bf baa3 1a85 40f9 a43f
00000190: 2366 2add 52a5 a2bf 6b1f 8c1b 5a1e acbf
000001a0: 3db0 7e95 3566 a2bf df69 885e e4e3 8a3f
000001b0: 4263 afec e317 a13f a411 71a5 ecbe a0bf
000001c0: 63a7 a822 4963 b4bf 5d44 5cb4 b6db 9c3f
000001d0: 77ec db72 081e a73f bfd0 224a b6f3 993f
000001e0: d3e9 6704 39cd 36bf e4dd 523d 1417 bdbf
000001f0: 4182 5242 ccc2 bcbf 6362 3b42 ffcb b7bf
00000200: aadd 7ab0 4cfe 923f 12fc 9976 3d51 a3bf
00000210: 1aae c375 af3a c4bf 01a5 192c ad0d a83f
00000220: cf88 bce5 319f c2bf f87f 32bd f03c a83f
00000230: a4c8 d576 8e85 af3f 5c22 753e 7002 f33f
00000240: e83d 346e 3800 a83f f5cc 80a8 7ee1 b4bf
00000250: df2a 5126 3446 a83f 401c 98d2 5cf2 b0bf
00000260: 41f1 12bb b9aa 823f d027 d948 7527 8d3f
00000270: b5d4 e5b7 341f 9c3f 33aa fe79 d2bd a0bf
00000280: 43f3 b70c ee17 85bf 1901 8435 2b26 60bf
00000290: 4d68 f16a 7360 a13f 609a 44e2 aa83 303f
000002a0: 3b38 9d8d 1e74 adbf 64bf f42b 356b 8a3f
000002b0: c613 9bb1 d567 90bf f2b5 0449 7ed1 d5bf
000002c0: ef64 deae 6c72 e0bf adce 3a18 4948 e2bf
000002d0: 014e 0ae3 65bd f43f 5509 5547 4200 e4bf
000002e0: 0000 0060 c7ca be3f 0000 0040 f768 b93f
000002f0: ad5c 344b 55d8 afbf 76a7 f59e c063 bd3f
00000300: c315 d81d 2171 a83f 6c6d 9b98 4d2d 033f
00000310: 5615 5789 d8a4 633f f33d d63d 31fa c33f
00000320: aaab be3c 5ea2 b33f 032e 673d 0cfe a5bf
00000330: 5142 1286 600f b23f 3395 ac72 d478 7fbf
00000340: b302 9a7a e984 833f e177 3cd5 ecf3 b23f
00000350: eeea 9c63 1a49 86bf 7b6d 8b5f a9d8 b23f
00000360: 44b4 3da4 74fd 9d3f 2c48 7797 9450 aa3f
00000370: ef0a 5c4c 39da acbf 2463 586f 4b8f ad3f
00000380: 25bf 1fe6 c02c ca3f 5909 d4e3 f9a5 8ebf
00000390: aec1 6e32 08b5 a43f bd8f 970c 61d6 be3f
000003a0: 0e0f f962 da87 90bf 5d03 d617 e0df c33f
000003b0: a716 b6e6 0f2d adbf 7b80 8368 1a9f 8a3f
000003c0: c66d e882 b4fa a23f 79c3 0c18 7f8e a83f
000003d0: 5a21 1189 695a cc3f 86ea 14ba 7f2e 66bf
000003e0: 469a 20ef ce84 b6bf 7583 30d1 b156 b1bf
000003f0: 194d 677f c8fe c3bf 2c16 f5fc eba9 b03f
00000400: 786e 9151 1e12 b1bf 6120 6b8c b439 c1bf
00000410: 1e65 18dc 9d32 aebf 4c1f e9f9 5d37 b93f
00000420: f0c5 8e8d 6358 d3bf ee93 b3fd 7930 673f
00000430: 41fb 3d60 e89b dabf 913f b996 3d1c b03f
00000440: 3956 5f1c 983e cd3f c4b3 314a 836c bf3f
00000450: e7a8 dd6e bf8b a03f 0000 0080 7232 bdbf
00000460: 0000 0000 e98d 9e3f c873 a227 1bab a53f
00000470: ccf6 8f36 cfaa 9a3f 90d2 51a3 045e a33f
00000480: 3487 dc8e 330e aabf 3b23 9977 7061 a1bf
00000490: 6151 a1cf c051 ba3f 8a8f b206 89ca 9d3f
000004a0: 4dca b988 ab31 a93f e3f9 ceb4 6cc9 8bbf
000004b0: 1c16 2485 a37b 90bf a7bb aae5 0742 b03f
000004c0: 95e0 f31c dec6 bd3f 3428 7148 5010 aa3f
000004d0: f514 2bbf 3a48 843f 3986 0538 5468 c2bf
000004e0: 8053 d47a 060d 883f fd26 83b1 0f0b b4bf
000004f0: 2df8 bf8c ed73 bc3f 9b1a a8c5 9a1e c6bf
00000500: a5f7 e91f e53e d53f 02c8 6a57 a5f8 afbf
00000510: 19e0 f27d 3cb2 b3bf 3804 59d1 0f31 a5bf
00000520: b67e 0f01 0ae7 c3bf 435b 2da5 dd68 d73f
00000530: ef43 c366 95d9 903f 3571 f9a7 100a 87bf
00000540: f95d 42bb fbb5 f7be 9aa8 e0fc 0de4 bf3f
00000550: d5dd fd09 948f b7bf 5782 9ca3 3676 a33f
00000560: 2155 71e5 6d72 ae3f df0e 7ef4 4014 973f
00000570: a3bb 94a7 26de 9dbf e99e 7e7a 010f d13f
00000580: 1595 7302 aeab 893f d786 e900 eb6d 92bf
00000590: b039 c90e 0a3f cbbf 3a68 c396 d9cb c1bf
000005a0: 0f49 51b7 b48f d53f e03e 00a3 897a cf3f
000005b0: c444 dbc6 79e6 9f3f 59b6 138f 2636 d5bf
000005c0: 14c5 1c0e 4405 b53f 8a9e 6376 e7cd c73f
000005d0: 0000 0080 0467 a53f 0000 00e0 1c0f b83f
000005e0: 34b9 be34 ad28 a33f 5714 25a4 f8d9 c1bf
000005f0: b222 0db0 19e6 b33f 39d0 c897 465f 90bf
00000600: 4d2d 5bfa b007 88bf ea1a a397 82e3 8e3f
00000610: a211 4629 ca89 b63f f0d3 5759 76cf 85bf
00000620: ff0e 1a99 6778 6dbf 2870 0b86 45bb 62bf
00000630: a7b7 be0a 0670 893f fffe 301b 3caf a6bf
00000640: 9854 0785 b784 a33f 82ae 9fb7 935b 82bf
00000650: 2382 a3e7 c374 91bf a238 60aa 0c5f c1bf
00000660: 34a1 ba2e fbea a43f 7d38 3f5a dfe2 9b3f
00000670: 1af0 fe8d d194 ccbf f019 42d0 6d19 b13f
00000680: 358e eaa3 fd14 bd3f 9284 8f44 a604 c13f
00000690: 0b9f 8410 e336 883f c257 104d 8e0f c23f
000006a0: 3180 8117 e6fe 983f 3ec6 8dbb 9add c0bf
000006b0: 6da4 4b4e 07b0 803f 22b0 0ecf b3b8 b6bf
000006c0: 5b15 782b 7279 c0bf 9d69 a330 814c 963f
000006d0: c624 b9c9 1561 ae3f 052e c87f 1a11 c2bf
000006e0: 651b 9a25 b564 c33f b61e 682f 65ce ab3f
000006f0: 3436 da26 bbb9 9bbf 7b96 fc50 1e8e 8d3f
00000700: 3c8c 185a d72a 9f3f cbca c3ba ed4d b2bf
00000710: 05d8 66e4 845a b23f 8a00 68d5 3676 ac3f
00000720: c9b1 38dc 346a b3bf e655 d4aa 928d c3bf
00000730: a863 0405 a37f cc3f c77f 49e6 b00e c6bf
00000740: 1e56 0155 caed d93f 0000 00e0 bd23 a4bf
00000750: 0000 00e0 9887 8c3f c2a8 eb66 7b10 a9bf
00000760: 52df 4292 b5cc 9dbf da14 44e6 3271 963f
00000770: 64d6 f383 ee6e a83f e8f0 c94e 492e 853f
00000780: 6010 1474 481b b33f 25b7 052b f755 a43f
00000790: 3213 3f8a 40b9 813f b4c7 2e6e 5a2a 583f
000007a0: 917a bcf5 38a0 a4bf 96da 5bd0 d78e b2bf
000007b0: 0a43 b2e6 2059 b63f 0b92 3b0b f74c 86bf
000007c0: 3cbc 082a f93a 3f3f d26b 3fdb 5e7e 83bf
000007d0: 3972 9319 b4f8 b43f 9f67 cbd7 6904 b63f
000007e0: 3781 cb5a fae8 913f 81a7 7c84 b03c a03f
000007f0: 0770 99b2 abb7 733f bf91 eb9e b8c7 b5bf
-0.09974743236175569 -0.021117115090196988 0.03631481122077824 0.02147952326223218 -0.048514706160546754 0.008086849867428964 -0.05165175608590105 -0.07703345004804693
-0.022225820971208978 -0.07085529051642671 0.10039366804228582 0.006816284548836258 0.052840355029275796 -0.09784908213999505 0.03739301862311724 -0.11591622969176095
0.0806935086607689 -0.13758337803526516 0.21664956459511117 -0.007383251711651031 -0.10513702465931414 0.019338263817056535 0.10179818513113126 0.0042735048253023915
0.024174427404255985 0.000725377895348479 0.03371557341881225 0.008843302300807649 0.018536370335864825 0.00024478938153829524 -0.15872933338820372 0.03395988621556912
0.12163508941444663 0.06737656764121647 -0.08934391181633401 -0.14192655117288552 0.033051812018934174 0.22915542407733636 -0.07588757490117184 -0.09599809699198891
-0.14011434966845898 0.00739417632194299 0.08126320248569179 -0.050751723627380584 0.1631459544326583 -0.019422564655542374 0.13794240355491638 -0.05099675577598738
-0.1981342476548868 0.04096414208226613 -0.036417569635158985 -0.05491906725188652 -0.03593604516876823 0.013129982123293025 0.03338539375517381 -0.032706637568966884
-0.07963997932588777 0.028181891210867217 0.045151008625873006 0.02534375026216717 -0.00034792558690779663 -0.11363340851936915 -0.11234737986752298 -0.09295649878493743
0.01854820086620427 -0.037729187705728987 -0.158040935995232 0.04697934306461527 -0.14548324315643987 0.04733993825470856 0.06156583023666087 1.1880953254459632
0.04687668175949594 -0.08156577695699581 0.04741061179864458 -0.06619815961322306 0.009114695569558353 0.014235416684773045 0.027462791179875896 -0.03269822825616977
-0.010299548876895442 -0.0019713252951306767 0.033938986591878086 0.00025198862046452684 -0.05752654532135223 0.012899794963771867 -0.01602109810371013 -0.34091145640090226
-0.5139678397564732 -0.571323916743912 1.296239745021808 -0.6250316041189686 0.1202816590666771 0.09925790131092072 -0.06219736617111358 0.11480335121964722
0.04773810853297846 3.657715849466722e-05 0.002397940562078797 0.15607276458148042 0.07669629080798637 -0.042953855987061494 0.0705471350977487 -0.007683591723240557
0.00953085332298662 0.07403450208627717 -0.010881620564409524 0.0736184938681869 0.029287169002987903 0.05139602993917011 -0.056352415629609236 0.057733876554442426
0.20449076878093667 -0.014965011849657971 0.040443664699867696 0.1204586654417303 -0.01614323834497982 0.1552696339022316 -0.05698442164707034 0.012998777689461108
0.037068978290530505 0.04796216171815266 0.221509162833409 -0.002707719294133884 -0.08796399438924948 -0.06772910458722754 -0.15621286602854736 0.06509280133931189
-0.0666827153340196 -0.1345735250126863 -0.05897992431364173 0.09850108481725534 -0.3022698290252199 0.002830732597077993 -0.41576585196155597 0.0629309170701602
0.2284727228676944 0.1227495247018871 0.032316190989904396 -0.11405101418495178 0.02983821928501129 0.04232106074162051 0.0260422112514707 0.03782667630813308
-0.05088959807313956 -0.033946528052700896 0.10280995434852037 0.029092923196585775 0.04920707744613093 -0.013567780750119723 -0.016096644402770463 0.0635075507841366
0.11631572920657825 0.05090571293165205 0.00990339179896658 -0.143808867792403 0.01174359381051615 -0.07829378207966538 0.11114391981388456 -0.17280897761539368
0.3319638072642824 -0.06244389240363547 -0.07693842005653585 -0.041389936738149335 -0.15548825313361697 0.3657755005892122 0.016455015561238125 -0.011249666334315659
-2.2612449996543456e-05 0.12457358764428009 -0.09203458064973032 0.03801127192696601 0.05946677614034913 0.02253819935096046 -0.029167751291591448 0.2665408798443268
0.012534484338582655 -0.017997428827931507 -0.2128613064000553 -0.13903350697984412 0.33689611341573394 0.24592705210715504 0.031152632486570977 -0.33143009159434694
0.08211160034695225 0.18597119599074957 0.041801586747169495 0.09398060292005539 0.03741971272335079 -0.13946445479283184 0.07772980259063436 -0.015988448156534416
-0.01173342002893798 0.015082378628347343 0.08804000384959079 -0.01064960918572841 -0.00359745248789689 -0.0022865636714026923 0.012420699313078943 -0.04430568534780654
0.03812192438969325 -0.008963731805088363 -0.017046986592392465 -0.13571317977079383 0.04085526414320598 0.027232637294041673 -0.22329158242598696 0.0667942651217357
0.11360154392110007 0.13295439098059042 0.011823438588705956 0.14109972727663772 0.024409861740764597 -0.13176283033276265 0.008148247792137487 -0.0887558346282167
-0.1287062370539996 0.021776217073104943 0.05933445060197466 -0.14114695777276168 0.15151085220369534 0.05430904582686706 -0.027075695272790593 0.014431225630299629
0.03043686377908393 -0.07150159654319592 0.07169371200765802 0.05558940272385467 -0.07583933235645825 -0.15275796262055436 0.22264516587236227 -0.17232333416450116
0.40513857175150914 -0.039335187524557114 0.013930506072938442 -0.048953872979681914 -0.02910121636588709 0.021916194252317257 0.04772134171245737 0.010342190472549764
0.07463505586571406 0.039718364717243916 0.008654121607727914 0.0014749415501964349 -0.04028490066251778 -0.07249211155781618 0.08729749328837158 -0.010888986616415705
0.00047653754339455393 -0.009518376413259508 0.08191991447842718 0.08600484388753536 0.017490302840884566 0.031713024304123934 0.0048138338985062095 -0.08507875327956692

fc.0.bias f8 [100]
00000000: f286 dc22 6ff3 a8bf fafb db65 6937 e6bf
00000010: 481c 8240 1c68 913f 3489 b369 a0fd bbbf
00000020: c77a ccf8 b6c7 a4bf fa7d 91cd 96f3 dbbf
00000030: 3452 5e3f d742 c6bf 2df9 aaa8 cce1 cc3f
00000040: 4f78 4170 19ab cebf 170c 4fd6 4d0e e9bf
00000050: e98b 25a2 2e9f a6bf 41f6 dcfd ae21 903f
00000060: ce26 185e 4294 cdbf eab8 770b 4538 babf
00000070: 528a 2270 9aa6 c13f ec38 fa6d 10f2 d2bf
00000080: 3784 04e0 bb98 d03f bcf4 f4ad 9129 dfbf
00000090: e338 5503 63a7 d43f 6aa8 f465 5e51 d8bf
000000a0: abb1 e242 eaa6 c6bf 91ad c2f2 9eca debf
000000b0: da84 8a7e a50b adbf a59a 2300 25ac 82bf
000000c0: 9dec c7de bb7c 77bf d08b 7e82 e207 e8bf
000000d0: b44a 3bfd 3bb4 df3f 0b6c 2c8f fa3a 8c3f
000000e0: b464 26b7 1075 cdbf b591 cc9e 738c d5bf
000000f0: 2925 b35a 0915 c93f 7e38 ad54 30ff d3bf
00000100: 9f23 145a ec63 c7bf 1c20 e506 6ccb abbf
00000110: a823 6fb1 d6a9 b9bf c5b8 e6f6 8e23 bcbf
00000120: 34a0 c3fa 0a85 b5bf 9c8e d947 a276 c93f
00000130: 3ae5 8f22 c670 c6bf 6b9d 9f40 e5a5 b63f
00000140: 89cc 7844 e7be c5bf b4a4 4fa2 7c2c db3f
00000150: 493e c516 1a3c 8e3f 3ba3 b8f0 11b1 ae3f
00000160: a70c ae5e 329d b7bf ba18 43d4 0999 a5bf
00000170: b2df e156 41f2 b63f 0f73 e5e6 9bd6 d1bf
00000180: 6f41 b6b6 00e8 a5bf f57c d3e9 b39d ccbf
00000190: f7ba 7b22 df3b 8a3f 564f 63e2 32ed e2bf
000001a0: cfe6 d0a3 31c4 bcbf ba14 3ab5 afe6 93bf
000001b0: b6f2 29bb 16c8 c3bf b50d 609a a042 bfbf
000001c0: acf2 1533 a9ac bdbf df4a f97d 3975 cdbf
000001d0: 02aa db46 eda8 b9bf 7801 2d81 d463 b7bf
000001e0: 6188 1a55 e9dd a5bf 2df6 ae51 d60e d2bf
000001f0: d195 43eb 5c85 d8bf d393 0893 7d09 b3bf
00000200: 00a8 97e9 06ea d13f b6b1 77ce 9845 a6bf
00000210: fb01 5ffb 62e3 afbf f3f9 61f8 b6a3 b33f
00000220: ebe0 c385 6bfb debf 273e b67e f1b5 b3bf
00000230: 2548 d802 bae6 a4bf ebc4 6270 0ecb 973f
00000240: ad56 efc9 e566 dbbf f275 a066 49e4 a6bf
00000250: 7914 733a 692e d2bf eb72 988d 607c b2bf
00000260: e6c0 c328 6092 c5bf 138e 15f8 a7a5 9bbf
00000270: 97db a3a0 6913 bb3f bf0a 7ddc d80d c83f
00000280: af02 3cb1 c647 b9bf 61ed 1462 4a1a adbf
00000290: 1fbe c97c 37b1 c6bf 5fe2 5c7f 1d91 d63f
000002a0: 761d 53e5 e9ee c9bf 31bb 12ee 1d97 cdbf
000002b0: e486 6452 54fd c2bf 7917 8927 f21b c3bf
000002c0: f4e2 efae 5ab5 b1bf a452 154f 221f b4bf
000002d0: 3312 67a4 fa05 cdbf b364 618f 12f6 ac3f
000002e0: 73bb 1c89 faf4 b7bf eef2 1951 6f20 d2bf
000002f0: 9e6e 1e28 1425 a53f 221c 727d ec30 b53f
00000300: 1443 749f 7e48 b7bf 08f7 13f5 a570 b03f
00000310: 0d42 05a4 7320 d3bf bef4 8f8c b615 be3f
-0.048732254987283855 -0.6942641248168677 0.016998712003012423 -0.10933878498648114 -0.04058620249837968 -0.4367424972060402 -0.1739148196617336 0.22564085231528833
-0.2395965383647671 -0.7829961000173878 -0.0441832135136549 0.01575349258859249 -0.23108701319170283 -0.1024211075780134 0.13789682841623346 -0.29602442493422987
0.2593221366569795 -0.48691217411016985 0.3227164776370854 -0.3799663539563257 -0.17696884408850386 -0.4811169977862955 -0.056729480454359396 -0.009117402140373551
-0.005734189861409747 -0.7509625004498677 0.4953756306614807 0.013784368032750313 -0.23013504927511053 -0.33669748790478177 0.19595448425960996 -0.3124504877968163
-0.18273691557285773 -0.05428636154334773 -0.10024778205764895 -0.10991757896292416 -0.08406132337734179 0.19893291958134263 -0.17531658828355906 0.08846886470529618
-0.1698884090743358 0.4245902619428066 0.014763072795772507 0.05994468749515255 -0.0922423821594288 -0.04218321529474296 0.08963402148390179 -0.27872369335618513
-0.042785665801718824 -0.22356270711222917 0.012809508552405797 -0.5914549276007885 -0.1123686814252338 -0.01943468612309538 -0.15454372538433397 -0.12211040276456837
-0.1159158467980414 -0.23013991023125066 -0.10023386936124015 -0.0913670363779654 -0.04270867503989063 -0.28215558983706296 -0.383139829397206 -0.07436356391606518
0.2799088746238567 -0.04349973221164609 -0.06228169744963804 0.07671683849364523 -0.48409545958521844 -0.07699498504211331 -0.04082280430533584 0.02323553620289413
-0.4281553718586604 -0.04471043946999122 -0.2840827055736735 -0.07221034485742066 -0.16852952948057193 -0.02699911548314844 0.10576496288181968 0.1879225803951012
-0.09875146700870617 -0.056841206047887345 -0.17728322594801768 0.3526071304109219 -0.20260356614583558 -0.23117422222773024 -0.14835599921303022 -0.14929034166760483
-0.06917349596904981 -0.0786000674318737 -0.22674496676894904 0.05656488418817087 -0.09358182761637383 -0.2832296649938105 0.04129851331455579 0.08277776777877979
-0.09094993012355373 0.06421887620305367 -0.29885569589262745 0.11751881534287897

fc.2.weight f8 [100, 100]
00000000: 9708 357e 1074 aa3f 996b 1e5a c6d8 9abf
00000010: ae81 200a 4590 b5bf 9f55 9adc 2ba8 933f
00000020: 7736 d2d7 bcf7 933f 2ea3 9f01 e77c a53f
00000030: fbf1 153a 0c5e b53f dbe2 19e4 0c93 a5bf
00000040: 7676 975a 9570 b23f 40b9 bac4 b533 8e3f
00000050: 6370 e21e 0d9c 9c3f 13c2 5b0f 6910 b0bf
00000060: 37c3 bef1 f9be 99bf 1efe 30ad 0972 b3bf
00000070: 1a8e 83cd f04d 9e3f ebc5 ab27 ab97 a43f
00000080: 4096 747f 3c62 8cbf aedc db45 dddd 85bf
00000090: 3512 097b e736 aebf 1b93 bfaf 7f5f b6bf
000000a0: 7b5e 24a9 165c 533f 9e82 6984 5ee5 a03f
000000b0: cac2 1f62 7fbb b4bf ef63 3f84 fba8 a9bf
000000c0: a0a6 074a 5fa3 b8bf 3106 ea54 b168 b6bf
000000d0: f5b5 985d 9afd aabf 6e9f c17f 269b af3f
000000e0: 24b8 bf6a 52b1 a93f a995 5e96 cf60 963f
000000f0: 0629 51e8 d67e bbbf f489 924b 348d 953f
00000100: 6316 cdef 984c b4bf 9095 e709 b1d0 b83f
00000110: 65cc a63c a0c2 523f 2aae eace 188e ac3f
00000120: 3a14 c07e 8d34 52bf f695 4ed9 bd01 acbf
00000130: 894f 0d68 4947 b83f 3dbd 547e 1778 b23f
00000140: 51a3 8535 b3ff a93f 6ba1 324b e693 b7bf
00000150: 72f6 e8c9 8ac5 ae3f 596b eae4 4a68 73bf
00000160: 2031 3520 f61c b0bf 8c0d 89cb e7f2 81bf
00000170: 61aa df52 1abf 82bf 20f5 4770 3f45 b03f
00000180: 1383 510d 5530 b03f 93ad 032d eacd a5bf
00000190: 2078 a388 b662 a8bf 8dd0 39e6 0a01 8bbf
000001a0: 93a9 105e 80f9 a2bf 37b3 9d9f 8c6c a3bf
000001b0: 1305 326b 0f30 903f cc84 2158 510d a5bf
000001c0: 088b 229e 3657 b63f c91d a41a 65fc b2bf
000001d0: 948a 7edb 1dbf b03f 9868 456b 493d af3f
000001e0: dd4f 0c13 8266 b8bf bdc9 6433 930c b13f
000001f0: dcc3 87f2 c2ea 713f bc80 13ed e72a 723f
00000200: 8bb5 cd76 27fd b3bf 8609 72ba dbfd a9bf
00000210: 9cea 75ef d1a5 b3bf dce7 9c16 53ab afbf
00000220: ec8c c34e 4273 b0bf 8392 eb34 7a3d b13f
00000230: 8a4f 9f4f a01b b23f c367 36b9 6602 95bf
00000240: ba93 c3d0 e95f 8bbf df93 52d9 2a9a 623f
00000250: a43c abfc c79f 5e3f 1aa2 27be 823b ac3f
00000260: 93e2 3ef9 de07 9bbf 4881 30a9 0d9d a1bf
00000270: 323c 47ed db5d b2bf e846 fd9a bc37 b7bf
00000280: 1874 3257 f913 b1bf fd31 1330 b41a a9bf
00000290: c965 5b52 a49d b3bf eff7 06cd ec39 ad3f
000002a0: 7ed9 cdfe 7541 8d3f b9ff 4c3a 05fa 7c3f
000002b0: f140 d65c c207 ac3f 8611 877b 1ace b23f
000002c0: 9c46 0174 caf1 753f 5c95 aa83 844c a4bf
000002d0: 1afe f8ac cfaa ae3f 8e0e 8ad9 10a4 aebf
000002e0: 12fc 3163 d5a3 9dbf c29f 09a7 f354 9fbf
000002f0: 5042 acc3 f84c b63f 04d0 339b 6f03 573f
00000300: 6278 2516 1e36 b4bf 64c4 000a ca6f b0bf
00000310: 83f2 4d0c 22c0 8c3f 86c0 f432 5845 82bf
00000320: d73d 6284 5ec9 a4bf 5784 7080 92a9 9e3f
00000330: 6217 49d7 c51c 9cbf 9a68 ce45 eba4 ba3f
00000340: 3d9f ffe8 dd1d c03f d1b9 0931 867e bd3f
00000350: cdd9 95a4 5dd3 9bbf f061 bf34 be93 aebf
00000360: a5da a064 8645 b33f 459e 5815 19c9 b8bf
00000370: 4344 c26f 6a94 653f f55a 58ca 155f b43f
00000380: 00d1 90ca fa0c 87bf 2f5e b764 6a9b a4bf
00000390: 5852 7cc8 61d7 b0bf 5e4a 6fd6 9d41 c03f
000003a0: fda4 7403 36f4 97bf 5854 3681 11b7 803f
000003b0: ae2c da1d 3413 a3bf b9a8 e78e 0fb5 aabf
000003c0: 656e e7df 8637 a8bf 03c7 81cd 0cff c4bf
000003d0: d7ae 0ba4 ea21 c13f 7884 2d91 6757 aabf
000003e0: 77e6 7a22 2377 413f 00ea b8aa 4717 be3f
000003f0: 4ddc d862 8ef4 b2bf f133 751b f925 b3bf
00000400: d90a 720a 5ecd b4bf 6080 a750 67ee aebf
00000410: 0f6e 178c 0dea b83f 5e21 2ab9 b3db b43f
00000420: 92eb 3179 ec7e 943f e38a a910 ee69 9fbf
00000430: 672f f036 e6fe a03f 271b cfe4 f88e a43f
00000440: dce9 8dc2 bd34 b6bf 1043 6f49 d37c b1bf
00000450: b49a ba16 6d7d b83f 5498 4958 d4f9 113f
00000460: c532 386a f0e0 5bbf 1f55 2242 e3fb 9a3f
00000470: 3a92 42a3 8591 97bf 2373 f5ef a802 b6bf
00000480: 2508 39ad 8803 b2bf b984 5a46 c5e5 a1bf
00000490: 21c7 6365 e8b4 ba3f 3af8 625a 7534 ae3f
000004a0: a1cf 5dcf 6d4b 973f 65f3 defe 1898 94bf
000004b0: 4ad4 1b0a d61f b5bf 5bda e476 2c06 b53f
000004c0: bd30 e371 a2c6 903f 1939 f792 2219 973f
000004d0: 4f69 9995 141a 86bf d024 b72e 8d3d 95bf
000004e0: 0a20 afe7 0e48 b93f 9e81 914c 7f9c b0bf
000004f0: 0033 1bd5 c907 b13f 4e41 7351 ce2f b4bf
00000500: 5fcf 995e 7bd2 b13f e7db 914d 9f28 a73f
00000510: 03e5 13f9 a5f3 9d3f f486 3cee f855 7d3f
00000520: 27ad 5334 71ae a53f 1a81 0394 e918 b6bf
00000530: 93ac 2524 3879 b2bf 5d3b f033 2bd5 863f
00000540: dc8e ce5d dfee c9bf 3ca0 d38f 3af8 b13f
00000550: f188 ae2c cdf9 9c3f 2f0d 9efd 3371 ac3f
00000560: f2bc 4b8a a389 adbf 2dd2 6466 8311 a5bf
00000570: 9c01 342e 61f3 bcbf 2457 1c72 5bd0 bfbf
00000580: 40be 5f84 4116 b4bf ec66 5b4d b6f7 b73f
00000590: 63cd 375d 50e6 b43f 0818 f6fd 71b4 bdbf
000005a0: e1d5 2f83 c787 853f c8f2 b9e6 375f 71bf
000005b0: cd43 fa5b c5de b9bf a1de 351c 1f15 b1bf
000005c0: 8416 6854 4277 bc3f 92b0 d3bb f8c4 80bf
000005d0: a96a b7fa 3713 aabf 49ce 2fa7 97aa 983f
000005e0: 9a07 cd48 c352 a4bf 60e7 917a 172a b43f
000005f0: a0d6 515e a621 af3f fbb7 2d72 6646 c33f
00000600: 2ba9 98ff 950b b03f e368 8e3e f9aa 803f
00000610: ed45 fd51 1bc7 af3f db05 9ebf d1d9 b03f
00000620: f2e6 354b 3181 82bf 5fbf 4299 f52f b83f
00000630: 6e06 13e3 c570 b03f b80b af85 f2d6 5a3f
00000640: e869 8dd8 7f0f b23f 5d52 73a8 8e54 90bf
00000650: 3a9d 0634 764a abbf d70d d5be bfc0 94bf
00000660: 8069 1baf 7b93 bd3f f437 c9e8 8bad 723f
00000670: cdcd 2f6e b65c c43f da20 2874 8e1d b5bf
00000680: aacf 9d19 78df ae3f 3336 8914 4411 b7bf
00000690: 28e8 9362 e77f ac3f 21e6 d2b5 2c55 bc3f
000006a0: fb59 b015 9748 9fbf 4e2d b6f3 602e b7bf
000006b0: e727 c1a8 62f1 51bf 2c41 e271 533c bb3f
000006c0: c73d fa74 434a b5bf 5028 713c 3c56 a0bf
000006d0: 53e9 cfcb 35eb a93f f9b8 63a0 74e9 a3bf
000006e0: 2a34 3a38 51a7 9c3f fce0 2dc8 3a60 783f
000006f0: 731e 6105 6a07 bf3f b143 4365 6557 7bbf
00000700: fab3 a86f dcf3 b53f c90d 274a 0c05 c43f
00000710: 513d 8bf7 cbc3 aa3f a8c4 db37 6ec0 aa3f
00000720: 00b6 affa 52e4 96bf 9970 cdba abf1 afbf
00000730: 91fc 3563 653a 873f c271 3dc4 8947 b13f
00000740: 1ec2 484f 8259 aebf d449 7040 fee7 983f
00000750: a4e6 fd92 ec7e c0bf b389 adbf 4d4a 95bf
00000760: 317d 8fe3 0c41 c23f db6c 5b64 65b5 9d3f
00000770: 24d8 bc5c 5fb5 85bf 9f64 1655 7c37 64bf
00000780: f4e3 a458 438f b23f 408c d960 7c0c 983f
00000790: c4f5 68fd 9353 b43f e461 0c37 4a0a 99bf
000007a0: ad1c 0b95 a347 8ebf 630a 5c9b 698e b33f
000007b0: b8c3 831c 3269 a7bf 8d3a df07 41ca bfbf
000007c0: 1bfe 2b0a 05f3 b43f e250 d98e 38a1 903f
000007d0: a107 2052 83f0 a73f 918d 1b10 c382 b93f
000007e0: b50f 68a1 a1f3 913f 69a4 34c3 7476 82bf
000007f0: 6c81 dac8 ff6a babf 20ef 2c65 9095 943f
0.05166675129523062 -0.02621755528489764 -0.08423263070336048 0.01919621023133333 0.01949973170535776 0.041968554447356574 0.08346630495174871 -0.04213753017842744
0.07203038655958402 0.01474706656094027 0.027939038286249118 -0.06275040268861458 -0.025142579441026682 -0.07595882871918788 0.0295941949306223 0.04021963938965797
-0.013859245910292306 -0.010677078909323203 -0.05901263596436871 -0.08739469567042273 0.0011816235824592392 0.03299994818076367 -0.08098598619086342 -0.050117359059818394
-0.09624286229486723 -0.08753498385524307 -0.0527160872701237 0.0617305785133898 0.050180984049675 0.021853679230522314 -0.10740416690638108 0.021046464073728857
-0.07929378370780564 0.09693438045322567 0.001145035249106718 0.05577161336745136 -0.0011111623562112386 -0.05470078733132404 0.09483774938899904 0.0721449550080608
0.05077896145195971 -0.09210051856883232 0.0601008769485646 -0.004738133006550204 -0.06294191633532309 -0.00876408662691721 -0.009153562215904633 0.06355663768041042
0.06323749137073902 -0.042586629862707025 -0.04762812059355803 -0.013185582304892552 -0.03705979488616431 -0.03793754051625913 0.015808335225760816 -0.04111723137681053
0.08726827011791383 -0.074163741115732 0.06541620835063561 0.06101445612394335 -0.0953141495231757 0.066598129317561 0.0043742766506378004 0.004435449563260526
-0.07808157587506608 -0.05076491023011713 -0.07674896331983877 -0.06185397769009146 -0.064258712987385 0.06734432022092034 0.07073404258636465 -0.02051697259376063
-0.013366533931227543 0.0022707783596893484 0.0018691494939735787 0.055141530716188394 -0.026397212946650383 -0.0344013470678442 -0.07174467604566884 -0.09069422515792847
-0.06671102885088975 -0.04903185927250673 -0.07662417421979408 0.05708255770467462 0.014285013044837976 0.00707437555394102 0.05474669821990286 0.07345738902865237
0.005357542831988884 -0.0396462832189097 0.059896936287710825 -0.05984547286518903 -0.02894528787555479 -0.030597502775350234 0.08711199547929849 0.0014046277909161029
-0.07895076790507141 -0.06420576805318629 0.014038339615347844 -0.0089213266897732 -0.040598825130583265 0.029943741883588917 -0.02745350958345883 0.10407896475081416
0.12591146351700813 0.11521185586182205 -0.027173484011166416 -0.05972093957797486 0.0752796168970727 -0.09681851168772322 0.0026342467154525664 0.07957588377062648
-0.011255225474180452 -0.0402482269234351 -0.06578646797817933 0.1270024582905362 -0.023392528496661836 0.00816167522024551 -0.03725588669211653 -0.052162634081314115
-0.04729863627627821 -0.1640335086299772 0.1338475514415822 -0.05144809386434529 0.0005330010944454973 0.11754272382760433 -0.0740441314054447 -0.07479817314488436
-0.08125865702644876 -0.060412624927040026 0.09732136411860658 0.08147738714808869 0.020015425583988007 -0.030677528159126843 0.033194727140737616 0.04015329163626396
-0.086742267607327 -0.06831093352162676 0.09566385083108281 6.857260275125568e-05 -0.0017015788843110374 0.026351500426774806 -0.023016059960939673 -0.08597808702820635
-0.07036642293044844 -0.03495613559540218 0.10432293391548032 0.058993975909729504 0.022748676091807977 -0.020111456447682658 -0.08251703020853643 0.08212545302090161
0.01638273067582995 0.02255682012565172 -0.010791931929976654 -0.020742612816125938 0.09875577122068094 -0.06488795871110262 0.066525091674702 -0.07885446060686727
0.0696179491004023 0.045231798380818415 0.02924975712537493 0.007162067780684945 0.042346513402515655 -0.08631763328185507 -0.0721621597528375 0.011148774645361287
-0.20260231094754644 0.07019392024415166 0.028296666958007092 0.055551171025422945 -0.05769072592908654 -0.04114924073147495 -0.11308867815023976 -0.12427302871614337
-0.07846459848200826 0.09362353695487585 0.08163931155995878 -0.11603462648608354 0.010512884799008528 -0.0042411979335354524 -0.10105546470209888 -0.06672853888255272
0.11119474945743418 -0.008188193542501918 -0.05092787681106376 0.024088258342045674 -0.03969393027956798 0.0787672685854921 0.060803603185303645 0.15058594298483272
0.06267678728241736 0.008138606282774357 0.06206593871923958 0.06582365921169446 -0.009035477740997309 0.09448180190770249 0.0642207793598801 0.0016381615048295228
0.07054900204585801 -0.015947560340310186 -0.05330247292595876 -0.020266529104686484 0.11553166413378868 0.004560038109572052 0.15907936458789465 -0.08248224578722177
0.06029868424130254 -0.09010720731131343 0.0556633289179021 0.11067466200884059 -0.030550347040923836 -0.09055143308630884 -0.0010951484173511385 0.10638925104490643
-0.08316442113777277 -0.03190792310540813 0.0506226359647878 -0.03889049966697828 0.027982014710279092 0.005951146714203267 0.12120688086826607 -0.006675144268414466
0.08575227476167405 0.1564040529320734 0.052275060622941745 0.05224937850824435 -0.022355362463647666 -0.062390677025832626 0.011341850366760194 0.06749783555046121
-0.059276649645088705 0.024322483714124335 -0.12887341668447505 -0.020791258644189358 0.14261017905571685 0.029012283563912483 -0.010599846856717283 -0.0024678638807925225
0.07249852098620108 0.02348512974857564 0.07940030037658291 -0.024453315362821373 -0.014785078035301014 0.0763917927070366 -0.045724454861449215 -0.12417990152537524
0.08183318613372885 0.016240009039692256 0.046756843352354645 0.0996515192342058 0.017530942417593304 -0.009014999587252786 -0.1031951775899011 0.02010179154898062

fc.2.bias f8 [100]
00000000: cb87 6a1b 4503 7abf 85e0 d4bc 1dc2 973f
00000010: 2034 0f1b 88a3 8bbf d3ae 7636 4fad 9dbf
00000020: 10aa 3db5 5f05 b23f a7ff 7f35 50e9 b13f
00000030: 41b8 03ca 4989 753f 90b2 273a 03cd a0bf
00000040: 1e15 761e c5be b6bf 708a 558d 8beb a6bf
00000050: f2c7 a374 4241 a63f c881 ab54 5fdf b5bf
00000060: 8582 f892 3fb0 b8bf 8ecd df82 32ae bc3f
00000070: 7fec 4b50 6410 aa3f d53f 4f08 18e8 9cbf
00000080: 768d c383 2a48 a5bf dacb 5f4e 5cd6 a4bf
00000090: 09a8 8f87 d8ea b63f 5eb7 6f74 69d4 a73f
000000a0: 8447 9c0c c23d b43f 6be7 553c 340d 883f
000000b0: 787e 66a4 5ae2 b5bf 3a2d e5d9 da5c a2bf
000000c0: f598 1df8 b023 a03f 7395 25cd 3024 b53f
000000d0: d09c c428 cffd b93f cc24 e99b 1abf b3bf
000000e0: 8df3 6500 9062 94bf d06f 1dc8 824c 82bf
000000f0: 942c e25e a88c acbf f7ae 877e 6f64 be3f
00000100: fa55 2c22 b9ac c03f cd9d 1744 5521 ac3f
00000110: 1f7c 3da8 fc8e 6dbf 2b92 901d 3249 87bf
00000120: c05a 0147 e254 a53f 7005 c068 ca11 c23f
00000130: 19cd fb97 b02e 6fbf 84d0 ca4b fc80 a8bf
00000140: 520b 88ed dac8 b13f 2515 e4f2 628f b93f
00000150: d228 de76 ec4b abbf 45c3 3961 2635 90bf
00000160: 0c41 d5ac d400 a63f a487 ec5e 1e0b a03f
00000170: cf4e e3d3 6b8b 99bf f567 9052 1ca0 663f
00000180: 5604 8987 3363 bb3f 02ec db40 29da 9cbf
00000190: 6fb4 ea30 1f33 5c3f 8afc cb5d 75bb b23f
000001a0: 6351 35ee 18e6 b33f e9de 926c 691a bbbf
000001b0: c3c6 9860 02b6 a03f 03ca ff4e c02d 993f
000001c0: 2ad7 0375 c0f5 c1bf 00d1 025f 4c90 ba3f
000001d0: dc64 3be4 4959 a7bf b54c 58d1 92f8 b73f
000001e0: c58d 9b08 3ac1 b83f d84d 3446 69f8 b53f
000001f0: 5461 6572 6dfb bb3f 130e 4192 841c 9bbf
00000200: a6cd 9e41 edd9 813f 460b 5caa 65f0 a8bf
00000210: c78e a446 fe00 b4bf 2e87 1833 34ee abbf
00000220: ef02 4964 416f 9c3f 9119 8026 9bdb 933f
00000230: 7a98 dc18 634f a03f 25a2 0fa9 7a48 b4bf
00000240: 43de 72ca 9a0c 87bf 5eea 952a ef06 77bf
00000250: c622 e038 c605 9c3f 0cfc efbd e871 b63f
00000260: 8654 eec8 8822 a73f c1f7 aea8 bd70 b1bf
00000270: 0da2 b0ad c978 b7bf 7527 e1ba 8c99 b2bf
00000280: 1fe3 aef9 5f34 ae3f 6fc1 3bc8 b5ea 703f
00000290: 98f2 2eb4 9694 afbf a5fc b4cf be02 a63f
000002a0: 45ca 1e7d ccba b13f be0c d276 552e 9dbf
000002b0: 9070 69de 135a b4bf d8b9 2cf1 549b 6a3f
000002c0: 2a42 d449 0b66 a0bf 4f31 f53a 6bae 95bf
000002d0: 2cd7 fad3 3d98 a8bf d401 92b6 8aa0 83bf
000002e0: 6caf 27ab 2ccf bcbf 97ce 8c5b 5b1c b53f
000002f0: 05dd db32 cbb8 a63f 026d 29ef 4223 b53f
00000300: 1a35 c4e0 a7c1 b93f 4f6e e805 d270 afbf
00000310: 5e41 d10a 51ab a4bf 90a4 0dc2 7b71 99bf
-0.006350774716937078 0.023201431894648756 -0.013495505643641492 -0.028981435488886497 0.07039449858499602 0.06996632867958273 0.005257881392237763 -0.032814122056014416
-0.08884841912921046 -0.044765816691115456 0.04346664117646516 -0.0854396421159499 -0.09643933618691321 0.11203304000064504 0.05090630989249067 -0.028229117877174154
-0.04156620844312446 -0.04069794136730538 0.0895209628066881 0.04654244943945572 0.0790673523700019 0.011743934718413581 -0.08548513902359811 -0.035864676569497836
0.03152230290179318 0.08258347519366342 0.10152907128632482 -0.07713476473249442 -0.019907236122424222 -0.008934995395684014 -0.05576063307042847 0.11872002448188455
0.1302710930691971 0.05494181114391559 -0.0036082205496508336 -0.011370078589672058 0.04166323773158842 0.14116792788267274 -0.0038064431281498276 -0.0478590815086202
0.06947105692965508 0.09984415464358116 -0.053313626775961645 -0.015827750858480334 0.04297508821275828 0.031334828460116954 -0.02494591217766989 0.0027618935751094705
0.10698244151082412 -0.028175968726809948 0.0017211727714923316 0.0731728891369007 0.07772975745803516 -0.10587176228261409 0.03263862065467784 0.024588589498259605
-0.14031224931357517 0.10376431769947558 -0.045603093252518184 0.09363668070754978 0.09669840536257997 0.08582170452091675 0.10930522959586614 -0.02647597448982537
0.00871644360072461 -0.04870908455452265 -0.07814015602758238 -0.05455172656753714 0.02776815580932895 0.019392418122174574 0.031855675492168126 -0.07923094394175985
-0.011254510215038432 -0.005621847384981919 0.027365777226836106 0.08767561566490673 0.045185350921351605 -0.06812653892754296 -0.091686825661448 -0.07265548288810726
0.05899333880319645 0.004130086981362842 -0.061680516715090394 0.04298969541059109 0.06925657324499308 -0.028497062089184004 -0.07949947528817547 0.003247896101490993
-0.03202853466257623 -0.02117316768026117 -0.048036510588117615 -0.009583553024868609 -0.1125362317904412 0.08246394143207635 0.04437861438594307 0.08256929720794307
0.10061120259725378 -0.06140762636297536 -0.04036954171226868 -0.024846967429230704

fc.4.weight f8 [3, 100]
00000000: 1ba6 8d7a cd7f 843f 0422 efb3 00f3 a1bf
00000010: 0339 8cce a629 d7bf bdf3 6c66 ba2c c5bf
00000020: 09f1 467e dad8 98bf c314 456f b219 cd3f
00000030: 20db 9273 7af3 cfbf d3f6 e507 24aa d3bf
00000040: 0b9e 6302 c1a9 b43f 2e27 1511 afa5 cbbf
00000050: 7d98 cb53 9a93 e2bf 7fc4 bcc9 b0ff d23f
00000060: 38de 9701 87c8 d63f 3077 baa4 27d8 dbbf
00000070: bfc7 7a80 eb43 d2bf f094 5774 ad5f ecbf
00000080: 93c3 0b76 2552 b13f c644 1e78 1dc7 be3f
00000090: 0495 ee2f 5e84 da3f 21e6 d3f8 0f02 d2bf
000000a0: 9d6d 1a62 461c e1bf 59a9 8a7b e5d8 d0bf
000000b0: bdb9 856d a83e 933f 2de0 a7c1 3900 b43f
000000c0: 6dbc 8c50 7bd6 84bf b588 a148 6ef5 ee3f
000000d0: 757b 56af 5b0b bbbf 538a d17f 591e dc3f
000000e0: 6af5 b1a0 b9cb a03f 7227 84ce 89c5 c1bf
000000f0: 203a ee55 2e3d c5bf d97e b335 6ad8 e7bf
00000100: 1189 98b9 3f76 d1bf bc45 1a19 7edc f7bf
00000110: 9ba0 6198 23d0 a43f 000b 73e0 5d23 cbbf
00000120: 3582 4e9f 8a35 bbbf f71c b9d2 adca c1bf
00000130: 77cc 42b4 78b5 c43f 0e3f c195 5d19 b4bf
00000140: 5fc2 5fc1 087e d9bf 33e1 bfcf afdd d53f
00000150: 9d00 bb1b f51f c03f a619 26c4 0860 de3f
00000160: 6ae0 f34e f35a f3bf dae3 e02a e2b9 b6bf
00000170: 3c36 4333 c495 b33f c15e 6458 de5d a23f
00000180: dd9a 44c1 f8e0 c23f 8b80 f557 a3ec d83f
00000190: c022 6137 7b20 e43f 78a4 8a15 6f4d e43f
000001a0: cab0 7aa9 aa39 c7bf d052 707f 606d cd3f
000001b0: 762a 8844 876b d13f 9cfe 2dc0 106b c73f
000001c0: cdb7 6873 82e4 e5bf ec61 8174 b715 d03f
000001d0: 894d 71bc 04d7 e63f 69dd 9524 b146 d13f
000001e0: 39d7 84bd d03a c0bf 2fe2 67e2 97ca dfbf
000001f0: b4db 9ce7 498d d3bf c088 fd7e d675 d7bf
00000200: 3415 ad00 8a3c 813f b022 164e 2ffd c33f
00000210: 00b4 5360 0f98 a13f f881 022c 3ef9 b6bf
00000220: abb2 5255 6bb3 dd3f a9d1 f18f 7a67 dabf
00000230: e51b 4638 37c9 d43f bd76 3819 3641 ddbf
00000240: cae7 ea72 7950 ae3f 8a5e a50c 0acc ea3f
00000250: 439f c547 5757 da3f 25a0 4ee6 7ae0 eabf
00000260: e3e1 2607 0034 cc3f 8f27 81a6 590c da3f
00000270: 002a 8ef6 5a46 a83f 5e2f 59d0 cbfa dabf
00000280: 1d6c 610e f89c d43f 3436 228b ca09 d63f
00000290: 4ff1 ecf4 866c c6bf 6938 2628 fc5b e93f
000002a0: fa13 3e1f 0701 c5bf fe5d 8609 3f00 b3bf
000002b0: e1f3 e31d 3c46 e8bf ca10 7291 9a62 c13f
000002c0: 1a0e c9c7 f95a e83f a2e8 9ce3 2fd9 7ebf
000002d0: 50e5 3870 fd49 b7bf 228b ff14 fe5a bdbf
000002e0: d82b 7dcb 4436 cc3f 54a4 c893 2740 e9bf
000002f0: 6395 d632 ab42 d93f f292 851b 7fb6 d3bf
00000300: 2a5e 6126 9114 e6bf ed04 f9aa 9922 cc3f
00000310: f23b 1b5e 416f c7bf 5d15 37e0 aafb 963f
00000320: 203c 1d2b 5e9d 96bf dfe0 f598 56b6 adbf
00000330: 7bf5 1234 998a b73f aa2a 6c3a 21dc b63f
00000340: d5cf 14ec 6e8d d4bf 18b0 84e9 ee2e 9cbf
00000350: e926 67a9 5ddd c53f 0231 ffb4 eb5e 7cbf
00000360: 4060 0c90 d852 b43f e2e1 d3d5 5df7 b3bf
00000370: 62a8 aacb de72 bdbf 1d5a db95 c020 993f
00000380: b04b c695 acb1 c23f 9532 dae8 47de c0bf
00000390: 15bb dd6d 36e0 a0bf 240d 2b01 0fc6 9b3f
000003a0: 1b2c b38e 5dcc 9d3f 9128 2ced 05ff c23f
000003b0: 140f 9660 590c b9bf cbe5 782d 9203 ae3f
000003c0: fb2a 46d1 a18d b0bf 9a70 b588 ee26 ac3f
000003d0: 6692 f850 4490 8abf 6ed3 a03f 9598 a43f
000003e0: 188f 1d9f 2c09 96bf 858b 1738 3f58 b23f
000003f0: dff9 fea4 f976 b73f 54f3 8a13 524b c1bf
00000400: 67f7 0ebc 14eb b33f fe0d 6aa7 e477 b5bf
00000410: ecd5 4047 ce28 c4bf 24d7 1d03 e376 b03f
00000420: 553b 4512 28d3 c13f 87cb ed31 b9e1 a6bf
00000430: 0a32 2e1b 1dc6 b73f e7eb bb7e 5207 ca3f
00000440: 965f 44f3 9023 97bf decf ed4b 7527 c6bf
00000450: 90b8 f5ba 66e3 d7bf 9e60 a326 97c6 943f
00000460: 45ec 72a6 9deb 973f 8c11 5d9a 4b4f a83f
00000470: 3500 a2e5 a5f0 903f 2fd1 ea81 088c bdbf
00000480: 8b2f 790c fbd7 b23f 9b78 641d 8f1d afbf
00000490: 63cb 0fc8 3d7f a53f 6e67 b192 c935 a6bf
000004a0: 32a6 f0b7 95a6 a83f 4a67 5134 fbad d13f
000004b0: 0473 82d0 d048 a13f 4e39 6826 e3bc 40bf
000004c0: 9ef9 d60f ba70 bbbf 5f16 7207 0d80 aa3f
000004d0: 4afe 57aa 606d b8bf c690 cfea eef4 7dbf
000004e0: cf39 2aa7 0ec4 d63f 5636 445b 139d b73f
000004f0: 8abc 529d e7b9 a63f acf5 b8f2 4dba babf
00000500: 4624 f48a e067 b73f 1954 78ab 76b0 bebf
00000510: 0812 6d92 7d42 8ebf 55ad a2ab 4b61 903f
00000520: b349 73e5 c687 b73f 5359 1db7 cc56 ad3f
00000530: a0f5 1c0f aec7 92bf e7e2 bd34 7602 c2bf
00000540: 930e 5bda 4864 b4bf 9e02 f70e 4eec c9bf
00000550: d530 fd21 4da7 a63f 84b8 8205 87cd cebf
00000560: dfb2 762a e5b5 b4bf 0eaf 8002 6f97 abbf
00000570: 469a 3f7c 31d8 bfbf 7c6d c474 c45f c6bf
00000580: 725b 92fa 7dd7 adbf 866a f149 ffbb a73f
00000590: ce7f 16da 4426 85bf 438e ad1b 9cef c73f
000005a0: 1f43 5000 e472 56bf e6c7 3f93 c045 b93f
000005b0: ef09 4234 57df d13f d889 016b efdd c03f
000005c0: 578b 8ad0 4e90 773f 1406 b22a fd38 aabf
000005d0: d767 6441 49e6 b13f 1bd5 7cd6 58ae 9dbf
000005e0: d7c4 e7a7 4aa5 b6bf 4622 9569 8e8f 93bf
000005f0: a09f 59de 1995 8dbf d1ba cd8d 308a b13f
00000600: 39e9 b3d5 2ec0 c13f 7b29 bb60 1aee bebf
00000610: 995f cace 6508 cabf a884 a588 c5d1 c0bf
00000620: bd7a d9bf 685d c03f 98bf 75f2 4c36 b43f
00000630: c72a 014c 57e4 b53f 4841 8d06 f174 bbbf
00000640: ca8a 6add dc59 b0bf 0aec 5337 d606 db3f
00000650: 348b 5ab2 21d1 d03f 7ee1 5da9 850a a23f
00000660: ef5d f996 8a80 f8bf 0cbb 67d9 22fa d13f
00000670: 48af b708 161e e23f b975 99a1 bbcf cb3f
00000680: d9c6 9e12 fe79 c13f 80e3 e331 2195 c23f
00000690: 152a 71b8 f585 ebbf 606d 9b70 4be1 b23f
000006a0: 1ff5 4e94 5802 e43f c6e1 6712 44ac e8bf
000006b0: 18e0 2d52 16b7 e3bf 8efe 96f2 5014 c8bf
000006c0: ada7 f683 974d b03f 1d14 ddc9 c593 e53f
000006d0: e1ea fd4f db84 d0bf 03d5 f38d 7e9f d13f
000006e0: d0b3 394c 4f33 a5bf 5503 1f5f a9b8 e23f
000006f0: 3c6b 55e8 2a2f 75bf e675 6990 4030 8d3f
00000700: 88ed 9df6 3039 b93f 6bb0 f016 821c d53f
00000710: 0720 662a bda7 bd3f f738 f327 cdd1 f0bf
00000720: cac8 8ccd 5321 d03f 1016 7dac 8c97 c1bf
00000730: fdb3 a803 26ad e8bf 124f d2d3 35b3 db3f
00000740: 7399 1b10 5387 ef3f 51cc a007 c6c3 cebf
00000750: 61d2 ee64 5f5b 91bf afda f7d7 b20e e63f
00000760: 0ee2 059d f6ec af3f 1b07 0872 b7aa e7bf
00000770: 1b92 4da5 e57e fcbf dddd bd3d 86aa b1bf
00000780: 3a1b a32b 31df b33f de62 ee45 ee46 d93f
00000790: d834 d0e9 57c2 a83f 3eaf 92e7 e845 dfbf
000007a0: 1b83 2e8d 3fe4 cb3f 012c fa70 8f22 b0bf
000007b0: 0587 f9f1 2ed1 c1bf 12f2 ced5 5c31 b8bf
000007c0: c359 1287 53c5 babf d9f7 e26f 03c4 f33f
000007d0: ec80 bf2c 868c bcbf c4dd 1681 704c a6bf
000007e0: f16a 1d52 f887 cebf 67eb 5a31 80c8 d93f
000007f0: 2d9c 5e53 c56d d7bf 5b12 1c37 90c4 e2bf
0.010009389212160482 -0.0350570888181814 -0.36191721125295845 -0.16542749406099047 -0.024264730412810773 0.22734671052072572 -0.24961786883587767 -0.3072595669872104
0.0807152396042669 -0.21599376997101544 -0.580517924940764 0.29685611439624177 0.355989219241994 -0.435068045489845 -0.2853955034908004 -0.8866793892199478
0.0676597035596969 0.1202257555253424 0.41432909661155315 -0.2813758783300689 -0.5347015300825891 -0.2632383066617386 0.018793708500590024 0.07812844255374847
-0.010174716373141568 0.9674598139356677 -0.10564206152637985 0.4393523929813103 0.03280429922686319 -0.13884089072990552 -0.16592959590748624 -0.7451678322649641
-0.2728423416575803 -1.4913311939784384 0.04065047488330827 -0.21201680621569352 -0.10628572835276702 -0.13899777211393147 0.16178807069590892 -0.07851204782604901
-0.3983175171297599 0.34165568626441994 0.12597526411082507 0.4746114650264651 -1.2097046932304019 -0.08877385660970508 0.07650400401618013 0.03587241009716769
0.1474905914012287 0.38944324102158906 0.6289650041226977 0.6344523831113653 -0.18144734645227906 0.2299004194507206 0.2721880120522323 0.1829548776986386
-0.6841442350466821 0.25132547738533506 0.7137473755378078 0.26993969509881893 -0.12679490331509571 -0.4967403136247723 -0.305498577293686 -0.3665672531261741
0.008416250367768364 0.15616408646407853 0.034363251217520485 -0.08974064421136763 0.464075883219986 -0.4125658422192609 0.3247812318372197 -0.45710518324800004
0.05920772102167822 0.8374071356765438 0.4115808678529797 -0.8399023531137614 0.22033691739285563 0.40700379619794885 0.04741176852902029 -0.4215573820736064
0.32208062557555356 0.34434760653752794 -0.17518698653465 0.7924786361852628 -0.16409386659157105 -0.07422250731030286 -0.7585735877797753 0.13582164861521157
0.7611054327066455 -0.007531344477508169 -0.09097274770546915 -0.11466968548442627 0.22040615020736598 -0.7890813719178689 0.3946941372363055 -0.3080137032286948
-0.6900106191268993 0.21980591629293347 -0.18308274359739546 0.0224444102621154 -0.022084685689432004 -0.05803175561135431 0.09195859452571213 0.08929641414958192
-0.32113240294279183 -0.027522786143137606 0.17081805011394316 -0.006926460962813021 0.07938912884526506 -0.07799326391603459 -0.11503403160409811 0.024539002558265566
0.14604718507015724 -0.13178347463362586 -0.032960606490510504 0.027122721144008058 0.02909990485640544 0.14840768891037162 -0.09784468277035457 0.05862099461632971
-0.06466113433104319 0.05498452585990883 -0.012970479699171377 0.04022661592208619 -0.02151937218822217 0.07165904159005095 0.091659167082049 -0.1351111026214321
0.07780580130835589 -0.08386067473661993 -0.1574952934185342 0.06431406808937062 0.13925648586379205 -0.0446908830116604 0.0928667250975154 0.20334845722376757
-0.0225966118315167 -0.17307916839092646 -0.37325447328374484 0.020288812382972858 0.02335974052833147 0.04747997531243006 0.016542999401736053 -0.11541798755462616
0.07360810331846161 -0.060772392595241 0.04198639933738126 -0.04337911525426717 0.04814594145166175 0.2762439738195225 0.033758664563015045 -0.000510798371409918
-0.10718882452690656 0.05175820079697923 -0.09541896971494981 -0.007313664694241056 0.355716384169594 0.09224053362069048 0.04438709063958253 -0.1044052808365083
0.09142878906654159 -0.1198801201465617 -0.01477525809389936 0.015996153212353665 0.09191554166617415 0.05730285392080483 -0.01833984343760664 -0.14070012641220517
-0.07965522128056994 -0.20252395373065196 0.044245157622386046 -0.24064719933580048 -0.08090050017080895 -0.05388972192335305 -0.12439259799394006 -0.17479758931663614
-0.05828469928490322 0.04635617997765444 -0.010326898484720373 0.18699981070959568 -0.0013701654982051848 0.09872058482122234 0.2792566309291535 0.1317729256143838
0.005752857083879479 -0.05121604105171343 0.06992013784875382 -0.028985393611226856 -0.08845965003253596 -0.019102311319587416 -0.014444543932043363 0.06851485692980509
0.13867745814042978 -0.12082066403960383 -0.20338127705758494 -0.1314017216891774 0.12785062186863697 0.07895356101448525 0.08551545720653585 -0.10725313577609541
-0.06387119680088485 0.4222922840414759 0.2627643815741749 0.03523652737107151 -1.5313821694779752 0.28089209776855806 0.5661726160301237 0.2172770060596301
0.1365354147833873 0.14517607627911033 -0.8601025202163465 0.073750224105813 0.6252863785408954 -0.771028552960211 -0.6160995106756699 -0.18812000127035272
0.0636839577843193 0.6742886488578993 -0.2581089287920531 0.27535976278825575 -0.04140708737836685 0.5850417001566749 -0.0051719356609634635 0.014252190024474264
0.0985289194194846 0.3298650001550018 0.11584074292306933 -1.0512210426855384 0.25203414033161364 -0.13743742391868397 -0.7711362906899236 0.43281312642760483
0.9852690996747654 -0.24034953472582513 -0.01695012143655317 0.6892942636612441 0.06235476176056319 -0.7395894267249078 -1.7809807259701589 -0.06900824553837688
0.07762439074859354 0.39495426968782776 0.048357722560561534 -0.48864195456075155 0.21790308374058828 -0.06302734859688998 -0.1391962701337023 -0.09450321407252485
-0.10457346007965555 1.2353548403329937 -0.11151922790986973 -0.043551936872457314 -0.2385244751884197 0.4028625947936945 -0.3660748781352961 -0.586494548450513

fc.4.bias f8 [3]
00000000: 261b 6d90 8ce2 b1bf e5f2 45ac 7ef6 a6bf
00000010: b3ac cdb5 a2b3 c3bf
-0.06986311460523761 -0.04484935620255274 -0.15391954304809516
