car_ros2/car_ros2/losses/exp30.pth (torch, 123591 bytes, 6 tensors)

fc.0.weight f8 [100, 47]
0	0x3fbb5ae9b7308722	0.10685597155000129
1	0x3fad974b949009d8	0.05779491604336656
2	0x3f61adfe1ab5f5a2	0.0021581614470835434
3	0x3f995f02cc5e7d13	0.024776500438403803
4	0xbfb1d8a6692e8d7f	-0.06971206729808975
5	0x3f91ad577c45a998	0.017262808761566356
6	0xbfbbee98ede673b4	-0.10910945709333825
7	0xbfc7bd94bdc96662	-0.18547305361680616
8	0x3f9e0577db3e72c5	0.029317734486187037
9	0xbfb55ff465f025cf	-0.08349540222857076
10	0xbf8ae32c5a78ba48	-0.01312861109826459
11	0x3f9dc7e2d30c65ec	0.029082817202924646
12	0xbfd208f545012737	-0.2817967580673328
13	0x3fb0d42f34d0a388	0.06573767699650379
14	0xbfb2b98b5ff14ff7	-0.07314368336056974
15	0x3f7557f8543c656c	0.005210847888315367
16	0xbfb0488f63882026	-0.0636071794507421
17	0x3fb35f8b968b800f	0.07567665505803255
18	0x3fb5fc00f4967e7c	0.08587652179130062
19	0x3fb7f33f3e886254	0.09355540539434887
20	0xbfb3ec2d94109f60	-0.07782254090181828
21	0xbf9aba288c7c9085	-0.026100762915249227
22	0xbfc2e929a434c0d5	-0.1477405597484053
23	0xbfbc10d87e881f6a	-0.10963204468873547
24	0xbf98e3b15d30918c	-0.02430607920918386
25	0xbfb17f440ff04793	-0.06834817303777489
26	0xbfb6c98cda9ca506	-0.08901291215137883
27	0xbfca3a3cc07df2c1	-0.20490226172468876
28	0x3fad191478d5ab97	0.056831969976733614
29	0x3fbda8dd225a91dd	0.11585790718760998
30	0x3f9b1601e5e0594c	0.026451139121570308
31	0xbfa5f93ef109c8e7	-0.04291722004281145
32	0xbfd11571b4222542	-0.26693384734297265
33	0x3f6ab7c5e5aa266d	0.0032614579370758207
34	0x3f6334b098162754	0.0023444604018480284
35	0x3f8e1e3ff966f57a	0.014706134604120836
36	0xbfa3acadd68e29f2	-0.038426811638675576
37	0x3fbf642a7cc48940	0.12262216135107895
38	0xbfa3b7dffb38c112	-0.0385122293631658
39	0xbf8f4ad348e80fee	-0.01527943674319229
40	0xbfbf8483d7ced563	-0.12311576861141797
41	0xbfc19a0dfd1ee188	-0.13751387462049203
42	0x3fc1b8785cd301c8	0.13844208271440395
43	0x3fbeace37a01ccb6	0.11982557038008931
44	0x3fcf0df3113c1004	0.2426132043984809
45	0x3fbcac9fc0000000	0.11200903356075287
46	0xbfb7fc2d40000000	-0.09369166195392609
47	0xbf7ebad22cf7532b	-0.007502385138157301
48	0x3fa23dec4baae248	0.03562868522334789
49	0xbfa05e8cc3150ab8	-0.03197135812162827
50	0xbf8b34e00e18baef	-0.013284445219225087
51	0xbf97b01f3f38c26a	-0.023132789834735247
52	0xbf95bb3569a539cc	-0.021221956799587535
53	0xbfbe85c3abce3205	-0.11922858185261738
54	0x3fa6a864f4473a8a	0.044253496951218343
55	0xbfa593538780686e	-0.04213963536331354
56	0xbf9ec8a530a96e9a	-0.030062275977214094
57	0xbfa55477ebcfc327	-0.04166006806906913
58	0xbfc1e2eca5d2bd86	-0.1397376832660308
59	0xbfaa4c7294468716	-0.0513644987106671
60	0xbfb073791fea87ca	-0.06426198033525946
61	0xbf98740c3177a1b1	-0.02388018657612329
62	0xbfcad60f509db8dd	-0.20965758739789112
63	0xbfa7cb5f2c46c077	-0.04647347846491894
64	0xbf6f47605a8d6066	-0.0038182145985210967
65	0xbfb5712e36533b07	-0.08375824762627469
66	0xbf9c010cf900ebe8	-0.027347758005117045
67	0x3fb22601d519ab33	0.07089244320529246
68	0x3f90a2534e68f52a	0.016244222317472502
69	0x3fa14160e4d07816	0.03370192330497461
70	0x3f887134e3a2d718	0.011934674450781155
71	0x3fb3f67225196000	0.07797921567669164
72	0x3f94dfa19ec00568	0.020384335817657556
73	0xbf643da06b3bd312	-0.0024707921201020467
74	0x3fb8fe6357227ac4	0.09763165356933273
75	0xbfb0a61ef2538b26	-0.06503480354471644
76	0x3fe5db099630304d	0.682987969719315
77	0xbfa905fe158e489a	-0.04887384427196757
78	0xbfbcd99d05f9d756	-0.11269551654717466
79	0x3fc33347d82af585	0.15000246100491324
80	0x3f8ea26ba1652991	0.01495822988785703
81	0xbfde21f33f1b4e69	-0.4708221546436336
82	0x3fc70473dad1d8b0	0.17982338127666742
83	0xbfa6d40617acf36e	-0.04458636321076069
84	0xbfc8ef7c5ca0c48c	-0.19480852625705258
85	0x3fae504f423766df	0.05920646365457371
86	0xbf6cfcb8b0e7d8a4	-0.003538475727732653
87	0x3fd2f953344bc55f	0.29646759135274253
88	0xbfe1a2a96b829c9a	-0.5511061763580927
89	0x3fe9200b735e80ae	0.7851617101005297
90	0xbfcb3b5e618bf905	-0.21274928820634656
91	0xbfd8c32ba7a1a721	-0.38691226358661096
92	0x3fb5adeec0000000	0.08468525111675262
93	0xbfb4ef0540000000	-0.08177216351032257
94	0x3f5c609a6a84b3ff	0.001732016369781819
95	0xbfb4b8e6d720f72f	-0.08094637634436873
96	0x3fd295570d0437a3	0.29036499282016787
97	0xbf9460802b033f7e	-0.019899370789800745
98	0x3fa2980dc66285bf	0.03631632849397758
99	0xbfbd0e440e9d4b84	-0.11349892956540769
100	0x3fc0c2b57cf42bc5	0.13094204522380273
101	0x3fa4c5001d565cec	0.04056549413797392
102	0x3fa47986a7c38239	0.039989669779747
103	0x3fae81abac95e5ed	0.059583058183260686
104	0x3fa5fb91ea55ac99	0.04293495164423539
105	0xbfc0430f7089e123	-0.12704651827858368
106	0xbfc78c82d4de8291	-0.1839755572700779
107	0xbfa1f1eeff793c05	-0.03504893177579763
108	0x3fadce21d2f0fc5f	0.05821328830688154
109	0x3fb5d9b871ddbed7	0.08535340099274023
110	0x3fc1a1cac0b5cca5	0.1377500000922726
111	0xbfa81d75ceab213d	-0.04709976337250275
112	0x3fb10623f9ee3598	0.06649994708842255
113	0xbfa14bb0cad7c020	-0.033780598412590956
114	0x3fa7055c73aa1016	0.04496277725141355
115	0xbfb45bb492557dc7	-0.07952431271177494
116	0xbfbd1850e8d242d6	-0.1136522835170227
117	0x3fbc7b747b7ff65a	0.11125877394803166
118	0x3faa1f75063c93f0	0.05102124882822767
119	0xbfa422abee161f4d	-0.039327023328097434
120	0x3fb0b3a45ec82e28	0.06524112047207409
121	0xbfca06c16fe1a8fe	-0.20333116496050957
122	0xbfb3142ca76d418d	-0.07452658736770541
123	0xbfa30f39f7659507	-0.03722554345112355
124	0xbfa0229ff6f6c39f	-0.031514166733706654
125	0x3f54baedb460d0f8	0.001265270360375102
126	0x3fb3b97fbef7095e	0.07704924022894974
127	0x3fb18961c2385392	0.06850253097247919
128	0xbf546dd0e08dcdc4	-0.001246885282139996
129	0x3f8d67d9c69d910a	0.014358235715640894
130	0x3fbb9b6b6350bfed	0.10784026312535362
131	0xbfca374ad41c7f1b	-0.2048123870563295
132	0xbf9f45e8c3b64504	-0.030540120072662283
133	0x3f6ee9a859056d36	0.00377352600496086
134	0x3fa755e629205828	0.04557723285704213
135	0x3fb372a27d01d768	0.07596793701108384
136	0xbfb17bca8cdbe6b9	-0.06829515398922127
137	0xbf880442dd8197bf	-0.011726877579530169
138	0x3f61c91f19870fe2	0.0021710975090360888
139	0xbfbc674920000000	-0.1109510138630867
140	0xbfbe5d0120000000	-0.11860663443803787
141	0x3f9867bcdfab1af2	0.023833228255877033
142	0xbfbb9981b3c543f1	-0.10781107558183557
143	0x3fb133e2aa0381d7	0.06719795847630593
144	0x3f85a8f0216ea2d9	0.010576129932660038
145	0x3fa924d4b32d4075	0.04910912215439193
146	0xbfa20a6c9e6bea87	-0.03523578103882579
147	0xbfb3313f2b12ed80	-0.0749701957856157
148	0xbfa34b36ee3e266a	-0.03768321665036185
149	0xbf9966bc548b7b0c	-0.02480596796055594
150	0x3fb169288ef73069	0.0680108403241221
151	0xbfbe98604f66d283	-0.11951257647053563
152	0x3fbec3461b79b10c	0.12016714258942701
153	0xbfaae15ba19917ba	-0.052500594593353836
154	0xbfa2aea7b9b6ef9d	-0.03648876325630044
155	0x3fb013cbedceb6e6	0.06280207210394514
156	0xbfba9449f6a5c3ed	-0.10382520934741964
157	0xbfa5865cf72c13c7	-0.042040734455475674
158	0xbfa44c58b15eb71e	-0.03964497723732861
159	0xbfa7227eff959714	-0.04518505926061614
160	0x3f9f6d5d825862cb	0.0306906328970367
161	0x3f99db0986573610	0.02524962313127871
162	0xbfc0fc4fa8e0096e	-0.1326999258599914
163	0xbfbb1e287cb4cc69	-0.10592892689310109
164	0xbfa2877c300d773e	-0.036189919343753804
165	0x3f9b621118dc4702	0.026741282598840684
166	0xbfa6bc0005e3efa4	-0.044403076857604945
167	0x3fb3e4cd90fa45e7	0.07771000661366366
168	0xbfac6864f1e905a8	-0.05548396542554751
169	0xbfa672030c7c55c8	-0.043838591837054575
170	0x3f98a8aa6f1cf416	0.02408090880566157
171	0xbf7cb34ae75e5e70	-0.007006924240975473
172	0xbfa472f9c9c08520	-0.03993969524186469
173	0xbf7920f5042ccf3c	-0.00613494596000291
174	0xbf9aa16701aa2fa3	-0.026006326176272087
175	0xbf878e334030b3cd	-0.011501694103651783
176	0x3f97e9f29d887791	0.023353377213531316
177	0x3fafe30214276fc4	0.062278809509478644
178	0xbfefe3e3d7f3533c	-0.9965686052115426
179	0xbf95dc93a2c45c1c	-0.021349245843421114
180	0xbf8f0adbfc95ec3c	-0.015157431264688374
181	0x3fb9a1ed1dedc7b8	0.10012704830822272
182	0x3fb059a8cd974d00	0.06386809367477397
183	0x3fae6ee28136805f	0.059439733765658025
184	0x3fa5aecbb1f9d74b	0.04234921023900869
185	0x3fbe0227ef012fec	0.11722039780687482
186	0xbfa0c781e0000000	-0.03277212008833885
187	0x3fb5301e60000000	0.08276548236608505
188	0xbf643237e0c817bc	-0.0024653521888948465
189	0x3fc3682fc9f590cc	0.15161702500620888
190	0x3f8b8b80586dd960	0.013449671457902823
191	0xbf92832c2dc09bcd	-0.01807850865602827
192	0x3fa37f188d38539c	0.038079039801380804
193	0xbfae14f97b949167	-0.058753773055545015
194	0xbf9e7860bdf9746a	-0.029756080241316964
195	0xbf94b028873fb7cd	-0.020203240637719767
196	0xbf8dc4ee15cfcda4	-0.014535770455018256
197	0xbf9d3397c88edca7	-0.02851712380990237
198	0x3f97a66af609413d	0.02309577109036919
199	0xbf6fd1d1051662d9	-0.0038842279834166824
200	0xbf40bd0f7ebc3dd5	-0.0005108190211746086
201	0xbfa1f7bfe2a7af7a	-0.03509330407891205
202	0xbf8047ab107f0c84	-0.007949196282316835
203	0x3fa14715a15631cb	0.03374545664255243
204	0xbf987299ec9536e2	-0.023874669136879308
205	0xbfb13d2065b551b7	-0.06733896716224917
206	0xbf97fca3d603e9d1	-0.023424682557541324
207	0xbfc3c8e95411df85	-0.1545688305375245
208	0xbfb66083eb690c83	-0.08741020676920823
209	0x3fc56d29f5007c74	0.16739391768439627
210	0x3fbe6445b1f5ec7f	0.11871753306142983
211	0xbf9447025fec1568	-0.01980212889158875
212	0x3fca234475807e93	0.20420127618216508
213	0x3f86c1fb564acd9f	0.0111121783932962
214	0x3fc06deabc579a25	0.12835439869304924
215	0xbfb2c9063c1bd769	-0.07337988822459142
216	0xbfa49a69bd223698	-0.04024057801971742
217	0x3fd0f48b739586e6	0.26492582595356706
218	0xbfa43c514e9a6815	-0.039522686810599485
219	0xbfbde93b1fcdc725	-0.11684007193050812
220	0xbfb2c0e6af4bf9a6	-0.07325593738276001
221	0xbf943c5354662190	-0.01976137354498203
222	0x3fac107cde235903	0.054813291660751794
223	0x3fb5a570e7b5a0e4	0.08455567986459617
224	0x3fab237f1e8a798e	0.0530051922589677
225	0x3fbe7e619edfc706	0.1191159260631843
226	0xbfb5caea68ab1e5b	-0.08512749724752082
227	0xbfe64651a1eb0b26	-0.6960838472808504
228	0x3fed1a7b741dd45e	0.9094826953793349
229	0xbf90d60271f0dc36	-0.01644138164939709
230	0xbfef93aa5cd87905	-0.9867755711927947
231	0xbfed6608e577d9cc	-0.9187054139900339
232	0x3fd06be20e0d8baa	0.25658465740542147
233	0xbfbbb92120000000	-0.10829360038042068
234	0x3fabc4a020000000	0.05423450842499733
235	0x3f5f436a7b0a8ad6	0.0019081630563639227
236	0x3fb0667a761180e3	0.06406369574097286
237	0xbfb27af1db26ee53	-0.07218848801033433
238	0x3f6ba5928b8d866a	0.0033748495301757957
239	0x3f801e7ea99e29e5	0.00787066416866806
240	0xbf5e382666050392	-0.0018444418893326137
241	0xbf975ef6067aee53	-0.022823185105819665
242	0xbf843be2ed2d8728	-0.00987984930333459
243	0xbfb82e2d3103b39c	-0.09445459791795802
244	0x3fb1913c529fd0fc	0.06862236993021392
245	0xbfc813674e659c76	-0.1880921490476088
246	0x3fac1ce1b95fdda9	0.054907850149841515
247	0xbfa40f88ca0f9525	-0.03918101755679463
248	0xbfa2fec0e5586c17	-0.03709986495615441
249	0xbfb7cb5bf92b05df	-0.09294676621632146
250	0xbfb7fd0bd2734b6a	-0.09370492828320001
251	0x3f90f14495ac36f5	0.016545364032075367
252	0xbfafa63b38957271	-0.06181511941642704
253	0xbfbeed4ea82bfdfe	-0.12080852132566375
254	0x3fa6025a6047af0a	0.04298670220654628
255	0xbfc7d01732ca88a6	-0.18603792171513084

fc.0.bias f8 [100]
0	0xbfb83758a3eca772	-0.09459451677380828
1	0x3faa6c8f7cdf4fb0	0.05160950087852656
2	0x3fa5ac5783a44463	0.042330488986529934
3	0xbfc5d4a5e5f0c77f	-0.17055200316968563
4	0xbfd935c3b0dc7dff	-0.3939065196190938
5	0x3fcad27f0f54cc21	0.2095488381251878
6	0x3fb92f6c3a1d17c7	0.0983798639182104
7	0xbfb4a65acf8157e8	-0.08066337171598514
8	0xbfca2445c52a2958	-0.20423195006544392
9	0xbf7ec7a385d7ff14	-0.007514609108966192
10	0x3fb9432944688bc5	0.09868104858519107
11	0xbf793a36b08ece79	-0.006159032470282371
12	0xbfc881e7d9d0fc77	-0.19146440635265424
13	0xbfa4a757a7ecf8be	-0.040339221237887454
14	0x3f97091d188b4ef4	0.022495703337724174
15	0x3fb5eaee630be314	0.08561601560712645
16	0xbf9000ced5d18e95	-0.015628082085085444
17	0xbfbdb05c390ff35e	-0.11597229378817306
18	0xbfaef310baef72b3	-0.06044819147039018
19	0x3f96655e1b56d7ab	0.02187106172433288
20	0xbfcb33e2c2c1c9e2	-0.21252092847460263
21	0x3fb47dc4ba546ff6	0.08004407452648352
22	0xbfd090c1f207291a	-0.2588353026918796
23	0xbfbd9f06b92f43f9	-0.11570779820546297
24	0xbfdbba9acaf7df44	-0.4332644445525953
25	0x3f59b9b742453fb0	0.0015701570165056293
26	0xbfd0fa9f85ea9fc8	-0.26529682233603724
27	0x3f50427aa2098920	0.0009924123370628826
28	0x3fa597bb1c443e5a	0.04217323989916784
29	0x3fc782eb232f06ae	0.18368281572297945
30	0xbfaff6b58522d1c4	-0.062429115774111504
31	0xbfe1a276c8e41a50	-0.551082031598364
32	0xbf9105a178abc2ee	-0.016623042097253675
33	0xbfe2c999525176bb	-0.5871092422273344
34	0xbfccb00d846e16cb	-0.22412270513830487
35	0xbfb712364aabb503	-0.09012164423957718
36	0xbfde762c9b423f8b	-0.47596278345098914
37	0x3f8c072184a86f5d	0.01368547617044385
38	0x3f9c4f52915e738e	0.02764634144078886
39	0xbf9291c4caa631b9	-0.018134188526845316
40	0x3fb6d5885af2436b	0.08919574947709712
41	0xbfc9dec1ae0857ed	-0.20211049077687396
42	0xbf9b717e0f4bc22e	-0.026800126727666455
43	0x3fb42768a8bf9b9c	0.0787263309463086
44	0xbfc2eaa3e05870ca	-0.14778564886444762
45	0xbfb0fc05589ff2f1	-0.06634553350154328
46	0xbfd5c389fe109a75	-0.3400597554304235
47	0xbfc3ab6c03967513	-0.15366888213331062
48	0x3f9a7442679ea7af	0.02583411939091434
49	0xbf938f16d0b37d95	-0.019100529182535537
50	0xbfa7068541e717df	-0.044971622748150024
51	0xbfbf3c5d7ac375a4	-0.12201484915882205
52	0xbfb31702c838f0c7	-0.0745698679756429
53	0xbf67cdee51a920d7	-0.002905812708636639
54	0xbfaaeb817a1c405c	-0.05257801642994828
55	0xbfc7fc0d301e42aa	-0.1873795018150493
56	0xbfb5eb6e775ee91b	-0.08562364973378005
57	0xbfb074c8e81ed495	-0.06428199450495449
58	0xbfd5ee16ba37410e	-0.34265678582325243
59	0xbfc76a9c077a7d9e	-0.1829409634128582
60	0x3faee97a42db2e94	0.0603750425921962
61	0xbfc5684e59206ca6	-0.16724566795241919
62	0xbfd1929c081f4db8	-0.27457333367530223
63	0x3f8292a9c0761bfe	0.00906880014987443
64	0xbfd4ca508736a816	-0.3248483009762152
65	0x3fc6654a2eea5011	0.1749661187246834
66	0x3fe2bcf2fb9cfe34	0.5855650820084919
67	0xbfcca9e81a717113	-0.2239351395718435
68	0xbfc346c0e56f807e	-0.15059672549159936
69	0xbfdc86ac5aca3e43	-0.4457198034878937
70	0xbf96c28f7244305b	-0.022226563786759673
71	0xbfd030b785463d5b	-0.25297344222140844
72	0x3fddf0b041e8cf33	0.4678154605528448
73	0x3f9f7b1f1fc704cd	0.030743109049357998
74	0xbfdf9182fdcebac5	-0.49325632844822237
75	0xbfb1e6f83786856f	-0.06993056636431104
76	0x3fb00b917d369dd3	0.0626765185066838
77	0xbfc9259bb2630498	-0.1964602108983271
78	0x3fc5506882ee656c	0.16651636498572076
79	0xbfc86e7e382b0e03	-0.1908719801195816
80	0xbfc1dcfa16eac676	-0.1395561801814897
81	0xbfdded6eac91eca7	-0.46761671879330396
82	0xbfab1ed7e79acfb8	-0.05296969129759027
83	0xbfb383c7b3f1d3b0	-0.0762295545881233
84	0xbfb40e4fbff32436	-0.07834337650560105
85	0x3fd8a5d388e7be22	0.38512123460438563
86	0xbfcdec63f2d160b7	-0.23377656322805304
87	0xbfbd1bd35cd4fe3d	-0.11370583549887044
88	0xbfc55d439ebe8b1c	-0.16690869570910472
89	0x3fab2ae9d9303780	0.05306177879548013
90	0xbfb0a5efc274be27	-0.06503199098073563
91	0x3fb5d71c756b83f0	0.08531358591746119
92	0xbfddbfabcefcc0b5	-0.46482367719273593
93	0x3fbed8cc59e9d583	0.12049557871963228
94	0xbf92235c12c6ebcb	-0.01771301140409402
95	0xbfd8b34fcc844e98	-0.38594431850763433
96	0xbfc63ca6dfda5533	-0.17372594766917757
97	0xbfc00ca3651bf81f	-0.12538568913436252
98	0xbfd2c8b07f3ae76c	-0.2934991114121803
99	0xbfe33bcffa184ff7	-0.6010513195674311

fc.2.weight f8 [100, 100]
0	0x3fba7a67c4edb882	0.10343025739504877
1	0xbfc669d3c0db5e1e	-0.1751045886692148
2	0x3fc45d77b7ec5f56	0.15910240631705602
3	0xbfc198919b443475	-0.1374685295235484
4	0x3fc1fb7d63f071f4	0.14048735980840343
5	0x3fac8db975ab5af7	0.05576877175706401
6	0x3fb1b1cc99b7503d	0.06911925080140775
7	0x3fb670a4f4cb573b	0.08765631653235754
8	0x3fc54b6a82e88b93	0.166364015503032
9	0xbf8e4b80206b7b24	-0.014792443265319095
10	0xbfb6491a3a42c18d	-0.08705295488721827
11	0xbfbd8376c23beda2	-0.1152872299389203
12	0xbfad1a67b1ee44c7	-0.05684207961088244
13	0xbf9abeeb3a425c74	-0.026118922644482415
14	0xbfc36eded2e5399b	-0.1518209962618585
15	0xbfc3185afdfb1121	-0.1491807689800533
16	0x3fc1a2308cd610f2	0.1377621352841128
17	0xbfa625765a6eaac2	-0.0432545647994025
18	0x3fc1bccd50e16ba4	0.13857428025479834
19	0xbf9894c8bff5d450	-0.024005066601109626
20	0x3fb75e04dfe7a6c0	0.09127836672237333
21	0xbf79cf70464f8cb1	-0.006301344464165457
22	0x3fab8f891cae59e4	0.05382946467505059
23	0xbfad9e606dea762e	-0.05784894315477761
24	0x3fc8154a6025ebd3	0.18814973540051358
25	0x3fcb00532e619690	0.21094741596896371
26	0xbf2a0afe7aba267a	-0.00019869190633796716
27	0x3fc0bc95401ab3cc	0.1307550967225367
28	0x3fca19058c854d13	0.2038886009346262
29	0xbfb0574547d4e880	-0.06383164409354158
30	0x3fc4518413f33dba	0.15873766874436318
31	0x3fd1a87ba8c72695	0.2759083889219281
32	0xbfc4de7c02c0e26d	-0.1630396855778317
33	0x3fd1eb92229fa5d4	0.28000310307706155
34	0x3fbc0c9371105cf8	0.10956689367627692
35	0xbfa1a5af0bb16214	-0.03446719186530714
36	0xbfd3fa48a39cc01e	-0.3121511075760298
37	0x3fca3e5708f385b9	0.2050274652201958
38	0xbf9e05c6092b5418	-0.029318899449965213
39	0xbfa2a12c6f8c2a67	-0.03638590680755698
40	0xbfa06d79cf9cd1ca	-0.032085234254200026
41	0x3fb91c244cc712e1	0.09808565973714735
42	0xbf85f472cc54784f	-0.010720154629378835
43	0xbfa8d202a8499508	-0.04847725204744263
44	0xbfcd6b00581c0d2f	-0.22982792188859366
45	0x3fb1f5c87b09aaef	0.07015660289622948
46	0x3fb6e78fdd0524f0	0.08947085519789133
47	0xbfce640224fb4a9e	-0.23742701345198197
48	0x3fc39248e7f08c5e	0.15290175748040985
49	0x3fcd808e4ade0f91	0.23048571258197773
50	0x3f93d0b593faae13	0.01935085025495027
51	0x3fc881801350f231	0.19145203536199198
52	0xbf83ccff9ed82c0e	-0.009668347392127099
53	0x3fa6d076df837a57	0.04455920675694774
54	0xbfcf46c9096b50a3	-0.24434769592210612
55	0x3fcd3360dc63a580	0.22813044320291098
56	0x3fcfeb2ef0f7a8ff	0.24936472669589446
57	0x3fc39586d486bc71	0.15300069215070125
58	0x3fc9c2a069f357a7	0.20125203297965052
59	0x3fd0a0953d6514cd	0.25980120654669464
60	0x3fc858f73429a57b	0.19021501585966036
61	0xbfc4ebacd2bcbb91	-0.16344223298935082
62	0xbfd2011f5041e32c	-0.28131850087770505
63	0x3f879c3ac1aa9800	0.011528452906826914
64	0x3fa6594de6a9cdf1	0.04365008774484725
65	0xbfaaed5b2546dd5d	-0.05259213285483597
66	0xbfd22ff3315bf97b	-0.28417663402787924
67	0x3fcf7e1239906247	0.24603488741628807
68	0x3f83d3f796b6ba52	0.009681638991279194
69	0xbfca06e7dfaa5a39	-0.20333574696697257
70	0xbfa243fb1828ec78	-0.03567490262909073
71	0x3fa010fce7455445	0.0313796074212083
72	0xbf9c29143a8d5c53	-0.027500454019300524
73	0x3fcb8aa622e6c048	0.215168730775533
74	0x3fd1548712df480b	0.2707841572092781
75	0xbf927051eff7cc96	-0.018006592055780667
76	0x3fb08be70b76bfab	0.06463474302176901
77	0x3fc0627cd3649b0f	0.12800560304568662
78	0xbfaa9d6180cd3ccb	-0.05198197076117025
79	0xbfc180653a8d18f4	-0.1367308174032541
80	0xbf43d7d4cb13a838	-0.0006055630712158483
81	0xbfd394b7aca8f0a6	-0.3059519945270587
82	0xbfa5d533dfb74846	-0.04264223199756194
83	0x3fc4637e24d947c4	0.15928627776389537
84	0x3f96e6451c9e2264	0.022362785216986217
85	0x3fd3b4c56b3ee4f0	0.3079083964654066
86	0xbfd1cd1ca53d411e	-0.27814403664253173
87	0xbf7f27f546448fa7	-0.007606466391994283
88	0x3fb8b4174ebe248f	0.09649797127180391
89	0x3fb53872f07ea3a8	0.08289259311153663
90	0xbfb9b311bc0373e3	-0.10038863029644989
91	0xbf8fb10fbdd85179	-0.01547443674193326
92	0xbfd462b44640f6ed	-0.3185244260856582
93	0xbfb2379946c9ed00	-0.07116086939088362
94	0xbfbb61bc93cab776	-0.1069600926227546
95	0xbfd9fdd89f4625f0	-0.40611854127982294
96	0xbfc228fcd0aac871	-0.14187584103416698
97	0xbfcadedb0064010f	-0.20992600936006808
98	0x3f94ce4b66281842	0.020318201170106194
99	0xbfdba124470296fe	-0.43171030935842214
100	0x3fbc50e652e0fdf0	0.1106094314900401
101	0xbfc69a6787ee507a	-0.17658704888583882
102	0x3fbc26ecd2097683	0.10996894958358365
103	0xbfd06c1b01da5113	-0.25659823590218983
104	0x3fd14ce44aef8415	0.2703181011002596
105	0x3fc0a49250bfef91	0.1300223249708066
106	0xbf9bc2f74acfa250	-0.02711092371092355
107	0x3fa86689ea6274e0	0.047657308446312774
108	0x3fd12573530abb09	0.2679107962566581
109	0xbf84b4bd32e70510	-0.0101103573950945
110	0xbfc1786e1d983681	-0.13648773617790158
111	0xbfb2ac8ca5987e42	-0.07294539492476651
112	0xbfc2fe7ce8a6251c	-0.14839135513128887
113	0x3f964f81872cf7f3	0.02178766620203727
114	0x3f9c69a99d105e66	0.02774682065145697
115	0xbfc9d6e53fb62b63	-0.20187059031408258
116	0x3fd40d32f971a6e3	0.31330561027298937
117	0xbfb2f26854cd9898	-0.07401134558094424
118	0x3f9f6a29bf9bd294	0.030678417510858383
119	0xbfae2fb19983133b	-0.058957624425181675
120	0x3fbb9c067f375769	0.10784950834144315
121	0x3fbdb68897b9848c	0.11606649116721907
122	0xbf987c6297d5d515	-0.023911991612711143
123	0xbfbd39d8c62e5e86	-0.114163921722474
124	0x3fcc1a8d0c7896a7	0.21956027134836129
125	0x3fce89761d02cf6a	0.23856998840858107
126	0x3fc19b92379f5cf3	0.13756015506689998
127	0x3fc6e734dd595cec	0.17893086250362644
128	0x3fc9be1a29c57e04	0.2011139587366274
129	0xbfc09ed3352c2036	-0.12984695526415785
130	0x3fb9c47c52f0bedd	0.10065438294327174
131	0x3fd9317c6918d740	0.3936453844392993
132	0xbfb19c33f1b6b1c5	-0.06878971720897827
133	0x3fd86a085b28995c	0.3814717188091856
134	0x3fb598aa761b5ee9	0.08436074622602131
135	0x3fa0b5a67f205b5e	0.032635882395132695
136	0xbfd822cea52a9275	-0.3771244633628961
137	0x3fccc77bf83327b7	0.22483777636653965
138	0x3f59c84aa198f993	0.001573632127829326
139	0x3f9dc4318f5c4611	0.02906873166563712
140	0xbfb205cd6da06b29	-0.07040103842193147
141	0x3fd01e7e68e1ff11	0.2518611931081845
142	0xbfb0f1483d2d6057	-0.06618167394242512
143	0x3fb6cbb4ef9809e8	0.08904581880054929
144	0xbfd259ab9f5ab339	-0.28672304689353073
145	0x3fc77a8b581d233c	0.1834272556536919
146	0x3fbe850f86c589b4	0.11921784439395006
147	0xbfd21bb9cbd32079	-0.28294224648244143
148	0x3fc9571f41231757	0.19797125511666522
149	0x3fd4b53926bbe759	0.3235609892141063
150	0xbfbbe44378ff690c	-0.10895177558942154
151	0x3fc36683409fd51b	0.15156593947873706
152	0xbfc29bac0bb50078	-0.1453757340586923
153	0x3f9a0b6527956335	0.02543409399126802
154	0xbfc0a9d83990c1b1	-0.13018324671567208
155	0x3fc574be6ed464cc	0.1676252404365982
156	0x3fd3d9d80a5ad4b3	0.3101711369630024
157	0x3fcbcfd823839589	0.21728040441591315
158	0x3fd6daff63e716f8	0.3571165538418053
159	0x3fd15662a678711c	0.2708975434959642
160	0x3fb462c79540c5e1	0.07963225740311188
161	0xbfbc82f89ab04f58	-0.11137346054630137
162	0xbfd537f002c04c93	-0.33153915661495964
163	0xbfa1bc5895ece017	-0.03464009122984651
164	0x3fc4f68de95b201c	0.1637742413934128
165	0xbf93c640fa78f0ed	-0.01931096581232421
166	0xbfd1df34e97366f2	-0.27924845502785367
167	0x3fd2c18d30bb43cb	0.29306344756065233
168	0x3f848bb38bb52c30	0.010032084179917161
169	0xbfd2714291ca77ae	-0.2881628440608165
170	0xbfb361458fa640f3	-0.07570299870554091
171	0xbfa56673eab623a1	-0.0417972778332747
172	0x3fa5e2967638892c	0.04274435227513815
173	0x3fd1177787c03a03	0.267057306832527
174	0x3fa33df6d5c9b273	0.03758212432589838
175	0xbfa7d2f50f098a10	-0.04653135117111529
176	0x3fa1fee610331283	0.03514784763095682
177	0x3fb7630a1cbaabb4	0.0913549728526693
178	0xbfbd07576af917a0	-0.1133932720341293
179	0xbfc67486a4065f18	-0.17543108948734054
180	0xbfc58ba3e2028935	-0.1683239797176356
181	0xbfda0cc8cc870de0	-0.40703029607194985
182	0xbfc02d82fda0b6fa	-0.12638890632791072
183	0x3fd30450ae46a554	0.2971383764184641
184	0x3fba021edcd0ce47	0.10159485713011761
185	0x3fd7bb1ee309ed1a	0.3707959382224587
186	0xbfd2e7319008f9ea	-0.29536093774723204
187	0xbfada46552d8c995	-0.057894865382326056
188	0x3fb52842fecab13a	0.08264559479238623
189	0x3fb93b920616d985	0.09856522225059024
190	0xbfc760f8d2a967dc	-0.1826468495008261
191	0x3fb9bf7b95e52959	0.10057804498243196
192	0xbfdc5bce4d803b3b	-0.44310338562438617
193	0xbf959e8e3a3bc9d9	-0.021112654022496933
194	0xbfb9286ff87bc76b	-0.09827327553264602
195	0xbfdf5af08edb4a40	-0.4899255175670625
196	0xbfc26aad1276756b	-0.1438804950857205
197	0xbfd4bcef8421c3a6	-0.32403171447281875
198	0x3f966001667a1e2f	0.021850606803609004
199	0xbfe0242d1e9ff867	-0.5044160459654109
200	0xbfae1bca67c49605	-0.05880577580164118
201	0xbf9864e745f48129	-0.023822415966720776
202	0xbfb41f83e61cbff8	-0.07860588424659898
203	0xbfb507f316e27779	-0.08215255078036234
204	0xbfb3fe81a5b0477c	-0.07810220999843226
205	0xbfb24f1cf5e6174b	-0.07151967051876544
206	0xbf58d2f0d7a37854	-0.0015151359535177282
207	0xbf8daf81eb493384	-0.014494910233361365
208	0xbf67401f40f717f1	-0.0028381929803087337
209	0xbfb68058cf25600e	-0.08789591843867603
210	0xbf916979b6ddeab1	-0.017003919397647397
211	0xbfb6834aca6ac8b8	-0.08794085923981043
212	0x3fa355080396ad7b	0.03775811237150158
213	0x3fb5839bfb842da4	0.08403944864783469
214	0xbfb6cd395b36dacb	-0.08906897046004329
215	0xbf8c5b844e9ba73a	-0.01384642949001923
216	0xbfa71a21a9aa76e0	-0.0451212424861589
217	0xbfb3a47fce2a063f	-0.07672880919747004
218	0xbfa2cfa431466529	-0.03674042798520311
219	0xbf93a753766e87f5	-0.01919298563337431
220	0xbfb36358518156b1	-0.07573463430284268
221	0xbfa94dd3102d4013	-0.04942187855215265
222	0x3f80c62f483c7547	0.008190507308934015
223	0xbf98919192b4df04	-0.023992800311332566
224	0xbfab6e1d049cebe6	-0.05357447320280766
225	0x3fb594f8c03e6de3	0.08430437749341695
226	0x3fb0e7d0013b63ee	0.06603717832639663
227	0x3fb2c0acfd1e7d5a	0.07325249843278439
228	0x3fa057334a77fc54	0.0319152859119575
229	0x3fb8a59fa1780cc9	0.0962772149287502
230	0xbfb3a02bc9098555	-0.07666276605734386
231	0x3f99363556cf576a	0.024620850966889853
232	0x3fb15557a8490596	0.06770847185636905
233	0x3f878caf34d607bd	0.011498802947929815
234	0x3fb0e1d7b1c7d80c	0.06594608393047013
235	0x3fb4572bdb09a208	0.0794551286468349
236	0xbf91ff6dc401eb45	-0.01757594593844238
237	0xbfa428adc7c825fa	-0.039372854840689045
238	0x3fb3168f31a7f579	0.07456297838503713
239	0xbfb6a2479feb954a	-0.08841369299223803
240	0xbfa027fa5ca3f985	-0.031555007752092336
241	0xbfabde6591b7810c	-0.05443112758416832
242	0xbfa1b9a3819a465a	-0.03461943585456302
243	0x3f86ae05c026a4c1	0.011074109007341073
244	0x3f9a6dec3a517f5d	0.025809947070569595
245	0x3f9397214796f118	0.019131202692492882
246	0x3fa6a9841f54b735	0.04426205522973562
247	0xbf8bc32cf19afe71	-0.01355586159058861
248	0xbf725dead151ef6b	-0.0044840977253633825
249	0xbfa3bcc4bca548a5	-0.03854956438830585
250	0xbfb434983e885e06	-0.07892753149678108
251	0xbfa0c57fd51a063b	-0.032756800425897535
252	0x3f8535db6d5420b7	0.010356630586571531
253	0x3f96bcc3ac916d05	0.02220445385715399
254	0xbfa24c9af4309a98	-0.03574070196946372
255	0xbf46150306e58f52	-0.0006738915233594856

fc.2.bias f8 [100]
0	0xbfcaaf30f9de3574	-0.20847141457162943
1	0xbfba3ba0f0d58bb3	-0.10247236137142472
2	0xbf8ba265713e1f85	-0.013493340032951337
3	0x3fac418061ff4a67	0.05518723675017583
4	0xbfb3194580bfa034	-0.07460436242365703
5	0xbf99ea1bf98be7b3	-0.025307118517026782
6	0xbfa47daac1d3f64f	-0.040021263275758494
7	0x3fa7cd0f67b72221	0.046486359987799604
8	0x3fb0f57ba9a219f7	0.06624577418742904
9	0xbfa0e4f71518e044	-0.03299686558278883
10	0x3fa041508786e0bf	0.03174831060772609
11	0x3fb5dddd55d0cb20	0.08541663498980911
12	0xbf9142eca3c85040	-0.01685685872696774
13	0x3f858c8cf18ac637	0.010521985169677268
14	0xbfc1044f9a53eb63	-0.1329440597108614
15	0x3faf5a46792e4832	0.0612356207776802
16	0x3fc14c801f55fe90	0.13514710931848528
17	0xbfb2bf80aad88bd3	-0.07323459788362578
18	0x3f7f1a61f701e7ec	0.007593519854816915
19	0xbfacc730f9b4eaf9	-0.05620720909288041
20	0xbfadc7804180c835	-0.058162696834543594
21	0x3fb321fb0b6e05ee	0.07473725346610369
22	0xbf78fd5be426711e	-0.00610099692348978
23	0x3fade6cee1787553	0.05840155126882487
24	0xbfb00fce3b5523e4	-0.06274117420720376
25	0xbf89c2e4f336ff1c	-0.012578762695624905
26	0x3faa0dbd9a091c03	0.05088608269993957
27	0xbfaee42e81f0c802	-0.060334637987026
28	0x3fa19a109fdf42fd	0.03437854720653453
29	0xbfb4c4e41e8bb358	-0.08112931962723502
30	0xbf529ae4eb8128de	-0.0011355624719891415
31	0x3fc2ce8b3e79dc68	0.14692822027766117
32	0xbfb42ea7fd347058	-0.07883691722639818
33	0x3f9e3f5e600a88a2	0.029538607227217135
34	0xbf97ae12d1de041f	-0.023124975261001986
35	0xbf74fe806669b520	-0.005125524103829521
36	0x3fa403f2079b05cc	0.03909260123101496
37	0xbfabd427d2b575a9	-0.05435299346093398
38	0xbfab00ddbe1d300b	-0.05274098344543184
39	0xbfa4568f26dd7b9e	-0.03972289418628992
40	0xbf9041b9748544c1	-0.015875718819476917
41	0x3fb60a63688f02ad	0.08609601309491195
42	0xbfaab54c70407105	-0.05216444845447835
43	0x3fb28e5324fe3779	0.07248420384550326
44	0xbfbee24853307e3d	-0.12064029723159649
45	0x3fa47891fc3c69ad	0.039982378044629875
46	0x3fca08e253af5eba	0.20339612089332154
47	0xbfb47693f12e8548	-0.07993435514665237
48	0xbfbc3390011c42c4	-0.11016178156956885
49	0x3fa3af287170771c	0.03844572434193891
50	0xbf90e538a1f0a841	-0.01649940956500751
51	0xbf926f16805ab57d	-0.01800189169323606
52	0x3fa987fb2f3d0742	0.04986557914391067
53	0xbf9d862d347446f5	-0.02883215553908421
54	0x3fb9f4f110833e4f	0.10139376309529634
55	0x3fbcccf8984a8b6a	0.11250261037871004
56	0xbf9b067fe4578fb9	-0.026391981422321218
57	0x3f9c5664220f3a63	0.02767330606348607
58	0x3fbe5fefdc352dc1	0.11865138174214619
59	0xbfb324a5341deff4	-0.07477791330705924
60	0x3f86c91581eb75ef	0.011125724818550757
61	0xbfb26a2fd3042bf8	-0.07193278218998944
62	0xbf54bab3e6e97587	-0.0012652165275065257
63	0x3fc0552c2be66987	0.12759925979191797
64	0xbf8dd9f94f3f2384	-0.014575908404269595
65	0xbfb9acf79f246a6e	-0.10029552111920179
66	0xbf6d5e8d41e07d57	-0.0035851248676547587
67	0xbfb7b7807f850428	-0.09264376748343806
68	0xbfa89e666b8cee6a	-0.04808349669334862
69	0xbf9e5d06a37eecb7	-0.029651740769378345
70	0x3fc52390fb6abe9a	0.1651478984472206
71	0xbfa1226dbdb16624	-0.0334657949503703
72	0xbf8deb33d048c511	-0.014608769220191083
73	0x3fb054eb78ee1ed2	0.06379577352901869
74	0x3f7a19f9dde767cb	0.006372428934321615
75	0xbf9e5249eccc4fe5	-0.029610781744011567
76	0x3fbce721c0550155	0.11290179200751045
77	0x3fb5bffece5f4095	0.08496086634045448
78	0x3f557e778ffbe866	0.0013118903734139708
79	0x3fabb867ace1256d	0.05414127335877592
80	0x3fb3df25065cd97d	0.07762366681422424
81	0x3fb3b9501ccc71c2	0.07704640105334362
82	0x3f9ea57b3c7c41ee	0.029928136412367516
83	0xbfb03707ed044ffd	-0.06333970581573563
84	0x3fbcd64e33770c76	0.11264504200430445
85	0x3fb2497906473f27	0.07143360522536267
86	0xbfc5cbff965cb3b8	-0.17028803674602755
87	0xbfb1e1f73faa70b8	-0.06985421470966713
88	0x3f91cd6f2f4c0545	0.017385232221390785
89	0xbfbd0c41c9e4c20c	-0.11346827677767396
90	0x3f839644ab760f51	0.009563957674579323
91	0xbfa3ad8d02332545	-0.03843346263745188
92	0x3f858d9b8222aa09	0.010524001034657908
93	0x3f79938a6b5124cc	0.006244221401240323
94	0x3fc90861d8743ec7	0.19556830472037331
95	0xbf71db95b2c2fdb1	-0.004359802969872304
96	0x3fc871fdf96473f0	0.1909787624107646
97	0xbfa691c366b27693	-0.044080835615415336
98	0xbfb43a8e840f92c4	-0.0790185043729919
99	0xbfa77fc8e7ad209c	-0.04589679554061485

fc.4.weight f8 [3, 100]
0	0xbfbaeb5dfc306cf0	-0.10515391737901658
1	0xbfd9897e7c78d11d	-0.3990169730707452
2	0x3f83107b44f1e26e	0.009308779756097976
3	0x3f3f8663bb67b64d	0.00048103270401509275
4	0x3fd0078b9eef4382	0.2504605342956482
5	0xbfe4af1997b30028	-0.6463745081782735
6	0xbfddc9175c627d93	-0.46539863607355264
7	0xbfd1de3f74b1d630	-0.2791899337383681
8	0xbfc3b100cead0e0f	-0.15383920756913524
9	0x3fc88df413c52203	0.19183207478842243
10	0x3fc6788aafb35bec	0.17555364207393553
11	0xbfb6b609a445c257	-0.0887151742988491
12	0xbfac0baca66d88da	-0.054776568714048415
13	0x3fcbf9a2b88b8820	0.21855577479351584
14	0xbfc3d636b778b3bb	-0.1549747844559571
15	0x3f8bb9d9e2bb9d4a	0.013538076621854817
16	0xbfee16eb30a25d97	-0.94029769419551
17	0x3fde071280835259	0.46918165731520883
18	0x3fe1fe158157ca7e	0.56226611387531
19	0xbfb6ea919a4719fb	-0.08951673523470298
20	0x3faa981df42576ea	0.051941810658474655
21	0x3fd5c4118601b2aa	0.3400920685442467
22	0x3fdcb8f3469a90f8	0.44878847021961077
23	0xbfd0c9388fa84f7a	-0.2622815516381177
24	0xbfd2f7cd4ab9be30	-0.29637462899606515
25	0xbfd53584b97863cb	-0.3313915072663433
26	0x3fb5f87f268c0cf1	0.08582300845232617
27	0x3f81dc11098e6f98	0.00872052488721646
28	0x3fc7d799e85a9252	0.18626712651634364
29	0x3fb3889d8a53cf06	0.07630333544858212
30	0xbfd3b9de33eb6143	-0.30821948118456904
31	0x3fe203b7001c9cf3	0.5629534723456388
32	0x3fc903e4128fa7bd	0.1954312410956031
33	0xbfda32d52a124769	-0.4093525801518952
34	0x3fa88097f9a1d7a8	0.04785609171169308
35	0xbfeee226bae5e505	-0.9651063585617129
36	0xbf9b6967fefb9651	-0.026769280374443764
37	0xbfcf79d24f24238f	-0.24590519775690864
38	0xbfd7d0449b7fb4c1	-0.37208666978296995
39	0xbfdfcdb7ecca222b	-0.49693105815871047
40	0xbfad1cd992d40937	-0.056860732243892924
41	0x3fd05e918028c7e7	0.2557719947391192
42	0xbfd9bd947e330bf2	-0.4021960480133081
43	0x3fa52c6371403ce3	0.041354281973434735
44	0xbff1b2beb70849bd	-1.1061389112188487
45	0x3fdd88c1061d0e13	0.46147180172940344
46	0x3febd5138dd99a74	0.8697603006847445
47	0xbfa782b1c8c4f759	-0.045918994672759346
48	0xbfd35b5a9c7b6fc6	-0.30245080262625057
49	0xbfb97e588d38e7e9	-0.0995841355114916
50	0xbfcbd84518765868	-0.2175375337071188
51	0xbfdb66eaaccc4fb4	-0.4281565368157729
52	0x3f8c7717b3bd489c	0.013899026081763126
53	0x3fe75ab5e76968f6	0.729823066688623
54	0x3fd8020bbe2142ac	0.37512486998916006
55	0x3ff0d20dbc05ca90	1.0512826294549633
56	0xbfb0f97593526c0a	-0.06630644652106824
57	0xbfd681308c75da8a	-0.35163511006195647
58	0x3fe19de8541d8ed4	0.5505258219604579
59	0xbfb5b39035087b70	-0.08477116865877377
60	0x3fd38997454c3fe4	0.3052728821503463
61	0xbfbbdddd328639f1	-0.10885412677291818
62	0x3fbd1727e91216f1	0.11363458099557612
63	0x3febc1ffbf52fdce	0.8674315201569074
64	0xbfe9a393afc19eb0	-0.801217883371427
65	0x3f8722d160a83d92	0.011296878587954837
66	0xbfa14efadf137f79	-0.03380569432351783
67	0xbfdeaf7ad233b94e	-0.4794604351763113
68	0x3fd20bf30c2a9e77	0.2819793337643896
69	0xbfa8178ed3c07dd7	-0.047054732655165736
70	0x3fda264c0cab30d3	0.4085874675481708
71	0x3fc431e6600f2f22	0.157772824195825
72	0xbfd09299bd7df6b3	-0.2589477873333223
73	0x3fdc556ebc4e5d9a	0.4427143896986877
74	0xbf8f936c30e3c024	-0.015417905084604007
75	0x3f988726e35f9543	0.02395306360985684
76	0xbfe3f29be4bf5a81	-0.6233653514598957
77	0xbfac209ff2bf5170	-0.05493640745376893
78	0xbfb4e351e88baaf0	-0.08159362723715069
79	0xbfe6ae8e99e0b8b6	-0.708808231871237
80	0x3fd125bdac0e8851	0.2679285221330519
81	0x3fd06030b3254916	0.25587098593418156
82	0xbfedcc6e4bd20f45	-0.9312049370641736
83	0xbfb34b24ed668d26	-0.07536536022103188
84	0xbfe3bd576893057a	-0.6168629686800806
85	0xbfdd958df63651a9	-0.462253084603868
86	0x3fe138d402056384	0.5381870307420376
87	0xbfaad563384c0c53	-0.052409268018913345
88	0xbff01c3c52f86573	-1.0068934670474305
89	0xbfde61b15d2abefe	-0.4747126970132597
90	0x3f7377f02bdf5fb6	0.004753053826753664
91	0xbfd3398eec3eea7c	-0.30038807936549694
92	0xbf8e48d52823223c	-0.014787354743377105
93	0x3fd6b54fbe0e62e6	0.35481637535262534
94	0x3fbeec9d289c1d8e	0.12079794160319166
95	0xbfc73bcfeb71b447	-0.18151282306954128
96	0x3fe7e2908d006c7a	0.7464068178118304
97	0xbf56f9db4d646692	-0.0014023439048912773
98	0xbfc76a78b285b753	-0.18293675152693342
99	0x3fc503dec449fc92	0.16418060860084843
100	0xbfd0380764ad7a51	-0.2534197314434197
101	0xbfd4fbdaa7004fad	-0.32787195500099636
102	0x3f9cdd0c48e7b618	0.028186981153274088
103	0xbf9064116fafab91	-0.01600672954729593
104	0x3f6474076121b5be	0.0024967331055935895
105	0xbfbd8ea33fb329c5	-0.11545772843525189
106	0xbf9f27d88f8ad348	-0.03042543769943798
107	0x3f8a5a1d6b4ec900	0.01286719306685713
108	0xbfd35b91c74e6727	-0.3024639555311403
109	0xbf913e4ae5984c83	-0.0168391897805802
110	0xbf93a44165df2098	-0.01918127235674713
111	0x3fb901f4284d5dd8	0.09768606170597793
112	0xbf8d65d334555a9d	-0.014354372057522819
113	0x3fa0f03a82c72b26	0.033082798446761694
114	0xbfb999f47867395f	-0.10000541629344671
115	0xbfbc2733e03443e7	-0.10997318481192019
116	0x3fc3c520192b5ac8	0.1544532893082844
117	0xbfb0f30fb27c1d61	-0.06620882136859542
118	0x3fad2d67f4440a59	0.05698704582939191
119	0x3fb47c08e6e4d8a4	0.0800176204400907
120	0x3fb28ad444b25397	0.07243086506998818
121	0xbfa41f58788de0ab	-0.03930164786919595
122	0xbfa4f7a621d257da	-0.04095191157209373
123	0x3fb77c1d2e6a483a	0.09173757918532113
124	0x3f791bef633801a4	0.0061301566197475045
125	0xbfb0b307ca3ff151	-0.06523178756464644
126	0xbfad4adfe876ebbd	-0.05721187317563856
127	0xbf4f987a78fc348a	-0.0009642217646345247
128	0x3f93b0d3da84f7e4	0.019229231083265477
129	0xbfc872e913c34ba2	-0.19100678887352013
130	0x3fcd6e2572765502	0.2299238976380949
131	0xbfabfe7bca933651	-0.05467593047943054
132	0xbfc0ef9a322814c6	-0.13231208275843737
133	0x3fb182fe9d0e07be	0.06840506872506943
134	0x3fc3b0310d44e3cd	0.15381444118409462
135	0x3f9ee8646d81010a	0.03018338125571155
136	0xbfb2384f39f0a789	-0.07117171444465788
137	0x3fcee13a7ccc571b	0.24124842733061133
138	0x3fcdeae05b8c9455	0.233730358792999
139	0xbfcb4b2445c17159	-0.213230642376298
140	0x3fb1475cb95f50bc	0.06749515081111473
141	0x3f6ee3973b5839ac	0.0037706331011186558
142	0xbfc98a43ee959b3b	-0.19953202390316868
143	0xbfb583f347ea295a	-0.08404465203981229
144	0xbfc4ca2e1975f40a	-0.16242004626465728
145	0x3f9d4437efdc952e	0.028580545439713827
146	0xbfb784d2f7a01666	-0.09187048478642054
147	0x3fabd3e71a156f06	0.05435106461911059
148	0x3f98c7de89411c7d	0.024199940802898546
149	0x3fb871c4a3d54a4d	0.09548596381981973
150	0xbfa9a948221c1be9	-0.05011964241389661
151	0xbfa0df03c2d89d40	-0.03295146707051311
152	0xbf9fecd070cbc1ce	-0.031176812061802832
153	0xbfbf754fbee513b8	-0.12288378153341639
154	0x3fb5f2ca405a4c0f	0.08573593207465556
155	0x3fb18033b49b662d	0.06836245688773408
156	0x3fb89eac7f5d2bb2	0.09617117032500636
157	0x3fb110c858c87ed8	0.0666623322254013
158	0x3f931e2b415dfc10	0.018669772972767673
159	0xbf9d0a3d1516b41b	-0.02835936967101214
160	0xbfb9848e5f10a441	-0.09967889614985471
161	0xbf9401078b0355ad	-0.019535177097017065
162	0x3fb3038a07378149	0.07427275348846253
163	0x3fd19cb41cee1ab7	0.27518942666248897
164	0x3fb71e9faca5aff4	0.09031103100795673
165	0x3fa9c0a7804154e1	0.05029796066870929
166	0x3fa87c6b6f8bdd97	0.04782424675607471
167	0x3faaa60669d67dec	0.05204792062727023
168	0xbfba295a12c7b401	-0.10219347914217282
169	0x3f60d83ac82e534b	0.0020562313160986992
170	0x3fbba9e8b0fb243e	0.1080613548357556
171	0x3f8cdc6f7308f42a	0.014092322061623436
172	0xbfb66e33ee370892	-0.08761906209750439
173	0xbfac337d32fbe267	-0.05508033034670206
174	0xbf9c5c17ae6e11e3	-0.02769505502830495
175	0x3faa2f6c9404161f	0.051143067425112536
176	0x3fc6d67d233fd361	0.17842067929418717
177	0x3f82c4abb32c51e0	0.009164182095937556
178	0xbfa4fb586fbf4f00	-0.040980113640811666
179	0x3fcd09bdd7bad574	0.22685978921587557
180	0x3fb872aa33b83351	0.09549964678462898
181	0x3fb438fdce39d20b	0.07899462017832819
182	0xbfa50f361c3dda5a	-0.041131678531134155
183	0xbfa50b0a2c2c9e9b	-0.04109985150563241
184	0x3fa2e2252d472fd0	0.03688160112105232
185	0x3fd2d5c85ac5cbdb	0.2942982565356808
186	0xbfc29af8690440da	-0.14535431983723052
187	0xbfbb8cc7a11dacbd	-0.10761687930578297
188	0xbfb7d94a6671b079	-0.09315934182240139
189	0xbfb7b97be8551714	-0.09267401144196824
190	0x3fa78539d5e1986c	0.04593830810408481
191	0x3fb2d4bac9a11cad	0.07355849669066812
192	0xbfc7bcfcdae8ff8c	-0.18545494736644874
193	0xbfb2b6942957506b	-0.07309843072226989
194	0x3fcf6ede32931bb2	0.24557092160668287
195	0xbf9f129b87955265	-0.03034441962275238
196	0x3fb2cc2df658ddf2	0.07342803253492727
197	0x3faac07cc6dd4ba8	0.05224981238884335
198	0xbfa4d76e33b99101	-0.04070610410124865
199	0xbfa67f8487b720aa	-0.04394163281136916
200	0xbff776147a030458	-1.4663281217656472
201	0xbffcc4fc48f2523f	-1.7980921601748745
202	0xbf8281dc12cf01a9	-0.009036750148766997
203	0xbfc31f67cdc65e9c	-0.14939591930009477
204	0xbfba758658013ed4	-0.10335578583294175
205	0xbfd2dd6ac52397f9	-0.2947642255006709
206	0xbfe29c1986451520	-0.5815551397760466
207	0xbfd2324fb5b7f724	-0.28432076211889723
208	0xbff3998d28f6bf03	-1.2249881363058541
209	0x3f8ce2e98a81b27f	0.014104675807368182
210	0xbfd1e5d21d245ce1	-0.2796521458235031
211	0xbfb2a8d49b2c23cc	-0.07288864887608709
212	0x3fa196d7e64549a0	0.034353968486033226
213	0x3fbaa970444853d0	0.10414792697004249
214	0xbff06cdfffb0267d	-1.0265808093849096
215	0xbfcf819177b0de1f	-0.24614160866052345
216	0x3fe2294fe1a9233e	0.5675429732737951
217	0xbfb912977fbd7fb3	-0.097939938246326
218	0x3fe44ad93a1c1347	0.6341367850260234
219	0xbf80e038038615bb	-0.008240163428818606
220	0xbfc88deb48b087a1	-0.19183102654738796
221	0x3fa8b573a9468e68	0.0482593673835055
222	0x3fa61cc17a15f6b8	0.04318813910775304
223	0x3fe2b4e2ece0771f	0.5845808626652093
224	0x3fedd669b7b72374	0.9324234569731815
225	0xbf5604cf09b8f2fd	-0.0013439199309594467
226	0xbfa8aae418b269c3	-0.04817879487491752
227	0xbfc177ed752d709b	-0.13647239896352378
228	0x3fc07d9ae49020d9	0.1288331619291572
229	0xbfe9b98192b1e6a9	-0.8038947930465002
230	0x3fecaf99828c0b61	0.896435503935532
231	0xbfd961f894892817	-0.39660467629858104
232	0xbfe96c3a163c35e5	-0.7944612917214583
233	0x3fe84cce8bcd8df4	0.7593758326078714
234	0x3ff3cf1bb5df38db	1.238063536107396
235	0x3fc05f106a26e31a	0.12790112670133952
236	0xbfdaa34b3a7020a3	-0.41621666628680937
237	0x3ff34659c3849ab4	1.204675449125415
238	0x3ff3c204edffa36d	1.2348679825610944
239	0xbfed843f2b50a28c	-0.9223934026714047
240	0x3fc6c5570a8f1f53	0.17789733901576685
241	0x3fe909293ae91857	0.7823682928653949
242	0xbfe98556d5d43b3c	-0.7975267578457088
243	0xbfd3d1ecf38fdb3c	-0.3096878412756501
244	0xbfc99ea35de4afb5	-0.20015375218042455
245	0x3fb2b61c00337c93	0.07309126858625552
246	0xbfce9bb740c4c060	-0.239127070069574
247	0xbfb5cc6b935c9a31	-0.0851504549760669
248	0x3fb82739e3d2dda0	0.09434854328252706
249	0x3feb6d0042d86197	0.8570557885714604
250	0xbfd5070b0549609e	-0.32855487362167846
251	0xbfccdbae66fc85ee	-0.2254541399825451
252	0xbfa393e322f7b9eb	-0.03823766519404955
253	0xbfd7b98d0f8cbe16	-0.37070013540776026
254	0x3fd8061b81afc9c2	0.3753727690192613
255	0x3fb763d50e2f7257	0.09136706920930614

fc.4.bias f8 [3]
0	0x3f64a3d659c5f103	0.002519529966035107
1	0xbfa4a448885b46ef	-0.040315882344328695
2	0xbf94a9598e7033d7	-0.020177268332236622
