car_ros2/car_ros2/losses/exp32.pth (torch, 123591 bytes, 6 tensors)

fc.0.weight f8 [100, 47]
-0.04721676334962204 -0.03513787327468157 -0.018306055753712424 0.06906472007705827 0.010313108919216921 0.03931144473685927 -0.05730383372953121 0.0019455491927576965
0.06272482434405727 0.13627872734107635 -0.03867953869768807 -0.09463149971480204 -0.027748519233225404 0.09034476538724054 0.09289070112241636 0.062057347112150246
0.1311344050374562 -0.08428455346197065 -0.03928058206492422 -0.2974157114331104 0.09458343598867554 -0.04859419481676163 0.07464011902432265 -0.05554445955540704
-0.07800102666077634 0.03781412777820171 0.04245200773852569 0.04480512923509424 0.11698394615713785 0.05810104581809793 0.022220380525492935 0.09012730229691295
0.19650717191221004 0.10807308285339928 0.07211237051380692 -0.1657273164483096 0.04806532628436284 -0.14117578525198746 -0.10122265913751385 -0.06503081265405296
0.0868430969259169 -0.24852196843067592 -0.10462621557902238 0.26589009763599875 0.28862229885279567 -0.1209520772099495 0.1094973012804985 -0.07574177334783927
-0.03314059795921297 0.0379883425950088 0.032468879658195365 0.03937974908596638 0.0382678711069236 0.05241253731388582 -0.07794561452705835 0.021702162462190557
0.05745263192161723 -0.035335917391978916 0.10388509784033576 0.028824300132253605 -0.00030054997310811844 0.06096874367491516 0.018004915677379222 -0.009324999463661221
0.03343716335887389 -0.15230105456079868 0.01962256742004107 0.06738740654937823 0.03633351727993131 -0.0011565420446391949 -0.13060945698616075 -0.1532516013098961
-0.06361815417020991 -0.10072193092242036 -0.05613750262285179 -0.18784544965714206 -0.1424960151583152 0.003998187396641071 -0.04518768022516226 0.04492666002175414
0.07031163564428373 -0.027894400284064293 0.045745317803989334 0.1079653181417524 -0.16095469327633338 0.14185049459198615 -0.004649731676775923 0.8093693760310595
0.6063525907782291 -0.3154199506106445 -0.47893536749288645 -0.5425915782880568 0.08821121603250504 -0.12837004661560059 -0.10244792117024892 -0.051088364375455164
0.07296335713885578 -0.05058676007364266 -0.005871933666409574 -0.0004584713119746744 0.09639349054626425 0.010671176341862943 0.11512679564552346 -0.0007340023388483492
0.024595585295920167 0.007007508022670005 0.00010753011088435413 0.061477038168605225 -0.1353035838531638 0.12075470766889938 -0.09848591178245923 0.05535093324580344
-0.06755640631763198 0.13121205087410526 -0.05307752161706508 -0.057415961701047805 -0.008354399490840792 -0.13385620265475148 0.04180147686941706 -0.06952130495453289
-0.05522846572032826 0.10831987818446277 0.09520833165012203 -0.08494031540442819 -0.029933623835430703 0.14808211650111736 -0.15504341359407955 -0.07268795693747078
-0.039120947360699404 -0.034938837546258074 0.009724132747790399 -0.19329795460840654 -0.10467187764133502 0.07132624689032187 -0.021539090867925402 0.009839468082337577
0.24666659112991682 -0.10812315504927773 -0.13230358527384004 -0.11147520691156387 0.08034982532262802 0.08435053253797907 0.10472748337968033 0.007729909692897695
0.010435469503000522 0.07163819094732152 0.17020016898434479 -0.11529066112611074 0.043188681728003234 0.015305106685828788 -0.0022820385902341976 0.3191650633852
-0.089478944817077 0.023007267422913574 -0.04418628997026464 -0.036869421887892884 0.29380392699315955 0.07016970590447652 -0.004932112414308143 -0.04956748055155837
-0.03547391111732729 -0.090958812890354 0.15327828236351104 -0.039541515654269783 0.04368546146496983 -0.04009522137112572 -0.08738256438328779 0.06413685672287038
-0.13203832640953495 -0.032201221177997064 0.04133959261552779 -0.2556373537752177 -0.06456564476264735 0.050771891807775596 -0.03711973932013622 -0.07566480888880518
-0.3462435417561423 0.15879043418283326 -0.02716456011104103 -0.02046976189597055 -0.021861401340137903 -0.08086656289983814 0.12196361087587546 -0.085028166041406
-0.031453316873714304 -0.06766611582747828 -0.09911133348941803 -0.051333487033843994 -0.0170662171683607 -0.03709138500499278 0.01274715016171695 -0.05487081018017529
0.03179069101663992 -0.10268270154429662 0.10158166359811459 -0.029456552996815724 -0.0990865569409862 0.016654562107397824 -0.00018666753363305867 0.06658608974886804
-0.03448240676421731 -0.06963533717536571 -0.015019391323298452 -0.027415460214460983 -0.11241535614860867 0.0030090366308678867 -0.10743883445481048 -0.03742402754302848
-0.01786595961484713 0.10333859248898594 0.0019173120820725382 -0.10269677758053519 -0.0639657170027081 0.06411591287025929 -0.13010277296274841 -0.020167622559483473
0.11536822644694943 -0.004463160252598648 0.03452971416771989 -0.018849769780815984 0.025739008265234925 -0.4488538929715033 -0.03847654554917941 0.051795583934634105
0.02918064114329144 0.03499756389953743 0.17622576954649255 0.0018281173219608974 -0.5093450904057333 0.9318691192378405 -0.48233507162842 0.05485051547847327
-0.18092020424068359 0.12490737438201904 -0.07839670032262802 -0.014656379272933602 -0.13028662481744233 0.045173984331507495 -0.02537754426911247 -0.1378205476021224
-0.1300400475327172 -0.0561247053892517 0.043787426358675975 -0.021613044189468963 -0.12017771980570874 0.009752400404869384 0.047940591361769175 -0.020059746603075038
-0.06836512391235318 -0.20246469620020843 -0.0029367387267554474 0.02359209057587011 0.0468545582791747 -0.00880040024999023 0.9701639578431608 -0.04979954385518592
00000000: d7b6 d1ac cb2c a8bf f4a9 2161 97fd a1bf
00000010: b3b0 1f9b d2be 92bf f4d1 09ba 39ae b13f
00000020: 5598 390c 0a1f 853f 68b3 0133 a120 a43f
00000030: 3486 9b97 ed56 adbf 203a f689 39e0 5f3f
00000040: 827f 34ed bb0e b03f a703 89d2 9471 c13f
00000050: 563d 76f3 cdcd a3bf 5b4e 721c c539 b8bf
00000060: 3efd 799a 1b6a 9cbf 36f7 b3a4 d520 b73f
00000070: a75c 6c5b afc7 b73f 2c7b a508 fbc5 af3f
00000080: db15 821e 03c9 c03f 3b58 ad28 ac93 b5bf
00000090: 1d63 ac9e 951c a4bf 7cfe 7ae8 db08 d3bf
000000a0: 458e 50bc 9e36 b83f 1fe2 069b 56e1 a8bf
000000b0: cfd3 2d66 9d1b b33f 5768 87ca 5270 acbf
000000c0: 47fd 8f12 e0f7 b3bf 31ae 4494 5f5c a33f
000000d0: 37e4 c501 45bc a53f 2bfc 83a9 b2f0 a63f
000000e0: 03e5 e6ee a8f2 bd3f bee3 4d97 6bbf ad3f
000000f0: 278c a57e f0c0 963f d389 d737 9512 b73f
00000100: 196d 65a2 2527 c93f 5ce9 6e74 adaa bb3f
00000110: 006c fed0 f475 b23f bb83 197e 8d36 c5bf
00000120: 3902 edb8 049c a83f df7b 5252 0c12 c2bf
00000130: 621a 9c6a bae9 b9bf 97da 94fd dba5 b0bf
00000140: b31f 2e65 593b b63f 72a7 5f5f 91cf cfbf
00000150: 6655 379e c8c8 babf b351 6be6 5704 d13f
00000160: aa05 9ea9 c978 d23f 0000 0020 b7f6 bebf
00000170: 0000 00e0 0308 bc3f d852 7817 d063 b3bf
00000180: 5e35 cff0 cdf7 a0bf 0c4d 2642 3573 a33f
00000190: 4417 8ad0 c29f a03f bad7 e51c 9529 a43f
000001a0: 6997 c8ad d897 a33f cdb8 53eb d0d5 aa3f
000001b0: 85a5 4269 3ef4 b3bf d73f 1c78 1739 963f
000001c0: 344e 586e 6e6a ad3f dc39 25a3 8c17 a2bf
000001d0: ba18 c4b9 3698 ba3f 2bac 9709 1e84 9d3f
000001e0: f5fe 284e 64b2 33bf 66ed 5290 4b37 af3f
000001f0: 919e 0170 e16f 923f 6067 da3d fc18 83bf
00000200: dbda 3106 ad1e a13f 9412 3ed8 997e c3bf
00000210: 599d 5435 f017 943f bfb5 4a13 4d40 b13f
00000220: c491 ee88 4e9a a23f 8fed 8590 e3f2 52bf
00000230: 83e5 2689 cfb7 c0bf dfc2 d79b bf9d c3bf
00000240: c2ca 9783 4749 b0bf 9340 4d97 e9c8 b9bf
00000250: 3243 b003 0ebe acbf 626b 7dd7 510b c8bf
00000260: 0728 7536 4f3d c2bf 2426 ca41 6760 703f
00000270: 3c94 7ff1 d622 a7bf 9d1d 068f a000 a73f
00000280: e5d6 9e7f f1ff b13f daaa d883 5990 9cbf
00000290: e996 d327 ee6b a73f 5364 8576 9da3 bb3f
000002a0: 5c39 e1d3 299a c4bf 2bd5 9831 2828 c23f
000002b0: d774 cad7 980b 73bf 95fe 0d9b 5ae6 e93f
000002c0: 7f98 678c 3d67 e33f db3b 1829 d72f d4bf
000002d0: 6ce6 1187 e0a6 debf 9ca1 7a03 e95c e1bf
000002e0: 0000 00a0 0295 b63f 0000 0000 6e6e c0bf
000002f0: f02a f8e6 063a babf 80bd 650c 4128 aabf
00000300: b5be b700 baad b23f 39f8 4000 82e6 a9bf
00000310: 6ef2 fb30 2b0d 78bf 4c93 844a df0b 3ebf
00000320: 9288 7169 3ead b83f 6769 2f0b c5da 853f
00000330: 2bd8 301e f378 bd3f fc73 3005 420d 48bf
00000340: 5448 e3c9 952f 993f 658c 8a9c e7b3 7c3f
00000350: aa78 033d 3930 1c3f 8838 c718 eb79 af3f
00000360: c928 d7b9 a051 c1bf 87a5 46d0 c7e9 be3f
00000370: 6fef 386a 5f36 b9bf 3207 3020 f556 ac3f
00000380: 13ff c46b 604b b1bf 1835 ac75 8ecb c03f
00000390: 78fd fe16 fa2c abbf b27c 8cfb 9f65 adbf
000003a0: 6d1f ba84 1c1c 81bf 836b 6236 3322 c1bf
000003b0: 6344 28d0 0067 a53f 8fab 27f3 25cc b1bf
000003c0: 5275 27cc e746 acbf c118 4ffe d9ba bb3f
000003d0: 8376 bebe 925f b83f 3321 c604 a6be b5bf
000003e0: 941d b27d eba6 9ebf 5454 bfd3 5af4 c23f
000003f0: 1363 6c6b 76d8 c3bf c107 dc8d ad9b b2bf
00000400: 5467 012b a907 a4bf c52c 3ed9 80e3 a1bf
00000410: 0add 1101 3fea 833f 56a1 b6c4 fcbd c8bf
00000420: 69cb 47b3 c6cb babf d987 bdd9 6f42 b23f
00000430: 0608 74eb 570e 96bf b349 fd0c b726 843f
00000440: 1f9b f556 c592 cf3f 1982 e086 f5ad bbbf
00000450: 3585 f2e9 52ef c0bf 0000 00a0 a389 bcbf
00000460: 0000 0060 ce91 b43f 179b a61a ff97 b53f
00000470: 22ad 1b9c 6bcf ba3f a5fd 4fd5 65a9 7f3f
00000480: aace de01 315f 853f da6a 4367 e156 b23f
00000490: 15dd c77f 1ec9 c53f 2724 1253 b083 bdbf
000004a0: 4a83 28af d31c a63f 1c5e 6ba5 4858 8f3f
000004b0: a6df 9f23 c8b1 62bf 0ef9 504d 336d d43f
000004c0: d280 ab95 17e8 b6bf bb61 9b94 378f 973f
000004d0: 112d b5dc 959f a6bf 003c 7682 8ce0 a2bf
000004e0: b7ce 77fc aecd d23f 1c98 0750 a4f6 b13f
000004f0: 8d7b 50d8 b133 74bf 93ff d3a7 e860 a9bf
00000500: 2963 38f0 a229 a2bf 4fa5 a5a6 1349 b7bf
00000510: 501b f86c 9f9e c33f 4183 2319 c93e a4bf
00000520: 49fd 9ad8 f05d a63f 6b9c 0761 5c87 a4bf
00000530: 544f 4428 b45e b6bf 9fcc 17e6 456b b03f
00000540: ecae dfc2 a1e6 c0bf d096 b3af ad7c a0bf
00000550: 6297 a08c 762a a53f 486f 86c6 5c5c d0bf
00000560: a762 b3c4 5f87 b0bf 2aab bdfd c5fe a93f
00000570: ee01 d5c4 5b01 a3bf adb0 a2d7 c45e b3bf
00000580: 4dce 12ac da28 d6bf f9cf ddb4 3e53 c43f
00000590: f509 26c5 06d1 9bbf f0b3 9977 06f6 94bf
000005a0: 7bd6 33cf d562 96bf bda6 feca abb3 b4bf
000005b0: 8e92 03d8 0139 bf3f 8cfe 62e8 67c4 b5bf
000005c0: 3c8b a52e a61a a0bf 00c0 860a 9152 b1bf
000005d0: 0000 0040 5c5f b9bf 0000 0000 6248 aabf
000005e0: 4d0d 6b72 ce79 91bf a39c 1e5b a4fd a2bf
000005f0: 1b84 7e88 2d1b 8a3f 552f 75de 0618 acbf
00000600: c4a8 7794 de46 a03f 2268 ffdc 6949 babf
00000610: fff4 0683 4101 ba3f a4cb 18cf db29 9ebf
00000620: 2ee7 8891 bc5d b9bf e867 52be e40d 913f
00000630: 6700 84e7 8577 28bf 4804 d735 c90b b13f
00000640: deea ad92 ada7 a1bf be6a d017 9fd3 b1bf
00000650: 49ad 5094 7cc2 8ebf 4985 1a64 cc12 9cbf
00000660: baf9 39b6 40c7 bcbf 9361 813d 68a6 683f
00000670: cec3 4d88 1c81 bbbf c889 c3fc 3d29 a3bf
00000680: 779a 0741 744b 92bf 4aa5 27e3 6574 ba3f
00000690: 551b 142c ca69 5f3f 90ec 1c05 564a babf
000006a0: ad81 97a6 0e60 b0bf af52 ee84 e669 b03f
000006b0: b038 7f29 35a7 c0bf a5ff 523d d2a6 94bf
000006c0: c750 96a7 c588 bd3f 14c2 2575 f647 72bf
000006d0: 2161 2ef2 e0ad a13f a0a1 fba2 5a4d 93bf
000006e0: 8831 ec9a 535b 9a3f 4bac bfad 05ba dcbf
000006f0: 8af3 97a1 32b3 a3bf ed27 2766 f384 aa3f
00000700: e007 8cad 87e1 9d3f fdbf c660 33eb a13f
00000710: 3612 75e6 908e c63f 96d2 1b07 aef3 5d3f
00000720: 1877 3513 8e4c e0bf 56ec e82f dfd1 ed3f
00000730: 87e7 96eb 93de debf 7b2d 4ce4 5d15 ac3f
00000740: c51e 33ac 6428 c7bf 0000 0000 eef9 bf3f
00000750: 0000 0060 ce11 b4bf 377c 3ded 2904 8ebf
00000760: c73b 596c 3bad c0bf 39ed aa62 0b21 a73f
00000770: 4c28 c12a 92fc 99bf a17e 558c 1aa4 c1bf
00000780: 1662 a9fb 26a5 c0bf 1af8 499c 60bc acbf
00000790: c57f 5f38 4e6b a63f 9fd4 d7d7 ba21 96bf
000007a0: 9cfb 4590 f7c3 bebf d10c 5f06 11f9 833f
000007b0: 1c72 1950 ab8b a83f d448 81ce 8a8a 94bf
000007c0: b9fa 6373 6080 b1bf db21 63f8 5cea c9bf
000007d0: add8 3999 c90e 68bf e8da de65 8628 983f
000007e0: 8c85 f416 52fd a73f 9c93 1fba f105 82bf
000007f0: b137 d648 950b ef3f 7f6f 6d68 537f a9bf

fc.0.bias f8 [100]
-0.10675944938261568 -0.1302699970118364 0.046365797963806875 -0.09308263874081282 -0.20143798342916544 -0.44810974134464915 -0.017863940878464026 -0.43926647972878974
-0.0395072449309151 -0.06803678530895474 -0.24314409861552316 0.1517155510470918 0.03534906301269149 0.1407031970794297 -0.3427359569416149 0.22590378735863967
-0.3024431833191093 0.04667762164263728 0.019409058941153596 0.16788718690753957 -0.7332256737817532 0.7868267397393913 -0.6296175776315032 0.12855344052759748
0.0387834785789176 -0.12741863271685924 -0.11682116330883802 0.034841058521078556 0.07120261066492305 -0.49332362739782387 0.08704989989257726 -0.6910895521437105
-0.7735481832913774 0.07573679045952843 -0.17764589527436214 0.1949434991004856 -0.9332048838052878 -0.0374222467189718 -0.20280778288141532 -0.12674703965822956
-0.2216855937932399 0.1076060850511909 0.0666746590542619 -0.05159206976701919 -0.7013997793098599 -0.14089699602385625 -0.8758293026504839 -0.626009313094064
-0.12603217680955386 -0.37515313211706264 -0.2394089634727235 -0.3404824254558084 -0.04211158792427918 -0.01968419961443787 -0.04183356882967231 -0.12894498101183513
0.8778389988100943 0.37958452525420405 0.27982169253324185 -0.01488914599019774 0.07452876165816197 -0.06318324476264206 -0.37212683810053765 -0.052352637859111394
0.20898782329133764 -0.3253847008138723 -0.19142961003486514 -0.03927343329443356 0.2808445247845197 -0.13733349034466405 -0.15967741921826636 0.0693156074290526
-0.11577041881602233 -0.37182148665282766 -0.6325618572021657 -0.037699067185580595 -0.15950279804420198 0.1223798914066555 -0.6838391939845871 -0.04307565046336062
-0.0011090063070661245 -0.12727562643409931 0.04867970510070414 0.102308562523997 0.07557772870407618 -0.006428504330446022 0.16547990397503606 0.38293036299594513
-0.1550507812679277 0.01814965415912472 -0.8134234050914716 -0.31965094566620866 0.12616564306506953 -0.946428766364078 -0.11521561821980716 -0.5053570717118839
-0.002486853627706394 -0.9023930134254152 0.05161837154209578 -0.39525881575605865
00000000: 3526 a357 9654 bbbf f06d 68f0 afac c0bf
00000010: 0ba3 d003 42bd a73f b298 3789 43d4 b7bf
00000020: ed0e 8047 b8c8 c9bf cd08 067b d4ad dcbf
00000030: ca18 67c7 ec4a 92bf 3c82 2a27 f11c dcbf
00000040: 05df dd29 4b3a a4bf f0b1 d3d7 db6a b1bf
00000050: ea70 e287 581f cfbf 415c 0549 6a6b c33f
00000060: b2e1 2abb 4519 a23f a80b f3f6 8f02 c23f
00000070: 5d8f 8ecb 62ef d5bf 0bbb 5f51 6aea cc3f
00000080: bd3c 50a7 3a5b d3bf 4804 d214 21e6 a73f
00000090: d5f3 97e5 f7df 933f a0b8 97cc 537d c53f
000000a0: c15d 2fb0 9576 e7bf 5291 5945 af2d e93f
000000b0: e03f 1dc3 d325 e4bf 1a5a 6d6b 7074 c03f
000000c0: 1d3e 3e98 6ddb a33f cbc0 35f6 404f c0bf
000000d0: ec62 e4e3 fde7 bdbf 61e6 cfed afd6 a13f
000000e0: 1f17 3294 553a b23f b422 8143 9d92 dfbf
000000f0: 1fa0 28f9 e648 b63f 9310 22d6 671d e6bf
00000100: d7bb a31e e8c0 e8bf 99af 207e 7c63 b33f
00000110: 5c6b 3cc7 19bd c6bf 7d29 9a98 e8f3 c83f
00000120: 7a28 0d7d d0dc edbf 0506 9a3b 0229 a3bf
00000130: 14cb 6cfd 9af5 c9bf 6134 193b 3f39 c0bf
00000140: 130c ab8b 3160 ccbf d43c 2588 128c bb3f
00000150: 4c29 1c28 9711 b13f 88bc c398 466a aabf
00000160: c2d6 31f3 dd71 e6bf 2a78 03ab e908 c2bf
00000170: e164 782c cb06 ecbf ae5f d7ae 4408 e4bf
00000180: 3a03 d286 d221 c0bf f7d2 5b48 8202 d8bf
00000190: 9207 3ef2 f3a4 cebf 5682 8ccc 76ca d5bf
000001a0: 73b6 d569 a68f a5bf 3727 5e46 1828 94bf
000001b0: 472f ffa3 356b a5bf 23ef 36e6 4481 c0bf
000001c0: 1c5e e1cf 4117 ec3f 2035 82e4 1c4b d83f
000001d0: a610 893e 99e8 d13f ba03 bf58 337e 8ebf
000001e0: 2ce5 ee21 5114 b33f 5a24 e9f1 c62c b0bf
000001f0: b9c3 e615 edd0 d7bf 93ad ed06 f7cd aabf
00000200: fa35 26ed 1cc0 ca3f 1e51 275a 1ad3 d4bf
00000210: d0fa 4af5 c380 c8bf 60d4 33bf a51b a4bf
00000220: 7c73 4d50 5bf9 d13f b582 d6d0 2494 c1bf
00000230: 97df b946 4f70 c4bf 8e99 02eb aabe b13f
00000240: c7b6 a852 21a3 bdbf 8aef 4759 eccb d7bf
00000250: 9d2b 2c5d f23d e4bf 82b5 4dc9 4a4d a3bf
00000260: 1c34 9c72 966a c4bf f894 47df 4954 bf3f
00000270: ae60 bcbb 02e2 e5bf 94f5 fcfb 020e a6bf
00000280: 1d5a 7974 822b 52bf 2162 8e56 914a c0bf
00000290: 9adc c5da 8bec a83f c02e 24da e430 ba3f
000002a0: 1f08 17e1 0f59 b33f 538a c87d c654 7abf
000002b0: 6fe7 db0b 722e c53f ada1 6d5a ee81 d83f
000002c0: 7ceb 6139 b4d8 c3bf 5e48 30ac d295 923f
000002d0: 0f67 5585 9007 eabf d065 713d 2975 d4bf
000002e0: b1f0 6b1f 3226 c03f f8df f0fa 2449 eebf
000002f0: 0e14 3e50 c57e bdbf 7bc1 f997 e22b e0bf
00000300: f7ae 0760 4f5f 64bf 2ea2 1950 67e0 ecbf
00000310: ccca 4a23 b96d aa3f 8530 c8a1 eb4b d9bf

fc.2.weight f8 [100, 100]
-0.12711631559958758 0.11158130403656692 -0.03459842281142508 -0.08747432966865068 -0.1256934220337664 0.06709991950465048 0.14867083356602184 -0.10429039044192004
0.009373471842607175 -0.14027924040912518 0.016475537831270114 0.1578245701990328 0.046599219772261634 -0.035376943171572896 0.03128745350843378 -0.14659355711612448
0.0476713543079736 -0.07142046540983625 0.13960279740080378 0.14857938257813097 -0.1823170881905848 -0.10606751692465835 -0.2330438803225491 0.0719339749227998
0.10749559800915183 0.021796771654449605 0.1084662419450024 -0.019319873996700626 -0.1355427674024383 0.1444491266244744 -0.05760695780595232 -0.3175728385798825
0.10298073609087063 0.06695118030968751 -0.11587141603600286 -0.017461346823896978 -0.053356679218278115 0.07768915828523554 -0.07716528374540911 -0.004075133166120015
0.08742450256449906 0.12049684540938038 0.004794316655710496 -0.028262884782628485 0.04470396121214544 -0.09479008768108944 0.22340933064983842 0.08430051886863611
0.08055135695012984 0.04189564398325539 0.00040886978561683945 0.10147528968461221 0.0814861658305033 0.00196632667811028 -0.029844128678084586 0.05648746416221022
0.14006648924990367 0.014675978505279337 -0.05993583742428034 0.012190803277350707 0.004858016955166138 0.04277502593463157 -0.24699273935511815 -0.05725882706711521
-0.03786195479837238 -0.027772307353045367 -0.002615995287478042 -0.06084067494957173 -0.0725819793262624 0.02536632311871697 -0.019578209439415142 0.006914546551805822
0.07031829787015925 0.058043762769398044 -0.1881242407381896 0.16741260468192626 -0.015520072374118675 0.08337631355803946 -0.39850580632997973 0.040160436423983106
0.04850967674257556 -0.021730346438522324 0.24068710796359974 0.06880135433026074 0.11383135566870371 0.19388360996790432 -0.030800719631971656 -0.004175467901013371
0.004162509503110069 -0.0491806218554223 0.003734932923610276 -0.17563069798057376 -0.015694945919813425 0.09987524453879443 0.029098918943244737 0.2029343225498264
0.0426756430592219 -0.028097813774963776 0.055618204179218755 0.05787636897751874 -0.06966463943816417 0.0876986390022362 -0.09335130415820177 -0.09417798217118789
-0.0008107363081502324 -0.07502155658190633 0.022382216296026384 0.042579550273193364 -0.051024846559368474 0.06955215149428008 0.013193031847670553 -0.07556540807529233
0.12380854329612397 0.10735138180744777 -0.06906135260744298 0.03398775491848839 0.04579823503833761 -0.010853459285598352 0.10034027426972321 -0.11694162099073555
-0.12532246586950083 0.07783785516418658 -0.03305146863283695 -0.09246826508542798 -0.023190778320404736 0.046128988883623705 0.0679659774129274 -0.04967278324271619
-0.022289487894622925 -0.03399031035543811 -0.0013279500850081876 -0.04872077790975665 0.039729717296541484 0.06711215390207012 -0.06966103934902625 0.07648112802627337
-0.19054768116311432 0.010834861127791412 -0.03180031427433206 -0.027827613180024396 0.004736509399941222 0.006570806176842962 0.030292654925524715 0.0840991560150216
-0.07731841866297065 0.0067362161754109 -0.07629384174977032 -0.14190501932217028 -0.08775051089744185 -0.00014067585791990126 -0.09740109511279414 -0.03713918171561827
-0.10078600026486377 -0.05038049382820752 0.09294892456312606 -0.019322015512583793 0.021924384699850145 -0.11156687312285732 0.17232387523980042 -0.003956497994238063
-0.08669598998344401 0.0017037707729991357 0.03113566521379929 0.023864062924046074 0.07350931064317505 0.037224930516584646 -0.061419270536244866 -0.01669658848151469
0.021808367272371877 -0.10180057572007858 0.11289644613271914 -0.031130162787822862 -0.09657312195478049 -0.008480447182238969 -0.01569044717056496 0.04842108360569582
-0.03361912912347183 0.027091841147905835 -0.0011284372931830685 0.06109729586627357 -0.15095731317721275 -0.02324213880859667 0.07299432009962734 0.043367761111968155
0.09143769031910182 0.0649735812862093 0.03786559558764382 0.0210486876322749 -0.04427677742846906 -0.05026398613492063 -0.06082461590299724 -0.039966360220469774
0.05024594277814408 0.16965712774726197 -0.019179160232873863 -0.0076539739160083236 -0.07092958949764061 0.1857772508310561 -0.015545542123693787 0.11350145196660545
0.05378242276489043 -0.03051997077853024 0.0029884076884781553 0.02784163710319312 0.04589727485517191 -0.03637160362197558 -0.04445170652103725 -0.016267066454917385
-0.09834330463581803 0.011768648558162708 -0.1006463193522249 -0.0016295118457882532 -0.05001796677142996 -0.0426216371575559 -0.019599793240213242 -0.010268370850681368
-0.017366674014038023 -0.08306670298631835 -0.08649041982324573 0.018619369857738224 -0.08045426100850554 -0.06154188137810184 0.03205143449268474 0.06610608453644067
0.01319370880394546 0.09142921317813199 0.012967298462080612 -0.0021186268689838404 0.07836565547777422 0.054836686166222656 -0.06143383134651607 -0.09525219281804745
0.054184901371423906 0.024253899856673415 0.009763301996657772 -0.06801257323378296 -0.09824169851884644 -0.022421781868421305 -0.046875706005460586 0.03921687409103554
0.05175894826704072 -0.00619653746033368 -0.020900818381027402 -0.07834880236169939 0.06348223068265507 -0.014856255438825258 0.07988321668123795 -0.05784672806004646
-0.016614018519328706 -0.06673092546224714 -0.06228942292785753 -0.060625744052547975 -0.08417039347663305 0.049513887484753216 0.010086874390947721 -0.04422793523689846
00000000: 28e5 24f1 5845 c0bf 4d9d aea3 9790 bc3f
00000010: 9bbe ef6c e2b6 a1bf b297 2ab9 b764 b6bf
00000020: 878a 7ad8 b816 c0bf 6332 d6d7 752d b13f
00000030: e87e 0458 a507 c33f aa30 3c68 c6b2 babf
00000040: c19e 1c18 6632 833f 83b5 ee8e abf4 c1bf
00000050: 2661 ada0 f6de 903f 064b c173 9833 c43f
00000060: 2bc8 e159 dadb a73f 5da1 e83b ed1c a2bf
00000070: 430c 30bb e804 a03f ae1c cfe2 93c3 c2bf
00000080: 99e4 6a37 6168 a83f df49 3393 9c48 b2bf
00000090: d61e a224 81de c13f 8837 8432 a604 c33f
000000a0: bce7 a395 2a56 c7bf 52fd 5ba4 3d27 bbbf
000000b0: 3557 42c2 61d4 cdbf fdc3 c3d5 436a b23f
000000c0: 0dcc e9dd d484 bb3f c22e a895 e451 963f
000000d0: eeb1 df91 71c4 bb3f 7828 eacb 96c8 93bf
000000e0: 98f5 9924 7759 c1bf 44d9 6419 4f7d c23f
000000f0: 58e4 98bf a87e adbf 561a f306 1d53 d4bf
00000100: 06d8 a00d f25c ba3f 39d4 db69 b623 b13f
00000110: a374 6ac6 bfa9 bdbf 5b04 3626 63e1 91bf
00000120: 8d05 8810 9151 abbf 24bf 16ca 6fe3 b33f
00000130: 31b6 12a2 1ac1 b3bf 4027 ce3a 16b1 70bf
00000140: 0f33 62c3 7361 b63f dcf0 4d9a e1d8 be3f
00000150: f419 e393 34a3 733f 3af9 5317 f2f0 9cbf
00000160: 6acd d006 70e3 a63f b143 93c6 2944 b8bf
00000170: 4293 614c ad98 cc3f 919d 9303 b894 b53f
00000180: 89cd bf83 039f b43f 7e81 8189 5873 a53f
00000190: d830 885b b2cb 3a3f 4b2b 8cda 48fa b93f
000001a0: 9285 5101 47dc b43f 3fd4 d298 af1b 603f
000001b0: b896 9992 758f 9ebf 46dc 6bc6 eceb ac3f
000001c0: fe03 4cdf b2ed c13f b75c bc7d 700e 8e3f
000001d0: f2f9 30fb e8af aebf d503 1beb 7df7 883f
000001e0: c535 22ff ffe5 733f 4118 f3b2 9be6 a53f
000001f0: 8199 f044 759d cfbf 7737 526b 0751 adbf
00000200: 8d47 3e63 a462 a3bf 805e 43ff 5770 9cbf
00000210: 2b42 99c6 236e 65bf 9796 594a 8226 afbf
00000220: 0639 7c8b bb94 b2bf 56cf db20 a1f9 993f
00000230: e4ae 0665 4f0c 94bf a624 e874 6d52 7c3f
00000240: 0ca8 a945 6100 b23f 50a6 a97d e9b7 ad3f
00000250: e115 c782 7414 c8bf ba05 06b7 c66d c53f
00000260: ff25 3ada fcc8 8fbf 8229 fe6b 2658 b53f
00000270: 0f04 5d7f 1e81 d9bf da74 11a2 e88f a43f
00000280: d03b 4ca6 42d6 a83f 3b06 23dd 7a40 96bf
00000290: b1e0 a2cc d5ce ce3f bcdb c42e f79c b13f
000002a0: c73e db3d 0d24 bd3f e472 059a 2dd1 c83f
000002b0: abe2 0c4e 398a 9fbf 491d 49a1 4b1a 71bf
000002c0: a85c f622 b50c 713f 2595 eed4 332e a9bf
000002d0: 1322 4fd8 b898 6e3f 2107 0014 117b c6bf
000002e0: f599 c0fd 5512 90bf 3c60 f98c 6c91 b93f
000002f0: 513c d764 1bcc 9d3f 9230 4b7b c0f9 c93f
00000300: 81dd 8cf6 94d9 a53f 1da1 025d acc5 9cbf
00000310: 3824 0640 fd79 ac3f d778 f0af f8a1 ad3f
00000320: 8215 13b4 8ad5 b1bf aa16 6b02 6b73 b63f
00000330: 35ff 65fe dee5 b7bf b0b3 6d59 0c1c b8bf
00000340: f288 eff6 f290 4abf 3fa9 03dc 9c34 b3bf
00000350: 9183 031c 5deb 963f 9eb2 cd9f fccc a53f
00000360: 1306 83be ed1f aabf 81cc 0878 2bce b13f
00000370: 1810 91c2 f204 8b3f 206c 642c 4158 b3bf
00000380: bd18 6cac eab1 bf3f 1a1c 0b52 617b bb3f
00000390: 6ad2 dd3a 01ae b1bf 02c2 adcf d766 a13f
000003a0: 758a 68c3 dd72 a73f cbde 70a5 563a 86bf
000003b0: 2dcb 7574 e6af b93f a649 b2d5 e2ef bdbf
000003c0: dd89 2e0a 910a c0bf d52a 5282 2eed b33f
000003d0: 84c1 b941 1fec a0bf 9bb3 750e 00ac b7bf
000003e0: a3d7 d1c9 52bf 97bf 2f30 4e05 389e a73f
000003f0: b6ac 3ae2 3766 b13f 02ba 0e07 b66e a9bf
00000400: bf3d 3536 0ed3 96bf d309 b78e 2d67 a1bf
00000410: f8a5 e48b d3c1 55bf 9823 8407 eef1 a8bf
00000420: ec99 ef18 7457 a43f 266b 2c1a 432e b13f
00000430: 4137 cf4d 4ed5 b1bf ff4f a267 4494 b33f
00000440: 8e4c 76cd dd63 c8bf 3dc2 9a71 9630 863f
00000450: 511e 9f7b 2148 a0bf 0bc2 2282 d77e 9cbf
00000460: 24e4 840f 9766 733f b8d1 345a fde9 7a3f
00000470: 0848 dba8 0905 9f3f 08aa b4b4 8587 b53f
00000480: 6a30 89cf 23cb b3bf a33b c142 6f97 7b3f
00000490: 1393 3343 fe87 b3bf 8940 9094 f129 c2bf
000004a0: 9c05 8346 d176 b6bf f382 0f6b 4c70 22bf
000004b0: 1fa2 1a36 47ef b8bf f3d0 bc25 e803 a3bf
000004c0: b340 087f 1ccd b9bf 1f6c b2da 78cb a9bf
000004d0: 6e6e 322f 80cb b73f d49d e082 26c9 93bf
000004e0: 2147 158d 5873 963f fa30 6187 a58f bcbf
000004f0: 68ca 3c70 b50e c63f a8fe de57 b034 70bf
00000500: 2b59 ac59 b531 b6bf 998e feef 21ea 5b3f
00000510: c073 541f 07e2 9f3f fedd 3b27 d26f 983f
00000520: 13f8 2995 81d1 b23f e746 5466 250f a33f
00000530: 023e 98bc 5872 afbf 0577 ee15 e918 91bf
00000540: 3a21 dbc0 ee54 963f 7e84 6e3f 9a0f babf
00000550: f382 f90f c8e6 bc3f 7b15 5fdc 95e0 9fbf
00000560: 2ee9 7720 04b9 b8bf 4ce5 6c5a 325e 81bf
00000570: 342a d415 2811 90bf eaf3 0bf5 a5ca a83f
00000580: 8aeb 35c8 8636 a1bf 59ee dfae f6bd 9b3f
00000590: f488 4451 027d 52bf d346 3d0f 2548 af3f
000005a0: 9515 98b9 9152 c3bf 54be 4988 c9cc 97bf
000005b0: c624 9f79 c1af b23f 0f71 5a97 4c34 a63f
000005c0: 5cd5 8ae1 7568 b73f ad6f bace 1ba2 b03f
000005d0: 538e 628d 1e63 a33f cd71 0484 c98d 953f
000005e0: 751a 0e1e 72ab a6bf 0a6f 3b81 33bc a9bf
000005f0: 7db5 3070 6724 afbf d694 2c84 7876 a4bf
00000600: 1e46 fa11 d6b9 a93f ad98 9a23 53b7 c53f
00000610: 7118 dca7 b3a3 93bf 9586 75fa c559 7fbf
00000620: c808 360b 7128 b2bf 9b80 5488 8cc7 c73f
00000630: d8a9 2858 57d6 8fbf e9bd 3e60 6e0e bd3f
00000640: 61ec bfa5 5e89 ab3f ce82 7991 a040 9fbf
00000650: b18a 4029 257b 683f 471f 4da3 8482 9c3f
00000660: 2efc f4fc d87f a73f 9371 1e80 4c9f a2bf
00000670: c0bb 84c3 5fc2 a6bf 42f2 b359 50a8 90bf
00000680: d4ff 30dd 062d b9bf f345 6745 291a 883f
00000690: c0a0 140a f5c3 b9bf 25bf 8205 abb2 5abf
000006a0: 3acd fd76 f49b a9bf 282a 63d3 80d2 a5bf
000006b0: c87a e6db f711 94bf 561f e567 9507 85bf
000006c0: a1eb b8c3 91c8 91bf f078 b604 dc43 b5bf
000006d0: f4e2 8e74 3c24 b6bf d4c7 71c2 f410 933f
000006e0: 23fa da83 a698 b4bf 57de b4df 6a82 afbf
000006f0: 1b37 dfad 0b69 a03f 4b8f 260f 54ec b03f
00000700: ce6d 9b9e 4d05 8b3f 4ec4 7fa8 e767 b73f
00000710: 2032 7f56 998e 8a3f 7db9 ab23 155b 61bf
00000720: ca19 6887 c50f b43f 26ee 68db 8d13 ac3f
00000730: f5a5 0051 4174 afbf d29a 069d 7262 b8bf
00000740: 798d a796 1fbe ab3f ee4e bdaa 03d6 983f
00000750: c882 3636 c8fe 833f d882 c1a1 4569 b1bf
00000760: 97ef 3d32 5e26 b9bf 2f25 5f4f bcf5 96bf
00000770: 276d 8ab0 1700 a8bf ea3d 58ef 3b14 a43f
00000780: ac22 2a1c 2680 aa3f 1562 d95b 8a61 79bf
00000790: 5be5 9f2d 0667 95bf 2003 d3c7 aa0e b4bf
000007a0: d4bc a818 5f40 b03f 2b97 01da f46c 8ebf
000007b0: bd2b 25fb 3973 b43f 75a2 651a 169e adbf
000007c0: d259 c8e8 4303 91bf 89fe 7d26 4715 b1bf
000007d0: cd45 b934 66e4 afbf 44b2 0068 560a afbf
000007e0: 0a0a 46df 308c b5bf e8c1 e35e e259 a93f
000007f0: 941a 065d 6da8 843f cbfc d23e 0ba5 a6bf

fc.2.bias f8 [100]
-0.06274439678175431 0.0733125957408485 -0.11303882434611935 0.14938031721408135 -0.015609120651081818 0.26745935721440584 -0.2937785015280027 0.05467462654885944
-0.06178830738192191 0.1320544124630658 -0.19453840757808233 -0.23529425342610683 -0.08651491005954429 -0.14745898608933294 -0.150189838842719 -0.19601930053830843
-0.049157155196828825 0.15175101743477581 0.10787707397751552 0.02254957511896786 -0.047886803938034725 0.02378491796871747 -0.035258811212074186 0.14685880754703523
0.14317651328047828 -0.05535243361467566 -0.04349231210885785 -0.04894575276746437 0.022191826046963754 -0.07652341417916586 -0.006977739946732414 0.03697731184029052
0.0006821992145607569 0.1826906922159618 -0.17670960891193108 -0.1304918087828791 -0.024314654822046387 -0.1114138171384905 0.4217611329326126 -0.09723730401943997
0.007268975410320926 0.00821862490988005 -0.035758782686998156 0.2044119582654241 -0.06780955350638518 0.17941252642529232 -0.05145891300755644 -0.13593793692190115
-0.028767268420940417 0.0385546826632303 -0.061541619028143334 0.030375745593957355 0.12198128940369564 0.18471270005982515 -0.07105344194692727 -0.059411177378822164
0.010394994622372289 0.1445855776361627 0.06836903349422069 0.02678547819680538 -0.14847825640648177 -0.012923373367141082 0.1096724351510659 -0.24541500959881096
0.2990943320940844 -0.18607135927358656 -0.07544754092667512 -0.025756747105409563 -0.02952516319270723 -0.18620438507270956 0.2004837670167937 -0.011216868163754595
0.10795575421969462 -0.1167050150841548 -0.04430119178810554 0.007265601519577442 0.006925883274964139 0.03484036842337161 0.12484306864339208 -0.1696049832229748
0.06584362076987832 0.15287592429254596 0.04827967946929758 0.07930440150017347 0.11671381568517715 0.02330772076679368 -0.13021180844883143 0.04583864690581985
-0.03881277973322099 0.11686962351867115 -0.0845541750375853 0.1272695730581699 -0.06494975386545276 -0.009481474145400178 0.06118794352278885 0.0004924739350663204
-0.1186377240454022 -0.08638706620405687 0.022992112691046403 -0.0776324534445868
00000000: 7454 2f4c 0410 b0bf 1281 1741 9dc4 b23f
00000010: e1af bec5 1cf0 bcbf fadf 8cec e41e c33f
00000020: 98c8 b9b5 acf7 8fbf faae 0fda 0d1e d13f
00000030: 7f29 1558 44cd d2bf 0d90 e509 50fe ab3f
00000040: a60a f68e b7a2 afbf 6722 69b3 28e7 c03f
00000050: 6a90 2e71 a2e6 c8bf 4e70 b341 1f1e cebf
00000060: ba76 5255 d725 b6bf f8a3 60a1 efdf c2bf
00000070: c1af 02af 6b39 c3bf b931 9912 2917 c9bf
00000080: fe9a de6b 202b a9bf f02f 82cc 936c c33f
00000090: e5ba b8f8 d49d bb3f aada b25e 3c17 973f
000000a0: 26cc a581 9e84 a8bf 7436 41d3 125b 983f
000000b0: ff77 1a62 710d a2bf 3aa4 c5f7 44cc c23f
000000c0: c727 0ca5 9b53 c23f ed11 4278 2757 acbf
000000d0: b11a 45d4 9f44 a6bf 1f27 d4ee 6a0f a9bf
000000e0: 35e0 703c 74b9 963f 981c 47d9 0997 b3bf
000000f0: 5378 f0cd b094 7cbf e098 18b2 b0ee a23f
00000100: 2942 6fa8 b35a 463f bcf2 2c9a 6862 c73f
00000110: 7735 95a3 6b9e c6bf 2326 8fa1 f4b3 c0bf
00000120: 96cc 18dd f0e5 98bf e6ad eeac 9d85 bcbf
00000130: c1d8 2a68 22fe da3f d8f6 b640 8be4 b8bf
00000140: 9fa6 9aba 12c6 7d3f d6f0 a529 edd4 803f
00000150: 6ef0 5ea4 f94e a2bf eba5 d4c9 2b2a ca3f
00000160: c091 aa86 f75b b1bf 8ea3 be5a fdf6 c63f
00000170: 3e0b e998 d258 aabf 60c1 ae10 6a66 c1bf
00000180: 93b5 40b4 2a75 9dbf f6de 4a7a 70bd a33f
00000190: 6b35 2312 6282 afbf d5af abc7 d11a 9f3f
000001a0: 0579 b670 2a3a bf3f d6d6 f46e aaa4 c73f
000001b0: 4d27 6ef1 8e30 b2bf 3ec1 b74f 246b aebf
000001c0: 13bd 8f8f f849 853f d2d5 b5bb c781 c23f
000001d0: d4b3 ea0a a280 b13f 50b6 7303 a76d 9b3f
000001e0: a26a b7e3 5501 c3bf 2f19 bacf 9177 8abf
000001f0: 341b 3f22 7e13 bc3f 5e53 1650 c269 cfbf
00000200: e8d5 b08d 5c24 d33f 71b2 66b1 2fd1 c7bf
00000210: 25fc d7b0 8750 b3bf a755 e009 fa5f 9abf
00000220: 5776 4929 d83b 9ebf 7929 2198 8bd5 c7bf
00000230: 4ca6 5bbb 73a9 c93f 963a 6a8f def8 86bf
00000240: d9e1 c901 fda2 bb3f 3bcd 103f 61e0 bdbf
00000250: a0b6 ce53 a5ae a6bf 7aff 980e 89c2 7d3f
00000260: 0c14 97a2 505e 7c3f 66fe eac5 98d6 a13f
00000270: 9da5 f420 b7f5 bf3f 0435 17b8 9db5 c5bf
00000280: c45a dba5 20db b03f 3154 9733 7091 c33f
00000290: f294 c338 1db8 a83f d741 df12 4b4d b43f
000002a0: 09f5 5be5 f4e0 bd3f e62e c0a9 fadd 973f
000002b0: 9d9d 6bd1 c7aa c0bf 41ef b4c2 2978 a73f
000002c0: 66f8 3dc7 44df a3bf 1995 e8ea 2aeb bd3f
000002d0: 0ed5 86a8 57a5 b5bf c1c5 078f 5e4a c03f
000002e0: 2841 bc0c 8ca0 b0bf 9e99 faea 056b 83bf
000002f0: da03 aeb0 0654 af3f e6b2 fdb8 2b23 403f
00000300: d1cc d8b8 0a5f bebf ced0 2478 761d b6bf
00000310: 42c4 4b90 3e8b 973f 281a a770 b8df b3bf

fc.4.weight f8 [3, 100]
0.16370972494077315 0.14534301540332697 0.03857611996223433 -0.5077943942999177 -0.08870923209549375 -0.08276555091087393 1.8057517428258614 -0.06884573253135576
-0.2694248912540196 -0.30216158982400865 0.09468563566945205 1.701876299641977 -0.1741587353963471 -0.17771907812688295 -0.21189095328638752 -0.4221684225458047
-0.0028635464658550215 0.05817195927709343 -0.6154964984481527 0.015210533298355769 -0.03149881801440322 -0.04081790555532021 0.18141535788778182 -0.25142574554120867
0.3443582638179753 0.06580796875343671 0.09376177950955521 -0.0775682861290278 -0.5325777424169864 0.0023652958568918035 0.31960339634073165 0.4442728451154382
-0.05383616231670927 0.3468350362021222 -1.2313831592777515 -0.2335634116696218 -0.35102629099047455 -1.0678749507643117 0.13586279384025954 0.02178711202369419
-0.2733264433565205 -0.6875231736329052 0.969849230875728 0.5160584085765558 -0.10477249066465871 0.003327573387928297 0.7915260329601153 0.9523622555521069
0.12865827013869804 0.08719100792175145 -0.05952687705315984 -0.4910646070933441 -0.001258365520757696 1.1800119355417549 -1.2747274829628505 0.362558337835054
-0.0904454048510921 0.12065165247842405 -0.3574557377158192 -0.6034536979314619 -0.09890328203466946 0.09774275230713039 -0.20779348972338604 -0.135111932502613
0.01990581728630226 -0.8199233852244712 -0.7864516064324335 0.21280496881721211 0.11035512088914116 -0.24600727842814968 0.1476374718102787 0.27489400920122936
0.0137035806211223 -0.009641708429928446 0.011615157661410974 -0.024498500086463166 -0.17801590201699 -0.3883285479887488 0.8271043745997173 -1.3531396098026898
0.7147934055003715 0.1282651481006937 0.03245126703050922 -0.029160634636822523 -0.01931060782472578 -0.8596830671297121 0.11832365821130661 0.010283127642485247
-0.8597976740291411 -0.21251195055898142 0.5393986376700944 -0.580805022378815 -0.2143428509316067 -0.015440984395685529 -0.135723504906805 0.1004146492375294
-0.32921191587816356 -0.14201215132398626 -0.7832814344777553 -0.24600656050025385 0.1348179004710461 -0.1404652947907735 -0.08460723949823891 -0.24445479450837046
-0.06494885096257937 -0.1304793162587602 -0.03807384829489557 -0.1336677419566433 0.02695374655742104 0.04025431588367045 0.2522599211732652 0.07544442755650489
-0.04938630675523747 -0.5058882526962769 0.3827146326717875 0.07134254659518723 -0.02112264393897244 0.1806525186055182 -0.028564764448951042 0.26333469270987575
0.030838024447553646 0.028026182416160516 -0.010069409873794734 -0.1472015068281935 -0.031849854473413944 -0.017956472554152524 -0.07724074399448905 -0.0963629808256607
0.2708981555491738 -0.014977436494190576 -0.04458090056234064 -0.03798110392287464 -0.10114376419294084 0.14508387000957307 -0.07070490367455809 0.45469134402468414
0.01211636728288615 -0.021198127560632763 0.2953861429892973 0.028843926379158696 0.22740209465951758 0.017195483618616655 0.03478915029201557 0.1402834944025513
0.03249859618852842 -0.18541518322031778 0.04735857866407078 -0.02896512454339538 0.03747170879841465 0.09099391932551269 0.024621110577656927 -0.009182357451720146
-0.04799824701045105 -0.2175401500800073 0.018898327954732785 0.14456077632629644 -0.00502117749918347 0.17176464593984422 -0.028793764131514802 0.025452574321755267
-0.43588522337303914 -0.0216664957634673 -0.024415970206288405 -0.22794906353999467 -0.34272699802532286 -0.05906087908097686 0.13393442049271026 -0.1903085051995634
0.10208573037491937 -0.3653074845490189 0.24713172342564602 -0.07135002941673627 0.046644872331363905 0.055520131303225806 -0.0753941216871082 0.0787468435447931
0.0060695260356499504 0.01139198078350782 -0.06508154561512244 0.09205751283155598 -0.06791336176079205 0.030711838944429578 0.15427421376071554 -0.040714213951300655
-0.12774741095993652 0.07673794868368676 0.13761561649489132 0.09803673263726378 -0.02482178823001738 -0.08118603661664425 -0.14005046241010874 -0.17341476911751033
-0.09084999877154926 0.2897235114806577 0.06045106434445598 0.04527341880627089 -0.045176440286492155 -0.06537934997750146 -0.025293974078115098 -0.018638631709919272
0.8781441182306405 -0.386876896485022 0.07137558538015625 0.13486137154486896 -0.46986942355107086 -0.9750033224877332 0.3393727088342103 -0.48587790912358103
0.0979592996929438 0.6294427302825899 1.5705169270502397 -0.2044294914471742 -0.5336785286953595 -2.2792562448709908 1.7125600065245643 0.9009855829457725
1.2945594440790817 0.6257908761148733 0.34374980443701814 1.2826396167213174 0.35050763962722054 -0.11190486948366228 -0.5341096552226623 -0.796896671611857
0.5393002815790648 -0.0605039368111499 -1.8132265387989353 -0.06912079891695987 1.2043135892132069 0.53449011575237 0.30731327570628775 -0.6630618384576893
-0.5749640625705948 0.15259643990514496 -0.14070323730626305 1.543412389301605 -0.4496104757014559 -0.35280982043524917 1.6284300090655925 0.2602426401033046
1.1564258821273925 0.11589217551247151 0.1916372579718316 1.0030193011527482 -0.0704391294565684 -0.895165858956436 -0.06026018552422712 -0.4761706597720801
0.647856577817383 -0.18304860742262727 0.4059916511196541 0.6692198025890774 -0.540732709097556 -0.3151671811005769 -0.7153669319064697 0.5943107933866532
00000000: 0332 54b5 70f4 c43f fdfd ed94 999a c23f
00000010: c3ea 49cb 3fc0 a33f 6087 9307 da3f e0bf
00000020: 4813 b4f2 a5b5 b6bf daca 6586 1f30 b5bf
00000030: fd1c 82f0 5be4 fc3f 6afb b0b9 df9f b1bf
00000040: 0c85 2ae6 413e d1bf e8b1 9990 9d56 d3bf
00000050: adec 995c 513d b83f eecb 8ca4 e23a fb3f
00000060: 0d86 6b5c d54a c6bf d111 37ae 7fbf c6bf
00000070: 5076 5725 3e1f cbbf b13d 0fb4 ce04 dbbf
00000080: 8d4d 7ccd 4a75 67bf 345a 470d b7c8 ad3f
00000090: 0365 74b6 25b2 e3bf c8ba 9138 b326 8f3f
000000a0: ad12 78f2 9c20 a0bf 0613 e7a2 15e6 a4bf
000000b0: 5b61 8f52 9e38 c73f c233 9e02 5c17 d0bf
000000c0: a227 4d3e f709 d63f 2db9 9c81 cad8 b03f
000000d0: b7b9 9ba0 c500 b83f 9a85 21e4 83db b3bf
000000e0: 6045 487a e00a e1bf cf0d 398b 6260 633f
000000f0: 8055 becd 6174 d43f 3663 115f f76e dc3f
00000100: ad1d fcd8 6990 abbf f815 6694 8b32 d63f
00000110: f216 dfd3 beb3 f3bf 14e4 54e7 67e5 cdbf
00000120: f2c6 f5f9 3677 d6bf 5901 5c0b 0416 f1bf
00000130: dbbf 24b8 f363 c13f 1ad7 7656 5c4f 963f
00000140: c349 d631 2e7e d1bf c9da 3f99 3000 e6bf
00000150: 262f 1541 0109 ef3f 0830 75ec 8c83 e03f
00000160: 3cd8 ecb4 5ed2 babf b7c3 095c 6d42 6b3f
00000170: cce1 2f67 2e54 e93f a350 b168 c079 ee3f
00000180: a985 4dcb df77 c03f 9d79 875f 2652 b63f
00000190: 8048 5a8c 4e7a aebf 9e18 ec3e 9a6d dfbf
000001a0: f630 84b0 f79d 54bf f9a9 0032 54e1 f23f
000001b0: 9834 2aa5 4865 f4bf fe31 f9e2 2734 d73f
000001c0: 01af e817 6e27 b7bf 926a 9ad5 06e3 be3f
000001d0: a472 d007 8ee0 d6bf 2f82 2821 7e4f e3bf
000001e0: 0754 ceb9 b951 b9bf f284 9444 ab05 b93f
000001f0: 0382 5721 fa98 cabf 5cf4 b209 594b c1bf
00000200: 02b2 fac8 3062 943f 8878 98f7 cf3c eabf
00000210: 6772 308f 9c2a e9bf 5484 bf76 313d cb3f
00000220: a33c 2ab3 3b40 bc3f a6a3 b69f 2a7d cfbf
00000230: 2a6d 8be0 c8e5 c23f b9ad d80a dd97 d13f
00000240: f8b7 d874 9f10 8c3f 5ca8 1233 08bf 83bf
00000250: 0362 5912 b0c9 873f e58c b082 2216 99bf
00000260: 575b aa9e 39c9 c6bf fbbf 6dfb 5fda d8bf
00000270: 2419 e997 a377 ea3f 6465 30b8 75a6 f5bf
00000280: 72a8 806b 96df e63f cd8f 270c fe6a c03f
00000290: b937 38d5 739d a03f 460e 6210 49dc 9dbf
000002a0: 34d5 4af4 28c6 93bf 21e8 4710 8682 ebbf
000002b0: 2653 5c92 754a be3f e789 6607 520f 853f
000002c0: 9639 6469 7683 ebbf b07a d472 9733 cbbf
000002d0: ad99 89ee c042 e13f a006 0f6a f495 e2bf
000002e0: cefa 7027 966f cbbf 7fe9 fad7 859f 8fbf
000002f0: c5c5 6f47 635f c1bf 47b6 8342 c6b4 b93f
00000300: 229d 09db ce11 d5bf 981a c944 742d c2bf
00000310: 6dab 143a a410 e9bf c59a f999 247d cfbf
00000320: 9f21 b884 b641 c13f 33b8 ac4b c4fa c1bf
00000330: b157 a6ee d1a8 b5bf e3c5 e171 4b4a cfbf
00000340: e50b cce6 7ca0 b0bf 6c62 11d6 8bb3 c0bf
00000350: 8fd5 845a 6a7e a3bf 13f2 1d4a 061c c1bf
00000360: 0c0c e04f c399 9b3f 0f87 7cb4 369c a43f
00000370: 2ff7 e1cb 0625 d03f fd47 0575 5350 b33f
00000380: 8f97 c478 2949 a9bf e05a 988f 3c30 e0bf
00000390: aaa9 c183 657e d83f 378f 7050 8143 b23f
000003a0: fd16 b1a3 2ca1 95bf cbe4 ac29 9f1f c73f
000003b0: 7a37 81e4 1440 9dbf 02d5 45c1 79da d03f
000003c0: 36e7 e6c9 0094 9f3f 83f5 a243 e5b2 9c3f
000003d0: 61a3 c850 459f 84bf 9edf dfbc 7fd7 c2bf
000003e0: f2fb b0c6 9f4e a0bf 7686 7c79 2e63 92bf
000003f0: 8c02 60a5 0cc6 b3bf 3cf8 308b 3eab b8bf
00000400: d758 a837 6556 d13f f91c 5d7f 7dac 8ebf
00000410: ce09 e2cb 4ed3 a6bf 4af0 6d5e 4272 a3bf
00000420: 1b2c 67c7 8ee4 b9bf 3622 6fb6 1b92 c23f
00000430: 6af5 f270 b719 b2bf 360f 17b9 a919 dd3f
00000440: 1181 cf49 77d0 883f 7dfa 6f42 f6b4 95bf
00000450: bd28 f547 9be7 d23f 4866 f221 4389 9d3f
00000460: 0d61 cd07 831b cd3f 5c9a 1f5f b19b 913f
00000470: 3009 852d e2cf a13f c953 503e cff4 c13f
00000480: 1a5e 97ef a7a3 a03f 7b7a 0e4a afbb c7bf
00000490: 302e 1835 623f a83f dcc5 8d9a 08a9 9dbf
000004a0: 7ffc a0e7 7d2f a33f ff4f a3a3 604b b73f
000004b0: e191 e3c2 4636 993f c67e a427 33ce 82bf
000004c0: 0cb6 59ea 3993 a8bf 558d 140b 5bd8 cbbf
000004d0: 0003 0f52 155a 933f 528b 4daf f780 c23f
000004e0: cbab 5712 1691 74bf ddd7 7548 62fc c53f
000004f0: 0129 18cd 1c7c 9dbf 3869 3e59 3d10 9a3f
00000500: 5299 cc22 8be5 dbbf f15d e4ea bd2f 96bf
00000510: 66fc 2406 8000 99bf ec6f 8756 6f2d cdbf
00000520: b366 fe37 3def d5bf aa69 4040 3a3d aebf
00000530: 6a96 e959 c324 c13f 6fcb fd72 075c c8bf
00000540: bd3a 5959 4a22 ba3f dbcf c7a4 3261 d7bf
00000550: ff68 f526 03a2 cf3f 76dc e9da fe43 b2bf
00000560: 5bec 6032 d6e1 a73f 1818 6f78 226d ac3f
00000570: 25ef f476 074d b3bf 4f28 b0cd c028 b43f
00000580: a494 34fd 5bdc 783f d6f0 36c7 ad54 873f
00000590: 1676 fd25 2fa9 b0bf 236f f6c6 1491 b73f
000005a0: 4c59 b923 c562 b1bf ef22 779f ec72 9f3f
000005b0: 16f4 5be7 41bf c33f 096e ce52 7ed8 a4bf
000005c0: 5e5d 1cf4 065a c0bf 3f64 f523 19a5 b33f
000005d0: 0dd9 2176 639d c13f a2d6 7b70 ef18 b93f
000005e0: e963 b402 e26a 99bf 680c 29ac 9bc8 b4bf
000005f0: fba8 eb6d 2ced c1bf 8165 0085 7432 c6bf
00000600: f4c0 900d f241 b7bf e744 ac7b d48a d23f
00000610: 3b54 bc20 71f3 ae3f c055 4dda 132e a73f
00000620: 710d 29cb 5d21 a7bf 0db3 fc79 b3bc b0bf
00000630: 8935 cedd a9e6 99bf 1690 8b66 0116 93bf
00000640: 2336 9fb1 c119 ec3f 1ccb 7e50 97c2 d8bf
00000650: ebcc f09c ab45 b23f 8fb3 232e 2343 c13f
00000660: c2b3 e233 5712 debf de6f f22a 3a33 efbf
00000670: 6543 664f 48b8 d53f 8d37 62a8 9f18 dfbf
00000680: 872f 8554 dc13 b93f f798 a814 6524 e43f
00000690: 54ec 775b d620 f93f 4e40 0dde be2a cabf
000006a0: ef5d 6afe e413 e1bf bb65 b7b2 ea3b 02c0
000006b0: 6a5e 4752 a566 fb3f 446d 9db7 dfd4 ec3f
000006c0: f5c2 b0f6 83b6 f43f df8d 6196 7a06 e43f
000006d0: 8f0e 042e ffff d53f d9f3 651e b185 f43f
000006e0: ba9c 4c98 b76e d63f d70a b22a cca5 bcbf
000006f0: ec17 b521 6d17 e1bf 57a7 db72 2d80 e9bf
00000700: b061 03aa f241 e13f d72a c43b 5ffa aebf
00000710: 5b17 c6d4 f902 fdbf 375d d292 e6b1 b1bf
00000720: 1fc9 7c53 de44 f33f 4622 e603 8b1a e13f
00000730: b03f 324d 05ab d33f 5bd8 ec75 cd37 e5bf
00000740: 4bb6 a308 1b66 e2bf d976 70b7 4788 c33f
00000750: 26fb 554d 9002 c2bf 73aa 8430 d1b1 f83f
00000760: 91e9 4404 6bc6 dcbf 9f87 1ea4 6f94 d6bf
00000770: f02f 0ca0 0c0e fa3f 532d 11bf d0a7 d03f
00000780: fac2 ff6c b880 f23f 2d38 b00f 1cab bd3f
00000790: a391 d7d5 9187 c83f 4453 7bf7 5d0c f03f
000007a0: 79ea 5f7d 4c08 b2bf 26d6 16df 32a5 ecbf
000007b0: 47a7 274c 6cda aebf fd4a c280 9479 debf
000007c0: 262c c7b7 3dbb e43f 03b1 3a03 236e c7bf
000007d0: 5a82 0068 c4fb d93f cc94 bea5 3f6a e53f
000007e0: 9072 aeae ae4d e1bf ff5d e6f7 b22b d4bf
000007f0: 60b3 2531 49e4 e6bf f62c a811 9804 e33f

fc.4.bias f8 [3]
-0.06575222847580676 0.09389748545218281 0.20642600865079136
00000000: 7155 f156 23d5 b0bf 519a 3165 aa09 b83f
00000010: 9677 19de 2a6c ca3f
