car_ros2/car_ros2/losses/exp3.pth (torch, 123583 bytes, 6 tensors)

fc.0.weight f8 [100, 47]
0	0xbfabab31028f796b	-0.054040462076715944
1	0xbfa04f049060f555	-0.03185285818515619
2	0x3f6bf3e81d627ceb	0.003412202214419948
3	0x3f95f37aa2059d40	0.021436611308130127
4	0x3fa126439f0b3fa9	0.03349505726293895
5	0x3fa79c2dc8958f2b	0.046113425002458484
6	0xbfa886823e9d1b9c	-0.04790122045829223
7	0x3fa585911347087c	0.042034658053595714
8	0x3fabbdc0bc0cd0af	0.054182074504212856
9	0x3fb89dbea91b3009	0.09615699413842561
10	0xbfa819056e45971d	-0.04706589671222459
11	0xbfb9676d29a9d0ed	-0.09923441188022127
12	0xbf9ec5157ab2d82b	-0.030048690427712337
13	0x3fab97f7ed582f19	0.05389380237838121
14	0x3f939e84ac7b73fa	0.019159386661033985
15	0x3fb2e8bf3fc3d7fc	0.07386393839610145
16	0x3fc2628ec9b029c8	0.14363274429372397
17	0xbf91dcae8d8dca8b	-0.017443396940005
18	0xbfb2858ca8a08a40	-0.0723503028571395
19	0xbfd149b29177f419	-0.2701231403914917
20	0x3fb7bba2b9fbbe51	0.0927068428097695
21	0xbfaad075eb1347ba	-0.0523716783005876
22	0x3fb470282a24c53b	0.07983637837312056
23	0xbfa366d1e5b638dc	-0.03789382866954025
24	0xbfb619b1ab21cdba	-0.08632955959347202
25	0x3f90046795646ca2	0.015641802304440795
26	0x3fa7c866b47f175a	0.04645081475568587
27	0x3fb1ba19ec9feccb	0.0692459299752272
28	0x3fb426dbb1965d36	0.0787179287493601
29	0x3f9f2bffd0222778	0.030441281393485536
30	0xbf81c35f1d0cc588	-0.008673422884018192
31	0x3fb4d57214256e88	0.08138192169047376
32	0x3fc3d0c6428f99da	0.15480879068418468
33	0x3fbdd9e2573c35ba	0.1166058981873083
34	0x3fc3be7c90eb3c1b	0.15425068927876925
35	0xbfc07978c9030c6c	-0.12870702567133507
36	0x3fa92896f20fafdc	0.049137799309249636
37	0xbfb9de1cd12c690e	-0.10104541880392423
38	0xbfc8816236dc75ff	-0.19144847563522657
39	0xbfb2e40d753272ac	-0.07379230605369952
40	0x3fc3b4e1cf3e7b87	0.15395758265819046
41	0xbfd0ff95d1bc92ca	-0.26559968454448024
42	0xbfb498b90f456e46	-0.08045536635239
43	0x3fc9b86202f3e24a	0.20093941826032086
44	0x3fd1b4d0783f1645	0.2766610311776712
45	0xbfbef6b720000000	-0.1209520772099495
46	0x3fbc0803e0000000	0.1094973012804985
47	0xbfaf70e12550d53d	-0.061408077054162714
48	0xbf9d22697e364a25	-0.02845158417546591
49	0x3f82233b9f8e65d5	0.008856263930101452
50	0xbf4a7ceea9fb8410	-0.000808350119737013
51	0x3fa676d3d2613096	0.043875331336125686
52	0x3fadb757f6fcd95c	0.05803942575441809
53	0x3fb01154731c1d72	0.06276443300531812
54	0xbfb00e216b36a531	-0.06271561496273105
55	0x3f7af40f1d08371e	0.006580409085030129
56	0x3fa92ceabffe2ec3	0.04917081445372908
57	0xbfb67756c1528bee	-0.0877584669092781
58	0x3fbb63f01ec4d6a7	0.10699368239587646
59	0x3fa02453bb9e376c	0.03152715363749689
60	0xbfa8e2a2c13c7298	-0.04860409363593482
61	0x3fa8f12f590c4516	0.048715095157726804
62	0x3f74b6393d34f5e8	0.005056594457810239
63	0xbf8751c624c8212c	-0.011386440274705999
64	0x3fb034bc23acc3db	0.06330467101066921
65	0xbfc8870bbac6e092	-0.19162127132381507
66	0x3f65a954e6b284f6	0.0026442201829729407
67	0x3fab8998172aa228	0.05378413470072402
68	0x3fa75e81230f720d	0.04564288666708558
69	0x3f93863b910fcedc	0.019066744545809353
70	0xbfbbfaff9b22d605	-0.10929868257047566
71	0xbfc65487ba3873a1	-0.1744546565322738
72	0xbfad6f22ba1ae1ab	-0.05748852273740409
73	0xbfba2ed1bbe2a4a8	-0.1022769054130942
74	0xbface800432f0d78	-0.05645752735247361
75	0xbfc9fc2f681526dd	-0.20300858099135768
76	0xbfc17ef3cc4b37fa	-0.1366867778328354
77	0x3f993b21bfaaf78c	0.024639632533527897
78	0xbfa212fc63b804a4	-0.035301100895602816
79	0x3fab2a5afceffe35	0.05305752122512467
80	0x3fb307fc61632114	0.07434060456865083
81	0xbf85a7efb3afcbf8	-0.010574219390013781
82	0x3faabcc9dd9ef77a	0.05222159223875074
83	0x3fba9c87a7f4d8e2	0.1039509568261994
84	0xbfc770a39171eadc	-0.18312496759229802
85	0x3fc4333c6df8ed26	0.15781360025162278
86	0xbf656868f9f30dc9	-0.002613263160670097
87	0x3fe939f594ddaf16	0.7883251102007047
88	0x3fe24a3f5065f790	0.5715633936194866
89	0xbfd2e1e39027d973	-0.2950371654291281
90	0xbfde5abe76b4cd86	-0.47428857414634995
91	0xbfdfd1cfca12bbe2	-0.4971808884974377
92	0x3fb69502a0000000	0.08821121603250504
93	0xbfc06e6e00000000	-0.12837004661560059
94	0xbfb6e98662b89fe5	-0.08950080785928057
95	0xbfab1b781e400443	-0.05294394845260133
96	0x3fb22899bec57c23	0.07093201549058441
97	0xbfa718f537f9992b	-0.04511228855408186
98	0xbfae9d15b8d360c8	-0.05979221230671922
99	0x3f93f2333f600789	0.01947860788641934
100	0x3fb75140f2cf07bc	0.09108358314463677
101	0xbf962508fe4b4b1a	-0.021625652809983277
102	0x3fc05f7278b7d9fe	0.12791281599466225
103	0xbf9074634ed73418	-0.01606898468689985
104	0x3fa2656d7c808a39	0.03593008179474961
105	0x3f6e347d5f935ace	0.0036871384332742623
106	0xbf952d36508e8bf5	-0.020680283228681835
107	0x3fb5c1ad9c4163fd	0.08498654427366144
108	0xbfb610c9916e7fb0	-0.08619365501954124
109	0x3fc0db2b639c4a4e	0.13168852199358344
110	0xbfb95222cdfdd29e	-0.09890954522217973
111	0x3fa5a68a237497de	0.04228622134023373
112	0xbf95f5fbcc935183	-0.021446165429396934
113	0x3fc0e2d9e0db23f8	0.13192294577882513
114	0xbfae374e3bb365ef	-0.059015698230449824
115	0xbfafd45b8577e38a	-0.06216703418971921
116	0xbfa1e5fb0cf75a69	-0.03495773824004262
117	0xbfc0efe06abf5498	-0.13232045376085888
118	0x3fa8f2fd3437aa6f	0.04872885954303718
119	0xbfb35383ef517225	-0.0754930934212515
120	0xbfaabb438ad5c5a3	-0.0522099596954704
121	0x3fbdb7fcc3815755	0.1160886742885315
122	0x3fc04b3f6a41987c	0.12729637802403093
123	0xbfb6dee1877a08b6	-0.08933839376007566
124	0xbf9abb713e35496f	-0.026105660840877783
125	0x3fc303800ad25c2b	0.14854431656269304
126	0xbfbd4f0a09b78cac	-0.11448729264479834
127	0xbfb1bdb45c9134a5	-0.06930091152135505
128	0xbf9681d96a75dcbd	-0.021979710696055522
129	0xbfa9da4cc73e69a8	-0.05049362117934503
130	0x3f9e88c9189455f1	0.02981867039223646
131	0xbfc4397cff7846a8	-0.15800440286743833
132	0xbfb715f16bc45af8	-0.09017857438116639
133	0x3fb41fbe2b53c3af	0.07860935743134577
134	0xbf7ff4255f460b4f	-0.007801195130357665
135	0x3f623db1b880d3cd	0.002226683722279499
136	0x3fd0a650f22fa1d6	0.260151134977176
137	0xbfbfd6100d0897f3	-0.12436008756830556
138	0xbfc1762be298bd5b	-0.13641880573548346
139	0xbfbc89a3a0000000	-0.11147520691156387
140	0x3fb491ce60000000	0.08034982532262802
141	0xbfa5e1b78ac4ad1f	-0.042737708749280616
142	0x3fb7f5682ec007b7	0.09358836308822914
143	0xbfb49d7dcc214b7b	-0.08052812799114221
144	0xbfa68d282489de6d	-0.04404569097544884
145	0x3fbd3299be9248c8	0.11405335333464273
146	0x3f8f4883a1513752	0.015275028572570602
147	0xbfb9ecadda6ccd56	-0.10126768667833139
148	0x3fb51d4e1fd988fa	0.08247841146070192
149	0xbf754c6366ced11b	-0.005199802672837951
150	0xbf9551023298dbe5	-0.020816835725977163
151	0x3fc09534fb5a81c5	0.12955343506929587
152	0xbfb78b0cd37ea6c9	-0.09196548617787949
153	0xbf971aa773a867a1	-0.022562614854997446
154	0xbfc24800ce77a5db	-0.1428223617688634
155	0xbfafa84844363f77	-0.06183076698937289
156	0x3fc475879426e63c	0.1598367188833424
157	0x3fb41fa15eb07ff8	0.07860764085535255
158	0x3f87229940fa710c	0.011296460433464016
159	0xbfb8840dc4559058	-0.0957649807292581
160	0xbf6da606143b3e7b	-0.003619205353835584
161	0xbfbda04ddc39cbc8	-0.11572729708295448
162	0x3fc27ff64c8283ed	0.14453009353476834
163	0xbfb469d4fe7f4514	-0.07973986829098961
164	0x3fc3b4f48dbdd0d4	0.1539598171326647
165	0xbfaa7c2549ef8b06	-0.05172840621505341
166	0xbfa4de54b3f9336b	-0.0407587499326841
167	0x3fb20978e12ebf87	0.07045703408834757
168	0xbfb65ec09877101b	-0.0873833057622168
169	0xbfb73f5c560a0caa	-0.09081055737083213
170	0x3fb2d484ade88b63	0.07355527158555968
171	0xbfc37679f8c570a9	-0.1520531143859263
172	0xbfb2bb86ac2e0e5e	-0.07317392066584591
173	0x3fafec746ecce952	0.06235088207764029
174	0x3f61a00d5f3a6e10	0.002151514165076092
175	0xbfbe02a55ba86d17	-0.11722787368528419
176	0xbfc92b2fe7c237b2	-0.19663046661702094
177	0x3fc43abdd885eea5	0.15804265091343442
178	0x3f80f5f87f031290	0.008281651855562872
179	0xbfb9e5e4c816019e	-0.10116414914046465
180	0xbfb7a8fb7bfd7bb7	-0.09242221619704948
181	0xbfb33e124c4931a1	-0.0751658855671793
182	0x3fc2416b2bc735c6	0.14262141835790326
183	0xbfb2346e374ad11e	-0.07111252641590624
184	0x3f87915f7840acf5	0.011507745606726941
185	0xbfa959f939a49aab	-0.04951456860208244
186	0xbfb95f5c40000000	-0.09911133348941803
187	0xbfaa486200000000	-0.051333487033843994
188	0xbf97d1b6ec97353e	-0.023260935011241594
189	0xbf9fd7d90b172052	-0.03109683160963101
190	0x3f92f9c4d4a7eb3b	0.018530917624939063
191	0xbfacfe3ff8134ec2	-0.05662727263702784
192	0x3f9e90a6d21c6395	0.02984867722907188
193	0xbfbbad4fdc783b0d	-0.10811328060684051
194	0x3fbc7720cfe10afb	0.11119275164768887
195	0xbfa0e1f61726089b	-0.03297394783568671
196	0xbfb51d0bb9858d78	-0.0824744537290395
197	0x3f929325f453036f	0.018139451062555375
198	0x3f80fdf657b5ced8	0.00829689459963083
199	0x3fb3d3151bac9096	0.07743961263310192
200	0xbf96e17c88741108	-0.02234453757138602
201	0xbfb0214a08d0504e	-0.06300795283488123
202	0x3f4b29ffb701ca2b	0.0008289812667626231
203	0xbf98c205d97ab92c	-0.02417763843430369
204	0xbfb8568e30932693	-0.09507073102863677
205	0x3f97e0b840c55f75	0.023318175271327363
206	0xbfb080a6425bcf4d	-0.0644630348213557
207	0xbf9914ce97cb2090	-0.024493434920061008
208	0x3f935aef6a3936f6	0.01890157781445275
209	0x3fbc5e47f88a6644	0.11081361596952727
210	0xbf9ae230da78fa03	-0.02625347455454553
211	0xbfb8d861e0e33567	-0.09705173244875241
212	0xbfafa13868e1638e	-0.06177688865927343
213	0x3fab657524d95106	0.0535084350091513
214	0xbfbd603c5a301477	-0.1147496910271729
215	0xbf971b2047a52ac9	-0.02256441533362866
216	0x3fc0d09684fc8ed0	0.13136559957012262
217	0xbf82c4af19fca1a9	-0.009164207439952348
218	0x3f90313388b8a3c8	0.01581268808346062
219	0xbf79ad1e74b25c8c	-0.00626861473860808
220	0x3fa842b3868c6772	0.04738389031827141
221	0xbfdd8fecfa3298d8	-0.4619095271431326
222	0xbf9ba1a86015fd9f	-0.026983862747781747
223	0x3fa71b5e6cfb4ae2	0.045130682757777554
224	0x3fa4670991b3b4da	0.03984861281956294
225	0x3f908d59037c836a	0.016164198720733415
226	0x3fc607c7ccd020cd	0.17211244106898108
227	0x3f932325cb58dfb7	0.018688765083623795
228	0xbfde8754c8ec2c69	-0.47700996037810356
229	0x3febed54103ec9e4	0.8727207486429589
230	0xbfdc897b84133076	-0.4458912648958696
231	0x3fa21ab031fe5e0b	0.035359865286576385
232	0xbfc6a465008549d1	-0.17689192319319472
233	0x3fbff9ee00000000	0.12490737438201904
234	0xbfb411ce60000000	-0.07839670032262802
235	0xbf56d5985c4639db	-0.001393698491571996
236	0xbfc08486daa7904d	-0.129044396176257
237	0x3fa1f00a5e72552f	0.03503448870575664
238	0xbf4f15afbe406518	-0.0009486301537463852
239	0xbfc0bb3778e24f6d	-0.13071339991131073
240	0xbfbec5c8dfa69d21	-0.12020545444703547
241	0xbfacba52bb9d860e	-0.056109033014546936
242	0x3faf6e3312c6d7c9	0.06138763050277835
243	0x3f0a90a9302aa88b	5.066887208234155e-05
244	0xbfc0349c77b8d2d8	-0.1266055664615553
245	0x3f80124768ce03b7	0.007847364316832512
246	0x3fb0fe9471acf661	0.0663845803764729
247	0xbf83cb88fc7abcb5	-0.009665556149540991
248	0xbfa48cdc5da9d606	-0.04013718264915771
249	0xbfc4d7f80b93b228	-0.16284084859161507
250	0x3f8fb3c80d62e7b6	0.015479624660986829
251	0x3f9951afe1c9302b	0.024725673824193144
252	0x3fa7f459ed4dffbf	0.04678612729821862
253	0x3fa058cb5807038a	0.03192744683793254
254	0x3fef34efd6843097	0.9752120198986799
255	0xbfaa4b16ce2347cf	-0.05135413423853629

fc.0.bias f8 [100]
0	0xbfbc05d190d6a4f1	-0.1094637850389011
1	0xbfbd9c19b9a05626	-0.11566315442936367
2	0x3fa75bf07ea8353b	0.04562331720453946
3	0x3f8101bc11818917	0.008304089817276634
4	0xbfca87d0ad094469	-0.20726974915536125
5	0xbfd87869ee8d8aba	-0.38234947487050486
6	0xbf9139b9a7f04f3e	-0.016821766734280923
7	0xbfdbf154f29c6e37	-0.43660472576604853
8	0xbfa9ef6ab1517386	-0.050654729981693555
9	0xbfa9f45704175ba0	-0.050692290543955965
10	0xbfcbbc0be4506844	-0.21667622230671857
11	0x3fd1720b2d2d4cc9	0.2725856724911862
12	0x3fa176f0d3628ee2	0.034110570720512504
13	0x3fc18200b5416cb6	0.13677986955994975
14	0xbfd215d23414bc17	-0.2825818546870677
15	0x3fce87a3bad3b4cb	0.2385143911591626
16	0xbfd09b6c16bb3793	-0.2594862195954814
17	0x3fba6993ec518579	0.10317348975651965
18	0x3faf95d5ffa0171e	0.061690032438532535
19	0x3fb1282844a19c77	0.0670190017277593
20	0xbfe2eb0e34e3cf39	-0.5911932976727946
21	0x3fe73c05d3c6c7f7	0.7260769974002405
22	0xbfe289c198e448ae	-0.5793159471670799
23	0x3fc1a99707040913	0.1379879745728166
24	0x3fb2e094b24793eb	0.07373933174638096
25	0xbfae9fbe54716022	-0.05981249600216666
26	0xbfc532caa72c2898	-0.1656125370284982
27	0x3fa58efe58c6633b	0.04210657914808854
28	0xbf95ee806ac382bb	-0.021417624012317598
29	0xbfda98abf9582165	-0.41556834554696415
30	0x3fc0dc74a6e351c2	0.1317277731783531
31	0xbfe3ca67cb39f6aa	-0.6184576958910004
32	0xbfe322b4226cc95b	-0.5979862854349379
33	0x3fbfd84dac24995a	0.12439427807530504
34	0xbfc88dc8d3099e0a	-0.19182691864556062
35	0x3fbef5922c5b2555	0.12093461592589468
36	0xbfebbfe90dafbdd9	-0.8671765582384366
37	0xbfa78e93a2204e65	-0.0460096488388018
38	0xbfcd937b5d3faa88	-0.2310632901492975
39	0xbfc014cf381e4407	-0.12563505401752215
40	0xbfcdc675ffbd7240	-0.2326190470438565
41	0x3fb00f92cdc5780c	0.0627376320239536
42	0x3f5191eec0554fea	0.0010723907046967748
43	0xbfaa7319977647d1	-0.0516593930616548
44	0xbfe03e9c64a09fec	-0.5076429334048931
45	0xbfc0f6f08d46a223	-0.132536000234965
46	0xbfe7c394480c18f5	-0.7426244170353856
47	0xbfe12359925d988d	-0.5355651720717717
48	0xbfc3a5ecda2dac8b	-0.15350113538020013
49	0xbfd6ae72107e7935	-0.35439731226678656
50	0xbfc822c9b83729f6	-0.18856164450546914
51	0xbfd55c137cb7a2eb	-0.3337448804800675
52	0xbf90753c2bb5c18d	-0.016072216194005718
53	0x3f861a46c24f8067	0.0107923057602763
54	0xbfa79de8750d6393	-0.046126617706881444
55	0xbfc105dd50419ff1	-0.13299147051588947
56	0x3fe9053ff1c6defe	0.7818908426479252
57	0x3fde4a6a1c0cc1a0	0.4732919000553242
58	0x3fc72f2c351e6c62	0.18112709611600325
59	0x3f72b363e7e16e23	0.004565611130682909
60	0x3f9e17b503278318	0.029387310330892452
61	0xbfacb4c0ecf7bdbd	-0.05606654064819903
62	0xbfd692851c3d4895	-0.35269286878350076
63	0xbf9bd4871bb825f7	-0.02717791659055099
64	0x3fb7c24804a15d50	0.09280824769063156
65	0xbfd276bfab1c304f	-0.28849784574481857
66	0xbfc4faf5a66aedbe	-0.16390867830146577
67	0xbfabe806fe205230	-0.05450460292937398
68	0x3fcab997f089f844	0.2087888645655217
69	0xbfc2ad2dfb47fdb5	-0.14591002244558884
70	0xbfca37ba809aa83e	-0.20482569961069602
71	0x3f7bf29ba735e6fb	0.006823165912800406
72	0xbfbb3dcc6a026cc0	-0.10641172016260025
73	0xbfd45672385a8d61	-0.31777625563900896
74	0xbfe26fe478fafd6b	-0.5761587489031802
75	0xbf9af108ad9f90fd	-0.026310096356511704
76	0xbfc62e502f3cfb20	-0.17328836733391828
77	0x3fbac8e275cf8365	0.10462775589213676
78	0xbfe4939361e347a8	-0.6430146133300143
79	0xbfa1c6d4a82cd167	-0.034720082787688615
80	0x3f8fb27aafba20c7	0.015477140891804088
81	0xbfbb514dba6b04e1	-0.10670934487554319
82	0x3fa353e0934bc0ba	0.037749307613809305
83	0x3fa6224df4be6d7a	0.043230472684821344
84	0x3fb02ef96fedc5b9	0.06321677191387821
85	0xbf8d9956106d4577	-0.01445262181883565
86	0x3fc4b33749b486aa	0.1617192373169492
87	0xbfa1fc2c8461519a	-0.035127059135137986
88	0xbfbb3344ceb4f677	-0.10625104948572948
89	0x3fad93fc43d1a52a	0.0577696640764976
90	0xbfe88bc1c2a72f43	-0.7670601655786203
91	0xbfd1b3cc78f3a673	-0.2765990430039899
92	0x3fcc56a1e8b993dd	0.22139381278535
93	0xbfe84056ffb968aa	-0.7578539843191454
94	0xbfbbb827b23afe52	-0.10827873326615503
95	0xbfdc78018242014e	-0.44482457848063894
96	0x3f99fe4bdb21e390	0.025384125947741476
97	0xbfeef3bfd05920c2	-0.9672545499133991
98	0x3fa67d7855fb31be	0.043926010604625074
99	0xbfd69822fda6ca75	-0.3530356862130824

fc.2.weight f8 [100, 100]
0	0xbfbd2835c6dfc2b9	-0.11389480691264965
1	0x3fbbaac023882f64	0.10807419650535405
2	0xbfa334d14b616269	-0.03751234097643847
3	0xbfb5257c4aa33a33	-0.08260323354918668
4	0xbfc144b8adcd7987	-0.13490971075493638
5	0x3fb6dee3423f0ba1	0.08933849685040098
6	0x3fc3429a6b87024d	0.15047006845817848
7	0xbfc09f6b27ae3ea3	-0.12986506879359636
8	0xbf83ed0b73c199b6	-0.009729470701313452
9	0xbfc25a1ad1b89752	-0.1433747791317566
10	0x3fa2db830819dcfa	0.03683099244966033
11	0x3fc27b0a36b57750	0.14437987967806487
12	0x3fa8978ea3ad039b	0.04803128955837296
13	0xbf8a5df2a20d92d3	-0.012874503679719684
14	0x3fa904f9c0d71218	0.04886608580594415
15	0xbfc0cb6ec6db4e6c	-0.13120827398107637
16	0x3fae21dfe82f53c6	0.05885219296730031
17	0xbfb1792cdcdfbcca	-0.06825523750716225
18	0x3fbc1af837d45bee	0.10978652346635417
19	0x3fc01438770a5265	0.12561708271518338
20	0xbfc47cd5d675e375	-0.16005967113212774
21	0xbfbdc83f90ecc356	-0.11633679664806826
22	0xbfc9a6fdcc77ac69	-0.20040867313159375
23	0x3fb1ec6d5e3cb644	0.07001384306632824
24	0x3fc154e12e5a99f7	0.13540282023787117
25	0x3f94723a46efd278	0.019966993884696
26	0x3fbeee7447723958	0.12082602257053077
27	0xbf96d85d2a15df36	-0.022309737867060885
28	0xbfbdb945fae9f1e5	-0.11610829711748456
29	0x3fc2d5a2fcddf5be	0.1471446737959194
30	0xbfb4d0d5c9da9dd9	-0.08131157091212717
31	0xbfd16904e0f3c783	-0.2720348545836872
32	0x3fb5d5d0fa8df322	0.08529382817318923
33	0x3faddcdfe35d2b61	0.05832576418341407
34	0xbfc0263dccd63992	-0.126167035119988
35	0xbf8efd8464fe79c9	-0.015131983120053942
36	0x3f41805cb430af25	0.0005341007857899467
37	0x3f92264744868edc	0.017724145467254412
38	0xbfad930eb3a3e41c	-0.05776258414147881
39	0xbf95fa6e2889d106	-0.021463128303779853
40	0x3fba05ed5a8d4738	0.10165294132937397
41	0x3fbcb4f54a3ad4f2	0.11213620245219483
42	0x3f95e714b5e937fb	0.021389316180197664
43	0xbfa47f409ed1f2b9	-0.04003335894319577
44	0x3fb0227dd6c12d33	0.06302629941017272
45	0xbfb865dfff61af27	-0.0953044889917548
46	0x3fc4d77dcf4b62ce	0.16282627698708158
47	0x3fbd2a46af274c0b	0.11392633224686237
48	0x3fb44489b4f1a10f	0.0791708056218605
49	0x3fa406a77789e2ae	0.039113267271152594
50	0x3f75b09c084138f3	0.005295381070096849
51	0x3fbdc0bb0ee03f7a	0.11622208703215434
52	0x3fa41a284207d207	0.03926206403767556
53	0x3f71b5fcca1099dc	0.004323947389855278
54	0xbf8c6b565341e8ca	-0.013876604476753224
55	0x3f9fc6db0bbf036a	0.031032011596610877
56	0x3fc02ba398e840ec	0.1263317581765543
57	0x3fa2a7f8bbca1f7b	0.036437771724250965
58	0xbfaf261281e2edbe	-0.06083734355476221
59	0x3f8bc0f3c4b9819e	0.013551620904025449
60	0x3f9c34231df3ac3c	0.02754263754188123
61	0x3fad4a409a1aa86f	0.0572071254840275
62	0xbfce7022451ac4b4	-0.23779705404516494
63	0xbfac9742c45a78e6	-0.055841528386041436
64	0xbfad9bcda7d44153	-0.05782931016631445
65	0xbf9f1ddf5cdb1ce8	-0.030387392084574666
66	0xbf80f4fef2c9a3eb	-0.008279792579928688
67	0xbfa4fde7097ccbeb	-0.04099962225736661
68	0xbfa8b38f3ad29478	-0.048244930201044534
69	0x3f9d6dca553e6b84	0.02873912949835812
70	0xbf8e5bb9daca7634	-0.014823390950648642
71	0xbf81d3ca613571ac	-0.008704739657951453
72	0x3fae6166fb155815	0.05933687033636673
73	0x3fac7c2087379fd0	0.05563451433755484
74	0xbfc70affd166c6b5	-0.18002317166024331
75	0x3fc633f686f57355	0.17346078481468888
76	0xbf89e523027e00bb	-0.012644074929767482
77	0x3fb203d4106f1003	0.07037091637818098
78	0xbfd78b51631d3cf3	-0.36787829093095964
79	0x3fabe1eac42ccbbc	0.05445798535074384
80	0x3fb09e41d8933db0	0.06491481339911931
81	0xbf60d5a6bea6518e	-0.002055001900951043
82	0x3fcc2b3e0817a0e6	0.22006965060359746
83	0x3f9c661b00a74cba	0.027733251490485535
84	0x3fc0441b20c2881e	0.12707842921833018
85	0x3fcab15bebe7b7e6	0.20853756922536987
86	0xbf8f13301fb61e34	-0.015173316924815251
87	0x3f9c916332b4b0b0	0.027898359269941053
88	0x3f850dab76e62a26	0.01027997929192732
89	0xbf9e94bd7dae599e	-0.029864273830378367
90	0x3f910ebee1ba7448	0.01665781262146407
91	0xbfc8c2480b0d2040	-0.19342899837124783
92	0xbf7c3a2dab16ea27	-0.006891420738095045
93	0x3fb83b1480ac6d77	0.09465149060672738
94	0x3fa42b7e76853f5c	0.03939433285506652
95	0x3fc433541028afec	0.15781641758928744
96	0x3f96ff2e2a78f428	0.022457810728372746
97	0xbfa44193f39b5be2	-0.0395628199454945
98	0x3fad31ac908bd7ca	0.05701960815888148
99	0x3fac5734ffab50cb	0.05535283680879529
100	0xbfb400a47e2c87f2	-0.078134804538905
101	0x3fb9a0593831093d	0.10010297414649912
102	0xbfb8989d2d3c92d5	-0.09607870439920004
103	0xbfb4057f78ca24cd	-0.07820889185872489
104	0x3f498b0213bac5e4	0.0007795105115830339
105	0xbfb14182d4e062b0	-0.06740586945705718
106	0x3fa0fc9b328912d1	0.033177232664944996
107	0x3fb19c2b15a27c1e	0.06878918913069795
108	0xbfb4935e024c56a0	-0.08037364536388703
109	0x3fb3a0204714b3a1	0.07666208014843658
110	0xbf8e642a94959d90	-0.014839489612042539
111	0xbfb4254367fe01a5	-0.07869359291908624
112	0x3fbe094e0fe736cf	0.11732948196660263
113	0x3fba58cdfd6aaf16	0.10291755139286027
114	0xbfa69a0f1b955e6f	-0.04414412700378711
115	0x3fa6c5d8b5c5ddcc	0.04447819918544446
116	0x3f749b81476ce81a	0.005031113620868078
117	0x3f41fea968d4ff99	0.0005491568751167963
118	0x3fc03906de761fbb	0.1267403208005343
119	0xbfbd0d5afce41600	-0.11348503755660744
120	0xbfb862264e140ade	-0.09524764448364517
121	0x3fb0811779c0a2b9	0.0644697830436013
122	0xbf90c1d8a59e5fa9	-0.01636446486335755
123	0xbfb5fc35219662af	-0.08587963171010914
124	0xbf6da244ce23e492	-0.0036174148418664587
125	0x3faba9fb7bf215b4	0.05403123748787256
126	0x3fadeeb83e040d12	0.058461911745348996
127	0xbfad1fd82d42f18a	-0.05688357880123636
128	0x3f60f8c1ae56cce8	0.0020717413742318176
129	0xbfa9cb8b8b3ac07e	-0.050381050821102655
130	0x3f30de3c5370ce75	0.0002573869018675853
131	0xbfa74c54a0009bd4	-0.045504231006183865
132	0x3fa9aaee41ed1eb9	0.05013222269786639
133	0x3fb5fe362f3cf5e1	0.08591021207117634
134	0xbfa22fbcbf8cbf59	-0.035520456678908637
135	0x3fb272e473250994	0.07206561862134314
136	0xbfc902765f254293	-0.19538764615801493
137	0x3fa383f4bbb9cb78	0.03811611930441122
138	0xbfa767f8729d793e	-0.04571510695562829
139	0xbf9d74fd73c7d901	-0.028766594115915648
140	0xbf6329e3922659a3	-0.002339310144814992
141	0xbf958f87ddfe272d	-0.021055338787426315
142	0x3fa24fd230fec787	0.03576523635946587
143	0x3fbae725304512d1	0.10508949688398707
144	0xbfb26d9b8ec87ecb	-0.07198497997205348
145	0x3f7a7ed08ef7fd22	0.006468596154717761
146	0xbfb37d121b342322	-0.07612717785026438
147	0xbfc1d105727a8d4c	-0.1391913231828802
148	0xbfb53f0d2e307ac2	-0.08299333932562106
149	0xbf8be043cd879aa8	-0.013611345014351642
150	0xbfbb3d8bdbf9002d	-0.10640787239481204
151	0xbfa5513c0394debd	-0.04163539451331875
152	0xbfba548bbd509d65	-0.10285256740518418
153	0xbfaacbb22eefce25	-0.05233532736738437
154	0x3fb88b4b023e7ef7	0.09587544255054668
155	0xbfa204aa5c74092e	-0.035191844735907515
156	0x3f9d8e943e48df46	0.028864208509019627
157	0xbfb6c378f442177e	-0.08892017329534771
158	0x3fc47f70ccfdfa43	0.16013917931918983
159	0xbf8d89d6628e4c55	-0.014423060305295868
160	0xbfb38c8b050d7261	-0.07636326669075678
161	0x3f90965d0e596e1c	0.016198591233076085
162	0x3fb07b1b74a8367f	0.06437846754143982
163	0x3f98935be427b7cc	0.02399962978409302
164	0x3fa89abd7a4a38ad	0.04805557363316502
165	0x3fa38b0d5b1ea5af	0.03817025887776581
166	0xbfadfc597aeebfd3	-0.058565899139807386
167	0xbf84ed3d169e5a7d	-0.01021812176967995
168	0x3f634af5d0edc8d1	0.002355079755426017
169	0xbfba4361f1534b4e	-0.10259067670567143
170	0x3fbbd5a2a6a63ead	0.10872856682385175
171	0xbfa25976b4d57fee	-0.03583880383916936
172	0xbfb60d86a3a51bac	-0.08614388938177225
173	0xbf99b406bb8705a8	-0.025100808330312724
174	0x3f8f69d2656963e6	0.015338557929839024
175	0x3fa35f15ae2a1a18	0.03783481360465063
176	0xbfa424198b3a9121	-0.03933791946954757
177	0x3f9efdec53776de6	0.030265514940635806
178	0x3f964cfe9d4cef49	0.021778086043226428
179	0x3fb15563463386e8	0.06770916427515383
180	0xbfbd28c547eecf97	-0.1139033604256937
181	0xbf8c28d0b4ee5ae6	-0.013749723931863977
182	0x3fad0a99e6b782ac	0.05672150555961272
183	0x3f7ff64dd7f763f9	0.007803253246913216
184	0x3fb5ac1b56b8e5d7	0.08465739123575787
185	0x3fab749c07c0c1d0	0.053624034830480505
186	0x3fa5880865db1bd5	0.042053472932415716
187	0x3f9fdddf530f3503	0.031119813389342898
188	0xbfa95c4639a0f9de	-0.04953212216831891
189	0xbfa72dd863db4b0a	-0.04527164668038182
190	0xbfb25fab87804206	-0.07177230890398087
191	0xbfab9c98b32663b1	-0.053929111355678024
192	0x3fabe35af08592c9	0.05446895776802802
193	0x3fc28eb757c85ad4	0.14498035227071304
194	0xbf9b22ee9862dfc8	-0.026500442553441222
195	0xbf8164d1de6b0d86	-0.008493079757846866
196	0xbfb126bb41b83f6f	-0.06699724535451222
197	0x3fc4fdc6d024dedd	0.16399464762957097
198	0xbf8e65a106c8de41	-0.014842279452849218
199	0x3fbee92e098e6a28	0.12074554189022335
200	0x3fac03ff073735d4	0.05471798861581659
201	0xbf9e91285bd3246e	-0.029850607494868724
202	0x3f684f32827e5166	0.0029674517172201707
203	0x3f9c8962fa77162d	0.027867838418180014
204	0x3fa78c1a296e0b09	0.045990769917827086
205	0xbfa297ee57ad6195	-0.03631539173392465
206	0xbfa6e8e2984bc136	-0.0447455225856878
207	0xbf9086645aa96b64	-0.01613766482692415
208	0xbfb92dd141ae6314	-0.09835536817116647
209	0x3f892afb43dceb60	0.012289011963380225
210	0xbfb9bc79c457bcf1	-0.10053216022037127
211	0xbf5a2289ce0e49ae	-0.0015951486350088517
212	0xbfa96b44b29f7894	-0.04964651756721242
213	0xbfa597a0dd9247a2	-0.042172457740107264
214	0xbf93cb1e8a65ab37	-0.019329526135531707
215	0xbf8470fac0ccf112	-0.00998111630325885
216	0xbf91020066f5952b	-0.0166091978875517
217	0xbfb540d7a477b49e	-0.08302066579172382
218	0xbfb61f33b567877f	-0.08641360453432688
219	0x3f9308dece198d28	0.018588525132497896
220	0xbfb495f03017b9a4	-0.0804128758825074
221	0xbfaf86e5633fff74	-0.061576050153234
222	0x3fa046de2d04491b	0.0317906789733959
223	0x3fb15344dc767bdb	0.06767683393853423
224	0x3f9168c7d03c67eb	0.017001268467630764
225	0x3fb775bbb2d3681d	0.09164021602501334
226	0x3f8a8f5d4a9a7aff	0.01296875842973355
227	0xbf61b23c33f1cd8e	-0.0021601844633154016
228	0x3fb489130c39c9a3	0.08021658943633851
229	0x3fac63628c59f495	0.05544574702523978
230	0xbfaf79a2c7454013	-0.061474882912648486
231	0xbfb8629f8d08de8f	-0.09525487130383169
232	0x3fabec984c6597e5	0.05453945095614169
233	0x3f999d73be167f7a	0.025014694668811434
234	0x3f84a22bb83e04a8	0.010074941215636748
235	0xbfb15abbd184aefb	-0.06779073586647748
236	0xbfb923a5ef7c1a81	-0.09820019814297078
237	0xbf95b3aa99493905	-0.02119318543037087
238	0xbfa7fc412611ef76	-0.0468464240047685
239	0x3fa46fc5c134dff8	0.03991525634268095
240	0x3faa9a74f0d2cd54	0.05195966186274839
241	0xbf750056c22555a4	-0.0051272763251594446
242	0xbf956a580079545c	-0.02091348173992845
243	0xbfb40e762ff15e48	-0.07834566755752193
244	0x3fb03ff2e0d4cead	0.06347578038258446
245	0xbf8e7d186f406bd3	-0.01488703813088491
246	0x3fb47a6b519a60e6	0.07999296896230454
247	0xbfad8bae7492b15e	-0.05770631001482472
248	0xbf90e610cdc5d8e8	-0.016502630767228604
249	0xbfb1145fe0313098	-0.06671714042130572
250	0xbfafdf7e0ceed740	-0.06225198657868569
251	0xbfaeeeee39db9a21	-0.06041664558670257
252	0xbfb5900fceb30889	-0.0842294578206141
253	0x3fa9cd43298172f4	0.050394152466401027
254	0x3f84eb8169846533	0.010214816124561743
255	0xbfa64c0269dff3fc	-0.04354865591447063

fc.2.bias f8 [100]
0	0xbfa18f086badc514	-0.03429437937200866
1	0x3fab9781092c84fe	0.053890259141789784
2	0xbfbc8e9dfd06b73d	-0.11155116488836554
3	0x3fc22326f9aef7d2	0.1416977614553035
4	0xbfa3196f3592360c	-0.03730342415756746
5	0x3fc67a8d52631589	0.1756149914055352
6	0xbfcb5a0b7997144a	-0.21368544995326239
7	0x3fa682860be7bbaf	0.04396456618621102
8	0xbfaee9b59275945c	-0.06037681019623939
9	0x3fbacf6cb68343d4	0.10472754913213517
10	0xbfc2c030d5c2e994	-0.14649019658629625
11	0xbfbd4de7fc6a0b40	-0.11447000420052422
12	0xbfb35cf38cd1d840	-0.0756370753095732
13	0xbfb8667685ce899c	-0.0953134609867789
14	0xbfc03aaf5af92e83	-0.1267909235196961
15	0xbfc543ea46c852c7	-0.16613510566880604
16	0xbfa670755f4d5a12	-0.04382674015385048
17	0x3fbf5b22598234a2	0.12248434720295845
18	0x3fb99ad65b67b823	0.10001888019152765
19	0x3f942c480deaef4d	0.01970017037341103
20	0xbfb23bde8e34ecc5	-0.07122603389591393
21	0x3f9ad07f2e10d67c	0.0261859771601025
22	0xbfaa02a3070c75d7	-0.05080136738818524
23	0x3fb588cc7d5adec0	0.08411863384651053
24	0x3fbf307a7d2aabb7	0.12183347278430189
25	0xbfab99facd4bb70c	-0.053909146843450356
26	0xbfa7759be098e207	-0.045819159666681535
27	0xbfaae35d44f0f985	-0.05251590220040029
28	0xbf5b8935f16682f2	-0.0016806628023930373
29	0xbfb19aacbaab918a	-0.06876639897706674
30	0xbf7b3b3534b9382c	-0.006648261867281884
31	0xbf87071d8aaa5965	-0.011244040292962063
32	0xbf8bee07addfe8c5	-0.013637599939091758
33	0x3fc6a53099305bc5	0.17691619377066395
34	0xbfc1ac494dfdef1e	-0.13807026203345968
35	0xbfbc8f7130bef97c	-0.11156375351035835
36	0xbf98c9de49c44d13	-0.024207566501968602
37	0xbfa354f764e50f5b	-0.037757617059951364
38	0x3fd27105f1674e7f	0.2881483895737133
39	0xbfb83a58dbd213e5	-0.09464030615534076
40	0xbf68c20e83013371	-0.003022220938908076
41	0x3faed26b3fb8e000	0.060199119118294675
42	0x3fa38ce298bd7dbe	0.03818424334053415
43	0x3fc013f0d2c37d1f	0.1256085423583295
44	0xbfb19a2896ed0439	-0.06875852284157781
45	0x3fb879e01b090fe5	0.09560967121166149
46	0x3f88a1dd0d8d47de	0.012027480102606288
47	0xbfb837c3886888d1	-0.09460088806420976
48	0xbfa5e9283c177f0a	-0.04279447301428092
49	0x3fa8a4a0c24f33aa	0.04813101169529628
50	0xbfab97c88a3c132e	-0.05389239013132961
51	0x3f86967d523c0a08	0.011029223510836253
52	0x3fb9e67ef4b1e35b	0.10117333864208204
53	0x3fc7761ce8a43f56	0.18329202041104037
54	0xbfa2c6b0745f74a6	-0.036672128873513274
55	0xbfa29c1c29dff8bb	-0.036347274886780544
56	0xbf92f0ad483ff17c	-0.018496234450127144
57	0x3fbeb8242cd92ad9	0.11999727339677281
58	0x3fb1b88efb186605	0.06922238950973998
59	0x3f9465eae4bd7e24	0.019920034609979834
60	0xbfb4936669216a8d	-0.08037414614356404
61	0xbf8b7b5cc3dcf8de	-0.013418888785619417
62	0x3fb989264477cacf	0.09974898501949812
63	0xbfc72a3f9e4f7d4d	-0.18097682218556557
64	0x3fcccceafb7c1060	0.22500359801790903
65	0xbfc1f3af5ace4a0a	-0.14024917539480014
66	0xbfac36b986396ae6	-0.05510501636009284
67	0xbf9b53be40353f98	-0.026686642331071292
68	0xbfa30757f4ba4340	-0.03716540205380747
69	0xbfc1094653016bc2	-0.13309554150586506
70	0x3fc6103e903fd915	0.1723707393973163
71	0xbf6ea445179cfebc	-0.0037404393632697024
72	0x3fb4ea0c21b3bb24	0.08169627974323795
73	0xbfbc9900112537d8	-0.11170959871853314
74	0xbfa4ad6c39372c81	-0.040385610565487624
75	0x3f72801f62137201	0.004516718473692284
76	0x3f3761d7aa04c4ba	0.00035678401220013876
77	0x3f91f03a584b0776	0.017517959250433056
78	0x3fc25e4774fc7491	0.14350217067923102
79	0xbfc15069e583395e	-0.13526653010053286
80	0x3fa4928914acc043	0.04018047692659412
81	0x3fc1613d86cf5c1a	0.13578003962058532
82	0x3f9a142663ecac43	0.025467491005809483
83	0x3fb02de798c1b8ca	0.06320044974720243
84	0x3fbbdae1d34b075d	0.10880862625620354
85	0x3fa0795755075888	0.03217575943897183
86	0xbfc19128e8943209	-0.13724242550269164
87	0x3f8d159cb108d2d7	0.0142013780142433
88	0xbfa1adf61b2498cb	-0.03453034478506963
89	0x3fbe0d3815b94643	0.11738920717586958
90	0xbfb544cd14ab0058	-0.08308107142056664
91	0x3fb7a2be00707f09	0.09232699881294705
92	0xbfa3f48235efb92b	-0.038974827846561
93	0x3f84eaf415c0e85c	0.010213763154855275
94	0x3fafc58f0f940cda	0.062054129268312955
95	0xbf359eecea2458dd	-0.00032990726516980517
96	0xbfbbd97555b1c55f	-0.1087869009222877
97	0xbfb719d98c0d1bf9	-0.09023818654269168
98	0x3fb322b896bc384a	0.0747485511785452
99	0xbfb0bec66e5dea0a	-0.06541099733832581

fc.4.weight f8 [3, 100]
0	0x3fc7365b689f4dae	0.18134634598264426
1	0x3fc26a093bafbf72	0.14386096395855535
2	0x3fa3b83ba3438c44	0.038514960937185566
3	0xbfe0034070c6b1af	-0.5003969385775714
4	0xbfb6fcecaf69cf21	-0.08979682238151244
5	0xbfb83f4119cd14bc	-0.09471518402013407
6	0x3ff7208a51fee230	1.445444412513222
7	0xbfb3847597760bfe	-0.07623991916447889
8	0xbfcd5f90938d078b	-0.22947890476831065
9	0xbfd50a38ac22c176	-0.32874886331685305
10	0x3fb9c2a6205187fd	0.10062635697389051
11	0x3ff6a8e41dd6ccb6	1.4162331739033056
12	0xbfc3dac9fe7bd00f	-0.15511441160163073
13	0xbfcee9e9b34a2aa9	-0.2415134549558691
14	0xbfcbe48e6148a34c	-0.2179124808328886
15	0xbfda0bccf498de43	-0.40697025190772623
16	0x3f399b09cec30bba	0.0003907107300273289
17	0x3fb1c2b70bb75346	0.06937736545598935
18	0xbfe3602e2d0c62a9	-0.6054907684184246
19	0xbf9568e7b6f64f6d	-0.020907993833659533
20	0xbfa0ad66a51dbe39	-0.03257294431284347
21	0xbfa0fa21dd220ac1	-0.03315835785271793
22	0x3fc7fe80df58eafa	0.18745432763702025
23	0xbfce5dfc848141e3	-0.2372432372089995
24	0x3fd70e4ce9fdab76	0.36024782992051685
25	0x3fb125214a064ac6	0.06697280938378034
26	0x3fb2b5ff52a471af	0.07308955924640402
27	0xbfb16ca7c2c8f30c	-0.06806419854633478
28	0xbfe14399707b17f4	-0.5395018765345854
29	0x3f95c1f285c57369	0.021247662939788556
30	0x3fd3bf16721a4902	0.3085380663188887
31	0x3fdd1056023ed131	0.45412206858897536
32	0xbf9d420604a589cc	-0.0285721721969681
33	0x3fd5fd2d5dba474f	0.3435777106579864
34	0xbff01bf4a5204077	-1.006825108550428
35	0xbfd0e8b1f57a0614	-0.26420258495645155
36	0xbfd70fc56f1423d6	-0.3603375992539076
37	0xbfee5b844b85a450	-0.9486714816131414
38	0x3fca9c782c2c449f	0.20790006787186585
39	0x3f9668b900d730be	0.021883860279374494
40	0xbfd30b9ae69cf6bc	-0.2975833179551548
41	0xbfe512d70aeb0ff4	-0.6585498059507686
42	0x3fedb200338c4c05	0.9279786116406973
43	0x3fe174d8c5d88e85	0.5455135215929238
44	0xbfbaafa813a60fbb	-0.104242806241074
45	0x3f8c43387d67e553	0.013800088240702257
46	0x3fe5cfe47ae1a1e9	0.6816275024439707
47	0x3feb0d2222eabf15	0.8453531915638189
48	0x3fc3570f5c3366d8	0.1510943603705559
49	0x3fb486a81892bcd0	0.08017969703608974
50	0xbfb1395cbe03b53e	-0.06728152884507652
51	0xbfdde47a1d12915a	-0.46707012976755424
52	0xbf614e1c7706cca6	-0.002112441630936229
53	0x3ff2b0d9a9f5471e	1.1681763304699824
54	0xbff27cc535e9214a	-1.1554615121732064
55	0x3fd6d1d9bcdd81fb	0.3565582603823995
56	0xbfb714e28f2d9c97	-0.09016242976723486
57	0x3fb8f4f3c5b1dbca	0.09748767448932863
58	0xbfd6507fad0eaf27	-0.3486632528317721
59	0xbfe342d0e016c7b8	-0.6019062401521671
60	0xbfc1786d27fd1fb7	-0.1364876218087809
61	0x3fb716caffa050ee	0.09019154301524043
62	0xbfcb76ef273cc0cb	-0.21456708351025208
63	0xbfc203b653662d22	-0.1407382876608177
64	0xbfa01935074d961f	-0.031442315236557265
65	0xbfe63fad7916eb64	-0.6952731480626935
66	0xbfe8e4e433370f7f	-0.777940845517591
67	0x3fcae1acc09c168b	0.21001204876681742
68	0x3fbc949d6f785db8	0.1116426846641535
69	0xbfcc674b6c60f3f9	-0.22190230171136685
70	0x3fc30b64084a76a2	0.14878511814906853
71	0x3fd0054515760c43	0.2503216466504378
72	0x3f7c10a56da9eb0a	0.006851812557779233
73	0xbf865f31ee01b0ea	-0.010923757625470338
74	0x3f921a7060677ad8	0.017678981670424004
75	0xbf9d99f12213b4ab	-0.02890755434502938
76	0xbfc4201a6e753c36	-0.1572297133775195
77	0xbfd82749a41979ca	-0.37739792847960685
78	0x3fea62995e77b1de	0.8245360226697434
79	0xbff1ddf2222af860	-1.1166859945947394
80	0x3fe69513644fb0c6	0.7056977233128456
81	0x3fc0049bedee095b	0.12514065854709142
82	0x3fa072a62f3def3f	0.03212470366176356
83	0xbf9de54abee50137	-0.029194991971281694
84	0xbf93be46602ffac2	-0.019280528660597047
85	0xbfea1f7dec784ffe	-0.816344224791919
86	0x3fb5afc2f9f04f91	0.0847131595804156
87	0x3f750558e1c4726a	0.005132052607475937
88	0xbfebb823794a5f1b	-0.8662278527217241
89	0xbfc7f449899892b6	-0.1871425554137624
90	0x3fdfaff96e3dd13f	0.49511562124031977
91	0xbfe38ddbc132f641	-0.6110667012614571
92	0xbfcb9a09c03f1a13	-0.21563836943660472
93	0xbf9c024ff0c77142	-0.027352570601452138
94	0xbfbbc88e7920922b	-0.10852899987418911
95	0x3fb6352d87ff66bb	0.0867489296937504
96	0xbfd4992b81f10609	-0.32184875192260215
97	0xbfbfee2d56cc22bf	-0.12472804421498561
98	0xbfe53c71b1ed5a55	-0.6636284327640377
99	0xbfce75e873f7a1fc	-0.23797326719729017
100	0x3fbf13a530bf3dc6	0.12139351310837929
101	0xbfbf9637ad444f14	-0.12338588695666558
102	0xbfb5db719f6d4a26	-0.08537969724901781
103	0xbfc6d666517f65db	-0.17841795901658383
104	0xbfa6ab9649cffe7d	-0.04427785540610516
105	0xbfc493139571341e	-0.1607384185503244
106	0x3f7accab621cb9af	0.00654284426290845
107	0xbfc225033f83fb24	-0.14175453759522683
108	0x3f9764b443ce3307	0.022845093382374972
109	0x3f916b7c74ea4ff0	0.017011589656775017
110	0x3fcb7a5233f90958	0.21467044389471357
111	0x3fb55d781e379cfe	0.08345747697568481
112	0xbfa7e985cbe3da04	-0.04670351137058407
113	0xbfdcf6a11c302b2c	-0.45255306008100393
114	0x3fd6b4c88fc9ee42	0.35478414575456807
115	0x3fab6a0d7b0b6d7d	0.053543492574784836
116	0xbf2082b3c395a288	-0.0001259655416945458
117	0x3fc300e856b0be59	0.14846519692354113
118	0xbfa1437bef9cef2f	-0.033717988013874815
119	0x3fcf06faec3e3f3f	0.24240051780042823
120	0x3f8d9384520c697f	0.01444152236358742
121	0x3fa08e49a4fc9494	0.03233556879994484
122	0xbf8c1860ded4e0c6	-0.013718373108176595
123	0xbfc0b8cf076017f7	-0.13063991413235929
124	0xbf9d5063ee5864be	-0.02862697736972985
125	0xbf9205f1890c4728	-0.01760079764341707
126	0xbfaea5404ca78b5f	-0.0598545163700439
127	0xbfb621ef809f3d36	-0.08645531549631333
128	0x3fd25fc0203c2831	0.28709414623210977
129	0xbf93ee700085b6dc	-0.01946425440967557
130	0xbfa13b0d314fe314	-0.03365365244821397
131	0xbfa8807dacd5fc74	-0.04785530791104345
132	0xbfb5ac324bfa9bd5	-0.08465875964121435
133	0x3fbf32ea13a638cd	0.12187064151496259
134	0xbfb01f2fafb6715c	-0.06297586479053535
135	0x3fdaa0517d6eee99	0.4160350537237974
136	0x3f758e8461101782	0.005262868028699576
137	0xbf821cca201c4363	-0.00884397421353506
138	0x3fd1de299ee139f4	0.27918472781757875
139	0x3f9351b90fccda30	0.01886643561302942
140	0x3fced7d11d841842	0.2409612077828474
141	0x3f965106162e9d74	0.021793456176650364
142	0x3fa1b27e66b2fca4	0.034564924274939984
143	0x3fc1383cbbf5e5ce	0.13452872445831904
144	0x3f99fd40a18611f6	0.025380143984436963
145	0xbfbcbde18ee3e48b	-0.1122723554471056
146	0x3fa3b32bb3abf9cc	0.03847633903750455
147	0xbfa9b0b6a2715dcc	-0.050176341371009764
148	0x3fa578d69a0975cc	0.041937547973002504
149	0x3fb035437ba61d57	0.06331273812076198
150	0x3fa2e8c7ef411f8e	0.0369322280462817
151	0x3f818b2c27312007	0.008566231676141468
152	0xbfb04fa8d183782e	-0.06371550669743506
153	0xbfc68c6c4da78ca0	-0.17616037170146104
154	0xbf4270d6bca0b23f	-0.0005627678413069949
155	0x3fc043a225fa0084	0.12706400732350087
156	0xbfa807a5461fd579	-0.04693333130846162
157	0x3fbc4154daa0354d	0.11037187898201246
158	0xbf991aff99052f4b	-0.024517053331961674
159	0x3f97955792f6642c	0.023030632347943378
160	0xbfd93386a204d9ed	-0.3937698919502555
161	0xbf78ceb5be5dfd1a	-0.00605650895693024
162	0xbf91fb5816df7164	-0.017560364147230514
163	0xbfc675e4a3c7769d	-0.1754728126242541
164	0xbfd677219fdb5e17	-0.35102120028520417
165	0xbfb2d507326e51c3	-0.073563051044693
166	0x3fc198a5edb8c0a8	0.13747095210556393
167	0xbfc2dbc9289fbf4f	-0.14733232959360484
168	0x3fb5c7b5c6f47a44	0.08507858378696037
169	0xbfd554b30b9bc01f	-0.3332946408618244
170	0x3fc359aa5ce6741d	0.15117387329237966
171	0xbf91f4dc3fbc8e5e	-0.017535630598230482
172	0x3f9af9e95ac84925	0.026343961873927974
173	0x3fa6b8f2775b2a5b	0.04437978465064837
174	0xbfb12b6032fdd445	-0.06706811184797441
175	0x3faf48b21afafbcb	0.06110149936056749
176	0x3f8884604d596c90	0.01197123752642984
177	0x3f4e2a947b652bec	0.0009206032762362182
178	0xbfadfa998b2d548e	-0.05855254959048138
179	0x3fb2ea470bf89fb6	0.07388729135766323
180	0xbfc028c8a1cf26b4	-0.12624462033118322
181	0x3fa4a86a280f8603	0.04034740199109523
182	0x3fc139abda8f4372	0.13457248851639353
183	0xbfa55d2e877f0dba	-0.04172654537208183
184	0xbfb80ed40d6d57a3	-0.09397626235781202
185	0x3fb3707b1eeb03f5	0.075935072944972
186	0x3fb581a1f95b40ef	0.08400928819469632
187	0x3fac3bc7edcb2d8e	0.05514359262232481
188	0xbfae7903a7856d4b	-0.0595170156472827
189	0xbfa9d0867ca0505c	-0.05041904708210218
190	0xbfc04d4861717e42	-0.12735848196006044
191	0xbfc55ae924ff2b8e	-0.16683687502367345
192	0xbfbacf6317958da4	-0.10472697568689299
193	0x3fd111c6e55deff9	0.26671001814952394
194	0x3fb1302047e51c66	0.06714059596298369
195	0x3fa9ff6c46e45eee	0.050776847509210174
196	0xbfa04eb662c572e3	-0.03185052829460291
197	0xbfb1097142ff2d36	-0.06655033002532637
198	0xbf9278c75f0ea259	-0.018038859536007788
199	0xbf9464e4e94e4673	-0.019916130771497408
200	0x3fe9d549d659c7d6	0.8072861849343507
201	0xbfd6c2298b65451e	-0.3556007252964991
202	0x3fb27531f81f86c5	0.07210075671857925
203	0x3fab4311c5e12d42	0.05324607410929129
204	0xbfd47aeebb308a56	-0.3200032070182365
205	0xbfeb698f20abcedd	-0.856635631380836
206	0x3fd121008ad23041	0.2676392894434266
207	0xbfdc3bf8fda7743c	-0.4411604382601728
208	0x3fa85b659cdcd0cb	0.04757230319811042
209	0x3fe0091916864a05	0.5011105956967304
210	0x3ff6ac04d00379d7	1.4169967771082292
211	0xbfc9cbc9af1c8dfb	-0.20153161096924052
212	0xbfdf87802cb3db53	-0.4926453053043833
213	0xc0004a914b310d8c	-2.0364099382729304
214	0x3ff83b71fa03cb8d	1.5145129934505548
215	0x3fe9711abb8ac228	0.7950566924028566
216	0x3ff24f12aebe321e	1.14430492648092
217	0x3fe2698fdf6e92a9	0.575385986700515
218	0x3fd0afa18400f5b4	0.26071966067305685
219	0x3ff1e1d53175b3fb	1.117634957506424
220	0x3fce7d1c5c0c23e2	0.2381930779886537
221	0xbfb830ea44ad440d	-0.09449638535194556
222	0xbfd7a8a40a067f17	-0.36966801623383233
223	0xbfe574ec105fce80	-0.6705227203187434
224	0x3fd77d63f4f7b44b	0.36702822611443214
225	0xbfaebaf79401ef4c	-0.060020195786789715
226	0xbff97f2bd26286f6	-1.5935476511153275
227	0xbfaa5da34b3f7cea	-0.051495650229975556
228	0x3ff225e43a153cdc	1.1342508572450276
229	0x3fe0fdcc79d9ca58	0.5309812908074703
230	0x3fd1a901df0be534	0.2759403875530382
231	0xbfe142c6205ade51	-0.5394011146481238
232	0xbfd7bc0742fb047f	-0.3708513406855402
233	0x3fc23b975fe612c5	0.1424435823684204
234	0xbfc517fed1f60b03	-0.16479478122717958
235	0x3ff5d10da135088d	1.363538388934589
236	0xbfd60c1a76cd7361	-0.34448873140154573
237	0xbfd31e6cff752058	-0.29873204180740265
238	0x3ff7b03d680abbb3	1.4805273117196804
239	0x3fc5c7ac35360049	0.17015602682295342
240	0x3ff11abee657eb0d	1.0690297124662635
241	0x3fbc8b7b9e9c1509	0.11150333998019248
242	0x3fc74a1515dda82d	0.18194831435840922
243	0x3fec2e2d1c34a622	0.8806367445842549
244	0xbfaea7e521940621	-0.05987468752756465
245	0xbfe52401b4fcfeef	-0.660645345204072
246	0xbfaac4b8db41d898	-0.05228212048034314
247	0xbfdab9274d2e537e	-0.4175508741112067
248	0x3fe3150c0f8285bc	0.5963192274977511
249	0xbfc14463ab72aa6c	-0.13489957686882137
250	0x3fd1c25e9cd313f1	0.2774883777131541
251	0x3fe08e21dc5ae8d6	0.5173501304446073
252	0xbfe0789fc1aff900	-0.5147246153790377
253	0xbfd2b1b0c2afcfe6	-0.29209536564235206
254	0xbfe29023d14254be	-0.580095204075995
255	0x3fe014758a00c8fd	0.5024974532482528

fc.4.bias f8 [3]
0	0xbfac534d61345305	-0.055323045840998154
1	0x3fb1a72a5c18ea29	0.06895699261159706
2	0x3fc83bb830ddf67b	0.18932249437414214
