car_ros2/car_ros2/losses/exp3_delay.pth (torch, 202669 bytes, 8 tensors)

fc.0.weight f8 [100, 40]
000000 40 7e 8c c9 3e 4a bd bf e0 2a 5e eb 68 f3 a6 3f
       -0.11441414280533824 0.04482581971304511
000010 77 70 91 ae 94 08 9a bf 29 34 19 a4 7f 9f 81 bf
       -0.02542335811118376 -0.008605000682246526
000020 61 f0 39 82 df 3f d3 3f 45 1b 4b 96 3f 88 c0 3f
       0.30077350346960513 0.12915797079605276
000030 e5 16 ba c6 4c e3 ac 3f 8f 65 1c 7b cc 1d 88 3f
       0.05642166066995261 0.011775586611792814
000040 c6 dc 50 0f c4 61 c4 bf 84 4a d9 d1 6c 1a da bf
       -0.1592335772308841 -0.4078628587059614
000050 71 6d 92 97 0f 55 c4 bf e5 78 b3 49 db 6c 9a bf
       -0.15884585286117273 -0.025805879948955463
000060 85 f2 9b 14 54 1e 9a 3f 47 09 da 8f 01 d4 8e bf
       0.025506318815120572 -0.015052807047372453
000070 ac f3 30 b7 5f 98 cc 3f bc dc ba 97 ab 7d 90 3f
       0.22340008206256579 0.016104394088611626
000080 51 de 92 34 af 49 b6 3f 22 47 74 83 63 ae b3 3f
       0.08706183465516772 0.07687971076327618
000090 b9 ef a5 a0 df be bd 3f 01 76 b6 6a ba ff 99 3f
       0.11619374916148119 0.025389588130215305
0000a0 43 b9 b1 6b 3e e6 59 3f fa 20 39 a4 f5 44 b0 bf
       0.0015807733132323233 -0.06355223903040388
0000b0 1c b3 81 14 2e 0b bd 3f 6a 3b 07 10 c7 fe 93 3f
       0.11345184326792118 0.019526586869513286
0000c0 34 c3 ab 47 27 37 8a bf e4 8a 85 0d c9 d3 cf bf
       -0.012800509333347067 -0.2486506763480839
0000d0 8b 38 80 27 24 f4 c8 bf 13 83 47 be a9 09 df bf
       -0.19495059899094644 -0.4849647863575665
0000e0 29 09 4d 8e 14 0c 8b 3f 40 9d e7 ee f6 0a 85 3f
       0.013206635086707568 0.01027481953219811
0000f0 50 80 ce 92 71 8d d2 3f b9 18 4c 74 00 66 d6 3f
       0.28988303505503143 0.3499756942477564
000100 6a 7a fd 61 2b c3 dd 3f 0f 82 e6 d9 89 5b 9f 3f
       0.46503719872808935 0.03062262909372931
000110 ac db 6f 81 17 f8 69 3f 8e 1b 93 e5 23 8b aa 3f
       0.0031700572103505378 0.051842805647132825
000120 65 ad 23 34 bc fc b0 bf a7 80 71 29 6f 47 d1 bf
       -0.06635643265660958 -0.2699849991531757
000130 69 13 d0 98 9f 88 77 bf dc 16 1e ef b0 7f 9e 3f
       -0.005745528626907561 0.029783978075576964
000140 63 b7 e8 ea c4 56 ca 3f c5 4d f7 47 07 bb b0 bf
       0.20577298612755177 -0.06535382754309811
000150 ee 9b f1 b3 68 60 b2 bf 19 01 2e d7 40 cd c1 3f
       -0.07178358452948405 0.13907633311101433
000160 1c 22 25 0d f9 61 b4 bf 18 5d 02 8e 85 db c7 3f
       -0.07961994715618242 0.1863867705730875
000170 64 9e 68 50 73 0f 74 bf 5c c2 8a 2c fd 7b b7 bf
       -0.0048975471932305205 -0.09173567140056477
000180 61 f2 4a 14 f7 72 bf 3f 55 c5 a3 d6 ac fa 97 bf
       0.1228479790251611 -0.023417187309808202
000190 8c 1f e2 75 7f 83 6d bf 4a ae 68 3d c4 1e bd bf
       -0.0036027421438724113 -0.11375071048012689
0001a0 25 38 26 0b 43 fa c0 3f a9 f0 4a d4 c6 35 c8 bf
       0.1326373867454446 -0.18914113393646417
0001b0 4e 4a 13 89 50 90 c1 3f 93 a0 dd a8 6d 2c c3 bf
       0.1372166318238492 -0.1497933458842949
0001c0 c5 b7 60 a7 79 f1 a1 bf f1 82 f4 cd 11 99 c9 3f
       -0.03504543464838109 0.19998381191637507
0001d0 c8 ee b0 0c 79 b1 9b bf c2 46 95 4c 86 32 bd 3f
       -0.02704419269524186 0.11405219430641991
0001e0 49 c6 c7 97 d9 e0 c5 bf 4d 6c 50 15 75 a0 bf bf
       -0.1709243765940747 -0.12354213495602658
0001f0 c4 92 e3 7d f5 7c cd bf b3 ce 54 9f 51 d8 72 3f
       -0.23037594458505428 0.00460082896943319
000200 62 30 95 ea 5c 96 8b 3f 9e 4a 19 8e 9a 9b 87 bf
       0.013470388325593944 -0.011527259313117096
000210 89 9b 60 cc f1 21 bc bf 3c 14 4a 4a e8 5f a0 3f
       -0.10989295234376874 0.03198171526768376
000220 51 d4 19 74 8e c5 be 3f 55 99 6e 41 52 2c c2 3f
       0.12020197233671694 0.14197757906840516
000230 53 57 10 d8 7f 13 cc 3f 4a 47 c7 6b 49 74 94 bf
       0.21934507417671031 -0.019974848941110047
000240 99 8f bd bf aa 63 a8 3f 55 a2 ef c6 67 7d b1 3f
       0.04763539877492846 0.06831978422963776
000250 18 54 72 35 58 d7 bb bf 5d 3c e3 80 b4 35 ce bf
       -0.108754647301183 -0.23601394933072842
000260 92 9d 44 32 3b 8a c1 bf c0 dc 33 00 54 14 cc bf
       -0.13703098253720875 -0.21937036523715925
000270 54 b2 43 46 8c 78 a2 3f f5 61 9e 9d 76 de 89 bf
       0.03607595784874165 -0.012631346402302216
000280 72 20 f1 d1 37 79 cb 3f 8f b2 bb 3d 1e 7e 88 bf
       0.21463678122586632 -0.011959301241824675
000290 c6 23 dd d3 b2 af 91 bf 4a c5 25 a0 f3 38 b8 3f
       -0.017271799260274688 0.09461901340343562
0002a0 ce af 66 b8 1d c1 3e bf 54 37 96 b7 6b c4 d1 3f
       -0.00046927428811715805 0.2776135723914781
0002b0 c8 87 b1 e6 0a 4c 22 bf 93 8e 26 06 cd c9 8b bf
       -0.00013959534712443115 -0.01356849837322408
0002c0 d8 ff 30 d6 32 c2 c9 3f 81 e5 00 cc 1a 8c a1 3f
       0.2012389703613724 0.034272038843890414
0002d0 c6 ac 35 ff 1f ae d8 bf a7 37 74 ca ea ba 9c bf
       -0.3856277458459768 -0.02805678234749789
0002e0 12 90 19 e2 10 c8 8f bf 8b a0 d9 a7 48 c3 a4 3f
       -0.015518314266223885 0.040552397241129766
0002f0 14 10 66 c5 da 63 99 bf 7e 63 7a 03 a9 23 eb bf
       -0.02479497747255273 -0.8481030528956663
000300 ae a3 4d 01 33 97 96 bf 5b 72 d8 95 9e 45 9e 3f
       -0.022061154322191072 0.02956245221695251
000310 02 42 f4 40 5b 95 d2 bf 4c 04 1c 94 b0 e7 83 3f
       -0.2903659948651979 0.009719256896916793
000320 af a1 71 06 75 f0 d4 3f c3 28 13 5c f6 59 b4 bf
       0.3271763384750796 -0.07949771640702168
000330 3c 18 99 d2 c6 ca 84 3f f8 b3 ad a5 d2 cc c1 bf
       0.01015239076799556 -0.139063197038382
000340 89 9d e0 9c 29 c4 ab bf 97 d9 db c7 d5 2e f0 3f
       -0.054230976486276346 1.011434345911402
000350 5e c7 90 79 a5 a8 ba 3f 53 1b 9c 35 b3 2c b3 3f
       0.10413583963307135 0.07490081843216716
000360 de 21 d1 2f 4c a1 c2 3f a2 0d 40 fe 3e 4f 98 3f
       0.1455474122506208 0.02373979975528829
000370 27 42 bf 2e 35 d9 c0 3f 68 87 fe 35 20 69 72 bf
       0.13162865431378742 -0.004494787048232009
000380 90 08 e1 7c b7 7f a7 bf 04 cd b4 7c 29 15 bf 3f
       -0.04589627646829897 0.12141665739618551
000390 17 fd 94 b3 19 0a 85 3f 5d 45 a6 77 53 43 e7 bf
       0.010273171227366746 -0.726968511286184
0003a0 72 13 c7 c5 33 d8 ab 3f a8 a1 d9 40 1a 72 a8 bf
       0.05438386716153944 -0.04774553338649251
0003b0 0d ab 81 dd 3a a0 86 3f dc ce 39 1b b8 c3 8c bf
       0.011047801861612716 -0.014045179682603708
0003c0 4f 44 91 3c 87 7a c9 bf 49 2e b4 b6 21 50 bf bf
       -0.19905176598925542 -0.12231646261732822
0003d0 53 02 3a 5c de 7a a3 3f 59 53 7f cf f2 7b c8 bf
       0.03804678798497165 -0.19128260738093664
0003e0 7f a4 ff 6d 43 d3 93 bf 91 04 ef fc 20 66 c0 3f
       -0.01936059340360829 0.12811672544743094
0003f0 dc 17 92 c7 a2 dc b8 bf fb 32 f5 6c cd c3 bb 3f
       -0.09711663601237269 0.10845645818808329
000400 a0 3c 4b 5d 0b a6 be bf c0 cc 54 3c 9d 6c ac 3f
       -0.11972113635714488 0.055516160597471664
000410 eb 2b 40 20 fa 3a ae 3f cb 3c 6a 14 2d 7a b7 bf
       0.05904370921788157 -0.09170800922787518
000420 9e 6f 9b b8 22 2d 98 bf 1e f9 17 61 35 f6 9f 3f
       -0.02360967876198538 0.031212648440480988
000430 4b 2e 05 a6 f9 e0 ac bf a8 8b d5 59 56 d2 c6 bf
       -0.05640392448057393 -0.178293985237443
000440 d7 44 ef 51 11 ac bf bf 8d a5 60 c4 ff 9d b1 3f
       -0.12371929407460712 0.06881712478993603
000450 e7 87 48 1d a9 25 c2 bf 86 a2 62 9b 0c 77 9e bf
       -0.1417743103966693 -0.029751011833158113
000460 05 cc d7 6d 3b 75 c7 3f 72 e0 08 d7 97 9b 88 3f
       0.18326514113832118 0.01201552033408879
000470 26 cf f1 0a 86 9d 9d 3f 50 b9 6f 00 8d 45 d0 3f
       0.02892121736336075 0.2542450432073524
000480 bc 2d 4b 1e d6 eb 8d 3f 35 bd 09 fb c6 ff ca bf
       0.014609978484620416 -0.21093070275990447
000490 ab ad e5 07 75 d0 9e 3f 9e 1f dc 7d 68 d9 96 bf
       0.030092075926786126 -0.02231372135341269
0004a0 e3 c1 99 0d fc 73 b0 bf 6e 77 74 9c fa 50 bc 3f
       -0.06426978427931078 0.11061064071369994
0004b0 12 d8 6d 22 9c 78 ad bf 73 b2 13 6c 54 90 86 3f
       -0.0575608055141147 0.011017474697348128
0004c0 df 44 c0 0b ad 28 a3 bf ef 20 0f 92 dd 37 a9 bf
       -0.03741970795102544 -0.04925434501598313
0004d0 a7 81 8f 3e 9e 7c b5 3f 45 77 c5 e4 5b 87 cf 3f
       0.08393277194364278 0.246318327622186
0004e0 d1 13 7a f3 61 d5 a1 3f bd fc 1c 2e b3 b4 bf bf
       0.03483110520486544 -0.12385101199923816
0004f0 ea d0 a8 03 98 73 88 bf 0e f3 2c 42 91 67 ad bf
       -0.011939227687527827 -0.05743078167731684
000500 e8 34 6c 73 88 07 95 bf c7 81 9d d4 66 b1 a1 3f
       -0.02053654865726609 0.03455659242058889
000510 52 49 a4 72 e8 43 a3 3f d2 ae b5 7a bb 7b 93 bf
       0.03762747191844319 -0.019026688923459663
000520 3d 07 45 16 e2 c5 c0 bf 6b a8 ea e0 14 fc a7 3f
       -0.1310389145601735 0.046845104652064894
000530 18 36 52 4c ea 6b b9 bf a0 4c 47 bc f1 5b b0 3f
       -0.0993029056864646 0.06390295836108573
000540 7c e9 ea 0e 1b 7b cb bf 79 9a e9 76 3a 18 c9 3f
       -0.21469438770675342 0.19605189138674797
000550 e2 36 96 39 d9 31 bf 3f 9b 7c 26 61 36 8a c7 bf
       0.12185437827994464 -0.18390540832203758
000560 7b d5 56 58 1b ce c5 bf dd 9d a2 1c 28 51 ca 3f
       -0.1703523808807111 0.20560170553402105
000570 53 76 cf c7 56 0b c4 bf bd f3 8a 5f 42 9c d1 bf
       -0.1565960384022441 -0.2751623089823701
000580 18 68 8c 6e 42 01 c3 3f d6 4e 0b a0 12 60 c5 3f
       0.1484759368693751 0.16699440779358693
000590 06 e3 16 7b b3 32 be bf 36 1b dc ff d3 fc b2 3f
       -0.1179611373435244 0.07417035099579725
0005a0 97 13 76 d5 0d ed d2 3f 3f a9 98 ce 24 62 c7 bf
       0.2957186302740466 -0.18268261039458797
0005b0 5e 63 e2 b2 d3 a6 c1 bf 21 91 71 84 12 3f 46 bf
       -0.137903654428352 -0.0006789055268084135
0005c0 4b 32 03 da b5 bb ba bf fa bb 9a 92 07 82 ab 3f
       -0.10442673275537932 0.053726421972321206
0005d0 6a 82 04 24 ae ec bb bf 35 c2 8c 88 9e 25 c4 3f
       -0.10908020381294539 0.15739804904434754
0005e0 b9 9e 35 d7 c1 0f a2 3f ff 36 d6 ae 66 30 a7 3f
       0.035276467819867326 0.04529114612806317
0005f0 c4 4f c6 b6 11 6a b5 bf f9 46 54 75 69 89 b9 3f
       -0.08364973747512666 0.09975298990709892
000600 44 cf 2f b0 ea 4e c1 bf 98 a3 b4 9c 7e 87 93 bf
       -0.13522084811085666 -0.019071558298637464
000610 56 48 9f a6 2d 83 81 3f d8 db fc 73 f5 76 c2 bf
       0.008550984046369486 -0.1442553345056854
000620 22 fa ee 88 11 21 bb 3f 3b c8 65 da 97 49 aa 3f
       0.10597333520033961 0.05134272137628711
000630 c1 ad da c9 25 12 7f bf 99 87 a5 ed e9 6d 9f 3f
       -0.007585666285801763 0.03069272530536402
000640 17 a7 bb ad 5e 06 b2 3f 7f 9c b5 db 24 eb 9e bf
       0.07040969602135437 -0.030193878087996225
000650 ab a9 2b ae 8b b7 6f bf 43 0b bc 8d 42 2c c3 3f
       -0.0038717010623845103 0.1497882072509019
000660 59 d1 2b 5a 60 d1 6e bf 36 44 3b 38 a2 3d ba bf
       -0.0037619478110803403 -0.10250295517768468
000670 94 76 60 73 1d 2a bb bf 7e a9 b0 63 9a fe a8 3f
       -0.10611137453858027 0.04881746737403868
000680 f4 51 b2 4f b3 26 d9 3f 0d a9 32 19 ea 41 87 3f
       0.3929870870863674 0.01135619058034767
000690 6e 32 62 a7 7a e7 c1 bf b3 0c 85 95 53 f9 93 3f
       -0.13987668202425446 0.01950579261871317
0006a0 32 67 74 95 c8 21 92 3f ed ce eb cf 67 57 d6 3f
       0.017706998941412873 0.349084809349036
0006b0 91 09 8f 6a db e9 a8 3f 9c d5 bd 01 83 e6 98 3f
       0.04865918803945413 0.024316832524581153
0006c0 1c 1c 0d e3 a8 e8 b0 bf 49 1a 76 a5 ba 72 a2 bf
       -0.06605010550730167 -0.03603156347076159
0006d0 ed f2 80 9e 0f da a1 bf de 1f f5 1f 6b f4 b1 3f
       -0.03486679849490835 0.07013577966893034
0006e0 77 f1 c2 0b 26 04 ea 3f ff 7a 3a 4d 64 b6 a1 3f
       0.813006422969507 0.03459466402749988
0006f0 4a ba e1 c8 ee 64 a3 3f 1a 48 9d cf e8 3b bb bf
       0.03787943079156671 -0.10638289517126545
000700 01 ff 61 ae c3 67 8a bf e4 44 a3 e6 8d 47 eb 3f
       -0.012893227347603455 0.85248465582313
000710 b5 32 62 0c a6 a7 b7 3f 90 de 3b d0 71 a7 6a bf
       0.09240186502774857 -0.003253671924422559
000720 bd 65 16 40 bc 43 b6 bf 26 04 36 9f 97 c5 71 bf
       -0.0869710594619368 -0.004338829300992086
000730 af 08 c7 f6 c5 3f d5 bf 4a b4 c4 d2 36 65 c0 3f
       -0.33201741313326755 0.12808881083893403
000740 ac b9 c6 ee 20 48 ad bf cf e5 5e a8 11 66 a9 bf
       -0.057190922877782796 -0.04960684948259663
000750 a5 18 db 1c 12 6c 70 3f 09 ee 32 38 a1 ff f2 bf
       0.004009314301305055 -1.1874096102973246
000760 e6 f1 d7 56 07 02 c1 bf 52 56 78 e2 b0 27 94 3f
       -0.13287441006094908 0.019682658980022368
000770 a3 c0 54 d6 23 1e 84 3f 05 31 0e 29 bf 6c 6d 3f
       0.009823112467160227 0.003591893539527049
000780 c1 1d 27 47 5a e1 8c 3f c7 1d 26 86 ae e2 be bf
       0.014101701065455498 -0.12064638877028876
000790 af ef c5 17 94 fd c5 3f d1 79 90 4c c2 58 b6 bf
       0.1718011013107321 -0.08729185456511536
0007a0 fa c5 9e e3 a0 51 d3 3f 67 f6 8c 5a 55 59 67 bf
       0.30185720661674476 -0.0028502146782603435
0007b0 94 cc b4 b5 94 85 cc bf 98 c9 c9 bc ea e0 dc bf
       -0.22282656547904323 -0.45122784077025235
0007c0 44 d5 c8 c9 1a bd 82 3f 4a 94 45 64 36 9d d2 bf
       0.00914975097939908 -0.2908454875199068
0007d0 00 4e 7a d2 e6 e8 99 3f 28 6a 87 f6 9b 95 d1 3f
       0.025302511784117243 0.2747564227589998
0007e0 25 14 d8 9b bc 12 e1 3f 1f e0 05 5b 53 2a 97 3f
       0.5335372012929197 0.02262239687976841
0007f0 3a 8d 9c 32 c6 55 ce 3f 83 53 1e 10 53 c1 71 bf
       0.23699262114778624 -0.004334759201715668

fc.0.bias f8 [100]
000000 c2 8c 84 c9 12 f2 86 bf 5f 80 95 61 af e4 74 3f
       -0.011203905844530463 0.0051009035899768065
000010 30 3f 5c 10 a1 24 9d bf 1d bb 56 20 78 47 b0 3f
       -0.028460041640811784 0.06359053411027245
000020 fb c8 85 36 42 bb 94 3f f8 7f d8 85 9e 6f b4 bf
       0.020245585038943564 -0.07982817428319311
000030 d7 5d 6e 62 d4 2d af 3f 0c f6 d7 1e f5 01 aa bf
       0.06089652730514288 -0.05079618455418364
000040 35 2f a9 99 8f 98 5c bf 00 8d 78 f4 54 76 c6 3f
       -0.00174535773716662 0.17548620163970696
000050 e0 e8 d8 cd eb c2 b0 bf 8e 66 af 43 4d 8c 72 3f
       -0.06547426009720736 0.004528333486598547
000060 f9 92 26 3c 00 e1 52 3f 94 ec 4a 3d 72 5e b1 3f
       0.001152277211624751 0.06784738537219176
000070 3d 2f 6a 42 e0 60 bc bf 4e 28 80 98 58 2f b9 3f
       -0.11085321065382643 0.09837869380149408
000080 be 26 a1 67 2b dd ad 3f 08 3a c2 7b 99 ed a7 bf
       0.05832801475533021 -0.04673461566664022
000090 dc 4a 57 c7 7b 8c 91 bf d6 7b 29 6d f4 6b af 3f
       -0.017137464563186863 0.061370504689641045
0000a0 9a 0b bc cf f0 3c 78 3f 99 75 db 92 04 ad 95 bf
       0.005917492551591597 -0.021167823279815676
0000b0 cb a7 e9 1c 64 09 92 bf 86 78 fa a8 7c b0 d3 3f
       -0.017613949074451612 0.30764690877720857
0000c0 b5 58 40 8f c8 6a a0 bf 46 66 35 f9 c2 1b 9b 3f
       -0.032064692961442466 0.02647308965729269
0000d0 03 23 2a f2 8f 34 b5 bf 37 49 da 13 21 39 ab bf
       -0.08283328687879181 -0.05317023627607614
0000e0 3e dc bf 91 14 5a ba 3f 95 5e 58 8e ca 28 8e 3f
       0.10293701704345978 0.014726240605383448
0000f0 81 29 23 f6 fc 32 d0 3f ae 07 ac b6 6e df 91 3f
       0.253112068527706 0.017453889750875078
000100 fd aa d4 01 49 06 a6 bf fe 94 98 8e 54 4b b5 3f
       -0.0430167021498473 0.08318069917057255
000110 96 c7 e2 91 fa 06 6c 3f 38 4b 68 f9 6c 0e c5 3f
       0.0034212964956958454 0.16450273683639138
000120 69 75 46 44 9f 0c 84 3f 6c 77 b7 a2 f9 ba 91 bf
       0.009789699812979351 -0.017314816051900037
000130 95 81 00 76 f7 83 b2 bf e1 df c8 1b 6f 93 7b bf
       -0.07232615118892334 -0.006732400911054954
000140 04 14 de e9 32 63 99 3f 4e f8 c9 46 fe f3 a6 bf
       0.024792476200236294 -0.04483027090189805
000150 1c 31 58 ce d2 6f 77 bf bc 98 73 1c 25 8c 27 bf
       -0.005721877537791433 -0.0001796527196582016
000160 e4 d2 d0 67 21 19 af 3f ad d9 70 b4 f2 f4 5d bf
       0.06073860542566026 -0.0018284197010537226
000170 86 d5 95 fb f5 6d 64 3f ae 19 e9 cf 97 c9 85 bf
       0.002493839678829604 -0.01063841441385879
000180 ff ad 16 b7 9a 1a cd 3f 99 0a 89 7b c5 1c a4 3f
       0.22737440051911048 0.03928200848578917
000190 04 0f c4 ee 30 5d 75 bf 77 55 6e ca 3c 3c bf 3f
       -0.005215827124860576 0.12201290075457459
0001a0 e6 f1 eb f6 93 ed 8e 3f 63 8a a6 f8 6b fc 89 bf
       0.015101581547690434 -0.012688487554276045
0001b0 cc 0a 6e 9d 67 02 a4 bf 9f 5e cf 76 0e 07 b0 3f
       -0.03908084675551535 0.06260767365108187
0001c0 fe 57 00 82 23 44 b0 3f f8 81 48 2a 40 64 ac bf
       0.06353971408711342 -0.05545235172417401
0001d0 37 ad 83 17 57 b9 6c 3f 47 79 6e f4 2f b7 92 bf
       0.003506345845485061 -0.01827692918197357
0001e0 a8 5f 5f bb c7 af 88 bf ab d9 83 b6 ab 70 95 3f
       -0.01205402412954 0.020937617316087714
0001f0 4a 8c f5 7b ee b2 98 3f 54 98 8c 0e 08 88 91 bf
       0.02412006980501883 -0.017120481384289413
000200 63 65 ed 07 1c 1a c4 3f c7 e8 c7 c4 8e ad c6 3f
       0.15704679858280732 0.1771715603679864
000210 a0 6a 5a 2a f6 91 84 3f 25 43 c7 50 15 13 98 bf
       0.010044024627224701 -0.023510296874351817
000220 bd 88 a0 e1 80 19 b0 bf 75 e5 51 50 a0 24 9e bf
       -0.06288915165399352 -0.029436592962587455
000230 46 fb 40 6e bb fb a9 3f 7c ad 79 5a 87 9d d7 3f
       0.05074868889686583 0.3689897903011212
000240 8e 01 4d 87 37 ca 41 3f f9 f5 5b 38 fc 5f 6b bf
       0.0005429049620957903 -0.0033416677641742135
000250 d3 94 48 3a ed 20 b0 bf 48 b4 16 7c a4 5c b2 3f
       -0.06300242112100145 0.07172611264714235
000260 75 07 55 b3 59 73 6b bf 02 42 ec 9e 54 9f aa 3f
       -0.003350901790924727 0.05199684562660779
000270 6e e6 e0 df 90 52 a0 3f a0 fb fc 0d 9c 3a ab 3f
       0.03187992794887583 0.05318153067354747
000280 f3 91 d7 a5 dd ec 84 bf 52 cc c0 99 fc b0 c9 bf
       -0.01021741068229518 -0.2007137060878415
000290 11 c2 dd ea d2 26 94 3f c8 d5 8b eb 7a 14 b9 bf
       0.01967935141095906 -0.09796875239029312
0002a0 49 1b 86 d7 78 7a a9 3f 76 56 68 cf 0a 02 b3 3f
       0.04976251250177783 0.07424991191541061
0002b0 75 74 0e 46 c0 6a ae bf 32 a6 b0 8a 03 49 a4 bf
       -0.0594081960218568 -0.03961955135339358
0002c0 e7 fa 43 e3 7c ed c4 3f 3f 2a ee 67 dd f2 b4 3f
       0.16349755379629657 0.08183082377778648
0002d0 a2 4c dd 8d 29 12 9c 3f d8 39 e7 0f 07 4c a5 bf
       0.027413033755988032 -0.04159566945201093
0002e0 52 f7 9a 13 5f a1 87 bf c5 08 4c 60 45 70 a0 3f
       -0.011538260255629904 0.03210655975819202
0002f0 db b3 8b 2c 6f 64 91 3f a5 48 9b 28 6b 67 b9 3f
       0.016984688848356782 0.09923429242488398
000300 9c d2 6f d2 d1 59 ce 3f 61 dd 56 99 12 b7 d5 3f
       0.23711607718691574 0.3392988679365399
000310 dd b4 ae d7 7f 9a ab bf b0 3c c6 9b 6d 68 9b 3f
       -0.05391311176149725 0.02676554930945646

fc.2.weight f8 [100, 100]
000000 0b e8 98 cd 76 33 9e 3f 03 c8 77 21 e3 83 b0 3f
       0.02949319486490513 0.06451243941390321
000010 97 e5 cc 72 b4 4f c0 bf 46 d9 37 0a f3 00 be 3f
       -0.12743239980208607 0.11720198630778098
000020 ff cb b2 ef 02 85 b2 3f 30 ef 68 f2 21 c9 ca 3f
       0.07234209396374068 0.20926307999058613
000030 d3 6b 35 25 33 6b b2 3f 33 76 26 e7 9a 09 c7 bf
       0.07194823892989115 -0.17998062407143464
000040 3d 8a 62 4f fa 1a 92 bf 9d 99 18 02 21 0d 98 3f
       -0.017681037040015325 0.023487582924781248
000050 a6 85 e5 69 e8 85 a6 bf a7 6c 16 6a 8a 6d b6 3f
       -0.04399038593943354 0.08760895814923463
000060 5a 20 7b 50 9a 6d 63 bf 7d 2a 16 90 e7 d7 93 3f
       -0.0023715986206731933 0.019378297967288283
000070 23 da a1 bf 15 c3 b8 bf 21 2b 54 f3 d5 50 c3 3f
       -0.09672676018258435 0.1509044111374687
000080 b5 e1 1d ac de 7a cb 3f 46 ce 7f 8c 30 64 be 3f
       0.21468718914162613 0.11871627264172799
000090 3c 67 02 df 2f f1 d1 3f 58 ab 17 69 d5 c9 95 bf
       0.2803458860231449 -0.02127774671491109
0000a0 c0 13 15 2a ce da 87 bf 8d cd b5 31 f8 9f 9d bf
       -0.011647806796313165 -0.028930547746723035
0000b0 5d 69 3d 9b e0 50 a7 bf 2c ec 29 b2 48 c0 82 3f
       -0.04553892035501648 0.009155815064550842
0000c0 da 2f f6 9e 62 c1 aa bf dc 3d 91 d3 d8 b5 c2 3f
       -0.05225666227769894 0.1461745293658926
0000d0 66 17 2e d6 d2 57 69 bf 41 d5 2f 9a dc 3c b6 3f
       -0.003093635359109936 0.08686617626502359
0000e0 2d 68 be 22 eb 55 9b 3f e8 96 f7 75 cf 0e c5 3f
       0.026694940562812675 0.16451447734942026
0000f0 66 50 b0 97 1d fb 8a 3f 10 0d 6d 83 4b fa af 3f
       0.013174277488396235 0.0624564741069894
000100 02 af b1 23 5f 1e c2 3f e2 5c 7a a8 84 cc a6 3f
       0.141551868847607 0.04452910000434841
000110 4f fd 8c aa 78 eb aa 3f ce 56 df 4a 69 c7 b9 3f
       0.05257775384824958 0.10069902494373226
000120 dc ed d6 74 b8 66 c6 bf b1 f2 3f 63 37 26 c5 3f
       -0.1750097818856905 0.1652287706964635
000130 45 1b 66 22 31 05 c3 bf cc e5 12 9a 47 5c 82 bf
       -0.14859594516402744 -0.008965072049579435
000140 ae 4f bd f0 0e 36 b6 bf e8 f6 51 69 5f ab c3 3f
       -0.08676236512593391 0.15366737978541
000150 68 7e fb f6 bc 7f c5 3f 6e d1 14 ac df 64 a5 bf
       0.16796075877845174 -0.04178523040391978
000160 ed c1 12 b0 10 0c bb 3f 4d 59 c1 6a 1f d5 b9 bf
       0.10565285013831956 -0.1009082446701985
000170 00 ec ca 82 9e 05 6e 3f 56 03 2c d4 46 7f b0 3f
       0.0036647888103664705 0.06444208793619785
000180 cd fc d6 05 83 58 b3 3f 91 e4 f4 b0 a6 09 a5 bf
       0.07556933300564879 -0.04108925733675862
000190 0e 7f ef f2 93 29 c0 3f 14 81 c2 38 60 5b 2b bf
       0.12626885759436174 -0.0002087168653632862
0001a0 80 eb bf 4e c5 f9 c6 bf 8f d3 d3 48 fe f0 92 bf
       -0.17949739785384722 -0.01849744147780857
0001b0 57 1f de b9 ff c9 91 3f 61 29 15 54 da 9c b4 3f
       0.017372127265417116 0.0805183844833315
0001c0 f5 63 0e 99 9a 84 b2 3f f7 18 ea 33 f6 5c a8 3f
       0.07233587490772193 0.04758424171181901
0001d0 c0 60 b4 3a 74 1b bf 3f 8a 5d 0f 6a 74 6e bd bf
       0.12151266511171155 -0.11496665562969191
0001e0 48 32 f5 cd 4b 5a ab 3f 4a ef b6 99 b2 4c b8 bf
       0.05342327965863497 -0.09492031338498666
0001f0 94 df 34 20 51 27 6e bf e3 a2 1d 9f 72 da b8 3f
       -0.0036808571327604043 0.09708324799215577
000200 d2 c3 d0 e9 3a 9d 8a 3f 2f d6 19 f6 bf e6 bf 3f
       0.012995205173952504 0.12461471327136374
000210 7b 3d a0 c9 f1 ff b4 bf 8d 10 77 f4 ec e5 b0 3f
       -0.08203040287502532 0.06600838631044521
000220 48 1c ee 57 40 87 c2 3f e1 5c 68 4e da c1 c2 3f
       0.14475254338705867 0.14654091671466232
000230 0f e1 43 58 f3 29 61 3f 5f 30 32 9f 86 c1 8b 3f
       0.0020951989009711024 0.013552715047147666
000240 8f 7f 9c c5 ed a1 b3 3f a4 c6 4d 8e 87 04 c8 bf
       0.07668958734984542 -0.18763822983196576
000250 0f 30 c0 a5 5a 1b 4a 3f f7 6e 93 0b 56 ee c1 3f
       0.0007967178930825563 0.14008594098310542
000260 7e 98 94 ed 99 ec 99 bf 79 41 67 4e 3d 0f aa 3f
       -0.02531662476135254 0.05089751798698478
000270 fb bb 44 18 33 9d b7 bf 76 eb b3 da e2 0a af bf
       -0.09224242537014497 -0.060629929730530316
000280 ef 83 29 42 d8 4f a6 bf 85 a9 2a cf 5e 1f 80 bf
       -0.043577917171894735 -0.007872334191536332
000290 44 d0 52 02 a7 01 b5 bf c3 d7 ca 47 cb bf 80 3f
       -0.08205646330571975 0.008178318146160884
0002a0 4a 9b ce 3a a7 a0 cf 3f 14 c7 7c 59 b9 d7 c1 3f
       0.24709024783552486 0.13939587468626569
0002b0 6f eb 25 46 47 25 ae 3f bf 58 1f 28 22 f1 b2 bf
       0.05887816172886217 -0.07399190406372023
0002c0 9d bd bd b4 e7 e6 a9 bf bf 88 6e 1b 9e 4f c5 3f
       -0.05058979111970106 0.16649223651353925
0002d0 7d d8 78 33 e3 9b 73 bf d6 d7 5f f6 7d 3e ac bf
       -0.004787337783957677 -0.05516427643298953
0002e0 cf c9 89 8f ec 7b b5 bf 8f 1f a3 65 95 a1 c4 bf
       -0.08392218117095428 -0.1611811395907776
0002f0 e4 1a c2 9e 27 d2 d1 bf 86 c1 ed f5 2e f1 ad bf
       -0.2784518289922018 -0.05848070861873382
000300 a1 4a 49 e8 d0 69 97 bf ae 44 fc cc 1b 6f a8 3f
       -0.02286459367526084 0.0477226913191172
000310 a1 cb f8 4e 2b 56 c4 3f a2 5a 61 7f 2b d4 bc 3f
       0.15887967449233734 0.11261245593901006
000320 0c c9 99 d1 b1 29 bd 3f e3 60 67 32 91 68 b3 3f
       0.11391745917515922 0.07581431847154678
000330 85 ea 37 19 8a fb 8f bf 16 11 a3 7c 2a 71 b4 3f
       -0.015616492170910998 0.07985177557845122
000340 b4 3e 33 69 29 9f a2 bf fc 0b e3 50 30 02 a1 3f
       -0.036370557872598935 0.03321982371701179
000350 32 7d 85 4a 32 e7 b1 3f c0 15 d5 9b a6 2b a4 3f
       0.06993402785655148 0.03939552929163481
000360 e7 54 b6 c5 e6 98 af 3f e7 c5 31 4e fe 39 8f bf
       0.061713420519632405 -0.015247332345299248
000370 d6 9a df ff fb 92 b4 3f 47 b6 50 5b 11 3f 4d 3f
       0.08036780354414516 0.0008925280332101126
000380 d9 d6 f8 8e 10 77 9a bf 8a c5 80 f6 8a 71 bc 3f
       -0.02584482071525582 0.11110752599849696
000390 6d 41 19 e9 1b 55 9c 3f cb d8 78 3a 59 a7 b2 3f
       0.027668415167057803 0.07286603620090941
0003a0 b1 75 55 8f a6 ba a3 bf e3 46 39 1a 18 16 be 3f
       -0.038533406254582465 0.11752462997653938
0003b0 c6 e0 33 df ea 1e aa bf d1 89 7a 70 bb f1 86 bf
       -0.05101713156358438 -0.011203255052639445
0003c0 bd f8 45 b7 9c 10 8c 3f cf 59 44 b6 7b 10 a3 bf
       0.013703560202653947 -0.03723513221682461
0003d0 c7 a0 09 9e 23 f8 ba 3f b8 7b b7 73 e1 9e a1 bf
       0.10534880264606548 -0.034415288329675275
0003e0 a9 9f 79 c2 41 e7 a0 3f 48 0c 39 21 92 f0 76 bf
       0.03301434992755443 -0.00560051996177708
0003f0 59 2c e4 56 16 48 a7 bf e0 d7 cb 99 74 ee ae bf
       -0.04547185717282138 -0.060413020872075895
000400 ca 75 d6 45 c8 5c a7 3f 17 9b 27 9e ee cd 98 bf
       0.045629747891534914 -0.024223068621633006
000410 ef 00 64 5d 0a b4 b4 3f 8a 08 f5 32 2a 71 23 bf
       0.0808721998219004 -0.00014833107113971052
000420 05 d3 d0 24 46 0c b0 3f 43 c8 90 5b 1a 7f af bf
       0.06268728636571204 -0.06151659362548447
000430 1f 9d 71 84 4c 0f 8c bf 90 9d d7 63 fa ce a5 3f
       -0.013701055328239562 0.04259474247720185
000440 04 3f 74 49 6c c7 a6 bf bd c3 ad 9d ab 66 ab bf
       -0.044490226713717745 -0.053517687795540315
000450 b2 a7 f9 b5 2c 44 9f 3f 3a 81 4d b5 8b 6f 99 3f
       0.030533503157506643 0.024839575711099494
000460 d1 66 52 57 dd 78 b5 bf 48 39 7d 36 a6 d0 97 bf
       -0.0838754976452052 -0.023256871295694453
000470 3e 3b ad 68 21 ea 87 bf 24 fd f7 32 db 29 89 bf
       -0.011677037245730323 -0.012286865704480628
000480 07 89 a1 a0 68 5c 95 bf 2b 67 8f 8d 21 a9 ba bf
       -0.020860323719156273 -0.10414323526438511
000490 9c 6f d6 d5 98 51 bd 3f 77 2d 67 c2 f7 eb ac bf
       0.11452632160802384 -0.056487791519965684
0004a0 48 07 6a c6 7a e0 93 bf f7 fa 00 0e 4e fa ae 3f
       -0.019411009178390587 0.06050342484421905
0004b0 39 69 7c 76 15 43 a4 bf 1b b8 e6 e2 a2 c7 ba bf
       -0.03957430907594745 -0.10460870780545443
0004c0 e1 91 f7 84 53 96 7e 3f 69 80 e1 c4 fc 21 be 3f
       0.007467581031481236 0.11770610624944457
0004d0 da bc ec c6 10 93 8a 3f a4 69 04 7d dd 88 b6 bf
       0.01297581774778538 -0.08802589704683911
0004e0 37 51 64 ad da 26 a7 3f a4 12 18 a0 01 cc a9 3f
       0.045218309083937695 0.05038456992409593
0004f0 f0 84 38 64 1d 74 b2 3f 42 96 7b 24 fb 0e b2 3f
       0.07208427140041684 0.07054109230701847
000500 da ee 1e 33 4c 15 b0 3f 82 80 99 77 43 21 b0 bf
       0.06282497642581167 -0.06300756139671829
000510 dc a5 f3 aa 21 bb 9c 3f 78 95 1e 1d c7 60 91 bf
       0.028057600077692743 -0.016970740463553707
000520 97 68 5e 04 47 00 97 3f f4 b6 d7 07 40 a9 a4 3f
       0.022461995736741427 0.040353775937416986
000530 8a d7 5b 34 02 d3 a2 bf f8 b2 b8 1d a0 2a 9f 3f
       -0.036766117946100144 0.030436040700965145
000540 be 20 36 11 63 70 95 bf 40 75 e9 29 a5 43 5b bf
       -0.020936534810545686 -0.0016640770842493852
000550 6c d1 a2 fb 05 ef 87 bf d4 c8 62 15 e5 2c 9d 3f
       -0.011686369649716886 0.02849157279042276
000560 2e 1e e4 9c 54 0d b3 3f f7 85 22 b2 1f 62 99 3f
       0.07442215757702605 0.02478837513684159
000570 27 6f 89 cf 9b 39 b1 bf ea d6 fa 1b 13 75 b6 bf
       -0.06728528801744159 -0.08772391732312781
000580 ec 52 a0 1c 94 b1 ae bf a5 88 ee 54 7d 1a b2 3f
       -0.059948566908280515 0.07071669887094119
000590 f2 7e 6d 1b 00 18 b2 3f 8d 8b 9a e8 07 6e ac 3f
       0.0706787173235133 0.05552696909332786
0005a0 47 ec 0e f4 b2 fc 89 bf 67 67 94 db 09 c8 b1 bf
       -0.012689016411846178 -0.06945859537918651
0005b0 5f be f8 6b e7 05 8d 3f 2b 7e a0 1b 6b 7e 6f bf
       0.014171417219670688 -0.003844460673476898
0005c0 f7 e8 6d 07 f8 d6 58 bf 1c 82 d1 40 b5 13 b0 3f
       -0.001516096320954006 0.06280072052459967
0005d0 0c b2 83 09 c5 c1 ae 3f a3 07 55 31 ba 00 bf 3f
       0.0600720953096677 0.12110484794996394
0005e0 25 78 dd ac cf 2e a0 3f 55 be 1f b5 ce 16 b5 bf
       0.03160714135331969 -0.08237926408741576
0005f0 4b 3a 66 f3 ec c7 92 bf 6e e2 65 ce 38 69 b4 bf
       -0.018340780597606614 -0.07973055876744592
000600 09 ef 1d ce d7 2c b0 3f f7 3c 0f d2 00 ac b5 bf
       0.06318424970771387 -0.08465581062704418
000610 f5 a9 d8 90 9e 5c 83 3f e3 f9 30 8c b7 17 ab 3f
       0.009454001231536483 0.052915321219632515
000620 c2 59 31 b2 6f 3a b5 bf dc c6 1e d3 ea 5b ad bf
       -0.08292291736993376 -0.05734189822341104
000630 bb 77 9b 8e 69 54 b4 bf df d3 6f 85 44 ee 94 bf
       -0.07941302997229986 -0.02044016899522549
000640 5e 2f fc 9c 66 df ab 3f 17 2f 15 58 6d b1 80 3f
       0.05443878809282297 0.008150915384838293
000650 72 53 d1 76 ed d1 c2 bf c6 e6 7b 89 a2 af 73 3f
       -0.14703148175854214 0.004806170378054813
000660 52 1d ac 29 d3 65 b5 bf 76 93 53 01 0a 08 d0 3f
       -0.08358497397795375 0.2504906666711614
000670 b6 f2 56 0f 5e c8 b9 bf 64 72 d9 4b 32 71 c4 bf
       -0.10071361422064737 -0.15970448211273258
000680 7f 5c f6 93 06 48 95 bf c5 2b 5c 2d d9 8c a1 bf
       -0.020782568722634395 -0.03427771261893712
000690 0c c3 7f 8d e2 35 c3 3f 62 cb 6e d0 6d 5d c2 3f
       0.15008193883070253 0.14347622563726775
0006a0 f4 a9 2d 3b 6f 7b a4 bf 36 ac dd 37 6a 39 be 3f
       -0.0400042304743983 0.11806358207620424
0006b0 50 14 d5 ed fd 49 9e bf 82 87 7c 0f 75 8f 8c 3f
       -0.02957913173783694 0.01394549802313683
0006c0 56 67 76 0d 62 65 c6 3f 02 a6 39 9d 9f f7 cc 3f
       0.1749689641699727 0.22630686928759763
0006d0 72 83 18 e2 d3 55 b2 3f 81 2c fb 68 9a 24 b7 3f
       0.07162212629238043 0.09040226996437363
0006e0 87 a5 9c 1d 5b e1 94 bf 7d 02 75 a2 f6 8d bc bf
       -0.020390914614073743 -0.11154118982541124
0006f0 c3 93 c6 a6 02 4f 7a bf 78 1a 44 a7 c0 07 73 bf
       -0.006423006398482425 -0.004646065284993221
000700 a6 ec 65 99 9b b6 a1 bf 69 a3 c6 e0 2d ce a2 3f
       -0.03459631202255169 0.036729272545307286
000710 86 71 7b e8 9c 41 b2 bf 4d 7c 41 d2 3a 4c a2 3f
       -0.07131367374262795 0.03573783699607045
000720 6b 91 19 67 a2 54 bb bf e4 a8 93 cd 37 8d 53 3f
       -0.1067601682385139 0.0011933369590289506
000730 48 eb 4a 83 1e a7 c1 3f 37 1f 16 36 56 a4 a3 3f
       0.13791257296346715 0.03836316499933761
000740 9e f6 1e d4 66 51 c9 3f cc db 14 3f 9a 7b 6d bf
       0.1977966819521741 -0.003598977339290132
000750 0a 26 e9 85 b6 69 b8 bf 1d a6 56 cf 33 cb c6 3f
       -0.09536305207543463 0.17807624458264196
000760 f0 1e ba 4c 00 63 8a 3f c1 a0 57 c3 35 64 a2 3f
       0.012884142247699043 0.03592079171704788
000770 05 7c f1 9e a0 64 96 3f a7 43 a1 19 b6 3e 96 bf
       0.021868238164071147 -0.021723599733664802
000780 45 70 34 82 20 17 b7 bf 03 02 55 ef 0d e4 bd bf
       -0.09019663981274657 -0.11676108449047011
000790 95 7e 2d 17 89 37 96 bf 99 75 4a fa 23 e9 b5 bf
       -0.021696226157813376 -0.08558869228951095
0007a0 26 1d fe cc fa 65 cd 3f 5c 10 6b cf 1b 08 8c 3f
       0.22967467317014573 0.013687340991403278
0007b0 a1 cb fa cc c9 c3 a0 bf c5 8e 48 07 82 18 c1 3f
       -0.032743746063167885 0.1335604224742523
0007c0 07 89 44 e2 b1 1b c2 3f a4 a0 f2 36 09 8e a5 bf
       0.14147018001774134 -0.04209927364110058
0007d0 93 4c a2 ee 77 8a a9 bf 47 54 80 58 56 c1 99 3f
       -0.049884555702328325 0.02515158572358114
0007e0 b6 d4 16 2e b6 e5 9f 3f b6 0a 61 7b 02 3e 93 bf
       0.031149717867908953 -0.01879123571439819
0007f0 1a 90 94 87 3f a0 d4 3f b3 ee fc ac 5d 3c c1 bf
       0.32228077163949964 -0.13465472170525103

fc.2.bias f8 [100]
000000 2b 66 90 11 42 71 bd 3f 3f 93 4e 53 fb 3f 96 bf
       0.11500943116006883 -0.021728445968295814
000010 a3 f6 90 5f 1c 7b cc 3f 3d d8 3a 1f 13 28 a1 bf
       0.22250704447099165 -0.033508870661009806
000020 bb dc 8e d1 81 18 c2 3f 17 66 7c a0 85 51 a5 3f
       0.14137289745642598 0.041637588348930325
000030 18 73 cc e3 27 58 b8 3f 5c bc ab 84 bc 24 92 3f
       0.09509515105714816 0.01771826324232638
000040 95 cf 57 a8 b8 a0 82 bf cc e8 69 7f 82 29 a7 3f
       -0.00909561408750629 0.045238569310599525
000050 9c 3d e6 0c 24 11 b5 3f 68 19 73 04 94 f5 8b bf
       0.0822927981846448 -0.013651996980467998
000060 78 f7 c5 07 85 a2 9f bf 4a 88 18 1d c0 da c2 3f
       -0.03089340076393607 0.14730073376364522
000070 08 c5 b8 2a 9d 2a 88 3f d0 e1 bb be 2c 7f c7 3f
       0.011800029627098599 0.18356856644801534
000080 61 4a 3b fb 4c 2c c0 3f 37 54 1e 67 e7 74 9a 3f
       0.12635195033233784 0.02583657805333336
000090 64 05 a4 d3 4d 90 96 3f 02 1b 71 5d e9 cd b9 3f
       0.02203485111477245 0.10079821139616388
0000a0 b8 ec 22 c2 41 2c ae 3f 84 1e 0b cb 17 a3 af bf
       0.05893140311078454 -0.061791175399375425
0000b0 69 16 bd 7c a0 30 b6 3f 80 09 11 7f ef 50 a3 3f
       0.08667948766113799 0.03772686411004411
0000c0 3e a9 7a 49 3c 9d aa bf 7f 72 2d b5 a4 7f b8 3f
       -0.051980861634847816 0.0956976835563612
0000d0 d9 e1 d3 3b ef f9 c5 3f 61 75 12 85 7d cb c8 3f
       0.1716898958327551 0.1937100314870959
0000e0 83 9a 6a f2 92 ba ca 3f 23 64 9e 3e 06 ce b1 3f
       0.2088187869714667 0.06954993275429948
0000f0 9a fd 10 af 04 fd cb 3f a7 4e a2 6f a1 2d c6 3f
       0.21865900562441426 0.1732675356948807
000100 ae 0e 19 b1 35 84 a3 bf 58 f7 82 9f c0 aa a6 3f
       -0.03811805521811827 0.044271487685803634
000110 40 6d f2 d3 9a ed a4 3f 03 5c f2 26 73 7e bf 3f
       0.040875280735429786 0.12302322102401324
000120 98 f2 dd 6b 74 83 bb 3f d2 48 4a ee 88 fb bb 3f
       0.10747459062072051 0.10930686776763146
000130 2f 44 4d ec 95 7d c2 3f 8b 59 8d 90 55 9c c0 3f
       0.14445756948637853 0.12977094228945094
000140 56 27 1a c7 ea 2d c1 3f 9e 81 16 59 13 04 b5 3f
       0.13421377870354928 0.0820934383868974
000150 e3 c5 cd c6 39 bd bb 3f ad aa f7 a6 c9 cc a1 3f
       0.10835610488518159 0.03476553118874413
000160 8e 1a ca 6c f9 59 52 3f 22 03 3b c8 aa 4e be 3f
       0.0011200843611348962 0.11838786495628686
000170 d7 47 e6 41 9a 68 b0 bf 0d d0 b4 22 d8 de bf 3f
       -0.06409610852122626 0.12449408385583656
000180 2b e6 aa b2 d9 fb b7 3f 57 59 79 5e c5 1d a8 3f
       0.09368668186189015 0.04710213449714001
000190 62 e4 3f 08 06 80 a7 bf 8c 6f 72 2d 57 c5 ae bf
       -0.04589861727431167 -0.06009933881543281
0001a0 b4 fc b8 ef 4e 18 a5 3f 78 f5 1e df c3 f6 c1 3f
       0.04120108295728056 0.14034317392899331
0001b0 bf bd 22 b1 5c 5a ba 3f db 1c aa c5 e0 ea c9 3f
       0.1029413158855652 0.2024804082068162
0001c0 cb b9 1d 06 ec 94 be 3f 5b 36 29 4a fb 4b b7 3f
       0.11945986890143627 0.09100313721247615
0001d0 ca 8a 9e 10 ee 3a 98 3f e7 2c 97 cb 13 c4 c7 3f
       0.02366229988514127 0.18567130509322924
0001e0 ce be 97 61 92 6a a4 bf af f7 ef 1f 32 e8 c0 3f
       -0.03987557832067311 0.1320860534614758
0001f0 89 5a b0 62 47 bd b3 bf 48 55 00 86 11 72 97 3f
       -0.07710691604038734 0.022896074107923853
000200 c5 86 0d 08 ff df a1 3f cd e7 fa 7b c7 c1 ae bf
       0.0349120805101513 -0.060072168239869585
000210 f4 db d1 31 9a b2 b8 3f 57 bf cb 44 3d 7d a4 bf
       0.09647525516798777 -0.040018000266967384
000220 3f 3a 6e 34 8d 15 a3 bf 12 f8 13 01 26 6c a4 3f
       -0.037273800516335324 0.039887607223121915
000230 ee 4f c5 80 49 31 79 3f 7c c4 51 19 16 d8 bc 3f
       0.006150519486556745 0.11267221563481827
000240 99 ee 85 18 20 98 be 3f fe 4f 27 a4 3b bd a0 3f
       0.11950874899587872 0.032693733013417145
000250 f0 9a 87 19 9e fa b2 3f fb 48 42 0b ae 05 ca 3f
       0.07413662074359784 0.20329833554985285
000260 47 7d f0 d0 95 7c 84 bf 88 ac 17 71 35 12 97 3f
       -0.010003252447914902 0.02253039839517304
000270 f3 65 70 60 64 6a a1 3f 17 80 66 f6 50 b5 ce 3f
       0.034014832279534966 0.2399083331229128
000280 da fd 16 16 e8 c3 96 bf 3a f8 c3 45 4a 65 b6 3f
       -0.022231699321990074 0.08748306468257364
000290 5c 7d a2 ab 82 0f c3 3f 6c 18 5b 98 1c 17 bb bf
       0.14891084080316375 -0.10582140655159983
0002a0 b4 01 ec 00 f1 03 bf 3f 13 a9 a9 49 1d 8a 69 3f
       0.12115389130122517 0.0031176158930083047
0002b0 4c 96 5f 6b 20 bc a7 3f 6b 2a be 7f 6c de 84 3f
       0.04635716734609882 0.010189864776994647
0002c0 e6 03 06 bf a0 9c b4 3f af 0c 17 01 4c 38 53 3f
       0.08051495231303782 0.0011730901936608908
0002d0 6b 77 db 1b 76 76 b2 3f 75 57 8d 22 b2 c0 96 3f
       0.07212007694348947 0.02221945129289034
0002e0 ad 36 b5 a2 72 f4 ab bf 4e 8d 81 52 97 85 c8 3f
       -0.05459936367206573 0.1915768769132264
0002f0 a5 73 0b 5c 15 8d cb 3f 73 fb 2b 02 86 dc b8 3f
       0.21524302477237459 0.09711492112181279
000300 29 f4 21 de da 21 cd 3f 3d a3 65 1b d0 a1 a7 3f
       0.22759567114181437 0.04615640959202103
000310 e9 91 38 33 a6 1d b9 3f 8d 7d 76 74 b9 07 6a 3f
       0.09810866117965812 0.0031775114218388135
