car_ros2/car_ros2/losses/exp4.pth (torch, 244415 bytes, 6 tensors)

fc.0.weight f8 [150, 47]
00000000: ff31 ab31 d10d c8bf 5d9e 6b43 8c9d 9ebf
00000010: 9d7d 28a6 9727 9f3f 9850 c11a 2651 b1bf
00000020: 9963 e5b8 7964 b33f b003 7171 2773 b2bf
00000030: bc90 2e72 016b b33f 6363 ed82 df36 9fbf
00000040: 3987 be6b 3091 a8bf a19a 8795 84a8 993f
00000050: 5d7e 4d31 426d a2bf 2aab 734a c134 bb3f
00000060: 53d9 7a7b d60a 95bf c501 38ff a7aa b1bf
00000070: 32b6 59e2 bea5 a43f 6354 e13a a14e bc3f
00000080: 1f89 edc6 c49c a33f ad3a 819f c532 b0bf
00000090: 1a77 e7c2 8145 b6bf 783d 2d37 59bf ac3f
000000a0: 7882 9183 a4df a3bf 7e34 b3e5 c524 943f
000000b0: a90f 0b08 6afb 9f3f 5373 76c0 75db a9bf
000000c0: a02e 6309 a1ab b93f 6f61 303b a742 9ebf
000000d0: 885c f1b2 cb0f b6bf 9f38 75a3 51d8 8bbf
000000e0: 91e1 558d 05ea a2bf 3924 11e1 b5a8 ce3f
000000f0: 7879 638b 5a65 ae3f ee08 4bf7 8c15 c03f
00000100: a5f0 0979 2bf2 b8bf 79c8 78dc d023 c9bf
00000110: 7edb 61c1 bdc8 b63f ba9a 9847 aa25 c03f
00000120: 20ca b2f1 31ed 9d3f af8a b6f2 664f af3f
00000130: d576 236f 293b 953f 5422 7ef1 9c14 d3bf
00000140: f3ab f6f5 0727 dd3f 4910 24b0 f98a c43f
00000150: c523 0bca 1226 d0bf d7c1 98cc a459 b3bf
00000160: f48a e5c0 95fa c4bf 0000 0040 9b38 ad3f
00000170: 0000 00e0 cdeb aa3f e7dc 3a4f dca6 73bf
00000180: 49f6 5648 8bc1 b5bf 5aeb 208e 38bd aebf
00000190: aa50 3fb3 9ccc 90bf c294 b2e8 d129 933f
000001a0: 33a7 2d40 333c b0bf 5583 f3b5 3b3a b0bf
000001b0: b71f 5798 f450 c13f 2b1a 2e79 7ec5 a8bf
000001c0: 3b6a b6d7 8591 963f 576a 17b7 91c1 87bf
000001d0: 44d9 2412 ae36 7b3f 8dd0 baf3 da5c 5e3f
000001e0: 0c16 cc8b 5e12 b3bf 6b3f 00f0 75a0 86bf
000001f0: 5d0b eee4 ea48 b83f c5df 22ef 7b2c bc3f
00000200: 5e76 787f 95aa cdbf 37fa 02e5 7039 cbbf
00000210: ed90 b768 4ba9 85bf e8c6 af3b 36cd a6bf
00000220: 1f33 5084 2b55 bd3f 3907 cf24 0180 8abf
00000230: 8869 7629 bab2 c5bf f057 2698 ba7d 95bf
00000240: 4011 9ca3 3603 c2bf 56dc 96d0 e1c9 be3f
00000250: 4bd5 a46c 0595 a6bf 2cc6 1166 fa25 d1bf
00000260: 08b2 51d3 8ceb 70bf 8cd4 4528 b75f 7fbf
00000270: 28f6 a9e5 1ee2 be3f 921f 5763 7f37 b3bf
00000280: b451 f3bd 9393 a7bf b8ae 73f0 8055 523f
00000290: e933 1682 b479 ce3f 2e7e fe07 46d7 b1bf
000002a0: 317b 62aa e529 c13f 684f 8105 d290 b53f
000002b0: 0161 f985 0b96 89bf 7126 6f2f 45fe cfbf
000002c0: 6bb4 ad43 163b b3bf f34f 1cba 594c d13f
000002d0: a1b2 8bea f0c5 c93f bd57 6630 9a86 c93f
000002e0: 0000 0040 08a5 bcbf 0000 0060 7cad a83f
000002f0: 2185 c4fc 9028 adbf f959 12d5 420d 993f
00000300: 3ee2 b705 e06a a4bf d2aa 82c5 19bf a2bf
00000310: e0d2 644a e400 b6bf f8f9 d9ec 7b78 413f
00000320: e278 f755 c304 b3bf 3478 9ee1 b296 b03f
00000330: 3400 5519 d3be 723f 2dbb 7e16 3aff b2bf
00000340: 6350 5ecd 0d60 a73f 6d46 ec66 aa1e afbf
00000350: a090 9a04 f37f b33f cb16 cf42 9979 813f
00000360: 1429 67d2 a4ec 9dbf aad3 32c0 49cd a0bf
00000370: 6ff8 d98d 2123 b2bf adb7 769a 78f3 733f
00000380: be6a 5081 f61d 92bf 119f ece3 4377 babf
00000390: dffb a217 63d8 a43f ad53 862b dde4 b9bf
000003a0: 11de e919 57e4 b63f 2ced cabe dbb9 973f
000003b0: 8133 24ce 5e3d a4bf 946b 8313 6e71 afbf
000003c0: ec38 259b de52 c23f 7ba8 7324 f959 98bf
000003d0: 3188 67e6 4230 64bf 1ae0 be1c 540a bebf
000003e0: 5190 8fe7 87b8 afbf 47f6 dbd9 d685 bc3f
000003f0: f8d0 7d9c 6f3b 7e3f 2e0b dcee 4568 a2bf
00000400: 5dfc 7144 7c4a aebf 6477 35a5 ef08 ba3f
00000410: 427e 9185 a5df bdbf 873b ef71 d16f c1bf
00000420: 9308 0a01 962a a13f f55a fb0e fa40 f23f
00000430: de20 e25c 478f f63f d237 7362 64b8 dbbf
00000440: 61be 5336 9245 e7bf 86eb 57af 6590 e4bf
00000450: c2fa 60f2 34c3 e3bf 0000 00c0 a070 adbf
00000460: 0000 00a0 1324 b4bf 578f 6182 15d4 a6bf
00000470: 8dde 9ba3 d0c7 bfbf 83dd 4c68 fd02 a83f
00000480: f784 2241 4ba3 ba3f 1e73 df5c cad2 c23f
00000490: 61ea 3508 93ec b33f 7b08 ab22 59cd 92bf
000004a0: 6458 d2cd 9f6c b03f 983c 6558 80f0 9d3f
000004b0: c803 7777 53e0 ab3f 5ac3 dc8c e15f ba3f
000004c0: 4fdc 70d9 2443 a63f e6a6 9a90 a93a 933f
000004d0: 1f61 6ecd 9625 bf3f 96ca 446e 6ea4 bfbf
000004e0: 0e9f 1818 9238 bebf b932 6d25 5f9c 833f
000004f0: 3b92 7647 4122 b7bf dcfd 8437 c29f b3bf
00000500: 7ab7 9847 7c00 b63f d2cf 0f27 e999 a53f
00000510: a989 75d5 e454 b6bf c928 fd5b 4937 9abf
00000520: 4798 b76c 05c4 b8bf 86fb 633b b703 af3f
00000530: 19c5 d150 ba4d c1bf 354d 29b1 00df a5bf
00000540: 6fa8 cdce 02c6 8d3f 4623 e467 b32c bdbf
00000550: a957 5d91 feb7 b83f 5ab9 d6eb 4298 b9bf
00000560: f717 05a8 ef60 b1bf 6b46 adbb 6895 9f3f
00000570: 3c27 5509 59ee c23f f0af 9b83 aeff c2bf
00000580: 9ecf 905e 6ebf b3bf e648 a263 7e57 64bf
00000590: b4c1 a1d3 bed0 97bf eec3 408d 8d76 c43f
000005a0: c7da 7862 270a c1bf df57 be8a b0f5 a63f
000005b0: 92bc 002c 7e54 863f c97a 16ad 7c1f a53f
000005c0: ee8d 8f32 2968 bdbf 16b7 df68 8e18 c3bf
000005d0: 0000 0000 c68d aebf 0000 0080 3aa2 b23f
000005e0: c96d 975a c3b4 b1bf cca1 d415 6f5d ba3f
000005f0: a020 2e9b 5426 733f c706 17e6 07a9 92bf
00000600: b163 2904 bf35 863f 0461 c009 8c19 6b3f
00000610: 28ca d762 96e0 af3f 0109 be4b a09e 603f
00000620: 0e0d 4c4a 44b5 8c3f 5886 68d2 906d 7fbf
00000630: 95e5 c198 ea8a 8f3f 870f 8e3e a853 ad3f
00000640: 0459 cf20 06d4 b6bf 1996 f769 5d67 72bf
00000650: 692c dbd7 84e0 8abf 19d2 0208 489f 7c3f
00000660: 85ac 76c1 a780 bfbf e654 d3c8 683b af3f
00000670: 23e6 9d5d 5fa4 c03f c251 707d ddc2 a0bf
00000680: 9dd5 05d5 8709 a83f 6fbb 76da b0a0 66bf
00000690: 84ee 98ed 6e32 a3bf c650 e57f cea2 c4bf
000006a0: bcc7 191c 0b6f a43f da9b 2da5 a4f1 9fbf
000006b0: 3222 9c47 6c3e b7bf 56d1 342f 1bc2 b33f
000006c0: e4db 4802 4186 c8bf 5a59 16b1 3c0d b93f
000006d0: 4f46 0982 603d 933f bdb4 fb24 b322 a63f
000006e0: b2e0 efce 9c30 b33f 53fd 59b2 41e0 ca3f
000006f0: 5cc2 8f32 df00 a3bf 5625 daf4 b70a 90bf
00000700: c3f4 c743 bb32 82bf 06fa 97c1 3fd3 91bf
00000710: d7f2 373a 7352 a83f ff38 d6bd ca5b 9f3f
00000720: 74ff 4432 8529 b6bf 8dc8 d581 dbd9 dcbf
00000730: a678 f184 e965 dd3f fe8c 6822 14be de3f
00000740: ddc8 f33a 6886 d6bf 0000 00e0 d47c bc3f
00000750: 0000 0080 6101 c23f 58bf a402 efcc b2bf
00000760: 56fd db9a cd9a aa3f ca4b 5e73 70a5 55bf
00000770: c8f3 ddd0 fcaa 6bbf 3e36 2f9f 0078 9f3f
00000780: bab2 11f6 da5e a23f 4ebb e876 22c8 703f
00000790: 53b2 94b2 3034 7d3f 3979 4fa7 f024 863f
000007a0: 1874 caa2 e620 b43f a888 a337 490e b4bf
000007b0: c856 7fd3 742e c83f d39e 904c 3da2 a4bf
000007c0: 5887 d062 f7af 873f 3598 ffdd f31d ad3f
000007d0: fc2f 8906 fbd3 aa3f 8ecb 0e88 a05c b6bf
000007e0: 9031 0529 3251 843f 20fd febf f5eb 96bf
000007f0: 75c0 2023 5028 c13f a087 bc60 9447 b3bf
-0.18792166638594662 -0.029897872557653183 0.03042447044037787 -0.0676444831199795 0.07575188411773438 -0.07206961173598248 0.07585152661937661 -0.03048276173226173
-0.047982705261587495 0.025056907297676848 -0.03598982669677462 0.10627372806235927 -0.020549155508626637 -0.06901025753905461 0.0403270388895688 0.11057479560379728
0.03830542496031541 -0.06327471870575137 -0.0869980908241498 0.05614737318557678 -0.038815632877917616 0.019671528000618548 0.03123250650493473 -0.050502471679669945
0.10027510146317775 -0.02955113695870309 -0.08617852324219843 -0.01359618930896672 -0.03694169378553903 0.23952363481137853 0.059367017283636636 0.12565767359598773
-0.09744521813439862 -0.19640551343178794 0.08900056811567755 0.12614944930938582 0.02922513997754994 0.061152665260370546 0.020733497055394807 -0.2981331213309535
0.4555072690952208 0.16049119091633404 -0.25232381563961 -0.07558660502468882 -0.16389724653989612 0.05707249790430069 0.05258029326796532 -0.004797802528336371
-0.08498449817758415 -0.060037391042405644 -0.01640553325690123 0.01871421797536211 -0.06341858212331601 -0.06338856880348705 0.1352830642556435 -0.0483817599224959
0.022039500514077864 -0.011599672698982362 0.00664394375262695 0.001853193111782256 -0.0744990435888086 -0.011048241984127313 0.0948626336012643 0.11005377376829902
-0.23176830982349633 -0.21269046003540534 -0.0105768100101575 -0.04453439215275329 0.114580840876624 -0.012939461646854876 -0.16951682114160982 -0.020987430130467943
-0.1407230662226855 0.12026797621261784 -0.044105691444580396 -0.26794300048558983 -0.004130888080095214 -0.007659640749229212 0.12063782794026479 -0.0750655763177959
-0.04604779905062931 0.0011190184757720444 0.2380891452015981 -0.06969106383484622 0.13409109897198726 0.08424103388216297 -0.012493219400468993 -0.24994721237299047
-0.07512034561450924 0.27028506445753847 0.20135318233896718 0.19942023623724295 -0.1118931919336319 0.04819859191775322 -0.056950121741701894 0.02446464944349633
-0.039877892206224605 -0.036614232406767436 -0.08595110718017507 0.0005331616500397476 -0.07429142807766057 0.06479948051716705 0.004576515774999779 -0.07420695351786995
0.04565470821322106 -0.06078083521255171 0.07617110121151649 0.00853271231779775 -0.029223037092188056 -0.0328162238232957 -0.0708485575978288 0.004870864016465787
-0.01769242443342977 -0.10338234247739943 0.04071340240033527 -0.1011484366666326 0.08942169554381275 0.023169930954037785 -0.039530718482729384 -0.06141227710914801
0.14315397811373687 -0.0237807205675513 -0.002464419044586407 -0.11734510137364432 -0.06195473386449691 0.1114172250635984 0.007380901319141701 -0.03595179119840562
-0.059162028651365196 0.1016988542882849 -0.11669382582612634 -0.136224918968278 0.03352803003964868 1.1408634743908668 1.4099801662687734 -0.4331294022966833
-0.7272425709797511 -0.6426266121555819 -0.6175789579354716 -0.05749990791082382 -0.07867548614740372 -0.044586822667752095 -0.12414268488270803 0.04689781091877434
0.1040541681309327 0.14705781493003028 0.07782858801321303 -0.01836146616074828 0.06415747427885915 0.029237752337675532 0.05444584687530313 0.10302552880308494
0.04348101763064759 0.018778466654714963 0.12166731372270022 -0.12360277359111146 -0.1180507000759656 0.009575599031131575 -0.09036643976885099 -0.07665647368866452
0.08594490764582288 0.04218987085178551 -0.08723287784008583 -0.025601526488835433 -0.09674104599216192 0.06057522392256147 -0.13518456407795368 -0.0427170006047625
0.014537832199227744 -0.1139633301392112 0.09655753182354822 -0.0999795747545468 -0.06788537838028207 0.030843388037573066 0.14789879756636448 -0.14842778612307894
-0.07713975723964814 -0.002483126500984689 -0.02325723807047249 0.15986794850462566 -0.13312237079818187 0.044843213020768984 0.010903344838963745 0.04125585186851805
-0.11487061962502995 -0.14918689842982563 -0.059675395488739014 0.07278791069984436 -0.06916447602946287 0.10298818858121378 0.00467522668157741 -0.018222926539016606
0.010844700159553829 0.003308080207727328 0.062260341230189475 0.002028763845317916 0.014017613904349104 -0.007672849379135004 0.01540168074301355 0.05727887881860654
-0.0891727285482809 -0.0044931076986123525 -0.013123548352629482 0.006987840053785743 -0.123056874019925 0.06100013209803894 0.1300162512887236 -0.03273670345530234
0.04694771266342033 -0.0027621702353920956 -0.037494150642001706 -0.16121846432600345 0.03990969388986751 -0.031195232946085706 -0.0907962488964891 0.07718057539461162
-0.19159710513642303 0.09785823176784927 0.018788822113782463 0.043233488335184124 0.07496051838086507 0.20996876915521998 -0.03711602680403267 -0.01566588813742461
-0.008885825162901267 -0.017407413664836134 0.047504044396168225 0.030623596035689534 -0.086571049473603 -0.45079696349342485 0.4593452261232279 0.480351480104403
-0.3519535613733192 0.11127977818250656 0.1406671404838562 -0.07343953909434953 0.051962304261901224 -0.001321182074637705 -0.003377431660679584 0.030731210437627825
0.035879938638435374 0.004097113253506658 0.007129850602080784 0.010812645059499292 0.07862702822099299 -0.07834298714036214 0.18891773535749778 -0.040300288769058355
0.01156609793003198 0.05686914524976353 0.05239853338989062 -0.0873508770153377 0.009920493962135152 -0.022384490817555336 0.13404275622588427 -0.07531096803407289

fc.0.bias f8 [150]
00000000: b696 6dbe 17f7 bdbf 53ac 3606 9091 b3bf
00000010: bbfe 8127 4636 eabf eb09 37a6 ea65 a93f
00000020: ee5f 0690 f9c0 a6bf 9fc4 b327 b8c4 d4bf
00000030: f113 12aa 46fd aa3f 2939 d075 2388 a3bf
00000040: 372b 49f4 298f 9bbf 4fb7 a5ed 5c99 b33f
00000050: 042a a6a2 eb31 c8bf f535 d95a b3ef c33f
00000060: 829b bfc8 0c63 b73f 4ca3 33b4 ee26 9dbf
00000070: 7d80 1dcd 8b49 ac3f d8c6 8562 dea8 e8bf
00000080: 9b13 3a1c ef87 d4bf 82b2 98e2 941a c4bf
00000090: 65d5 71c9 2022 c03f 6b72 b78c bfe7 c73f
000000a0: 83ae 8b2e c7f8 e0bf aaac 6d9b 364c c2bf
000000b0: 0d56 cef5 3c1c c4bf 5b31 086f d0dc b8bf
000000c0: 7d70 c761 14f8 b7bf e5af ff90 7d70 a6bf
000000d0: 6e52 f161 d1ab c63f b710 ab72 2758 ba3f
000000e0: 935d 68a6 f5f3 b43f 5090 ad86 730c dbbf
000000f0: 541b 20fd 2823 bcbf 01de 3d36 005b cabf
00000100: 2a09 63e9 05a8 853f 2cb1 ee38 28a5 d7bf
00000110: 3bff 2115 9a12 85bf a3c6 b4f0 47c9 c4bf
00000120: bf7d 6ea2 2f14 d53f 7325 2e38 a5e2 773f
00000130: d6e4 f9e6 3504 78bf 3e84 4ac2 1970 bebf
00000140: 4e89 7021 bee4 99bf 90ab 9a4b 2cd4 983f
00000150: c929 afc5 3f7d c6bf 833c 9cd8 cce8 bc3f
00000160: b99b eb7a b585 2dbf ad69 9d40 b7de d3bf
00000170: 1636 806c a29b 793f 53ce eaa4 906c c13f
00000180: 09a3 c1bf cd90 aebf fa3c 781e 1c78 b03f
00000190: d4ad a86d e05e a03f 25f1 1ccb c3a8 b73f
000001a0: ea55 b09f 1c8c 91bf f7c5 2ca7 0ba3 b8bf
000001b0: 19a8 1716 588a c3bf b281 46cc 4b07 be3f
000001c0: 3b37 103e d34d b23f df23 64b4 e603 b9bf
000001d0: ed82 c4a1 f2b8 ab3f 6032 61fe c723 8c3f
000001e0: ed18 1efc 143c a8bf 6775 7f77 3116 bfbf
000001f0: d464 210a 2a95 afbf 1107 d590 c335 cdbf
00000200: f0cd dd53 b405 c0bf 577f 34ea aa8d 5fbf
00000210: f8f3 76d1 69e2 c3bf fc8c f2a8 2c41 bdbf
00000220: 80e0 cda1 eb53 babf 0908 53d7 79c1 a1bf
00000230: 4134 5c06 e65a 89bf 1103 55fd 1c3f e13f
00000240: 1b2b a7c2 eab1 b3bf 5146 8e59 2651 a23f
00000250: 7777 c552 755d b53f 2d11 a8cb 4dc0 b4bf
00000260: 3fde cd3a 9bfd cb3f 2497 48c3 8608 b93f
00000270: 9a92 a3ad b705 b9bf df01 0a2c 127b 75bf
00000280: 09ab c067 c106 ae3f 329f b81b 7cd9 aabf
00000290: 38be 9c9c c6be 98bf 5011 ae7e 2d25 97bf
000002a0: 12f7 592a 6ca1 aabf 68ca 426d ed92 cbbf
000002b0: 2479 9a0c acbc d2bf ffa2 97d8 4b6c a3bf
000002c0: 956f b480 a272 c73f bb2e 8b28 5f74 bbbf
000002d0: c1e5 0635 73cf b23f 60ec 4f4b df12 b9bf
000002e0: 28f0 d02d 6d1b d8bf ae04 2746 f1dc cc3f
000002f0: 30e4 b598 9ed1 a4bf fb39 0204 e438 9d3f
00000300: 7c29 0337 416e c4bf ffd2 4483 c92e d53f
00000310: 7ab3 1ffb 24b8 c2bf 5482 1008 0854 b0bf
00000320: 7910 4717 1471 c53f 37bf f42e 7072 a63f
00000330: 7bff 23ed f638 adbf 8325 e45e de20 a9bf
00000340: 2db2 72f2 493a c33f 5afc 36f5 bb92 cebf
00000350: b143 3558 e8fe bbbf 2bf1 27cb 1e96 853f
00000360: 17fb c6c2 f1a4 a8bf 6111 58a1 31f5 bc3f
00000370: ee6a 4873 1175 b83f d966 07bb 214d c3bf
00000380: 4b34 7c8d c624 c53f 4fef efa4 bf81 d3bf
00000390: 6176 41e2 0ea6 d0bf 28da 4969 6d4d 78bf
000003a0: ffbb 2429 f9f7 c03f 1901 0ba8 fcc1 c0bf
000003b0: 3b71 a9a6 5feb b73f fc9e ae0d 2849 9dbf
000003c0: 8879 064b 4d90 a3bf 80d6 797a e251 803f
000003d0: b735 567e 8934 a03f 432e 0fea 8b7a bc3f
000003e0: 1d6a ffb7 7974 d0bf 7bf6 8e35 6524 edbf
000003f0: 62d9 fbd8 b88f 833f 7da9 df7d 1215 61bf
00000400: d450 aec5 a613 c13f bf1a 3f4e 2383 c93f
00000410: 4663 fe3b f37f a9bf 8e85 ff52 eceb d6bf
00000420: 11db 4efd 2f25 d6bf b5fb 61b9 441c a6bf
00000430: 379a d391 847f c63f 4522 8624 02c4 ddbf
00000440: 4ca4 4011 7202 b9bf c064 df68 2981 a73f
00000450: d8a6 97f4 3b80 c0bf ff57 8cd5 0db5 c0bf
00000460: 29e9 f022 9a52 a13f f0f6 9e86 c697 b3bf
00000470: a3be 927d 8c34 a63f bd7b 21fe 2d6f cabf
00000480: ece4 cd76 70ec d4bf 3c05 8885 4528 acbf
00000490: b075 72c2 1a15 17bf 5f3e 4e0c ea66 b7bf
000004a0: c385 64ca c7f2 bebf 77f5 d1a7 9797 aebf
-0.11705158614275998 -0.07643985892961895 -0.8191252490650734 0.049605686941067116 -0.04444103129497977 -0.32450679661912746 0.052713592777798975 -0.03814802945281521
-0.026913314375899246 0.07655888368546225 -0.18902345125054876 0.15575258193932454 0.0913551321133195 -0.028468827961577944 0.05524861220215003 -0.7706138538616996
-0.32079675442246874 -0.1570612055233092 0.12604150615849644 0.18675989504744747 -0.5303684147924773 -0.14295084561613197 -0.15711175920721168 -0.09711935721151603
-0.09362914454635703 -0.04382698435787783 0.17711846620899813 0.1029076247169226 0.08184752762496421 -0.4226349654402428 -0.10991150073833228 -0.2059021248676203
0.010574384865667048 -0.36945539054683496 -0.010289386529848002 -0.16239260915022155 0.3293570600744395 0.005831380260937424 -0.005863390498796769 -0.11889801972803668
-0.025286646643629944 0.024246875872147522 -0.17569729950476035 0.11292724884354936 -0.00022523727735476536 -0.3104684954647848 0.006251940219966131 0.13612564137075597
-0.059698514611971794 0.06433273071182902 0.03197385157212876 0.09241889675917443 -0.017136046644813087 -0.0962378771917186 -0.15265942648630995 0.11729882943337236
0.07150001778810815 -0.09771577743607861 0.05414541458799769 0.013740122271110156 -0.04733338906867055 -0.12143239180973851 -0.06168490766203552 -0.22820324489480773
-0.12517408461609092 -0.001925866040274079 -0.15534708717123613 -0.11427573322957935 -0.10284302425668734 -0.03467922929259266 -0.012380406445595795 0.538954252995696
-0.07693354847212357 0.035775373870944656 0.08345731039795888 -0.0810593244751245 0.21867695208833202 0.09778635280289599 -0.09774349202377622 -0.005244322761996461
0.058645290293801784 -0.052440527328427314 -0.024165252026419476 -0.02260275922482552 -0.05201280610070404 -0.21542136988644534 -0.2927656291084466 -0.03793560999821998
0.18318587574401293 -0.10724444141231519 0.073477936216384 -0.09794421757389804 -0.37667397951350035 0.2254926292935457 -0.040661770001812036 0.028537333244964085
-0.15961470781469334 0.3309806615755377 -0.14624464284807087 -0.06378221699606829 0.16751338135339092 0.043841844303072745 -0.05707523007185863 -0.04907889278735935
0.15021633470804954 -0.23885297273042988 -0.10935833123700324 0.010540237974958252 -0.04813342573787887 0.1131163615137374 0.09553631844066121 -0.1507913745143046
0.16518480213599882 -0.30479422671463835 -0.2601353845146602 -0.005933215511154923 0.13256754406890534 -0.13092001157020475 0.09343526667493489 -0.028599382243242197
-0.03821031132541736 0.007968682634991398 0.03165082614132635 0.11124491180742617 -0.257109098134295 -0.9106927915633628 0.009551471826381334 -0.0020852433362865117
0.1334122147787925 0.19931451149587606 -0.04980430705399512 -0.3581496058014516 -0.3460197423659546 -0.043184421186189516 0.1757665359538849 -0.46508840147774705
-0.0976935665245417 0.04590730099853024 -0.1289133972452905 -0.13052533080252712 0.03383332897688469 -0.07653466021198674 0.04336966545940626 -0.20651793392877763
-0.326931110400962 -0.05499474768658749 -8.805251910578324e-05 -0.09141409683638234 -0.12089203540065001 -0.05975030826173627

fc.2.weight f8 [150, 150]
00000000: 8c18 e703 608b 8bbf 50b8 239f 6b81 903f
00000010: f039 6d81 8cd3 a4bf 6018 417e 7e0c a4bf
00000020: 2acf fd48 10db b13f b581 8292 72b0 a13f
00000030: 0bb9 813d dc43 553f 1cf2 37ec 7876 aa3f
00000040: 9ceb c055 0beb 9ebf f3e8 100a e6bd 2b3f
00000050: 1851 c369 4ead b93f a1ef 0d34 96f7 acbf
00000060: 1777 93ad bdd2 adbf 8776 7e77 c4d5 a9bf
00000070: ae60 8c8a 3711 aebf c8ea b08b f255 b0bf
00000080: ea09 3b63 806e b23f 7a56 d923 ca77 90bf
00000090: af00 3353 5856 adbf 7d31 b5c5 a99d 913f
000000a0: 7292 63a4 a74e 963f 693c eade 6a1d aebf
000000b0: a258 d8dc 4efb 883f 3e67 944f b031 b5bf
000000c0: 9b06 d5a1 4acc af3f 1de3 4a39 a96e aabf
000000d0: 39f3 1328 bb0f a43f 473f b8af c2b9 a5bf
000000e0: e0cb 326f 110b b0bf 554d f576 a4f8 b0bf
000000f0: 856e 76e7 e574 ac3f 475a fbf4 8ac3 b2bf
00000100: cfed 4945 2f5c afbf b6ab 6f2a 5f15 a03f
00000110: 4bea 78fd 5c56 753f b746 5086 9ca2 afbf
00000120: 5584 dc64 6fba b13f a482 9a1c bfbc 74bf
00000130: b1a9 e49c e16d a0bf e68d 408c 417a b33f
00000140: 160e fc7c 96ae a23f a97f 56c3 d779 76bf
00000150: 6a8d 7063 7acb 613f cfab c856 dba5 a13f
00000160: 351f 6aaa 9348 8a3f 34c3 9154 2d2b b23f
00000170: 0a17 5241 65de 603f e2dd 6fb5 a465 a03f
00000180: f2b2 b26a 8765 9ebf 8b53 33de 5086 aabf
00000190: d028 693d a34a a8bf 0f6d 2325 ae7c b13f
000001a0: 141f 3637 5951 aa3f aa32 e0de f477 a63f
000001b0: e34c 563a 4564 78bf 3f2b 4e97 4d68 adbf
000001c0: 4660 a245 3faa adbf 4214 81fe 8b62 acbf
000001d0: acf0 ab8f 6a7a a1bf ea28 f9b5 7a85 b13f
000001e0: 0715 52d2 eeab a4bf ac64 ba14 988c b2bf
000001f0: 8a8f 0fb5 9bf4 44bf f8d6 1c95 bfef a6bf
00000200: 9969 d92a a288 72bf 7838 8e83 4763 b1bf
00000210: c3da 1bf6 da0d 83bf b7a9 e59c 6ad4 ac3f
00000220: 817c 4ebd 2871 96bf a9b4 31ea ddba b2bf
00000230: ac0a 0c5b b562 adbf 1f2d b53b 13a9 aebf
00000240: 6c92 6019 d02a 99bf 6544 086c ea9a 9ebf
00000250: 4faf b082 b17f a33f 4420 d6d5 6022 84bf
00000260: 0117 5302 c02f b1bf 08ce 2593 dcb4 8f3f
00000270: 3ee4 07ea 5ea9 b13f 6fec a6d9 9a69 a0bf
00000280: 6813 1051 06f8 b33f ed27 b985 d07c b2bf
00000290: 0068 3a8c a2de a2bf 7d3d fd8c a6c8 893f
000002a0: f1cf fb8c 58f0 883f c00d 7830 22be b2bf
000002b0: fcda 4b54 1bde a73f dab5 df83 c3fe 90bf
000002c0: ff29 2d02 a693 aa3f 7c50 4e06 a335 ae3f
000002d0: c24e 00f1 df82 a43f 96f1 2c3f 8213 ad3f
000002e0: 92ac 9da2 010f b2bf 9271 f300 7a6e b4bf
000002f0: c54f 5cb3 8a65 87bf 7f07 fca7 788c aa3f
00000300: 44a5 a9aa 961d b33f bbe0 641c eb61 763f
00000310: 99e5 8ce6 94e0 b13f 7c6b f571 b549 a63f
00000320: 3aed c99f 4254 b03f ab44 83f1 d504 b03f
00000330: f2a9 8f75 1d21 98bf 6102 78d8 3cae 7abf
00000340: 63a9 564e fb0e a43f 1bac 94cb 20c7 9b3f
00000350: 04d6 7fd2 13bd 973f 2cd9 9270 ad58 813f
00000360: 72f4 3292 4a35 aebf ed76 a9a0 84e8 a73f
00000370: b60f b3ae ccab 983f 270a eb83 6c12 81bf
00000380: 0e94 cb24 f8c0 a0bf bd5e 5ef5 25f1 b23f
00000390: 633e a2ea d2de babf 2e22 aca3 be6c b03f
000003a0: b14a 0b87 f502 a8bf fd6c de61 03db b3bf
000003b0: 7c1b 169a db09 a3bf f817 1cc1 0fe2 8b3f
000003c0: 5b77 708d b0ff b73f 94c0 d195 78e8 adbf
000003d0: 9213 9c99 94a7 5a3f b71c b342 b563 a0bf
000003e0: aaec 18aa 7335 b5bf 4ea6 f7ca 016a 953f
000003f0: dc27 85fc 1e6a 6bbf 67d4 5510 1557 b6bf
00000400: 7fb1 684d 246e af3f 91fb c02f a878 acbf
00000410: 88a2 b66d 199c a8bf 6730 9e28 edc1 8e3f
00000420: a641 14c6 68c3 a5bf d909 a439 256f 8abf
00000430: 90e2 4625 3604 b33f 92c7 7650 ceb1 703f
00000440: 0d17 fdd7 3652 783f a1fa 6763 650e 773f
00000450: a447 b063 3360 a33f e5dc 42f3 632e b0bf
00000460: 2876 f5f1 e2de b43f c310 bf95 0fb9 a2bf
00000470: 0c00 0aa4 3857 b13f 22ae 5cd9 9016 933f
00000480: ca93 1728 09a5 ae3f 0ab9 d900 aa99 b13f
00000490: f001 2e5f 4595 b23f 7b5d 5e9b 43d6 863f
000004a0: c196 658f 8786 b0bf aabc 22f9 39e6 b93f
000004b0: 0c09 c74d dc07 b8bf e5cd bf99 cdf8 ba3f
000004c0: ae58 1ede 232a b73f b720 61ea 8bce 97bf
000004d0: 4353 23ec 03f9 af3f 5c5c 8c0f 63b4 b13f
000004e0: 4be9 b7a0 3899 7f3f 7dfc 186f dec8 783f
000004f0: 4333 a64c 79f7 a2bf 9f5d 9453 6377 adbf
00000500: 48d0 9446 ab1e 9fbf bf60 4b7b 4de3 cfbf
00000510: b57b 2f8e f2be 8b3f 7ce6 0a9d b466 5ebf
00000520: 968b b943 b2c6 a63f 3cec cf59 2cee 9abf
00000530: ad68 24e9 cbe1 b53f 58d0 2dcc 9c67 9d3f
00000540: d49c 17c6 efda b73f 061c 2f74 4067 853f
00000550: 07ad 597b f533 a1bf d22b a783 ec3c 843f
00000560: 733e 0a7f d70c a53f 9af2 1192 bce1 acbf
00000570: bcc8 0fe7 d973 963f 3349 f199 4ccb 963f
00000580: 868e f05a 3953 c0bf c416 cdb0 6a3e aebf
00000590: 4a10 d065 80ce 823f 5b45 a2d2 61cf 623f
000005a0: 6530 f487 d653 c23f fdbc 66e6 931e 73bf
000005b0: cdbf ecb5 6876 973f edce 0b7a 8f20 bb3f
000005c0: a751 6fe9 de90 cd3f 19bb c94c 36a2 b13f
000005d0: 09e3 2b4f 54b3 8d3f f4e2 5381 bfda 9b3f
000005e0: ef24 8496 f5d9 b2bf d37d 3703 ae82 bd3f
000005f0: 24e5 d96d 000f abbf bad4 c21f 367f a93f
00000600: 3f86 7ce3 b3ec c03f a824 a88c 20c3 a73f
00000610: e282 3638 3102 b93f 3112 a476 d16f a93f
00000620: aa22 a637 4b1f ad3f 2cb4 8866 a3b8 303f
00000630: 5b47 138e 420c adbf 5fe4 aa56 dde6 c0bf
00000640: 618e 8436 5708 b03f 75cd 9169 2290 bbbf
00000650: f420 4f5e f459 b33f 6205 de67 9afa ac3f
00000660: ae21 dfb0 b0d8 ab3f 34df f72c 3f61 97bf
00000670: a965 5952 66da b53f 4e22 e8c5 586c 80bf
00000680: a26b fda6 82a1 a63f 5da0 530d ef09 753f
00000690: e7e6 43b8 4e5c 803f 3ba2 d262 8d45 a5bf
000006a0: 605a ccf4 1242 abbf 11d5 d4f4 aad5 97bf
000006b0: ce7e a4d6 7b5e c43f b8db 5e8b 2e66 b93f
000006c0: 450a 7312 3c99 99bf 07c4 e3b9 055d 913f
000006d0: 0713 fe74 0dd1 c1bf 7ad0 7f7f a45d 87bf
000006e0: 0174 80aa ffd7 b9bf 7b00 ebd9 df62 ad3f
000006f0: 0778 d31d 1adc b53f 014f bf3e 81ee 9dbf
00000700: dfed a88d 5928 a83f e41e bfd4 6c9c 8b3f
00000710: 5680 3e62 6693 96bf 42c4 e377 8b85 553f
00000720: d3c3 f347 6760 8d3f e939 2c1a 1f39 a8bf
00000730: 360d bd9f fe02 85bf 2fb6 2703 0988 be3f
00000740: 291a 5f09 613c 963f 67ae 4224 93a0 b23f
00000750: 2ae6 1e67 1149 84bf e589 2945 b0c0 8bbf
00000760: 6b44 95c7 8298 c13f 050f aff5 bac0 82bf
00000770: 76c3 94cd 55bf 9c3f 1de0 2925 ff84 c53f
00000780: 57dd ed37 bd68 c4bf 7d38 1554 330f a6bf
00000790: 6240 a039 68a0 943f 2393 5740 a7dc 87bf
000007a0: f57e aea9 4741 b33f 4233 3201 803f b03f
000007b0: 9f53 b80e 474c 823f a145 50c1 178a bb3f
000007c0: 6fae 4341 e5f4 b13f 57de a35f dd91 a4bf
000007d0: 9ee5 8f5e 474b 89bf 4171 b38c faa4 b73f
000007e0: b66f 253d c05c bc3f 68b2 a2d2 544d 90bf
000007f0: 61bf c76f 12eb c6bf 4048 29c0 6774 c33f
-0.013449430579282294 0.016118699634653233 -0.04067648963847492 -0.039157822524928276 0.0697488954736484 0.034549312958236746 0.0012979174407763995 0.05168512233283115
-0.030193497761711194 0.00021165307137655624 0.10030069429496213 -0.05657643685751102 -0.05824845069740386 -0.05045904120127625 -0.05872510496391335 -0.06381145391871279
0.07199861929533538 -0.01608196109585556 -0.05729938521972266 0.017202999775052675 0.021784419449334576 -0.05881818743829898 0.012198082079560916 -0.08278943961013582
0.06210549569597142 -0.0516255266606491 0.03918251861794037 -0.0424328650952917 -0.06266888584904917 -0.06629398254636006 0.055579361443247634 -0.07329624634744746
-0.06125018807230342 0.031413053446008574 0.0052093155314261825 -0.06178750171251351 0.0692510243648184 -0.005062815218167902 -0.032088327791217515 0.0760842292225373
0.036488249546916915 -0.005487292122239675 0.002172221221842176 0.034468511909231496 0.012833741796626089 0.07097132982904669 0.002059171451551549 0.03202547755057218
-0.0296841772912328 -0.05180599892052048 -0.047444440123017295 0.0683087196988945 0.05140188979117802 0.0438839456620362 -0.005955000325587908 -0.05743639442433456
-0.05793950772312022 -0.05543935281506453 -0.03413708690456593 0.06844298308093114 -0.04037424390211624 -0.0724577952008924 -0.0006395111359975708 -0.04479788489554254
-0.00452483507759851 -0.06792113267712974 -0.009303770671505679 0.05630810895202692 -0.02191604285655702 -0.07316386191969805 -0.057393710483684884 -0.059883690870800026
-0.024577380703834015 -0.029887831538932725 0.038083598330870154 -0.009831196332712129 -0.06713485771896545 0.01548168491419856 0.06899064267771934 -0.03205570132146184
0.07800330618927165 -0.07221701874473725 -0.03685481988686945 0.01258974187626793 0.012177173426131534 -0.07321370776485647 0.04661641506202405 -0.016596846507970976
0.05190771843497898 0.05900296642281064 0.04006099526318742 0.05678946515260745 -0.07054147930255031 -0.07981073878494829 -0.011424144362116704 0.05185296106902992
0.07467023531502998 0.005464476015099413 0.06983309391661975 0.04353110328766882 0.06378570939152875 0.06257378717716004 -0.02356382398640195 -0.006513822248508023
0.03917680102616108 0.027126800942976908 0.02318221065794114 0.008469920156454501 -0.059000330301821516 0.046695847141320225 0.02409286323815226 -0.008335922027417798
-0.032722239009480444 0.07399213066525596 -0.10496252277720823 0.06415931220920676 -0.04689757607925083 -0.07756062640548929 -0.03718458419739698 0.013614771919957733
0.09374526455982617 -0.05841423825120376 0.0016268683597797412 -0.03201071204380795 -0.08284685995833976 0.020912197125573954 -0.0033465008929498396 -0.08726627014932974
0.06138719029363226 -0.05560803969318962 -0.0480659433772575 0.015018322755871517 -0.042506479434567354 -0.012907305547291624 0.07428301248627123 0.004075818934710445
0.005937780602669707 0.005628963516299963 0.037843328398721426 -0.0632078617953656 0.08152597815702534 -0.036568152455886536 0.0677371407018656 0.01864076925919112
0.05985287298589233 0.06875097771419206 0.07259019445155679 0.011150863818143666 -0.06455275774859627 0.10116922695555056 -0.09386994265426923 0.1053589344372124
0.09048675701919492 -0.02324885004080165 0.062446711135328424 0.0691587365111998 0.007714482500427454 0.006050938494410405 -0.03704432545337124 -0.057551483109075756
-0.030390430624905457 -0.24912422676312038 0.013547797168880974 -0.0018555415919493659 0.044484682814775287 -0.02629918382806927 0.08547663156460557 0.028715562784285303
0.0931844576476693 0.01045084337773795 -0.03359954004994319 0.009881828086596576 0.04111360002309263 -0.056409733610938775 0.021926312187084504 0.022259899993806797
-0.1275397962609654 -0.059069952089470884 0.009182932955816753 0.002296153125890638 0.14318353308078993 -0.0046678330749465565 0.022912632087525076 0.105965583130281
0.23098360441384821 0.06888141035754493 0.014502199808235543 0.027201645153556123 -0.07363829540931353 0.11527526453527707 -0.05284882870632604 0.04979867112835153
0.13222359283195037 0.04641057698251788 0.09768970129381274 0.049681230289966634 0.056879377883040164 0.0002551459242877165 -0.05673416122739524 -0.1320454285794623
0.06262726861000935 -0.10766806676274661 0.07559134771793535 0.05659945028220183 0.05438759001805536 -0.02283190452541746 0.08536376486281107 -0.00801915506328146
0.04420097626162735 0.005136426732157498 0.007988562582329673 -0.04154626685459958 -0.053238479979133 -0.023276015466042802 0.1591334150370955 0.09921542074776724
-0.024998606325207246 0.016956414671714295 -0.139192278027757 -0.011409077778786737 -0.1009521285308921 0.05739497695094627 0.08538974025893263 -0.029230136351386275
0.04718284467932298 0.013481950991163179 -0.02204666113505057 0.001313577842264616 0.01434403122263631 -0.04731080240718539 -0.010259618043738965 0.11926323248891245
0.021714702794065985 0.0727626765753314 -0.009904991111272816 -0.013551118002571758 0.13746676202075334 -0.009156666395831356 0.028073635742831247 0.16812123598697407
-0.1594463847247691 -0.043084720624947594 0.020143154637537804 -0.011651331568779682 0.07521484272592345 0.06346893338395623 0.008934550415725271 0.107575878806776
0.07014305919045126 -0.04017535965425328 -0.01235061414080257 0.09236112532693587 0.11079026692226432 -0.015919995647595192 -0.17904882867832853 0.15198990710138283

fc.2.bias f8 [150]
00000000: 0d61 a35e bfe3 853f 621e e354 aae9 adbf
00000010: 1b7a cb31 24c0 973f eeb1 66a1 aaae b6bf
00000020: 8f02 0f51 da9d b13f 000e 9832 9ecb acbf
00000030: a6b8 5876 7465 b33f a898 e49d 2a41 a13f
00000040: 01f5 be19 6270 9dbf a2eb 6fbe fe82 86bf
00000050: b0d9 901e ae66 ad3f 5482 204c a853 af3f
00000060: f3fa 909a edc1 c7bf 27ed 4048 d23e b83f
00000070: 28cb 06d9 9ffa b03f 3ff7 2b7f ebd8 b33f
00000080: f1ec b51b a7ec 7fbf f540 de90 a6c0 b1bf
00000090: ffff 21a6 3bc2 b63f 6be0 4d43 6d96 b1bf
000000a0: a142 9b39 ca26 96bf 1bcf 625d ebcb c1bf
000000b0: 26dc c2ce 2d43 b2bf e5c0 d38e 1866 b0bf
000000c0: 15a3 8a3b 635f b63f e0f0 7fbe f689 63bf
000000d0: ada6 96a7 df91 af3f bce0 c58c f802 c13f
000000e0: fcd1 cd57 62a6 7bbf ade3 cb61 b250 b3bf
000000f0: 40e6 c110 ee64 913f 0314 30fa 774b b03f
00000100: 3142 d23a 9bb4 7cbf 4d63 4218 b62c 98bf
00000110: 591a 9ae3 b9b7 963f 2aed a262 a34e b13f
00000120: ed85 0ec3 de0b bb3f 52ae 6f7c ee58 903f
00000130: 1c4a c8d0 95e3 a1bf fab6 4233 3d32 9bbf
00000140: 23ec c13a c5ab c03f 079d 5c18 e97c 90bf
00000150: b683 5a63 7b54 b33f 51b4 dc00 0f17 963f
00000160: 47d5 7f79 0379 b13f 9e0b 18b5 ff91 b63f
00000170: 43dd cdae 636d 973f 2ed4 2f7e 4daa 9fbf
00000180: 798f cd9f 3547 a63f fe2f 8b1e ec6e a63f
00000190: 3c17 5bfe a130 a73f 069d 2042 e194 aabf
000001a0: 33d0 3c77 8973 af3f 63a2 80d4 934c a13f
000001b0: eb51 40f9 aaad a0bf 723a 21d9 18ff b7bf
000001c0: 87d8 c8de e319 88bf 3bd8 f929 d509 90bf
000001d0: 2fd5 75eb a554 9bbf 0b85 f72c 2aca af3f
000001e0: 6324 e5d7 9902 9fbf 5676 4b9c b6d6 743f
000001f0: 655e 416d bbdb a9bf ba60 5bd7 310a a83f
00000200: e0a1 c1cb 0af1 ac3f ab3f e729 f786 aebf
00000210: 4f50 835b 9f44 8dbf 4f99 767a 1f38 a2bf
00000220: 6b95 798a f537 b0bf ab6e b07e 602a a83f
00000230: 3d4d 7978 b577 9abf 8881 4763 4b54 ab3f
00000240: ca79 9647 3e55 aebf 8bf3 2f5e fde0 87bf
00000250: c37d 32cf 0dab a0bf 7f36 fd90 77ef 90bf
00000260: 701b 82c5 7ebd b3bf 43de 811c e3ae 99bf
00000270: 1a23 3447 5c38 623f 398a 497d a89e 8a3f
00000280: e996 9dae 0c9a 84bf a78e 633c 457a a83f
00000290: c802 ffa2 86fc bb3f 8794 0a22 3ab6 983f
000002a0: ecb6 9f5a ad21 ac3f bae7 e116 17d1 a63f
000002b0: a24e f7bb 6a6c 84bf 712d 3d82 bc15 aa3f
000002c0: 4c78 5811 2270 93bf 0673 859d 5ee9 c33f
000002d0: 41ed d2d1 836e a3bf 5bfa 07ab 6e15 743f
000002e0: 878b 8b6c a2f1 abbf 9454 927e 1fac ac3f
000002f0: a203 09a2 147b 9e3f 69e1 3e98 42a2 b7bf
00000300: 6881 a6e2 d91c 69bf 613f b96d 23e6 933f
00000310: 94c4 7398 5415 ae3f 7149 4c9b 752d a23f
00000320: 53c1 b47c adf4 b2bf 737d aeb1 473e 903f
00000330: 75ce 9e17 fccd 893f 5b70 595a 0f1c b0bf
00000340: 7361 b3bc f770 b2bf a7c1 a89b f415 b1bf
00000350: debd 08a6 44a4 8d3f 39ac aa63 1e11 be3f
00000360: e2e7 0dde 612a a83f 90d1 1c1f e111 95bf
00000370: 494d 715c 3a33 b0bf 873a 5ffe fa2b 98bf
00000380: 39df d86f 6283 acbf 4742 3fe9 3154 b5bf
00000390: d23b 2026 060e ad3f c8b2 7fd9 28cc a1bf
000003a0: 5a4f 5a7d 31bb b3bf d8af 506b a515 a23f
000003b0: a4ff 2d9e aa73 ac3f 3232 9f32 1c27 823f
000003c0: 8248 4405 ac1b 7fbf 6aea 185c d7b8 b33f
000003d0: 11a3 5cb9 434f b73f 103d 66f4 46ac 8ebf
000003e0: beba f427 96f4 9c3f f0f4 54e9 b15a 953f
000003f0: c2f4 c77a 8886 833f b114 9534 43de a63f
00000400: 5b2a 8ab4 7711 a5bf 5e4d e76c 6270 b0bf
00000410: d92b e4e4 676b a13f 8f1c c9ba 62d7 b93f
00000420: 1825 5586 7410 b0bf 508e e5af 7c4a b43f
00000430: 44ae 9175 99cd 9abf 1852 30fe edbf aebf
00000440: d571 734f a61c 953f 6807 ee99 6824 a43f
00000450: f522 3aea 7ea4 b8bf 2b65 ca94 2538 a43f
00000460: 71fe 6c2b 38b0 a13f 6b4b e7b9 76c5 9cbf
00000470: c0c9 f252 d075 b23f 2b56 0997 2c3f ae3f
00000480: fedf 7017 f59b b43f 4960 07f4 825b 9fbf
00000490: 5a56 98cb 6501 a63f a38a 0a3b 5477 993f
000004a0: 5ecd 847d 37d2 773f 4ce5 378c ab38 a93f
0.010688300204876567 -0.05842335020275581 0.02319389871524367 -0.08860269966562104 0.06881489256830718 -0.056240981746693564 0.07576682938881393 0.03370030572323063
-0.028749020406157125 -0.010992040812188911 0.05742401240461292 0.061185130398602766 -0.18560571715530436 0.09470857872013437 0.06632422493457268 0.07752868513850063
-0.0077940490403947 -0.069345865600784 0.0889012604329764 -0.06870158093613703 -0.021632346883793677 -0.1390356260286517 -0.07133756921653908 -0.06405786025038969
0.08739299968386789 -0.0023851222249487852 0.06165980263479063 0.13290316461257656 -0.006750473167688838 -0.07545008552177875 0.016986579678336833 0.06365156038380353
-0.007008177152912285 -0.0236080601031035 0.02218523456260821 0.06760617406955718 0.10564987432601188 0.015964247078882395 -0.03493946241009757 -0.02655883431787396
0.13024201745051397 -0.016101495849537375 0.07550784278511355 0.021572336604709644 0.06825277057926825 0.08816526576269587 0.022878224891852438 -0.030923090769608468
0.043512035138319534 0.043815020302275784 0.045292913722319444 -0.05191711361140432 0.06142835217033884 0.033787364664310336 -0.03257498066537664 -0.09373622227688275
-0.0117681314814997 -0.01566250866604711 -0.026690094467501865 0.06208926962768587 -0.030283359338941895 0.0050875790809335655 -0.050504548155626584 0.04695277932995752
0.056526505825619244 -0.05962345491900519 -0.014291043262723372 -0.0355844342223458 -0.063353868777616 0.04719831034182439 -0.025847278097285587 0.053377490872438094
-0.05924410461306058 -0.01165960258185252 -0.03255503801596717 -0.016538494324143557 -0.07711021730402279 -0.02508120404715287 0.002224140387287921 0.012997928927863988
-0.010059451178402639 0.04780784952324995 0.1093219898166452 0.02413264115115912 0.05494443637131305 0.04456398157431303 -0.009972413884418888 0.05094708528357728
-0.018982441242876555 0.15555937472790776 -0.03795253692939094 0.00490325193140836 -0.054577899694570546 0.05600069446624292 0.02976639021858641 -0.0923196431821275
-0.003065515096025862 0.019432595798490996 0.05875648842801087 0.03550307770469175 -0.07404598517019183 0.015862579555343936 0.012599915953479294 -0.06292816119952375
-0.07203625065756629 -0.06674126434587056 0.01447347289749151 0.11744871075886544 0.047198351246109174 -0.02057601692577432 -0.06328167683505116 -0.02360527207911869
-0.05568988433191042 -0.0833159632159176 0.05674761977581223 -0.03476073889746584 -0.07707509336824839 0.035321397161481805 0.05556996518043825 0.008863659186226423
-0.007594749408115333 0.0770392036292066 0.09105323100505937 -0.01497703011844334 0.02827677363273539 0.02085378634113949 0.009533945319157747 0.04466447846292832
-0.04114889220098369 -0.06421485098626564 0.034022566500503344 0.1009427743930351 -0.06275108604053903 0.07926158232071967 -0.026174924660536072 -0.06005805709734008
0.020617102240849967 0.039340275564440585 -0.0962600061267372 0.03949086610118465 0.03454757242297724 -0.02809701451935657 0.07211019539935304 0.059075730740613196
0.08050472090042146 -0.030622526306473472 0.04297941313067773 0.024869266608798523 0.005815712698950063 0.04926048361444177

fc.4.weight f8 [3, 150]
00000000: 13ca bfa8 957b c5bf 0e08 cf2f 4f47 e8bf
00000010: a81d 2e10 cac2 b5bf da5a d026 b035 613f
00000020: 1788 cafe 1fa2 d9bf 15a7 e566 6e56 f4bf
00000030: a99e 2ce3 ba24 e2bf 8232 dc38 ec09 dd3f
00000040: fe9f 4a93 582a e1bf 6c72 d85a 16a3 aa3f
00000050: 0805 fd43 1e64 c5bf 2582 c8fc 740f dd3f
00000060: c52e 4903 8621 f23f a2e8 9544 f2fa c03f
00000070: 00c6 42a2 537c e53f 6baf 130b b03d a3bf
00000080: 5b01 362d 1e47 b1bf 55e0 efd1 3d35 e53f
00000090: 6e8a f6fd 91f2 cabf cbe6 7043 58b8 e0bf
000000a0: 30cb 15ba 1449 37bf 6d2c cd58 eefe ad3f
000000b0: ce57 49fa 2f0d b23f 18cc cff6 b6f6 ccbf
000000c0: 9e9d 13f8 4301 e0bf 5ca2 a9cf 6f65 c13f
000000d0: c32f bfec 934a e43f 1c38 ecea ec35 e43f
000000e0: 3fd4 140b c84a b13f 6e96 8869 f73f dabf
000000f0: 7c8d 5641 85cf 8f3f 1413 5c3b 9cec adbf
00000100: 6646 5e2d c498 bebf 039f 0454 2352 cebf
00000110: 7185 4ba8 4698 b33f a3b4 4cc2 8e1e c63f
00000120: 9129 20c9 ebb9 d03f 53bd 7774 b1e6 81bf
00000130: 98d4 c982 b070 d5bf bb66 983b b5cc aabf
00000140: 3ed3 02e5 18b6 d83f 2b51 4f26 6005 b7bf
00000150: 6fe5 731a f971 bfbf 2e0f bd55 b570 a13f
00000160: 92f5 40f4 458d b93f 84c8 790e b3df c13f
00000170: 7d87 9eca b4d7 d33f 1769 ee19 36aa e5bf
00000180: fa3b 87af 5cd0 c9bf 3114 2cdd 455c b53f
00000190: 4a20 35c6 dca4 743f 7384 47fc be71 c63f
000001a0: 9120 3bac 8834 c23f 31b5 7cec cdb5 debf
000001b0: 2722 db1f 60c8 bb3f 7f8d af31 1e14 cfbf
000001c0: be9a d07e e403 c2bf 3123 66f6 4809 943f
000001d0: 6947 5d69 e7f0 d2bf 0847 a2b9 904c d6bf
000001e0: de67 b5cf 76b4 d2bf 1c53 fb78 d8cd d3bf
000001f0: 6156 2f44 7834 8bbf e58d 8b72 5b37 ec3f
00000200: f5c0 3bdf 851b b5bf 6b35 08bb f645 92bf
00000210: d160 67b8 6f83 c6bf 8100 b814 b56c adbf
00000220: 8f9d 992d 10a2 d2bf 291a edd8 278b d1bf
00000230: f3a8 bd88 1e95 dcbf 0fe2 3468 a4cd ca3f
00000240: 9190 6875 bee8 d2bf bd21 4d19 6bb2 d0bf
00000250: 470e 095a 7b22 afbf 2b31 2430 d6f5 d8bf
00000260: 39cf 563d 2a97 b8bf ac66 ee69 20bb de3f
00000270: cacc ee96 ae71 d7bf cc0b 2b33 7ff6 c5bf
00000280: 1ff0 9466 911a d13f 1725 305c e2a4 45bf
00000290: ce1a 8708 2e42 b23f 8024 6fd6 a268 d23f
000002a0: 518b 78af a8fb dd3f f31a adab fd17 d8bf
000002b0: 4eaa 549f 1203 b93f 3ad8 3026 f483 d6bf
000002c0: 71e1 00f1 fd5f dbbf 2d6f d67e 8a92 df3f
000002d0: 46db 6983 0609 b03f fefd ac08 ee82 c7bf
000002e0: 757d fe9b 863b c53f 4713 2568 c108 e4bf
000002f0: d7cd c816 8866 c13f 3850 0c04 242a d5bf
00000300: 2556 9037 7dff c53f d618 d553 db08 aebf
00000310: bbd3 b7d8 0035 7f3f 075b a963 e99a 9fbf
00000320: 22e4 2fa9 ed88 dcbf 616f 3103 56b4 bcbf
00000330: d4c6 e01c e887 d6bf 674e 2910 3baa 9a3f
00000340: 9a41 a3f8 ae70 cb3f b88e edea c6ab b5bf
00000350: ad9e 6cd0 de63 e2bf dca5 b662 74ac c63f
00000360: 47bd d380 ac0f a1bf 477c 247a ec94 cd3f
00000370: 9848 8f48 8b32 e1bf cf6a bb60 0811 8c3f
00000380: 7aae 4543 6b91 c5bf cb74 4989 3a91 b9bf
00000390: ec78 5a67 f882 9fbf c72d 95a2 53b4 d43f
000003a0: 9186 023d 4673 a73f aa19 955f 448c e7bf
000003b0: 4d88 b3c6 bc11 a53f 79c2 666f 8998 90bf
000003c0: 607d e31e a107 d7bf adec d05c 828a bb3f
000003d0: ca9c 86e5 6e74 af3f 5cf9 f80d d494 e5bf
000003e0: 01c9 d0ec 187b c43f 410c 2117 65f3 a6bf
000003f0: ada1 610b 7bca c23f 22a1 2e69 4e8d b3bf
00000400: 55ee 3956 318a b73f 5a39 e6ac 489a e1bf
00000410: 5289 12b7 02fb c5bf cd3a 7a6d 285d d63f
00000420: 98f3 1599 b598 79bf a5b8 18ff 6cf8 c2bf
00000430: f191 f8e2 76c1 e03f 9dbb a89f 9463 c0bf
00000440: 5550 3b32 d44a c8bf 8a8b 7736 e5ef cdbf
00000450: 8d07 6640 e04d c7bf 7cb0 ccf2 906d b7bf
00000460: 5969 786b 7673 923f 651f e1a3 65a2 9cbf
00000470: 6f6f 437a 1040 d83f 761b 9e9d 97f8 d33f
00000480: 43f5 9cae 060d eb3f 6dbc 56f9 fc33 cc3f
00000490: 6bf4 d7b0 3eb9 d3bf 3c06 5460 71c6 f03f
000004a0: 22e6 4e3c dda8 c03f f18f 1102 74c3 cbbf
000004b0: f7f9 0a83 8035 a93f c2ba 45ce 9528 b13f
000004c0: c24a c88d 63c7 cdbf 7624 65f5 6394 b6bf
000004d0: 2e9b 501b 6072 b3bf c47d 963a ea8f 98bf
000004e0: bf06 b8d9 504e c33f 9248 c3f9 b8a1 9bbf
000004f0: 58e5 72d2 77e2 96bf e5c0 68f8 2990 a23f
00000500: 162d 1d36 cf0c 90bf 81f5 3769 6b35 973f
00000510: 4f81 23f9 07c3 75bf 859e aa4d 6c20 b5bf
00000520: 30be 88db d11e b7bf 1ffe 26de 32a3 9a3f
00000530: 4887 ddce 0105 8e3f b708 b7be 16ee b3bf
00000540: d60e ab99 4645 adbf 7046 99e2 94f5 b0bf
00000550: 1812 eb7c 9217 c6bf 91f7 a784 52b5 c73f
00000560: ec70 fe94 027f aabf 5d43 75f9 03be 973f
00000570: b2ee 7a91 1597 b93f c7d5 1dc1 be8d 723f
00000580: 74a4 deb5 4c9a b2bf ad40 7a7f d99c c23f
00000590: 2c23 7443 54ec 8bbf 386c b84d b4af b53f
000005a0: 71dd 2520 b923 803f c665 d1af 543e c7bf
000005b0: 2c81 0ccd 287c a8bf f660 f69f 7a58 c03f
000005c0: 7d78 e1f9 2bcc aebf 1e99 b4af 3092 c33f
000005d0: dd42 39cf 0c46 b23f b6d2 b1bc c09e 923f
000005e0: 5996 dcc0 7365 c73f 86b4 d173 7d8d acbf
000005f0: 8c96 e7e8 bd51 adbf 72f7 4160 6484 49bf
00000600: 46a7 8f08 03fd b4bf 3b09 db7f 98e5 b03f
00000610: 19a9 e5b5 5843 7cbf 09fe 3f29 73d5 a1bf
00000620: 6fb4 144e 9202 903f 941e 7f8d 1bf8 50bf
00000630: 7873 5384 9762 c03f 3624 4e9d c71c aebf
00000640: 36d7 4832 c9b2 883f 5a2d d634 fad4 6abf
00000650: 6b5e cdf4 d5a4 7e3f fa61 3f19 7ec7 c73f
00000660: 377d 338a 73ec 9a3f e267 1213 a729 d23f
00000670: 457a 8e5f cce4 9abf a6d7 9177 4c59 ca3f
00000680: ff2e ee69 c840 ad3f ed0e fbe8 ffe2 c13f
00000690: fbc4 7318 813b c93f 1f1b 409a 8ad8 a0bf
000006a0: ddd3 3741 a9dd 7fbf f564 6aab b2a0 a43f
000006b0: b321 edc8 a452 9b3f e1ee a985 d825 af3f
000006c0: 5b7e 5579 fb5c 963f 3c11 b0a5 a15e b43f
000006d0: 806d 6c9d 3279 b03f 6a02 b924 bc21 d43f
000006e0: 1a99 7d07 8b0d 92bf e817 8792 8936 a63f
000006f0: 737f 3aaa eaa8 bdbf 898e 1b0f b451 913f
00000700: 78d7 3398 f3e7 b3bf 3d6f c9f2 b3f1 69bf
00000710: 29b2 4f0d 3d73 91bf 4baf 84d7 ad84 c5bf
00000720: 589b 2fb4 2c7f c63f 9ef1 f0fa 80ac b0bf
00000730: 2ad7 5fce cc72 be3f ce0c 84ec 2dae 73bf
00000740: fb2a 2e0c 8606 cd3f 73f3 6148 37f1 8c3f
00000750: 0ff3 1884 0b68 c4bf d388 03f1 820f b0bf
00000760: 5099 e136 6c3e b2bf fec7 a7e3 d5e5 c1bf
00000770: c01e a923 fdb7 b4bf a8b1 6ce6 ae8f c03f
00000780: ebec 10b1 ed10 b3bf 3c44 ae4d 18e8 9c3f
00000790: 92cb 4aa7 abcb 953f 111d 7de9 441b 7d3f
000007a0: bcf2 7dec edd0 68bf d318 40aa fd97 cdbf
000007b0: 5010 65d8 b068 9dbf 1eec d6b3 356d b7bf
000007c0: d18a 67e0 bd0b a2bf a352 1f64 b4d0 913f
000007d0: 11e3 9e84 f999 cabf c128 6063 07d2 a93f
000007e0: 556b 678a 8ab6 b33f 1308 6fa0 450c 75bf
000007f0: c233 3528 6398 ce3f 7c21 3088 5161 b63f
-0.16783400287347713 -0.7587047513736722 -0.08500349898360204 0.0021007957898392217 -0.4005203235811918 -1.2711013812463012 -0.5669836461065262 0.45373063614605524
-0.5364191891467269 0.052025507535493926 -0.16711786575073284 0.4540684193216598 1.1331844452242177 0.1326582751169712 0.6714265984684857 -0.03758001456466683
-0.06749142268927726 0.6627492046673163 -0.21052765751399555 -0.5225030247886137 -0.0003553081133624179 0.058585594501516215 0.07051372395048291 -0.2262791352401059
-0.5001544804808196 0.13590810432221445 0.6341037391625765 0.6315826977095216 0.0675473238996611 -0.4101542025185613 0.015532532745800458 -0.058445818182042114
-0.11951852901099755 -0.23688165285533822 0.07654229744686859 0.17280754554068264 0.2613477195851824 -0.008740793577969674 -0.33500302097611145 -0.052343047642535244
0.3861143337665459 -0.08992577491091384 -0.12283284087961531 0.03406302138912874 0.09981190884805916 0.13963926512548508 0.3100406626418744 -0.6770277506323364
-0.20167120524135368 0.08343922280990125 0.005040037536055373 0.1753462535698734 0.1422282067271721 -0.4798464593357777 0.10852623727544906 -0.24280145097791814
-0.14074379150516408 0.019566669501304538 -0.2959536103199896 -0.3484231770354289 -0.29226465496105714 -0.3094388181173586 -0.013283671933019993 0.8817574727258345
-0.08245121669802187 -0.017845015683680836 -0.17588612083523583 -0.05746999624170802 -0.2911415524781313 -0.2741183870715838 -0.4466015181884721 0.2094007023640789
-0.29545556512517474 -0.26088979216413205 -0.06080995058121324 -0.39000467969232727 -0.09605659482514008 0.4801713022694496 -0.36631359805614905 -0.17158498762554897
0.2672465802932055 -0.0006605248712513748 0.07132232387730683 0.28763647976717976 0.4684850419600269 -0.37646428838017626 0.0977031363478684 -0.35180381517000436
-0.4277338841962069 0.4933191527031678 0.06263771732652143 -0.18368316100712428 0.16587908379458907 -0.626068786056387 0.1359415160419377 -0.3306970634014337
0.17185940945698622 -0.05866132162422992 0.00761890726743258 -0.030864378650529847 -0.44585744402098915 -0.11212670877415355 -0.3520450860988664 0.026040003644381218
0.2143763269473425 -0.08465235934778093 -0.5746912070071254 0.17713789768212862 -0.03332270691486854 0.2311072918318777 -0.5374199311429662 0.013704362346677183
-0.16850033554816318 -0.0998722634480657 -0.03077304964846743 0.3235062682840319 0.04580134863614405 -0.7358724467128941 0.04115095067551575 -0.01620688192787376
-0.35984066025226547 0.10758223310488076 0.061435189741411 -0.6744175217534507 0.16000663340816604 -0.04482570559823574 0.14680421882372965 -0.07637491290973178
0.09195240359434227 -0.5500834824504566 -0.1717227357776872 0.3494359082332437 -0.006249150626328602 -0.14820635276686747 0.5236162598635571 -0.1280389575562965
-0.1897835965415903 -0.23388352546234287 -0.18206408638439733 -0.09151559760783984 0.018018579778165875 -0.02796324551334752 0.3789101785639479 0.31204786674827945
0.8453401003277253 0.22033655333277427 -0.30818145055656626 1.0484479677983378 0.13015332646118433 -0.21690225697523105 0.049236312862820535 0.06702553068110276
-0.2326473657891111 -0.08820175877657896 -0.0759639803587617 -0.023986491990965822 0.1508275092201554 -0.026984110111535183 -0.022348282069946407 0.03625613362635408
-0.015673864057402197 0.022664717003853866 -0.005312949319176432 -0.08252598663477258 -0.09031402215691098 0.026013178643323195 0.014657987714318602 -0.07785169750335084
-0.05716915727455578 -0.06624727756686766 -0.17259436702274011 0.18522101857518838 -0.05175026005528757 0.02318578920432245 0.09996161271822748 0.004529709943985555
-0.07266692581346651 0.14541166996469226 -0.013634355839273825 0.08471228501768813 0.007880636495186196 -0.18158968529568947 -0.047822260885597906 0.12770016489663022
-0.06015145707418499 0.15289887027137977 0.07138137873813429 0.01818371917439051 0.18278357426713646 -0.05576698340232959 -0.05726426570963125 -0.0007787218205661374
-0.08198565444004399 0.06600335237002224 -0.00690016415169683 -0.03483161810435937 0.015634809508970834 -0.00103571596808819 0.12800878487805867 -0.058813322021770295
0.012059757086813155 -0.003275383648263447 0.007481418387065379 0.18577553017418308 0.02629261523258927 0.28379227507104876 -0.02626342137556949 0.2058501800381098
0.05713487904639968 0.1397399795151765 0.19712842649418136 -0.03290207989635107 -0.007779751922034142 0.0402885278937876 0.026682448161666716 0.06083561545980643
0.021839074402463115 0.07956896109687234 0.06434933036182677 0.31455901704979417 -0.017629787761870387 0.04338483728092496 -0.11585871368379035 0.016913236066911117
-0.07775804963952548 -0.0031670107476155216 -0.01704116243120005 -0.1681115438781212 0.17575606153624324 -0.06513219954007929 0.11893920935093819 -0.004804782285876287
0.22676158518546416 0.014131957909052173 -0.15942520093985776 -0.062736686555158 -0.07126499500154648 -0.1398265229796038 -0.08093244667645205 0.1293848633880661
-0.07447705815222931 0.028229121915107167 0.021284753881171854 0.007106084048991394 -0.0030293127965122773 -0.2312008935261419 -0.028719676215829104 -0.09151015892614153
-0.03524583210289268 0.017397707568152964 -0.2078239343225268 0.050430518036664214 0.0770041072750421 -0.005138656596445318 0.23902549231789122 0.08742246222403155

fc.4.bias f8 [3]
00000000: 375c de63 9a80 a9bf bb19 d620 a624 a53f
00000010: 0f98 9642 752f b83f
-0.049809288683882284 0.041295234211293295 0.09447415233316313
