car_ros2/car_ros2/losses/exp4_delay.pth (torch, 202669 bytes, 8 tensors)

fc.0.weight f8 [100, 40]
-0.06566813768283017 0.042937578562873197 0.11883299332034532 -0.149054699037696 -0.06034884140060087 -0.12138595601758947 0.14752668863735718 -0.16265078308484923
-0.07906666104055084 -0.0699392400918934 -0.10425276215058964 0.10430456908692076 -0.17334874071818893 -0.16861650089338923 -0.08216213117786554 -0.09694345169294208
-0.0941148967678885 0.06945937470693704 0.0911926099244541 -0.11113997240251677 -0.04221142037819963 0.07196462055171662 0.10061824847340611 -0.14111301283893926
-0.032257468236066865 0.14886933680898823 -0.11692345619473857 0.061941788754557366 0.023168651595663014 0.0799861387738999 -0.15210162625501056 0.0670390627687988
0.09482585719776772 0.2490008189571847 -0.018160895750425933 0.40100297200494284 0.13562987532654852 -0.026701176562231477 -0.10556087797509688 -0.016435899526562388
0.03749767571185038 -0.1447442791393315 0.0007605873741005578 0.00979832775525269 0.3559885737536059 -0.1961585793462478 -0.006516359888884909 0.009562185316104322
-0.05803878854976214 -0.28462425585569473 -0.0446668140593693 0.026880980884100184 0.3125560405658208 0.005319677274768137 -0.05773941113295771 -0.025576116708450128
-0.25275008328230425 -0.6324360732138973 0.12753356636419325 0.17281925182260524 0.0989886354346431 0.15658086072573033 0.22178075135764042 -0.030059612363163218
-0.12093767785945148 0.17612297532803847 0.04776330697030423 0.3020820591731449 0.019898507481945382 0.10026360183618178 -0.13390523316818964 -0.04836749408603701
-0.3756102340471321 -0.03245357384546776 -0.05667105695962543 0.0718962891799579 0.1441940378763958 0.12642424994969229 -0.021039755828279303 0.004073153424274209
-0.014100496853086395 -0.10957166249827126 -0.0026361254568492555 0.26058308822719944 0.07723726050430586 0.02463030706821378 -0.1260624361896582 -0.00844324398197592
0.027957964337968256 -0.06384280456264982 -0.15368566024619296 0.04438401400067314 -0.019364156161504276 -0.33452871813801555 -0.09410162342176553 -0.04866182240862146
0.12693651732874237 0.02666594751963591 0.04982331792693842 0.012385095059456274 0.7942357272576861 0.1612002450828759 0.00014300425647444952 0.03628989262697105
-0.013963451683422662 -0.39460390469319023 -0.007974684933197902 -0.2145769120629968 0.019427729623382864 0.019341059227476642 -0.7330884397539558 0.09160443020207668
0.03713876244206882 0.018566148911549084 0.01410239099464907 0.5023700540299632 -0.012151184612287147 0.16858813391580318 -0.024143277844085303 -0.025051777432457296
-0.006808588079891729 -0.06542124761533463 0.0013655792721982726 -0.12805206965508187 -0.03788439980338453 0.13876926075489462 -0.11607524653728597 0.0657916408327804
-0.13279309922624644 -0.17294454166207857 -0.05079355642749175 -0.12886089042183982 0.06775943188342118 -0.013142952129318923 -0.3940528097893601 0.0970882490061472
0.05865739078063073 0.014778345489296935 0.11721947633002279 0.1045312304841176 -0.14181950629958562 -0.09967188244420667 -0.12407575518312629 0.04399994599502764
-0.03528708611086059 -0.055102874611448964 -0.10835718659161922 0.15645061298029717 -0.010847650233866562 -0.01681999738625377 0.12181702741310668 -0.16336048165416678
-0.199761837401143 0.005775485734644495 0.022055561622042426 0.020690246057444787 0.004275839129697148 0.12219596406052737 0.1264140928572295 0.05249100638041847
-0.10199694075403973 -0.10831773171249882 0.0480619086886096 0.18439458087602836 0.07865493759115665 -0.08521590922983287 0.0726670486295247 -0.057506842255973516
0.3023724135140082 0.25771078613017784 -0.013806311026696202 -0.031931652041580515 0.1280474670629401 0.3365763750369721 0.23668231587334873 0.08594815340500284
-0.14336487498831255 0.11125918630815004 0.11840250710085341 0.018101046124946323 0.47114420858770223 -0.0122554667626275 0.08003621539149014 -0.03739056623311364
-0.07089165753883211 0.29635838967601913 -0.04823840736723778 -0.0433590494759701 -0.05607842286804505 -0.032976478388061156 -0.0748053752548207 -0.18838252841502043
-0.2191942030737707 -0.08082465739117231 -0.010702862405638372 -0.6391132631149558 -0.23539531330998822 -0.11965455184308874 -0.019272006925218906 -0.03378922494718582
-0.077177921381854 -0.05563575652442101 0.012438346154877883 0.1967694940285812 -0.05579525662909363 0.3163622221857326 -0.033148651749246846 -0.060312937462521476
0.40240366021000734 -0.060716426431676344 0.7740162637666043 0.0006752824416772248 -0.02074381174403546 0.09053532761832521 -0.004580048333960465 -0.13477772895048443
0.14470122634509308 0.09455293245594248 -0.2848782731931357 0.003631826061140443 -1.1447932990756233 0.028645353014365414 -0.015716224499972165 -0.12004193206848908
-0.0224718861194756 -0.38959965166001653 -0.02327869923228934 -0.02462676946471443 0.01891641754680929 -0.0028036928940458118 0.4843251375678194 -0.05373187411439531
-0.010108956452515076 0.027152968155178044 -0.013570340995853549 0.1712705270843546 -0.11638631345665142 0.040749377691440325 0.0007181179167421131 -0.0004228243886007687
0.0737878074615243 -0.013293607824139192 -0.11822194800015716 0.009472761583288646 0.17153331650762935 -0.04293868812586421 -0.052027656382765075 0.101219512720557
0.19160621333792613 -0.12721428777067284 0.018572255000904887 -0.04998683430858885 0.20290014160559258 -0.10057931657223844 0.09491288513394351 0.1136690396394794
00000000: c6aa bc87 a0cf b0bf 64d9 640f eafb a53f
00000010: bd25 ffcb d66b be3f a94c d770 3914 c3bf
00000020: 688a 5518 0be6 aebf b60b 4a67 2613 bfbf
00000030: 2808 7e8f 27e2 c23f f354 02a9 bdd1 c4bf
00000040: 6182 5f73 b63d b4bf acda e6bc 89e7 b1bf
00000050: c756 f41b 4fb0 babf 083c 0d49 b4b3 ba3f
00000060: e3fc 17a2 4a30 c6bf 8597 73ba 3995 c5bf
00000070: 91eb 60d2 9308 b5bf 7a21 953a 49d1 b8bf
00000080: 363b aff3 e917 b8bf d553 c4ee 16c8 b13f
00000090: a82d 431d 6658 b73f 5c45 bf52 ab73 bcbf
000000a0: e78a 153c bc9c a5bf a219 bdfb 456c b23f
000000b0: fcf6 9216 1ec2 b93f 7775 97bf fd0f c2bf
000000c0: 4b57 4006 0d84 a0bf 6264 7c82 260e c33f
000000d0: 72df 7d14 b2ee bdbf d1c2 e989 d5b6 af3f
000000e0: 334a 95e3 85b9 973f c6ce 2aba f879 b43f
000000f0: 0083 37eb 1078 c3bf d97f 25d6 7829 b13f
00000100: a9c5 7ae3 8146 b83f eb95 0c43 42df cf3f
00000110: 2aaf 4115 c598 92bf c80a 975e 08aa d93f
00000120: b6ac 71db 515c c13f e0e4 65a0 8d57 9bbf
00000130: cbdc a3a6 0906 bbbf 52a7 c98b 92d4 90bf
00000140: a281 b735 e532 a33f 03e0 9704 fb86 c2bf
00000150: cfaf e1f2 44ec 483f 0049 1d4a 2511 843f
00000160: f75e 814c 84c8 d63f 3c9c 8f6d b91b c9bf
00000170: 1fa2 c909 e6b0 7abf 870b b0c9 5695 833f
00000180: f9fd 7095 42b7 adbf 5e1b a3a7 4837 d2bf
00000190: 5af8 3393 91de a6bf c15e 2017 b086 9b3f
000001a0: d16f 190d eb00 d43f 14f9 b9fe 15ca 753f
000001b0: 8740 0325 0590 adbf 1430 4923 a030 9abf
000001c0: bd8f 70af 0e2d d0bf 8f75 6893 ea3c e4bf
000001d0: 1996 5618 0553 c03f 6740 59f5 f01e c63f
000001e0: c911 deb7 5157 b93f b58e ff75 d70a c43f
000001f0: d04f fbc8 4f63 cc3f dbf2 1e70 f2c7 9ebf
00000200: ecb1 428b c5f5 bebf 89d7 8d99 328b c63f
00000210: 98c4 c5a2 6e74 a83f fed8 36fd 4f55 d33f
00000220: 9025 7f3b 4660 943f c195 dd1a e0aa b93f
00000230: 923d 9c82 ce23 c1bf 1ef8 93ca 9fc3 a8bf
00000240: 249f d181 ff09 d8bf 2ff5 9b3c c19d a0bf
00000250: a8ed 8a20 fd03 adbf 3d4f bb92 cb67 b23f
00000260: fa88 7a42 f374 c23f e545 7a79 ab2e c03f
00000270: 390b cb1c 728b 95bf 3048 fbcb 02af 703f
00000280: 5f19 bba6 b8e0 8cbf c398 ff72 e30c bcbf
00000290: 5fa0 0214 5b98 65bf 72e5 74b0 64ad d03f
000002a0: 5d0c e633 d2c5 b33f 1ec7 64ed af38 993f
000002b0: 4d26 585c d022 c0bf 78a8 3206 b14a 81bf
000002c0: dd2b fa39 03a1 9c3f d276 ae85 0058 b0bf
000002d0: 7a8f 4fc2 f8ab c3bf ce39 3261 80b9 a63f
000002e0: b093 b685 32d4 93bf e26f fe23 eb68 d5bf
000002f0: 60d4 1843 0b17 b8bf 9c19 9ecf 33ea a8bf
00000300: c52b 4caf 743f c03f 5f04 0e72 514e 9b3f
00000310: 3419 2622 7182 a93f b9dd e751 5b5d 893f
00000320: 845e 3c0b 616a e93f 447b 5eaa 35a2 c43f
00000330: 3957 a135 6dbe 223f c431 04bc 9694 a23f
00000340: 1d7e 8ec2 de98 8cbf 69fe 61bc 3041 d9bf
00000350: 9735 df17 0855 80bf 41c4 e499 4177 cbbf
00000360: 74ca 78dd dce4 933f a075 6883 24ce 933f
00000370: 7b34 3ae3 7575 e7bf 72fa e24f 6373 b73f
00000380: d087 3414 da03 a33f 6613 8d29 0103 933f
00000390: 4c7b f0e0 b6e1 8c3f dc8c 115d 6a13 e03f
000003a0: 40b3 2364 b8e2 88bf d4bd d4c4 4b94 c53f
000003b0: 3bcb 08f3 03b9 98bf d2c5 1d53 2ca7 99bf
000003c0: 973f 2972 52e3 7bbf 60ac f866 72bf b0bf
000003d0: 0ea4 1b94 a75f 563f bc45 ad9d 0264 c0bf
000003e0: af45 5e84 9565 a3bf 75f1 50ee 30c3 c13f
000003f0: 39b6 c07b 1bb7 bdbf b51a ba91 b8d7 b03f
00000400: c6d5 2741 5dff c0bf 52ec 3af7 0b23 c6bf
00000410: 433f 68ef 9c01 aabf e130 0c7f 837e c0bf
00000420: 4251 ef9f ae58 b13f 7cea 8b2c b1ea 8abf
00000430: 2c4d bc46 2938 d9bf a7ab 4e86 c6da b83f
00000440: c49b 246e 5708 ae3f 102f 86f4 1b44 8e3f
00000450: 75ac 4a79 1802 be3f 3705 5708 8fc2 ba3f
00000460: 4cec be3e 2427 c2bf 51ba 6db3 1884 b9bf
00000470: 87ef bcbe 6dc3 bfbf 0e19 2632 2987 a63f
00000480: cb72 a221 2611 a2bf 9757 bea8 7136 acbf
00000490: 3a94 b2ec 4bbd bbbf 8042 18dd 9206 c43f
000004a0: 7677 f1f7 4a37 86bf 4c64 c5ea 4239 91bf
000004b0: 8cd1 d594 662f bf3f 12ec 140b ffe8 c4bf
000004c0: 4a3a 50bf cb91 c9bf 90bc 9425 09a8 773f
000004d0: 5243 72af bb95 963f 0ed4 a6e8 d22f 953f
000004e0: 43a0 99d3 8a83 713f 19d9 5715 3c48 bf3f
000004f0: b0a3 4945 562e c03f 5ede 79e7 19e0 aa3f
00000500: 7ea5 d4b4 781c babf b136 48fb b5ba bbbf
00000510: 2078 000c 929b a83f a109 36db 3d9a c73f
00000520: eb78 9fe0 ba22 b43f 95b4 3db7 b5d0 b5bf
00000530: 9253 5cc5 4e9a b23f 073f 926d 8971 adbf
00000540: 1356 d0d2 115a d33f 2a5b 9061 557e d03f
00000550: 185b b4b2 7b46 8cbf 4ba1 7372 5859 a0bf
00000560: c77b af01 dc63 c03f 2ff6 d8a2 778a d53f
00000570: 7bd9 1b2b 9b4b ce3f 10ad 06bc b200 b63f
00000580: b126 bcbc c759 c2bf 12b5 9266 7b7b bc3f
00000590: ff37 c36f a04f be3f 1b27 85a4 1489 923f
000005a0: fc5f e509 3a27 de3f 5ba6 8ae7 6419 89bf
000005b0: bc20 9adf 407d b43f cedf 4c36 db24 a3bf
000005c0: 9242 b0a6 f425 b2bf 4070 e32d 89f7 d23f
000005d0: c858 1b5c b4b2 a8bf bb49 f846 2833 a6bf
000005e0: 9982 75a0 4fb6 acbf ee8d 6d00 4be2 a0bf
000005f0: 8ad2 48f0 7126 b3bf 2f14 572f eb1c c8bf
00000600: 345a d63e 8e0e ccbf fa9a 34bc ecb0 b4bf
00000610: 55e3 0be0 61eb 85bf 3198 70a8 9d73 e4bf
00000620: 4127 2602 6f21 cebf 62cd fb42 aea1 bebf
00000630: 5f6e e37d 0abc 93bf 7ef0 3540 d24c a1bf
00000640: 32ee 4ea8 eec1 b3bf 436e 8535 4a7c acbf
00000650: a3ba 9c8f 4679 893f 3b03 da26 be2f c93f
00000660: 69de fc24 3291 acbf 1e91 7e55 473f d43f
00000670: cec9 562e dcf8 a0bf f8bc da5b 56e1 aebf
00000680: a321 1948 fbc0 d93f b744 b533 3916 afbf
00000690: bd63 6ec1 bdc4 e83f 1b1b 5400 ae20 463f
000006a0: 74da 23a4 dd3d 95bf b3db 40bf 522d b73f
000006b0: 3673 ef5c 87c2 72bf 5b26 0989 6540 c1bf
000006c0: 38f0 6bdd 9185 c23f a4a0 a3f8 9e34 b83f
000006d0: 7126 ad14 723b d2bf 1c15 09c5 7dc0 6d3f
000006e0: 225b 43c7 1251 f2bf 192c 8419 3555 9d3f
000006f0: 6dd4 f9f8 e917 90bf 1d00 626c 11bb bebf
00000700: a2af d9bf de02 97bf b66a 9a60 33ef d8bf
00000710: 089c 950f 5fd6 97bf c10c d485 c237 99bf
00000720: c254 e24a d35e 933f 0dec 3629 c5f7 66bf
00000730: cf01 9fdc 2eff de3f a4f2 2584 be82 abbf
00000740: bcc5 e12a 01b4 84bf b2ff dcd8 fccd 9b3f
00000750: 4e9c 2e56 c4ca 8bbf 3f49 4c50 31ec c53f
00000760: 1192 ff51 7ecb bdbf c8bf 0839 1add a43f
00000770: dc3e c97b 0288 473f 4719 c6eb d0b5 3bbf
00000780: ec0a e4fb c1e3 b23f 63e1 cdd6 ad39 8bbf
00000790: 9f80 5428 cb43 bebf 26ce 9f89 7466 833f
000007a0: 478f 49c0 cdf4 c53f 80ab 774a 0ffc a5bf
000007b0: a091 4d75 5ea3 aabf bb12 daa0 85e9 b93f
000007c0: df96 ff69 8d86 c83f 6a8c c7ca 8e48 c0bf
000007d0: 4510 5eef 9a04 933f ef02 2cd5 df97 a9bf
000007e0: 7d5f 46c0 a1f8 c93f 83f0 54eb 90bf b9bf
000007f0: eb89 9ef9 354c b83f 19bd d107 6a19 bd3f

fc.0.bias f8 [100]
0.024743405718846485 0.06521941007384927 0.011985167149505822 0.05626436192581858 0.10369318073424356 -0.0274354691253225 0.07908937202855122 -0.14335169404812825
0.3907753327828173 -0.0750248705337399 0.11568776219225717 0.018108758964424036 0.07504036988525199 -0.12035859735725782 -0.16253295455867486 0.08315883415988776
-0.012765133846911868 -0.026740032930432152 0.060224322145849114 -0.04539625220420071 0.00990379689204328 0.29654414784104055 9.042741689767295e-05 0.13754136470505426
-0.007624816045264594 0.3810881034719799 0.018174210073671995 0.008762787710467946 -0.029142902582912238 0.35440564984669 0.03009388294774371 -0.041627592642072844
0.061840114059159755 0.10370998758567448 0.042410240182265295 0.19570141830316254 0.042089885757069186 0.05380004861240519 -0.11871561794359392 0.04912096393127454
0.20312400883728762 0.2155453085544931 0.3480195617450576 -0.021938264125451294 -0.03471200862387014 0.1497481932317585 0.26880367922910314 -0.03056344121190662
0.04745838271107003 0.22434962420554477 -0.027285902075858716 0.03887551563927112 -0.04920534793051 -0.04248809542723338 0.012027271829440493 0.2853150451706113
-0.16606286018484567 0.05576593261343013 0.055232311629131434 -0.03501317538938118 -0.026077892213795466 0.14315285353739451 0.21128909935408616 0.23529316844955
0.0037804159477121835 -0.02005760535125585 -0.030588076915243508 0.07555128177805154 0.15605592649946076 0.38796332870050954 -0.02145883778114589 0.1294166811104231
0.11071346523999966 -0.08836660487101228 -0.034698331437217206 0.056112753668227114 0.026015863485830633 0.20724892375553475 -0.04238287439472325 -0.0156549766768851
0.07053440359771855 0.13450677952137308 0.11455967404127829 0.12150284716650356 0.014784294552798937 -0.026655217079854094 0.024174961042177437 -0.03300444632682529
0.25423038929983877 0.04478220800922672 -0.11743579995735917 -0.01638359365349748 0.162680149584309 0.14663444287701824 -0.004535160175277159 -0.016971924356846455
-0.04679115422893421 0.0025407835146232247 -0.0811067471440922 0.02128540858534885
00000000: 829a 6ad9 5556 993f 72e3 5421 38b2 b03f
00000010: c4c3 8de7 ad8b 883f 69ab cdb4 aece ac3f
00000020: 0d61 12e4 a28b ba3f 4a20 932a 0b18 9cbf
00000030: dde4 527a 333f b43f fea6 e12a 5959 c2bf
00000040: 96af 988a 7602 d93f 6c3c 5475 d434 b3bf
00000050: 7fc5 2993 b69d bd3f 8ee8 173e 1a8b 923f
00000060: 5172 897e d835 b33f 5e1d 712f d2cf bebf
00000070: 8f06 2d3e e1cd c4bf b617 17b9 e549 b53f
00000080: 665f 3643 9b24 8abf 427e b83b bd61 9bbf
00000090: d993 14ec b8d5 ae3f ecf0 2775 2d3e a7bf
000000a0: 9977 0f1e 7148 843f 8e09 334e 94fa d23f
000000b0: ee1b 6531 7bb4 173f 7fb1 a097 f49a c13f
000000c0: 34be d6f8 323b 7fbf e7a2 535b bf63 d83f
000000d0: 9495 9697 429c 923f 1a23 1b75 39f2 813f
000000e0: 8e38 0416 a3d7 9dbf 7efc e608 95ae d63f
000000f0: 79e5 474c eed0 9e3f 4290 043a 3650 a5bf
00000100: 9b14 eee6 81a9 af3f 26f4 f2dc bc8c ba3f
00000110: e758 3285 cbb6 a53f 834a b27b be0c c93f
00000120: 7152 a335 ce8c a53f d381 a012 ae8b ab3f
00000130: 3c98 9790 2564 bebf f300 440b 6226 a93f
00000140: 4f89 7eaf f7ff c93f 8e1d 8619 fd96 cb3f
00000150: b30c 04d7 f345 d63f 7e9e ccfb fb76 96bf
00000160: e0cf a2bb c5c5 a1bf 0562 48e4 f22a c33f
00000170: 9d57 d558 1434 d13f ae5b d5d1 054c 9fbf
00000180: ac87 5413 774c a83f 1296 6a0d 7db7 cc3f
00000190: 4a0e 3be4 d5f0 9bbf 2a55 92d8 7de7 a33f
000001a0: 0eb8 4c80 7131 a9bf 4a99 a8e8 ffc0 a5bf
000001b0: ef23 5719 c1a1 883f 6521 0409 9a42 d23f
000001c0: 2e7d c93c 8c41 c5bf 847a 9c31 5a8d ac3f
000001d0: ee5a 42d8 6847 ac3f 5df8 7336 3fed a1bf
000001e0: 4ed4 d3b8 29b4 9abf 09d7 222c d552 c23f
000001f0: 7111 dd6d 850b cb3f c644 bb27 161e ce3f
00000200: 24dc 8a5b 1bf8 6e3f 1431 141c fb89 94bf
00000210: af77 fe17 7b52 9fbf 4459 682c 5457 b33f
00000220: c8c1 54fe a3f9 c33f 2039 3424 64d4 d83f
00000230: 23b7 eb39 4ef9 95bf 5e8b 76ce b990 c03f
00000240: edc0 6eb8 b757 bc3f ecc3 fa9d 319f b6bf
00000250: ac4a 7fcd fac3 a1bf 027e c993 cfba ac3f
00000260: 2237 650b e7a3 9a3f d5a2 d4fa 2187 ca3f
00000270: c522 df46 35b3 a5bf 6330 63b3 db07 90bf
00000280: d7ef b1ec 8a0e b23f ea39 91a5 8437 c13f
00000290: 269d 7265 c853 bd3f fc75 f382 cf1a bf3f
000002a0: 7924 ca6c 3a47 8e3f a5c5 8056 814b 9bbf
000002b0: a49f 3b2c 52c1 983f 7d4e 3173 f5e5 a0bf
000002c0: 484c ec89 4f45 d03f b041 af8d b1ed a63f
000002d0: ee4a 32c8 4510 bebf 381c bb5b dcc6 90bf
000002e0: b424 1601 b4d2 c43f 5dde 4fdc eac4 c23f
000002f0: bab3 28ca 7593 72bf 7c59 4090 1661 91bf
00000300: f18b 4f9a 02f5 a7bf 82ac 3fc3 68d0 643f
00000310: 6b04 786a 69c3 b4bf 7637 0697 d7cb 953f

fc.2.weight f8 [100, 100]
0.06065926281559671 0.0014375520444055716 -0.07445839497256256 0.09094333872175728 -0.03926134756670098 0.01801569957963414 0.103888988809798 0.040521179572718884
-0.024788788318008553 0.007578497308773262 -0.055044236344770923 -0.08901008834033512 0.07932866420418201 0.09133059635885803 0.07129107638275015 0.08793528290425964
0.07690225702836223 0.003615100505128935 -0.06080134861214548 0.08697740459310324 0.1764569490846382 0.04811433183962013 -0.1320793010357258 -0.06519600929074679
-0.11381606539665495 -0.07511532530479721 -0.003668121705866781 0.10664008290614113 -0.014360823393390587 0.1254424816182388 -0.16433086551823586 0.06215548324922983
-0.10504576760735523 0.08588664881917292 0.08444468958475632 0.0757122457760567 0.07776490864804425 0.08214253126632938 -0.0066168512367631264 0.017850739801953973
0.0179834977798612 0.043091470386168694 0.1017610665014674 0.05653225244984788 0.0062655445309915386 -0.09799495177595878 0.03322146779782319 0.03700778567089695
-0.002088161842421042 -0.050247247620403605 0.027206893504055443 0.023775010063238202 0.025237147197977188 0.06910888225905636 0.013476975294239867 0.09876952950922645
-0.010199187886672588 0.03402468580475745 -0.07091627617216159 0.09024275510032273 0.08665240190343795 0.03404946972154415 -0.09861875495966414 -0.06644446713186501
-0.14962168187403255 -0.0662665828827492 0.003432968899862993 0.010101381831828665 -0.0017056312457365934 0.030539436870591026 0.0781788310358959 -0.013011023956544352
0.05783499399937317 -0.034204223314562104 0.03476334912067812 0.0006110890224593315 0.04839605206166378 0.12443049397056562 0.06045297892904691 -0.03542624134302953
-0.008801388129904697 0.07249094684045565 -0.1089995299206848 0.02270654810647463 -0.0024050977114527085 -0.06768063962445048 0.029234100928368596 0.05483083698869501
0.08141557736454803 0.1371482622244394 0.09702848014614966 -0.11647408996066669 0.04506748184835287 0.05093243181829804 0.003923631706111378 -0.041759096133256554
0.03501532674400025 -0.040349663456474276 -0.08066802801754715 -0.053662723878982584 0.04983917024371839 -0.03860739811267442 0.09519027017229634 0.0750599165042311
0.07199296210451327 0.10793197783493312 -0.0007763283937476973 -0.005968777623582913 0.12779388724871632 -0.11707158482290439 0.09060661631138792 -0.10087782466110722
0.016171984851925614 0.013373267168471661 -0.020675274082496895 -0.03621347894559343 0.05712280655731833 0.0817481345911912 0.1591460526738654 0.023014170664053254
0.02612055384759016 0.057698127624294535 -0.14113949269657378 -0.14021840896257334 0.18457158577861288 -0.016022702819764277 0.10941284259239026 0.04308800454593249
-0.05795580471365254 0.012765235667427944 -0.03158113850936913 -0.12705551659547115 0.0738440837010362 -0.0457127739445493 -0.016210342925499957 0.07345256467067204
0.10593163336774146 0.05189354127594403 0.0008590944660844767 -0.005934014135783095 -0.040403645887322474 0.09250692482138205 -0.05012034147981914 0.02843661806021035
0.10206213342457568 0.08764954140973545 0.0912432672096395 -0.21149374102668234 0.14320757852374935 0.14232654649826998 -0.12817745033463404 0.11346570844391206
0.0320753817595497 0.10170985935403073 0.1420223516798366 0.06334924961360014 -0.01752046605607323 -0.10022349418197278 0.08259832646430468 0.10906718833965207
0.07247409476781326 -0.015816369283557265 0.10350495700949658 0.023339929193991017 0.019266925207453683 0.012827390807271915 -0.012612241298092151 -0.011936130402281859
0.08948108066476956 0.15125780527071186 0.07426268185158053 0.07169440340877985 0.02828515108711511 -0.01791385914869872 0.2086243451979012 0.11366289544677334
-0.051393099361059465 -0.017617245136141775 0.20599120272765833 -0.2027622497533046 0.1294725987724707 0.05612126160534971 0.048474345727228495 0.006998310868359292
-0.06024687771211987 0.050350730734829076 -0.014362097927422917 -0.14458243217177263 0.04008107267058049 -0.06946167653829774 0.04687516359605805 -0.009245144827216502
0.08890897738233677 -0.03599945885671949 0.10629608257204695 -0.016444393040880606 0.12827526210272477 0.08335369085926773 0.004040984651913194 -0.15338891330517368
0.11788587407329208 -0.05674018993242702 0.1943583404455456 0.028685152364884905 0.3147475152982266 -0.14084680365635374 0.1364598973842363 -0.0027210305137736314
0.06208060310061738 -0.2630021326080389 0.006999484306842293 0.07596806937324728 -0.09272033303404721 -0.046957220024480155 0.010025358714956342 -0.08669154310667308
-0.013363936519324446 0.2181111602246199 -0.018904949538730488 0.2970437017123665 0.09052482225586124 0.15189215102439751 -0.02604022435418037 0.019809654949207705
0.016625266804139182 0.10502281715778962 0.13110076494469974 0.19626572723056587 0.053833223268784036 0.07630668477661114 0.004319260704118452 -0.17935646617085146
0.2368973306987479 0.04324053760336773 -0.014759760069766098 0.1580879546313275 0.12634322128914363 0.19171900886867865 -0.05871651545073211 0.14883530005203746
0.02502081235383162 0.010462965043811974 0.14721316619256494 0.04958726249486772 0.12252224606457152 0.07701903827314566 0.1763603958305345 -0.10606023470848835
-0.05611471554872785 -0.009864810913848623 -0.17708102828953204 0.031063753372975737 0.12125407701490994 -0.07923981415311032 0.11531937798308518 0.05961053622813837
00000000: 4a23 fc1b bb0e af3f 82da 16c1 878d 573f
00000010: dfde 5193 b40f b3bf ee57 9909 1048 b73f
00000020: 427c 9737 101a a4bf c74e 0922 b572 923f
00000030: 7e43 5a01 7898 ba3f b7ce 1e2a 31bf a43f
00000040: 5b83 886c 3b62 99bf 920b 8161 a10a 7f3f
00000050: 7b40 de15 c22e acbf 4391 6f7a 5dc9 b6bf
00000060: 956f 6422 e24e b43f e347 7c24 7161 b73f
00000070: 3280 8fc9 2140 b23f 6e01 3d3c ed82 b63f
00000080: 24e7 ecc6 ddaf b33f 21fb 1e4e 6a9d 6d3f
00000090: 4008 afb7 5a21 afbf 0ae5 37b4 2644 b63f
000000a0: f937 bc2c 2496 c63f b3ab 7013 71a2 a83f
000000b0: 52a7 367b f9e7 c0bf aac4 bb87 afb0 b0bf
000000c0: f455 a3b6 0c23 bdbf 25cd 9c09 c23a b3bf
000000d0: 8756 76d8 9b0c 6ebf 804c 86b4 c34c bb3f
000000e0: adc3 8b16 3569 8dbf 542a 0ace 7f0e c03f
000000f0: b1e5 8f36 cb08 c5bf 1221 a5ef d7d2 af3f
00000100: 4cf1 7488 47e4 babf fd64 d7db aafc b53f
00000110: dc5f 16cc 2a9e b53f 06cf 83b3 e061 b33f
00000120: 8c76 6bab 66e8 b33f 6548 66fd 4a07 b53f
00000130: 6c5c a17a 451a 7bbf e69b a2de 7647 923f
00000140: 432a 541b 446a 923f 831d 17d0 1510 a63f
00000150: 0e40 a164 030d ba3f b7f3 e19e cbf1 ac3f
00000160: bec6 a24d e6a9 793f db03 0d79 3216 b9bf
00000170: 2efc 6e7b 6702 a13f 56c9 4e3a aff2 a23f
00000180: 6371 4d5a 311b 61bf 57bf 7cda 01ba a9bf
00000190: 377d 4db7 1fdc 9b3f 5716 bcea 7958 983f
000001a0: 1b48 7047 c4d7 993f 5b6f 2aa5 1eb1 b13f
000001b0: 0622 1a01 d199 8b3f f75b 15bb f548 b93f
000001c0: 2c26 5ad3 4fe3 84bf fb82 9301 af6b a13f
000001d0: a2dd e9ae 9127 b2bf c658 db31 261a b73f
000001e0: 9a8c 4b10 da2e b63f a7e3 cc9d ee6e a13f
000001f0: 5bf1 5227 143f b9bf a7dd 542d 8102 b1bf
00000200: 3ff3 35a3 cd26 c3bf 9690 4cc6 d8f6 b0bf
00000210: f42a e624 751f 6c3f 569b e584 08b0 843f
00000220: 30ab d89a eff1 5bbf a2c8 63ea ba45 9f3f
00000230: 1ce7 8922 8703 b43f dff0 0b13 86a5 8abf
00000240: fc54 955f 8c9c ad3f e4d0 0a49 3783 a1bf
00000250: 8e3e 256f 80cc a13f 5e70 e6ae 2f06 443f
00000260: 0481 b809 5ec7 a83f 618c 3a46 adda bf3f
00000270: 845e e45e b1f3 ae3f a21e fa67 6323 a2bf
00000280: f332 6b51 7606 82bf a892 ef45 c48e b23f
00000290: 35e9 49a8 64e7 bbbf 59e5 16a6 6240 973f
000002a0: 1ac0 7500 dbb3 63bf 8066 c2b5 8453 b1bf
000002b0: 1246 a94d 8bef 9d3f 6885 5b97 c912 ac3f
000002c0: c56a 2aba a6d7 b43f 8385 7a02 138e c13f
000002d0: d31f 02c5 dbd6 b83f 8261 36f7 3ed1 bdbf
000002e0: 12b2 4dc1 1513 a73f 0841 eed1 d013 aa3f
000002f0: 44ae bfdd 3912 703f dedc 67c0 7261 a5bf
00000300: f6ce 7266 87ed a13f cf7b e609 b6a8 a4bf
00000310: a10d 2bee a8a6 b4bf f925 2638 ae79 abbf
00000320: 1b5a 830c 8584 a93f 1d20 8e50 59c4 a3bf
00000330: 2a94 49b9 635e b83f 3c4c a06e 2037 b33f
00000340: 03f3 c779 216e b23f d75e fe1a 6ea1 bb3f
00000350: 1ffa f287 5070 49bf 5dd1 0b8b b772 78bf
00000360: 5054 2ed3 8c5b c03f 9af2 1a44 67f8 bdbf
00000370: 42cf dbc5 fe31 b73f cba2 cf0d 21d3 b9bf
00000380: 60a3 3388 638f 903f 88b7 0889 7163 8b3f
00000390: f9a4 1428 e62b 95bf 7ccd 7db7 928a a2bf
000003a0: f8f0 0954 333f ad3f 1d03 941c 72ed b43f
000003b0: 8cc8 c2d9 e55e c43f cffd 62d9 0691 973f
000003c0: 817f 1db2 58bf 9a3f 86a1 5fe6 9b8a ad3f
000003d0: f424 a7e0 db10 c2bf c94c 6544 adf2 c1bf
000003e0: f451 58ae 0aa0 c73f a6eb 6a62 4168 90bf
000003f0: b85b b2e4 7a02 bc3f fad5 bf84 a10f a63f
00000400: 5a8d b71b 62ac adbf 871a bded a824 8a3f
00000410: 5be9 222a 672b a0bf 4ee7 46ec 5a43 c0bf
00000420: e6c0 7f24 72e7 b23f feda 332a aa67 a7bf
00000430: 644b e3b2 7199 90bf 5e5f 118b c9cd b23f
00000440: c722 ede4 551e bb3f a0bf 4e4d ca91 aa3f
00000450: d6b0 6851 9b26 4c3f 01e4 5aca 434e 78bf
00000460: 5f4f 7363 c9af a4bf ebe8 c2a8 88ae b73f
00000470: 7054 0a97 5fa9 a9bf 1d4e 4f22 7d1e 9d3f
00000480: 4ef2 3775 be20 ba3f f73c dd49 3370 b63f
00000490: 7145 a500 b85b b73f 7657 8216 3a12 cbbf
000004a0: e540 263d a054 c23f 5206 489b c137 c23f
000004b0: 31ce a262 1e68 c0bf 3bec fbb2 160c bd3f
000004c0: 4ef5 5337 2f6c a03f e637 9b47 a809 ba3f
000004d0: 4d09 e2d5 c92d c23f a209 510b a837 b03f
000004e0: 35d4 e292 e2f0 91bf 5b6b cd35 3fa8 b9bf
000004f0: 5257 def6 2925 b53f 4c48 fcc6 d3eb bb3f
00000500: 1dc0 d58a a98d b23f aae1 4193 2a32 90bf
00000510: 8065 5405 4d7f ba3f ed0b 5122 6ce6 973f
00000520: e857 a476 b5ba 933f c3fa 1440 3f45 8a3f
00000530: 4c8d 3c5f 72d4 89bf 1dad bf4d f871 88bf
00000540: 58e0 106b 3be8 b63f 4883 736f 6a5c c33f
00000550: 7ca4 dd0d e102 b33f af6a f27d 905a b23f
00000560: 73bc 865b c8f6 9c3f c757 c1bc 0258 92bf
00000570: 8d1f e3d9 33b4 ca3f 416a b6f2 0219 bd3f
00000580: 49dd fd41 3250 aabf b245 d24e 410a 92bf
00000590: d34f 7d73 eb5d ca3f d0e3 c607 1df4 c9bf
000005a0: a65a bae0 8e92 c03f e214 690e edbb ac3f
000005b0: dbd7 2f23 a1d1 a83f cdd5 e8c4 42aa 7c3f
000005c0: 5c59 ebc2 add8 aebf 0ded ab2b 92c7 a93f
000005d0: 36ac 3327 e069 8dbf da7f e058 ad81 c2bf
000005e0: 8213 9ea0 8185 a43f 7aac 0e8d 3dc8 b1bf
000005f0: 4289 477d 0500 a83f 41fb 6f55 1eef 82bf
00000600: 7c8d 2d1e bdc2 b63f ad36 ed64 856e a2bf
00000610: e200 5756 3836 bb3f f8aa 4089 ccd6 90bf
00000620: e0fa cee3 526b c03f 9bcf 3de0 aa56 b53f
00000630: 2716 c78e 478d 703f 4c7b 1b77 3fa2 c3bf
00000640: 371f cec5 c42d be3f 30d8 41d8 0c0d adbf
00000650: d98f f5ed bbe0 c83f 64de 26fd a35f 9d3f
00000660: 4b00 2dc3 d224 d43f 419f b99f 4407 c2bf
00000670: 368b 3d96 8477 c13f 5aad 2d22 6a4a 66bf
00000680: 83f3 1060 07c9 af3f 271b 95e5 06d5 d0bf
00000690: 96f0 fcc2 7dab 7c3f 4794 7fb5 a472 b33f
000006a0: b532 0e0e 85bc b7bf 67e7 a1d8 c60a a8bf
000006b0: 78c2 7dde 2c88 843f a3a1 7bbe 6a31 b6bf
000006c0: 45dc 5e32 8d5e 8bbf 8657 0706 11eb cb3f
000006d0: 2a69 01b0 d15b 93bf da97 1596 c302 d33f
000006e0: d1ac 107f a22c b73f de9d 95b6 3371 c33f
000006f0: b544 eddf 49aa 9abf 7b89 9b70 fb48 943f
00000700: 131e d8c4 3606 913f 51c8 067d c6e2 ba3f
00000710: 4683 f5ec e8c7 c03f bff5 e33f 3c1f c93f
00000720: 1061 c13a 0790 ab3f fdeb 94bb d588 b33f
00000730: e32f 79b7 12b1 713f fdd4 4316 27f5 c6bf
00000740: 522f eed7 a652 ce3f 5b60 bcad 9f23 a63f
00000750: 4322 5f76 5d3a 8ebf 133c 84e1 393c c43f
00000760: 7b0b c1c1 032c c03f b066 8e9c 3f8a c83f
00000770: 6323 3153 1710 aebf 5f5f 1bfd 080d c33f
00000780: ccc1 1d4b 0e9f 993f 117b 7565 9b6d 853f
00000790: 1339 2b8b e1d7 c23f 2860 6d6d 8063 a93f
000007a0: 883a e12f 9e5d bf3f cc72 8d0a 85b7 b33f
000007b0: e36c 333a fa92 c63f 78a2 7a77 c326 bbbf
000007c0: 8456 3668 11bb acbf 88b4 0c82 0034 84bf
000007d0: 866f 9f54 97aa c6bf a1cf 4f33 2dcf 9f3f
000007e0: dd23 49d7 810a bf3f 7027 547a 0f49 b4bf
000007f0: 3d4c 081d 9285 bd3f ed99 31af 4585 ae3f

fc.2.bias f8 [100]
-0.04496289798223463 0.14780628623075132 0.14969474838658925 -0.018283006827140076 0.03280215056650698 0.02099530965278444 -0.0006835964424345482 0.10230823823639222
-0.05879872096461626 -0.00877489200744507 0.015253035008280172 0.09738299216551828 0.05538724160950744 -0.056798354277816376 0.12878535608424047 0.10425630767877038
0.039063887418488645 0.10618346655087786 0.08162685029472112 -0.010464900001314037 -0.024565601539469007 0.08325949880672784 0.1399520518613309 0.09681999285256139
0.07207749831306733 0.022654767971844396 0.015966841651152888 0.20446236972860696 0.21227153509045427 0.15439634193359553 -0.03924092441232775 0.12045428365086505
0.011270018817578588 0.12673718384176233 -0.03886302626274859 -0.06056522170689778 0.07693499187760967 -0.0466415624759129 0.001211135640188768 0.014701520546135292
0.032453441112158365 0.045126428711033215 0.12966554755784684 0.05506536483983128 -0.01438896106639309 0.14963915254320442 -0.033646474580594526 0.05816617169138335
-0.07093352495674254 -0.023243086970628258 0.021603533262227005 -0.055989561662278656 0.19329012775343066 0.05179760865842587 0.2545519076072917 0.018653366052644303
0.058864360660475366 0.045805837984426466 0.00673451088286609 0.1918379991272974 0.17810264730572914 0.07955132634827027 0.11392864200265373 0.022132808236633748
-0.08646049888531608 0.04643341970053104 0.09089926727624194 -0.020808279666523825 0.04485261209809931 0.07247763305082697 -0.098247906534231 0.02658636513233883
0.12077675538564545 0.08839399058705875 0.007540609662595315 0.058411663034944945 0.16511042113622065 0.18710563176270922 0.1268066566692833 -0.024992447085461306
0.06662263569773563 0.029829698634099414 0.028791008790662126 0.06392532490339185 0.03154854963427629 0.24400302114516248 0.00681036541020572 0.13269464396668768
-0.002735112424941761 -0.01425644633926924 0.12667303761286894 0.09730608227447218 0.024935368963785173 0.1965817090213367 0.09639747574831417 -0.057745900857845124
0.0037798776727803025 -0.029087651460208138 0.060457503291667644 0.056902224469288665
00000000: 30f2 bb80 6005 a7bf a48c c0fe 50eb c23f
00000010: 5c07 5a90 3229 c33f 1298 94d1 c7b8 92bf
00000020: f8dd d787 71cb a03f 0cfa 4f61 cb7f 953f
00000030: 39e0 942e 6c66 46bf bf30 5669 df30 ba3f
00000040: 72e7 2daf dd1a aebf fb50 9511 92f8 81bf
00000050: dbd3 33b4 fb3c 8f3f 419b 897e 17ee b83f
00000060: 2b2f a86e b75b ac3f e8ff 2d84 ac14 adbf
00000070: 90f2 4ade 097c c03f e1cc e197 8ab0 ba3f
00000080: 8f85 d58d 2e00 a43f 1141 36f4 d62e bb3f
00000090: d5c6 7d4c 7fe5 b43f b3a9 171a 9f6e 85bf
000000a0: 2dd5 df9c b927 99bf 9ccc 7498 7e50 b53f
000000b0: 5152 e0e6 f2e9 c13f 9994 e6ee 31c9 b83f
000000c0: f938 08c2 ab73 b23f de70 26be cf32 973f
000000d0: f733 d99a 9c59 903f 979e 9fab d22b ca3f
000000e0: 68e8 8ab2 b62b cb3f a408 9d63 42c3 c33f
000000f0: 2211 08ee 6217 a4bf fe8d f188 17d6 be3f
00000100: b474 f951 bc14 873f 17cd e48d ec38 c03f
00000110: 8be9 a4c5 dae5 a3bf 8a21 039d 6702 afbf
00000120: b148 08fa 02b2 b33f 61d0 ef22 67e1 a7bf
00000130: 0de5 ccfd ded7 533f 4cb5 93af d41b 8e3f
00000140: d852 70c8 bc9d a03f 4e92 ffae cf1a a73f
00000150: b3e5 1673 e198 c03f 923e 420a 8731 ac3f
00000160: 3fec a0a9 f577 8dbf 62e6 2f31 6027 c33f
00000170: 0c11 e657 1c3a a1bf 4bc8 4bda f4c7 ad3f
00000180: d813 e111 b328 b2bf 5d75 9629 09cd 97bf
00000190: ea74 5b93 3c1f 963f 7283 83f0 a9aa acbf
000001a0: 4f9a ab1c bbbd c83f 31dc 6556 3785 aa3f
000001b0: dfb1 9315 944a d03f 962d a034 de19 933f
000001c0: eb95 df2f 7823 ae3f 0bcd 37e0 dc73 a73f
000001d0: 4686 f17f a595 7b3f 71df 30c6 258e c83f
000001e0: 252b c14a 11cc c63f 2bed 04c9 795d b43f
000001f0: a0a5 7a6f 6d2a bd3f 990f 2e9e fba9 963f
00000200: 0bb8 1b77 4622 b6bf 2e46 1c06 1fc6 a73f
00000210: e58b 2ea4 2c45 b73f 716e 9d02 c44e 95bf
00000220: 2ff9 33ec ebf6 a63f fe10 a5e7 e48d b23f
00000230: 6109 7759 c626 b9bf 4738 0dc3 7439 9b3f
00000240: 2693 7fb6 39eb be3f 4ffe bb12 fda0 b63f
00000250: 9fb2 48fe e6e2 7e3f a14f e12c 22e8 ad3f
00000260: 2822 8199 5622 c53f 94bc a8cc 13f3 c73f
00000270: 56a3 a755 333b c03f 182a 84bb 9e97 99bf
00000280: a8be 7e59 2e0e b13f 14fc 5430 ad8b 9e3f
00000290: a8ef b2e4 637b 9d3f 57a3 d8fb 685d b03f
000002a0: cab5 d4a9 2127 a03f 28ca f8b1 7d3b cf3f
000002b0: 65cb 5e8b 2fe5 7b3f 1a7c 185a 23fc c03f
000002c0: 42f0 4f4d f267 66bf 3654 46d6 7b32 8dbf
000002d0: 2b87 ea74 d236 c03f 3c1c 1229 0de9 b83f
000002e0: 2f44 da48 a888 993f da84 9ee5 9629 c93f
000002f0: c286 c145 81ad b83f 9d33 53e7 de90 adbf
00000300: db5e 995f faf6 6e3f 0fc7 f43e 27c9 9dbf
00000310: 1efd de2e 49f4 ae3f 189b 54d2 4922 ad3f

fc.4.weight f8 [100, 100]
0.1300068145258687 0.2921142529862594 0.21762036058825332 -0.053757868564836955 0.17965045653746567 -0.14623190441850226 0.2814814672074226 0.244584389861332
-0.2875844017452697 0.12780931871147025 -0.27978764416867585 0.18359047967033976 0.1302030681117778 -0.11142829947372734 0.2041156637243432 -0.16895311807643418
-0.29710340843378785 -0.2926602848733345 -0.15926825209484932 -0.05105314043502565 -0.05527306721087845 0.17061297980605508 -0.10104194581065301 0.056997805936877755
0.11582054417913172 0.20154541897244793 -0.03782885771897676 -0.08497943681073576 -0.07359822369276317 0.33605942697845437 0.037170717638070824 -0.3174111581400984
-0.2330170001329028 0.061986490715941756 0.04026998428757301 -0.04017879451093488 0.22049634455201483 -0.10347034557277844 0.21976958961404525 -0.07578664916370624
-0.23249354843131365 0.005604006093057016 0.013801980937607684 0.06362904572907684 -0.1017214036436504 0.31221794348639087 0.1626984672962166 -0.25109148331162795
-0.02934572712670674 0.05587561407143826 0.1624888016829278 0.044167689510322156 -0.3329040263766662 0.16322697758524504 0.21967186170479167 -0.27284910491773245
0.19239369100563533 0.018669894386019972 0.002412858933298082 0.1520855780938742 0.10776197364523776 0.20322660105490664 0.17493312709322473 -0.04546696002210366
0.1293912787417031 -0.02460485775435324 0.2865741113379739 -0.21152996463857232 -0.21371695274840294 0.2791475463208853 -0.05650864262487659 -0.0283914713143109
0.03271201101666499 0.12086534495618978 0.12912245735383943 -0.08726237581580022 0.3968386190043392 0.020504275305544183 -0.09362447559706391 -0.19508556178457648
0.2831150058338766 0.09126903016955126 0.05941815384678368 0.18956921240742483 0.26577835772904285 0.10751263113145366 -0.2562505981464455 0.38721298670427345
-0.1707562489944621 -0.005012800166200117 -0.11665673893464344 -0.2179383917642544 -0.03272638027458032 -0.06275202166976689 0.12549309889247356 0.03671986284301365
0.09529557737085695 -0.02768295247717548 -0.18606650563516833 0.16603137731364717 0.06997854622425005 -0.0072000413610177885 -0.02420699031622577 -0.09193140126525826
0.07923440332267202 -0.12808745490148254 0.2828554164809745 -0.058594156044453685 -0.28975550857728327 0.04451828759113833 -0.06102798569816692 -0.061176061845735
0.11301577652249709 -0.09021526268953614 0.09047030390721207 0.03411236759826976 -0.09695271051893115 -0.03473127333303333 0.15831292882391243 -0.02103745529323451
0.03511567401482498 0.010578205222403367 0.008057934163258765 0.13092357735185292 -0.11270413585329572 -0.002057633439763282 0.07582669415985312 0.22775318672028882
0.14848771756206333 0.1313093762209729 -0.09604463489403577 -0.20477208393228233 0.11705740076841122 0.03865304817803381 0.08026938301228989 0.09497982148150877
0.17508289228482676 -0.26328695661659934 0.052553460968666664 -0.06230081933859116 0.0026807169701525543 0.08909969358694224 -0.09450210877357788 -0.08173963511478964
-0.043175308508910056 0.028615490571805968 0.06531102265197182 0.19794697271530473 0.0533787981998732 0.027839770226189293 0.22740274362847102 -0.07562420825868112
-0.04579336775622207 0.08996606028506218 0.10949686392737136 -0.2099000034399342 -0.0020180773908702143 -0.016163339643769054 -0.03567767545983242 0.021101172049340155
0.10877386865528774 0.0742980054565155 0.19622276192744834 0.05703220380984119 0.04693536029924985 -0.029775157430334664 -0.06204382677432356 -0.039270507495569026
0.12507193682769294 -0.04776634393830364 0.05195864408339997 -0.1036514361566713 0.03459341759745442 0.16862827508300143 0.07562298171128162 -0.1737807259688657
-0.06198011202774012 0.11698383369822479 -0.019440523728143737 -0.2895871360591484 0.07038239586727699 0.1498268526121469 -0.04585271932298572 0.3140245313300157
0.1867124389465107 -0.048759874635111854 -0.16074518838827756 0.1859957293988876 -0.11356295645339666 0.02718209590688299 -0.1889779598167714 0.0025665638722281174
0.04821137334946348 -0.027894720984490532 -0.0033498719037425005 -0.049841221894065375 -0.007496304053786825 -0.03747763198517562 -0.1109704001136013 -0.057685333582764516
-0.0508646497634242 -0.061092181577413494 -0.020514387399272783 0.0702182073507236 -0.01381162546152179 0.11457981256055942 -0.021503926591045865 0.02497359701318136
0.1443750913689214 -0.014387136059525022 0.03493331997509914 -0.06514631782503563 -0.033375499473155344 0.11372138082185006 -0.03696105640487667 0.03377968182793781
0.02492381242000577 0.004035315627000886 0.02559851247759422 -0.06473821598499101 0.022071198983964493 0.017831903265336006 0.06656494029917764 -0.08368102906486852
-0.055750507540619235 -0.008598105598616715 -0.0016408410146712534 -0.043220334370521835 0.07794626861115127 -0.01964582635027464 0.0932437209605587 0.031922816896867975
0.08980527061799093 -0.023681253852892832 0.05093113355450965 -0.02638326006329242 -0.09115210277986524 -0.037687791183837034 -0.029186789958495503 -0.046547577955519
0.09249872863603102 0.0321478011654797 0.008178037182890771 0.03777952357679322 0.04995405678418387 0.028047311890025697 -0.08208752208225809 -0.07680336423794416
-0.03295405945717333 0.09570538670081218 -0.03987020738784429 0.015248815957530188 0.007883172835040218 0.049507220060036106 -0.07275729436167727 0.03519595747724571
00000000: bca7 5234 10a4 c03f 835f d1fa ffb1 d23f
00000010: 95cb d5e5 fbda cb3f fafb c6be 2686 abbf
00000020: ef1a c541 c9fe c63f 66fc 8d1f bab7 c2bf
00000030: a480 05d8 ca03 d23f 3784 c891 8a4e cf3f
00000040: 6f7b 1568 c867 d2bf f3b1 fe45 0e5c c03f
00000050: d6e0 616f 0ae8 d1bf 8641 0591 e47f c73f
00000060: 4e81 b07f 7eaa c03f 68ab 16a6 9086 bcbf
00000070: cc10 264a 7620 ca3f 8306 597a 41a0 c5bf
00000080: 3d35 b003 be03 d3bf f29d 1734 f2ba d2bf
00000090: 4dec 04ef e662 c4bf 6495 0d21 a323 aabf
000000a0: 1269 0a60 c04c acbf 7d22 4568 a5d6 c53f
000000b0: ecec c78c e2dd b9bf 50a2 e200 d12e ad3f
000000c0: 9b4c 7449 6aa6 bd3f 9898 9283 3dcc c93f
000000d0: 68ff 7ed5 4d5e a3bf 8342 ef5d 36c1 b5bf
000000e0: 2ada cd4b 55d7 b2bf 36a3 1866 ff81 d53f
000000f0: b6ac 3f51 0a08 a33f a338 e6e3 7650 d4bf
00000100: dfcd 7d45 80d3 cdbf 006a d67c b1bc af3f
00000110: 3116 0d73 449e a43f 4297 d5a0 5092 a4bf
00000120: 9485 5e66 3939 cc3f 5745 5756 087d babf
00000130: e819 06f0 6821 cc3f dfac a1fb c066 b3bf
00000140: e490 853d 59c2 cdbf 9119 57ee 39f4 763f
00000150: 54f0 f985 3644 8c3f 2b69 7b3e fe49 b03f
00000160: bce3 f3f5 690a babf 32e6 1ff8 60fb d33f
00000170: ffc2 12aa 4dd3 c43f 232a 4803 e211 d0bf
00000180: 2f6c 2569 ce0c 9ebf 6057 297e ba9b ac3f
00000190: 41e2 98dc 6ecc c43f d432 f9bb 259d a63f
000001a0: efa5 7fb0 4c4e d5bf cfda 4621 9fe4 c43f
000001b0: 57cf ef22 351e cc3f 8554 9717 5c76 d1bf
000001c0: 2db8 6941 5ba0 c83f 841d 3b67 331e 933f
000001d0: a105 abc6 21c4 633f f39f 0d4c 8a77 c33f
000001e0: a007 8fe8 4996 bb3f d0a1 9a4a 5403 ca3f
000001f0: d41b ed6d 3564 c63f e9db af04 7247 a7bf
00000200: 70a7 4ab7 e48f c03f 54be 820d 0432 99bf
00000210: 49eb 04f1 3a57 d23f 0494 1ff4 6913 cbbf
00000220: 8bdc 53bd 135b cbbf fd3c 8dab 8ddd d13f
00000230: d8c7 0768 b3ee acbf ad03 1f63 a712 9dbf
00000240: 0085 01f3 a0bf a03f ec7c ceff 07f1 be3f
00000250: 50c7 c1ad 1587 c03f e1d4 4cba d356 b6bf
00000260: d175 9ace cd65 d93f b643 769f 12ff 943f
00000270: f266 cb0c c6f7 b7bf 74ad e44d 90f8 c8bf
00000280: ea0d c466 8e1e d23f 9a42 b73b 685d b73f
00000290: 390b 1f67 0e6c ae3f a726 cfcf cd43 c83f
000002a0: af92 9b3a 8302 d13f 45d3 9da2 f285 bb3f
000002b0: 9ba4 a7e8 6866 d0bf 3bce 9efa 18c8 d83f
000002c0: 9969 823c 57db c5bf 9b45 674c 4d88 74bf
000002d0: d711 954e 37dd bdbf aacc 95bc 67e5 cbbf
000002e0: 23d7 fd19 83c1 a0bf 375c d438 8410 b0bf
000002f0: 86f5 ce69 2810 c03f 8077 0c24 f2cc a23f
00000300: 7ae2 427c 4a65 b83f a94c 2f7e eb58 9cbf
00000310: 13c2 4afa 06d1 c7bf 7d02 d623 8440 c53f
00000320: 596c 742f 1dea b13f df83 ce62 ca7d 7dbf
00000330: e59a f89e b7c9 98bf 8ae4 e8f9 d088 b7bf
00000340: d52b fdb2 b448 b43f 0035 ea72 2b65 c0bf
00000350: 4d10 d29a 4d1a d23f 4a32 e59f 0d00 aebf
00000360: c637 4bb0 5a8b d2bf e543 8eda 19cb a63f
00000370: 90c3 6d65 0f3f afbf d2db d901 7852 afbf
00000380: 929e 1818 9aee bc3f e602 daf2 5818 b7bf
00000390: 7d68 8ad4 0f29 b73f a288 721e 2d77 a13f
000003a0: 1ef7 ef90 e4d1 b8bf f845 3a26 4cc8 a1bf
000003b0: 3f95 ea19 9943 c43f 9aea e6b9 d78a 95bf
000003c0: b3fb f07e aefa a13f 3844 d8ab 06aa 853f
000003d0: 15da a29d ad80 803f 4932 8091 1ac2 c03f
000003e0: 0625 9da1 2dda bcbf fa0d 978a 2bdb 60bf
000003f0: b192 94d3 6069 b33f 7eff 4234 0427 cd3f
00000400: 1fb4 6441 a501 c33f 8f7c 43e2 bece c03f
00000410: 2d7e d395 6196 b8bf d5bb cfbd f835 cabf
00000420: 791a 0e4c 79f7 bd3f dd77 a113 55ca a33f
00000430: 066b e8c6 888c b43f f201 0bfb 9850 b83f
00000440: f4e8 39c0 1d69 c63f 336d 0889 b1d9 d0bf
00000450: a3d7 4d88 49e8 aa3f 7881 259b e4e5 afbf
00000460: 9eb1 eef6 def5 653f 271f 0ace 3ccf b63f
00000470: b7e6 954a 4a31 b8bf efe0 9a83 e3ec b4bf
00000480: b1b9 14f4 121b a6bf 53dc a810 614d 9d3f
00000490: e5c8 5b22 39b8 b03f a1c4 138f 5356 c93f
000004a0: 3bf0 2241 7754 ab3f 953a 995a 0782 9c3f
000004b0: 94d5 7379 881b cd3f 11c6 41ad 1b5c b3bf
000004c0: 3afa c571 3a72 a7bf 5a9f ac06 0408 b73f
000004d0: b926 9589 fc07 bc3f 0c37 1ad9 00de cabf
000004e0: d76f a00c 3788 60bf 4511 a85c 1f8d 90bf
000004f0: 5935 9822 5844 a2bf 43ce 6faf 8b9b 953f
00000500: 12ab 88b0 9ad8 bb3f e500 98af 3105 b33f
00000510: 8fc6 9ad4 d31d c93f df38 5d34 5333 ad3f
00000520: 33c3 055b e907 a83f 430e 96fd 607d 9ebf
00000530: 662d d45d 35c4 afbf de15 c892 431b a4bf
00000540: c141 2973 5b02 c03f 6706 218a d474 a8bf
00000550: 8b58 2aca 529a aa3f 1af1 7988 e688 babf
00000560: f6d2 797a 3ab6 a13f f6c8 547f 9c95 c53f
00000570: 5ca5 4619 075c b33f af0f 5b63 723e c6bf
00000580: 00b8 5274 dbbb afbf 1403 e50b a7f2 bd3f
00000590: db98 8476 37e8 93bf 97d8 ad7b 9888 d2bf
000005a0: f6cd 76a8 9404 b23f 7811 04bc 862d c33f
000005b0: 4e8b d9f3 017a a7bf b510 0d59 fa18 d43f
000005c0: 710d 8475 31e6 c73f 3b69 d4e5 0df7 a8bf
000005d0: 38fa 8e5f 4c93 c4bf ae60 7b43 b5ce c73f
000005e0: 1121 0140 7612 bdbf d4c2 d393 9fd5 9b3f
000005f0: 82f6 8906 6e30 c8bf 413a 9e7c 7906 653f
00000600: f391 a93f 29af a83f e10e 7009 6f90 9cbf
00000610: 3d33 b7c8 3071 6bbf 612d 0ee4 c984 a9bf
00000620: 49ba 07cc 71b4 7ebf b06b 6aa7 4430 a3bf
00000630: 1bdc 4f5f 8e68 bcbf 21c6 649a ee88 adbf
00000640: 0047 836e ee0a aabf 4323 d573 7947 afbf
00000650: bace e83b b901 95bf f0b4 2708 d2f9 b13f
00000660: 3271 4bfd 4449 8cbf cbba ba43 1a55 bd3f
00000670: 2ac9 c615 2005 96bf 208a bdb9 ad92 993f
00000680: feac e40b e27a c23f c2be deb6 0077 8dbf
00000690: d9e1 aab5 c7e2 a13f e66a 83d8 6dad b0bf
000006a0: d321 73ed 9716 a1bf e35d 7c2b d81c bd3f
000006b0: cf17 f840 8fec a2bf 54c8 7009 924b a13f
000006c0: 8837 f1bc a085 993f 8823 5aca 5587 703f
000006d0: 1589 ab17 7f36 9a3f c3f8 7408 af92 b0bf
000006e0: a44e 4717 d599 963f 7e74 66c5 8642 923f
000006f0: 3c29 a561 660a b13f 9815 21b3 1e6c b5bf
00000700: 1aa6 3e9d 548b acbf 3533 d432 e29b 81bf
00000710: bc9e bd9f 2fe2 5abf cc82 49c5 f920 a6bf
00000720: 57b6 8762 49f4 b33f 9694 b516 091e 94bf
00000730: 2b3c 150c d2de b73f e6f0 22fd 2f58 a03f
00000740: 280d 506c 7afd b63f 9248 4e0b e63f 98bf
00000750: d4fd ed41 a513 aa3f a8e9 889c 3604 9bbf
00000760: e4b1 6684 be55 b7bf 31a5 2f6d d04b a3bf
00000770: 5249 6351 24e3 9dbf 4fce 0d8a 15d5 a7bf
00000780: 1fd0 6926 ffad b73f 66c0 4935 ad75 a03f
00000790: 78c8 f791 a5bf 803f 1a0b 7174 d657 a33f
000007a0: e295 6100 9493 a93f f4c5 3b3d 6fb8 9c3f
000007b0: 0ec3 c016 b003 b5bf 5def 9fa1 62a9 b3bf
000007c0: df2a 47bf 5adf a0bf 6f57 eef1 2580 b83f
000007d0: fe8c a129 de69 a4bf 1df7 b86e c53a 8f3f
000007e0: 2c28 1f8c 0d25 803f f8bf 25a6 0259 a93f
000007f0: 742f d4d7 38a0 b2bf f3e1 a15c 3405 a23f

fc.4.bias f8 [100]
0.04496363354840792 -0.040856545158879695 0.05922846027197942 0.15346650753259555 -0.0038263278948838845 0.1402370901708183 0.05570621353081115 0.03855083382371728
-0.06294632845628588 0.0889558344069806 -0.03682057184507585 0.04204870687985844 0.20841423799976735 0.08209318860373774 0.12315324145310079 0.08614830441242279
0.02899583042015448 -0.06150183201791506 -0.04127926778345263 -0.0332957920434942 0.08760637672929761 -0.039562930436309506 0.1327285491303011 0.2564581132042304
-0.07503986572267053 0.028252182066936946 -0.043391352570102376 0.07182979298146124 -0.0694309801538702 0.006613262148475798 -0.07094535736579854 0.12465223508880188
0.0884812491702099 0.17353708673971224 -0.0453135838887004 -0.012308327819755008 0.11814048077502988 0.10736560160440448 -0.008268086595090055 0.09336638357230491
-0.07065037661593533 0.021215591483855975 0.02529488739088605 0.2430638470808491 -0.06057880812370391 0.08489018894884555 0.08410684248022263 -0.0918715247924451
0.10898508982506815 -0.0002449908989671862 0.09750785381978097 -0.04377358335232205 0.1627146200467928 0.055160958368696625 0.07789182112296143 0.09647646186766137
-0.05781804474390905 -0.04159411306604369 0.052563837203057455 0.0066783606135165045 0.0809985979917594 -0.039189057991650046 0.1663521206384284 -0.01586987253177104
0.13952960369972844 0.052630150970523926 0.10931421412588876 -0.04669232627380207 0.10071104195644198 -0.06469012846762248 0.015950654599875064 0.14208716711462002
-0.058362388201933325 0.09161754776916185 -0.01627054097302038 0.16089841101309363 0.18656235220769882 0.07333685944205809 0.17992791536785963 0.17499443588809838
0.016255664013593824 -0.08070125915192664 -0.03606073240548186 -0.014121752279253356 0.08296445329264363 -0.0015824310732301882 0.047548476365546974 0.007494548210883341
-0.10607884685499193 0.09856308586828015 0.22707178479459886 -0.028259907138483583 0.23255218607564457 -0.012135131789148264 -0.06833527221725784 0.08867613562540674
0.008854786799031577 -0.04205805115202195 0.12849075960837886 0.15403097487717385
00000000: 2e11 332f 7905 a73f 0ee3 912a 26eb a4bf
00000010: d89e b857 3153 ae3f 8621 715f caa4 c33f
00000020: cb78 8325 6458 6fbf a024 fcf9 49f3 c13f
00000030: ccff 985a 8685 ac3f 6246 0355 efbc a33f
00000040: 5f7e 1f26 401d b0bf d6fd 903f cfc5 b63f
00000050: 860b ca5f 25da a2bf b6b2 c679 6887 a53f
00000060: d168 1d58 51ad ca3f 9204 4728 0f04 b53f
00000070: 57fd 6f88 f886 bf3f 35a5 0eb6 d00d b63f
00000080: 74ec 7f3d 15b1 9d3f a372 520a 2b7d afbf
00000090: 86f8 4362 8e22 a5bf c0aa d763 250c a1bf
000000a0: 0030 f91a 5f6d b63f 0b3b b7a8 9741 a4bf
000000b0: 554d e1c4 3ffd c03f e262 404a cf69 d03f
000000c0: 71d3 2c09 d035 b3bf 2991 12d8 23ee 9c3f
000000d0: dc82 6f30 6437 a6bf 0bdc bbf3 6f63 b23f
000000e0: a210 178d 3ac6 b1bf 027b 5c0a 8216 7b3f
000000f0: 506b b095 7929 b2bf ba67 1479 35e9 bf3f
00000100: 95ca 7e07 b5a6 b63f cc57 1898 7636 c63f
00000110: 9ba8 bb91 5733 a7bf 4865 a2cb 1b35 89bf
00000120: 3d31 435d 743e be3f 5235 9be3 4f7c bb3f
00000130: 4815 36cc dbee 80bf b324 fdfb dbe6 b73f
00000140: 79f9 03a1 2416 b2bf 9c94 5a3e 8ab9 953f
00000150: 4541 6628 e7e6 993f 3aae 0655 b71c cf3f
00000160: b7a5 717f 2f04 afbf 7d5b 4909 5dbb b53f
00000170: 7a87 d2a9 0688 b53f f1cd 6a6a e484 b7bf
00000180: cfdf 8c64 72e6 bb3f 861c 1de6 430e 30bf
00000190: e654 4253 46f6 b83f 9e99 dab9 7d69 a6bf
000001a0: 1f4d d729 d5d3 c43f b24c 6ba0 0e3e ac3f
000001b0: 2758 59e8 b7f0 b33f 7a2e 8e70 aeb2 b83f
000001c0: ef66 96a6 539a adbf 154a a6d6 d24b a5bf
000001d0: 9f92 7ab3 a5e9 aa3f baae d0c6 c45a 7b3f
000001e0: 447e 65f9 52bc b43f 7dd0 de94 9610 a4bf
000001f0: f092 e1ba 064b c53f 5505 101e 3140 90bf
00000200: 106a 5b26 1bdc c13f 1065 67d2 56f2 aa3f
00000210: 349c a82e 04fc bb3f 94e9 a37c 0ee8 a7bf
00000220: 688b 8ce7 32c8 b93f 6279 2442 888f b0bf
00000230: 35ce 6c4f 5e55 903f 6123 f88b e92f c23f
00000240: e59a 49c9 ace1 adbf 3f84 6863 3f74 b73f
00000250: be2a 7885 39a9 90bf 0bca a3b2 5198 c43f
00000260: 9dcd b270 46e1 c73f f41d e554 34c6 b23f
00000270: 963a 12c0 e007 c73f 7088 8fb9 3766 c63f
00000280: 48aa 4025 53a5 903f 2ab5 cd74 d6a8 b4bf
00000290: 69e4 b364 8d76 a2bf efe3 9c81 ddeb 8cbf
000002a0: 2c57 9f8d 283d b53f e1eb 4a6d 32ed 59bf
000002b0: 06e7 ed1d 4658 a83f 6fb4 6c77 9ab2 7e3f
000002c0: 1922 0aba fb27 bbbf 8ba8 652e 6e3b b93f
000002d0: 67c1 c430 b010 cd3f df87 ca43 2af0 9cbf
000002e0: 1973 e720 45c4 cd3f fe19 56d1 4dda 88bf
000002f0: fd1c 569f 6b7e b1bf 5660 72ae 7ab3 b63f
00000300: e619 b85d 7522 823f ea7d 7604 a288 a5bf
00000310: 7897 2d9d 6272 c03f 1390 d577 49b7 c33f
