car_ros2/car_ros2/losses/exp5.pth (torch, 346623 bytes, 6 tensors)

lstm.weight_ih_l0 f8 [400, 5]
00000000: 494d dc20 c405 88bf 0679 4ec5 34a1 b3bf
00000010: 4105 98ec febc a7bf ee13 f68c 0d11 ab3f
00000020: adb2 0bde 4796 b3bf 26e4 62b1 6739 cd3f
00000030: fe76 6a4e 342a a2bf 4899 9425 ed62 a2bf
00000040: 9aba 30da cdfd b6bf 5158 6f16 cdd9 b2bf
00000050: 33c0 d80b ed60 c83f 9ad2 cbad f5bc aa3f
00000060: ce82 a249 1a01 b53f ab68 a3c3 7b14 96bf
00000070: 5964 8123 9381 b5bf c0a5 8398 5348 c13f
00000080: 9e84 b036 aceb adbf b894 2f5a 576b c23f
00000090: bfde 5f73 f4b4 b13f 99fa 629d c064 bbbf
000000a0: a88a 43c9 06fe c13f 7388 a4c0 4c84 b8bf
000000b0: 1cf1 cecd a356 d4bf bf1b 122a c317 babf
000000c0: cdae 157f 37f1 73bf b70d 8a0b 1caf d33f
000000d0: d99f b5ec a29d b5bf 97b0 c153 2df0 89bf
000000e0: 2582 b0f7 0246 79bf 53aa 392f 5414 9c3f
000000f0: 394e 6257 56c0 c73f 2d91 8817 6724 b03f
00000100: b6b8 39bf 53ab a9bf 5c35 dcfa 1e0f abbf
00000110: f46f 3937 42ff bd3f 29d2 4493 7e43 c43f
00000120: 497b a6ad d40b 8a3f 67d8 44fd 3a25 a23f
00000130: 9d4c 7880 e371 b13f 5200 4b35 f426 b3bf
00000140: d245 f1ef fca0 b93f 02af 73d7 422c a3bf
00000150: d984 560c 08af adbf 1ab4 a07c de86 b63f
00000160: 96c6 5010 09c3 9bbf 2d0f 0159 050c cd3f
00000170: 15f6 d54b ecc9 a13f e0c0 6bc1 8bc0 d13f
00000180: cf79 98e3 329c a33f 15c4 f029 cd73 bbbf
00000190: 8291 3ecb 8d6c cb3f 748a e1a3 04a4 b03f
000001a0: afdd 00ea 2b4a a8bf 86c8 5826 3220 b3bf
000001b0: 4b6b c41d ec46 b2bf 9f57 11a8 9a1c a83f
000001c0: cfa8 61c5 1ca2 963f 66db da75 4a9e bcbf
000001d0: 383e 437e 088f a83f fa0d 3a19 aa6c b43f
000001e0: bae5 0633 42d5 93bf df44 eefa 7a17 b63f
000001f0: cc4f a331 485e b8bf 4462 7ddc ecdc a0bf
00000200: 45c6 2309 58b1 6bbf 2d7d bfb5 d1d1 c93f
00000210: a6e9 2c9c 0054 a2bf eb34 f9e5 13fe aebf
00000220: b552 553a 7b05 adbf f863 ca8b aa98 a23f
00000230: 8f2d 5b9b 94d4 c53f b40f 86f3 4543 b23f
00000240: 17a3 9dbc d3be bebf cb22 ab83 576d 3dbf
00000250: e850 7b87 eb47 9bbf 245c 9279 de63 a53f
00000260: f667 24a7 959f b6bf ece3 a960 ecf5 773f
00000270: 164f 379c cc51 a13f 308a 25df 900b b1bf
00000280: e73f 76b1 cb8c ba3f 42da 27f3 0cf6 9f3f
00000290: 81ec b4ab 5ade b13f 125c 663d 279b c2bf
000002a0: 936f 6d4b db81 a73f e677 a919 2195 ba3f
000002b0: 72a1 bc13 483f b9bf 1d8d ba8f 8722 613f
000002c0: 9ac3 f62e f349 b83f 0d33 b2ef 6d6b 94bf
000002d0: 504e 787a ac3f d13f dbe9 c495 0a3d a13f
000002e0: a3af 4c23 b070 82bf dd83 4b0a bb38 babf
000002f0: 21b4 aafe 42d9 a13f a693 b2b0 3536 d13f
00000300: 8009 37a5 47b9 b03f 9baa 71c5 4e79 c03f
00000310: c20b 252b e8d1 bf3f 2a09 da47 2508 b73f
00000320: 2024 1610 e58e c63f a4cc 4850 197e a13f
00000330: 8237 b3d7 99cd 88bf 5308 02df 0293 a1bf
00000340: 6223 50fd 27f5 b43f 0966 c7eb 23c4 9ebf
00000350: 2220 1a7e c051 b0bf 527a 687a 1be6 bbbf
00000360: ed37 86bc ff68 b23f 5c6e 69ed 467f adbf
00000370: a60d 1b29 6736 b63f b539 8636 7415 833f
00000380: caf8 0268 b808 b0bf 7f5b 85a5 95c8 c1bf
00000390: 3add 5e78 525f 82bf 25f3 9bbb 9ca7 d33f
000003a0: f8ad 5135 966b ba3f 3bf7 b594 53b3 9d3f
000003b0: 3b15 afd6 e208 a03f a0f7 783f 4210 a9bf
000003c0: 36c4 c980 debd b83f b056 6f72 cee1 8dbf
000003d0: 8a1d 6af8 6b32 ae3f 560d 2ba9 0392 ab3f
000003e0: e788 628c 193a babf 9c95 b761 27a5 9c3f
000003f0: d78e 0991 e2e7 a43f 8be8 63a9 c0b1 c13f
00000400: 6f9a eea9 1480 b5bf 676f 4c14 3990 b1bf
00000410: acab 4cd0 48bb 98bf 981b eff2 8d0c a43f
00000420: 75e5 d5bb f374 913f 17b2 9905 0e87 b6bf
00000430: 1f7d 3b23 c39a a7bf 0e82 f7cd 83a4 ab3f
00000440: d840 ed0f ae38 b83f 0c61 1618 d647 653f
00000450: aed6 62fc 9296 843f 9d6e c7bf 3d18 99bf
00000460: 74ec c484 09d7 b23f f3c2 575a 66a8 b6bf
00000470: 5f9d 9f57 75b3 b43f 495c ae3f f905 babf
00000480: 02ef f8af 8a09 9b3f b952 4cb9 9564 d03f
00000490: 61e3 8670 a3c0 a9bf d459 c1ef 6fbf c33f
000004a0: 2b0f 5fc1 ff85 adbf aacf cadb 1523 83bf
000004b0: e688 d86d 3334 d33f 9a63 1f98 42f5 a33f
000004c0: 12e9 478c af70 b4bf 7dea 953e 2cca 983f
000004d0: 9eaf 01e3 3c40 b63f 7431 f8be 659e dc3f
000004e0: e30b 3852 f4c6 a93f 45be 0df5 14c7 b03f
000004f0: c71b ae8f 3a86 b1bf a101 aded 3832 9ebf
00000500: 0b0a 072f 7dce cb3f ce31 93e9 f16b 7f3f
00000510: 58f9 afa8 ede6 c23f dcc4 7233 569d b33f
00000520: e6ab cc79 c3a1 833f 212c 1f7c fcea d23f
00000530: be8c a051 fa37 943f cbb5 47ef c886 b13f
00000540: 1fec 018b 8413 66bf fe20 63b7 7813 be3f
00000550: a9b3 4597 ecc1 c23f 212f e501 3ac9 b83f
00000560: 12b9 5a71 af50 983f 28b1 a89b 77e3 a7bf
00000570: 35ad e6a3 ae51 9d3f c034 1fbf 5428 33bf
00000580: 62ee 0ceb ac14 b63f a53d 4159 209a b03f
00000590: 61bb 3934 ef62 893f 6b03 cd0b 9ed6 a73f
000005a0: b970 9278 61e3 93bf 8eaf f9ac ba02 b1bf
000005b0: 78a7 4b58 b1bf c03f 00fb 266a 41da b23f
000005c0: 807b 8000 20e8 a13f 7e02 c4e7 695c c93f
000005d0: 9c4a 8e12 8b2d a7bf e4ae 9199 320c a33f
000005e0: e282 29ee 6cc0 9d3f 32b4 c348 69a0 c0bf
000005f0: c67d 360b 2b59 b53f df62 4949 4bb7 a1bf
00000600: 661b c0b5 67d3 c03f afea 8562 59c3 a53f
00000610: 739b 5ca1 8522 b4bf 7152 d152 4d04 903f
00000620: 16d3 bf5b 23db 893f 83fb 100e ee6f b8bf
00000630: 144c 6a99 dfff b1bf 336f 2cba 628a a23f
00000640: c2c4 17a3 b00d a6bf f727 00b2 2ea1 89bf
00000650: 4a62 0ff5 b75b b5bf 5bbc 3075 b98b b63f
00000660: 8e48 f74b acdc 943f 64c8 c9bb 15b4 da3f
00000670: 3ee6 d20c 34ab 91bf 0bba 6676 1e97 8e3f
00000680: cf26 47ef f6cd a43f 7544 8372 c54d b9bf
00000690: efba 8e48 4d7b b83f 292a 0544 e50e b13f
000006a0: d514 a1ca 8b9e babf dc6b 0c1f 8f47 a6bf
000006b0: 7fbd ae0e 41bc b6bf 1e98 acac 8d27 c23f
000006c0: bc5b f64a 92ee a43f abe7 904e 01b4 ac3f
000006d0: 85f5 733c 364f bbbf bb94 e9da b566 bf3f
000006e0: ac79 98b3 bec0 bd3f 8ec8 ff60 f425 89bf
000006f0: 4a4b 2f13 449d b8bf 636e d530 6d74 963f
00000700: 26c7 8342 8043 65bf 23bc 204e 8e5d d03f
00000710: f0a1 9bfc 6c9c 683f eaf3 bdaf f82b a6bf
00000720: 9cf6 2075 9690 ba3f eb3e 5b82 7bb8 c53f
00000730: 2e6e 9843 f690 d13f a989 404d 344c a8bf
00000740: 4468 8451 2524 983f e82f e4f3 a508 ba3f
00000750: 2a4a 6d0d bac9 aa3f 0d53 4d58 0c7c c83f
00000760: db9e 0ee2 3fd5 8a3f 2fae 2f94 b0f6 97bf
00000770: b95c a8eb 2e0f b8bf 1925 1a84 51f4 7a3f
00000780: 9b9d 21f1 d8a9 d03f 1c5a 4638 6f03 a43f
00000790: ee05 1327 a315 63bf 0c33 4ffa 4295 93bf
000007a0: 877e fe78 0348 993f 39d1 6f60 26bd c4bf
000007b0: 2794 2a69 bfbd 3cbf 83b0 6b3f d9e0 c43f
000007c0: 54b8 a0c0 8807 a23f 95ff bdeb 2171 a6bf
000007d0: 388b c1de b6ad bc3f 6825 4ca6 02e4 96bf
000007e0: 51a6 dc84 12b1 61bf 4280 506d 3db8 a7bf
000007f0: 3204 caf9 17a4 52bf 2245 6287 20f3 d63f
-0.01172974801332906 -0.07667856041959817 -0.046363798504908356 0.052864478547270596 -0.07651185198819617 0.22831436311187864 -0.035478243419886354 -0.03591099818941018
-0.08981024338639046 -0.07363588140228329 0.19045794561816506 0.05222289797339848 0.0820480756542665 -0.021562513175788094 -0.08400840393859833 0.13501973101601372
-0.05843866508099292 0.143900794063631 0.06916740242729257 -0.10700610964247871 0.14056477382026356 -0.09576873496237841 -0.31778807733987136 -0.10192508484952521
-0.004868714125546081 0.30756283881074914 -0.08443659094848445 -0.01266513263563977 -0.0061702838820854354 0.027421298391724424 0.18555716769025013 0.06305546116397372
-0.05013524731917711 -0.05284973919161004 0.11717618797541701 0.1583097666822522 0.012717877911936919 0.035440295616738386 0.06814405333016045 -0.07481313992593755
0.1001127324864435 -0.0374470603945536 -0.05797600889787597 0.08799543898267395 -0.027111188526936468 0.22692934842972914 0.0347436754773122 0.27737707031975667
0.03830107715861041 -0.1072357394593982 0.21425030159037922 0.06500271798135221 -0.04744088393675427 -0.07471002041055116 -0.0713946888612728 0.04709323217018312
0.022102784678659056 -0.11179032685582299 0.047966256535457 0.07978308788192826 -0.019368204464375906 0.08629578233946543 -0.0951886292635315 -0.03293552581334727
-0.003380462593775476 0.20171567320265052 -0.03579713732183913 -0.060532209227497656 -0.056682444449199045 0.03632100063732219 0.1705499418807048 0.07133900828745149
-0.1200992904174537 -0.0004490221651108183 -0.026641540664812974 0.04177756532697455 -0.08837256746883768 0.005849765157670977 0.033827203816740134 -0.06658273170391094
0.10371087153021073 0.031212045994801103 0.06979910556849413 -0.14535990236319712 0.04591260238404895 0.10383803249848675 -0.09862184984070213 0.002091660278738096
0.09487838646488314 -0.01994106078614082 0.2695113368983799 0.03366883352505897 -0.009003997876412323 -0.10242814065306001 0.034860700213677605 0.26893369918462395
0.06532714637345372 0.1287020172197416 0.12429667523706114 0.08996804241363479 0.17623580251191218 0.03416518311532826 -0.012110902686256034 -0.034324731562279574
0.08186578688049687 -0.030045090928842586 -0.0637474353662815 -0.10897990931014448 0.07191465714114971 -0.05761167190641167 0.0867676234584481 0.009318263925504814
-0.06263306178422848 -0.13893385488583118 -0.008970875070970597 0.3071052391167533 0.10320414354071505 0.029004388763034 0.03131779547360699 -0.048952169654952415
0.09664717334978054 -0.014590847842480187 0.05897843749431349 0.05384837570229688 -0.10244903256765135 0.027973761882000056 0.040831642346146495 0.13823707839020857
-0.08398560665828268 -0.06860691781588245 -0.024151933396904177 0.03915828314307318 0.017047699298449587 -0.08799827229240297 -0.04610261731226672 0.05398952378505238
0.09461486710393119 0.002597730782053392 0.010052822425090948 -0.024506535368216665 0.07359370700298645 -0.08850707727084366 0.08086331738706097 -0.10165365032877206
0.02640358637857699 0.2561392125656244 -0.05029783962840529 0.15427970129776603 -0.05766295657625017 -0.009344263811136806 0.3000610897744437 0.03898056132283685
-0.07984444784952796 0.0242087281417107 0.08691769163277605 0.44716781281819995 0.050346026455393454 0.06553774817234011 -0.06845441825690478 -0.029488458162860835
0.21723904415382864 0.007671303720780688 0.14767237412156464 0.07661951786100779 0.009585883287931151 0.2955924236418373 0.019744788391233163 0.0684629043750739
-0.0026948536615783026 0.11748461224772552 0.1465430964121002 0.09682047411223184 0.023745290082552613 -0.04665731215604502 0.028631905320861867 -0.00029232090957693677
0.08625298250711347 0.06485178164552126 0.012395733624740836 0.046559275570422574 -0.019422076210148662 -0.06644789431601181 0.1308499985819329 0.07364281503303616
0.03497409826399345 0.19813274208719983 -0.04526934243690059 0.03720243572828766 0.0290543575632708 -0.12989536335899882 0.08339184783698447 -0.03460154790508851
0.13145157217533238 0.04250602080988607 -0.07865176381583953 0.015641410999096942 0.012625004041163328 -0.09545791476646852 -0.07031056876648761 0.03621204874636277
-0.04307319632415264 -0.01251446228708984 -0.0834307645121807 0.08806952582448117 0.02037305081996315 0.41724150980656405 -0.017254651339248854 0.014936674106903266
0.04063388510583154 -0.09884294553491364 0.09563143750595392 0.06663353834770959 -0.10398172089579145 -0.04351470235834373 -0.08881003006421472 0.1418320744643901
0.04088265576427072 0.056060829964237634 -0.10667742706205814 0.12266098589460032 0.116222304197868 -0.012279423914126644 -0.09614968746545319 0.02192850695187899
-0.0025956635546372673 0.25571019773173215 0.003004277100320467 -0.043304225399857746 0.10376873359288158 0.1696924578195572 0.27447277642361 -0.047456392698467305
0.023575385189453138 0.10169446186426934 0.05232030309584375 0.1912856513178202 0.013102053724494514 -0.02340198425728895 -0.09398167851792295 0.006580656454056277
0.26036666439036943 0.03908870279262919 -0.002329653413284608 -0.019124075439140006 0.024688772449393184 -0.16202239712550595 -0.0004385559379137004 0.16311183544837968
0.035213731302392276 -0.04383188250267193 0.1120256704175916 -0.022354165458670222 -0.0021596299838122853 -0.04632751426129335 -0.001137755788619421 0.3585892984493332

lstm.weight_hh_l0 f8 [400, 100]
00000000: 009b 0e46 19d8 b0bf 4ebc a01e 5623 a33f
00000010: 03bf e52e ccef 90bf 25d3 8889 d7d3 aabf
00000020: 7f67 9b93 63cd 983f 863a 1fa0 285a b9bf
00000030: dffb 6d15 c410 b6bf 941a a07a 8890 af3f
00000040: deeb c626 3548 a63f ebc5 72b4 2c13 b0bf
00000050: 20da 823c 4b5a b43f 61eb 98de d9a6 8c3f
00000060: e8f8 ad9a 7c4b ae3f 1fd9 ce57 523f a5bf
00000070: c4b2 66a8 df26 87bf bf96 c5de 6916 b7bf
00000080: ced8 0cbd b6d1 7c3f 74c6 cd54 9cc1 6c3f
00000090: 846b 7ae9 b65d a4bf 748f 01cd 642f 9fbf
000000a0: 0bb6 7c29 2593 b53f 8617 cbcb 0518 a6bf
000000b0: 56a0 c4b5 7fbc af3f 2733 879a 6af5 703f
000000c0: 4a54 ed18 e469 bcbf 397f 82c2 30c5 90bf
000000d0: f847 e020 0e39 9fbf 7206 c61c ecde b2bf
000000e0: 2d6a cb47 fd2a b5bf fb92 eeae 1418 b03f
000000f0: b697 3df2 f6ad 62bf 7660 8335 b1d5 b6bf
00000100: 6e8b 7d1c 69ab 943f f84e f5c8 7382 9fbf
00000110: c6a5 9574 0680 a5bf c426 2faa 1736 b9bf
00000120: 125e ff35 4674 9d3f 405c eab7 dcc3 a53f
00000130: 574b 39f9 08d4 79bf 4e49 72c5 9554 99bf
00000140: b394 aea2 73ad b0bf 9bfb 25df 7547 b3bf
00000150: 96d9 e078 6694 b43f 0a86 312f c570 b7bf
00000160: 6866 5d3a 4713 783f 7f63 931c be74 b73f
00000170: 196f 35be a283 85bf 9760 8b11 6fe4 6fbf
00000180: 1f7f c2ab e6ac bcbf 64b9 7c9f f3ee ac3f
00000190: 9999 ef97 d3bd 903f 1f5f 4fd7 0e32 b03f
000001a0: 7778 3c42 ad1d 80bf 62b8 57ef 2787 b7bf
000001b0: 6792 dc46 bbcb a9bf 46ee 495f 078f 933f
000001c0: e2f7 96a6 36b9 bb3f dee5 dd17 a426 aa3f
000001d0: 50b3 8298 b594 b33f b040 18ae 5e0b b13f
000001e0: 64e2 e09c 63a8 a5bf 5f83 1ebd 51e4 a6bf
000001f0: a3f8 d9d2 9284 74bf ba52 0363 92b5 b1bf
00000200: 6a1f 555b 2984 b4bf ef4c f7fe 40dd b23f
00000210: 015c 8838 1fd2 993f 7f42 d2e9 e02d 94bf
00000220: 53ab 4bdf 3c16 ae3f 1090 c651 b726 b1bf
00000230: 7fd8 1e32 0734 be3f ec3d c7f0 ab9c babf
00000240: 6ceb 6741 0769 b2bf 15a4 b377 8233 91bf
00000250: 74cf ab81 773e b6bf de16 404e 8efb 8a3f
00000260: e491 56f6 2999 693f 1115 03e5 725d afbf
00000270: 984d 6c52 b4a4 b0bf f04c a069 1daa ad3f
00000280: 4453 4e62 6883 a23f ab16 debb 5265 97bf
00000290: fc8e 3055 d2cb a3bf 12a8 0b50 be4a a43f
000002a0: 45ab 1202 ffd2 a1bf 0028 05cd 6afd a0bf
000002b0: beb4 19a5 2c04 b63f 5b80 9423 5788 ba3f
000002c0: 71ad 98c9 d7ca 9bbf bfc7 d7c4 1e0b b33f
000002d0: 02d3 6338 0e52 973f 039d 3fa2 9e21 b43f
000002e0: 9874 4638 06c9 b4bf 7540 01b7 3c56 b23f
000002f0: b77d 07d4 bda7 81bf d6cb f035 95e5 a9bf
00000300: 4b4b 52c2 fa98 9dbf 9e2a 988f 50d3 9cbf
00000310: 5ea3 c7f5 a70c 98bf 145f 0b49 74b4 8bbf
00000320: a02a d8a4 2d04 a2bf d467 d902 b1b7 963f
00000330: 40c3 6b56 1efa 7f3f 5936 4b38 8297 b03f
00000340: 88bb bdc2 b4cc c03f fce6 5f7e acac b3bf
00000350: 2b52 29fc a113 9bbf a970 a289 76ec a03f
00000360: aea1 75b0 c1a3 b3bf de6b 3864 e8ea a0bf
00000370: 1934 1eac f894 c33f b96a 103a c476 ac3f
00000380: c6b7 3956 3d39 bfbf 7ab7 b97f 8eb6 9cbf
00000390: 3d5c b721 82eb b13f fcd9 30e3 b3af 26bf
000003a0: cd03 5010 5752 c13f 1c56 91b3 0d7c bf3f
000003b0: 8b4d b2e4 60b1 c13f a8a2 b8ab 45e6 84bf
000003c0: c22c afe2 4f51 b7bf e7ce 6461 aca4 a23f
000003d0: c3d9 6535 4831 aa3f 362a 252f b552 c03f
000003e0: a4d4 f5fa 49c0 c1bf a0bb a421 29df 843f
000003f0: 578a c166 69f1 a6bf a9af 286f d5af a53f
00000400: ab67 3955 56c4 ae3f 7f37 a0db efbc b83f
00000410: 486b 1dbe 58f4 b23f d413 f225 1701 c03f
00000420: c50f 03ca 52f3 9d3f 458c 1528 57a4 6b3f
00000430: 1fb4 38a5 539a 7b3f ccb2 9ea6 d2b2 b6bf
00000440: 71ca fbcc 74de a83f 9b07 c3d9 fb2b 96bf
00000450: b5be a44a 6365 c4bf 72e8 094a 00dc c03f
00000460: 5bf6 7dd2 bc15 ba3f f1e2 81e9 a284 633f
00000470: 57a5 639b c0c9 c0bf ca78 4c72 9b45 bfbf
00000480: 6cda d793 e258 a5bf 6fa8 7d36 a052 9d3f
00000490: ac67 d93b 3d8c a2bf a747 82c5 9355 a23f
000004a0: 195b f0b5 9322 a8bf a7e6 3bdf e8b3 a2bf
000004b0: 1757 651a 1ff9 bd3f 08e4 b0d1 ba97 b13f
000004c0: 21ef 2e19 3574 b63f 5022 a1c8 ab16 acbf
000004d0: 40c6 5b31 3db6 bd3f b750 436d 9111 863f
000004e0: 7674 d61d 3ad7 9abf a19c 1c93 66a8 b2bf
000004f0: 58b9 4690 bf08 b73f d5b0 df0e c591 c2bf
00000500: cd7c 11d3 431a b9bf 2645 1449 aeb9 b0bf
00000510: eec4 1c71 820e a93f 8fbf c253 3013 bebf
00000520: 5818 df76 c6b0 9e3f 9ebf 12bc 25a7 ad3f
00000530: 9b89 4799 40e8 c43f d91d a8e5 97ca 803f
00000540: ed70 b468 9e01 b7bf ba7f 6974 efc0 c63f
00000550: ca9d 466b 6923 7b3f 3cc0 a7e6 41f1 983f
00000560: c504 c2a6 239a 87bf 4659 f285 026e b43f
00000570: fced a237 5d94 b6bf 99d4 54f9 e8c3 b1bf
00000580: 4135 f62f 7cce a43f 65c7 5f07 0e80 803f
00000590: 3b4e ea4f 71ac a2bf 7f17 5a22 ced2 a0bf
000005a0: d5e9 82ea f91d 5fbf d090 ba8b d541 a9bf
000005b0: 0a38 1c4b 0fe9 bf3f 6504 7c4c 1a1b a13f
000005c0: e60f 8936 a3bb b53f 0df5 bce6 3351 a9bf
000005d0: ff1c 5fae ba61 2fbf 20fb b5f8 162c bd3f
000005e0: 30bc 1f70 ab73 a33f 222f abd5 a478 9fbf
000005f0: b76b 4e0a 488e c0bf 38af 1cdf f1b2 c5bf
00000600: f2c5 ff12 6638 a5bf 2fe8 dbb1 5e1c a3bf
00000610: 730b c51c d0b4 c53f 4b77 631d b434 7abf
00000620: 453f c1ac be03 afbf db0b 797b 9a4c c53f
00000630: 63ef 02cd 28e7 83bf 69cb cbc0 c061 b1bf
00000640: 6582 d1da c977 bc3f 5f7d 3432 65a6 b7bf
00000650: e354 69e8 33e1 adbf 3d19 1a1d ff1d a43f
00000660: eb5b 6b91 26ca a23f 5efa 94b0 91ba 903f
00000670: 0eae b96b 8c34 a1bf a46a 42e8 5d7e b3bf
00000680: 5b3e 2905 0834 9d3f a85f 2be1 2aa4 8fbf
00000690: 5d0b 2230 0f60 aabf 0746 be65 8be4 87bf
000006a0: 1e97 29ba e6b4 b4bf 7d34 d5ff a611 843f
000006b0: 81a4 e145 89ea 9a3f ce11 dfb1 63dc b83f
000006c0: 98bd ffe4 496f b2bf fc0d e5f3 1f0c a33f
000006d0: eccb 3596 ae3c b83f 67c9 e014 9f7e aabf
000006e0: c47d fd3a 0204 a73f 3119 2174 8361 a0bf
000006f0: cbbe 98c9 b721 a53f 8ca1 b722 d1ad b3bf
00000700: c353 6ec0 ce41 a1bf a8cc fbc4 8dc6 aebf
00000710: 4daf 8564 1d04 8fbf a632 e33d 9d05 89bf
00000720: d436 01be d689 b53f ad18 77af e18a b23f
00000730: 987f 38d4 21e2 8e3f fbaf a8f9 be7e b2bf
00000740: fd72 3f7c 4f5f b13f bd70 08b1 e0fa 99bf
00000750: bb75 a051 f840 833f 014a 2cb1 b60b a13f
00000760: f746 8cc6 76b9 a33f 9970 b3a1 366b 703f
00000770: 6c5b 8326 8767 c4bf 1deb 24c8 3599 a5bf
00000780: 696e 2d7e 1908 b73f 5d3e e445 7049 893f
00000790: b118 a3ed f8ed 9dbf 67de ab7e 1774 a9bf
000007a0: e701 89ff cd90 b83f cda2 ae55 6296 7a3f
000007b0: badc 8c5f cc81 b6bf 479e d97d e754 afbf
000007c0: a907 40fa 9ebd 693f 6e05 874c 2960 a4bf
000007d0: d4ab e67d 6c69 a3bf 6914 b2fd 6f1b a73f
000007e0: 86ae 71b5 8d08 b13f 52bc d287 61f3 a3bf
000007f0: 33f3 9725 552b ae3f 378a a5fd 0bcb a33f
-0.06579740486504804 0.03737897037387282 -0.016539755213158546 -0.0523974757565269 0.024220996746272313 -0.09903196248272125 -0.08619332812484924 0.06164957520382078
0.04351965044357774 -0.06279258161045902 0.07950277545283102 0.013990118127471697 0.059169668084892824 -0.04149873086810118 -0.011304614378638951 -0.09018575371518532
0.007035936186005466 0.003510289511205406 -0.03977748489452096 -0.030454230320529033 0.08427650702352467 -0.04315202820502777 0.06198500722740678 0.004140297336971333
-0.11099076851435644 -0.01637722193902322 -0.030491085774038112 -0.07371402456740286 -0.08268721583173351 0.06286744375990942 -0.0022802184266081616 -0.08919818455194836
0.020185129512707282 -0.030771073475377414 -0.041992379886163486 -0.09848163514029823 0.028763863607165936 0.042509934855097686 -0.006305728009084208 -0.02473672883622529
-0.0651466629193063 -0.07530914972265494 0.08038940859919416 -0.09156448747810245 0.0058777601569431695 0.09162510106706455 -0.010504981450757666 -0.003893105440834498
-0.112013260777982 0.05651055642953187 0.016349130772050555 0.06326382404892826 -0.007869103988522348 -0.09190606683088867 -0.05038247337350726 0.019100299063650426
0.10829488341457208 0.051076057351518975 0.07648787473108354 0.06657974005088607 -0.042300331974222144 -0.04471068795761001 -0.005009244470441629 -0.06917681615170582
-0.08014162521169302 0.07368856644398013 0.025215614152411806 -0.019706262847253072 0.05876341081405791 -0.0669970106742428 0.1179813859333496 -0.1039531195485705
-0.0719151053125821 -0.016798056179059346 -0.08689066806601692 0.013175117266665589 0.003124792058502234 -0.06125983281666881 -0.06501318943292345 0.05793849863416678
0.03615881156944181 -0.0228474547543757 -0.038664410494929385 0.03963274695509268 -0.034812897685091694 -0.03318341973006511 0.08600119620105581 0.10364288920072921
-0.027140971831767616 0.07438843065008792 0.02277395457436438 0.07863799534935727 -0.08119238733202605 0.0716283747472078 -0.0086207228022762 -0.05057970317320552
-0.028903883085671194 -0.028149851574236544 -0.023485779167376257 -0.013527782897127895 -0.03518812787304637 0.022185102270988313 0.007806890970400826 0.06481183885917953
0.13124713429303037 -0.07685354314153509 -0.026442080512724935 0.033054069806185034 -0.07671747739880772 -0.03304220412629609 0.15298374561498987 0.05559361656942969
-0.12196715693582325 -0.028040148301833302 0.06999982188368477 -0.00017308302776238005 0.13532532021056767 0.12298665651299995 0.13822566191502647 -0.010204834273353683
-0.0910844734600458 0.03641260804070417 0.051157242315571526 0.12752404024134173 -0.13868069414062234 0.01019127019807603 -0.044810575288256764 0.04235712987823998
0.06009168424925745 0.09663294898947859 0.07404093400456901 0.12503327706158862 0.029248517589408402 0.003374262073224029 0.006738974323110574 -0.08866612022275006
0.04857220651856132 -0.02165215984928857 -0.1593441118688951 0.1317139016644578 0.10189418925252751 0.002382581889886708 -0.13115699374547304 -0.12215587177749679
-0.0416937642548206 0.028635505033357263 -0.03622619014340897 0.03580915246961008 -0.04713880153592793 -0.03652885174774428 0.11708254236631564 0.06872146243485144
0.0877106844408755 -0.054860466233155436 0.11606199698487618 0.010775695940914749 -0.02621165091624219 -0.07288209048839402 0.08997723839158789 -0.14507353998431563
-0.09805702116999555 -0.06533326419982596 0.04893882399336201 -0.11748029751720267 0.02997121906789632 0.05791585846725343 0.1633377788958342 0.008198916145388079
-0.08986845070143419 0.1777629202288134 0.006625568192624562 0.024357824042397377 -0.011524466063067238 0.07980361719305504 -0.08820135696708314 -0.06939560019675851
0.040637856344896146 0.008056745147743969 -0.03647188282516508 -0.032858316129064306 -0.0018992367350124568 -0.04933039980576981 0.12464995940919735 0.03340990241668677
0.0848943718092979 -0.04944765273692484 -0.0002394237882852104 0.1139540059284454 0.03799186462116955 -0.030733657399465326 -0.12934208396185706 -0.16952346223967552
-0.041445913142421534 -0.03732582017069352 0.16958047299166487 -0.006397918294366377 -0.060575445736161394 0.16640025166461112 -0.00971824527402249 -0.06789784151969304
0.11120282737966532 -0.09238274074276863 -0.05835878574422695 0.03929135542152771 0.03669853711260614 0.016336704638201353 -0.033604038381636156 -0.07614695473095395
0.02851879626751806 -0.015449843403459187 -0.05151412451325286 -0.011666382830102696 -0.08088533444387422 0.009799294168852274 0.026285309686873596 0.09711287586748726
-0.07201063004298758 0.03720187999945421 0.09467593352546516 -0.05174729471072475 0.044952459050132926 -0.03199396889299278 0.0412728723134684 -0.0768709859618239
-0.033705197324855905 -0.06010859517655237 -0.015144567136949805 -0.012217739535480842 0.08413450373447101 0.07243166478937964 0.015079750336610506 -0.07224649043263291
0.06786057265658126 -0.025371084981188775 0.009401264182140481 0.033292492988170615 0.03852435277634741 0.004008496670589911 -0.15940942173503048 -0.04218452518622071
0.0899673398066 0.012347104199334763 -0.029228105072228675 -0.04971383496552733 0.09595954407360062 0.006491073722749885 -0.08791806538362126 -0.06119464312797312
0.0031421761541432125 -0.03979615267918289 -0.03791369473341147 0.04513120624418649 0.06653676681315276 -0.03896622450826527 0.05892435153871247 0.03865849944374527

lstm.bias_ih_l0 f8 [400]
00000000: 1059 40d5 b81d b1bf cf1f 7708 bfd3 d13f
00000010: cbe3 4b30 c392 c93f 2274 eb79 c20a c13f
00000020: 3527 0878 d1b2 c53f 4839 4fa9 dbd8 cd3f
00000030: 1036 6940 7dfc b23f 9d82 a812 23aa c73f
00000040: 4066 c284 ce0b b4bf 427f de92 8a3f c43f
00000050: 74c8 7b55 bcfb d43f 3476 784d ff76 76bf
00000060: 8c3b 5fb8 84c4 8a3f a0f7 2511 e943 af3f
00000070: 984f 534f 7987 bd3f 6876 0e8b 031d 9dbf
00000080: 005b 0e25 1ad6 c83f 57fe f7d4 770a 703f
00000090: 9fc6 8961 9c33 c53f c82b e62d 5b22 d03f
000000a0: 0432 b038 fdf5 c83f 8d9c ac2b 162a 873f
000000b0: 1511 a089 f83a b63f 7cc0 d12d 4cd7 d53f
000000c0: 1f6e b1ee 7f33 9c3f 5481 c2c6 7d6f a93f
000000d0: 25fe 94c6 67cc b93f ae22 152b acbd a03f
000000e0: b9f7 fadf edae b83f 0423 92e5 89b7 c83f
000000f0: f640 96b5 e374 ca3f 01a1 3697 ff8c d83f
00000100: ff25 5ec1 e36c d43f 7aa8 2061 64b5 c43f
00000110: 172f b75c cfea c03f b766 75c2 a7c7 b13f
00000120: 4aeb f35c 7f10 9d3f ca1d ae33 d5c3 c63f
00000130: b055 c099 5573 87bf 79bb 9d83 c781 a43f
00000140: 18a8 9b60 40e4 a2bf d78c 5001 1d4d e13f
00000150: b86a f118 fe40 ad3f 4d82 83a2 c7af d03f
00000160: 3f74 2510 657d c73f aef5 9c33 3e11 cb3f
00000170: 10c8 2a6d 77e5 d43f 3286 53cf 1446 b93f
00000180: 44ec 1488 e9b1 cf3f 63b6 d74c d319 a2bf
00000190: dc40 2894 89dd b53f 79ed cea9 b776 d33f
000001a0: 3282 ffd5 7c93 cf3f 86c5 4551 e163 db3f
000001b0: e3c9 9496 5332 c53f c20a 382a 6495 c13f
000001c0: e064 3a60 8c8a c63f f271 9d3c c769 b73f
000001d0: 84fb bebb 9218 cd3f ecf9 dec4 53d5 c33f
000001e0: dba1 a328 2098 bc3f 8127 15cf 1c7f c83f
000001f0: 6423 bd75 7da8 a7bf e0a5 f6fb 78d1 573f
00000200: 828f 9658 1f59 c33f 29dc 3de9 eed0 d53f
00000210: d20e 32f9 cfa4 c03f 10c8 717d b7ec a23f
00000220: 35fb b111 3b6d be3f 11f2 8cf3 3729 b73f
00000230: 17c7 981b a1fd aa3f 1b79 a474 243f 8cbf
00000240: 525a e5e4 9509 b43f e076 fdf9 02b6 b43f
00000250: cd57 43b2 c76e c93f 0ac9 ccae f47e be3f
00000260: 42cf 5353 d239 c13f f17c 3e72 9013 7c3f
00000270: 082a ab29 2393 ce3f 42c5 7256 22b4 d33f
00000280: 7b5e 7b20 7556 82bf 1d51 1e8b ec52 a83f
00000290: 4cc0 8278 6c3f ba3f ee47 73ad 203d c33f
000002a0: af15 97cc 3a9b c53f f4f3 ae04 c4b8 c23f
000002b0: 8316 df4d 0eba b93f 5718 cc63 9326 c03f
000002c0: 5b55 f78a bd68 b03f 53e5 a6bb 5641 c03f
000002d0: 8b6b 6d2d ec43 7a3f 37b5 edb8 c963 d23f
000002e0: 1bf9 c412 d2b9 ae3f 774b 4553 84fe c33f
000002f0: 1e1c 6929 85b2 953f 94a2 8ad9 7690 ad3f
00000300: 00b9 a6db 9332 e03f 30a6 4e39 426a 783f
00000310: f1ef 04b4 a1b2 c43f 101b 692a 4cba be3f
00000320: 56c5 a939 4a11 a7bf 2527 6860 3f2b a3bf
00000330: a870 4f41 28ed c53f 32b1 c53f 456a 993f
00000340: 3439 413a 8d71 a5bf 42e0 c179 69a9 acbf
00000350: 5dfb bb62 096c 9b3f aa1e 6fde cc23 b4bf
00000360: 6db2 2eba 9293 b53f 7b27 f0b8 54cd b0bf
00000370: 418f 7d6c 0b2a c13f 3e0d 08d4 f2d2 8fbf
00000380: 38d6 0495 3494 b53f 8902 f89f 23ac b03f
00000390: 0b16 d2eb d094 9c3f 2125 c73e c117 a0bf
000003a0: e5e2 9248 5647 c53f 724b 298e d83e c33f
000003b0: e95a 0ee2 cba4 a63f df48 48c9 6956 a23f
000003c0: 3d0e ac01 ad5e c33f 8569 4715 8f81 913f
000003d0: 3f4d ba70 3917 c53f e371 0ecc 8fbd a4bf
000003e0: 81de 49a9 966a 803f 8eed 88ac e13d b23f
000003f0: 8017 3d9e 3574 963f 76c3 249a 0b0c 96bf
00000400: ba43 0798 f471 be3f faa0 e090 cff4 853f
00000410: 7e9d e5eb dbb0 c33f 39e1 108d becd a5bf
00000420: be37 ed3f 1c10 ae3f ba17 d119 a80a bd3f
00000430: 1f0d c13c 6523 94bf 3062 8975 8f06 b93f
00000440: 5994 f5d9 f244 ba3f 075a c37c ee5c 983f
00000450: de52 ef87 922e b33f c84b a47b 039c bc3f
00000460: 6ebe a110 59a6 b73f fcb9 7eb1 9b3d b63f
00000470: b117 a25b 6356 b73f 17fd 29ed a938 d03f
00000480: 4914 efab 92b9 c33f 2f7c 9e89 5948 c13f
00000490: 986c f1ee 7f12 c0bf f860 85db 877f 8dbf
000004a0: 67c6 3c35 db66 afbf 6b9e cb16 69c5 c83f
000004b0: 15da 00c8 df7b a33f 123f 9225 d243 acbf
000004c0: 8172 bcea 4785 c4bf 7195 86c3 5fe2 c83f
000004d0: 844d b280 d038 c93f 50a1 be3f dc43 a93f
000004e0: a77b fa42 3e67 c43f bce3 d7f5 7132 8abf
000004f0: d622 8f24 d701 b83f 33c1 c22d 0456 c33f
00000500: 8833 4e08 de28 a8bf 0da3 9303 e76a b33f
00000510: a5ee 4c9b b9fc ac3f 381d 251a f625 cb3f
00000520: 8541 caa2 dc83 b53f ae75 8b91 136a a7bf
00000530: a961 f693 af9c 823f 91ab 3efd 637e ac3f
00000540: ef48 bfd4 cb1b b1bf 5c44 1c81 000c c63f
00000550: 6098 95be 36dd ad3f 3226 2d91 02b6 c13f
00000560: 257e 573b b820 acbf becb b7c8 66ed b23f
00000570: 80fc 07ec 54f4 c73f 6048 1c82 5ad0 87bf
00000580: 8911 34b7 08fc 333f 2aab c03d 7984 a53f
00000590: c02b e1e8 f3b6 c63f cacf 9c8f 885a ba3f
000005a0: 944a 370c b44a 7ebf efde 8a4c 6bc7 b93f
000005b0: 01bb 1c1d 461f c63f ba34 d6e3 9154 793f
000005c0: 1835 af3f fe19 b33f 2752 7c45 c17e 6b3f
000005d0: 5440 7d73 0140 b03f 4fb8 5e5f 69e6 bb3f
000005e0: 6f9c dd28 2efd b13f 0673 eb51 5e30 b73f
000005f0: 1184 7f2d 5666 aa3f 6efa b648 4bc4 a33f
00000600: d0db 6af5 63a5 a1bf cd02 2cac 9f86 8a3f
00000610: c805 be50 7b8a c63f 86cc 709b bbfd c43f
00000620: ddeb a78f ba2d a43f 09a1 e92c 4072 b63f
00000630: c459 6c03 b708 88bf 1f1b 338b 0118 b9bf
00000640: 733e f402 9ad5 b13f 18ac bfa0 6027 d0bf
00000650: 6a88 fe00 ff81 89bf 7f95 de5a 7e56 c8bf
00000660: 4c5e 227b d911 c63f 3b1b 1074 a225 d4bf
00000670: 7594 1b46 4745 a4bf e27e 10e5 6dd8 b3bf
00000680: f09f a9b2 b89f b0bf 54aa 3c00 d9ca ddbf
00000690: 3ecb 1939 af61 bdbf 3ed3 76a9 537d 9dbf
000006a0: 00d6 4020 be34 c1bf f2a2 8987 f5d6 b9bf
000006b0: faec 7e0b 980c b3bf 0d4f a45f f047 943f
000006c0: ea41 0b53 3414 c53f 1279 b1c3 1772 c23f
000006d0: aa99 8e92 861c cf3f 322b 81ac 50be 9abf
000006e0: b0ad 38e4 3485 b5bf fc7f 27df 1528 bfbf
000006f0: 410c df7b 22b6 b3bf 7144 d7f5 2b03 cebf
00000700: 354d a000 78c7 c3bf 4421 631a 6e27 803f
00000710: 513d 59e2 0873 bdbf 216d 781f 0e05 b13f
00000720: 066b 9b93 9eb9 b6bf a697 de86 a611 c2bf
00000730: 8ae1 9866 549a 70bf 1c41 3b06 0594 d8bf
00000740: a10a 5604 7286 c03f e3c6 cf74 27c3 c03f
00000750: b185 bd23 3d65 acbf 6868 9d9e c9a4 bebf
00000760: 633d ecf0 520f 8ebf 991d d1d2 8f1b 92bf
00000770: 6524 fe05 36ac c8bf 2a62 c772 9a86 c03f
00000780: 4602 cfde ab91 b83f 9d92 de51 b2dd 7a3f
00000790: 5f5e 5c22 2b2c afbf 22f1 1750 c740 65bf
000007a0: 47df a513 db8c b53f d11c fe55 a965 b23f
000007b0: d581 fd12 9ff9 6ebf 34f4 77c3 1295 a1bf
000007c0: 5c97 c399 1694 a5bf 431d c37c 40a2 b73f
000007d0: cc10 b27c 94ce 72bf bb09 8d03 d546 a93f
000007e0: 27c8 395c b03a 8c3f d842 c1e1 8d08 d7bf
000007f0: c51a be5f da8d bc3f 5fe7 7b4c f243 b0bf
-0.06685977178890234 0.2785489638013105 0.19979133470749696 0.1331408591567263 0.1695195995419511 0.23318048255027635 0.07416518042119713 0.18487966929480573
-0.07830515614696143 0.15818912669510082 0.32786472652435994 -0.0054845783957069745 0.013070141674601542 0.061064990371036076 0.115348417154847 -0.02843099151833997
0.1940338784158584 0.003916233151812407 0.16563753855330263 0.2520969341500714 0.19500699298841095 0.011310742576439626 0.08683732376090732 0.3412657210783505
0.02754020590178474 0.04967873622195165 0.10077522848313743 0.03269708658132707 0.09641920774717407 0.1931011553717995 0.20669218412923102 0.3836058594411185
0.3191460979802229 0.1617856477981297 0.1321658327782351 0.06945274827503566 0.028383245514287204 0.1778513433784908 -0.011450451616876162 0.04005263787882191
-0.03689767054841314 0.5406632447888126 0.05713647894363788 0.2607287489936752 0.1835142449225788 0.2114637138383108 0.3265055242619619 0.09872560559917856
0.24761695046058396 -0.03535328209896418 0.0854116427146922 0.304120937183789 0.24668846558690088 0.4279712003400039 0.16559834339712073 0.137371559729294
0.17610315989148884 0.0914577982889069 0.22731241385733025 0.15494773018686148 0.11169625274818122 0.19137916671234836 -0.04620735227815123 0.0014537507521289392
0.15115730119316245 0.34087727334503143 0.13002967517615233 0.03696225553802901 0.11885422880184822 0.0904726953130608 0.05271628820299961 -0.013792309579511433
0.07827126348761596 0.08090227702401931 0.1986932392525759 0.11912469165398334 0.1345770747062663 0.006854595416285068 0.2388652757129679 0.30786951486796366
-0.008953967145699728 0.04750765989516224 0.10253026907116797 0.1503029677319882 0.16879973401789303 0.14626360157663465 0.10049523736150871 0.1261772382060282
0.06409821169593981 0.12699398195926878 0.006412432258765653 0.28734057483127934 0.06001144866103144 0.15620473924590403 0.021188812878133338 0.057742799811710516
0.5061740198196105 0.005960711180628617 0.16170140542988024 0.12003017459310805 -0.045053786791764125 -0.03743932773438833 0.17129996479969134 0.024819452302311258
-0.04188195549123677 -0.0559800110940505 0.026779314662231147 -0.07867126875418742 0.08428303761929508 -0.06563310160723106 0.13409560010324564 -0.015539071174322513
0.08429268491894326 0.06512663512695317 0.027911438363409185 -0.031431235230750205 0.1662395338405737 0.1503554052493104 0.04422604689096039 0.03581553060588915
0.15132677632947092 0.017095790551914476 0.16477125171932447 -0.04050874105380211 0.008015801469112961 0.07125673734929291 0.021927678855056865 -0.02153032425229947
0.1189263220942526 0.010720845803078739 0.15383481043248176 -0.04258532974239632 0.05871666221956627 0.11344385748188204 -0.01966627295793188 0.0977563535647128
0.10261457272788856 0.023792005886969416 0.07492938822481274 0.11175557869527986 0.0923820176701555 0.0868775661790337 0.09116192805421865 0.2534584823660721
0.15410073657236215 0.13502043933564908 -0.12556456725255738 -0.014403401743650054 -0.061331606148439737 0.19352449048095663 0.03805445972868796 -0.05520493229516722
-0.16031741105770794 0.19440838858751477 0.19704633983620223 0.04934585836537286 0.15940073271209806 -0.012791529002230344 0.09377808229977388 0.15106250986492284
-0.047186792863704474 0.07584995114633504 0.05661563893087632 0.21209598805055818 0.08404330229155306 -0.045731174008078454 0.00908791704459662 0.0556517836224294
-0.06683038658164596 0.1722412710592235 0.05832835270375436 0.13836700524034168 -0.05493713116061042 0.07393495941486969 0.18714391255341312 -0.011627871604592055
0.00030493939193856255 0.04202631834808408 0.17745827551911297 0.10294393068471588 -0.007395461379433716 0.10069914454185967 0.17282940312858133 0.006184167750132358
0.0746153741340162 0.0033563399155218834 0.06347664899408417 0.10898455217713486 0.07026947496125201 0.09058179378503092 0.051562016538589835 0.03860697996741612
-0.034464954097920164 0.012952086869974089 0.1761011261224168 0.16399331178545057 0.03941138270962317 0.08768082710742332 -0.01173537234494127 -0.09802255295208483
0.06966555187340777 -0.25240340898625524 -0.012454979150622065 -0.19013957440362714 0.17241972458281152 -0.31479703268307774 -0.039591052349160195 -0.07752119867700061
-0.06493715631370356 -0.4655058386148643 -0.11477179664670431 -0.028798396318694623 -0.13442207884661173 -0.10093626555466154 -0.07441091805133118 0.01980567535163318
0.16467908911592072 0.14410683684668207 0.2430580344782361 -0.026116619614451504 -0.08406382152377634 -0.1217054052171988 -0.07699790500832739 -0.2344717932124101
-0.154524803453208 0.00788770692851471 -0.11503654028023404 0.06648338573761638 -0.08876982787789353 -0.1411636503736961 -0.004053430262097266 -0.38403440102139696
0.12910294734691255 0.1309556312913208 -0.055459890950042896 -0.11970195887025314 -0.0146776656888778 -0.017683264963378773 -0.19275546352972409 0.12910776714740396
0.09597276868499546 0.006559082566955835 -0.060883853859363006 -0.0025943653897667765 0.0841805384605979 0.07186373090199828 -0.0037811381261436496 -0.03434046398249571
-0.04214544894220637 0.09231951757384586 -0.004591541316703206 0.049368530925238706 0.01378381520700962 -0.3598971085203124 0.11153950536218378 -0.0635367809990419

lstm.bias_hh_l0 f8 [400]
00000000: efa6 bf2a 8c35 b83f 087f dc81 3f2f bd3f
00000010: d2e3 4b18 b24b cb3f 1374 bb46 6a37 c63f
00000020: 3227 0812 adae c63f 4f72 9eb2 8c25 b53f
00000030: 0e6c d260 fc3e a73f 4f05 51b5 2d13 b33f
00000040: a1cc 8489 6d25 aebf 367f de92 5824 c83f
00000050: 61c8 7bc9 4c08 d13f e80e af49 35a7 a8bf
00000060: e0ce 17ce 3447 a33f f87d 49fc d179 c23f
00000070: b17d 9a3a e2dc 8c3f 5876 0e8b 9f92 9ebf
00000080: e65a 0ed1 d0b9 c23f f9ff 9eca 21e9 a33f
00000090: bdc6 491e 10bb cd3f 942b e6d9 6495 d83f
000000a0: e431 b06c df69 c33f b9e5 645d b159 5a3f
000000b0: cd21 4033 de84 a13f 83c0 d1e9 bd14 d83f
000000c0: b548 a7f8 25ad a6bf 4281 c2c5 4fe9 a53f
000000d0: b103 d6f2 a87e aabf e076 ab53 dc62 84bf
000000e0: 4401 a100 c699 6bbf 8711 c96a 477a d53f
000000f0: 7720 cb7a 122d d63f 0aa1 36c7 76ac d43f
00000100: 934b bc2a c6a9 c53f 77a8 20e1 6bb3 c43f
00000110: 3f5e 6e89 3ac4 b43f b166 755e 104d b73f
00000120: 50eb f3f4 d018 9d3f 5277 b8ee 69be a93f
00000130: 7da9 3f66 6eb2 803f c324 12e3 0386 7abf
00000140: cb57 64e7 1e9e a63f c419 a172 a985 de3f
00000150: 52b5 f875 2b41 b43f a104 077d c62e ce3f
00000160: 3d74 2510 c26f c73f adf5 9c31 e122 c73f
00000170: 05c8 aa13 2785 da3f 5be1 d4d3 db68 d13f
00000180: 57ec 549e fb0d c43f a1ed 3543 6d79 cabf
00000190: fd81 50f0 33da ad3f 90ed cee9 e9e5 d63f
000001a0: 13c1 ff8a 758e d73f a7e2 12bb a1d0 e03f
000001b0: 7827 536a 5372 af3f b10a 388e d311 c93f
000001c0: 5932 1dca 37ad d03f f371 9d08 45ac bd3f
000001d0: 6ffb be55 b8e6 cf3f 3031 0621 2b15 4fbf
000001e0: 0fd1 510c 722c c63f 8a27 156f f2f9 cb3f
000001f0: f973 0ba9 b3c7 863f 9bda 2ff7 7fb1 b03f
00000200: 59dd a325 ba7a 633f 24dc 3db7 bf80 d93f
00000210: a90e 3231 ca91 c13f fa8f e37a a884 983f
00000220: 57fd d8a3 4c0b c63f 12f2 8cf3 2677 b13f
00000230: d731 e696 0c4d c53f 1787 5b8b 638e 8e3f
00000240: 715a e5e4 195c bd3f 3dbb fee4 1ab6 c73f
00000250: e5ab 21fe d5bc d23f 1391 ccec 8677 773f
00000260: 979e a73d df56 b83f 4a9f 8fdc 8c6a 913f
00000270: 062a ab39 c978 ce3f 8c8a e524 6c7b c63f
00000280: 015c af3d d00b 1cbf 1851 1ecb 08b8 a83f
00000290: 52c0 8248 0d84 b73f b247 73df 371e c03f
000002a0: da8a 4b18 a417 d03f a59f 7725 ff17 993f
000002b0: 8616 dfe5 f391 b93f 3cc3 601e ca5f 903f
000002c0: d4aa 7b75 2351 cc3f 4fe5 a6eb da25 ca3f
000002d0: c55a 5b0b 237c 9a3f 44b5 edac 02a9 d13f
000002e0: 4a83 9d76 34d7 b3bf 614b 45db 531a c83f
000002f0: f946 5aba 34e7 b83f b1a8 6236 c2b1 c23f
00000300: fa71 4d37 6225 d93f 82a9 530e af1a 963f
00000310: 9608 c4fe 86bf 61bf 758d 3494 04c4 c33f
00000320: 531d 2b83 4112 bc3f fb26 68a0 ca76 abbf
00000330: 54c2 3d75 9364 ac3f 6d27 1d50 8ba6 a4bf
00000340: ac9c 209d 23d5 b4bf 12f0 e054 70ea b3bf
00000350: e3fe aed0 60f9 b63f a51e 6f1e 6fac b1bf
00000360: c264 5dfb b445 a23f c64e e061 a7d4 a2bf
00000370: 391e fbd8 9ed5 b93f bdfc fdea 3c6b a73f
00000380: 2ed6 04fb de9c b13f 680a e037 7b52 9a3f
00000390: 020b e9a5 416f ab3f a92a 3976 10d3 72bf
000003a0: 058b 4bc2 0655 ad3f 5d4b 290a ad4b c13f
000003b0: a0d2 f8e6 f120 b2bf af24 a44e 0505 b73f
000003c0: 981c 58fb 2640 bf3f e3b4 a382 7f18 ae3f
000003d0: 719a 74e1 5c5c b23f dbe3 1c98 c8d7 9abf
000003e0: ba3b 293d 4dcd b73f 45b6 23e2 c55b 983f
000003f0: e345 8f5f cc25 bd3f ce86 49b4 18f8 8cbf
00000400: 28f1 e29f e208 94bf 4828 38b0 bc6a a23f
00000410: 2e3b cb27 81b6 be3f a270 88dc 1e26 b8bf
00000420: 15b2 04f0 8701 c1bf c2bd 88ce f931 8a3f
00000430: 3786 60de 8ff0 a6bf d93b edd4 cade a9bf
00000440: 08ca fa70 ec38 c53f 656b 987f 242a c13f
00000450: 79a9 f79b 8414 c53f 7d5f 225d 7bc3 8b3f
00000460: 2ff9 865a 631f 903f f75c bf28 770e cc3f
00000470: c917 a223 4411 b13f fff9 53d0 e69a c23f
00000480: 5628 deb7 c35c bb3f cdc3 e719 bd8e 823f
00000490: 36d9 e21d 1f94 bfbf c0a7 1e61 fa36 ac3f
000004a0: 9a39 c32a 4756 a63f cb3c 97f5 88ff bc3f
000004b0: 7336 002a bce1 c73f 2de0 36fd 72d5 b33f
000004c0: 08e5 78ad 9b4c bbbf 7895 86db b553 c63f
000004d0: cd9a 64c1 74fe b03f 467a 0581 7fec 8fbf
000004e0: 44f7 f455 8db3 b63f de06 8ab6 f67f a53f
000004f0: 7f91 4712 852e c73f ac82 85eb 4e87 b73f
00000500: 46e6 d80b de9d b33f f48b 4e1e 8378 9d3f
00000510: 5a77 a6c5 445b bf3f f439 4a54 2a51 b83f
00000520: a1be 358d 7b4e b2bf b9ba c528 f00b bebf
00000530: fe65 3f91 5967 c33f a5ab 3e8d 9d97 a83f
00000540: 14dc 024d 26c6 993f e788 38c4 7a2d bc3f
00000550: 0066 654c d060 c33f b1ce 9676 9473 98bf
00000560: d608 a2b2 ca3f 833f 7368 90ee 94d1 a0bf
00000570: 20f2 1fd0 3c27 a43f 2624 0ec1 ace5 9fbf
00000580: 1d9a 5b54 6dc9 c13f dd2a 704f 3c5d c13f
00000590: d22b e158 e979 c53f 2f81 1983 9094 8bbf
000005a0: d54a 370c 545f 78bf 0685 d48d 9f38 95bf
000005b0: 05bb 1cdd ffa2 c33f 7ec6 7a5c 9374 a53f
000005c0: 116a 5e2f b9d9 a43f f274 5017 4cd1 99bf
000005d0: fffc 15a4 d7e3 8fbf e6c1 f57a 6a29 863f
000005e0: 49c7 44fe 06dc a2bf 90cb ad67 94fb 913f
000005f0: 6610 feb5 68a6 803f e482 a43b dff5 bcbf
00000600: d3db 6a35 c1a1 a0bf c800 0b0b 976c a03f
00000610: 4ca5 1ff4 bc21 8cbf 6b32 c38d 7727 a03f
00000620: d7eb a78f 2f7e a43f 7bd0 7434 0e7e c03f
00000630: a016 db60 89e3 a7bf ee25 67a6 83a5 8c3f
00000640: 763e f4b2 fe44 b73f 50b0 fe42 b8cd bcbf
00000650: 47d1 7fe6 00d5 bbbf 7795 de42 f3c0 c6bf
00000660: 345e 22f7 7863 cd3f 411b 1001 e8d2 d0bf
00000670: 33d6 c827 085b 9c3f f97e 10e5 1d92 bbbf
00000680: 09c0 ac4a de5a a13f 39aa 3ce8 d06a d5bf
00000690: c659 cec8 e95f 8dbf 9969 bba2 e480 a3bf
000006a0: 1ed6 40a4 85a2 c9bf da45 13df b965 acbf
000006b0: fcec 7e13 215e b5bf 9bd8 2d40 a269 a4bf
000006c0: dc83 165e 07c3 bb3f 0379 b123 7b34 c03f
000006d0: eb4c 47d9 3a43 d13f e84a 209f eea3 b7bf
000006e0: 1cb6 e2f0 d832 91bf 13c0 93f3 633a c8bf
000006f0: 8a18 be5b 65cc a9bf 43a2 2b16 6bdf d2bf
00000700: 1d4d a01c 4e87 cbbf d09b b33c 7cd0 b6bf
00000710: 4b3d 5922 3929 bbbf d992 8720 ea09 b8bf
00000720: fdd5 3647 bad5 abbf 9297 deef 3133 c5bf
00000730: 1dc7 3473 65d6 c3bf ff40 3b56 4762 ddbf
00000740: 8455 b062 9a8d 9c3f e18d 9f1d 6f64 b13f
00000750: c3c2 de11 5480 b1bf bf44 eb34 2977 85bf
00000760: eac3 0ecf 5e21 c5bf 3ab8 4b4b 9ca5 b83f
00000770: 6624 feb5 7240 c9bf 2162 c724 c8ca c33f
00000780: 3981 679f 7358 c03f 42d2 3b1a 6d44 a13f
00000790: 452f 2ef1 1b1c b2bf 6040 7fc5 5879 b43f
000007a0: 6482 68f1 a25d 97bf ca1c fe85 95f9 b33f
000007b0: 2e5f bfc4 3b04 89bf 04fd dd54 f7dc c1bf
000007c0: f7d0 780c dddc 963f 1aeb 18e6 8e61 8c3f
000007d0: a5de 34e8 3609 ba3f 3f4c 681c 5d11 713f
000007e0: fd8f 73b8 70fe 773f e942 c1f5 d727 d0bf
000007f0: 4a0d df15 6376 c23f 583a df4b 22db 8bbf
0.09456707042377464 0.11400219841425152 0.2132475489268289 0.17356613591883327 0.17720569019757587 0.0826042114335419 0.04540241891773898 0.07451139141723682
-0.05887930206008574 0.18860919162124795 0.26613158870816817 -0.048150696987731056 0.03765263572486588 0.1443426591749668 0.014093177236019412 -0.02985619817956428
0.14629564483467233 0.03888803099061983 0.23227120856204478 0.38411828307351326 0.15166847998661048 0.0016082984999016127 0.034216827160040354 0.3762659819976834
-0.04428976688690637 0.04279565133151887 -0.051747588770929005 -0.009954186728858117 -0.0033692233310206616 0.33558831623329194 0.346500987925999 0.3230263657992657
0.16924359404273712 0.16172550671155125 0.0811192117238244 0.09101965242498512 0.028414978934033386 0.05028086699552027 0.008152830596334532 -0.006475463088585434
0.04417511534317916 0.4769080752779724 0.07911941175617201 0.23580247025350778 0.18309808529275698 0.18075194284930998 0.4143769924222627 0.2720250672023405
0.15667672377626005 -0.20683065206308718 0.058305380902542205 0.35778282006114015 0.3680700166141985 0.5254677442345227 0.06141911194715893 0.1958565182140624
0.2605723832864775 0.11590987644508015 0.2492285174066313 -0.0009485684004615687 0.17323136903326783 0.2185652773280789 0.011123088451705941 0.06520843300664085
0.002377856796666283 0.39848320860568465 0.13726165201307097 0.0239435505872194 0.1722198295628725 0.06822436758097464 0.1664138542950144 0.014920022669176398
0.11468660200385174 0.18524490529440554 0.29277562921077865 0.005729224253432602 0.09507556205027821 0.017008019411064702 0.23806109729623887 0.17564155389398584
-0.00010698755742964695 0.048279070658425904 0.091858701899356 0.12592218790683557 0.25144293186728606 0.02450560251409652 0.09988331186385765 0.015990408043026635
0.2212261508605794 0.20428024774973116 0.02586416966263518 0.27594057929566795 -0.07750251670723887 0.1883034535081505 0.09727792310357221 0.14604976325546695
0.39290671730648763 0.021586165666044994 -0.002166522657831636 0.1544194911631213 0.10965356304506217 -0.053640682297624274 0.05545483404319343 -0.04033313134148284
-0.08137724481695113 -0.07779600212319362 0.08974270911039244 -0.06903738492030216 0.0356880719034023 -0.0367786700227533 0.10091584012399658 0.04574003571087235
0.06879991176978059 0.02570526627097039 0.05358319425842774 -0.004595817855782038 0.05728932496801601 0.1351219462981942 -0.07081519974674189 0.08992036027861404
0.12207263599713014 0.05878065557213021 0.07172184471401423 -0.026213773998481443 0.09297640555563094 0.023787586142978396 0.11385800679206386 -0.014145081521920313
-0.019565144547173535 0.035970589171555434 0.1199722978737838 -0.0943316734705513 -0.13285922259946462 0.0127906337885112 -0.044804092307697045 -0.050527895442989475
0.16579967037758103 0.1340985892319068 0.1646886598167148 0.01355644586537585 0.01574473609957144 0.21919145097374557 0.0666697108264024 0.1453522221781469
0.10688422430954012 0.009061314919536568 -0.1233539054836442 0.055106949191511045 0.0436269988727986 0.11327415462368433 0.1865763859827215 0.07747572595587889
-0.10663769707834458 0.17442963809041223 0.0663826915884826 -0.015587803006096423 0.08867724751050071 0.04199191072713203 0.18110717194134549 0.09190839052235827
0.07662761487235867 0.02878002998808067 0.12248639893956917 0.09498848493442563 -0.0715100497961836 -0.11736966128749317 0.1515914878098527 0.04803173398189323
0.025169943285359223 0.11006896296069933 0.15139201860692708 -0.023878402460197182 0.009399016930050779 -0.03284898197326038 0.03936185875497622 -0.03114957741084736
0.13895956629785725 0.13565782431427112 0.1677829441053676 -0.013466958046763537 -0.005950287162209651 -0.02072381308710638 0.1534118489884905 0.04190502647305737
0.04072359755737776 -0.02521246807383632 -0.015571293540004747 0.010821182134095286 -0.03683492521157789 0.017561262920434084 0.008129900030106007 -0.11312670904272754
-0.03248409058635784 0.03207847604562769 -0.013736225318967364 0.03155110936640856 0.040025221143842486 0.12884690820067476 -0.04665784175226162 0.013987568393434704
0.09089652890201613 -0.1125140346109117 -0.10871892573760987 -0.17776337399588346 0.22959816042997405 -0.2628726969127691 0.027691008976225184 -0.1076983150710439
0.03389639531667405 -0.3346445339144882 -0.014343096199621718 -0.038092751374011864 -0.2002722789781481 -0.05546360824667902 -0.08346754766437309 -0.03986842187343705
0.10844465300625877 0.12660159342608077 0.26972838610272615 -0.09234515557208633 -0.016795530035485937 -0.18928193467536455 -0.05038754219917603 -0.2948863712795495
-0.21506668470156223 -0.08911873323414388 -0.10609776581371937 -0.09390128416232403 -0.05436498755754469 -0.16562484943750327 -0.1549803555040449 -0.459123453340922
0.027883922837721467 0.06793875191902245 -0.06836438595088183 -0.010481187751255281 -0.16508088217008715 0.09627701605106234 -0.19727929960598373 0.15462590976564264
0.1276993301717171 0.03372517533526721 -0.07074141157334875 0.07997660466867407 -0.02281813238562548 0.07802710076622357 -0.012215105954893692 -0.13955585140136162
0.02232690228102371 0.013857952496541471 0.10170310181717442 0.004166949953758935 0.005857887568001982 -0.2524318599653684 0.14423788612303162 -0.013601558628491592
