car_ros2/car_ros2/losses/exp5_delay.pth (torch, 234863 bytes, 6 tensors)

fc.0.weight f8 [150, 40]
00000000: 0000 00c0 8c95 bb3f 0000 0060 f825 a33f
00000010: 0000 0020 4ae6 b83f 0000 0060 4ffb bcbf
00000020: 0000 00e0 64ee 8bbf 0000 00c0 33a0 a3bf
00000030: 0000 0020 b8d9 be3f 0000 0040 93fc b33f
00000040: 0000 00a0 3902 c4bf 0000 00a0 907f 9abf
00000050: 0000 0040 6a1e b53f 0000 0080 17e8 bd3f
00000060: 0000 0060 0117 c0bf 0000 00a0 ddb9 a7bf
00000070: 0000 0040 bb3b bbbf 0000 0080 4d1e b8bf
00000080: 0000 0040 bd14 863f 0000 0040 4772 aa3f
00000090: 0000 00e0 1a87 bcbf 0000 00c0 75ec 853f
000000a0: 0000 0060 ed07 b23f 0000 0000 7bbe b8bf
000000b0: 0000 00e0 cae2 bbbf 0000 0020 042c c3bf
000000c0: 0000 0060 6588 c3bf 0000 0060 304c bfbf
000000d0: 0000 0000 2db6 aabf 0000 00a0 6fb9 b23f
000000e0: 0000 0040 fe9f c23f 0000 0000 a4b8 c03f
000000f0: 0000 00e0 f7a1 b6bf 0000 00e0 d5bd be3f
00000100: 0000 0080 4167 9bbf 0000 0080 5a51 bc3f
00000110: 0000 00a0 42f0 babf 0000 0020 dc59 963f
00000120: 0000 0080 4108 c0bf 0000 0080 1844 a7bf
00000130: 0000 0060 fb0f adbf 0000 0040 71df bcbf
00000140: 0000 0080 3186 b6bf 0000 00e0 bbe1 bbbf
00000150: 0000 0060 d1da 93bf 0000 0000 8717 a7bf
00000160: 0000 0060 5a0f c0bf 0000 0000 ce26 bb3f
00000170: 0000 0060 c08e b7bf 0000 0040 1400 adbf
00000180: 0000 0060 818c 8abf 0000 0060 d2ea b73f
00000190: 0000 0020 34e5 b73f 0000 00c0 8245 c1bf
000001a0: 0000 00a0 4d28 bebf 0000 0000 9c99 aa3f
000001b0: 0000 0020 928b b23f 0000 00e0 94f6 c2bf
000001c0: 0000 0000 c04a 7a3f 0000 00e0 0461 c03f
000001d0: 0000 0000 5af3 b43f 0000 0020 5e03 8b3f
000001e0: 0000 00a0 0ccf a4bf 0000 00c0 208f 89bf
000001f0: 0000 0020 7bf1 b8bf 0000 0080 c1a1 89bf
00000200: 0000 00a0 f04c bbbf 0000 00c0 3036 a43f
00000210: 0000 00e0 4a58 a13f 0000 00e0 d52c b73f
00000220: 0000 00a0 4258 c3bf 0000 0080 9f10 bdbf
00000230: 0000 0060 c1e0 a83f 0000 0080 092d b7bf
00000240: 0000 0040 3e2f a8bf 0000 0060 6579 8c3f
00000250: 0000 0040 1355 abbf 0000 0080 7b9c 9cbf
00000260: 0000 0020 fbe7 b3bf 0000 0060 6937 bcbf
00000270: 0000 0040 2d04 b8bf 0000 0000 bb82 8d3f
00000280: 0000 0060 540c b23f 0000 00c0 e397 7abf
00000290: 0000 0060 5e25 b6bf 0000 0020 4581 b1bf
000002a0: 0000 00c0 d55d b9bf 0000 0000 485d aebf
000002b0: 0000 0020 3459 a93f 0000 00a0 b4cf a3bf
000002c0: 0000 0080 488e b13f 0000 00a0 9ce3 c3bf
000002d0: 0000 00c0 5d37 86bf 0000 0040 5e03 b0bf
000002e0: 0000 0080 0675 aebf 0000 0020 a44a 9a3f
000002f0: 0000 0060 2e03 bc3f 0000 0080 fce6 b83f
00000300: 0000 0060 ec95 b0bf 0000 0080 1386 b4bf
00000310: 0000 0060 858e c03f 0000 0000 5475 9fbf
00000320: 0000 0040 103c 9d3f 0000 0000 2ff3 c2bf
00000330: 0000 00a0 86d7 b5bf 0000 00e0 3935 c2bf
00000340: 0000 0040 7e39 acbf 0000 0060 3d9d 953f
00000350: 0000 0060 d74c b3bf 0000 0020 1948 a3bf
00000360: 0000 0060 4ced a43f 0000 0080 8483 b6bf
00000370: 0000 00c0 61d8 b93f 0000 0080 7cf4 a7bf
00000380: 0000 0020 e909 bfbf 0000 0080 6e11 c13f
00000390: 0000 0040 f6fd aa3f 0000 0040 d537 9cbf
000003a0: 0000 0060 0cbe b53f 0000 0080 b958 b13f
000003b0: 0000 00c0 60fd c13f 0000 0080 93e2 ac3f
000003c0: 0000 0060 3415 8bbf 0000 00e0 401a b43f
000003d0: 0000 0060 5b11 aebf 0000 0060 af02 c03f
000003e0: 0000 00e0 fbc3 b53f 0000 00e0 f056 b6bf
000003f0: 0000 00c0 584b c03f 0000 0080 c58a b13f
00000400: 0000 0020 3685 a9bf 0000 0000 24e7 c23f
00000410: 0000 0040 7246 b7bf 0000 0040 33e5 b9bf
00000420: 0000 0080 1ee2 ae3f 0000 00e0 1975 a73f
00000430: 0000 00c0 d590 c03f 0000 0040 6b74 c23f
00000440: 0000 0040 1f9a 91bf 0000 0080 11e2 abbf
00000450: 0000 00c0 e5ad c3bf 0000 0020 bb79 a5bf
00000460: 0000 0020 ea1f ad3f 0000 0080 230b 963f
00000470: 0000 0060 f4c2 9d3f 0000 0060 f372 b0bf
00000480: 0000 0060 2c18 c3bf 0000 0000 1250 b3bf
00000490: 0000 00c0 244f abbf 0000 0080 8d66 c1bf
000004a0: 0000 0020 6337 c1bf 0000 0040 791f aebf
000004b0: 0000 00c0 b64a c13f 0000 00a0 a892 b0bf
000004c0: 0000 0040 6296 bb3f 0000 00c0 469d c03f
000004d0: 0000 0020 3bd6 bdbf 0000 0020 2b39 75bf
000004e0: 0000 0060 e9aa 953f 0000 00c0 3d8c b5bf
000004f0: 0000 00e0 1b4f abbf 0000 0020 9664 9e3f
00000500: 0000 0020 daac b63f 0000 00e0 05d9 c3bf
00000510: 0000 0040 6609 bcbf 0000 0020 b2d6 c3bf
00000520: 0000 0080 2cbd a13f 0000 0040 2623 c3bf
00000530: 0000 0080 092e aebf 0000 0040 4178 b33f
00000540: 0000 0080 4bdc babf 0000 0040 8d56 c3bf
00000550: 0000 00e0 9519 b33f 0000 0040 d18b bf3f
00000560: 0000 0000 4703 c13f 0000 0060 171e b6bf
00000570: 0000 0040 5aef ab3f 0000 0020 f22d ba3f
00000580: 0000 0000 0952 bf3f 0000 0060 8618 bc3f
00000590: 0000 0040 fc4e c1bf 0000 0040 7431 bebf
000005a0: 0000 00e0 c75b c2bf 0000 0000 0e9f c03f
000005b0: 0000 0020 344b a33f 0000 00c0 c3be bfbf
000005c0: 0000 0000 d213 c4bf 0000 00a0 4df8 b7bf
000005d0: 0000 0020 f89c a23f 0000 0040 4d9d 933f
000005e0: 0000 0080 b660 b7bf 0000 00c0 962c b03f
000005f0: 0000 0060 d4fd 9b3f 0000 0040 1464 87bf
00000600: 0000 0000 80d1 b33f 0000 0020 36d6 963f
00000610: 0000 0020 c9cb b4bf 0000 0060 0928 a4bf
00000620: 0000 00c0 d344 93bf 0000 00a0 34ca 97bf
00000630: 0000 0020 e2ea b83f 0000 0020 adf1 883f
00000640: 0000 0060 5bb2 b3bf 0000 00c0 43f7 b23f
00000650: 0000 0080 e87d 8d3f 0000 00e0 6e0e 95bf
00000660: 0000 00c0 0e51 90bf 0000 00e0 3b64 c2bf
00000670: 0000 0040 9bd3 a1bf 0000 00a0 5cb7 b63f
00000680: 0000 0000 8736 933f 0000 0000 fe27 883f
00000690: 0000 00a0 d2ac 94bf 0000 00c0 19d7 8e3f
000006a0: 0000 00c0 c885 ab3f 0000 00a0 f6b3 abbf
000006b0: 0000 0080 be91 bcbf 0000 0020 a75a c33f
000006c0: 0000 0080 5b74 a9bf 0000 0040 56a5 a03f
000006d0: 0000 00a0 8f41 b63f 0000 0080 126c 9ebf
000006e0: 0000 00a0 5102 6e3f 0000 0020 0da3 ac3f
000006f0: 0000 0000 5dbc bd3f 0000 0000 d431 bc3f
00000700: 0000 00c0 a7ab c3bf 0000 00a0 5eb5 b03f
00000710: 0000 0000 98f7 c3bf 0000 00a0 d00c b83f
00000720: 0000 00c0 84b9 8a3f 0000 0000 f158 be3f
00000730: 0000 0040 19b0 b53f 0000 0080 1961 b1bf
00000740: 0000 0000 dbb2 98bf 0000 0060 8491 c0bf
00000750: 0000 00e0 b259 9cbf 0000 0020 ecab b0bf
00000760: 0000 00a0 6d79 a6bf 0000 0080 56f2 acbf
00000770: 0000 00c0 32eb bb3f 0000 0000 53c8 aabf
00000780: 0000 00a0 a43a afbf 0000 0040 82f3 c23f
00000790: 0000 00c0 4b97 b5bf 0000 0020 c784 c2bf
000007a0: 0000 0020 150e b73f 0000 0000 17ac b83f
000007b0: 0000 00e0 dd35 c33f 0000 0000 f6c0 b9bf
000007c0: 0000 0060 3b04 c23f 0000 0040 c081 aebf
000007d0: 0000 0020 f657 a53f 0000 0040 17a1 8f3f
000007e0: 0000 0000 37b7 c1bf 0000 00a0 ddd8 87bf
000007f0: 0000 00c0 6a21 b7bf 0000 0080 f673 9ebf
0.10775069892406464 0.037399064749479294 0.09726393967866898 -0.11320968717336655 -0.01363829430192709 -0.03833162039518356 0.12050963193178177 0.07807274162769318
-0.15631790459156036 -0.025877246633172035 0.08249534666538239 0.11682268977165222 -0.12570206820964813 -0.04633991792798042 -0.10638017952442169 -0.09421238303184509
0.010781744495034218 0.05165312439203262 -0.11143653839826584 0.010704917833209038 0.07043346017599106 -0.09665650129318237 -0.10892932862043381 -0.1497807651758194
-0.1525999754667282 -0.12225630134344101 -0.052171140909194946 0.07314202934503555 0.1455076038837433 0.13063478469848633 -0.0884089395403862 0.12008415907621384
-0.026761077344417572 0.11061635613441467 -0.10522858053445816 0.02182716317474842 -0.12525194883346558 -0.0454414039850235 -0.05676255747675896 -0.11278446018695831
-0.08798512816429138 -0.10891317576169968 -0.019389411434531212 -0.04510137438774109 -0.12546853721141815 0.10606086254119873 -0.09202196449041367 -0.05664122849702835
-0.012963305227458477 0.09342684596776962 0.09334111958742142 -0.13493379950523376 -0.11780247837305069 0.05195319652557373 0.0724421814084053 -0.14815007150173187
0.006418943405151367 0.12796078622341156 0.08183825016021729 0.013190017081797123 -0.040642160922288895 -0.012480026111006737 -0.09743470698595047 -0.012515556067228317
-0.10664276033639908 0.0394759401679039 0.03387674316763878 0.09052788466215134 -0.15113098919391632 -0.11353489756584167 0.04858974739909172 -0.09053096175193787
-0.047235436737537384 0.013903419487178326 -0.05338344722986221 -0.02794068306684494 -0.07775849848985672 -0.1102205142378807 -0.09381373226642609 0.01440950483083725
0.07050063461065292 -0.0064925095066428185 -0.08650770038366318 -0.0683787539601326 -0.09908805787563324 -0.059305429458618164 0.04950869455933571 -0.03869404271245003
0.06857731938362122 -0.1553836613893509 -0.010847790166735649 -0.06255139410495758 -0.05948658287525177 0.02567535825073719 0.10942354053258896 0.09727457165718079
-0.06478764861822128 -0.08017084002494812 0.12934939563274384 -0.030721008777618408 0.0285494364798069 -0.1480463743209839 -0.08531991392374039 -0.14224933087825775
-0.0551261380314827 0.021107634529471397 -0.0753912553191185 -0.03765944018959999 0.04087294265627861 -0.08794429898262024 0.1009579747915268 -0.04678715765476227
-0.12124497443437576 0.13334447145462036 0.05271882563829422 -0.027556736022233963 0.0849311575293541 0.06776008009910583 0.14054498076438904 0.056416139006614685
-0.013224038295447826 0.0785255953669548 -0.058726172894239426 0.12508194148540497 0.0850217267870903 -0.08726411312818527 0.12729939818382263 0.06852373480796814
-0.049844447523355484 0.14767885208129883 -0.09091867506504059 -0.10115356743335724 0.060318902134895325 0.04581528529524803 0.12942001223564148 0.14417782425880432
-0.017189491540193558 -0.054459139704704285 -0.1537444293498993 -0.04194435849785805 0.05688411369919777 0.021526865661144257 0.029064005240797997 -0.06425400823354721
-0.14917521178722382 -0.07544052600860596 -0.0533381924033165 -0.13594216108322144 -0.13450278341770172 -0.05883387476205826 0.1350925862789154 -0.06473783403635025
0.10776342451572418 0.12979969382286072 -0.11655015498399734 -0.005181473214179277 0.021159788593649864 -0.08417116105556488 -0.05333792790770531 0.029680581763386726
0.08857501298189163 -0.1550605148077011 -0.10951842367649078 -0.15498949587345123 0.0346464067697525 -0.14951017498970032 -0.05894498527050018 0.0760536938905716
-0.10492393374443054 -0.15107885003089905 0.07460915297269821 0.12322719395160675 0.1329125165939331 -0.08639665693044662 0.05456048995256424 0.10226357728242874
0.12234550714492798 0.1097492203116417 -0.13522294163703918 -0.11794210970401764 -0.14342592656612396 0.1298539638519287 0.03768313303589821 -0.12400458753108978
-0.15685486793518066 -0.09363255649805069 0.03635383024811745 0.01915474608540535 -0.09131947159767151 0.06318037211894989 0.02733547054231167 -0.011421354487538338
0.07741546630859375 0.022301526740193367 -0.08123452216386795 -0.039367955178022385 -0.018817242234945297 -0.023232290521264076 0.09733403474092484 0.012179710902273655
-0.07694026082754135 0.07408545911312103 0.014400307089090347 -0.020562870427966118 -0.015934210270643234 -0.14368389546871185 -0.03481755405664444 0.08873537927865982
0.01876269280910492 0.011795029044151306 -0.020190516486763954 0.015058709308505058 0.05375506728887558 -0.054107386618852615 -0.11159887909889221 0.15120400488376617
-0.049715861678123474 0.03251142054796219 0.08693788200616837 -0.029709137976169586 0.0036632150877267122 0.05593148246407509 0.11615544557571411 0.11013531684875488
-0.15367600321769714 0.06526748090982437 -0.15599346160888672 0.09394554048776627 0.013049161061644554 0.11854463815689087 0.08471830189228058 -0.06788787245750427
-0.024119779467582703 -0.12944082915782928 -0.027685923501849174 -0.06512332707643509 -0.043895173817873 -0.056536391377449036 0.10905759036540985 -0.05230960249900818
-0.060994286090135574 0.148056298494339 -0.08433984220027924 -0.1446770578622818 0.09005863219499588 0.09637588262557983 0.15008138120174408 -0.10060060024261475
0.14075414836406708 -0.059583671391010284 0.04168671742081642 0.015443975105881691 -0.1384037733078003 -0.011644107289612293 -0.09035365283489227 -0.02973923832178116

fc.0.bias f8 [150]
00000000: 0000 0040 442d a83f 0000 0020 4da1 b63f
00000010: 0000 0040 c3a7 ac3f 0000 0040 b7fe 943f
00000020: 0000 00a0 aabd bb3f 0000 00a0 14c3 c2bf
00000030: 0000 00e0 cbd1 a4bf 0000 00e0 617b b33f
00000040: 0000 00a0 4135 c2bf 0000 00a0 7c64 b13e
00000050: 0000 00c0 aeb9 9bbf 0000 0000 ed07 babf
00000060: 0000 00a0 48ed b13f 0000 0020 80e4 bbbf
00000070: 0000 00c0 0deb adbf 0000 00c0 40db c03f
00000080: 0000 0060 b488 ba3f 0000 0000 d187 9ebf
00000090: 0000 00c0 080e aa3f 0000 00c0 046f a53f
000000a0: 0000 0000 68c4 683f 0000 00a0 8e04 bebf
000000b0: 0000 0000 a47b 913f 0000 0000 ca90 bcbf
000000c0: 0000 00e0 1c31 c03f 0000 0020 b865 af3f
000000d0: 0000 0040 3ba2 86bf 0000 0040 c8f7 a5bf
000000e0: 0000 0060 58a9 afbf 0000 00c0 c705 b83f
000000f0: 0000 0020 01c5 a23f 0000 0040 90cb b7bf
00000100: 0000 0000 31f9 bb3f 0000 00c0 2679 c33f
00000110: 0000 0020 7fcd c1bf 0000 0040 d807 c23f
00000120: 0000 00a0 bee0 a73f 0000 0040 c5c6 c13f
00000130: 0000 0000 b40f bbbf 0000 00a0 2543 b8bf
00000140: 0000 0000 f20c c43f 0000 00c0 7a13 96bf
00000150: 0000 0080 f1da bd3f 0000 0060 cd91 c0bf
00000160: 0000 00c0 875c bc3f 0000 00e0 5e6b bebf
00000170: 0000 0060 50d4 bdbf 0000 00c0 272e b13f
00000180: 0000 0020 568c a3bf 0000 0040 1d44 a63f
00000190: 0000 0000 148a bc3f 0000 0060 cf54 82bf
000001a0: 0000 00c0 e5a0 96bf 0000 00a0 46d2 c33f
000001b0: 0000 0060 3acc b23f 0000 00c0 0de8 b63f
000001c0: 0000 00c0 5ca0 89bf 0000 0000 4af9 a73f
000001d0: 0000 0060 f28d adbf 0000 0080 f233 c0bf
000001e0: 0000 0040 268e af3f 0000 0020 195c b93f
000001f0: 0000 00a0 32f7 6ebf 0000 0020 3c0d ad3f
00000200: 0000 0080 36f5 73bf 0000 00a0 e1dd b53f
00000210: 0000 0080 fad8 86bf 0000 0040 3e57 ac3f
00000220: 0000 00e0 2164 b8bf 0000 00c0 4f4c 963f
00000230: 0000 00e0 c984 c13f 0000 0020 61ed c03f
00000240: 0000 0060 1c80 943f 0000 00e0 6a98 b53f
00000250: 0000 00e0 7055 bb3f 0000 00a0 1756 aa3f
00000260: 0000 00c0 4a8e a43f 0000 00c0 acb6 bb3f
00000270: 0000 00c0 9819 b23f 0000 0080 3f0a 8dbf
00000280: 0000 00e0 8795 94bf 0000 0060 0b6f b4bf
00000290: 0000 0000 624e a9bf 0000 0060 7311 c3bf
000002a0: 0000 0000 4c21 a8bf 0000 0020 3ea3 c2bf
000002b0: 0000 00e0 7b8d 8abf 0000 00e0 0572 c0bf
000002c0: 0000 0080 18a0 ab3f 0000 00e0 dc3e bfbf
000002d0: 0000 0080 6b5f c03f 0000 0040 f4a8 803f
000002e0: 0000 00c0 8fa1 9c3f 0000 0020 49f5 ac3f
000002f0: 0000 0040 1182 ae3f 0000 00a0 1ccc b73f
00000300: 0000 00c0 473d bcbf 0000 00c0 a010 6ebf
00000310: 0000 0000 4b5e abbf 0000 00e0 5031 a23f
00000320: 0000 00e0 c580 a8bf 0000 00e0 004b 93bf
00000330: 0000 0040 c2ef bb3f 0000 0020 3c7b c3bf
00000340: 0000 0020 39e7 9e3f 0000 0040 1c6b c2bf
00000350: 0000 0000 10c3 b3bf 0000 00a0 d5bc a23f
00000360: 0000 0020 8651 aa3f 0000 00e0 79b6 bd3f
00000370: 0000 0080 a184 c3bf 0000 0020 d7a4 ba3f
00000380: 0000 00a0 1fbd 60bf 0000 0060 ad23 b9bf
00000390: 0000 0000 288d ba3f 0000 00e0 3327 af3f
000003a0: 0000 0080 adbb ae3f 0000 0080 f035 b33f
000003b0: 0000 0080 8be7 c03f 0000 00e0 6e20 c23f
000003c0: 0000 0080 f6d5 babf 0000 00c0 4be0 bb3f
000003d0: 0000 00a0 5550 ba3f 0000 00c0 657a c13f
000003e0: 0000 0060 e81f c03f 0000 0080 9d85 9cbf
000003f0: 0000 0040 c35c aa3f 0000 00a0 897a c0bf
00000400: 0000 00a0 aec3 c13f 0000 0000 e72a c4bf
00000410: 0000 0020 8724 c2bf 0000 00e0 ad7c ba3f
00000420: 0000 00c0 75bc c0bf 0000 00a0 8930 a43f
00000430: 0000 00c0 b9ce 52bf 0000 00a0 5e97 95bf
00000440: 0000 0040 10bc b33f 0000 0060 7d79 b93f
00000450: 0000 00c0 c549 8f3f 0000 00a0 08fa c03f
00000460: 0000 00e0 d359 aabf 0000 0020 f3cc c2bf
00000470: 0000 0040 29d9 aebf 0000 00c0 d7b5 c33f
00000480: 0000 0060 5385 c03f 0000 0080 84d8 99bf
00000490: 0000 0020 0139 903f 0000 0020 40a8 bf3f
000004a0: 0000 0000 d7de c3bf 0000 0040 0ef5 c0bf
0.04722035676240921 0.0883987620472908 0.05596742779016495 0.020502913743257523 0.1083628311753273 -0.14657838642597198 -0.04066311940550804 0.07610141485929489
-0.14225025475025177 1.036675371324236e-06 -0.02707551047205925 -0.10168343782424927 0.07002691179513931 -0.10895539075136185 -0.05843394249677658 0.1316910684108734
0.10364844650030136 -0.02981497347354889 0.05088832229375839 0.04186262935400009 0.0030233412981033325 -0.11725703626871109 0.017073214054107666 -0.11158430576324463
0.12649880349636078 0.061322931200265884 -0.011051619425415993 -0.042906053364276886 -0.06183887645602226 0.09383819997310638 0.036659274250268936 -0.09294988214969635
0.1092711091041565 0.1521347463130951 -0.13908375799655914 0.14086440205574036 0.046636540442705154 0.1388784945011139 -0.10570836067199707 -0.09477458149194717
0.1566450595855713 -0.02155868336558342 0.11662206053733826 -0.1294495314359665 0.11078689992427826 -0.11882584542036057 -0.11652090400457382 0.06711052358150482
-0.03818005695939064 0.04348842054605484 0.11148190498352051 -0.008950824849307537 -0.022098150104284286 0.15485461056232452 0.07342877238988876 0.08947835862636566
-0.012512898072600365 0.04682379961013794 -0.05772359296679497 -0.12658530473709106 0.06163138896226883 0.09906155616044998 -0.0037799824494868517 0.05674159899353981
-0.004872525110840797 0.08541689068078995 -0.01115604117512703 0.055353112518787384 -0.09527789801359177 0.02177548035979271 0.13686488568782806 0.13224424421787262
0.020019954070448875 0.08435695618391037 0.10677247494459152 0.05143808200955391 0.04014810174703598 0.10825614631175995 0.07070307433605194 -0.01417970284819603
-0.02010166458785534 -0.07981940358877182 -0.049426138401031494 -0.14897005259990692 -0.047129034996032715 -0.14560677111148834 -0.012965171597898006 -0.1284797042608261
0.0539558082818985 -0.12205296009778976 0.1279119849205017 0.008134754374623299 0.02796005830168724 0.05655888095498085 0.05958608537912369 0.0929582491517067
-0.11031006276607513 -0.003670038189738989 -0.05345377326011658 0.035532500594854355 -0.047857459634542465 -0.01884080283343792 0.10912717878818512 -0.15219832956790924
0.030178921297192574 -0.1438937485218048 -0.0771951675415039 0.03659694269299507 0.0514032281935215 0.116065613925457 -0.15248507261276245 0.1040777638554573
-0.002043306129053235 -0.09820064157247543 0.10371637344360352 0.06084596738219261 0.060025617480278015 0.07504180073738098 0.13206619024276733 0.14161477982997894
-0.10482731461524963 0.10889123380184174 0.10278830677270889 0.1365477740764618 0.12597374618053436 -0.027853451669216156 0.0514889732003212 -0.12873955070972443
0.1387842446565628 -0.15755927562713623 -0.14173974096775055 0.10346495360136032 -0.1307513415813446 0.03943281248211861 -0.0011479200329631567 -0.021085241809487343
0.0770883709192276 0.09951003640890121 0.015277428552508354 0.13263042271137238 -0.05146658048033714 -0.14687956869602203 -0.06025055795907974 0.15398690104484558
0.1290687769651413 -0.025240011513233185 0.015842454507946968 0.12366104871034622 -0.15523803234100342 -0.1324785053730011

fc.2.weight f8 [150, 150]
00000000: 0000 0000 065f 9b3f 0000 0060 4c54 a5bf
00000010: 0000 00c0 4e8f a53f 0000 00a0 dfa4 963f
00000020: 0000 00e0 5484 a33f 0000 0060 5ea6 9f3f
00000030: 0000 00a0 a0c7 aebf 0000 00c0 3477 7e3f
00000040: 0000 00a0 c880 adbf 0000 00a0 384e 7b3f
00000050: 0000 00c0 bc2e 9dbf 0000 0080 c25d b33f
00000060: 0000 0040 a2af b1bf 0000 00a0 aa8b a0bf
00000070: 0000 00e0 d2af aebf 0000 0060 bfa7 b43f
00000080: 0000 0060 638c aebf 0000 00e0 5ec4 acbf
00000090: 0000 0080 8382 a2bf 0000 0080 dacd 88bf
000000a0: 0000 0040 5160 af3f 0000 0080 bc4b a03f
000000b0: 0000 0060 0c00 a1bf 0000 0020 48ae 9cbf
000000c0: 0000 0060 9010 a2bf 0000 0020 dae2 9abf
000000d0: 0000 0080 0f31 97bf 0000 0080 c598 963f
000000e0: 0000 0040 a576 abbf 0000 00c0 9644 b23f
000000f0: 0000 0000 b412 24bf 0000 0080 eef6 ae3f
00000100: 0000 0020 a1a2 903f 0000 00a0 202a aabf
00000110: 0000 0060 c6f9 b13f 0000 00a0 7508 51bf
00000120: 0000 00a0 dc6a b2bf 0000 0040 91a9 b1bf
00000130: 0000 00a0 112a 6abf 0000 00e0 a7e9 aa3f
00000140: 0000 0040 5e30 8b3f 0000 00c0 e9c1 a33f
00000150: 0000 00a0 25fa 733f 0000 0080 2630 7ebf
00000160: 0000 00c0 fe3b a8bf 0000 0020 205b a3bf
00000170: 0000 0040 1820 afbf 0000 00c0 22f3 a63f
00000180: 0000 0040 d9e9 a4bf 0000 0020 6831 313f
00000190: 0000 0000 8cdd 913f 0000 0060 f136 a3bf
000001a0: 0000 0060 5a94 923f 0000 0080 5228 753f
000001b0: 0000 00e0 dfc3 b23f 0000 0020 4d26 b03f
000001c0: 0000 0020 2af1 96bf 0000 0000 36a4 a83f
000001d0: 0000 0040 f20a a43f 0000 0040 a643 a53f
000001e0: 0000 00a0 da1b 8bbf 0000 00e0 3ada b3bf
000001f0: 0000 0060 a84e b43f 0000 0080 25f8 a33f
00000200: 0000 0000 e245 9b3f 0000 0060 2e7f a9bf
00000210: 0000 0020 8946 93bf 0000 0080 bbe9 a9bf
00000220: 0000 0060 047c b4bf 0000 00e0 73ac a73f
00000230: 0000 0060 902e 4cbf 0000 00e0 b8ca a5bf
00000240: 0000 00a0 8591 a73f 0000 0060 8bf3 903f
00000250: 0000 0020 6c45 a63f 0000 0040 e44f b0bf
00000260: 0000 0040 d1cf a6bf 0000 00c0 103f a0bf
00000270: 0000 0000 3124 6fbf 0000 00a0 851a 8bbf
00000280: 0000 0000 6e24 b23f 0000 00e0 3d50 adbf
00000290: 0000 00a0 3815 afbf 0000 0080 b899 af3f
000002a0: 0000 0000 048a b43f 0000 0040 efaf 9f3f
000002b0: 0000 00c0 63af 80bf 0000 0000 e477 b1bf
000002c0: 0000 0080 235e a8bf 0000 00a0 13b4 a73f
000002d0: 0000 00c0 8719 a13f 0000 0080 3e64 8a3f
000002e0: 0000 0000 2c9a b03f 0000 0080 492a b33f
000002f0: 0000 00e0 2d16 90bf 0000 0000 c35b 7ebf
00000300: 0000 00e0 70cd 9e3f 0000 00a0 91c8 89bf
00000310: 0000 0020 28c6 b33f 0000 0080 3a92 a9bf
00000320: 0000 0020 6020 b13f 0000 0080 15d0 9f3f
00000330: 0000 0060 d6f8 b33f 0000 0040 dd6f b13f
00000340: 0000 0080 7ff3 713f 0000 0080 60a8 a53f
00000350: 0000 0020 774c 9e3f 0000 0060 c17d b4bf
00000360: 0000 0040 910e 7cbf 0000 0000 307c 91bf
00000370: 0000 0080 5b6a aabf 0000 00a0 cd87 883f
00000380: 0000 0000 9957 83bf 0000 00e0 a5ee b23f
00000390: 0000 00a0 2fa3 ae3f 0000 00e0 5cb2 adbf
000003a0: 0000 0060 4d01 91bf 0000 0080 a600 953f
000003b0: 0000 0000 13df 963f 0000 0020 824a a33f
000003c0: 0000 0040 52ca a5bf 0000 0000 a7e9 b33f
000003d0: 0000 0080 ded6 9ebf 0000 00c0 5d49 a4bf
000003e0: 0000 0060 3054 92bf 0000 00a0 6adf 9f3f
000003f0: 0000 0000 8f3b 94bf 0000 00a0 342a 83bf
00000400: 0000 0000 c221 b23f 0000 0080 9c9b b33f
00000410: 0000 00a0 a134 7ebf 0000 0060 fa2e a5bf
00000420: 0000 00c0 b78a 9e3f 0000 0080 4865 983f
00000430: 0000 00c0 5118 92bf 0000 0020 55c4 8bbf
00000440: 0000 00c0 8495 b43f 0000 00a0 8702 a6bf
00000450: 0000 0060 333a abbf 0000 0080 1fe5 a4bf
00000460: 0000 0000 9c8d 9c3f 0000 0040 764a 9f3f
00000470: 0000 0080 2e72 a1bf 0000 00e0 2339 b43f
00000480: 0000 00a0 03f6 b2bf 0000 00a0 e196 adbf
00000490: 0000 00a0 405c 61bf 0000 0040 47de 963f
000004a0: 0000 0000 9715 b23f 0000 00a0 9692 a9bf
000004b0: 0000 00a0 f4ef 9fbf 0000 0080 994c a23f
000004c0: 0000 0080 7ced b03f 0000 0020 ad29 b0bf
000004d0: 0000 00e0 3d6c 963f 0000 00c0 2186 a23f
000004e0: 0000 0060 3917 863f 0000 00a0 f416 983f
000004f0: 0000 0020 dd15 96bf 0000 0040 f6b5 b2bf
00000500: 0000 0020 051a 983f 0000 0020 c8ed 553f
00000510: 0000 00e0 025d a6bf 0000 0080 3fa5 b2bf
00000520: 0000 00c0 f390 a5bf 0000 0080 bab6 a93f
00000530: 0000 00a0 4cbd 86bf 0000 00c0 b5f1 79bf
00000540: 0000 0020 f21d 7bbf 0000 00a0 0f26 ab3f
00000550: 0000 0060 a280 94bf 0000 00a0 65a0 b43f
00000560: 0000 00c0 4023 8dbf 0000 0040 5d3d a8bf
00000570: 0000 0060 9626 b4bf 0000 0040 7fc7 893f
00000580: 0000 00a0 89d0 783f 0000 0020 88f5 803f
00000590: 0000 0040 ce9f acbf 0000 00a0 9b54 a1bf
000005a0: 0000 00a0 6ec3 b0bf 0000 00a0 ce1c 95bf
000005b0: 0000 0020 0c9e b3bf 0000 0020 83ac b1bf
000005c0: 0000 00c0 ca44 773f 0000 0060 683a 8e3f
000005d0: 0000 0060 52c2 a23f 0000 0000 8057 a23f
000005e0: 0000 0040 b57a a43f 0000 0020 01d7 b03f
000005f0: 0000 0040 a5b5 923f 0000 00e0 eea9 a63f
00000600: 0000 00e0 eb29 b4bf 0000 0060 f50b a2bf
00000610: 0000 0060 7810 abbf 0000 00a0 1d3f 923f
00000620: 0000 0000 942b 253f 0000 00a0 5d8d 46bf
00000630: 0000 0040 426d a4bf 0000 0000 158f a0bf
00000640: 0000 00e0 17f7 9c3f 0000 00a0 4951 a93f
00000650: 0000 00c0 f458 aa3f 0000 0020 85e4 9d3f
00000660: 0000 00c0 09e2 6bbf 0000 0000 57d6 adbf
00000670: 0000 0040 1758 903f 0000 0080 3663 71bf
00000680: 0000 0000 0962 b0bf 0000 0080 7a11 74bf
00000690: 0000 0060 8a37 9b3f 0000 0040 773b 973f
000006a0: 0000 00a0 9949 9d3f 0000 00e0 b258 adbf
000006b0: 0000 00c0 42bc b1bf 0000 0080 63f5 b13f
000006c0: 0000 00a0 3ec7 ad3f 0000 00e0 1ee8 7b3f
000006d0: 0000 0020 139d a0bf 0000 0040 a875 b2bf
000006e0: 0000 00c0 1b4b 91bf 0000 0060 3528 a1bf
000006f0: 0000 0040 3f5c a73f 0000 0000 a119 ab3f
00000700: 0000 0000 e2f6 953f 0000 0000 fc5a a1bf
00000710: 0000 00e0 d7f5 70bf 0000 0040 1fb6 95bf
00000720: 0000 0020 1cb9 66bf 0000 00e0 4b20 a4bf
00000730: 0000 0000 05bf 843f 0000 0060 6e59 ae3f
00000740: 0000 0020 49cc b43f 0000 0080 7abc a93f
00000750: 0000 0000 1ed2 87bf 0000 00c0 ffc4 9abf
00000760: 0000 00a0 1c84 b4bf 0000 00e0 73b1 963f
00000770: 0000 0060 b4a2 a63f 0000 00a0 93f3 a4bf
00000780: 0000 00c0 b93b 8a3f 0000 0080 ad27 70bf
00000790: 0000 00c0 a872 953f 0000 0060 bfd7 8a3f
000007a0: 0000 00a0 758d b2bf 0000 0060 a1cb a5bf
000007b0: 0000 0020 9486 ab3f 0000 0000 f0b7 a43f
000007c0: 0000 0060 9c78 683f 0000 00e0 95b6 ae3f
000007d0: 0000 0080 0f50 a23f 0000 0000 b89a a93f
000007e0: 0000 0080 8324 703f 0000 00e0 69b7 833f
000007f0: 0000 0000 3023 993f 0000 0000 0a7d 533f
0.026729673147201538 -0.04165877029299736 0.04210897535085678 0.022113317623734474 0.038118984550237656 0.03090808354318142 -0.060116786509752274 0.007437902502715588
-0.05762316659092903 0.006666394416242838 -0.02849860116839409 0.07564941048622131 -0.06908620893955231 -0.03231557086110115 -0.059935178607702255 0.08068462461233139
-0.05966482684016228 -0.05618568882346153 -0.03615199029445648 -0.01211138442158699 0.061281718313694 0.03182782232761383 -0.03320349380373955 -0.028008582070469856
-0.035282623022794724 -0.026255996897816658 -0.02264808863401413 0.022067151963710785 -0.05363956838846207 0.07135908305644989 -0.00015314528718590736 0.060477688908576965
0.01624538190662861 -0.0511026568710804 0.07021751254796982 -0.0010396145517006516 -0.07194308191537857 -0.06899364292621613 -0.0031938881147652864 0.052563901990652084
0.01327584870159626 0.038588814437389374 0.004877230618149042 -0.007370138540863991 -0.047332726418972015 -0.037804607301950455 -0.0607917383313179 0.04482372850179672
-0.04084662348031998 0.0002623442851472646 0.017446696758270264 -0.03752855584025383 0.018144046887755394 0.005165407434105873 0.07330130785703659 0.0630844309926033
-0.022404344752430916 0.048127830028533936 0.03914601355791092 0.041531749069690704 -0.01323672104626894 -0.07754867523908615 0.07932522147893906 0.03900258243083954
0.026633769273757935 -0.04979844018816948 -0.018823759630322456 -0.05061136186122894 -0.08001735061407089 0.046237584203481674 -0.000860043044667691 -0.042562272399663925
0.046032119542360306 0.016554048284888268 0.04349840059876442 -0.06371904909610748 -0.044554270803928375 -0.031731151044368744 -0.003801437094807625 -0.013234180398285389
0.07086837291717529 -0.05725282058119774 -0.06070877984166145 0.06171967089176178 0.0802309513092041 0.030944574624300003 -0.00814702920615673 -0.06823563575744629
-0.04759322106838226 0.04629575088620186 0.03339790552854538 0.012886513024568558 0.06485247611999512 0.07486400008201599 -0.015709606930613518 -0.007411729544401169
0.03008056990802288 -0.012589585967361927 0.07724238187074661 -0.04994376003742218 0.06690026074647903 0.031067214906215668 0.07801570743322372 0.06811316311359406
0.004382608458399773 0.04230023920536041 0.029588567093014717 -0.08004387468099594 -0.006849830038845539 -0.017075300216674805 -0.051592692732810974 0.01197777409106493
-0.009444423019886017 0.07395397871732712 0.059838760644197464 -0.05800142511725426 -0.016606530174613 0.020510293543338776 0.022335335612297058 0.0376778282225132
-0.04255921393632889 0.07778400182723999 -0.03011653572320938 -0.039622239768505096 -0.017899280413985252 0.03112570382654667 -0.019758448004722595 -0.009357844479382038
0.07082760334014893 0.07659319043159485 -0.007374411914497614 -0.04137403890490532 0.02982604131102562 0.02382386475801468 -0.017670895904302597 -0.013558068312704563
0.08040647208690643 -0.04298805072903633 -0.05317841097712517 -0.04081057012081146 0.027883946895599365 0.030557487159967422 -0.03407426178455353 0.07899688929319382
-0.07406637817621231 -0.057791758328676224 -0.0021191847044974566 0.02233229950070381 0.07064193487167358 -0.04994650557637215 -0.03118879534304142 0.03574065864086151
0.06612375378608704 -0.06313592940568924 0.02189728431403637 0.036179594695568085 0.010786483995616436 0.023525068536400795 -0.021567778661847115 -0.07308901846408844
0.02353675849735737 0.0013384298654273152 -0.043678369373083115 -0.07283398509025574 -0.042121522128582 0.050222232937812805 -0.011103247292339802 -0.006334028206765652
-0.006620355416089296 0.05302475765347481 -0.02002195082604885 0.0805724635720253 -0.014227395877242088 -0.0473431721329689 -0.0787137970328331 0.012587541714310646
0.006058251950889826 0.008280814625322819 -0.05590672045946121 -0.033848632127046585 -0.06548205763101578 -0.02061770297586918 -0.0766303613781929 -0.06903857737779617
0.005680839531123638 0.014759841375052929 0.036638807505369186 0.035823822021484375 0.03999868780374527 0.06578070670366287 0.01827104762196541 0.04426523670554161
-0.0787646695971489 -0.03524748608469963 -0.05286003276705742 0.017818892374634743 0.00016151601448655128 -0.0006882388261146843 -0.039896078407764435 -0.03234162926673889
0.028286335989832878 0.049448300153017044 0.05145993083715439 0.02919204719364643 -0.0034036817960441113 -0.05827590823173523 0.015961039811372757 -0.004245007410645485
-0.06399589776992798 -0.004899481311440468 0.026579057797789574 0.02268778160214424 0.02860107459127903 -0.0573173426091671 -0.06927888095378876 0.07015058398246765
0.05816074088215828 0.006813164334744215 -0.032448384910821915 -0.07210780680179596 -0.016888078302145004 -0.03350989148020744 0.04562566429376602 0.05292990803718567
0.02144959568977356 -0.0338972806930542 -0.004140704404562712 -0.021202553063631058 -0.0027738141361624002 -0.039308901876211166 0.010129965841770172 0.05927605554461479
0.0812421515583992 0.05026610195636749 -0.011631235480308533 -0.026142116636037827 -0.0801408663392067 0.022161303088068962 0.04421008750796318 -0.040920842438936234
0.012809230014681816 -0.003944089636206627 0.020945202559232712 0.013106818310916424 -0.0724710002541542 -0.042569201439619064 0.05376112833619118 0.0404658317565918
0.002987199230119586 0.059986766427755356 0.03576706349849701 0.050008535385131836 0.003941072151064873 0.009627177380025387 0.02454829216003418 0.0011894796043634415

fc.2.bias f8 [150]
00000000: 0000 00c0 04be a73f 0000 0040 1276 82bf
00000010: 0000 00e0 9ad4 b4bf 0000 0060 fdc1 b33f
00000020: 0000 00a0 eb1f 5d3f 0000 0080 e01e 83bf
00000030: 0000 00c0 cb3e 963f 0000 0060 3f56 9fbf
00000040: 0000 0020 b814 b33f 0000 00c0 ccc4 aa3f
00000050: 0000 0080 f1f9 a5bf 0000 0000 78f2 9fbf
00000060: 0000 00e0 791a b23f 0000 00e0 d1f3 afbf
00000070: 0000 00e0 37e9 903f 0000 0040 5aac a93f
00000080: 0000 00c0 912b 983f 0000 00e0 9c48 8d3f
00000090: 0000 0040 c344 a1bf 0000 0000 ad23 943f
000000a0: 0000 0060 4d3e 9bbf 0000 00e0 d405 a43f
000000b0: 0000 0000 7014 b23f 0000 00a0 4171 b23f
000000c0: 0000 00a0 e289 ad3f 0000 00c0 a06d 73bf
000000d0: 0000 00a0 1942 b33f 0000 00e0 b5f2 b3bf
000000e0: 0000 00e0 3dae 9a3f 0000 0060 2f99 ae3f
000000f0: 0000 0040 b842 98bf 0000 0060 f845 ae3f
00000100: 0000 00a0 2195 a13f 0000 0040 4bb9 9e3f
00000110: 0000 0060 78dc 8b3f 0000 0080 262e b1bf
00000120: 0000 00a0 9282 97bf 0000 0060 7756 973f
00000130: 0000 0080 cd94 af3f 0000 00c0 7cde 87bf
00000140: 0000 0040 b6fe ad3f 0000 0080 f25e a9bf
00000150: 0000 0040 ebce a2bf 0000 0000 13a7 a13f
00000160: 0000 00e0 598d a4bf 0000 0040 e89f a4bf
00000170: 0000 0020 bd45 b03f 0000 0040 be45 783f
00000180: 0000 0080 b6ca 753f 0000 00c0 f320 aabf
00000190: 0000 0040 273d 943f 0000 0020 e1ab 793f
000001a0: 0000 00a0 1f75 b4bf 0000 0060 0a0a 9ebf
000001b0: 0000 0020 ad5a b03f 0000 00e0 827a 40bf
000001c0: 0000 0040 ecc8 813f 0000 0040 17a2 603f
000001d0: 0000 0040 b9ff a83f 0000 00e0 03e6 aebf
000001e0: 0000 0000 e178 993f 0000 0060 6116 a13f
000001f0: 0000 0000 07f6 b3bf 0000 00a0 ed72 8b3f
00000200: 0000 0000 024e a2bf 0000 00c0 7ebb 98bf
00000210: 0000 0020 426f 943f 0000 0080 c05c ad3f
00000220: 0000 0020 73c8 b4bf 0000 00a0 66cd b1bf
00000230: 0000 00a0 f033 933f 0000 00e0 cabf b2bf
00000240: 0000 0080 e9f1 b03f 0000 0020 8a43 b4bf
00000250: 0000 0080 08e7 933f 0000 0020 8cc5 a53f
00000260: 0000 00e0 966b a73f 0000 0000 a8bd b43f
00000270: 0000 00e0 e4c4 703f 0000 00e0 7376 a2bf
00000280: 0000 0020 90f7 9bbf 0000 0000 3b53 b2bf
00000290: 0000 0040 e872 9c3f 0000 00a0 d0e5 a83f
000002a0: 0000 00e0 d531 b13f 0000 0080 6cd3 a73f
000002b0: 0000 0080 331a b33f 0000 0020 f1cf 92bf
000002c0: 0000 0020 d288 a4bf 0000 00c0 cbd4 a9bf
000002d0: 0000 0060 f599 3ebf 0000 0020 9772 b2bf
000002e0: 0000 0040 e889 abbf 0000 00e0 4b52 b03f
000002f0: 0000 0040 55b7 af3f 0000 00e0 3c1c abbf
00000300: 0000 00a0 883a afbf 0000 0040 012e 7d3f
00000310: 0000 00e0 9009 aabf 0000 0060 7085 b23f
00000320: 0000 0000 f3d0 943f 0000 0080 5c1c 923f
00000330: 0000 00c0 6a40 8d3f 0000 0040 bc65 9fbf
00000340: 0000 0080 d8c7 a3bf 0000 00c0 781f 9bbf
00000350: 0000 00c0 1bf8 a7bf 0000 0040 cea6 9d3f
00000360: 0000 0080 2e3c 92bf 0000 00a0 ff49 a6bf
00000370: 0000 0020 2d48 7ebf 0000 0000 c31b 9bbf
00000380: 0000 0000 5865 803f 0000 0080 b9b9 ab3f
00000390: 0000 0040 5c95 afbf 0000 0080 7145 843f
000003a0: 0000 0020 ab26 963f 0000 0020 5dab 893f
000003b0: 0000 0080 4c14 ab3f 0000 0040 eefb 723f
000003c0: 0000 0040 8227 9c3f 0000 0040 ab14 9abf
000003d0: 0000 00a0 6314 b03f 0000 00e0 6440 9dbf
000003e0: 0000 0060 050d b0bf 0000 0040 e2d9 b13f
000003f0: 0000 00a0 46aa 9d3f 0000 00c0 5fda ac3f
00000400: 0000 0060 edf8 aebf 0000 0040 509f a7bf
00000410: 0000 00e0 e94e 993f 0000 00e0 38d9 91bf
00000420: 0000 0000 1f52 ad3f 0000 0080 e12d b13f
00000430: 0000 0080 f4c2 60bf 0000 0060 4389 b23f
00000440: 0000 0080 9510 99bf 0000 0040 900d adbf
00000450: 0000 0020 6703 883f 0000 0020 b705 7fbf
00000460: 0000 0060 abb9 b2bf 0000 0040 4e8e a8bf
00000470: 0000 00c0 238a 9b3f 0000 00e0 254c a8bf
00000480: 0000 00e0 8c92 a8bf 0000 0000 402d 9d3f
00000490: 0000 0000 7f31 8bbf 0000 0060 32d2 763f
000004a0: 0000 00e0 957e a4bf 0000 00c0 fbcf a5bf
0.04637160152196884 -0.009014265611767769 -0.08136909455060959 0.07717879861593246 0.0017776299500837922 -0.009336236864328384 0.021723922342061996 -0.03060244582593441
0.07453490048646927 0.05228271335363388 -0.04292254149913788 -0.03119838237762451 0.070716492831707 -0.06240707263350487 0.01651465706527233 0.05014307051897049
0.02360370382666588 0.014298654161393642 -0.0337277427315712 0.01966734230518341 -0.026604851707816124 0.03910699114203453 0.07062435150146484 0.07204065471887589
0.05769260600209236 -0.004743221215903759 0.07522735744714737 -0.07792221754789352 0.02605530433356762 0.05976245924830437 -0.023692015558481216 0.059127580374479294
0.034340906888246536 0.030003715306520462 0.013604107312858105 -0.06711044907569885 -0.022959033027291298 0.022790780290961266 0.06168214976787567 -0.011654829606413841
0.05858392268419266 -0.049552515149116516 -0.036734916269779205 0.034477800130844116 -0.040140923112630844 -0.04028249531984329 0.06356412917375565 0.005925887264311314
0.005320275202393532 -0.051032654941082 0.019764531403779984 0.00626743258908391 -0.07991216331720352 -0.029335176572203636 0.06388361006975174 -0.0005028857267461717
0.008684011176228523 0.002030415926128626 0.04882601648569107 -0.06034862622618675 0.024875178933143616 0.03337387368083 -0.07797282934188843 0.013402801938354969
-0.035751402378082275 -0.024152737110853195 0.019955666735768318 0.05734826624393463 -0.08118361979722977 -0.06954041868448257 0.018752822652459145 -0.07323902100324631
0.06619128584861755 -0.0791555717587471 0.019436009228229523 0.042522791773080826 0.045742716640233994 0.08101892471313477 0.0040940227918326855 -0.036059971898794174
-0.02731156535446644 -0.07158249616622925 0.02778208628296852 0.04862834885716438 0.06716667860746384 0.046534910798072815 0.07461854815483093 -0.01837136037647724
-0.040106359869241714 -0.05045162886381149 -0.00046694031334482133 -0.07206100970506668 -0.05378652364015579 0.06375574320554733 0.0619455948472023 -0.05294981226325035
-0.06099345162510872 0.007123951800167561 -0.05085423216223717 0.07234861701726913 0.020328328013420105 0.01768631488084793 0.014283021911978722 -0.030661527067422867
-0.038634076714515686 -0.026487242430448532 -0.04681479185819626 0.02895662561058998 -0.017807699739933014 -0.043533314019441605 -0.007393051404505968 -0.026473090052604675
0.008005797863006592 0.05415134131908417 -0.061686404049396515 0.009898077696561813 0.021631883457303047 0.012533881701529026 0.05288924276828766 0.004634791053831577
0.027494464069604874 -0.025469470769166946 0.06281111389398575 -0.02856595627963543 -0.06269868463277817 0.06973089277744293 0.028969863429665565 0.05635356158018112
-0.06049291417002678 -0.04613734036684036 0.02471509389579296 -0.017430199310183525 0.05726715922355652 0.06710633635520935 -0.0020460868254303932 0.07240696996450424
-0.02447732537984848 -0.056744106113910675 0.011725240387022495 -0.007573809940367937 -0.07314559072256088 -0.04796070605516434 0.02689414843916893 -0.047455962747335434
-0.04799309000372887 0.02849292755126953 -0.013278000056743622 0.0055715530179440975 -0.040028270334005356 -0.04260241240262985

fc.4.weight f8 [2, 150]
00000000: 0000 0020 62eb a43f 0000 0040 4761 a43f
00000010: 0000 0080 8527 adbf 0000 0040 4dcc aebf
00000020: 0000 00e0 b0cb a23f 0000 0000 403a a83f
00000030: 0000 0040 c669 a13f 0000 00c0 cc1b a73f
00000040: 0000 0020 c39c aa3f 0000 0040 1b40 a43f
00000050: 0000 00e0 d99c abbf 0000 0060 692d 68bf
00000060: 0000 00c0 8632 a73f 0000 00e0 436b b2bf
00000070: 0000 0080 afdc a8bf 0000 00c0 4507 9c3f
00000080: 0000 0020 6b8e a0bf 0000 00e0 3b19 b13f
00000090: 0000 0020 ec86 30bf 0000 00c0 9511 b1bf
000000a0: 0000 00a0 6105 853f 0000 0060 288a b2bf
000000b0: 0000 0060 8f01 aa3f 0000 00e0 c6a8 ad3f
000000c0: 0000 0080 1d55 a33f 0000 00c0 b6dc b23f
000000d0: 0000 0000 5a95 a8bf 0000 00a0 c655 b1bf
000000e0: 0000 0080 f218 813f 0000 0080 2509 ae3f
000000f0: 0000 0020 8fa0 b0bf 0000 0040 b6d0 b23f
00000100: 0000 0040 baa3 acbf 0000 0020 63c8 8abf
00000110: 0000 0020 b6e2 6b3f 0000 0040 740b aebf
00000120: 0000 00e0 0c9b 9e3f 0000 0000 e6df a63f
00000130: 0000 00c0 22de b2bf 0000 0060 dc7c b0bf
00000140: 0000 0020 2418 9cbf 0000 00c0 4f5a b2bf
00000150: 0000 0060 0f3b a33f 0000 00a0 6f3b 95bf
00000160: 0000 00a0 706f 92bf 0000 0060 1faa a33f
00000170: 0000 00a0 9f88 4cbf 0000 0060 547e ac3f
00000180: 0000 00e0 9f70 a9bf 0000 0040 7d91 aabf
00000190: 0000 00e0 85f9 aebf 0000 0000 9f80 a6bf
000001a0: 0000 00c0 d5b1 573f 0000 0020 f384 b33f
000001b0: 0000 0060 5f80 aebf 0000 0000 118d af3f
000001c0: 0000 00c0 7145 9abf 0000 0020 4e9c 973f
000001d0: 0000 0060 a8b3 93bf 0000 00e0 4f4f b43f
000001e0: 0000 0000 2cc2 903f 0000 00e0 473d a0bf
000001f0: 0000 0080 6ad4 783f 0000 0060 d037 a9bf
00000200: 0000 0080 90d9 9abf 0000 0080 2470 b4bf
00000210: 0000 0020 5685 b23f 0000 00e0 70b5 953f
00000220: 0000 0020 9a77 8dbf 0000 0000 4d0c 96bf
00000230: 0000 00e0 1a9c a1bf 0000 0040 ee56 a2bf
00000240: 0000 00c0 69bb a83f 0000 0060 4624 77bf
00000250: 0000 0020 91df afbf 0000 0020 3ebb a2bf
00000260: 0000 0020 09c7 683f 0000 0080 6505 85bf
00000270: 0000 0020 d6c7 b4bf 0000 0040 c4f0 a1bf
00000280: 0000 00c0 91b5 ac3f 0000 0060 ae8d b1bf
00000290: 0000 0080 ebb0 743f 0000 0080 edb9 7bbf
000002a0: 0000 0060 36d9 ae3f 0000 00a0 8771 403f
000002b0: 0000 0000 eff0 8dbf 0000 0060 eb59 b4bf
000002c0: 0000 00e0 c8cd b0bf 0000 00a0 4f7b 763f
000002d0: 0000 0060 aa8f b03f 0000 00c0 c5ae b1bf
000002e0: 0000 0040 3e82 ae3f 0000 0080 26f8 b3bf
000002f0: 0000 00e0 7d05 913f 0000 0040 abe2 a3bf
00000300: 0000 0060 d9eb 88bf 0000 00e0 a574 90bf
00000310: 0000 0060 4ebd ae3f 0000 00a0 c939 9fbf
00000320: 0000 00e0 48e2 b33f 0000 00a0 bc29 8abf
00000330: 0000 0000 e265 b2bf 0000 0060 d341 a23f
00000340: 0000 00a0 8a0d b3bf 0000 0060 49e0 a43f
00000350: 0000 0080 a0d4 a63f 0000 0060 36dc ad3f
00000360: 0000 0000 3091 a8bf 0000 00a0 ad14 a93f
00000370: 0000 0080 aa12 8a3f 0000 0040 bd58 b13f
00000380: 0000 0020 bd33 7c3f 0000 0080 bfde 5e3f
00000390: 0000 00e0 3a07 a5bf 0000 00e0 807d ae3f
000003a0: 0000 0040 2c67 b2bf 0000 0080 fcf9 8d3f
000003b0: 0000 0000 00b3 acbf 0000 00e0 7b88 b03f
000003c0: 0000 0040 7d45 a4bf 0000 0080 1f1d b23f
000003d0: 0000 00c0 b9fd a83f 0000 0040 4e9b b13f
000003e0: 0000 00a0 519d b3bf 0000 0000 36a8 95bf
000003f0: 0000 00e0 1938 ae3f 0000 0040 8ba9 71bf
00000400: 0000 0080 76dd 9b3f 0000 0020 436a 93bf
00000410: 0000 00e0 ae5b 91bf 0000 0060 3f3f a63f
00000420: 0000 0080 87ff b3bf 0000 0080 360e 8dbf
00000430: 0000 0040 1fc1 943f 0000 0000 3990 a0bf
00000440: 0000 00a0 13d8 a1bf 0000 0080 4dcc 743f
00000450: 0000 0080 5082 893f 0000 0020 cdaf b23f
00000460: 0000 0080 5c57 b3bf 0000 00a0 fd92 52bf
00000470: 0000 00e0 21c3 a03f 0000 0000 c4e0 b0bf
00000480: 0000 00c0 0d9d b3bf 0000 0060 fb9a 9dbf
00000490: 0000 0040 662e b4bf 0000 0020 c4bd acbf
000004a0: 0000 00c0 3659 a5bf 0000 00c0 1d98 b43f
000004b0: 0000 00e0 9240 ae3f 0000 00e0 fce5 7b3f
000004c0: 0000 00e0 c320 b23f 0000 0000 523b b33f
000004d0: 0000 0000 078b 8c3f 0000 0000 8945 943f
000004e0: 0000 00e0 615e 94bf 0000 0000 b6d1 b4bf
000004f0: 0000 0080 5e4e b13f 0000 0060 4727 74bf
00000500: 0000 0040 fdaa 973f 0000 0060 bab2 b2bf
00000510: 0000 0080 a17a b43f 0000 0060 2ac4 a03f
00000520: 0000 0020 2a96 72bf 0000 00e0 baaa adbf
00000530: 0000 0080 5695 82bf 0000 00c0 f785 7b3f
00000540: 0000 00c0 7006 93bf 0000 00e0 1aba 963f
00000550: 0000 00e0 69e5 713f 0000 0080 e7cc adbf
00000560: 0000 0080 6d9a 753f 0000 0020 a6c5 6d3f
00000570: 0000 0040 309a b03f 0000 0080 01e5 a3bf
00000580: 0000 00a0 0d0b 95bf 0000 0020 9b36 b4bf
00000590: 0000 0080 b121 a03f 0000 0060 da6c afbf
000005a0: 0000 0080 8fa6 b33f 0000 0080 8cf2 acbf
000005b0: 0000 0040 4d84 af3f 0000 0000 43be b2bf
000005c0: 0000 00e0 4143 713f 0000 0060 3d33 a1bf
000005d0: 0000 00c0 f707 acbf 0000 00c0 1b82 b33f
000005e0: 0000 00e0 7719 9abf 0000 0040 3024 abbf
000005f0: 0000 00a0 f2a3 9ebf 0000 0020 357c 7e3f
00000600: 0000 0060 29ac ad3f 0000 00e0 7371 a83f
00000610: 0000 00e0 5581 a63f 0000 0060 1e27 b23f
00000620: 0000 00c0 9c75 9abf 0000 00c0 bf48 b2bf
00000630: 0000 00a0 b2ae 833f 0000 00a0 1487 893f
00000640: 0000 0080 7b26 a5bf 0000 0080 e119 a9bf
00000650: 0000 00a0 92c5 91bf 0000 0000 695d b03f
00000660: 0000 0020 9578 99bf 0000 0000 7861 973f
00000670: 0000 00c0 289c a93f 0000 0020 055b 90bf
00000680: 0000 00a0 6db9 67bf 0000 0040 e13a b3bf
00000690: 0000 0040 c47e 9e3f 0000 0040 e432 8cbf
000006a0: 0000 00e0 2689 ab3f 0000 0020 d34f ad3f
000006b0: 0000 0020 58dc a1bf 0000 0000 59d7 a73f
000006c0: 0000 0060 9535 7bbf 0000 0040 1748 a83f
000006d0: 0000 0080 7aba 923f 0000 0040 2712 39bf
000006e0: 0000 0080 7f94 a83f 0000 0060 0f6b adbf
000006f0: 0000 0060 eec6 a7bf 0000 0020 941e ab3f
00000700: 0000 0080 8423 aa3f 0000 00c0 3f58 b33f
00000710: 0000 00a0 429f 9fbf 0000 0060 c5d9 ab3f
00000720: 0000 00e0 357a a53f 0000 0000 5582 99bf
00000730: 0000 0040 2fa9 b23f 0000 0000 c896 9fbf
00000740: 0000 0040 8992 7d3f 0000 0060 3c84 883f
00000750: 0000 0080 2cc6 afbf 0000 0060 b8c7 543f
00000760: 0000 0040 6e8b a1bf 0000 0020 a0a1 7fbf
00000770: 0000 00c0 d143 a33f 0000 0060 5e1b 823f
00000780: 0000 0060 c44f 9e3f 0000 00a0 c71e a3bf
00000790: 0000 0080 f2ab b4bf 0000 00c0 2916 a4bf
000007a0: 0000 00e0 f38c a63f 0000 0000 5878 a1bf
000007b0: 0000 0060 7e39 a23f 0000 0000 9933 9fbf
000007c0: 0000 0080 0c1b 953f 0000 0040 93c1 78bf
000007d0: 0000 0080 e7f4 a03f 0000 0060 6e4f 59bf
000007e0: 0000 0000 9b5c b4bf 0000 0060 12dd b23f
000007f0: 0000 0000 0a71 ae3f 0000 00c0 4618 b2bf
0.04085833206772804 0.03980467468500137 -0.05694214999675751 -0.06015244871377945 0.036710288375616074 0.04731941223144531 0.03401011973619461 0.04513397067785263
0.0519772507250309 0.039551593363285065 -0.05393105372786522 -0.002951341448351741 0.04530736058950424 -0.07194923609495163 -0.04855869710445404 0.027371492236852646
-0.03233656659722328 0.06679128855466843 -0.0002521826245356351 -0.06667457520961761 0.010264170356094837 -0.0724206194281578 0.050793152302503586 0.05792829021811485
0.03775875270366669 0.0736803263425827 -0.04801446199417114 -0.06771508604288101 0.008348364382982254 0.05866353213787079 -0.06494993716478348 0.07349719107151031
-0.05593664199113846 -0.01307752076536417 0.00340400286950171 -0.05868113785982132 0.029888344928622246 0.04467695951461792 -0.07370202243328094 -0.06440522521734238
-0.027435841038823128 -0.07169054448604584 0.03755996748805046 -0.020734542980790138 -0.018003234639763832 0.038407307118177414 -0.0008707789820618927 0.05565131828188896
-0.04968738183379173 -0.05189124494791031 -0.0604974590241909 -0.043950051069259644 0.0014462077524513006 0.07624740153551102 -0.059573154896497726 0.06162312626838684
-0.025655534118413925 0.02305719442665577 -0.01924002729356289 0.07933520525693893 0.01636570692062378 -0.031717535108327866 0.006061950698494911 -0.049253951758146286
-0.026220567524433136 -0.0798361599445343 0.07234705239534378 0.02119995467364788 -0.014388279058039188 -0.021531298756599426 -0.03439411148428917 -0.03581947833299637
0.04830484837293625 -0.005649828817695379 -0.062252555042505264 -0.036584798246622086 0.0030245950911194086 -0.01026419922709465 -0.08117426186800003 -0.035040028393268585
0.05607276409864426 -0.06856813281774521 0.005051536485552788 -0.006769111379981041 0.06025094911456108 0.0005018150550313294 -0.014619700610637665 -0.07949706166982651
-0.06564002484083176 0.005488692317157984 0.06469216197729111 -0.06907306611537933 0.059587426483631134 -0.07800522446632385 0.0166225116699934 -0.03883872181177139
-0.012168596498668194 -0.01606997661292553 0.060038041323423386 -0.030493879690766335 0.077671580016613 -0.012774919159710407 -0.07186710834503174 0.03565846011042595
-0.07442537695169449 0.0407736711204052 0.044590964913368225 0.05832071229815483 -0.04798269271850586 0.048985887318849564 0.0127309150993824 0.06776030361652374
0.006885279435664415 0.0018841619603335857 -0.041070785373449326 0.059551265090703964 -0.07188679277896881 0.014636967331171036 -0.05605316162109375 0.06458257883787155
-0.03959266096353531 0.07075688242912292 0.048810772597789764 0.06877602636814117 -0.07661924511194229 -0.021149486303329468 0.05902176722884178 -0.004312080331146717
0.027212001383304596 -0.018960045650601387 -0.01695130579173565 0.04345129057765007 -0.07811781764030457 -0.014187265187501907 0.020267952233552933 -0.0323503315448761
-0.03485165908932686 0.005077650770545006 0.012455586344003677 0.07299501448869705 -0.07555177807807922 -0.001133678131736815 0.03273874148726463 -0.06592965126037598
-0.07661519944667816 -0.028911521658301353 -0.07883299887180328 -0.05613530054688454 -0.041696272790431976 0.08044610917568207 0.05908640846610069 0.006811130326241255
0.07081245630979538 0.07512390613555908 0.013937048614025116 0.019796505570411682 -0.019891289994120598 -0.08132493495941162 0.06760206818580627 -0.0049202716909348965
0.023113209754228592 -0.07303967326879501 0.07999619841575623 0.03274662420153618 -0.00453773932531476 -0.0579431913793087 -0.009073901921510696 0.006719558499753475
-0.018579255789518356 0.022194309160113335 0.004369176458567381 -0.05820392072200775 0.005274226889014244 0.0036342854145914316 0.06485272943973541 -0.03885655105113983
-0.02054997719824314 -0.07895822077989578 0.031507059931755066 -0.06137735769152641 0.07676026225090027 -0.05653800070285797 0.06155625730752945 -0.07321566343307495
0.00421453220769763 -0.033594053238630295 -0.0547482892870903 0.07620404660701752 -0.025487778708338737 -0.053010471165180206 -0.029922286048531532 0.007442672271281481
0.05795411393046379 0.047740574926137924 0.04395550116896629 0.07090940326452255 -0.02583928033709526 -0.07142256200313568 0.0096105532720685 0.012464676983654499
-0.04130922257900238 -0.049025580286979675 -0.017355242744088173 0.06392532587051392 -0.024874048307538033 0.022832751274108887 0.0500195249915123 -0.015972213819622993
-0.0028960362542420626 -0.07511718571186066 0.029780451208353043 -0.013768943026661873 0.05378076061606407 0.05724963918328285 -0.034884218126535416 0.046564847230911255
-0.006642898079007864 0.047425009310245514 0.018289484083652496 -0.00038255174877122045 0.04800795018672943 -0.05745742842555046 -0.04643959924578667 0.05296767130494118
0.05105222761631012 0.07556532323360443 -0.030880967155098915 0.05439583584666252 0.04194801673293114 -0.024911239743232727 0.07289405167102814 -0.03084862232208252
0.007219825871288776 0.01197096984833479 -0.06205882132053375 0.0012683201348409057 -0.03426689654588699 -0.0077224974520504475 0.03762679547071457 0.008841264061629772
0.029601162299513817 -0.037344206124544144 -0.08074870705604553 -0.039231590926647186 0.0440441332757473 -0.03412127494812012 0.035594891756772995 -0.030470266938209534
0.020610995590686798 -0.006043982692062855 0.03311847150325775 -0.0015448167687281966 -0.07953804731369019 0.07368578761816025 0.05945616960525513 -0.07068292796611786

fc.4.bias f8 [2]
00000000: 0000 0060 29c6 a33f 0000 00a0 54c4 a5bf
0.03862122818827629 -0.04251350834965706
