car_ros2/car_ros2/losses/ha.pth (torch, 123969 bytes, 4 tensors)

fc.0.weight f8 [300, 47]
0	0xbfaac1689cf10c07	-0.05225684085646525
1	0xbf7a88d86cdc856e	-0.006478162203877742
2	0x3fb167533f4daa64	0.06798286719792085
3	0x3fa03ba44c7968d1	0.03170503076099041
4	0xbfbd67fc55318f10	-0.11486794547959911
5	0xbfc15b7b17506d03	-0.13560427320849308
6	0xbfc059daa1aa71b5	-0.12774212735975046
7	0xbf482bcf85318801	-0.0007376445086146878
8	0xbf80526188799d25	-0.007969629266155362
9	0xbfaab10042b0d6b2	-0.0521316605958594
10	0x3fbc181277134a92	0.10974231154549788
11	0xbfbcd7b189b852ef	-0.11266622173600259
12	0xbf896f7532e44785	-0.01241962014731591
13	0xbf9f64d075e1a497	-0.03065801352969241
14	0xbfb0139b8e44f8b0	-0.06279918883680824
15	0xbf9484e583a5572a	-0.020038210067773544
16	0xbfb7f5b0d4edef06	-0.09359269331428885
17	0x3fb1b50946852ee0	0.06916864368138986
18	0x3fc392283b5dc3b0	0.15289786242240444
19	0x3fe6a7844ae1d55e	0.7079488241712786
20	0xbf992c525d56f0b4	-0.024583136507985784
21	0xbfb863ba381e9243	-0.09527171964743623
22	0x3f9eaedfee4a2a63	0.029963969153451574
23	0x3f9b8a89b9e4d0a2	0.026895668002183577
24	0xbf94b5e624e262f0	-0.020225139619102828
25	0x3fb8ab05a157c328	0.09635958851846438
26	0x3f8ddfe977ff53c6	0.014587234472779442
27	0x3fa73a64da4578ad	0.04536738552518336
28	0x3fa7a4be453f20dc	0.04617876620574332
29	0xbfa514efc979c4a2	-0.041175359100529066
30	0xbfbd982037c1a96e	-0.11560250626795263
31	0xbfa9e62ac91d0dec	-0.050584160852419874
32	0x3fc41141f9a7c382	0.15677666368676674
33	0xbf999cbcd6a4e41f	-0.025011969185673274
34	0xbf93125818659ecd	-0.018624664773055955
35	0x3fc03cbddc046ed0	0.12685368769677163
36	0xbf99e82386c68e05	-0.025299601651239473
37	0xbfd43f2079abac1b	-0.3163529575528529
38	0xbfadafdba160a754	-0.05798231453839145
39	0x3fa53c7bf0e11123	0.04147708239955452
40	0xbf82260d533843f9	-0.008861641027609212
41	0x3fb40f766f0db7bd	0.07836094104069864
42	0x3f980d477fb4e118	0.02348815648039801
43	0xbf7eef77ba28b31a	-0.0075525929301363485
44	0xbf8c54f579c7574d	-0.013833921221628432
45	0x3fbaad5591b52fca	0.10420737082785006
46	0x3fa5e2eec378779a	0.042746983872560665
47	0x3fa6a907ceb31274	0.044258350355026815
48	0xbfba44deab3bcc93	-0.10261336975581718
49	0x3fbd82764dfff107	0.11527194408694551
50	0xbf7ecf58e23478a5	-0.007521960450757846
51	0xbfb89e4aafa0da47	-0.09616534030724565
52	0xbfaddd52311e4227	-0.05832917069995274
53	0x3fb3bb691d7d2766	0.07707840890830439
54	0xbfc05b23ceb2a0b4	-0.12778136818565644
55	0xbfaa82a6fe4188a0	-0.051778048073871874
56	0x3f98eaa64aa538e1	0.02433261709784851
57	0xbfbb0a56b7267d1e	-0.10562650653308878
58	0xbfc24521ba006d64	-0.14273473341095688
59	0x3fbb7e7d784c4080	0.10739883601149991
60	0x3f9a455393e00add	0.02565508451517472
61	0xbf90488b394a3767	-0.015901732799242476
62	0xbfb9e8069a6b6ff4	-0.10119668264400145
63	0x3fc1a0111bb8ed52	0.13769735196715743
64	0x3fb919cac1e0842e	0.09804980500531776
65	0xbfa62f5a5f3830a6	-0.043330024836991485
66	0xbfa56dbad1fb5b45	-0.041852796680976335
67	0x3f9363138990e505	0.018932633658754323
68	0x3fb8df8478b68e9d	0.09716060587975979
69	0x3f761d0cf6ea224f	0.005398798601739487
70	0x3f889af539622a43	0.012014308751777785
71	0x3fa9eb719184fb4f	0.05062441731796829
72	0x3f8fb14d17c1e367	0.015474893844144423
73	0x3fc0247c368afcea	0.1261134401629314
74	0x3fbdb26f535fa220	0.11600394998061647
75	0x3fb2ce0774071e49	0.07345625479421715
76	0xbfbc202f654b730e	-0.10986610625282031
77	0xbf7aedbeadb205e3	-0.006574387395745759
78	0x3fb767a9b3a03e78	0.09142552028083084
79	0xbfb77fb7a43560bb	-0.09179256209370383
80	0xbfc0ca98f7d63316	-0.1311827860012264
81	0xbfc237be24e90b5f	-0.14232613374960132
82	0x3f89787d09142652	0.012436844672737344
83	0xbfb20bf09e4b6b5c	-0.07049468865026881
84	0xbfbe3481dcd5eeed	-0.11798869744773884
85	0xbfc0a14277e5d689	-0.12992125372300148
86	0xbfb86c06e75c755d	-0.09539836071458781
87	0xbfbe6b9f1e82ceab	-0.11882967467209464
88	0xbfbbe45c6d7faf4d	-0.10895326302823811
89	0x3fc1f38510e54061	0.14024413418747186
90	0xbf918da51a19970f	-0.017141895025267802
91	0x3fb9c89166373ae9	0.10071667428494958
92	0x3fc20f461d47d887	0.14109112195700765
93	0xbfb19f5c4a68795f	-0.06883789841274311
94	0xbfa8c646ded67c3b	-0.048387732221492695
95	0xbf90e5fdca448250	-0.016502347441134824
96	0x3f85fc11acf87fb4	0.010734689799448784
97	0x3fa6225079ff1f97	0.043230547802124146
98	0x3fa8fbadf439aa92	0.04879516226067894
99	0x3f7fb40180204439	0.007740026341722711
100	0x3fc18566b3463cb3	0.13688358071929016
101	0xbfa40e26a2d66432	-0.039170462968464284
102	0x3fba236289eb853f	0.10210243098437831
103	0xbfa4738a0fe3b1b9	-0.03994399494135643
104	0x3faae8ebb3e56b63	0.052558294019681616
105	0x3fc17f60d34b706c	0.1366997749054265
106	0x3faf961753846ac1	0.06169197935579041
107	0x3fbdc51b653e1f16	0.11628886434311556
108	0x3fa66e86b6bb8646	0.043811998182502296
109	0x3fb458cd46edb2eb	0.0794800089040099
110	0xbfb21ba55799ef5b	-0.07073434246734449
111	0xbf9cba64459966ac	-0.0280547778587336
112	0x3fbbcf04b2913462	0.108627599330434
113	0xbfe6b9edc61dadcf	-0.7101963872386764
114	0x3fbf3f8ccff0ce64	0.12206344677616127
115	0x3fb6e5b5f23fabe3	0.08944260753894144
116	0xbfa70a6e53730e91	-0.04500145691556868
117	0xbf80726ace483195	-0.008030733509280444
118	0xbf9d96b43358d384	-0.028895202287646096
119	0x3fb7e94a9bdbeee7	0.09340349488405374
120	0x3f5a5f0345e40f37	0.0016095668757438294
121	0xbf86a1fec1f79ed7	-0.011051168722544897
122	0x3f918a7814b0c44b	0.01712978006634484
123	0xbf6bf097c2ddb2a4	-0.003410622032723092
124	0xbfb4d0eefeca2f1c	-0.08131307335332533
125	0x3fa6edd9ac40b7ac	0.04478340366072983
126	0x3f92b10755982198	0.018253435706385795
127	0xbf85013767c9f0b4	-0.010256226401218128
128	0x3fa63d88cbca44c3	0.04343821990654242
129	0x3f92f6b08b2f1966	0.018519171233287855
130	0xbf92b0038552ebed	-0.01824956418270667
131	0x3fd3bacd1dd35de9	0.30827644264851856
132	0xbfa6ef57a5be4983	-0.04479478739007716
133	0x3fa297f796bab61f	0.036315667295053304
134	0x3facaafb1c862068	0.05599198077385453
135	0xbfb44161a0893347	-0.07912264031729165
136	0xbfbba5e26f0b8a69	-0.10799994669972936
137	0x3f7a0a5cf140b690	0.006357539230561607
138	0xbfb4c93aa6d4f11e	-0.08119551251451582
139	0xbfa8db650665039e	-0.048548848181332746
140	0x3faf38e107845a09	0.06098082749138107
141	0x3fbe67dbcc467dbf	0.11877225625220598
142	0x3f9fb0961c8fdc95	0.030947061055453935
143	0x3fb32e71276159e3	0.07492739879067005
144	0x3fba3949d8c9fd3f	0.10243665259075828
145	0x3f925035b7a05e63	0.01788410123125884
146	0xbfa1fa6dcdf19081	-0.035113746060944535
147	0x3fa05c4feba41026	0.03195428611255151
148	0x3fa5c4add235d25f	0.04251616660159096
149	0x3fc2bdf30f9c482b	0.14642179739218028
150	0x3fc01c50ce4918e1	0.12586412498985225
151	0x3fc23cc775e0460c	0.14247983222644256
152	0xbfb9d3fec7296f3c	-0.100891040442943
153	0x3f9308bc3fec6c30	0.018588010217268358
154	0x3fc3ac0e465f906a	0.15368822513767394
155	0x3fa6be7f273c7f9a	0.044422124423589796
156	0x3fb5194a44bb1e7a	0.08241714647294343
157	0x3fc0ee1519f6265d	0.13226569907810673
158	0x3fb43660c88dfbcd	0.0789547433505355
159	0x3fbe289f92776cf1	0.11780736280291017
160	0x3fb74870e263ad8d	0.09094911124309686
161	0x3fa74ac906d8a4e5	0.0454924412591227
162	0x3f9b45944d97a6e7	0.02663261149965637
163	0x3fb8fb73e07000d6	0.09758686284476722
164	0x3fb62be815e65ea3	0.0866074613062389
165	0xbfc018ab3b09dc30	-0.12575283415546457
166	0xbfb0a4f61f250137	-0.06501711140027032
167	0x3fb044dd9010076b	0.06355080382493632
168	0x3fc234d4321cb42f	0.14223720976716112
169	0x3fb449314930a79e	0.07924182927004472
170	0xbfb1e66b73c162a8	-0.06992217613277296
171	0xbf82edb247207968	-0.009242432399386671
172	0xbfa2fb4941497ae2	-0.03707341119728881
173	0x3fc19145a21e2010	0.13724584976103005
174	0x3fb92e0f9086eb61	0.09835908201686784
175	0x3fb4612c05aa87c0	0.07960772646268222
176	0x3fb3263e67a9a5e0	0.07480230360820128
177	0xbfb9bf53fd7573b5	-0.10057568490942866
178	0xbfc5934ad203200e	-0.16855750326635682
179	0x3fb8eb768f13c779	0.09734288209054211
180	0x3fa5fc5e9f34366e	0.04294105237395916
181	0x3fb04fd97e57471e	0.06371840795989356
182	0x3fbf475aaca0ba4a	0.12218252863451898
183	0xbfc040dd16bf3cff	-0.12697948084539942
184	0x3fba7f04e79cd2b2	0.103500658556025
185	0xbfb326032fa7f2df	-0.07479877389409804
186	0xbf9daf3e6f003816	-0.02898881485457857
187	0x3f86a1ef1dd5fb18	0.011051052186983365
188	0x3fb40c9a7da05c56	0.07831731383372306
189	0xbf73b8f58a8eba16	-0.0048150626616192595
190	0x3fb4b49117eb3056	0.08088023027375021
191	0xbfb3c0b82fcd8d6a	-0.07715941588462774
192	0x3facc4f2c43a75ff	0.05619009633413085
193	0xbfb0d321bd6dfaff	-0.06572161555048338
194	0xbf9a8a270003ab28	-0.02591763436877695
195	0xbfa83e655f02ba79	-0.04735104355619497
196	0xbfbc2568440d9147	-0.10994578992319247
197	0xbfb15ac47e908031	-0.06779125299408474
198	0x3fb2da8443305244	0.07364679947233649
199	0xbfc161a69e5921e1	-0.1357925675568046
200	0xbfb21bd93f34bebc	-0.07073743622890566
201	0xbf755a97162519d4	-0.005213346654562707
202	0x3f9bf75d0299ff5e	0.02731080368403071
203	0x3fb9b282ccb88ab4	0.1003801107222369
204	0x3fbabf9923df8ab5	0.10448605657397077
205	0xbfb169512d4f9920	-0.06801326137756236
206	0x3faa67ab9c08fa26	0.05157219199871958
207	0x3fd09db096553795	0.25962462120957613
208	0xbfc06800d236c3ed	-0.1281739260134879
209	0x3fbe714e5c981f3d	0.11891641388512837
210	0x3fb2449d9adbd3b5	0.07135949164133033
211	0xbfab73f7ba94a71a	-0.05361913826557281
212	0x3fa9b43c247da81a	0.050203208403061875
213	0x3f99798fe4e281b5	0.024877785058039687
214	0x3fbfd5d49e14cc25	0.12435654506116174
215	0xbfb9bcc8514401df	-0.1005368421938395
216	0x3f3a78a6311a716d	0.00040391976754407846
217	0xbf9f7cb959d1b0bc	-0.030749221903918253
218	0xbf95656c1854b1e3	-0.020894707665478306
219	0x3fc035218eede45b	0.12662143210380603
220	0x3fb021e36ed5fcba	0.06301709609941755
221	0x3fa1787e715194a0	0.03412242062840076
222	0xbfbe7572e46ca321	-0.11897962643400863
223	0x3f926ead08ac9d6c	0.018000320105014664
224	0x3fb513be2cbc827a	0.0823325022906917
225	0xbfbfc6a9f83a6dcc	-0.12412512121448244
226	0x3fc17c281ea8d970	0.13660146233605586
227	0xbfc21cc4c1596089	-0.14150294724345638
228	0xbf9d51fbe745eb28	-0.028633056631842596
229	0x3fa2c10c8d7d280b	0.03662909724387483
230	0x3fade261a607a0e1	0.05836777831774654
231	0x3fbcf5e29ff72d94	0.1131269112149112
232	0x3fba74587af6f7e4	0.10333779336994514
233	0x3fc2209fbb6f73b3	0.14162060405842922
234	0x3fb4dc8e1750167b	0.08149040288125235
235	0x3fb8d2a488cc18e9	0.09696415271546112
236	0xbfb084ff4de88b6f	-0.06452937748012542
237	0x3fb05e752ce22005	0.0639413103655216
238	0x3fbfad584044b888	0.12373878068021515
239	0xbfc1d7edfaf678de	-0.13940214876215057
240	0x3fabecc10c5a6f25	0.05454066539570438
241	0x3f7ea831541c86f5	0.007484619798363336
242	0x3fb96611abe78cc4	0.09921369978796962
243	0x3fb111f782e63680	0.0666804022386831
244	0x3f94505fd59e9c48	0.019837853825859036
245	0xbfb786be5ab34fae	-0.09189977373472288
246	0x3f974fa1b127210c	0.02276470798258949
247	0xbfbc624a6182783b	-0.11087479477507227
248	0xbf9a8c875ad94d9e	-0.025926699562047177
249	0x3fb0ade16d63c093	0.06515320702215126
250	0xbfc2ba02e14e7934	-0.14630161286636112
251	0xbf946f4f3781e566	-0.01995586181917499
252	0x3f611349bd893aeb	0.0020843925706580577
253	0x3fc07cbfbd2fc24f	0.12880703675866065
254	0x3fb28e9c3f6e3cff	0.07248856114005163
255	0xbfb59f2b28e7f393	-0.08445996998484721

fc.0.bias f8 [300]
0	0xbf920979cb588b67	-0.017614272152182944
1	0x3f8bff5ccd007c1a	0.01367065907112246
2	0xbfc6e2281441740e	-0.1787767504601167
3	0xbfb605d39696e7c1	-0.08602640558720422
4	0xbfafef541de3e5bd	-0.062372807167729395
5	0x3fa3dfdf60cfd6c4	0.0388173871687463
6	0xbfbb5122d1f7a32a	-0.10670678735881425
7	0xbfaa1b74fc939c80	-0.050990730125527683
8	0xbfb443745641be26	-0.0791542730892095
9	0x3f775e961589322b	0.0057054388676758645
10	0x3fa70a543729f894	0.04500067876232197
11	0x3fa0f0ee752e48e2	0.03308816128186877
12	0xbfb3ecfd64fa90b6	-0.07783492770483033
13	0x3f90c875e012f289	0.016389695931808865
14	0xbfa94197f161b1b7	-0.04932856389573053
15	0xbfb533d9e2f23866	-0.08282243529012731
16	0xbfb202097b2f1193	-0.07034358270090584
17	0x3fd219d23cce473f	0.2828260034376519
18	0x3fabe63ac1e59186	0.054490886849438744
19	0x3fceb79b659f405c	0.239978241558222
20	0x3fc07d6f6841ebad	0.1288279780454479
21	0xbfb41f1c4d66aeee	-0.07859970941234071
22	0xbfbb0214062f8dc8	-0.10550046111125433
23	0x3fb4faf865408dc7	0.08195450279213566
24	0x3fc20f8e6830445b	0.14109973990756228
25	0x3f9f2e845eb921bb	0.030450886041110552
26	0xbfab6dcbb4f914d0	-0.05357204994337794
27	0xbfb5fd8919da8e22	-0.08589989548868762
28	0x3fc34191b4e4d265	0.1504385121603661
29	0x3fc54bf31aa64cb5	0.1663802986264266
30	0x3fb13d09d4e287ce	0.06733762214074021
31	0xbfa80e18742a68a7	-0.046982540302637425
32	0x3fb2b3027757869c	0.07304397023792791
33	0xbfbdf832f7a7daac	-0.11706846758157025
34	0x3fc8ee773f5cb1b3	0.1947773990044773
35	0xbfb33cd56b00306e	-0.07514699804613809
36	0x3fc2083383a531ec	0.1408752816008837
37	0x3fb98f3cc350dc4c	0.09984187859014176
38	0x3fca0ae7ef708419	0.20345782462484932
39	0x3fbfef5048909297	0.1247453858528139
40	0x3fb6f5d658591fd5	0.0896886792844492
41	0x3fbdae645943e368	0.11594226054502388
42	0x3fbb629be68f68a9	0.1069734037295428
43	0xbf80040acb4674c2	-0.007820209816424731
44	0x3fb27f8c3ee20036	0.07225872550225251
45	0xbfbe21007f2da9a7	-0.11769106965008423
46	0xbfa892a5f26dc06a	-0.04799383720717361
47	0x3fd0a575978aa025	0.2600988368890305
48	0x3fb5e9c0ebfde7df	0.08559804688948656
49	0xbf3357e071451874	-0.00029515485336551535
50	0xbfc17afbf354b300	-0.13656567937268704
51	0x3fc2682fd4cf68ad	0.14380453005907637
52	0x3f8222df60a8f7b2	0.00885557664616585
53	0x3fc064a448e4f9df	0.12807134208010404
54	0xbfc07453434aab4d	-0.12854996476866135
55	0x3f9c149f14550d17	0.02742241441343393
56	0x3fa63f2ca48295f3	0.04345073230915011
57	0xbfab108610a6cff5	-0.05286044076220257
58	0x3fb943f504a7ed13	0.09869319308920792
59	0xbfaeb157c594341c	-0.05994676863529255
60	0xbfb8eec88af8e921	-0.09739354508284183
61	0x3fa4218099878d3d	0.039318102589982896
62	0xbfba2bc52d8327bb	-0.10223038064137217
63	0xbfb819b74c94b53e	-0.09414239520693443
64	0x3fc2187576d6f2ee	0.1413714247008992
65	0x3fb4382bb458bda3	0.07898209717745046
66	0x3fa77aa88d8ca691	0.04585768440149452
67	0x3fb2b37dd2d6b72a	0.07305132291250219
68	0x3fd1640f70a56ad3	0.27173219681359945
69	0xbf4c39994080efc3	-0.0008613584805128239
70	0x3f83c4615bc08908	0.00965190945868645
71	0x3fc326b8c1b32f03	0.14961919267658894
72	0xbfb2352266cccaa1	-0.07112326631321732
73	0x3fc03f625cf0e6e0	0.12693433321128733
74	0x3fae3a0ff7fa2512	0.059036730785985495
75	0x3fac3884bb620a20	0.05511870181455358
76	0x3fbef60ab873befa	0.12094180110193156
77	0xbfb8240c41547be6	-0.09430004687281687
78	0xbfb60a683ba86b9d	-0.08609630066386705
79	0xbf538d75da8e51ae	-0.0011933947482464058
80	0x3f9b9e42f9024410	0.02697090763883031
81	0xbfc34fc70897b223	-0.15087211532171904
82	0x3fc6f9689750aa8c	0.17948634518082363
83	0xbfa4a8de5307b340	-0.04035086406279342
84	0x3fc0bd1bfbfcdc66	0.13077115825737734
85	0x3fba44617892e329	0.10260590738006371
86	0x3fc402a72cb12722	0.1563309639189408
87	0x3fb3300a861b8cec	0.07495179914581102
88	0x3fa113491baccc4f	0.03335026228742121
89	0x3fd2a0d8209f9d17	0.29106715379607934
90	0xbfb86cc1d244826f	-0.09540950187193585
91	0x3fc17bf5f4646643	0.1365954821892946
92	0x3f9101d9445e56b6	0.016608614728815772
93	0x3fb5e68cc58d2a4b	0.08554916213066936
94	0x3fbd7f3b8b58b69f	0.11522266532912305
95	0x3fba3b22a330f63c	0.10246483310853532
96	0xbfcc26169677d0aa	-0.2199123606402556
97	0x3fd2273b2e9365e8	0.2836444811669865
98	0xbfb9601a4f75b3ca	-0.09912266197143463
99	0x3fa546b782fb0f43	0.04155515169034498
100	0xbfa11a256e428117	-0.03340260477966888
101	0x3fb83a36a669c390	0.09463826716252144
102	0xbfb15da3c4ce6d26	-0.06783507876246073
103	0x3fafc0f500eba22e	0.0620190204261387
104	0xbfbb4093350beed4	-0.10645408673365903
105	0x3fb786138725d2d3	0.09188959168916293
106	0xbfba943600d61ca8	-0.10382401962680154
107	0x3fc2f0d10d27d29a	0.14797413961754985
108	0x3fbbafe4c0213e71	0.10815267267866503
109	0xbfc15eddc9bea19f	-0.13570759154141585
110	0x3fc1e2d61f741028	0.13973499809083134
111	0x3fc0bc858ac53d0c	0.13075322414304258
112	0xbfbd1c479c34a7ec	-0.11371276439299977
113	0xbfb155bc1f3b2bc9	-0.06771446001509597
114	0xbfab0582c861eea2	-0.052776419602165406
115	0x3fc73f8b186a7cb1	0.18162668888269232
116	0xbfaf26dda0db5828	-0.06084339703163294
117	0xbf70da6f5a27ba58	-0.004114565820130332
118	0x3fc72a98dc52a8aa	0.1809874606891005
119	0xbf82c451f0058a14	-0.009163513314608664
120	0x3fbbf047663fe500	0.10913511511161644
121	0xbfa2dcd294a7d864	-0.03684099259037124
122	0x3fc0e7a70b3b10ca	0.1320694737279438
123	0xbfc13f9604a168b5	-0.13475299097155405
124	0xbfb8961c53eb234d	-0.0960405068282288
125	0x3fb2d4b1dd86eb9b	0.07355796488165682
126	0x3fae1bf1fa2dc393	0.05880695513668068
127	0x3fb3cb36512b2c1e	0.07731952172905251
128	0x3f98e5a584aa7ca7	0.02431353208760059
129	0x3f9c318de23704ae	0.027532784397185033
130	0xbfa1cdce8a26cbfb	-0.03477330624027527
131	0x3fc5716b1a36a921	0.16752375392872756
132	0x3fc2c564dbee3843	0.14664898623272124
133	0x3fb8b5cc92bc69bd	0.09652403433248131
134	0xbfbc5d9a5c632cf5	-0.11080326800872682
135	0x3f9ced1f61a973ac	0.02824830087262213
136	0x3fb9c1e55d7821a7	0.10061486751522485
137	0xbf6e2ca1e717bb9d	-0.003683391777250701
138	0xbfad3c084c3edc55	-0.057098635966604284
139	0x3fbf627d0769404a	0.12259656363426177
140	0x3fbf731184af9691	0.12284955491449014
141	0xbfba2a75345a988e	-0.1022103550736537
142	0xbfb09c6a5f11324e	-0.06488671132064747
143	0x3fc1ab00b0f1b3e6	0.13803108825541627
144	0x3fc1ccfca9b23cb2	0.13906820569943573
145	0x3fa59b3a1a928ca5	0.04219991278048355
146	0xbfbf5ffcc8d843ef	-0.12255840209424183
147	0xbfb6da071cec03e6	-0.08926433998205105
148	0x3fbd74d20020db03	0.11506378653653475
149	0x3fa80264da2cd738	0.04689326442023262
150	0xbf944cb8b096abe9	-0.019823919084654227
151	0x3fb9ed4b030abdb7	0.10127705406443153
152	0x3fc17fba2f063f1d	0.13671042724717433
153	0x3f76a0a576ed1a0b	0.005524298044127916
154	0xbfc031592e35c072	-0.12650599247308808
155	0x3fc66892bbb495ab	0.1750663200884167
156	0x3f9d05687e521a6a	0.028340943059925662
157	0x3fc18ddc23f02e23	0.1371417212943565
158	0xbfb06c93ce7a6ace	-0.06415675917598238
159	0xbfbf715055ff9638	-0.12282278155870407
160	0x3fbc3f1fb5dd20c1	0.11033819379838673
161	0x3fb2baa87717e08b	0.07316067607450998
162	0x3f7e7cb3f3eb99e7	0.007443144741705577
163	0x3fcea8dcc4b34a5c	0.23952827076444094
164	0x3fc1c6fad8836eef	0.1388848836130516
165	0x3fc9380513ff03da	0.19702208973288188
166	0xbfaddf58b2b76fc8	-0.05834462339018348
167	0x3fb73adda472696c	0.09074197068040285
168	0x3fba0625935d3729	0.10165629241711528
169	0xbfab8c3adc0463a7	-0.053804244382440296
170	0x3f971e41ae54153a	0.02257635714069759
171	0xbfc0809d8f102d3b	-0.12892503247744877
172	0xbfaef980a129af88	-0.06049730269737014
173	0xbfa10df6dc20c471	-0.03330966412648529
174	0x3fc6628120a89e28	0.17488111586247723
175	0xbfbc186353473ba2	-0.10974713118706217
176	0x3fb137317d81f746	0.06724843324806526
177	0x3fb8eab111dfc119	0.09733111082437453
178	0xbfa130de568e2a11	-0.033575962129436594
179	0x3f479183072446b5	0.0007192506584791843
180	0xbfb8a99178ffa68b	-0.096337406197245
181	0x3fbf6bf983962a43	0.12274131262362524
182	0x3fb2b9b152f4d423	0.07314594531347089
183	0x3fb4f3de38d14a74	0.08184613120219258
184	0x3f902f0d94c25bb3	0.01580449314550565
185	0x3fc312d251985337	0.1490118883526976
186	0x3fa308b8cfc619da	0.03717591797162685
187	0x3f90f22236a2b411	0.016548666557969997
188	0x3fc7d91f3c3fddcf	0.1863135379969507
189	0xbfafb930540f551d	-0.061959753285615295
190	0x3fa8fa9cd1e9c120	0.048787022232206434
191	0x3fa5c15b972c7bd4	0.04249082775481097
192	0xbfc1780f939bd531	-0.13647646625001067
193	0x3f41d351837e67f8	0.0005439899459702682
194	0xbfb5b2b606461adc	-0.08475816395921804
195	0xbfc21bdea9f7930f	-0.14147551821874813
196	0x3fc201d3a6f7a8b3	0.14068074848848297
197	0xbfc1958382ac2bdb	-0.1373752964067013
198	0x3fb9f016cc1f444d	0.10131971820307335
199	0x3fa52b8e99f2d92e	0.04134793881660169
200	0x3fb5127e2e6f0a3b	0.08231342919956657
201	0x3fbef3e527821534	0.1209090444045458
202	0xbfc2c83c6378ea1b	-0.14673571450278264
203	0x3f94758cda480746	0.019979668448292708
204	0x3fa84464afb21880	0.04739679951403364
205	0x3fc4611924c4ee05	0.15921320243238327
206	0xbfaa97a6864c56d8	-0.051938251394103296
207	0xbfc0587685c465c1	-0.12769967586136313
208	0xbfa603aa653a01f7	-0.042996716362726
209	0x3fb6a3766c0f2133	0.08843174112474088
210	0xbf99adf6ad9e7527	-0.025077680918561242
211	0x3fba433fe25a59f4	0.10258864666170792
212	0x3fc1ff66178b56ba	0.14060665273307454
213	0x3fd014cc4df88b54	0.2512694131311737
214	0xbfa2f801007cdf36	-0.03704836970285756
215	0xbf761e87cec31284	-0.005400209902465595
216	0x3fc6850af7fbf4e1	0.17593514546016478
217	0x3faf47f432d98d36	0.061095839698078455
218	0x3fb1240761858444	0.06695600634476856
219	0x3fc196af6a923f09	0.13741104797053819
220	0xbf95476557381046	-0.020780166099953833
221	0xbfc0ddb5ba0f2417	-0.1317660482875744
222	0x3fc1af3fc3ffe3ae	0.13816067762652778
223	0xbf9367d645cd2413	-0.018950794229827105
224	0xbfab8a56e09c67d9	-0.05378982059319499
225	0xbfacaf586972e7f3	-0.05602527892320088
226	0xbf7b3d297e20d2df	-0.006650125580610149
227	0x3fcf7a57e72dcd4b	0.2459211233905115
228	0x3fca65509284692c	0.2062168803611909
229	0x3fc80aa35377c0c8	0.18782464576316316
230	0xbfc21cb6e021c813	-0.14150129264777486
231	0x3fc3610df5010a19	0.1513993688877953
232	0xbfbed7fbadbb33a5	-0.12048314086423646
233	0x3fbe67da668f2306	0.11877217296490636
234	0x3fc69bf2096cb5c4	0.17663407764614025
235	0x3fca6cb6cfba51f2	0.206442691258999
236	0x3fc8b8b298ad0337	0.19313652472376372
237	0xbfbf2d98530e7818	-0.12178947475192137
238	0x3fb795e62e3f6051	0.0921310294064608
239	0x3fc10f565d4c78a2	0.13328055911637643
240	0xbf9facf608df21ff	-0.030933231631736998
241	0xbfc017b0ab571f4f	-0.1257229649183906
242	0xbfb61062c3b38c5c	-0.08618752744546171
243	0x3fb4e1a6b7983b29	0.08156816465655638
244	0xbfc2cb63516a994c	-0.14683190799150692
245	0x3f9357acfc898dd8	0.018889143861441443
246	0xbfbf78465c92e3d0	-0.12292899856664907
247	0xbfb6f9c04bf090f0	-0.0897484002494513
248	0x3fb0347e662f7302	0.06330099100837219
249	0xbfd044f4ece47912	-0.25420878538160807
250	0x3fc7ad964deba32c	0.18498495869359866
251	0x3fbeccf04181fec1	0.12031461333571782
252	0xbfa2c2b76a0d215a	-0.03664181871005452
253	0xbfaa2cea646e2d97	-0.051123928794449096
254	0x3fcec5302e70670f	0.24039270656140174
255	0xbfbb42f16a5ac8dd	-0.10649021956013223

fc.2.weight f8 [3, 300]
0	0x3fc1ab8a59941409	0.13804749845454037
1	0xbf920bb80adcdda9	-0.017622829115877234
2	0xbf9ce3b344d86082	-0.028212357594469946
3	0x3fbb30473a7c6670	0.10620541742209766
4	0x3fab1ef4e3cc08a6	0.052970555121661975
5	0x3fbbc3bc6cecb577	0.10845544490140023
6	0x3fa076055a01c440	0.03215042804448176
7	0x3fbe00452f1d0d57	0.11719162368995249
8	0xbfa8daf1bed4e9b6	-0.048545412583240674
9	0xbfda0a2bcd914c4e	-0.40687079501112045
10	0x3fc88a507765a734	0.19172101812301323
11	0xbf9635a9b2517bf1	-0.021689082630810878
12	0xbf9dbfc99539bf58	-0.02905192349720606
13	0x3fd1a112228fe2ed	0.27545598387909714
14	0xbfd0a109099df949	-0.2598288148800703
15	0xbfba47cf167cba21	-0.10265821742061877
16	0xbfb0073ab65db444	-0.06261031105323506
17	0xbf95e872428e5f29	-0.0213945248720783
18	0x3fb850be635d91fd	0.09498205114284271
19	0x3fcdf7e9812539f6	0.23412817769936084
20	0x3fd13e3423d3642c	0.26942161081894045
21	0x3fae796a004b5c7a	0.05952006581872467
22	0x3f817d004acc0f28	0.008539202005983862
23	0xbfa56772387d8e40	-0.041804856677825075
24	0xbfc0d8c66d265bbe	-0.13161545114118484
25	0x3facd9918a127f67	0.05634741602375364
26	0x3fc19e1830879844	0.1376371609650865
27	0x3fc3e2e0d716811e	0.15536127569522135
28	0x3fcc61a725459691	0.22173013038552772
29	0x3f918553c74af349	0.01711016563307347
30	0xbfd04a5cc668d060	-0.2545387208549581
31	0xbf7b5756a9417024	-0.0066750893784864075
32	0x3fd35ca9e3d186b8	0.30253073928734464
33	0x3fb8856adcfeca0d	0.09578578849212978
34	0xbfcdc0f1caeb96a1	-0.23245069893089457
35	0xbfcc6078bba2d3a0	-0.2216940799895868
36	0x3fbbb4106b297912	0.10821631065616469
37	0x3fc372cca053aa50	0.1519408972593106
38	0xbfdde364b765153d	-0.467003993126429
39	0x3fbcbfa70101e674	0.11229938292117386
40	0xbfdc4b5fa96b3f1d	-0.4421004442674404
41	0xbfb50a6222d1aa2a	-0.08218968725274381
42	0xbf7e1c824aef9ee5	-0.007351407009060761
43	0x3f9cb8fd6139ef6f	0.02804942994997311
44	0x3faca1bc293a9def	0.055921440155824224
45	0xbfc937b63ab827ea	-0.19701269023090556
46	0xbfb3b8a459cc52f2	-0.07703616325700205
47	0xbfd26e03cf59713c	-0.2879647755523995
48	0xbfb4e207378f9142	-0.08157391649689763
49	0x3fc88461d5bbee85	0.19153998314128642
50	0x3fb14b8d37f10418	0.067559076459489
51	0xbfce9678b193dc48	-0.23896702452450058
52	0x3fa8e4c103219227	0.04862025416585807
53	0x3fb5f55a656f4d58	0.08577504135546599
54	0x3f7d710850a6e9bb	0.007187874298717418
55	0x3fa559fa8675a190	0.04170210734702373
56	0xbfc7bcb314961def	-0.18544615273661644
57	0xbfb75516d552054c	-0.09114210804002204
58	0xbf93e4689d4070af	-0.019425997350581422
59	0x3fabb7a5b9cae8cb	0.054135493211519746
60	0x3fa442183e3cc964	0.03956676254019234
61	0xbfbc914b1ce0c75f	-0.1115920014861138
62	0xbfc82a1dc23bc995	-0.1887852857976894
63	0xbfd372f65d8fe51e	-0.30389174591944534
64	0x3faddc95be86eae8	0.058323554523175336
65	0xbfb9f8733c74dc95	-0.10144729829777284
66	0x3fc8b486ed77b2e3	0.1930092486867557
67	0x3fb79e3803cda733	0.09225797741751478
68	0xbfc402632b2a129c	-0.15632285697588066
69	0xbfbc537696f54bc1	-0.11064854798796288
70	0x3f8331d615d067d1	0.00937239889212896
71	0x3fd706dcf77140b0	0.35979389347358914
72	0xbfaf070afc75bca4	-0.06060060817514426
73	0xbfd0a17f27f48e19	-0.25985697652706247
74	0x3fca14d54e259c31	0.20376077953116714
75	0x3fbeafcc8095a5c0	0.11986997737189764
76	0x3fc522d647de480b	0.1651256419104928
77	0x3fb4e6bec62217b6	0.08164589249835683
78	0xbfb9cd4cc9defe49	-0.10078887871258603
79	0xbfbf8959fe86f1e9	-0.12318956817666273
80	0xbfc213fa982a82d6	-0.14123470716460557
81	0x3fa76a7c3b600fd5	0.04573429322047643
82	0xbfd2224d2a60e457	-0.2833435930111298
83	0xbf902a44d97a53db	-0.015786243222993917
84	0xbfd0ddd297f265fa	-0.26353897894441014
85	0x3fcb782629fe204a	0.21460415888236845
86	0xbfca11b4bf8226f7	-0.2036653456782955
87	0x3facf6996b5f3164	0.05656890330974099
88	0xbfa4989f67e96df8	-0.04022691863493927
89	0xbfaf7d105b3f89e5	-0.06150103677625277
90	0xbf9d0de2b6fc5aa1	-0.02837328187805588
91	0xbfd93565f3cfe92c	-0.3938841706255001
92	0xbfadd2f5cd7795f6	-0.05825012334006978
93	0x3fabf38c316cd042	0.05459249595006145
94	0x3fc74ded8d6815ff	0.18206567196482124
95	0xbfaaa0389a32d945	-0.05200364000613659
96	0x3fb6d9b79b308d99	0.08925960100946496
97	0x3fddf2b736fd16a4	0.467939189624625
98	0x3fc53403cb8ab9ed	0.1656498664719516
99	0xbfd477768342bad1	-0.3197914392321027
100	0xbf821a45777666d0	-0.008839171131330842
101	0x3fb1c5858fc9dd5e	0.06942019234144456
102	0x3fbe87792a957692	0.11925465860027831
103	0x3f7c53ce7b5fefb8	0.006915861673402128
104	0x3fa4b75c27d9faf3	0.04046142565220192
105	0xbfa3478b0401b79a	-0.037655205000972816
106	0x3f88a5020584de3a	0.01203347758619976
107	0xbfa26736cb0307d3	-0.03594371059581616
108	0x3fc095cb3a5a0383	0.12957134579849247
109	0xbf864dbe6de60ab9	-0.010890472153510232
110	0xbfc495095ef6137b	-0.16079823624400177
111	0x3fcaee2faa922abd	0.21039386585865386
112	0x3f9594ecbfe17c1c	0.02107591553828679
113	0x3f9bb10b45a28d98	0.027042556882077656
114	0x3f6c010a2316b8cd	0.0034184644689140065
115	0xbfd608d69ec3dd51	-0.3442894506874455
116	0x3fb5c07c7e7ff6e8	0.08496835792899626
117	0x3fcc161fb80efef6	0.2194251679156804
118	0x3f919208a7b08c34	0.017158637270892466
119	0xbf95d6edda710172	-0.02132770200501128
120	0x3fc38676216fdef6	0.15254093773523153
121	0xbfbde9439eaf566b	-0.11684057830947274
122	0x3fc2e67f15db02ad	0.14765919272578767
123	0xbfba5cf5f76cb7a2	-0.10298096933976678
124	0x3fd31de8765ea36e	0.29870044288195785
125	0xbfe02e19c5c23e22	-0.5056275236583512
126	0x3fc51f5891256bbf	0.16501910292831032
127	0x3fc4b4644aa14681	0.1617551197437486
128	0x3fccfdee33412126	0.22649934294373358
129	0x3f93a9af75e7a37f	0.019201985904064408
130	0xbfb340268fa8f273	-0.07519761092493997
131	0x3fc7e8ee91c0115a	0.186796017806169
132	0x3fcdb1fc175686f6	0.23199416293669345
133	0xbfb66b603e7d9e0c	-0.08757592702533418
134	0x3fa82184bbadd413	0.04713072577479962
135	0xbfd2dc74270da0fa	-0.29470542730133753
136	0xbf741004b9fe2932	-0.004898088896775387
137	0xbfb1a7eafc8d427a	-0.06896847406211207
138	0xbfb4534e6ac85fd4	-0.0793961535167676
139	0xbf9e1492db6fd2da	-0.029375357287750294
140	0x3f980f0febb96630	0.023494957697357488
141	0x3f95b5a30a493d67	0.021200702193082146
142	0x3fc1fa73877b11e2	0.1404556666876849
143	0xbf8015aa98dd6a6d	-0.007853825368944823
144	0xbfb1dc68d267ef18	-0.0697694314657692
145	0x3fb57d3a9cd98fb5	0.08394209222166078
146	0x3f9211ed1eb0b0e7	0.017646508215123282
147	0x3fd4988093f8f838	0.3218079991382896
148	0x3fac3470e4801666	0.05508759297667325
149	0x3f9e43a448abb5e0	0.029554907737226688
150	0xbf822fce2bd1e4a0	-0.008880243980671942
151	0xbfd6e5a6430f0f15	-0.35776669071877737
152	0x3fca66c48e57a9c5	0.20626122427286311
153	0xbfccd0b793f79b91	-0.22511954045259278
154	0x3fa639151586714e	0.043404253842910565
155	0x3fd89a9a800359df	0.3844362497451623
156	0x3fcffb4c4b2d2538	0.24985650702209639
157	0x3fd971ee4ec639f3	0.3975787896423803
158	0x3fb93c4df4f4a6d8	0.09857642393458421
159	0xbfc740cd6ef67f0c	-0.18166511457547363
160	0xbfe01a24fad45167	-0.5031914614687992
161	0x3fd064daa98822cb	0.2561556487640188
162	0x3fcf173600021779	0.2428958416023155
163	0x3fd92f3a905a7f24	0.3935076150610135
164	0x3fc06ac4ce3375c5	0.1282583243218324
165	0x3fc92017be85afb0	0.19629189303247818
166	0x3fa187104946df72	0.03423357862942468
167	0x3fb37b57d57624f9	0.07610081635916179
168	0xbfb2617a09cecdf9	-0.07179987658928856
169	0x3f8ea416d3b78a0c	0.014961412750328605
170	0x3fd67e7377561c91	0.3514679589647552
171	0x3fcf4196ba22dc9f	0.2441891106479703
172	0x3fadbd16900612e1	0.05808325298406714
173	0xbfc5db6203928656	-0.1707575337832618
174	0x3fbaa0b69f931655	0.10401479144919652
175	0xbfabb7df252b2308	-0.05413720444409448
176	0xbfcf37c6b44801f7	-0.24388965418621897
177	0xbfccc3388c909406	-0.2247076689101563
178	0xbfc205c8fb55aec0	-0.14080154678537404
179	0x3fdce5fd41dbe685	0.4515374320177233
180	0xbf6ffcdf84456e67	-0.003904758983635226
181	0xbfcd33caf0e05e71	-0.22814308892769788
182	0x3fb10690207e2a00	0.0665063933685488
183	0x3fc6c73ad948b2e1	0.17795501336640654
184	0xbfc0e7058249e78b	-0.13205021726372154
185	0x3fb306fe79d31cb9	0.07432547067866126
186	0x3fc32f8c85d1e9a0	0.1498885777871921
187	0xbfaebaa7fe4cb919	-0.06001782397503259
188	0xbfd25c1b3d2c28b0	-0.28687172864796207
189	0xbfbdcffab69958ee	-0.11645476301177712
190	0xbfb27da9b831d5bf	-0.07222996470394259
191	0xbf64300428a6b855	-0.0024643021799511202
192	0xbfc55467021d85ff	-0.1666382561043491
193	0x3fd94b44129a7054	0.39521886650778026
194	0x3fbbc265fdfec1df	0.10843503428510058
195	0xbfa2b57573002143	-0.036540670669696705
196	0xbfba9a870dd73ba1	-0.10392040336522125
197	0xbfb7b724391bd16a	-0.09263826746229645
198	0xbfc0674abd9a7587	-0.1281522203252445
199	0xbf9050f8bbc167bb	-0.015933882198033916
200	0xbfce66600f56d009	-0.23749924420337745
201	0xbfb4e8dbab52edea	-0.08167813236916968
202	0xbf8aaa04fe27c8be	-0.013019598966796383
203	0xbfcdc1c3d6af554e	-0.23247573836003216
204	0x3fdf6f21c37b525d	0.49115795221340425
205	0x3fbd750b516808c7	0.1150672029253058
206	0x3fbaf9e4a840b324	0.10537556750996352
207	0xbfb18f089af1c2e5	-0.06858876974889545
208	0xbfd6b4e0baa4850d	-0.3547899077112369
209	0xbfcb72734892343a	-0.21443024676810457
210	0xbfb5ea9730b508bf	-0.08561081828250659
211	0x3fc01e1031663c73	0.12591745769575233
212	0xbfb72761d9ec0072	-0.09044467516287272
213	0xbfc7457d30e0d128	-0.1818081368125004
214	0x3fc3315e97740c81	0.14994413752728877
215	0x3fb8d9076bbd503b	0.09706159954413433
216	0x3fe3f6f65d507347	0.6238967726272698
217	0xbf92953cee6b7ed3	-0.01814742284011468
218	0xbfcc7c13ab4f8920	-0.2225365244367561
219	0xbf69581c07e713c4	-0.003093771693985366
220	0xbfd1b21b1629652b	-0.2764957157538272
221	0x3f96a282a7102184	0.02210430283233357
222	0x3fc2300762c6d541	0.14209072421150817
223	0x3fc09b098c5247e4	0.12973136283522912
224	0xbfc99c80b147eb1c	-0.20008858352942915
225	0xbfb1f8d73ee8b832	-0.07020325933328378
226	0xbfb8e85911d026bc	-0.09729534802331846
227	0xbfdcca13d04330f7	-0.44983382547503886
228	0xbfbddcc0e48929c9	-0.11664968089568285
229	0x3fd60f0ab68c27ef	0.3446680815401341
230	0xbfa066b92e10e2b5	-0.0320337170346127
231	0xbfc78f51c2d1def3	-0.18406126034437129
232	0xbfcfa6113ba2190f	-0.24725547229554265
233	0x3f87aa95898e754e	0.011555832157507464
234	0xbfd0b8610d56f866	-0.26125360777576245
235	0xbfcc6bcc665578d8	-0.2220397472073674
236	0xbfd38c8274583f96	-0.3054510246447476
237	0xbfaf3210f8b820d9	-0.06092885051845238
238	0xbfb18808cc831838	-0.06848196976633936
239	0x3fc0c3f950d85ae2	0.1309806484939236
240	0x3fd6337c1a0b6eaf	0.3468923811285362
241	0x3f9621d0b63b3529	0.021613370058550494
242	0xbfd1b317a08b2b55	-0.2765559261139761
243	0xbfd466bcd22e6b3f	-0.31877060437698285
244	0x3fb6cc298b46bd72	0.08905276918698293
245	0x3f86eb07886acde5	0.011190470553038298
246	0x3fa9c6b17781a4f6	0.05034403404062886
247	0x3fbaee9f3faa5366	0.10520358375863523
248	0xbfa52f909d8446f7	-0.041378516414750814
249	0x3f8adfb5111f4131	0.013122000298523591
250	0xbfd2f98440c89ad7	-0.29647928549313235
251	0x3fa3e73c97083535	0.0388735708585081
252	0xbf99036bed3638c6	-0.024427114823588857
253	0xbfd232d0eeca094c	-0.2843515712667297
254	0x3fd0c5800731197f	0.2620544500572563
255	0xbfc3a5c58125169c	-0.15349644475843582

fc.2.bias f8 [3]
0	0x3fb85474e692bc4c	0.09503870610454718
1	0xbfa72b16d295cb64	-0.04525061913127251
2	0xbfb040aeb362d8cb	-0.06348697547477682
