car_ros2/car_ros2/losses/hahaha.pth (torch, 123993 bytes, 4 tensors)

fc.0.weight f8 [300, 47]
0	0x3fcab4f42c606515	0.20864727179358825
1	0xbfbe6a1c01bbbe45	-0.11880660097426084
2	0x3fb31e1d458326e5	0.07467825839116989
3	0x3fa574b98277fe49	0.0419061633838252
4	0x3fbd917374444b48	0.11550065601867943
5	0xbfdace345d67b097	-0.41883572694383403
6	0xbfd3f5cd94f44d4e	-0.31187762781447226
7	0xbfd83417135ab7e9	-0.37817932977747987
8	0xbfb1bcdeca4c2f61	-0.06928818167597008
9	0xbfc43c53e941ed12	-0.15809105767753145
10	0xbfb93c008ce72975	-0.09857181015028067
11	0x3fa52986d561138c	0.041332448527589966
12	0x3fb81d96c6a834df	0.0942014918329792
13	0xbfaabd1a85970f75	-0.05222399597872044
14	0xbfb214f93c8babaa	-0.07063253143466733
15	0xbfc80c81d5c17b12	-0.18788168847364567
16	0xbfd261c7036e4efb	-0.287217858648759
17	0x3f98cbf3990a5f2c	0.024215513435222366
18	0xbfc2df3a00582b2a	-0.1474373342210467
19	0xbfb1637eefafa923	-0.0679244361087155
20	0xbfb15fc7b5b65e6d	-0.06786773859345781
21	0x3fac60518d578652	0.0554223523174754
22	0x3fe3272b33dbba0c	0.5985313427789278
23	0xbfe10d93afa14394	-0.5329073362610068
24	0xbfc22566cb23e731	-0.14176640433270785
25	0x3fc6771bb7a340fe	0.17550989596066552
26	0x3f9de8b04a4960f4	0.029207949194046415
27	0x3fe3d29a3a8dd8f0	0.6194583076128577
28	0xbf994a82ff9a1343	-0.024698302126597637
29	0xbf71eb41d8faaba0	-0.004374749390687521
30	0x3fcde3909c3156c1	0.23350722910497804
31	0xbfc5f982c5365285	-0.17167696599485197
32	0xbff217e7a070b3b5	-1.1308361308285673
33	0x3fac54cd195aa9c4	0.05533448156832635
34	0x3fd80f22e50f8c88	0.3759238469048758
35	0xbfd47a1a4ac60d87	-0.3199525575839392
36	0xbfd2b66f941e595b	-0.2923850008459305
37	0xbfcc7d63466ad059	-0.22257653177587391
38	0xbfd310e2d8f58d27	-0.2979056471578638
39	0xbfe17e07a52e1a76	-0.5466345049070032
40	0xbfe4049fb3f43b33	-0.6255644335486522
41	0x3fe7a13b12031824	0.7384314872549607
42	0xbf97f8ba0af9667b	-0.02340975467664073
43	0xbfe1b104482e9ee0	-0.5528584871107931
44	0x3fc8bb381bd15003	0.1932134757831819
45	0xbfaf571b00000000	-0.06121143698692322
46	0x3fac1955a0000000	0.054880786687135696
47	0xbf99642a51fc624b	-0.024796162847538643
48	0xbfc36ac50e59f419	-0.151695854194174
49	0xbfb0aa515448d63f	-0.06509884174087065
50	0x3fd168f7ea9acdb2	0.2720317641316924
51	0xbfc42cde4accb0f1	-0.15761927273104662
52	0xbfcddfd57958930b	-0.23339336800668095
53	0xbfb1874d516ac2a5	-0.0684707950374653
54	0xbf7e1618db574384	-0.0073452921837579045
55	0x3fdbcf7a6d7d490f	0.4345384663803466
56	0xbfd5cf4e42c0213d	-0.3407779361591741
57	0x3fa9d3c55cb16b57	0.05044380909449469
58	0xbfcb23dcf9b94fb4	-0.21203195756481608
59	0xbfc55bb9e1cc0e4a	-0.1668617584729069
60	0x3fe53d450f777d1d	0.6637292196354881
61	0xbfaf45de04f2735a	-0.06107991991414137
62	0xbf92bbe6e2f5e814	-0.018294913866590504
63	0x3fb19e851ea16ded	0.06882507322136862
64	0xbfb257262b286b50	-0.07164228967341768
65	0xbfb4773409722cbc	-0.07994389753928294
66	0x3fe751c477c49508	0.728731378480604
67	0xbf9766c99529b2ea	-0.022853040436916418
68	0xbf94334c52ced48b	-0.019726936868853556
69	0x3fbeff42557fc90c	0.12108244502431748
70	0x3fb282f6af78de29	0.07231084617603102
71	0x3fdf372a9e08b588	0.4877420943547226
72	0x3f7a58f80796f5ff	0.00643250357228231
73	0x3fa467b2fc595032	0.03985366182737983
74	0xbfa66f033597348d	-0.04381570843870817
75	0x3fb6cc8f10c3d0cc	0.08905882033633644
76	0xbfb3e40f0c8cb088	-0.07769865089784578
77	0xbfc1487db4166cc3	-0.13502475064601613
78	0xbfc060ed0e8e2461	-0.12795794687943654
79	0xbfc5a2da9fbd361e	-0.16903240966569028
80	0xbfe7f40ec897ada8	-0.7485422056028499
81	0xbfdb5b9cf9bd4ad9	-0.42746662510505257
82	0xbfd7630835d9d067	-0.36541943796988224
83	0x3fd570e8a707733f	0.3350164061683251
84	0x3fe0c172162fe88c	0.5236139710753078
85	0x3fb08386cc20bf36	0.06450693591682186
86	0x3fabd2b9e3b45d87	0.05434208778950294
87	0xbfd87a2864c9bcb0	-0.3824559196718367
88	0xbfd4e5eae3155bcf	-0.32653305221668644
89	0x3fd8ca3ac78a3716	0.38734311567610413
90	0x3fdf364bafcf64fd	0.4876889435668799
91	0xbfd2d5cc42ce3bb9	-0.294299187888949
92	0x3fa3f9f3a0000000	0.03901635482907295
93	0xbf83de7a00000000	-0.0097016841173172
94	0x3fdb408f50682503	0.42581541874149326
95	0x3fa0d4b3f8fa682e	0.03287279524120411
96	0xbfaaf5da8b4d63b4	-0.052656964783359156
97	0x3fa54af367691dc1	0.041587454198232184
98	0xbfa3ae11ded4301d	-0.03843742222861144
99	0x3fdd8ebe5baab745	0.4618373770889444
100	0x3f79cf1dedc293cd	0.0063010377017791
101	0x3f92e5bc23c188d1	0.018454494173405337
102	0x3f76f6c8a0c872db	0.005606445029596253
103	0xbf935917ec21136d	-0.018894552027876644
104	0x3fd4e20783f2dd99	0.32629573712935095
105	0xbfa9cd372b151a38	-0.05039379502209268
106	0xbf91c2b2ab592124	-0.017344276149999463
107	0xbfa74a1230da204e	-0.04548699232424323
108	0x3fabb0b0f99a7996	0.05408242270390244
109	0x3fc6384d1e2e0e96	0.17359317754391118
110	0x3fbe8c4cbc339361	0.11932830424082176
111	0xbf8f0bdc6a775c9e	-0.015159341811268153
112	0x3fcb15c39ca270bc	0.21160168789072553
113	0x3f73c09b2e5c5b8f	0.004822355438384287
114	0xbfc20baf819e209b	-0.14098161534298445
115	0xbfb01ce6cbeb5415	-0.06294100264069898
116	0x3fafe0d9ce38e61e	0.06226235048638905
117	0x3fb4d93e4a47a10b	0.08143987000915247
118	0xbf71cb4fbcd40d13	-0.004344283556977818
119	0xbff1e3aaffe30217	-1.1180829997612187
120	0xbfae1108c85ef898	-0.05872371145186256
121	0xbfa80386971615c3	-0.046901899283550395
122	0xbfde3861f9ea60e6	-0.472191328104158
123	0x3f7237c8c1da683f	0.004447731216396688
124	0xbfdcfb771f9a2267	-0.4528482254614005
125	0x3fb6e2cc61611cc2	0.08939816834855477
126	0xbfa0c9302a9996b4	-0.03278494377154342
127	0xbfba3844fdc27e21	-0.10242110438638764
128	0xbf8c806ef4fbe737	-0.01391684231883837
129	0x3fdc77fd9c532c5a	0.44482364908316685
130	0xbfa9a926eb7c3186	-0.050118652578109255
131	0x3f9c9075dc012a71	0.02789482264806015
132	0x3fd1f437457b5741	0.2805307558568196
133	0xbf57fc06822d8868	-0.001463896137203347
134	0xbfebc3b633110a5f	-0.8676405904191816
135	0x3fe3a4bc02fdb613	0.6138591822070246
136	0x3fe6df8022eb4bc1	0.7147827798856882
137	0xbfebf61d59653383	-0.8737932916643419
138	0xbff09e7e4fdf5219	-1.0386946792615446
139	0x3fb3b65d20000000	0.07700140029191971
140	0xbfc0248d80000000	-0.12611550092697144
141	0xbf905a418b3c3dcb	-0.01596929943394602
142	0xbfa9dab8c93a4714	-0.05049684006111313
143	0xbf59abcc7934b95e	-0.0015668389140262788
144	0xbf9a8fecff45f0fd	-0.02593965824188248
145	0xbfb119f571f39916	-0.06680234939594629
146	0x3f94f9930bf667a4	0.020483300786146366
147	0xbfaa91201627a7f2	-0.051888468460518214
148	0xbf9329a8187a5ffc	-0.018713594907779893
149	0x3fa0d73759bd31de	0.03289196939894955
150	0xbf91ec4273bb80fc	-0.017502821267840737
151	0xbfc0b0399d163ab0	-0.13037796182876127
152	0xbfc7ae8dfdf8c96d	-0.18501448536842294
153	0xbf9a701ccb83e43f	-0.025818300172407268
154	0x3f9f72cf5de7d045	0.03071140299466914
155	0xbfaf082a5c0b60c4	-0.060609172569174
156	0x3fd055944d2e6742	0.2552233461116097
157	0x3fbc474e15546e9e	0.11046302815196404
158	0x3f9b245b2784bdcd	0.026505874907511818
159	0x3fcba34781ffade3	0.215920389629317
160	0xbf873e925051d3ee	-0.011349814487610712
161	0x3f60f781b408c0c0	0.0020711453692215664
162	0xbfbaa2a92e320a59	-0.10404450776881315
163	0x3fb4a56497607173	0.08064869590493177
164	0xbfa119423a072eda	-0.03339583357191396
165	0xbfc54bbca2d0076f	-0.1663738055213417
166	0x3fbb8d1fff61c964	0.10762214646255114
167	0xbf97df6651629d7b	-0.023313139645919172
168	0x3fa92cbe19092f67	0.04916948371518864
169	0x3fb9692187c07667	0.09926042141202061
170	0xbf926276fc6d71fd	-0.017953738362267647
171	0x3fb149240c99f579	0.06752229030276692
172	0x3fc22f72406591b6	0.14207294601795944
173	0xbfb55af975e29653	-0.08341941001943924
174	0x3fc51f963faeff3c	0.16502645597028642
175	0x3faf176854ea4fc2	0.06072546040118666
176	0xbfd165ef364edbd8	-0.2718465833999608
177	0x3fde5a83e597982e	0.4742746107207293
178	0x3fd7445206613e60	0.3635449468901921
179	0x3fc639f6ea94a426	0.1736439366734725
180	0x3fa91cc016dc4a76	0.049047472754087204
181	0x3fcf368515c5902c	0.2438513141925126
182	0x3fca5014004d6ffa	0.20556879057664884
183	0xbfcc114ea41c3f14	-0.21927817357254098
184	0xbfdc70bb71d11184	-0.4443806277743294
185	0x3fc18ffc87ffdc8e	0.13720661774252502
186	0x3fbb86cd80000000	0.10752567648887634
187	0x3fbed2a420000000	0.12040162831544876
188	0xbfcdcb961261f686	-0.23277545831290442
189	0x3fac010dbdc307d6	0.05469553891590777
190	0x3fb1cdabc29c36f2	0.06954453946329034
191	0xbfa8da25f65cfe06	-0.04853933937419801
192	0x3f8b5a9344f3718c	0.01335635236903767
193	0xbfdd191319d7af6d	-0.4546554329269757
194	0x3faca0dd54a947be	0.055914799294114456
195	0xbfa3a7c7d0d51327	-0.03838943886015605
196	0xbfb0520ba1557f91	-0.06375191391771141
197	0xbf8ae93adbc9fdd3	-0.013140163261822579
198	0xbfdd05eac78b49f8	-0.4534861515686823
199	0x3f99c4955edca4fa	0.025163968958769246
200	0xbf90004e5d99a8a5	-0.015626167738823544
201	0xbfc1c9547dbe4e01	-0.13895660533727042
202	0xbf9b41d41cc3f797	-0.026618303542810997
203	0xbfa60545ba73176b	-0.043008975038488405
204	0xbf73f22a8e44d925	-0.004869619592048379
205	0xbfa0ddd19b18dcc6	-0.03294234293246627
206	0x3f331d0a8bba8d25	0.00029164798227494993
207	0xbf793b9b5ceaa23c	-0.006160361181777815
208	0xbfd35a19eb42bf61	-0.30237434363060883
209	0x3fb13bbc612e2939	0.06731774685446092
210	0x3f81b44a22374ce0	0.008644656342687573
211	0xbf877340acb8204e	-0.011450295706723203
212	0xbf947e97a91a2835	-0.020014161773851142
213	0xbfd0ecac1c400f2f	-0.264445331180684
214	0xbfb1d20acb75aef7	-0.0696112391212259
215	0xbf86f6376e027d27	-0.011211808247309009
216	0xbfda8469a88047c3	-0.4143318315046793
217	0xbf9da1c8cf3183e0	-0.028937471052248642
218	0x3fe8b09a03627e89	0.7715578142269389
219	0xbfaac51337d41038	-0.052284813466059565
220	0xbf8915713a7367e1	-0.0122479291880388
221	0xbfd286120717cc7b	-0.2894330090777612
222	0xbf7a37e24caab482	-0.0064009513686588155
223	0x3fe96d9df550019d	0.7946309844265219
224	0xbfba265b14b0b93e	-0.10214776282439161
225	0x3fbcb48fce60511b	0.11213015354616511
226	0x3fd8e1feafe6644d	0.38879363229495284
227	0xbf731f52ee7cc317	-0.0046685447230607946
228	0xbfe487e951778dbc	-0.6415907469894857
229	0x3fe41278b201ed5c	0.627254817648843
230	0x3fe497e63dc3f641	0.6435424047810515
231	0xbfe4b7783b39039a	-0.6473961979573801
232	0xbfe6130308172287	-0.6898207815184642
233	0xbfc1cb59a0000000	-0.139018252491951
234	0xbfc23024c0000000	-0.142094224691391
235	0x3fba97d53001bb30	0.10387928411522007
236	0x3fc35c804a4f1c8f	0.15126041057940084
237	0x3fba36e9396f1a6a	0.10240037586400211
238	0xbfb38d8064e5d88a	-0.0763778921444517
239	0x3fa2d7cf9f51295f	0.0368027574518972
240	0xbf8d76dfe5ae75aa	-0.014386891552755927
241	0x3f9fc602382ee972	0.03102878063121168
242	0xbf932da789dd22c3	-0.0187288453956025
243	0xbfae042db222d8af	-0.05862562942040605
244	0x3fa5ed8291b8da3c	0.04282768277009949
245	0xbfd8b1d2d1bc6a32	-0.38585348588972856
246	0x3fca52929b5e105b	0.20564491831112516
247	0xbf8ff0a9bd641be6	-0.01559574708200091
248	0xbfb0f5bb0af3de70	-0.0662495519389894
249	0x3fb7659fe913665a	0.09139441910101578
250	0xbfbc984e9db76e37	-0.11169902182103263
251	0x3fbaf003f674c827	0.10522484557148513
252	0xbf9c42167e773310	-0.02759585520634561
253	0x3fb3b51163fc29d0	0.07698162737884862
254	0x3fab12b661263045	0.05287713943388942
255	0xbfa26b962677d423	-0.0359770700414759

fc.0.bias f8 [300]
0	0xbfcbbace970ce68d	-0.21663839698321788
1	0xbfa6d0ac769dc40b	-0.044560803870702236
2	0xbff84c7b89a5efc2	-1.5186725022203835
3	0x3f9e171692a3d3c4	0.029384949398224128
4	0xbfeccf17ece9d0b5	-0.9002799632276238
5	0xbfb5aaaaeb3b8ea6	-0.08463543169960505
6	0xbffeac093ba52301	-1.917000992764031
7	0xbff19535f56527b1	-1.0989284120318923
8	0x3f8b2fe71f704614	0.013274961134842868
9	0x3fe278e4bb3651a5	0.5772575050819354
10	0xc002f12809b05f6d	-2.3677521473836607
11	0xbfe1cdefa6c50a50	-0.5563886887760621
12	0xbfea2b1db11dd86b	-0.817763181620433
13	0xbfef7119bfb92ffc	-0.9825562233540945
14	0xc006d3c15da0b8f7	-2.8533961596177693
15	0xbfd391c0c2e9d688	-0.3057710555507147
16	0xc002aa7bd0817aba	-2.3332439698709466
17	0xbfeda764fc04f781	-0.9266838953260362
18	0x3fd29aabd2828691	0.2906903796921166
19	0xbfdc3da7deb5f354	-0.4412631678495036
20	0xbfde81545783b2e0	-0.4766436438210757
21	0x3fd28c636669a295	0.28981862069353187
22	0xbfb7af1efbe8bd62	-0.09251588487744791
23	0xbff5dbcdd8b04a86	-1.366163107337941
24	0x3fdc84c1f3463fb2	0.4456028819777159
25	0xbfe80a1b94d2e5b8	-0.7512338549342337
26	0xc001951d4420ff22	-2.19780972696016
27	0x3fbd582bf9faf43c	0.11462664464029698
28	0x3fe9c1e917c5d6d0	0.8049207176506687
29	0xbfeb0aa7e5bd9fdb	-0.8450507628558585
30	0xbfe1fddaa4bae99b	-0.5622380463967603
31	0xbfc77a0d43bc0d9f	-0.1834122257933872
32	0xbff39b3f8cfcb723	-1.2254024035750681
33	0xc006f19ff7f36229	-2.867980897059415
34	0x3fe9a0d7fc2b9a48	0.8008842396928424
35	0x3fc826966655db01	0.18867759701580414
36	0xbfd42c5051f6de0c	-0.31520469669655493
37	0xbff293ed93c1948a	-1.1611152431226253
38	0xbff1a6c3134ae86a	-1.1032133821122678
39	0x3fdad816fd587391	0.41943907490513604
40	0x3fdb9b3d56028cea	0.4313500728550951
41	0xbfe8045f4ba5e302	-0.7505337216854004
42	0xbfd5d2068b7a12fa	-0.34094394322191557
43	0xbfeaf4b2d871876b	-0.8423704364215444
44	0x3fd2575f73c9c01f	0.2865828161948247
45	0xbffce3995bf8df03	-1.805566176668379
46	0xbfddca1712eea62f	-0.46545960282182625
47	0xbfe0dc652baea184	-0.5269037106673271
48	0xbfe15bccdbc0bd99	-0.5424560825394337
49	0xbfe71fb1a21bf9e3	-0.7226188818165692
50	0x3fe0a9bafd7c79c0	0.5207190466788276
51	0x3ff3788b0c4bcb48	1.216929481536413
52	0x3fadb99a7520428e	0.05805666618119175
53	0xbfdfd77b7d2c87a0	-0.49752700065629973
54	0xbff99af6870b1415	-1.6003327632072388
55	0xc0031419f5417e78	-2.3848151360141934
56	0xbff6814681b28511	-1.4065613809874018
57	0xbfeec8a402ac0660	-0.9619922687708815
58	0xc011f1987820381e	-4.485933186499123
59	0x3fb52f10cbe2c237	0.08274941423111036
60	0xc009e1e73bb29a2e	-3.235304323566445
61	0xbffa78a7adfc00af	-1.654456786753183
62	0xbfdf731f31aa8bba	-0.49140148019995034
63	0x3fd5019d661fa260	0.3282235619831564
64	0xbff84893db7efcc6	-1.517719132810997
65	0xbfd96d7de1e5fa3c	-0.3973078447378702
66	0xbff146b38b9a30ef	-1.0797610715117647
67	0x3ffb3adc6cd5d412	1.7018703700425744
68	0xbfe553973be7d2c3	-0.6664539499311889
69	0xbfdc4d50594b0cb6	-0.4422188636783163
70	0xbfdf1970abfc3b30	-0.4859277419608814
71	0xbfd3d9eb73dbe2a9	-0.31017576517437334
72	0x3fa704e11deb7dc4	0.044959101583795597
73	0x3fc79f1f1375f164	0.18454349947195248
74	0xbfd5fae99b1e3255	-0.34343948505628435
75	0xbfe7a8a0cd460f4a	-0.7393344887973197
76	0xbfe3b3866291e463	-0.6156646657174288
77	0x3fc68a8b004df75c	0.17610299601431734
78	0xbfee38c27747f494	-0.9444286660870085
79	0xbfe3ac823c935953	-0.6148081954113799
80	0xbfda3beecb2a1840	-0.40990800705219854
81	0xbfc4c26ae2b8c983	-0.1621831519165192
82	0xbffc36cd206a94aa	-1.7633792177451064
83	0xc00ff06bdb7b4f82	-3.992393221569672
84	0xc0084dac60269cf5	-3.0379264365943706
85	0xbfda6e3014ffe8c6	-0.4129753308367409
86	0xbffbf3ce820e03bd	-1.7470231132758578
87	0xbff28419ace829ca	-1.1572510484862613
88	0xbffed300e2025317	-1.9265145138244344
89	0xbfc26355b2bdfa8f	-0.14365645625726528
90	0xbfafa4633feb3b76	-0.06180105357417791
91	0xbfe6e57ec4c3c1ba	-0.7155145495472006
92	0xc0040c9eac643bac	-2.506162020501014
93	0xbffaab0550883351	-1.6667531152517834
94	0xbfbb123f9f27d46a	-0.10574720035204313
95	0xbfe0e04fc91b7c02	-0.5273817947271484
96	0xbfe1c7697f05a1d5	-0.5555922966860246
97	0xc0006987bc511549	-2.051528426384412
98	0xbfc008a3bed58027	-0.12526366060319669
99	0xbfeba77d36584cd8	-0.8641954480575817
100	0xbff3aa12baa6fcff	-1.22902176772169
101	0x3f6d28472fb3d46d	0.0035592451437147983
102	0xc0080e5a830b4734	-3.0070085752312483
103	0x3ff25103cf11b0c8	1.1447790230404724
104	0xbfc13a4b6eb36624	-0.13459151177703277
105	0xbfe238dff1368685	-0.5694427214804852
106	0xc00960af3961a731	-3.1722092135359152
107	0xbfed2d6bde2394b8	-0.9117945994045362
108	0xbfe151e923cdca9e	-0.5412488650602716
109	0xc006341af5ceed9b	-2.775442047479101
110	0xbfe94e9cbeb5a1eb	-0.7908462261958084
111	0x3fd0996c711412c3	0.2593642334252701
112	0x3fd37a668c0bf3c1	0.3043457381862105
113	0xbfd6b763cf59e195	-0.3549432301438398
114	0xbffd8259b7a79a38	-1.844323842431221
115	0xbfb6c34bc06ce38c	-0.08891747901806307
116	0xc004be4da75e4bb8	-2.5929215503360545
117	0xbfffd922e62a031b	-1.9905117979798834
118	0xbff13dacdaef5953	-1.0775574257036922
119	0xbfae88584922aa5c	-0.05963397877470264
120	0xbfb7199a8011c7fa	-0.09023442866035217
121	0xbfea8ed84cf32e65	-0.8299371245315795
122	0xbff0de3146dea431	-1.0542462128016832
123	0xbfd7814d9cc33cb1	-0.3672670393834308
124	0x3fe7e39441991ee6	0.7465306550229485
125	0xbfdf4fbe8d53a7e0	-0.4892422084946002
126	0x3ff100c0700785a6	1.0626835228107239
127	0x3fc40c3f082fcf68	0.1566237249349982
128	0xbfe2704f23e9842a	-0.5762096120271327
129	0xbfe83b5522c5c18b	-0.7572427443647468
130	0x3ffa9ebf3cc6dcbb	1.6637565969556778
131	0xbff246c0cdea498a	-1.1422737163125896
132	0xbfea2cb5f26d3f20	-0.8179578528306344
133	0xbfe195fd4b8f8695	-0.5495592571061986
134	0xbff05c62a3fb94c8	-1.0225550084663144
135	0xbfcf5072ffec58b9	-0.24464261528254896
136	0xbff71713ed24584f	-1.4431342376097012
137	0xbfe9b4df9dd554e3	-0.8033292849237593
138	0xbfe5325b4206de64	-0.6623970307909528
139	0x3fc9d0d018b5a220	0.2016849632884865
140	0xbff3b641927ea782	-1.231996128316013
141	0xbff4a36a0318b335	-1.2898960228878427
142	0xbff39c8bb530252f	-1.22571917320813
143	0xbfe1b6f3ccc4734f	-0.5535830497134188
144	0xc004ecc6a1a5e620	-2.615613234401067
145	0xbff5351903828332	-1.3254633080579876
146	0xc00a8d034a4b1756	-3.318853931824303
147	0xbff5fa6f516ab68a	-1.3736413174005144
148	0xbff5055ec5ca42e7	-1.3138110853362208
149	0x3fa5fd6aa72f8f5c	0.042949040325565874
150	0xbfde9fd8b0adf5cc	-0.4785062528024724
151	0xbfc4e2b516f4f742	-0.1631685602277973
152	0xbf7a89aeaa01bbc1	-0.006478960305783711
153	0xbfe472dbb3703d99	-0.6390207771927862
154	0x3fe1f8af7a07350b	0.561607111297833
155	0xbfc99cfe95a2f305	-0.20010359102698075
156	0xc009fcb1fb469227	-3.2483863478576214
157	0xbfe21b010ecfaecb	-0.5657964028627814
158	0x3ffe101802fc19b6	1.8789291493027185
159	0xbfecd92bac9632fa	-0.9015100832781109
160	0x3ff0c389837a1cd5	1.0477385650463493
161	0xbff7fb64214e5eb1	-1.4988747883816524
162	0xbfa0e00a37a862a6	-0.03295928887763937
163	0xbfc931f5ecf9dff5	-0.19683717795464842
164	0xbfe5c6632570e004	-0.6804671984928068
165	0xbfb37873c94e790e	-0.0760567060919792
166	0xc0030ab11e038971	-2.3802206368283625
167	0x3fdd3aad2737934c	0.45670632200044703
168	0xbfeedd0c7dacba5c	-0.9644834951958035
169	0xbfe87c99ade0dddb	-0.7652099987089359
170	0xbffe95e0ac03c47c	-1.911591216976631
171	0xbfdbdafa6dabddfc	-0.435240370846685
172	0xbff45a586732de1f	-1.2720569640349664
173	0xbfcb4230308b3e6c	-0.2129574048071733
174	0xbfe9beba5dad5cec	-0.8045322255738063
175	0xbfd084ef6970b17e	-0.25811372086425155
176	0xbfe6e13bfaf1fde6	-0.7149944211268433
177	0xc0001082b163765d	-2.008061776969767
178	0x3fced668e32481ff	0.2409182652563828
179	0xbfeda3114a89fccb	-0.9261557060089215
180	0x3fc53d37bd8c14ba	0.16593071704133938
181	0x3fd3b891e9b6f743	0.30814025710775556
182	0xbff8bb923b31869c	-1.5457937538380184
183	0xbfe914d35dcd1bc6	-0.7837921936087404
184	0xc003491b024d4802	-2.4106960468134284
185	0xbfc45c8d0769ecd9	-0.15907442914963246
186	0xbff157c9ae3b94b0	-1.0839325719801245
187	0xbfe644172b8f997e	-0.6958118296432045
188	0xbfd21a416beda3d8	-0.2828525117861864
189	0xbfe2766ed8d6f44b	-0.5769571528577527
190	0xbff6821ef0bd2728	-1.4067677883017016
191	0x3fe98bc93835fdcb	0.7983137224072662
192	0xc00013a1213a6ca1	-2.0095846744494144
193	0xc00ec501949836bf	-3.8461944207145673
194	0xc0061bb45faaaba2	-2.7635276292762265
195	0xc0043d97d0abf292	-2.530074720618651
196	0x3fc17fe8c46cf4e8	0.1367159804448541
197	0xbfd7b536127f777a	-0.370435255112049
198	0xbfeb44a70ef5a94c	-0.8521304409198733
199	0xbfe1a6f720647241	-0.551631510988564
200	0xbfeb9eb60c5d3ee0	-0.8631239167679858
201	0xbfe69ba5e42d772d	-0.7065000015825028
202	0xbfde742a074fc3f4	-0.4758400985147653
203	0xc0092151f90f6d5f	-3.141269632132818
204	0xbff82cb4f1976b36	-1.5109147488753485
205	0xbfe8136dc7262073	-0.7523716821315375
206	0xbff1a6b51427c9be	-1.103200033886068
207	0xbfece56c549fe9cc	-0.9030057576013006
208	0xbfde44816edcfb00	-0.47293124987110957
209	0xbfdbd89d0708e7ca	-0.4350960320185747
210	0xbfe93512011badd1	-0.7877283116953838
211	0xbfde0c8ed47cfa2e	-0.4695164752082829
212	0xbfe457b24aa076fb	-0.635705133204936
213	0x3fcfd9fa5e4db8ed	0.24883966068904986
214	0xbff45d975bbbbb10	-1.272849424680036
215	0x3fd0ae08bdf11754	0.2606222014331838
216	0xbfdb3d25d6cc95df	-0.4256071660659852
217	0xbfff0c3834a1d72b	-1.9404832893319035
218	0xbfc21cd5b0c96b1c	-0.1415049660889388
219	0xbfe6d290051ee08c	-0.7132034397136677
220	0x3faedcf2e88b1eda	0.06027945603051217
221	0xbff52aa2e39a9918	-1.3229092493798529
222	0x3fb25d5f0ae9a897	0.07173723236488382
223	0x3ff83e60891d64f3	1.5152287822768897
224	0xc008d2c5a8345c87	-3.1029160634021227
225	0xc003568c711a0b63	-2.4172600589821953
226	0xbfd78466e8d64e55	-0.3674561761665463
227	0xbff7230548d4ff0e	-1.4460499615669877
228	0xbff59762d53c0a85	-1.3494594888185543
229	0xbfe2921cd8a7cb2e	-0.5803360206176416
230	0xc004128164eaa0d3	-2.5090358623602724
231	0xbff2963047e1baa4	-1.161667137897589
232	0xbfee779dc1ef3abc	-0.9521015918524749
233	0xbfefb660b32d1890	-0.9910129069837854
234	0xbff7bf6fd6fe7093	-1.4842375181388305
235	0xbff6ccf7b894b182	-1.4250409326733409
236	0xbfea96ebbab6df8b	-0.8309229513897533
237	0xbfd6c0af974e4289	-0.3555106141657594
238	0xbff3b017cd1fcb2d	-1.230491448656447
239	0xbfeb440300c2e56d	-0.8520522131795311
240	0xbffa5da78e2ad9cc	-1.647864871350623
241	0xbffb7855a1ccbb34	-1.7168785400678646
242	0xbfe29004b6b20388	-0.5800803726452708
243	0xbff364d90b37f22d	-1.2121210516189749
244	0xbffbdbc0edfec22a	-1.7411507889447742
245	0xbfc9361f230359c3	-0.1969641610109659
246	0x3fe1351d70e59006	0.5377337651266323
247	0xbffbd57dd5c11f15	-1.7396219587116708
248	0xc011f058da44c328	-4.48471394581501
249	0xbf93d526b01e206d	-0.019367794513101822
250	0x3fce669a82e32611	0.23750621214848924
251	0x3fd3bcb30b204024	0.3083922966625343
252	0xbf9f3ae15fccdb1e	-0.030498048278981497
253	0xbfc4446a6fa785f1	-0.15833788349031822
254	0xbfd87cfbb085e3b2	-0.38262836683821455
255	0xbfe6cb8871175401	-0.712345333939652

fc.2.weight f8 [3, 300]
0	0xbfa14ba0e49a3fee	-0.03378012457426381
1	0xbf96b7d1ca0fa523	-0.02218559070380367
2	0xbff85c221027c1a3	-1.5224934226099343
3	0x3fd22e6293e9b174	0.28408111996284124
4	0xbffa9a02b2be5a9b	-1.6626002294703202
5	0x3fe6ec1857127cb9	0.7163202000264369
6	0x3fadcc99375325f6	0.05820158768035448
7	0xbff0aa72557b4e73	-1.0416129435660906
8	0xbfe6cea43b2f0364	-0.7127247959070755
9	0x3f97c6eba1e889dd	0.02321975875578085
10	0x3f7e828e148fde9e	0.0074487257015715385
11	0xbfea29c588e088bd	-0.8175990746861072
12	0xbfe5902807e735b8	-0.6738472132071172
13	0x3fa6676f6de0d884	0.04375789848602188
14	0xbfb0c3c7cbcfd7fe	-0.06548737264515123
15	0xbfee7cfbe91b0062	-0.9527568390694905
16	0xbfe961101fb39fb0	-0.7930985087559659
17	0xbf9bd585be7553b7	-0.027181710958149554
18	0x3fa2d1d3ed0d3075	0.03675710934348412
19	0x3fab7482cfe1ac95	0.05362328326813174
20	0x3fac41961a3bd089	0.0551878840468883
21	0xbf94dd3186217c12	-0.020375036060041714
22	0x3fe977f780e2e637	0.7958943860350648
23	0xbfdcb1d746d8d2fd	-0.4483545486321388
24	0x3fa72c81c283003d	0.04526143550310777
25	0x3fef71f141f3710d	0.9826589859108324
26	0xbfc6d625037e05c4	-0.17841017408868087
27	0x3fd0e2a797b741be	0.2638339025116031
28	0x3fa6e5f061df58f2	0.04472304529888217
29	0xbfc2e49f49d70581	-0.14760199647393438
30	0xbfebf47e547487ff	-0.8735953950420025
31	0x3f6463311045a22a	0.0024887045166688453
32	0xbffeb59799e81e05	-1.9193340312939438
33	0xbfe2732979e41b33	-0.5765578633007408
34	0xbfb5cd72a280773e	-0.08516613452272012
35	0x3f8f620bbb4cfd97	0.015323726323571303
36	0xbfeaa9a3320cf9ba	-0.8332077004959537
37	0x400091ca95a68c92	2.071187180657554
38	0x3fcba441d8b5dedd	0.21595023232997948
39	0xbfa6d98d9419ee8c	-0.044628547981997974
40	0xbfee2ae1828308f8	-0.9427344845828705
41	0xbfb2e0b378611d7f	-0.07374116600941781
42	0x3ff5121c2dea9759	1.316921405182674
43	0xbff81edbe21606a3	-1.5075339156614198
44	0xbfabb41a84bb5238	-0.054108456328013366
45	0xc0017ca83656f7a6	-2.1858677144327485
46	0xbff027d1b2b4d562	-1.0097214680402762
47	0x3f8fbe28656a222e	0.015499415965011112
48	0x3fb46df0c67f6790	0.07980255933889979
49	0xbfe0371cd42a259f	-0.5067276138153608
50	0x3f9360f1e0f08e96	0.018924502710560086
51	0x3f9667e220025b34	0.021880658343970086
52	0xbfb2f1f397f8e2d6	-0.07400438747653068
53	0x3fe09983f6b6fba7	0.518739683022308
54	0x3f91a12ab412950d	0.01721636509013984
55	0xbfb615ad7f18fcba	-0.08626827576607612
56	0x3fc3f8753eedb239	0.1560198361652441
57	0x3ff8ca348f17ea08	1.549366530378963
58	0xbfce176f388c51c9	-0.23509016286028686
59	0xbfb559ca7eaeef46	-0.08340135186057038
60	0xbfcaa4a8be5b2bba	-0.20814999861462785
61	0xbfb9f759932fa941	-0.10143050998127469
62	0xbf7e2f77740f805d	-0.007369486441319931
63	0x3fa0d62e75d5b217	0.032884075054287525
64	0xbf85301944fd9cb3	-0.010345647256782753
65	0x3fc6b0a36d67fc00	0.17726557581042357
66	0xbfe63c77f760dfaf	-0.6948814231500274
67	0x3f951360e515c375	0.02058173559402428
68	0xbffb83d8c0a2fd2a	-1.719689133154882
69	0xbfa744035b7cad7d	-0.0454407738855833
70	0xbfab07a83102d88f	-0.05279279325752483
71	0x3f8a5756b43047c3	0.012861897825164342
72	0x3fabad79326c30e7	0.054057872204880834
73	0xbf8bdb935572c9d5	-0.013602400822809205
74	0x3fe60c2064cff1f6	0.6889802903165776
75	0x3ffdcdd370a926bb	1.8627504730997504
76	0x3f87da82e4db840c	0.011647245988060127
77	0x3fbb34836bc43c65	0.10627004033106997
78	0x3f9b7a1aef7874f8	0.02683298193561698
79	0xbfc74bc021ec763c	-0.18199922233991284
80	0x3ff2ee662c69f3cd	1.1832029089848561
81	0x3ff2de21b1f381b5	1.1792313529223126
82	0x4004166c268703e7	2.510948468203867
83	0xbfc901e45f250575	-0.19537024160130625
84	0xbfca117fc9a5074c	-0.2036590323060018
85	0x3faf4472a451160c	0.061069090421863675
86	0x3fbe0d07e446e0a3	0.11738633464017538
87	0x3ffb4e549fca429d	1.706623672657009
88	0xbfab2134ae27cbcf	-0.05298771501465859
89	0x3feb21b0bade2544	0.8478625917206633
90	0xbf92850a96996ec5	-0.018085637513975756
91	0x3f9a89543d589aeb	0.025914493793744702
92	0xbfa0c3d79ce563e1	-0.03274415769801187
93	0xbf9f36ac1dba4a0c	-0.03048199588244853
94	0xbff2fff42761fdd5	-1.1874887026204892
95	0xbfebd8eb4fe40c03	-0.8702293930404043
96	0xbff0843dad4dc246	-1.032285382240063
97	0x3fc7d4ff96fdd183	0.18618769524222153
98	0xbfb901f78c3a2f79	-0.09768626378553148
99	0xbff2698042b57333	-1.1507570844471047
100	0xbffeaa7e1ba9bbe5	-1.9166241722666595
101	0xbf6f1480d38f3696	-0.0037939563885405854
102	0xbf935a18ecb052f3	-0.01889838165887432
103	0xbfa432ef0c36ab8d	-0.03945109390345811
104	0x3fca654d9aa03b6a	0.20621652650921912
105	0xbfe3654affe52121	-0.606114864153856
106	0x3fadb9bcf37bc323	0.0580576941700939
107	0xbf844186786bb5ca	-0.009890604543637677
108	0xbff71608c9fb83b3	-1.4428794755878982
109	0xbfabb23127c9fcf6	-0.054093872172410615
110	0xbff837a16d9dae12	-1.5135816842911294
111	0x3fb15610296e67c8	0.06771946918016092
112	0x3fb69aa9a5c3437e	0.08829746529523949
113	0x3ff6c81724e2b372	1.4238501969186612
114	0x3faf558395a36c0b	0.06119929505958773
115	0xbf85460f1f5b3c68	-0.010387533325596901
116	0xbf8316b59b18d4eb	-0.009320658488926678
117	0xbf9ed640b1fcfe27	-0.030114184249440037
118	0x3ffff4f6f0a005ed	1.9973058127801508
119	0xbfc49c82f1fea84b	-0.16102635208273094
120	0xbfb080f3794d2f33	-0.06446763717138708
121	0xbffb1b2c49c03a76	-1.6941340332884045
122	0xbfcf044c7df6763f	-0.24231868887447836
123	0x3ff1cc6d20c694ea	1.1124087600995218
124	0xbfb33f52e4ff7916	-0.07518499460954717
125	0x3fa8d3a71ed7c8c2	0.04848978282451945
126	0x3f71989684c6432e	0.004295909846761243
127	0x3f9f1d5a24b98640	0.030385406962869732
128	0x3fc077ed77ec6569	0.1286599002421938
129	0xbfa2a2171a9ada84	-0.03639290046469504
130	0xbf9749d17ba5f064	-0.022742531940352598
131	0x3fa8c1f06e7ee10b	0.04835463856528762
132	0x3fa4db5b82c9d000	0.04073606463944657
133	0xbff70f11098901af	-1.4411783573596997
134	0xbfb8e7412dcd79dc	-0.09727866523960621
135	0x3fc8152a1417fac3	0.1881458852876304
136	0x400230ee9bb8fe68	2.2738926091986293
137	0x3ff0dbc94798fe2a	1.0536587521345475
138	0xbf8d487663ddabb8	-0.014298367426553202
139	0xbf570b5febfd2f2e	-0.0014065205322876906
140	0x4002f22f3f136fea	2.3682541778380157
141	0xbff42c4e4017a30a	-1.2608168128592205
142	0xc00237f3d0016198	-2.2773205042287366
143	0x3f972f4d9b604d07	0.02264138470498003
144	0xbfc59a997889e4de	-0.1687805021827335
145	0x3fdd25f712cac703	0.4554422076717943
146	0xbfd1c35804719514	-0.27754784044221137
147	0xbffec3ed641d2555	-1.9228338156411457
148	0x4000e51f4a8a7e7e	2.1118760894312905
149	0x3fec0cc03a7a40ce	0.8765565054073023
150	0xbf80286727bd40f8	-0.007889562511679035
151	0x3ff1a2d1d172ef79	1.102250879440332
152	0xbface4d3a295d1be	-0.05643330917056087
153	0xbff082763cde7f77	-1.0318510415745246
154	0xbfa356822be40e20	-0.037769382341164226
155	0xbf9f54ad6a0dccc8	-0.030596456144348833
156	0xbf6d46c800c5597d	-0.003573790198213077
157	0x3f7126ff1d4cd68d	0.004187580624422827
158	0x3f85b123e0042d79	0.010591774248061668
159	0x3ff28b1a1d1864b8	1.1589604507956164
160	0x3f85a6d78411f0a6	0.01057213184162038
161	0x400294dd1d586f31	2.322687367688467
162	0x3f9b60526a26954f	0.026734626511502765
163	0xbf9540c2e41c775f	-0.02075485722809078
164	0xbf85afb6406419c4	-0.010589050140436103
165	0xbfb746d909f6691c	-0.09092480176187617
166	0xbf9741032500b0f2	-0.02270893967958982
167	0xbfe6c80971cd5952	-0.7119185660074356
168	0x3fe4b46a18c747b3	0.6470232471422065
169	0x3feada0683841f6c	0.8391144341157832
170	0x3fb047677c6651c3	0.06358954226590811
171	0xbf6d3866436b1efa	-0.0035669324236983187
172	0xbfeace279833431d	-0.8376653645192139
173	0x3fa4b03c6837626b	0.04040707370922266
174	0xbfe8e887352e14ea	-0.7783847845718388
175	0xbf581d319bc7d97e	-0.00147180409032685
176	0xbff3f54c20f4ffc5	-1.2473870551475426
177	0xbfe1ca64a43b8972	-0.5559561927478127
178	0xbfe755ce770fcc54	-0.7292244267868093
179	0xbf9f548061712856	-0.030595785090817472
180	0xbf9ec6d5184add23	-0.030055360419933962
181	0x3fb13f6735871609	0.06737370545223355
182	0x3fc6d2dd1b4b5b08	0.1783100493691665
183	0xbfefd158a06cc727	-0.9943049557971094
184	0xbf4a58ef9b29e643	-0.0008040590240192064
185	0xbf7b94b4fac72696	-0.006733614875381063
186	0x400117d9e8cd266f	2.1366460979086734
187	0xbfa01f76fecf5cde	-0.03149005756829991
188	0x3f8b18c262558230	0.013230818391719884
189	0xbfa4d5a3037b2d3c	-0.040692419218965686
190	0x3fd07c471813f57a	0.25758530951846803
191	0xbfa9fc78504bbd3a	-0.050754318048229455
192	0xbfae736b717a3bc0	-0.059474332430105914
193	0xbfd670983abb81a3	-0.35062223182287705
194	0xbfe39de54ca700dc	-0.6130243775478692
195	0x3f97c15fc0b87ee4	0.023198600900399394
196	0xbf91af2ae9c24ca1	-0.017269773976818063
197	0x3ff6ea21d38f81d9	1.4321611656269992
198	0x3faf057cc420fcb1	0.06058874029303619
199	0xbf6b5cf2d468349c	-0.003340219761645514
200	0x3ffa4ae773cd701c	1.6432871364149895
201	0xbfff14940c4b400c	-1.942524002097346
202	0x3fe28c7569c1d7fa	0.5796458306856487
203	0x3fd54fc02ff7139b	0.3329925983819579
204	0xbf9b494657ce8a04	-0.026646708592702253
205	0x3f961a375d2d290c	0.02158438211635265
206	0x3fb2c0c001c3eeb9	0.0732536320028271
207	0x3ff7e5a8373cbdb2	1.4935686261850205
208	0x3fb076b0b27ce883	0.06431106908431343
209	0x3feeaf39ae7d0d42	0.9588898094156451
210	0xbf9edc98ecedf168	-0.030138387166048913
211	0x3fe16716e09b26bf	0.5438341509663686
212	0xbf85f332c579bc98	-0.010717770244097743
213	0xbfd58d5ec08a3433	-0.33675354769440274
214	0x3ffe9ef4e8b43a46	1.9138077821732096
215	0xbf8517b42f6db0e4	-0.010299117753412586
216	0xbff4e896f3261896	-1.3067845819473738
217	0xbf8816ceaf52fad3	-0.01176225159212888
218	0x3fa8a17e30e15d24	0.04810709330257115
219	0x3fa2faa087c7b15f	0.037068382811272775
220	0x3fc24168ea4ebcaf	0.14262114945220136
221	0x3fa174fe38f89214	0.03409571118780633
222	0x3fb99c307e59bac4	0.10003951153496887
223	0x3fa49a501f7811b8	0.04023981460707965
224	0xbf941ea9c3a3f736	-0.019648220601985865
225	0x3f8e7ddc30e89378	0.014888496630257583
226	0x3fadd5f023093f90	0.0582728426712712
227	0x3fa74729a83f7bbc	0.04546480349357959
228	0xc001bffba2be98ad	-2.2187416757979777
229	0x3fba464f49309452	0.10263534104213193
230	0xbfc1b0f7f6a549f6	-0.1382131532978545
231	0xbff085c9f0580351	-1.0326632870130263
232	0x3ff4c4cd3b85f9fe	1.298047287476606
233	0xbfb023e93d2cea98	-0.06304795974294064
234	0xbf78c44d4f8d7d2b	-0.0060465831710126245
235	0xbfb013b77de11865	-0.06280085395073483
236	0xbfa5c4f733d5a799	-0.04251835353609507
237	0xbf68eb2f75e0e758	-0.0030418326341789363
238	0x3fc762baad433e53	0.18270047626582428
239	0xbf9399b64742ee41	-0.019141052340940105
240	0x3fb42675a6afff3b	0.0787118465377689
241	0xbf967d2ff7a15e0f	-0.021961926926762184
242	0xbfbe2b441e89266d	-0.11784768815518883
243	0x3fb7a60b5d32bcaa	0.0923773863348624
244	0xbfa401f66e711be2	-0.039077473622960004
245	0x3fe6ce540777acca	0.712686552605555
246	0x3fa6e342f3d7072c	0.04470261789857796
247	0x3fa10f9619558872	0.03332203921560585
248	0xbfcfd4ae59f710f5	-0.24867801087214728
249	0x3fa59f30c32aa828	0.04223015196232921
250	0x3fa3e2657d9ddfd5	0.038836642822331825
251	0x3fa26b806199cb99	0.0359764212743336
252	0x3fe851f4aacfe6ae	0.7600043617414565
253	0xbf903b96f50fdd73	-0.015852316577335167
254	0xbfb1856a40f6bb09	-0.06844200216322006
255	0x3fa293705c27c633	0.036281119584498

fc.2.bias f8 [3]
0	0xbfc18d14e27dbcae	-0.13711796816958127
1	0xbfb7c275c84722b0	-0.09281097545238981
2	0xbfdab1069570b7aa	-0.4170547923448519
