car_ros2/car_ros2/losses/hahaha_delay.pth (torch, 202689 bytes, 8 tensors)

fc.0.weight f8 [100, 40]
0.05546736937949888 0.04450701611295388 -0.06895800991433694 -0.034034253042236215 -0.041521835863293534 -0.08704692965739305 -0.07869016441722035 0.08627307245077183
0.18584615534940443 -0.19776558558676002 -0.26636191048865837 -0.06550038555666665 -0.03310647528524468 0.24375712264147079 -0.24072918316964256 0.15346517612382163
0.08783905752219104 -0.030663916551742953 0.18531507657515298 -0.040282235935466114 0.398230500833136 0.009456356573252576 -0.31063575715311453 0.008892115273278892
0.09915905168744973 0.16237674596141108 -0.03014817745854431 0.004465665063911593 -0.07553931609923491 0.029258229976365378 -0.19058967954828138 0.16969881214595356
0.37632471594653283 0.06345482671500366 0.01656746717937945 -0.1857414851748637 0.13810131421077254 0.1414537429498138 0.016043664410875187 -0.016102615287050405
0.2161641739137274 0.10277005098234361 -0.05404540942944419 0.15106805187550595 -0.06704899937506749 0.029509058004274485 0.13941539288976118 0.02388024328798373
0.10072014406711756 -0.012768208723849624 -0.15158902126781423 0.12289378002285047 0.0037091986745533007 0.1270805134387982 0.06085827301332798 -0.13633136680181393
0.13221023166385829 -0.04976539840937524 0.058850465460225994 0.13761926314592685 -0.3425897996511545 0.07356852818427811 -0.21084327082787505 -0.11498852018814301
-0.07557663547385009 -0.0607541545065265 0.11791004213033636 -0.04752957434171737 -0.175192115939451 -0.1289946561409092 0.025361826778514302 0.12893775288141818
0.040019275374436544 -0.1609233180017576 -0.27588481715962526 0.4191415046155711 0.04658648187694567 0.33107848674220564 0.015401847138547422 -0.018781199378389724
-0.20403561999926592 0.11627409280861194 -0.05478059116989986 -0.31493589415152395 -0.04472105751107308 -0.24673758860070977 -0.11118698074054512 0.0466000880458031
-0.0961879334565269 0.013453831888999866 0.3410603078701637 -0.09605632854599619 0.03922563074242038 0.3327780079349112 0.02283994304938587 0.3468475875651961
-0.12671074444220215 0.03780420161234483 0.1700521963617227 -0.05030308244628867 -0.11540396356252557 -0.0743227672150352 0.07029566979559283 -0.15510160745884888
-0.07061400462991371 -0.29732883645890906 -0.10020959647536218 -0.06462722247461322 -0.06459273376828906 0.04877742059448317 0.0938412757209635 0.04975916979304536
0.0202231399023474 -0.008236581315296594 -0.003593989334059779 0.08389726922851727 0.017293802039570722 0.024799210294751486 -0.02578243210804824 0.04433601294943803
0.13455832606551899 0.03040724059706573 0.11790759833627656 0.09646903319563276 0.09013734321031636 -0.06603527974232175 0.03212094390945998 -0.21378861184051073
-0.012543257252543495 0.0793549156054082 -0.07314390719594382 -0.10542833221973545 -0.17943712737314196 -0.10473357730664642 -0.26422381537477396 0.3908270120106089
0.08628849001038644 0.5421030640981789 0.17003157531291108 0.33253255634801493 -0.43620833986604424 -0.11591834818009916 -0.5579058621150513 0.0565104901516857
-0.13825756803573477 -0.1495771202689809 0.1147318328822179 0.2042690253457032 -0.08564691457060973 -0.09588233680689422 0.2629706794200896 -0.022391993249872923
0.1653355917368173 0.0325751053510109 0.10277491093743304 -0.06708929794306674 -0.19176852095260094 -0.1118302039106459 -0.010352400700155542 0.009316175026447115
-0.012084817618639906 0.07075854743832254 -0.007350950222133664 -0.05244352246232622 0.21648267643040614 0.044218610292461075 0.04676522151326451 -0.025806113254415623
0.11508451594823858 0.21608090160538673 0.04324859870719612 0.14706287324459907 -0.06058388593264995 0.11879960363076471 -0.0661449268361131 -0.011768589997264711
0.00592779547879347 0.2391256140649251 -0.1506943792471925 -0.2777421863433829 0.14094246919771855 -0.20552368151014497 -0.12776965126465203 0.0010084493568234278
0.05259276266880988 -0.058275267021581235 -0.06754560324144174 -0.2890169492291826 0.04416506676321109 0.008516048111205347 -0.40105474164745275 -0.016964949879223184
-0.07989261747216841 -0.019118195044321537 0.018906597545536037 0.23281397110071658 0.19055345139977728 0.312133527222264 0.03081067221104091 0.007520803175508311
-0.014274510376379576 0.046921621500616115 -0.022259571682064286 0.08643217854510087 0.07238189588948524 -0.016978674310458346 0.09932387740357156 -0.003149536550216891
0.10579979715653715 -0.2146788998949209 0.16100208166047636 0.002675343038776495 0.02078398517359085 -0.09357256972596832 -0.05035514551658676 -0.026567522625530315
-0.10274734294800819 -0.18575444666970414 -0.0966470887582349 0.25434630247033607 -0.4961092330038412 0.2152345714631404 0.1737341054071199 0.11036143753695257
-0.22797349828890076 0.28397123983794037 0.12623158553973246 0.1744756275232345 0.00900027820181649 0.0033400180268509873 0.4223762208627761 -0.18495934369087771
-0.45725952656389696 -0.0040416777100850745 -0.003023681906044158 -0.3233359162680794 -0.004534089206492135 0.29554772125019174 0.022581369200381333 0.012934478202570782
-0.27128049388390585 0.08116517017159451 0.1935504660311156 -0.08437092026106391 0.29321483968176537 -0.17331494404349526 -0.09464512991664821 -0.31799436483853477
-0.07817542426403487 0.05866115209195958 -0.036639033818911974 0.022038397660068102 -0.05943711461006338 -0.1488567305921977 -0.044490118983931626 0.24505284986168843
00000000: 9acf f512 3866 ac3f f89c 4ba5 9fc9 a63f
00000010: 2d1b 616d 3ba7 b1bf 0638 8507 f06c a1bf
00000020: 7598 349e 5942 a5bf d280 1824 b548 b6bf
00000030: ca56 b0e2 0925 b4bf bd95 b3f8 fd15 b63f
00000040: 4911 a88b cec9 c73f 4349 2ff9 6150 c9bf
00000050: 3dba 9cd3 120c d1bf bc5d d71d a2c4 b0bf
00000060: 4f9c 45f9 54f3 a0bf 41c2 f4f2 6e33 cf3f
00000070: 3105 74c0 36d0 cebf b56a 4334 bfa4 c33f
00000080: b288 5ed7 9e7c b63f 632d 079b 5c66 9fbf
00000090: 4f4a ac88 67b8 c73f f3b8 e78b df9f a4bf
000000a0: f545 56c8 9b7c d93f 6c7f c5b1 da5d 833f
000000b0: 7a36 7ccc 74e1 d3bf 28f5 5382 0736 823f
000000c0: a697 19d4 7c62 b93f 2580 c4de c2c8 c43f
000000d0: efb1 dff0 29df 9ebf b161 78d6 964a 723f
000000e0: 075b 356c 8b56 b3bf d9a1 8c93 def5 9d3f
000000f0: f2b7 4e1c 3e65 c8bf 2220 2bd0 b0b8 c53f
00000100: a4ad ea42 b415 d83f 5ea8 8355 933e b03f
00000110: 8e19 dae6 0ff7 903f b512 2b82 60c6 c7bf
00000120: 18f2 08ca 4dad c13f fbe0 eeff 271b c23f
00000130: b292 cf17 c06d 903f aadc 2638 347d 90bf
00000140: 4e5e c384 44ab cb3f 1938 fa57 234f ba3f
00000150: 582d ff03 d7ab abbf 1b4b 23ab 3256 c33f
00000160: e9a1 8b8b 1f2a b1bf 3baa 415c 9f37 9e3f
00000170: 3ea0 8214 5dd8 c13f 1408 c5ff 0f74 983f
00000180: d511 d19c cbc8 b93f f1f2 2df7 3726 8abf
00000190: 9392 63e0 4467 c3bf 5178 147e f775 bf3f
000001a0: c4e2 0ce0 c062 6e3f f7d9 969c 2c44 c03f
000001b0: 7a0a 91c8 d028 af3f 3d98 ea64 4e73 c1bf
000001c0: 79af 98ce 43ec c03f d306 48ad d97a a9bf
000001d0: c118 03f1 a521 ae3f b374 410d 829d c13f
000001e0: 4179 5cc4 fdec d5bf ecfa 9016 63d5 b23f
000001f0: 55c9 648c e9fc cabf 5a9e 9f3d e36f bdbf
00000200: b1af b389 fd58 b3bf 4940 6725 2b1b afbf
00000210: e5dc d13e 5a2f be3f 94ec c7de cb55 a8bf
00000220: c20d 3dfc b16c c6bf bff2 bd9a e582 c0bf
00000230: 0578 5262 73f8 993f c036 ec43 0881 c03f
00000240: b6b9 e20d 687d a43f 1b9d fda1 2299 c4bf
00000250: 4777 caca 18a8 d1bf 4c16 aee3 36d3 da3f
00000260: 5cc1 31f0 2eda a73f 64e2 3dd2 6330 d53f
00000270: c17d 10ee 008b 8f3f bd79 70f4 603b 93bf
00000280: d1d6 8ed5 d61d cabf b32c fc91 23c4 bd3f
00000290: 107f 0f9f 330c acbf 75e8 6de1 e827 d4bf
000002a0: 68ba e7ae ade5 a6bf 1af2 dde8 1895 cfbf
000002b0: 1889 05fe bf76 bcbf e57d 4b7c f7db a73f
000002c0: 0a32 77bc c59f b8bf 8cca c0bf ae8d 8b3f
000002d0: e006 119d eed3 d53f 66cb adc5 2597 b8bf
000002e0: 2347 68c2 6115 a43f 6824 3a21 3c4c d53f
000002f0: 632a c2a1 5a63 973f 337f 5239 c032 d63f
00000300: 5e2d b7c3 0e38 c0bf 691f 2783 125b a33f
00000310: e647 fe36 45c4 c53f a056 fd5b 53c1 a9bf
00000320: 476f 5439 1d8b bdbf 8a6b 891e d106 b3bf
00000330: 758e d2a2 e5fe b13f 66e0 cb95 5eda c3bf
00000340: 1e6b 8668 c213 b2bf 78eb 2f87 6f07 d3bf
00000350: ce66 9b0b 56a7 b9bf 24b4 f5de 688b b0bf
00000360: c412 183f 2689 b0bf 0c1c 79a4 5af9 a83f
00000370: 7388 3c5a fb05 b83f 0ade dfad 087a a93f
00000380: 4a16 03f2 5fb5 943f 4454 0a3b 57de 80bf
00000390: 51da dc54 2471 6dbf 8968 8f9b 4a7a b53f
000003a0: 75db bb68 77b5 913f 57f7 bad4 f664 993f
000003b0: cb93 dcba b566 9abf d344 4ebb 35b3 a63f
000003c0: 688e ed0c 3539 c13f 8f39 b45f 1323 9f3f
000003d0: d4e0 cd3e 312f be3f 3be8 a6ce 31b2 b83f
000003e0: 3494 3cad 3d13 b73f ab1f e026 b0e7 b0bf
000003f0: 122f 3707 2872 a03f 9e5d 0edc 6c5d cbbf
00000400: 94db 7a7d 47b0 89bf 5854 4d8f 9a50 b43f
00000410: ace8 4e21 8fb9 b2bf 57a1 f4e6 59fd babf
00000420: 13bf e0b8 cbf7 c6bf fe3b 53d9 d1cf babf
00000430: cbf9 7601 0be9 d0bf 5aa7 be4c 4f03 d93f
00000440: 32a7 9da2 0017 b63f 459e 6b86 e858 e13f
00000450: e6ce a03b 98c3 c53f 1aae 97a1 3648 d53f
00000460: 2ee5 7d62 d6ea dbbf 209b 702a d3ac bdbf
00000470: 91fc 0065 5dda e1bf fa32 2a66 f1ee ac3f
00000480: 31a9 918a 6cb2 c1bf 327f e4d3 5725 c3bf
00000490: 290d 0abe 105f bd3f 1b09 b9c7 7c25 ca3f
000004a0: eb85 15c9 f4ec b5bf d383 d9ac be8b b8bf
000004b0: c7a2 faf8 82d4 d03f 9744 cd3a eded 96bf
000004c0: 97ed af77 b729 c53f ebed 4a28 afad a03f
000004d0: b659 53e1 744f ba3f f9ba 93a4 c32c b1bf
000004e0: 2665 f2f2 de8b c8bf f750 807c e7a0 bcbf
000004f0: 48bd 89b3 a333 85bf c6cc 7fd8 5b14 833f
00000500: 8bf9 99c3 ecbf 88bf aff9 286f 3b1d b23f
00000510: 3c04 c7ac 071c 7ebf 13b8 b99b e0d9 aabf
00000520: 86a6 b54f b4b5 cb3f 1c50 295a d2a3 a63f
00000530: 98b5 fa71 9cf1 a73f c1bc dbf1 ea6c 9abf
00000540: 930f 46c8 2d76 bd3f e4b8 d7fa 89a8 cb3f
00000550: 1229 172a ae24 a63f d74a 85cb f4d2 c23f
00000560: 5e9b 7de1 d904 afbf a934 5f9c a669 be3f
00000570: fbb2 8eb9 dfee b0bf c02a 4469 211a 88bf
00000580: c82e 807b be47 783f 0ebb 050a ab9b ce3f
00000590: 2363 4713 f449 c3bf 981e c429 87c6 d1bf
000005a0: 172d e91f 670a c23f 2bde 5199 994e cabf
000005b0: 492f cd84 c15a c0bf 0670 7640 be85 503f
000005c0: a370 5647 70ed aa3f adf5 0b7c 41d6 adbf
000005d0: 061c e92c ab4a b1bf 4175 3bf2 407f d2bf
000005e0: d14e bfba cd9c a63f cfc2 07a1 dc70 813f
000005f0: bb04 d281 e1aa d9bf 2b5f a383 425f 91bf
00000600: f41b 3cb3 d773 b4bf bc48 e559 b893 93bf
00000610: 02fe 8b48 405c 933f c5f8 f623 d9cc cd3f
00000620: b773 f334 0e64 c83f 6be7 d9e6 fef9 d33f
00000630: 9689 0e36 d58c 9f3f 13fa da3a 22ce 7e3f
00000640: ab1b dd59 f43b 8dbf 4610 a45b 1c06 a83f
00000650: e4f8 9691 36cb 96bf 8759 2c54 6b20 b63f
00000660: fcf5 aab3 9e87 b23f 4e48 928b db62 91bf
00000670: 5b06 2925 4a6d b93f 1835 628f 0ecd 69bf
00000680: 6cf4 b50c b215 bb3f 0e50 1823 997a cbbf
00000690: dcea a859 b79b c43f 2694 6ddb 99ea 653f
000006a0: 6b8c 67a2 6548 953f 2b95 c636 5ff4 b7bf
000006b0: e8ad 5b4e 26c8 a9bf e3e3 3f43 8434 9bbf
000006c0: 646c b65d a64d babf e237 c43c cdc6 c7bf
000006d0: df60 7815 ddbd b8bf d4fd bdb6 3547 d03f
000006e0: 67b0 bff0 40c0 dfbf bc8d b372 ce8c cb3f
000006f0: dd31 764e eb3c c63f 3ef4 f5ac a540 bc3f
00000700: 8fb5 c04f 3c2e cdbf 18f2 06b5 952c d23f
00000710: b0c4 ce49 5b28 c03f c3a7 14a5 3755 c63f
00000720: c5ed 40e4 bc6e 823f b121 3086 865c 6b3f
00000730: 33ad cd45 3608 db3f 03f8 1e6e bfac c7bf
00000740: 9f16 1876 bd43 ddbf c862 5f99 018e 70bf
00000750: c386 ccdc 1ec5 68bf 1197 7f20 89b1 d4bf
00000760: 9196 be4d 5692 72bf 4b52 4bfd 40ea d23f
00000770: 3eb0 db08 921f 973f ca88 f746 647d 8a3f
00000780: ea8a 51dc a85c d1bf ff15 7697 3dc7 b43f
00000790: 7056 ddfc 42c6 c83f 9433 4127 5599 b5bf
000007a0: e9a4 c82c 08c4 d23f bd95 4920 2f2f c6bf
000007b0: 91b9 b7c9 a93a b8bf 9bcd 5209 055a d4bf
000007c0: dea0 90fa 4d03 b4bf 25b1 8fa3 d508 ae3f
000007d0: 5fbe 04f8 59c2 a2bf 612f d3d4 3b91 963f
000007e0: 5d70 d69e 8a6e aebf 9f6b d7c2 bc0d c3bf
000007f0: f0f0 0fac 68c7 a6bf 5149 f94b e45d cf3f

fc.0.bias f8 [100]
-0.025898334947671953 0.02593080790877304 -0.026805289640487322 -0.06423560559429699 0.03868789222767144 -0.007195291182924313 -0.03779935515645054 -0.014616113992102227
-0.048237311920739115 0.2414445101554019 0.0061981839370515174 0.03894583617148874 -0.059687381885478265 0.09660420350096754 0.0144831831993826 -0.041854756689586374
0.10449809987542293 -0.11047114821990932 -0.007803823771073164 0.23131065759973238 0.001904764482219225 -0.043454629610117174 -0.04474241815444321 -0.010291070090057534
0.015252711400953908 -0.0662879844492234 0.02125588902721707 -0.002530544743018808 0.07779475506756418 -0.1222045871737688 0.08552376424046534 0.011789423779273741
-0.011768513426861022 0.0781762267578747 -0.012162069457107075 -0.0017741782033942307 0.006616835322030415 0.023700450323724687 0.21331748926400837 0.0004995902354277678
0.0066664611103337875 0.0029458210151745204 -0.05930792891127122 -0.035880640745088836 0.050621315055581546 0.029775693784656852 -0.006504157751434202 -0.12375781432345645
0.05936882467013961 -0.018572132954651436 0.16557064914216907 0.024424005183891845 -0.020056463251791754 -0.01066620798593693 -0.008947209848618796 -0.056834352962524745
0.051331917054675796 0.0015575059854269358 -0.02348272460688647 -0.0892955747283374 -0.03265127129035513 0.18749286345338947 0.17323663154956842 -0.02733450189897407
-0.009326674148140958 -0.05251588462803064 -0.0308720941475491 -0.013298441663216766 0.22865536739874945 -0.055449872523846595 0.2335517350542254 0.041030700408727284
0.015136061729377997 -0.060908120197571025 -0.05989164334101627 -0.10643603688906504 -0.014158281701736445 0.0013924283070566156 -0.0610157165328772 0.025055073789545596
-0.019724631677615637 -0.10498258410040774 0.03272416321739894 0.0381655070613143 -0.0544948690162167 0.009552124885427855 -0.0055193970590047495 -0.05242740002179971
-0.0003351591027739994 0.05140354440462504 0.023733072217368752 -0.013696240745180721 0.012262710388308846 0.04314138202392519 0.03512534166647038 -0.012259171714112813
0.017477061887879994 0.051485198627731356 -0.07468389079597716 -0.04581086231386371
00000000: ed02 7cd6 1785 9abf 8b49 b50f 9b8d 9a3f
00000010: 3b7a 7689 d872 9bbf a129 44a1 be71 b0bf
00000020: 60f0 bc3f e6ce a33f 27c0 0d45 cf78 7dbf
00000030: 76e7 69e4 6f5a a3bf 24ba b99c 0def 8dbf
00000040: 6205 4b9a 8fb2 a8bf bf45 7559 a7e7 ce3f
00000050: 021f de54 4463 793f a205 5869 b5f0 a33f
00000060: 0d2e 5d32 588f aebf 505a b196 0dbb b83f
00000070: 0d73 77f1 5ba9 8d3f ffde 5396 fc6d a5bf
00000080: 7986 7531 63c0 ba3f 678e c150 d647 bcbf
00000090: 1f8e 16fe e6f6 7fbf 99b5 cd6e 969b cd3f
000000a0: 3bfc 174a 2935 5f3f d40b 126a af3f a6bf
000000b0: ab40 6f6d 7ae8 a6bf 6235 d20b 7c13 85bf
000000c0: deae 2345 d03c 8f3f 7cc1 53d5 3ff8 b0bf
000000d0: da90 e090 1ac4 953f becf 31dd efba 64bf
000000e0: d1c5 d068 5bea b33f e71f 55c1 cc48 bfbf
000000f0: 9e90 71aa e2e4 b53f 0bb9 90ac 0d25 883f
00000100: fdc5 5322 171a 88bf beef 3f71 5b03 b43f
00000110: c244 8f54 6de8 88bf 743c 1857 7111 5dbf
00000120: 1d6c fa34 411a 7b3f ddd9 294c ee44 983f
00000130: 2fe1 06cc fc4d cb3f 78f3 7cdc dd5e 403f
00000140: 26db 2e87 4a4e 7b3f 4b00 719d d521 683f
00000150: 9e82 22de 9b5d aebf 978e 1e85 f25e a2bf
00000160: 31d9 4979 09eb a93f a64f 15fc 847d 9e3f
00000170: ff75 498d 1aa4 7abf 98c8 2495 97ae bfbf
00000180: 226d b830 9765 ae3f e1f6 a0be 9204 93bf
00000190: 1e1e 9f45 6b31 c53f 9833 023e 9b02 993f
000001a0: d9a0 f576 ae89 94bf e284 c633 2ad8 85bf
000001b0: 9faa 852d ea52 82bf b6d7 866e 6419 adbf
000001c0: 644c fb51 2d48 aa3f 43b0 5351 a784 593f
000001d0: 7988 d4f8 da0b 98bf 6abf 2225 13dc b6bf
000001e0: 0bd4 badc aab7 a0bf 8102 6222 c4ff c73f
000001f0: a2bf 7c31 9e2c c63f 6f8c d55e 93fd 9bbf
00000200: d4de 9203 dd19 83bf d8ec fead 5ce3 aabf
00000210: 401a e42a ef9c 9fbf a70f 40a0 363c 8bbf
00000220: bf28 843e 9444 cd3f 2155 1dfa ec63 acbf
00000230: b3b0 fdf3 05e5 cd3f d560 c6d8 f901 a53f
00000240: c97d f1d0 a7ff 8e3f 486a 9e60 592f afbf
00000250: f11e e812 1eaa aebf 1bec 8d61 643f bbbf
00000260: 6219 0367 04ff 8cbf 3801 9d82 44d0 563f
00000270: 32f7 19b6 733d afbf 7590 198a 09a8 993f
00000280: 848c ec9f b132 94bf c15e 5c7d 23e0 babf
00000290: 258a 9db5 38c1 a03f a4c3 53e9 6d8a a33f
000002a0: b1eb 7260 c0e6 abbf aaf8 eb7f 1090 833f
000002b0: 9a03 cbdd 819b 76bf a310 04a1 c3d7 aabf
000002c0: 04ad a762 09f7 35bf 0292 3bbc 9051 aa3f
000002d0: bf60 0784 7b4d 983f 402a a150 c60c 8cbf
000002e0: 04f6 9f20 311d 893f b643 cb91 a016 a63f
000002f0: 2cc7 6fe3 f2fb a13f b28e b42c 561b 89bf
00000300: dc56 f4c4 81e5 913f 5d18 ab98 445c aa3f
00000310: d9ba 81c4 7b1e b3bf b613 e176 8574 a7bf

fc.2.weight f8 [100, 100]
-0.07650566388738231 -0.06618526247005228 0.1135533912386958 -0.09638647573051085 0.0070889328374648015 -0.11607376029760845 -0.05901825016228771 0.25088106368403007
0.0709629855914165 -0.05532381838537559 -0.050634851384355924 -0.07004936596944904 0.09162395991816825 -0.05536900546814778 0.03602098907382596 0.11594393510235748
0.0936014071480343 -0.04041187129690236 0.027019690310231995 -0.018564255785175315 -0.019885321008643847 -0.020144277330128208 0.04276143410728942 -0.028516010020885173
0.014715178641055595 0.029339388891187396 0.050739319230779054 -0.04100457372248706 0.07673437708905272 0.030264831438964402 0.007611970294691889 -0.0677565765707006
0.021799080688046358 0.11091532729461025 0.07242744554734201 -0.017849887347347156 0.06714168598190211 -0.06722919524696035 0.11869348453208689 -0.013919789798785427
-0.09344733931199296 -0.06656365575135016 0.08924093093917938 -0.0012956011368177934 -0.09767649286263413 -0.006632531411418477 -0.001140020813658673 0.039016344308906464
0.024599595805732666 -0.031221133441213154 -0.023383883631431762 0.040525324403298 0.020465850113230377 -0.005423392870205473 -0.08925670112790136 -0.061334220908997435
-0.01166140723996334 -0.0156665694982938 0.1178282995706003 0.07595674571434177 0.05011081086308373 -0.06129438494774963 -0.044791838270995275 0.03681084672886139
-0.017284621205120473 0.0333594935441403 0.005003657731793311 -0.08031262946234612 -0.10957482024208577 -0.08103722629644211 0.08132591050912627 0.12097799211617377
0.06516830891957782 0.02370218086447742 -0.0065755861407498385 -0.015761023764263114 0.08004734388866722 -0.029022755991187307 -0.048376337781487644 0.05193672030059933
-0.028672948582703393 -0.0455133467058183 0.16106865465574527 -0.011964533230233495 0.21398782689211943 0.08251850047631394 -0.07422281361644738 0.06635807558067999
-0.007792037781124307 -0.0887712443166567 0.03231146335813191 0.02274625883368928 0.10280282789421734 0.016990226123115314 -0.1098256554622541 0.064214794278374
0.06713042381840477 -0.09475027650547645 0.0032443949429345237 -0.07725278249465883 0.03157942282994658 -0.06343379950835645 0.10045822014010783 -0.18059491164973673
-0.0873990374524907 0.16206293374645978 -0.034117403972390416 0.02584401438019836 -0.05712873864258327 0.18275408712083738 -0.08046121053465792 0.08328789778190245
-0.0004015113308187725 0.07290893797349503 -0.021633510108801917 -0.027545215088492454 0.04866974148379062 -0.07379183335512873 -0.1552896279431884 0.13316643132549627
-0.060249524002811194 -0.09444402760009245 -0.07882305326692653 -0.0016716215941024618 0.09078604327941472 0.0036915611497807736 -0.07719802570112679 -0.20235564885990084
0.10172868758894324 0.004478649135562782 -0.05710914443985238 0.17826507906771802 -0.01930926090003614 -0.08900531764684373 0.061086918784058836 -0.09327783597587826
-0.026843943316616884 -0.02202873327546262 -0.06912367145904215 -0.11894535719879921 -0.1868774048801809 -0.040488311661590906 0.02695369202259762 0.014777270698277499
0.1674994743494799 0.05458940116005264 0.1576250329436331 0.007379108256516733 -0.05351006748891372 -0.041411452919886224 -0.06333222433000925 -0.025517355251724046
-0.1079649957099496 -0.0015446002725920075 0.018516784719781212 0.04389199139204363 -0.06935932209419429 0.06341138972625499 -0.03546745709555548 0.14704350528261553
0.09137773351542185 0.01636457422760896 0.22972742842361202 -0.059280077687059125 -0.033433986021938804 0.17967764317458884 -0.02814577496463041 -0.11650861685688245
0.07178407110843153 0.020545958938358803 -0.1338979087656743 -0.012665272242491518 0.12770943023292464 0.05707263726926952 0.11120699289976611 0.10481721765187808
0.04291943156632257 0.05664077734681791 -0.1348331750800746 0.07513356231113737 0.14649143654014615 -0.11341746357533049 0.1130616925502516 0.1101506950239661
0.08049770362743205 -0.10020473352445441 0.04789821937068981 -0.0971622210954903 0.05726814533350724 0.1916477961700413 -0.08731804705634681 0.048236046736657844
0.05174048506166133 0.0875154145996945 0.25525666998935914 0.07067916884286064 -0.10575092682709547 0.022389268391098154 -0.05600549018899659 0.13788314976786245
-0.006021065996715696 0.1066233021076281 -0.04931355554462543 0.023142969224677304 0.0536040078673707 0.05978869887760675 0.037650063774203026 -0.00774233480841275
-0.012438928632897844 -0.07953109189972953 -0.05940926538225368 -0.06262477065510058 0.00797978880999016 -0.02404309337821358 0.006337731310299181 0.0028649536157112757
0.06155392668447133 0.06578026224529024 -0.03811995219811144 0.0033248551571456097 -0.02000426534405267 -0.1116107036039605 0.050740832751894026 0.09761466246619431
0.046848338363095 0.08966722925356498 -0.020328127895474096 -0.029950808310474454 -0.04019807956198781 0.05378716559666116 -0.044024729475973585 -0.04690390428044358
0.028087065961029063 -0.09718605062359902 -0.0015350492645396458 0.1215806380387046 -0.03866169044727759 -0.08582415594647434 0.13342727153361497 0.021313942736061096
-0.08795871310849433 0.09459936267857884 -0.006190318141584363 0.040903778734630566 -0.00790840950369029 -0.01902288187394649 -0.07167904042244964 0.03268357569231027
-0.04959997550803467 0.06097687993391093 0.10234234886562275 -0.0946101355775725 -0.07740566652496496 0.06390259263055342 0.00495461157052208 -0.0963789809666969
00000000: 36e6 5a0c e095 b3bf 9f3a c971 84f1 b0bf
00000010: e957 b8c5 d511 bd3f c00b 0ab9 c8ac b8bf
00000020: f40c 35eb 4809 7d3f 9be7 668c 02b7 bdbf
00000030: 35db a0dc a337 aebf be59 ed72 6f0e d03f
00000040: 9476 5756 a12a b23f 5060 4f4d 6753 acbf
00000050: 399e 77ad cfec a9bf e3be f157 c1ee b1bf
00000060: 7de8 60f7 aa74 b73f 2a3e 6587 5359 acbf
00000070: ea53 15d4 5771 a23f e225 6f71 80ae bd3f
00000080: 9675 8f06 43f6 b73f 3d43 2e63 ddb0 a4bf
00000090: c106 ecb8 0cab 9b3f 883b e31d 8202 93bf
000000a0: c83f 9c4d d15c 94bf 557b 5691 b3a0 94bf
000000b0: 15af 0aa2 d3e4 a53f f3f5 ce09 4d33 9dbf
000000c0: 2122 25d8 fd22 8e3f 68cf 160f 250b 9e3f
000000d0: 265c 6f09 81fa a93f d8be 3f2e 8dfe a4bf
000000e0: cf8f 1338 dda4 b33f bd49 ff74 befd 9e3f
000000f0: adc9 94b7 ba2d 7f3f bbc7 75b8 7e58 b1bf
00000100: 3d56 8d8a 7f52 963f 3501 5b67 f264 bc3f
00000110: 666a f5e5 9a8a b23f 7f99 93a9 3d47 92bf
00000120: 1396 7d91 3230 b13f 4f0e ecba ee35 b1bf
00000130: c447 503a b262 be3f d7b2 9f8f fa81 8cbf
00000140: fd43 3e32 2aec b7bf 69e3 8dd4 500a b1bf
00000150: c72e d95f 7ed8 b63f 9f05 b920 253a 55bf
00000160: 80d8 6e9e 5301 b9bf 5d1b 0798 b62a 7bbf
00000170: 3d8f 2107 98ad 52bf c4e8 a145 f3f9 a33f
00000180: 9df8 ebed a230 993f 06d7 4bcc 6ef8 9fbf
00000190: c847 cddd f1f1 97bf 2ba4 f13d bcbf a43f
000001a0: 3045 aff3 fff4 943f 2c9d 2cf0 d636 76bf
000001b0: 050e 4bf4 86d9 b6bf 910c dcf1 3267 afbf
000001c0: 4091 c495 efe1 87bf 7cf0 8aae e50a 90bf
000001d0: ebf2 32d5 fe29 be3f 92f1 c0ba e671 b33f
000001e0: 297d aacb 1fa8 a93f 9fdb 8e45 fa61 afbf
000001f0: bbd7 00b1 f4ee a6bf 9353 ad0d dfd8 a23f
00000200: 2fef 324b 0fb3 91bf 5700 91db 7e14 a13f
00000210: db49 1825 b77e 743f 6b1d ff54 5e8f b4bf
00000220: 69a3 676d 180d bcbf 34a7 b30c dbbe b4bf
00000230: 3641 f45d c6d1 b43f f0b9 ace7 69f8 be3f
00000240: 0193 8bcb deae b03f 2792 a06e 6245 983f
00000250: 9227 d376 00ef 7abf 39d8 7966 a823 90bf
00000260: 7a2c 2294 fb7d b43f ffa9 492f 24b8 9dbf
00000270: 20ee 5789 c8c4 a8bf 1a1e 4e26 7397 aa3f
00000280: 1939 c501 715c 9dbf 7018 447f 864d a7bf
00000290: 4c1d 14ce e59d c43f be6e 7c77 dc80 88bf
000002a0: 9a33 1fff f363 cb3f b958 dcb4 ee1f b53f
000002b0: e388 192d 4400 b3bf dacb 71c4 d7fc b03f
000002c0: 41a8 0637 8bea 7fbf e64e 2a57 b6b9 b6bf
000002d0: ca72 d1cc 208b a03f f92c 3097 cb4a 973f
000002e0: 67f2 bd3f 4951 ba3f a6a2 33c6 e265 913f
000002f0: 81de 78be 881d bcbf e350 5879 6170 b03f
00000300: f3dd dd9e 752f b13f 33c3 e0da 8d41 b8bf
00000310: 4955 9b45 fd93 6a3f 78ed 569e d6c6 b3bf
00000320: 58f6 8f98 2d2b a03f 0e73 598e 323d b0bf
00000330: ceba 1d42 a1b7 b93f 5008 aeeb bb1d c7bf
00000340: 9271 8f87 c85f b6bf addc 2a6c 7abe c43f
00000350: 4559 921c d677 a1bf c5c0 3d72 da76 9a3f
00000360: 8f64 4360 fa3f adbf 7379 b265 7c64 c73f
00000370: 07ca d71b 1b99 b4bf 7d38 200d 5b52 b53f
00000380: 4b47 eb08 3e50 3abf 2da8 2e00 29aa b23f
00000390: 0bf3 a849 1827 96bf b28d dd17 d034 9cbf
000003a0: 3a8f f487 3deb a83f 78df f886 05e4 b2bf
000003b0: b245 b6d0 87e0 c3bf 9ee8 bbfd 980b c13f
000003c0: c81e 628e 06d9 aebf 934c d8d9 7b2d b8bf
000003d0: f1ca f363 bf2d b4bf 4941 fd04 4a63 5bbf
000003e0: de7d d10e c13d b73f 2f90 1acd c33d 6e3f
000003f0: 49bd b3f3 3fc3 b3bf 23cf 0137 cae6 c9bf
00000400: 666f 422a e40a ba3f bd7b 1439 3458 723f
00000410: e0e9 57e7 683d adbf 97ae 4ede 63d1 c63f
00000420: 9d66 4d90 cec5 93bf e199 7670 0dc9 b6bf
00000430: 6429 c8dc c846 af3f b942 f566 0ee1 b7bf
00000440: a1eb 8f8a fa7c 9bbf 6030 f643 b38e 96bf
00000450: edc8 4bc4 16b2 b1bf ab0c 2ef3 3373 bebf
00000460: 602e 294b 99eb c7bf 2ae0 e94c e2ba a4bf
00000470: 705b f9a6 bf99 9b3f bf65 fcb2 8b43 8e3f
00000480: 7dcf 366e 9f70 c53f f39c 6159 24f3 ab3f
00000490: c10c c39c 0e2d c43f 4f87 2a4a 8e39 7e3f
000004a0: 3e47 beeb ab65 abbf ce06 f1c7 e133 a5bf
000004b0: 65c3 4768 8a36 b0bf 3f72 25b9 3821 9abf
000004c0: 23e0 af0d 98a3 bbbf edc6 fee9 854e 59bf
000004d0: 97b2 3163 10f6 923f 9797 2bd7 0279 a63f
000004e0: 3a3a 1154 88c1 b1bf f473 1195 ba3b b03f
000004f0: 576b 9860 ca28 a2bf b796 2353 52d2 c23f
00000500: e505 08f9 8764 b73f 2270 7bfc dfc1 903f
00000510: 8b6b 0958 b567 cd3f b1c5 f055 f559 aebf
00000520: 3f0b 1469 421e a1bf 7aec a050 adff c63f
00000530: d682 f9fb 3ed2 9cbf bb3d 1a3b 82d3 bdbf
00000540: d7d1 c8dd 7060 b23f 8e22 d2f6 ff09 953f
00000550: dc5f 9311 9123 c1bf 588b 9c10 40f0 89bf
00000560: cedf 1e59 c858 c03f b6ce 22ed 9f38 ad3f
00000570: c14b 97bd 0f78 bc3f 255e df19 4dd5 ba3f
00000580: 7b6a e125 89f9 a53f 0c32 a61c 0500 ad3f
00000590: e73f b1a6 3642 c1bf 0354 f500 f43b b33f
000005a0: 17c0 8a3c 3bc0 c23f d3ef d948 ed08 bdbf
000005b0: 6b09 ef6f 9cf1 bc3f 6e75 c200 d632 bc3f
000005c0: baa0 7b5c 7f9b b43f 4c55 6475 04a7 b9bf
000005d0: 9dad 778b 1d86 a83f be08 0392 9fdf b8bf
000005e0: d4b6 9e16 4052 ad3f 764d 733c ea87 c83f
000005f0: 2f25 75bc 795a b6bf c3cd 7126 65b2 a83f
00000600: 5622 7096 ba7d aa3f 6a00 9a03 6967 b63f
00000610: 9e2b 6c12 2056 d03f b944 b0ae 0718 b23f
00000620: fc7a 3e24 7e12 bbbf eba3 155e 36ed 963f
00000630: 6031 8469 c0ac acbf 7d12 76b1 27a6 c13f
00000640: f9ed af98 8ba9 78bf dc35 8b2b aa4b bb3f
00000650: 2b96 a058 a03f a9bf e42d cf5f cab2 973f
00000660: fa23 7309 fc71 ab3f 920d b3d4 9f9c ae3f
00000670: 057d 3481 de46 a33f 48c1 bf2c 6db6 7fbf
00000680: 7693 67bd 9479 89bf 6979 b94e 265c b4bf
00000690: 13d6 ca27 e46a aebf 9c16 e24d 2d08 b0bf
000006a0: 783f be1f b557 803f 2e33 04af c09e 98bf
000006b0: b84d 56cb 97f5 793f 1d6e b042 3e78 673f
000006c0: fdb1 190c ff83 af3f ead9 10ab f9d6 b03f
000006d0: 7a2d 0858 7584 a3bf ae7b 3e05 ba3c 6b3f
000006e0: 089c bb85 ff7b 94bf b6d0 dce1 8492 bcbf
000006f0: 537d 7bd2 b3fa a93f 9702 e746 46fd b83f
00000700: 326a 4862 81fc a73f 41c0 2a79 6ef4 b63f
00000710: 3bf7 ff91 e5d0 94bf 7aa0 bab8 6cab 9ebf
00000720: 3b57 29ba d794 a4bf cc48 5dca fd89 ab3f
00000730: 310d a1ca 688a a6bf 64e1 e0dd c903 a8bf
00000740: 420d f916 dbc2 9c3f 2b46 0e5d 2fe1 b8bf
00000750: 6980 e498 7626 59bf 13fb 33a0 e81f bf3f
00000760: 1a84 2810 77cb a3bf 9335 ff66 92f8 b5bf
00000770: 53d1 d013 2514 c13f 3634 007c 52d3 953f
00000780: b700 3354 7684 b6bf e14b edf0 a937 b83f
00000790: 29e0 84df 045b 79bf ee67 e50f 57f1 a43f
000007a0: 712c 74c1 4832 80bf 98da 18fe bb7a 93bf
000007b0: 2f4f 6cbe 8e59 b2bf fefb 6dd1 e6bb a03f
000007c0: 55fa 6001 2b65 a9bf 18ac 4192 5c38 af3f
000007d0: ffa8 5fb1 1b33 ba3f 3a01 2dae 5e38 b8bf
000007e0: 51f3 3f96 dbd0 b3bf 9053 7a99 eb5b b03f
000007f0: ca70 8e6a 494b 743f c515 46fb 4aac b8bf

fc.2.bias f8 [100]
0.03575069793291665 0.07517933301263215 -0.029061336710404513 -0.00117030349399187 0.21644728640402533 0.10888614179743174 0.13103273381629066 -0.02234215418601101
0.04766818703627462 0.07222621641304552 0.1133801260243449 0.025089065198935563 0.10694002040793227 0.18592328834776173 0.1101797767513327 0.12462933318292121
0.2307993299062996 -0.07211262992652613 0.060467771697039 0.10521673258125745 0.16156791242636534 0.13064202645481066 0.18261708834522958 0.21154865192919137
0.0854773733724423 0.1945590972410505 0.1189552533655679 0.0072768264751813996 0.22417882809365436 0.17897297518390098 -0.005397641065016895 0.25142210615910987
-0.027784075798548743 0.19036216998099623 0.17395771710400815 -0.09401221334186896 0.11035154137205397 0.1966847854872327 0.14849680232114904 -0.00897138860811526
0.04286552167898806 0.10069169873083386 0.07733051936962952 0.22020913062635197 0.17162895556596697 0.2631000707864738 0.1425483012793847 -0.11222681465899566
0.07412547202994968 0.11359558430111796 -0.02429960944579541 0.1292303063295142 0.04787072195252 0.11065691884281058 0.2307962020109455 0.17199308465820398
0.1513931671916656 0.1321640169118766 0.04192151581869211 0.12331735335762284 0.11549846432981202 0.09680125696812066 0.00985698383331324 0.04576279783890881
0.19267520442252395 0.13315123504182444 0.08499475378813301 -0.01232563716330983 0.015562490557222195 0.15014331484067114 0.12354032681488136 0.1028385566514958
0.1294197863549245 0.0016780662989135642 0.19726994776519519 0.08542578530756542 0.04030376924253867 0.19730358302542764 0.008965985622909576 0.08547192173717202
0.000459178602437029 -0.05302808509632567 -0.019201037912715192 0.20018267489571814 0.012359382114610526 0.1768541287555628 -0.004004921730284717 -0.07376939932896322
-0.07343907480096017 0.07681697996075958 0.13259126677015784 0.060439672665773714 0.21597587234183968 0.004860904118052535 0.01736235583455545 0.036300238300514556
0.15164017755847606 -0.04880367906901406 0.07170385905344406 0.012568386984965462
00000000: d3b2 dc5c ea4d a23f 49d5 9fe8 f33e b33f
00000010: 9236 ff4a 41c2 9dbf b3f0 eace 9b2c 53bf
00000020: dce4 3470 8bb4 cb3f 49f1 0152 f6df bb3f
00000030: 0025 393d aec5 c03f 5755 3496 dce0 96bf
00000040: 30c5 c2f0 f667 a83f ca68 68d5 6a7d b23f
00000050: b979 4add 7a06 bd3f 120a 11aa f2b0 993f
00000060: d01f 49d2 6b60 bb3f 685b 8295 55cc c73f
00000070: a6da d3e9 bd34 bc3f 5697 243e b5e7 bf3f
00000080: 5871 f11a d58a cd3f 19b9 292b f975 b2bf
00000090: a232 cdbb a1f5 ae3f c3b0 6dd9 7bef ba3f
000000a0: 3f24 fae1 41ae c43f 5ea4 8dbf e0b8 c03f
000000b0: a716 112b ff5f c73f e83d c6b6 0614 cb3f
000000c0: 3ec0 2e5b d8e1 b53f 7911 e5ff 4fe7 c83f
000000d0: 697b e4fa d973 be3f b652 ac3b 4ece 7d3f
000000e0: c215 8f4f e4b1 cc3f ac2e a421 96e8 c63f
000000f0: c7c1 983d d61b 76bf e277 dcbe 4c17 d03f
00000100: 6f0e 9ec3 6d73 9cbf 6d63 3b9f c95d c83f
00000110: ca9c ec18 3f44 c63f ca57 ba35 2f11 b8bf
00000120: e293 41a5 ff3f bc3f 99eb a490 f72c c93f
00000130: 28d4 c376 f101 c33f e65b 5f65 975f 82bf
00000140: 9176 793b 78f2 a53f da11 0761 eec6 b93f
00000150: 67dd acd3 eecb b33f 1d0f 2913 d02f cc3f
00000160: 62ea 9907 f0f7 c53f aa9a e6ad a1d6 d03f
00000170: 3133 0cd2 053f c23f e9d3 b182 e5ba bcbf
00000180: 7850 2b0e e3f9 b23f 8a16 8ba7 9914 bd3f
00000190: 3345 802f ffe1 98bf 7a2d ab61 9e8a c03f
000001a0: b6a7 71e2 8282 a83f 0f89 8107 0354 bc3f
000001b0: 5fc9 d6dd ba8a cd3f ed60 df90 de03 c63f
000001c0: 4389 f6ee d960 c33f 9b18 2c21 c0ea c03f
000001d0: 844b e1a6 bc76 a53f a044 b3df b991 bf3f
000001e0: 5fe6 08af 4e91 bd3f fdc7 e398 f7c7 b83f
000001f0: 4139 9cf9 e52f 843f a2e2 2eb0 386e a73f
00000200: 6857 dfc2 94a9 c83f 4f9c f683 190b c13f
00000210: ae02 da57 37c2 b53f 0b75 2604 2f3e 89bf
00000220: 5f8f e61f 3adf 8f3f 4d13 7a69 e537 c33f
00000230: 9035 68bf 56a0 bf3f 4205 96ad a053 ba3f
00000240: 39c3 ecda d390 c03f 7668 f5f7 517e 5b3f
00000250: 524c 1143 2440 c93f 7a90 21da 76de b53f
00000260: 74be 9a15 b2a2 a43f 9d29 3d6a 3e41 c93f
00000270: 65e4 3638 c25c 823f 8261 96e4 7ce1 b53f
00000280: 8bfe 9a14 bd17 3e3f e835 8446 7f26 abbf
00000290: ba97 89d7 6fa9 93bf 8b92 f3fc 959f c93f
000002a0: c520 d92f e04f 893f b377 95f5 27a3 c63f
000002b0: 417e acfd 7667 70bf 013f 9025 8de2 b2bf
000002c0: 63c4 8438 e7cc b2bf bb7d b510 47aa b33f
000002d0: 47ab 4129 c0f8 c03f a8fc f5e2 f2f1 ae3f
000002e0: 7875 37ee 18a5 cb3f 1bd9 7403 07e9 733f
000002f0: 78b6 f6f9 6fc7 913f 32e9 ace0 f195 a23f
00000300: e5c7 af01 f268 c33f 2042 0dbb cbfc a8bf
00000310: 54ac a121 2f5b b23f 53dd 8258 74bd 893f

fc.4.weight f8 [100, 100]
0.04655220898740664 0.2796050958911447 -0.011111282790928044 0.018649153754116552 0.150047890651004 0.13209417273620094 0.20488882810780218 0.012385307361421608
0.0720965011602278 0.1731546208927641 0.04476598271970059 0.07552114724909263 -0.12811079987360885 0.1688269989140118 -0.1709235272073548 0.03640071016895944
-0.025546352319989064 -0.02497880818099446 0.060595806339374884 0.2745517199992158 -0.24267955080887205 -0.12846408764875045 -0.07512562891579784 -0.30669944979029967
0.03676509564303859 -0.06443291703047252 0.0376416697734403 -0.03650085233376338 -0.08764578024205556 -0.1615132495618577 0.14301716315399077 -0.012986858822550032
-0.022728749025209896 0.21101284352585004 0.05559038576270821 -0.01572146487222962 0.2628386322000813 0.28633837594546235 -0.042030892197450875 -0.036129077683065176
-0.006932905902000662 -0.019440519790793663 -0.10745006269778672 -0.13576447598106015 0.31787494940179806 -0.0639708973367401 -0.0522343818768828 -0.06793308943101066
0.05041193201191446 0.17448249155133722 -0.02677555911025278 0.15066373390627696 0.10225686519965875 -0.008526371640290908 -0.18241914856020655 0.23781820743942317
0.0015723744066170884 0.07834158711349726 0.037335556608037106 -0.13427135055274733 -0.08009358863241241 -0.05132715838404163 -0.17389638258838772 0.08786477085176568
-0.047765281846638606 -0.19237526705801086 -0.23358649963926503 -0.05484772634367081 -0.018462613210285295 0.056065159360341246 0.10916767597608402 0.1802027430995957
-0.07301652585674509 0.11987135692795338 0.2458439594858029 -0.036648628090592515 0.11634382874128842 0.10666321895849738 0.07847265051191615 0.10221920788742246
0.17582293294484908 0.09286270537605797 0.12080061366977611 0.13957494815200738 0.052319390697145654 -0.06224642998586953 -0.0399236412371555 -0.00914778439029095
0.040225460581788386 0.043607329284196486 -0.10367260465811082 0.017491871477671433 0.12406217274429547 0.14039885416417483 -0.18360392007196896 0.21159472347783242
-0.20122525170264274 -0.10737591638608966 -0.08724054073064906 -0.03181611930474633 0.07825926423083342 0.11553689755283222 -0.041895690088337025 -0.0500487587280952
0.08007601104815676 -0.004976418444448092 0.1197420470710971 0.09289530243967935 -0.06678828404024653 0.12500890776517412 0.01822352909147744 0.039612485064218945
-0.08683806468897809 -0.05425047837034303 -0.11285933505014148 -0.05931900735806103 0.06653710878989587 0.07073038414623876 0.09824755587324525 0.09616373277600265
0.08212159624416783 -0.007000136522476116 -0.1403492218341422 0.036094410566244586 -0.12827284777540923 -0.05674530036340784 0.039529429655646875 -0.086765074486479
-0.006862866875905272 -0.08123614030965841 -0.02115272960230195 -0.06059846668888702 0.14262435603339257 -0.15394307243920743 -0.15813107611458727 -0.015192856286304332
-0.03776154516249752 0.13226434914529728 0.1378241517112726 -0.039258550857164114 0.0812948818251491 0.03573094698085511 0.06324293122450894 0.10976605124641393
-0.031123636889232843 -0.10826764122778915 0.12644996485310456 0.046860480530469845 -0.0750688614773189 0.12926148896479975 -0.05174932985734806 -0.00900638238223624
0.13321662179394395 -0.21491547708954833 -0.08899567721406239 -0.22332495063868527 0.059778605858853376 0.044477652622303014 -0.05288047682072637 0.030980034234317118
-0.07869516306279416 -0.08476044715899454 0.014460172918024074 0.031874674217007494 -0.007377772482941702 -0.0762581241630961 0.059692354410068704 0.05582345452807217
0.004167989347862258 -0.05697561200416317 0.10543330012557232 0.15842594275355112 -0.09115478470084004 0.02890166181211885 0.16263965043225437 0.10921811351597774
0.09639993159988029 -0.059358283246198976 0.05468474770693659 0.08985677908697114 0.035707715317067325 0.07640475113641068 0.02256379201769256 -0.07374718882788832
0.012952865391288523 0.04717055295385313 -0.09609400316570633 0.0935785538983 0.08964075488955439 -0.06389782154312311 -0.08057706694689745 -0.049662859393130546
-0.011058853348138668 0.016312524682488682 0.013707408478237447 0.14280019813936062 0.018824732231961166 -0.00930287250736792 -0.012958540639104914 0.016171530220625185
-0.048869562057640085 -0.16316033746222372 -0.09560504109529888 0.03296862753167309 0.044069832747171876 -0.03674846022401106 -0.0015441906823985081 -0.00140385792152171
0.10385119433369114 -0.06839601476405617 -0.017982291978114365 -0.04805776164668128 -0.011206959635015923 0.004537087153493055 0.1281780875835002 0.04646701073498455
0.18806866988901866 -0.07522375975732713 -0.08167129647044567 -0.14830453791910606 -0.0020162163479671897 0.021487307832019433 0.18663533782088126 0.11212849045984312
-0.09314318699965686 0.018008195251301182 -0.03138478668511424 -0.061094956376984644 0.004382649211201616 0.09436443147170004 -0.10312980197139109 0.1359260777583463
-0.08144518272097168 0.13644001558671384 0.12404205125739827 -0.10612998618816796 -0.14158651809538805 -0.09112305899687681 0.08318516859521484 -0.04957042557044747
-0.022453734733202578 -0.02706930960353911 0.1210570895119117 0.057732290348727726 0.01814448833226173 0.09641910057670137 0.058393558100201776 0.056439687820429636
-0.06862804224632281 -0.19349245019771347 0.048343066183926565 -0.013324242056276725 -0.020167477866930655 0.11204798757600083 0.09246673847583178 0.06971017609220619
00000000: c09f 50ee b0d5 a73f 2c6f a9c5 0ce5 d13f
00000010: df0f a121 83c1 86bf 9955 e385 c318 933f
00000020: 3405 97ef c434 c33f c473 f23b 76e8 c03f
00000030: 9cf6 0410 cc39 ca3f b5b3 8bd0 775d 893f
00000040: e7a2 a392 ea74 b23f 9f5e f13c ee29 c63f
00000050: b442 821f 91eb a63f 5f5c 9799 5a55 b33f
00000060: c85b dc47 ef65 c0bf b53d 8283 1f9c c53f
00000070: af7c bc77 d2e0 c5bf 6526 7427 1da3 a23f
00000080: 8a5c fcae d228 9abf 70f5 eb70 0b94 99bf
00000090: ef35 01dd 6906 af3f 7442 9d60 4192 d13f
000000a0: dce7 109f 1f10 cfbf dab7 94df 8271 c0bf
000000b0: 95e7 48e7 6e3b b3bf e73b a3ba f6a0 d3bf
000000c0: a8a2 d7e6 dfd2 a23f e287 6ef7 ac7e b0bf
000000d0: a09a 49d9 c445 a33f 486a 195e 3db0 a2bf
000000e0: dda3 c52f f46f b6bf 2293 5e56 77ac c4bf
000000f0: d2ac 41eb 624e c23f c86e 5daf da98 8abf
00000100: 3415 f886 3446 97bf f85f fd06 7802 cb3f
00000110: 5a4d a5d1 5776 ac3f eac0 e2a5 4919 90bf
00000120: a42e 5b20 59d2 d03f 05a2 1132 5e53 d23f
00000130: 28cb d1b6 1285 a5bf 81b4 2aae 827f a2bf
00000140: e56c d8c1 ad65 7cbf c6f2 df32 37e8 93bf
00000150: 0b7a 3de9 d881 bbbf a90b 26f8 ba60 c1bf
00000160: 047f f92b 1058 d43f b002 f58f 6560 b0bf
00000170: 32a6 c603 77be aabf a324 6c1d 1064 b1bf
00000180: 9881 a3be 97cf a93f f002 7839 7155 c63f
00000190: c7b4 d75a 0d6b 9bbf e40c e900 f348 c33f
000001a0: a3f2 d283 812d ba3f 40ea c93a 4676 81bf
000001b0: eb78 9dba 8259 c7bf cc3e acb7 d370 ce3f
000001c0: 7fbe d229 04c3 593f 78b7 91ba 310e b43f
000001d0: 3f0d 3865 a51d a33f 71f7 b4b9 cd2f c1bf
000001e0: 25a5 cb6f 0381 b4bf 8ae8 4fa5 8d47 aabf
000001f0: e10e 0e96 3c42 c6bf df63 473d 4e7e b63f
00000200: 0bc1 d4e6 b074 a8bf eb65 49b4 c09f c8bf
00000210: e46e 5e94 29e6 cdbf 5ae2 cf4d 0015 acbf
00000220: 9d5b bfff dce7 92bf 8a9e cb93 92b4 ac3f
00000230: b1fc 18ae 69f2 bb3f 8391 212c e210 c73f
00000240: 564c 9f06 36b1 b2bf 6992 bba5 e3af be3f
00000250: ea90 f49a d077 cf3f 0b4a 2fe6 9bc3 a2bf
00000260: b506 898b b5c8 bd3f a7e2 1cdd 474e bb3f
00000270: 0c41 949b c816 b43f f145 e6ba 092b ba3f
00000280: 5045 71a9 5d81 c63f 6db6 9baa d9c5 b73f
00000290: 2f65 0cfd c9ec be3f a6ae d386 97dd c13f
000002a0: 9255 fb6f 9bc9 aa3f 3604 2a9a c3de afbf
000002b0: dcd1 e61a df70 a4bf fb19 4cd6 12bc 82bf
000002c0: 98a4 547b 6e98 a43f 3a76 482a b353 a63f
000002d0: ca6a 7fae 498a babf 6b0d c59f 63e9 913f
000002e0: f381 9bde 89c2 bf3f f3f7 83f3 96f8 c13f
000002f0: 4e31 1050 5580 c7bf 4af6 ab30 8915 cb3f
00000300: a19a 98c1 bfc1 c9bf ef9b 41f1 fc7c bbbf
00000310: 7bd0 5265 6555 b6bf da8d cccf 334a a0bf
00000320: e9fe 7a94 cc08 b43f e680 787c d393 bd3f
00000330: 0da7 8b15 5a73 a5bf ad97 e2ab fd9f a9bf
00000340: 285e a588 dc7f b43f 1798 8527 2762 74bf
00000350: 555f 2030 6aa7 be3f 1732 ee8d fcc7 b73f
00000360: 1275 b577 0919 b1bf 77b1 47b9 4a00 c03f
00000370: 4cc6 dc55 30a9 923f 796c ba6f 1648 a43f
00000380: 8c18 e3f7 043b b6bf 8134 c9fc b7c6 abbf
00000390: b2b2 1671 59e4 bcbf eca2 4499 0f5f aebf
000003a0: 5316 3972 9308 b13f 4fda bdee 621b b23f
000003b0: 9534 6377 c026 b93f 188f 55b7 2f9e b83f
000003c0: 09fd 29c2 eb05 b53f 09b6 e7d6 2cac 7cbf
000003d0: eff9 e59a f6f6 c1bf 1a9d e671 f77a a23f
000003e0: 6b80 14a3 3e6b c0bf cd6a 8652 b80d adbf
000003f0: 7079 338f 333d a43f 02bc 5a65 3c36 b6bf
00000400: 4efc 9ecc 3c1c 7cbf af1c e245 e4cb b4bf
00000410: fbba 73a7 0fa9 95bf e0a7 3b21 c306 afbf
00000420: be63 63d0 8341 c23f 5f3c c916 68b4 c3bf
00000430: 365c 329c a33d c4bf d85e 0fa7 6e1d 8fbf
00000440: c0e8 0933 7b55 a3bf 50bd 00c7 09ee c03f
00000450: 3074 19c8 38a4 c13f bf2c 0a60 b219 a4bf
00000460: 606d c5ca bdcf b43f c1cb 79a1 534b a23f
00000470: 46fc 4f51 b030 b03f 097d 50c0 a019 bc3f
00000480: ea8e 49ea dfde 9fbf 9cd5 499a 6db7 bbbf
00000490: 70ed cf2f 832f c03f 4cd8 b4ce 18fe a73f
000004a0: cc37 fe80 b637 b3bf dd37 def5 a38b c03f
000004b0: 338a a75e e37e aabf aab9 4b2e f071 82bf
000004c0: 52bd f104 3e0d c13f 127e c0b0 5982 cbbf
000004d0: 45a9 1eb3 6bc8 b6bf 2bde af77 e995 ccbf
000004e0: 7a18 542a 4d9b ae3f c7ce d45e c6c5 a63f
000004f0: ae74 155d 2613 abbf f21e 76e7 3ab9 9f3f
00000500: 4345 b5bf 5d25 b4bf c7ce 8a54 dcb2 b5bf
00000510: 1427 388e 4b9d 8d3f dd57 aa96 e051 a03f
00000520: 8c48 81b8 2738 7ebf cab5 5505 a785 b3bf
00000530: a064 060c ff8f ae3f f57a 184f e494 ac3f
00000540: a9bc 061f 7412 713f 6776 744c e82b adbf
00000550: 13dd f23f adfd ba3f c373 7b21 4d47 c43f
00000560: d0fd 2983 eb55 b7bf a3e5 21b1 6598 9d3f
00000570: 04d8 d145 60d1 c43f 9e93 aee1 b7f5 bb3f
00000580: 23e1 8e79 aaad b83f c208 947a 3564 aebf
00000590: 278c fba5 a3ff ab3f c39f 8097 da00 b73f
000005a0: 85dc 001b 4848 a23f aad0 6303 438f b33f
000005b0: 65b0 2873 f61a 973f 370e 3084 18e1 b2bf
000005c0: 98e9 f529 0887 8a3f 27c5 8a1c bd26 a83f
000005d0: e53c f0d8 9d99 b8bf dca4 999c c3f4 b73f
000005e0: f2ae a34e b2f2 b63f 3b38 d08d 9b5b b0bf
000005f0: ee32 58db b2a0 b4bf 02b4 d609 696d a9bf
00000600: 222f b12b 06a6 86bf 031e 1b00 3bb4 903f
00000610: acfa 0339 a112 8c3f cc78 6fe2 4647 c23f
00000620: 6b3e 2b65 ca46 933f b38c 6c69 620d 83bf
00000630: 29a1 fde1 018a 8abf 9308 b205 458f 903f
00000640: 6764 9d65 6e05 a9bf 19c9 b31c 70e2 c4bf
00000650: 9048 d66c 9279 b8bf f3c7 1592 43e1 a03f
00000660: 6b51 c734 5290 a63f f753 aeb5 b1d0 a2bf
00000670: a73b b31e ce4c 59bf 2b59 1df7 3400 57bf
00000680: 8651 50eb fd95 ba3f 659e 96b6 6682 b1bf
00000690: d4ff cf2f f369 92bf bed3 2ee5 069b a8bf
000006a0: f3ba f5a8 acf3 86bf c9fa 170f 7b95 723f
000006b0: 1213 1ebb 2368 c03f 2837 e626 86ca a73f
000006c0: caab 4959 a212 c83f a335 0a44 dd41 b3bf
000006d0: c7cb 5cfb 68e8 b4bf 7d00 1ba2 a4fb c2bf
000006e0: ad76 d6e8 4f84 60bf 77a1 abd1 c400 963f
000006f0: fcfa 1bb0 aae3 c73f 5b91 79e7 73b4 bc3f
00000700: b13c 025e 3bd8 b7bf c943 a886 bd70 923f
00000710: e01a cfb0 aa11 a0bf 98ec 2d8f d647 afbf
00000720: 32df 8270 8af3 713f 109b 1373 4428 b83f
00000730: dfc7 b5f6 b666 babf aca4 5295 0666 c13f
00000740: a00c 346c 97d9 b4bf e9c3 67ce dd76 c13f
00000750: 2db2 7a49 38c1 bf3f d298 cdb3 552b bbbf
00000760: 1d19 63cc 811f c2bf a295 4d3e d753 b7bf
00000770: 17f2 a08a 9f4b b53f 0406 5979 4b61 a9bf
00000780: c69d 68a1 1cfe 96bf d5d6 e39d 0eb8 9bbf
00000790: 2511 67f0 98fd be3f ef21 f135 168f ad3f
000007a0: 8f78 f5ff 7794 923f 6bc9 af13 ecae b83f
000007b0: 44c5 acac c2e5 ad3f 4138 c5aa a9e5 ac3f
000007c0: a155 097d 9b91 b1bf 95a0 cf50 5cc4 c8bf
000007d0: dd24 7f20 6cc0 a83f 136d 017f bd49 8bbf
000007e0: e86b 8687 c8a6 94bf b5b6 384a 2daf bc3f
000007f0: 12b3 b871 e6ab b73f 77b1 83ae 86d8 b13f

fc.4.bias f8 [100]
0.10377111491453933 0.04118664960782091 0.1744843948154886 0.08445052914917012 -0.008510060314160106 0.03613951887575318 -0.07468389246627427 -0.03945646703004612
0.243040162206977 0.1630492818663838 0.03085069733827712 0.1064770434675069 0.0776783834993255 -0.004090228817762163 0.004991708938799422 -0.07241786814543977
0.04938300213492177 -0.05288787145702048 -0.05685258635483361 -0.11114542805759135 -0.08147467856583973 0.0805333258919204 -0.02315565059386012 0.11512791553417051
-0.0014566196890062712 0.21779943990519054 -0.04830372238119005 0.02776024653312094 0.03327813963212329 -0.0981834277855644 0.017012585099418807 0.09275111223068463
0.11607525369325904 0.03355084435105532 0.13076432746060043 0.04931754117973988 -0.021964305734120636 0.0479597373121021 0.21888857139871978 0.08385050214786982
0.2294115361855395 -0.007055455495496908 0.07590243805747197 0.09566486217759497 -0.06376181570324695 0.19791402935278105 0.1408315184788124 0.03257900004278758
-0.03812242124502156 0.058615854240967706 -0.0391727116858522 0.07571672881085117 0.09190499186906975 -0.09409847990305271 0.08693121042467478 0.08628748687174374
0.05140048646354033 0.04354411402578385 -0.03685326961936361 -0.02852054677621702 -0.033324966091565406 0.03738407658645356 0.05574872252245048 -0.011990824634878815
0.03256198799858646 0.05579024297987357 0.07101531496404649 0.21016907212805236 0.14748018888775705 -0.01978418217088756 0.08190185690670547 0.11126913116938164
0.09096040393121306 -0.031178694339824717 0.09014726543742961 -0.07481709332486054 0.08041539978815256 0.013752174019468284 0.1416049995645307 0.1183649026887467
-0.02895721330258791 0.001195073147999703 -0.09260607597585181 0.03136586698361294 0.20043043393922566 0.014114971377164595 -0.057953127702336786 0.0227305352038582
-0.04177955180940336 0.05808089246628198 -0.0837451468678719 0.00842953997113968 -0.01584079636303863 -0.0801123818235659 0.05512782692661442 0.26793369983564874
-0.09131506830453873 0.07813662067080963 0.08154330432537857 0.25436543066450257
00000000: c4d0 d368 be90 ba3f aede 31a2 6a16 a53f
00000010: 488b b230 8155 c63f 3c59 d3c4 8c9e b53f
00000020: f3f3 e3f5 b86d 81bf e13d 5407 e180 a23f
00000030: b03d aecb 7b1e b3bf fffd 0457 a333 a4bf
00000040: 7491 25a6 f01b cf3f c84e a082 ccde c43f
00000050: 33bc 8140 5397 9f3f 03bc 775b 1442 bb3f
00000060: 0d5a bc04 bbe2 b33f be4d 1670 eac0 70bf
00000070: 0def 4aaa 2f72 743f 04a9 5437 fa89 b2bf
00000080: c3aa 4b96 ba48 a93f 04a2 867c 1e14 abbf
00000090: b38e 2c3e c81b adbf 6b76 9bda 0674 bcbf
000000a0: ec73 e447 86db b4bf f7a3 f100 d59d b43f
000000b0: 76ab 1268 1db6 97bf 046f 13e8 0579 bd3f
000000c0: afd4 537b 81dd 57bf b76d bd1f dae0 cb3f
000000d0: edf6 cdf7 43bb a8bf 2461 f49b 2e6d 9c3f
000000e0: b98b c812 d509 a13f 1d22 5993 8c22 b9bf
000000f0: d95b 7d42 bf6b 913f 66cb b271 89be b73f
00000100: 93c9 7c9a 1bb7 bd3f 4860 7b86 932d a13f
00000110: 8d9e f6ae e2bc c03f 34e4 f814 2640 a93f
00000120: 56c5 3a9b cf7d 96bf 3d7a 8fbe 2d8e a83f
00000130: b515 d06b 8a04 cc3f 7870 7afc 3977 b53f
00000140: 46fa 9e72 5b5d cd3f fee0 c869 2ee6 7cbf
00000150: efbc 2499 576e b33f a9da 6d0e 7e7d b83f
00000160: 93d4 2dc1 b152 b0bf 11b1 be35 3f55 c93f
00000170: 0567 0e67 c406 c23f 31b8 70d7 31ae a03f
00000180: 86c0 fb30 c884 a3bf 2fef fbb1 e502 ae3f
00000190: fb38 2c17 720e a4bf 64b1 00ea 2b62 b33f
000001a0: 70b3 6ae6 1587 b73f e573 c985 d616 b8bf
000001b0: 7892 c6b1 1f41 b63f 1b0d 2bce ef16 b63f
000001c0: cf02 b820 2a51 aa3f 511b 5903 6a4b a63f
000001d0: cc1b 8887 6ede a2bf 71eb ab7e 7d34 9dbf
000001e0: 8cd5 014f f80f a1bf cbf2 a874 0124 a33f
000001f0: 252f 0eb8 188b ac3f 9960 453d a58e 88bf
00000200: 91e5 1703 f7ab a03f 81a3 11ea 8990 ac3f
00000210: e324 4947 0f2e b23f dcd7 b5f5 d1e6 ca3f
00000220: 4858 0a7e a1e0 c23f ceb7 9bfd 4d42 94bf
00000230: 675e e524 85f7 b43f a044 6d3f 227c bc3f
00000240: 0f92 1d58 2e49 b73f 4c0b 16c2 4eed 9fbf
00000250: d3a9 e024 e413 b73f 1916 0389 3627 b3bf
00000260: 5554 2f88 1a96 b43f cad5 4c8d 192a 8c3f
00000270: 5e35 0ad5 1c20 c23f 0bda 0a8a 294d be3f
00000280: b8bd 78b0 f5a6 9dbf cb2f 9105 8094 533f
00000290: 2128 ba23 08b5 b7bf f983 cfd9 2f0f a03f
000002a0: 1c2f 7257 b4a7 c93f d857 9763 4fe8 8c3f
000002b0: d769 5d48 08ac adbf efda 4865 ac46 973f
000002c0: ea6a 5321 2164 a5bf ac91 545b c7bc ad3f
000002d0: b608 ff6a 5270 b5bf af90 f8b3 8143 813f
000002e0: 2c92 49d9 9138 90bf 65d7 efbb 3e82 b4bf
000002f0: bdab 7feb b639 ac3f c895 9263 d325 d13f
00000300: 0000 00a0 6c60 b7bf 81ad 66f6 c200 b43f
00000310: de07 49a1 05e0 b43f b6f7 7bf1 8547 d03f
