car_ros2/car_ros2/losses/haha.pth (torch, 123981 bytes, 4 tensors)

fc.0.weight f8 [300, 47]
000000 25 6e 08 67 0b 92 d3 3f bd fc 4c 57 f9 53 b5 3f
       0.3057888513737644 0.08331259137502207
000010 2f 39 76 6a 5d 6d a4 3f 3c ee 0b 64 c1 f9 a3 bf
       0.039896888013674185 -0.03901485773345967
000020 6b 2c 68 bd 19 98 b2 bf 10 76 54 9b 9e d5 b4 bf
       -0.07263337015335629 -0.08138457576975378
000030 41 6f cc c1 e2 c4 b4 3f 5f ee cf d6 7d 84 b6 bf
       0.08112923842821564 -0.08795916075171693
000040 1f 80 15 ab b8 0a a3 3f 9e 5b ec 6b fa 18 aa bf
       0.03719117248942915 -0.05097181861326948
000050 ce d8 23 25 00 90 d2 bf 2c 46 70 2e 49 f1 b3 bf
       -0.2900390970893455 -0.07790048011545342
000060 44 be 9f 5c ee 9d 96 3f 95 0d c4 6d 6f ff b3 3f
       0.02208683433849347 0.07811638288335694
000070 b3 71 a0 a5 1b b0 c2 bf 64 63 e4 d1 d8 06 ab 3f
       -0.14599938952677646 0.05278661310348445
000080 b8 ed ef 95 6b 81 95 3f 31 6b b9 26 39 4a 93 bf
       0.021001511599008288 -0.01883782671789475
000090 a1 69 f7 37 90 7f d7 3f a9 e5 bc 89 fe 3c b2 3f
       0.36716084924196407 0.07124319899312205
0000a0 5b cd 27 e2 72 70 d5 bf 62 d0 5d ff 40 2c c0 3f
       -0.3349883278417189 0.12635052174630618
0000b0 d7 95 3f 51 29 da a1 bf b3 66 7c 44 2c e5 ac bf
       -0.034867564361586716 -0.056435950622654295
0000c0 f7 0f eb af cb 47 73 3f 86 a5 74 60 a2 12 c2 bf
       0.004707141545342345 -0.1411936732268197
0000d0 23 22 b8 a8 a5 fa 72 bf 55 73 91 61 db 21 9e 3f
       -0.004633566957189336 0.029426029043281805
0000e0 4f 8a d5 51 ae d3 95 3f 64 0d 09 f2 31 00 79 3f
       0.021315311188468574 0.006103701686302674
0000f0 fa 43 54 98 6d e0 65 3f 6d 8a 73 d2 a6 c8 c4 3f
       0.002670492222599294 0.16237340236610312
000100 e4 31 f2 b8 58 08 b9 bf 82 81 d1 e1 d2 57 a9 3f
       -0.09778360858235363 0.049498167100639825
000110 94 61 43 7b 30 ed 87 3f 4a 4b 47 d3 96 bf de 3f
       0.011682871591276713 0.4804436743990449
000120 ef b6 49 40 90 d6 c5 3f 23 a9 52 87 bb 61 c3 3f
       0.17061045779285375 0.1514200602299037
000130 17 37 4b 89 d5 42 b5 bf a9 42 23 54 3f 11 a2 bf
       -0.08305105783366816 -0.03528783704826328
000140 00 00 00 40 cd 53 b8 3f 00 00 00 c0 29 3e ba 3f
       0.09502871334552765 0.10251103341579437
000150 00 00 00 a0 8f 5e 8b 3f 00 00 00 e0 b9 ab 9a bf
       0.013363954611122608 -0.02604570798575878
000160 55 03 c1 e1 f0 3c cf bf 00 00 00 e0 a6 1b b6 bf
       -0.24404727004187046 -0.0863594338297844
000170 00 00 00 20 ad 39 83 bf 54 cb a6 73 c2 64 aa bf
       -0.009387352503836155 -0.05154998456727947
000180 8e fa 2a a2 db e8 9e bf 16 6c 71 2f 67 d4 c3 3f
       -0.030185157559339752 0.15491952721171803
000190 fd 08 98 84 16 64 93 bf 44 06 bd 63 3e 6a 92 3f
       -0.018936492770088787 0.01798341258768789
0001a0 22 3f af c9 2b d9 b5 bf 3e ab fc 89 bf 25 b9 bf
       -0.08534501718463308 -0.09823224181006382
0001b0 c1 08 b8 0b 06 e0 b9 3f 10 18 67 e8 c0 02 b7 bf
       0.10107457910638386 -0.08988576578039464
0001c0 33 fe 36 ff 89 32 92 bf a3 09 cb 77 d7 97 b8 3f
       -0.017770916177822293 0.09606692003857246
0001d0 7e 27 05 12 7f 68 ad bf 26 3a 73 e8 43 5b 9d bf
       -0.05743786902401292 -0.028668461859348814
0001e0 43 31 7e 83 d6 11 9e 3f f9 f7 f8 e9 d6 f1 97 bf
       0.029364921355907524 -0.023383482008505017
0001f0 f9 51 92 3d 4a 7e 93 3f 33 72 a0 45 24 50 aa bf
       0.019036445625333773 -0.0513926825517256
000200 a1 63 7f 47 e7 5d bd 3f 4e 67 94 f6 2b 42 d0 3f
       0.1147141027025911 0.25403880195664363
000210 49 6c dc b6 a1 05 e2 3f 34 a8 47 74 42 5c 94 bf
       0.5631874629501762 -0.019883192393457885
000220 c9 ab 88 19 e7 7b c2 bf eb 83 45 73 a9 5a a5 3f
       -0.14440621134539658 0.04170732051966993
000230 c4 dd 5f 0a fb 60 98 3f 0d 8a fe 41 11 6b 73 bf
       0.02380745173283373 -0.004740779317133914
000240 20 79 f3 7d 1c 12 b5 3f e8 96 8e 11 93 d4 73 bf
       0.0823076064584467 -0.004841398703239831
000250 d4 16 17 0b 16 65 c1 bf 24 d5 68 77 d2 c3 b3 3f
       -0.13589740315926824 0.0772067586447816
000260 19 10 94 b6 ff cd a0 3f 7e 61 c8 b6 f8 4e bd 3f
       0.03282164672603489 0.11448626005620174
000270 7f 65 4d a1 bc 37 a8 3f 9a ee 30 fa e5 0a bb 3f
       0.04730023831389029 0.1056350456064429
000280 01 07 ee 89 7e 11 8a 3f 76 7e bb d5 9d de 9c 3f
       0.012728680214198375 0.028192964716139156
000290 a3 75 16 af 3c 35 c2 3f b9 b1 16 e1 57 5d c3 3f
       0.14224966572957695 0.15128611078888612
0002a0 dc 16 72 2c 21 f1 d0 bf ef ed 20 0a f4 57 ae 3f
       -0.26471738186260807 0.059264780270009136
0002b0 e0 64 ec d2 08 d1 be 3f 00 00 00 e0 ed e5 71 bf
       0.120377112860655 -0.004369668196886778
0002c0 00 00 00 00 14 c1 b1 bf 00 00 00 80 fd dc c1 3f
       -0.06935238838195801 0.13955658674240112
0002d0 00 00 00 20 dc d7 c0 bf b6 fd af 95 36 58 d7 bf
       -0.13158752024173737 -0.36475910776058684
0002e0 00 00 00 40 ec 46 b0 bf 00 00 00 e0 e2 68 a5 bf
       -0.06358219683170319 -0.04181584343314171
0002f0 32 c7 6f 9e 7f 10 ca bf f9 cf ce 97 98 9a b0 3f
       -0.20362849460757954 0.06485894876715283
000300 7a 46 fc aa 5c 70 d0 3f c1 8d a0 e5 8f a2 ce bf
       0.2568580312518872 -0.23933600151313608
000310 92 9d cb 49 c6 30 be bf 17 4c 40 c6 83 d2 bb 3f
       -0.11793174077648974 0.108680950070536
000320 27 19 84 1c e8 e8 b5 bf ee 80 b2 6e 2b c8 78 bf
       -0.08558512397948857 -0.006050271661621516
000330 64 f7 cd ab de 18 96 bf 1e d4 cd 84 92 5c b9 3f
       -0.02157924579250138 0.09906879179273217
000340 30 b3 8a a7 f5 32 b8 3f 73 60 81 4b f8 f5 80 3f
       0.09452758159995933 0.008281650356522818
000350 ce 55 10 f6 fb 60 c2 3f a6 b8 b2 7c 05 57 b9 bf
       0.14358472361406743 -0.09898409170520725
000360 28 b4 b3 a0 c8 5e b0 3f 63 ea 5f 55 2d 46 b2 3f
       0.06394628451717266 0.07138331732122931
000370 d9 7f 78 a4 70 bc 9e 3f 60 63 7e fe 6c bc d2 3f
       0.030015716589445993 0.29275059559727445
000380 06 37 f3 88 98 64 c4 3f 2d ec ac d0 48 7a d6 3f
       0.15931994139685218 0.35121364954437945
000390 9f 3b d0 89 25 0a b7 3f 97 f3 c5 74 e7 58 c3 bf
       0.08999857534966658 -0.15115063859766728
0003a0 cb 87 1e 2f 82 0d 8e 3f d4 8e b7 8d 1a 45 b3 3f
       0.014674202979055103 0.07527318916214237
0003b0 79 db ff 7c 0b 6d aa 3f 10 0e 90 3d 47 ae b5 3f
       0.05161319638130286 0.08469052556034051
0003c0 48 34 74 fe 6e 21 b7 3f e8 f0 ca d0 18 73 c2 3f
       0.0903539057946584 0.14413747973401958
0003d0 fd c5 fe 44 cf 5c cf bf 77 6c df f3 63 1d c5 bf
       -0.24501982563883465 -0.16495942504738867
0003e0 f5 e8 09 7e a4 3b 79 bf fa 36 0a 93 97 66 b5 3f
       -0.006160395191381553 0.08359668102113096
0003f0 f0 06 05 0a de 58 b9 bf 35 53 66 ae 9c 36 ca 3f
       -0.0990122580015187 0.20479162707911205
000400 1b 32 47 93 83 6e b5 bf 62 a7 41 94 72 e2 c6 bf
       -0.08371755929619733 -0.17878563155255295
000410 ff d6 fd e3 15 bc 9c bf ff 9e 6d 9a 56 ad c3 3f
       -0.028061239281178093 0.1537273649257642
000420 db 88 43 83 20 08 ba 3f 47 79 2b b3 18 b0 d4 bf
       0.10168650822336948 -0.32324807641079584
000430 00 00 00 e0 1f 7e be 3f 00 00 00 a0 08 19 2d 3f
       0.11911200731992722 0.00022199850354809314
000440 00 00 00 c0 15 29 b8 3f 00 00 00 40 ea 84 87 bf
       0.09437690675258636 -0.01148398406803608
000450 27 c2 ed 65 19 8f bd bf 00 00 00 00 e9 1a 92 3f
       -0.1154647706841919 0.017680779099464417
000460 00 00 00 c0 89 b0 a3 bf 03 d1 3a 18 6f 55 c4 3f
       -0.038456253707408905 0.15885723765462254
000470 05 35 28 de d6 4a c1 bf e4 fd fa 9b 24 ce c9 bf
       -0.13509641501915595 -0.2016034852622247
000480 20 f1 e4 dc 69 c5 c8 bf 21 df 63 ca e3 df d3 bf
       -0.19352458272795392 -0.3105401493516969
000490 c2 fd e2 51 6e f3 d1 3f 39 d8 81 c9 02 ba 9a bf
       0.28048284527536904 -0.02610020022299173
0004a0 38 25 e0 0d ba 85 db 3f 63 85 ef e5 13 58 c8 bf
       0.4300370345595925 -0.1901879189236225
0004b0 91 98 7a b1 5f 0a da 3f f8 fc c0 27 a4 0b cc 3f
       0.40688316661761187 0.21910526219469495
0004c0 9c 7e b8 62 72 6e bb 3f a5 29 a5 f7 0f 20 ba 3f
       0.1071540347115793 0.10205173297905519
0004d0 68 ba 5a f3 a8 fc 87 bf 82 4b 14 c7 bf b9 c3 bf
       -0.01171237938555443 -0.15410611363094168
0004e0 26 d3 d1 55 8f a4 c8 bf 29 23 a4 26 cc d9 b5 bf
       -0.19252196970378427 -0.08535457557094318
0004f0 b8 37 ac db 3f 3c aa bf c5 b5 55 58 e2 ca c3 3f
       -0.051240916791456426 0.1546290332147874
000500 c0 9c 0a df be 20 be 3f e5 6c bc 3d 36 e1 c8 3f
       0.1176871580633927 0.19437292112784302
000510 02 21 4e 43 b7 bc 61 bf 80 80 33 3e df 8d d7 3f
       -0.002165182052014215 0.3680341823037523
000520 dc 00 bd e5 57 dc b9 bf b9 5b 69 b9 0b 83 ca bf
       -0.10101842268796041 -0.20712420037554383
000530 02 fe c6 57 18 86 cb bf 18 d9 85 03 31 c4 90 bf
       -0.21502975736619595 -0.016373411026017498
000540 2e be 6a da 0e cc bf bf f6 89 b7 43 ea 45 b5 bf
       -0.12420742828793926 -0.08309806969877073
000550 15 50 e8 a5 9e 88 b1 3f 71 f4 13 16 eb 93 98 3f
       0.068490901474718 0.024001763556033177
000560 79 c9 85 b4 48 cc 83 bf f6 74 7c 8a 45 7a c8 3f
       -0.009666984566796032 0.1912314344598724
000570 ad 1d 05 af 49 41 ae 3f 46 da 90 51 76 1e c1 bf
       0.05909185658907332 -0.13374213202196666
000580 12 c6 f9 a0 e6 30 c2 bf 8e ce 2d 9d d0 d2 c3 bf
       -0.14211733684673838 -0.15487106013062085
000590 4c 4d 6a cd 95 0c c7 3f cf 6b 50 96 58 ad d0 bf
       0.18007156877556907 -0.2605802028571675
0005a0 b4 f9 36 b8 35 3c c3 3f 00 00 00 e0 97 08 ba 3f
       0.15027495856152273 0.10169362276792526
0005b0 00 00 00 a0 aa 78 9b 3f 00 00 00 e0 81 1c c2 bf
       0.0268274936825037 -0.1414949744939804
0005c0 00 00 00 00 94 d8 bd bf ec a7 b7 46 68 eb d1 bf
       -0.11658596992492676 -0.2799931231116932
0005d0 00 00 00 a0 ac 3f 99 bf 00 00 00 00 b6 19 86 3f
       -0.024656960740685463 0.010791227221488953
0005e0 6e 33 be bf 53 34 c1 bf a9 49 c6 96 7c d3 99 3f
       -0.134409397720812 0.02522082014326946
0005f0 d1 70 b9 68 f0 5e a0 bf 03 ee 01 29 48 d9 c5 bf
       -0.03197432783483268 -0.1706934166175956
000600 38 12 14 b1 96 2a cb 3f 53 6b 5c c4 65 68 cb bf
       0.2122372021332397 -0.21412345970096655
000610 b2 a2 23 98 10 2f b7 bf dc 78 96 3e 32 0d c2 bf
       -0.09056190218292207 -0.14102771812480952
000620 15 56 6a a1 3a d0 c7 bf a6 23 03 2f 62 5c ca bf
       -0.18604214555368573 -0.20594432158966675
000630 ef 87 e8 5c 7f a9 9e 3f e4 f9 5c fa ba 8f c1 3f
       0.029943456693338474 0.13719880318417588
000640 f6 16 ea b6 f7 57 ae bf cb c9 d7 43 68 f1 c4 3f
       -0.05926488979188875 0.16361716568606108
000650 15 3e 8f c5 99 ed bc bf 35 d2 0d 2c b2 66 b3 bf
       -0.11300049851637824 -0.07578576636826358
000660 f4 74 e7 9f 68 13 bb 3f 1e b6 14 f6 ce 27 d8 3f
       0.10576490310582526 0.3774297145017459
000670 9f c7 e0 52 68 aa bd bf 80 61 9b bd f0 e5 c2 3f
       -0.11588146232023043 0.14764222391273663
000680 a7 1a 9e cc c6 1f c4 3f 06 0a f9 3c ef 40 c7 bf
       0.15721974364369837 -0.18166914441287946
000690 1c 05 ee 66 71 ab a4 3f 43 95 c6 39 1e 0a d0 bf
       0.04037050610987533 -0.25061755792770074
0006a0 b5 78 f2 10 4d 42 cd bf 02 dd 1e 5d 1b 98 98 bf
       -0.22858584716317912 -0.024017741736057203
0006b0 a2 d5 74 cd 84 3c a9 3f ed 39 87 2f d5 1a d0 3f
       0.04928984649670133 0.25163774148395995
0006c0 a0 a7 f1 e2 51 9a c6 bf 60 13 fa 3b 04 63 9d 3f
       -0.17658446866272204 0.02869803062505427
0006d0 33 d2 05 88 fc b0 bf 3f 5b 27 d1 8d 8a 7d 90 3f
       0.12379434891574519 0.016103901773284118
0006e0 71 11 88 d1 43 2b d1 bf 98 8f 89 61 25 a8 99 bf
       -0.2682656809049809 -0.02505548866101001
0006f0 c2 63 ce 43 f8 43 c9 bf 1c 05 e3 26 d5 13 95 3f
       -0.19738677321291048 0.02058346795889064
000700 26 61 70 0e 5b 27 bf 3f f4 55 68 84 fe d3 d3 bf
       0.12169427015794962 -0.3098140996019929
000710 fe bb 97 06 8a 79 ae 3f fd 57 85 e1 58 28 de 3f
       0.059521020226263474 0.4712125971176418
000720 00 00 00 80 a3 7c b1 3f 00 00 00 00 3c 53 85 3f
       0.06830808520317078 0.010412663221359253
000730 00 00 00 00 9c 12 96 3f 00 00 00 a0 fc 07 81 3f
       0.02155536413192749 0.008316014893352985
000740 7d a2 6c 0f 68 dc c5 bf 00 00 00 80 bf d2 c1 bf
       -0.170788772136138 -0.13924401998519897
000750 00 00 00 40 ae 32 b3 bf ff 89 93 a5 e1 64 bd bf
       -0.07499207556247711 -0.11482057850256665
000760 84 f4 b9 a3 ef ed 97 bf a6 7c 3a 06 8d f6 89 bf
       -0.023368591659608487 -0.012677289726808216
000770 db 88 d3 4a ed 35 b8 bf ea c5 42 49 1f d2 a0 3f
       -0.09457285954298149 0.0328531052522399
000780 52 e0 f8 79 a1 57 c6 bf 27 92 28 7c 3d d5 a0 bf
       -0.1745492787902117 -0.03287689343077132
000790 21 a1 cd 18 e4 92 a1 3f 6b 27 0b 9d 99 42 87 bf
       0.03432381441854405 -0.011357498269166396
0007a0 3b 3f 11 d0 c7 0e 9a bf c4 68 91 51 2d 9f dd bf
       -0.025447008203911308 -0.46284039464593385
0007b0 6b b0 b6 92 e1 5e c0 bf b6 85 d6 a9 f9 f1 ab 3f
       -0.12789554275275647 0.054580499632048626
0007c0 0d f3 37 de 5b 90 b2 bf 4f b6 d7 d7 53 02 b4 bf
       -0.07251524138696315 -0.0781605150184188
0007d0 ab b1 d8 81 51 c5 db bf d1 25 4a e6 90 d8 b5 3f
       -0.4339183586150976 0.08533578512483266
0007e0 8c d3 0e 94 4a c3 95 bf 1d c6 54 7e 0f c8 e5 bf
       -0.021252789770830158 -0.680671450367473
0007f0 51 2c 28 76 0d ad a0 3f eb 0d de 3f 7f 36 e0 bf
       0.03257028643937388 -0.5066524741563944

fc.0.bias f8 [300]
000000 6a 0c 04 07 0a da ac bf c8 fd 5f 1b a7 15 c9 bf
       -0.05635100684778467 -0.19597328983944196
000010 38 f3 91 d0 61 69 81 3f e3 a7 b7 26 da de d1 bf
       0.008501781632952551 -0.2792268159961379
000020 b4 8b b2 3d 00 4f a4 bf 0d 00 2b 04 c9 9f b0 bf
       -0.03966522935049657 -0.06493812896496838
000030 93 bb 83 85 1d 1f e1 3f 60 1a a2 f5 da d6 f8 3f
       0.5350482566553744 1.5524549098060092
000040 bc 94 90 04 52 c5 95 bf 0a a7 95 c7 32 d5 95 bf
       -0.021260530022250576 -0.021321099692989377
000050 a0 65 ff 06 7b e8 b6 bf 2d 25 09 a9 cf 2f af bf
       -0.08948487206307343 -0.060911645302051155
000060 5d 06 ca 90 8d df c8 3f 7c 88 c7 87 11 16 ce bf
       0.1943222958544081 -0.23504847650389482
000070 29 49 19 d9 b7 73 c2 bf 51 d8 e5 e3 29 32 a5 bf
       -0.1441564378788567 -0.04139834315257985
000080 6b e1 40 f8 54 91 ad 3f d5 41 2c f6 96 d6 b4 3f
       0.05774941950261588 0.0813993788726813
000090 a0 15 fc 5c 98 20 e6 3f f2 e4 56 6d bc f7 89 3f
       0.6914789024455565 0.01267955025365317
0000a0 07 91 37 c1 82 cc a1 bf 53 e7 3d 34 a7 2b cd bf
       -0.03476341827971124 -0.22789468813771893
0000b0 e8 f7 b8 bd a3 d0 c0 3f 97 d8 93 9f d1 28 c9 bf
       0.1313671757106356 -0.1965581921755912
0000c0 3d d4 66 4c 17 14 92 bf 0e 98 8d ec 61 13 e0 bf
       -0.01765476611918281 -0.5023660297563326
0000d0 52 0b 18 52 0b 38 da 3f a4 c7 76 90 9e 9d a3 3f
       0.4096706678102936 0.03831191552616467
0000e0 45 29 42 da 52 32 be bf 70 90 7c a8 3e 99 9d bf
       -0.11795537785125017 -0.0289048948608443
0000f0 5b a8 fe 7e a2 c9 d3 bf 24 2b 2f fe a9 0c cd bf
       -0.30918180848914795 -0.2269489756712001
000100 74 5f 67 17 52 00 b8 3f 1d 5e 2a b0 22 32 d6 bf
       0.09375489302999346 -0.3468100281110951
000110 89 6f 86 77 78 b0 c1 bf 47 89 2e 7d 07 c6 d6 bf
       -0.13819795452297637 -0.3558367464521734
000120 a4 c5 a0 91 c3 63 cc bf 58 cc 24 87 0a 8a b1 bf
       -0.2217945538591667 -0.06851259040267743
000130 74 51 f4 de 94 44 d4 bf 89 c0 2d e1 5c a2 c4 3f
       -0.31668588421714294 0.16120491976790088
000140 97 64 51 46 eb 5a a9 bf d1 d0 a6 3b 3c c2 dd 3f
       -0.049521782239659355 0.46498018098214994
000150 0d 25 b1 5d d0 80 d6 3f 4c 1b c3 3a 3a 3e b0 3f
       0.35161217832190134 0.06344951567289775
000160 2d 48 f0 72 f6 06 dd 3f b9 6e 77 28 96 12 c9 bf
       0.4535499689528731 -0.19587971664338058
000170 61 73 9e 34 09 6c b0 3f c3 bc 90 5f 01 b7 d5 bf
       0.06414849791185652 -0.3392947610145251
000180 74 56 e2 3e 8f 96 b5 3f 99 95 ac 1c a1 fd ce 3f
       0.08432860646493073 0.24211515331368785
000190 97 dc e0 92 5f cf d2 3f 05 ae 89 fb 5d 89 92 bf
       0.29390706389990257 -0.018102138974809296
0001a0 ab f7 cc 50 56 df c3 bf 47 2b 7e 7a 22 a8 d9 3f
       -0.15525320954651298 0.4008871265620439
0001b0 23 17 72 11 b2 26 95 bf 9e ef 9c c3 e3 0d d0 3f
       -0.02065542441825764 0.25084776022753796
0001c0 fb 57 87 b5 17 1d e2 bf de 70 a7 43 e7 18 b3 3f
       -0.5660513444406655 0.07459874536238284
0001d0 fd 8d 8d ce 4f 84 cd 3f 33 db 98 a3 4f 81 c5 3f
       0.2306003340300861 0.16800876129283324
0001e0 aa 1d 01 d4 ac 0f d3 bf cb f6 cb 93 57 76 ed 3f
       -0.2978317327838008 0.9206960570006343
0001f0 cd 77 70 ea 8f e8 a7 3f 1c 3a 5f 9a 9b 57 93 3f
       0.04669618355568126 0.018888884827726313
000200 41 00 a6 f1 52 3f aa bf b9 ea 1d d0 93 d6 dd 3f
       -0.05126437377748561 0.46622176479256044
000210 fb 9d 2d 61 96 47 de 3f 07 fd 76 32 a0 9c a0 3f
       0.47311934938485906 0.03244495979333278
000220 26 46 f8 6b 06 84 cf 3f 94 e4 ad 8d f9 51 d2 3f
       0.24621658584560285 0.28625334583154793
000230 ad 5d 9d d2 d9 58 c3 bf 59 eb 41 a0 15 89 d5 bf
       -0.1511490133659498 -0.3364919724478362
000240 a4 dc d8 ab f2 e0 ca 3f 6c f3 df 74 68 44 d0 bf
       0.20998986617062088 -0.2541752950053737
000250 2a 7b 6a 8d dc 6a c1 bf 77 cf 47 91 b6 85 dc bf
       -0.1360736551768807 -0.44566120326566455
000260 68 ac 04 b5 6a 04 c2 bf 79 99 f0 a7 8a b1 ee bf
       -0.14075979079038636 -0.9591725616526637
000270 33 83 c4 3b e3 79 f2 3f 10 d0 5a e0 a8 11 b6 bf
       1.154757722346585 -0.08620696523104265
000280 98 e5 c7 83 57 30 af bf 09 f1 68 ec 8b e7 c3 bf
       -0.06091569408085745 -0.15550374072507392
000290 0e d9 cd 09 20 8d d7 bf da 08 38 5a a1 ed c8 bf
       -0.3679885955565546 -0.19475190072268483
0002a0 63 33 84 e2 2b 9c ba 3f ac 8d 51 ed ea 7d c7 3f
       0.10394548683343667 0.18353020274944976
0002b0 75 c6 e3 01 75 0e fa bf 5d 0d ea ae 28 d5 d3 bf
       -1.6285295556848756 -0.309885187926019
0002c0 96 ac 97 6c 13 b4 ad bf 19 11 54 4f e2 13 b3 bf
       -0.05801449490157855 -0.07452215611198588
0002d0 c3 11 87 bb ae d8 c6 3f 6f 52 43 29 58 58 a3 3f
       0.17848762661573234 0.037783389126762816
0002e0 e8 66 d8 6c 46 4e b3 bf 9e f7 dc 37 88 ca b0 bf
       -0.07541313321453524 -0.0655903946289684
0002f0 c2 6f ca b0 b6 42 c9 3f 87 93 cd b3 d0 17 dd 3f
       0.19734843857156475 0.4545785671128261
000300 6e de 73 96 cf d3 c9 bf 7b 4a 53 55 de 1d a0 3f
       -0.20177645536726935 0.03147787849015501
000310 d3 a1 d9 3c 8c 96 c4 bf f6 1f 5f a6 c4 8e a7 bf
       -0.16084435435483488 -0.046011109646826684
000320 c5 4d 1a 33 a8 0f a6 3f 11 3f 4a 6a 10 53 7e bf
       0.043088203657272874 -0.007403434869629925
000330 21 77 4c 50 cd 00 b0 bf f0 03 46 4e d2 fd c3 bf
       -0.06251223764817528 -0.1561835176653683
000340 64 5f 5f 4b 3f d9 d0 3f 29 87 92 9b 3a da e5 3f
       0.26325971947289006 0.6828892744563052
000350 85 f8 66 4b 6f 9c c7 bf 21 c1 7d 6e 20 99 c9 3f
       -0.18446150953053944 0.19998555560187817
000360 44 8c 97 ae b8 ae d9 bf 59 4a 42 1a b4 62 cc 3f
       -0.40128914880751076 0.22176219255614418
000370 fb ee 61 cf 61 32 d5 3f 5b 63 0e 7a 0e 31 c6 bf
       0.33120007755472586 -0.17337208709502758
000380 27 3e 57 d6 8e bb d3 3f 44 0f 9d a8 fd 7f de 3f
       0.3083226292774008 0.47656194177783484
000390 c2 7d 18 b9 b6 dc c4 bf 44 17 1b 61 29 87 f1 3f
       -0.1629856494700857 1.0954984467693558
0003a0 e5 b2 54 6f c2 03 cd bf 87 73 7d b4 35 fa b7 bf
       -0.22667723117901697 -0.09366164833541123
0003b0 79 be f5 3d d2 09 e8 bf 1c 49 82 2d c8 36 c3 bf
       -0.7511988840250999 -0.15010931226840618
0003c0 0a 18 d4 09 5c aa e5 bf f1 95 8d ec 7f fa 92 3f
       -0.6770458404505473 0.018533705533078707
0003d0 2f e1 64 f5 9d ff ab 3f de 92 3f cb 72 3a d1 bf
       0.05468457813771221 -0.26919240807028
0003e0 da 66 d3 3a 86 d8 b0 bf e2 99 72 e5 d1 a3 e5 3f
       -0.06580389915634602 0.6762475472831364
0003f0 d4 86 2d d5 c8 aa d4 bf 73 1d 2d c3 a6 c5 b8 bf
       -0.3229238588156538 -0.09676592125935261
000400 3d 1a f7 11 b9 ed b0 bf 11 21 de cd 51 c6 b2 3f
       -0.0661273640499553 0.07333861614290905
000410 93 be 6e a3 ce eb 92 bf 51 70 bd 40 4e 33 ec bf
       -0.018477658009656905 -0.8812628998234776
000420 b0 d5 4a 93 e6 c8 cd bf 05 d4 29 94 1a 3d a8 3f
       -0.23269350234992947 0.047341185175277224
000430 dc 6d 3e 2d 68 19 c8 bf 2d 52 5c e0 ed 60 b5 3f
       -0.18827535828755415 0.0835102722888414
000440 98 3f 5d ce df 75 d6 bf 1e af 70 d9 73 3c be 3f
       -0.35094447281607577 0.11810993250463439
000450 63 0f a2 dc 9b 67 ba bf 4d 3a f0 7b c6 c7 c7 bf
       -0.1031434453635121 -0.1857841591995161
000460 c0 ec 90 35 a0 4f ef 3f 6c c4 4f c1 b7 6a f7 bf
       0.9784699484074721 -1.4635541487916965
000470 9e d1 23 ff eb 35 e1 3f 2a cb 40 43 b1 ce c5 3f
       0.537832258529807 0.17037025245516563
000480 3f 8b c8 62 e9 94 a2 3f 7c 3a 26 c3 fd a4 a7 bf
       0.03629235583163969 -0.04618065840906113
000490 de 75 8e b5 06 96 d6 3f c7 b8 3e 52 93 61 dc bf
       0.3529068730366286 -0.4434555342840096
0004a0 33 96 ca b2 c8 52 d2 bf ed e2 d3 c2 8b 6d bc 3f
       -0.2863027330407448 0.11104653841529073
0004b0 d5 61 ad b8 f5 83 c1 bf a6 de cc 32 93 1d b3 3f
       -0.1368395950073721 0.07467002859345459
0004c0 bb 48 d0 fa b5 d6 d0 bf 16 b4 b7 60 bd ef b2 bf
       -0.2631049107886942 -0.07397063838261916
0004d0 ff 7b 23 af f6 c3 c3 3f ec cf 89 d5 19 31 95 bf
       0.15441783477487545 -0.02069511762461211
0004e0 ef 8c 33 b5 4f d7 b5 bf 1b 21 4e cf ab f4 ea 3f
       -0.08531664060460618 0.8423670815400642
0004f0 86 ac 04 b6 6d 62 c8 3e 78 46 5f 2c e1 bd d8 bf
       2.9068573185374014e-06 -0.38658933003635054
000500 34 ed 50 fe 54 8f b7 bf ad b9 5a ec c1 54 c0 bf
       -0.09203082283868441 -0.12758659401647546
000510 06 ce 1f d6 6c aa c3 bf 0d ac 47 61 72 b8 b0 3f
       -0.15363846259388952 0.0653144347667622
000520 77 93 7b b4 99 fc f0 3f 46 87 93 c7 13 52 d3 bf
       1.0616700220209319 -0.3018845986354005
000530 59 46 58 8b d7 38 b5 bf 97 4c 38 7a 50 e8 cf 3f
       -0.08289858962987164 0.24927717178124872
000540 0a 14 fb dc 17 b6 c1 bf ff b7 9a 91 9a 6a c4 bf
       -0.1383695439346016 -0.15950328931415922
000550 e9 0b 41 0a a2 54 e3 bf e2 0e bd d6 6c b7 f0 bf
       -0.6040811729693562 -1.0447815311644537
000560 bb 0c a5 c9 23 a3 a1 3f c6 cf 40 84 62 56 b2 bf
       0.03444778286441293 -0.07163062790715377
000570 78 6e 97 0c 1d 2c ec 3f aa 75 d0 c9 7c c1 d1 3f
       0.880384945481139 0.2774345370142678
000580 24 85 3a c2 89 79 ca bf d1 88 50 cc e5 24 b6 bf
       -0.2068340490705306 -0.08650051344060052
000590 79 08 6b 64 9c 79 cc 3f 26 5a 4c cb f2 ab f3 3f
       0.22246127036311572 1.2294795934045708
0005a0 e6 71 6a d5 db eb c9 bf 67 a8 a9 06 ca d8 c8 3f
       -0.202510337073263 0.19411588025406276
0005b0 34 24 99 b1 42 86 b3 bf 4a 4f 4b 63 8e 9f a2 bf
       -0.07626740299123541 -0.03637356721961156
0005c0 2a 82 0c bd 07 69 c1 bf f7 51 b3 1c 84 ac a3 bf
       -0.1360177682008879 -0.03842556810710456
0005d0 b6 ca 33 a7 44 35 c6 3f 9f 0d d8 ce 26 4a b4 bf
       0.17350061573195824 -0.0792564635267383
0005e0 7c e1 2c 5b e5 35 c4 bf ee 54 23 61 91 c9 9b bf
       -0.15789477302474697 -0.027136107972940353
0005f0 61 ac 16 df a0 df 95 3f 3c 87 9c 0b e6 cc de bf
       0.0213608871614891 -0.48125601896218817
000600 f1 ee a0 b9 26 9e d4 bf 09 b6 6d 03 ac 2f f1 bf
       -0.32215278747365433 -1.074138654129799
000610 00 dd 0f 85 41 09 f3 3f d4 2b d8 e1 0d 62 d6 3f
       1.1897597501500172 0.34973475508803387
000620 77 ed 34 04 4c 66 bc bf 6e 05 a0 dc 34 18 e5 bf
       -0.11093592741683787 -0.6592048939784669
000630 95 95 64 84 11 5e e9 bf 40 df a6 09 12 20 e3 3f
       -0.7927329622076963 0.5976648510468081
000640 a3 dc 24 48 f6 ae b1 bf 12 fc 14 09 44 be 88 3f
       -0.06907595883682176 0.012081653144035118
000650 9e a3 5e 14 9c f5 bd bf 97 c6 4c 01 9e f5 93 bf
       -0.11702895638758412 -0.019491642789211196
000660 bb 40 ce 61 7b 59 c3 bf 19 ad c5 51 f0 7d b6 bf
       -0.15116827274005637 -0.08785917278662615
000670 2b 94 9d a0 ec 27 f9 bf c7 da ac 66 c0 e5 cd 3f
       -1.5722471498531927 0.23357396138609074
000680 c3 3c e9 fe c2 01 e6 3f ff e9 05 e9 00 98 bb 3f
       0.6877150515300844 0.10778814019241877
000690 ed a1 13 bd 65 47 94 3f 2e e9 35 dd 5e b5 d1 bf
       0.019803609528851785 -0.2766949806461011
0006a0 e8 cf 9d a5 b7 af f9 3f d0 de be ad d1 10 7f bf
       1.6053997487442704 -0.007584399278065937
0006b0 52 c2 63 fd 26 10 b6 bf 6d ec 9f c1 dc 1a a2 3f
       -0.08618396459838465 0.03536119330961971
0006c0 68 ba c7 97 94 6c e9 3f ea 1c 82 12 5e cd bf bf
       0.7945044483620451 -0.12422740890371001
0006d0 13 f4 2e 37 e4 4d b5 bf da 53 81 8b 1a 6a ce bf
       -0.08321977946521057 -0.2376130276849427
0006e0 a7 11 d5 f8 2f 44 99 bf b7 bd cc 98 32 19 c7 bf
       -0.02467417675258479 -0.18045647107054005
0006f0 47 3a 6a 78 a3 f2 d0 bf c6 58 ce dd 70 cf 99 3f
       -0.26480948218605643 0.02520538667484897
000700 a8 3c 3e 42 c3 88 7e bf 02 a8 38 86 f9 ae 90 bf
       -0.0074546458526036155 -0.016292475526064727
000710 66 ef 04 64 6d b0 d4 bf 5c 0f 37 a6 84 c3 c0 bf
       -0.3232682682753335 -0.13096674076052295
000720 64 43 ee 4c 53 1e e1 bf 49 fa 28 ca 43 ee bd bf
       -0.5349518301537555 -0.11691688237713395
000730 67 86 0d b6 f7 52 e5 3f 33 b9 4b f4 6e 07 cf bf
       0.6663778835029007 -0.24241434982781981
000740 00 67 25 5c be 59 ba bf 03 05 c4 61 98 27 a5 3f
       -0.10293187856350627 0.04131771272114728
000750 9e 84 0f 4b 6a 0e cb bf 49 c4 a3 46 81 55 d2 bf
       -0.21137741723126607 -0.28646881006631425
000760 5d 01 12 74 34 b5 b2 3f 7d 95 f5 83 5a 65 a7 bf
       0.07307746728657123 -0.04569514141875695
000770 e6 6c c1 94 4c f2 ed bf b6 37 df 5f d2 5b b1 bf
       -0.9358275323278604 -0.06780733910201672
000780 dc d4 dd eb f8 d7 ed 3f a5 3d de d7 38 53 a9 3f
       0.9326138121383809 0.04946305880650507
000790 7c b4 b8 26 6d 7d 94 3f f2 53 fc 9a 79 66 a4 bf
       0.020009713638661428 -0.03984432236590142
0007a0 02 07 cd f2 7c 39 c4 3f c7 ca 52 41 83 e6 ab 3f
       0.15800439696800345 0.054493047451065695
0007b0 3c 4c 7b 3a 3b 87 ca 3f 73 1e 54 e3 fe 2b f5 bf
       0.20725193362759053 -1.3232411270163567
0007c0 07 79 87 d3 1d 77 ce 3f 87 4b 78 20 c0 19 ac bf
       0.23801014736722712 -0.05488396068917383
0007d0 42 23 c7 e1 7e 54 bb bf cd 97 d2 c4 3a 3d bb 3f
       -0.10675805103450123 0.10640303902854882
0007e0 13 6b 7f b5 f5 9f e2 3f 0a 56 88 bf 57 04 be bf
       0.5820263428571216 -0.11725376535499535
0007f0 aa 3c ec d7 5b 7a d4 3f 61 01 ea 52 61 7a b7 3f
       0.31996818624697687 0.09171112322110765

fc.2.weight f8 [3, 300]
000000 48 d6 c8 e6 48 9c e2 3f 43 40 8c 09 86 66 cd 3f
       0.5815777308950567 0.22969127145961651
000010 39 b0 02 dd d9 19 b6 3f c0 b2 24 05 59 4f 8a 3f
       0.08633195539249607 0.012846656293356573
000020 84 9f 89 57 07 69 a3 3f 97 6e ff ce 8e 4c f5 bf
       0.03791068023275471 -1.3311908803797559
000030 d5 74 c7 f6 f0 d3 b4 bf 62 d7 b8 e3 ca d5 c3 3f
       -0.08135896706467645 0.1549619304584509
000040 51 66 0d fe 1c e9 dd bf d5 d6 08 99 c4 84 95 bf
       -0.4673531037311465 -0.021014282074438412
000050 d3 09 32 d9 63 0d c5 3f 3d f6 bd 5c d6 16 cf bf
       0.16447113137480915 -0.24288444069309092
000060 fc 6c 54 7c a4 e2 ca bf ba 58 24 85 69 3e ec 3f
       -0.21004158087530544 0.8826186752728724
000070 70 23 08 18 5a 64 a5 bf 67 01 49 42 e2 2a cc bf
       -0.041781249459808545 -0.22005871044712963
000080 a2 82 26 54 72 f1 c0 3f d6 6d d4 78 35 31 b5 bf
       0.13236836537273172 -0.08278211784311593
000090 50 ac 61 2d 07 76 7f 3f ee 93 95 46 31 b0 a4 3f
       0.007680919681756285 0.040406741968389656
0000a0 b1 a6 e4 2e ff 9b d5 bf 34 89 43 e6 38 cc a2 3f
       -0.3376462896290873 0.036714342220664525
0000b0 1d e2 3c af 20 31 d8 bf 92 ac 12 5b ed 88 a0 bf
       -0.3779985152537238 -0.03229467140894217
0000c0 6c 9c 25 5b 7d 5c b4 3f 60 7d 0f 27 c1 23 ca 3f
       0.07953628039614252 0.2042161408162242
0000d0 9d 4c 85 41 4a 4a ae bf 88 89 d0 45 53 a3 ba bf
       -0.0591605381947826 -0.10405464605768178
0000e0 28 2e 47 55 59 b4 d1 bf 53 1d 80 49 79 d1 aa bf
       -0.2766326267999113 -0.052379408094618406
0000f0 72 a5 94 cb 28 4a b1 3f 9b 0c 85 7e d3 87 c4 bf
       0.06753783197622967 -0.16039508512230757
000100 8b ff 89 7e b3 d2 f6 3f e3 55 d1 46 04 29 8e bf
       1.4264407103473526 -0.014726670657334523
000110 d3 9f 49 0b 0b 26 e5 3f 32 4e 86 2c 77 c3 b2 bf
       0.6608939381085243 -0.07329506718661419
000120 16 68 03 5d 95 11 91 bf f1 1a 52 7f 1e 4f e5 3f
       -0.01666863804062054 0.6659080969555743
000130 3a 0d 97 4c 98 37 d5 bf 06 33 46 23 de 78 be 3f
       -0.33151824454781187 0.11903179513155857
000140 b4 2e 9b 4b 67 4f e6 bf 8a fe 6d 50 9e 0f bc 3f
       -0.6971928097422819 0.10961331809630273
000150 1f 01 1d 87 4a 7a b3 3f 57 c2 fd c3 c2 97 dc 3f
       0.0760847644678546 0.4467627443291681
000160 04 11 16 9e 22 8a 97 3f 18 62 54 b4 e3 8c ad 3f
       0.0229878815639646 0.05771552635468796
000170 3f 5e 9d de 00 83 a2 bf 9e 4e c1 b7 a4 75 9e bf
       -0.036155726599357944 -0.02974564906646881
000180 35 df 22 4c 7d f2 d6 3f a5 a6 72 7b 13 69 b6 bf
       0.3585503810422666 -0.08754083408225684
000190 17 0a 9a 66 01 a4 7d 3f e0 be 79 05 4a 21 d7 3f
       0.007236485931232404 0.3614068082306243
0001a0 86 6e 83 b0 68 d5 86 bf f3 c1 3f 4d b7 65 c6 bf
       -0.011149232756387361 -0.17497912666250634
0001b0 9a 3a 28 00 77 f8 a3 3f 38 47 41 41 59 8b c9 bf
       0.03900501133840813 -0.19956508337286905
0001c0 7d 3a ef a5 ab 87 b1 3f e0 1a 40 14 cc 8c cf bf
       0.06847641755232732 -0.24648428906240039
0001d0 10 97 6e ba 5a 10 cc 3f 49 2e 17 00 83 79 be bf
       0.2192490969002212 -0.11904162170611089
0001e0 a3 04 36 2b 0e 05 d0 3f 3d 3a f9 a9 ee d2 b2 bf
       0.2503085538847449 -0.0735310711836314
0001f0 6d 04 41 46 f3 9b ce 3f f0 ca 17 e3 e4 aa f4 bf
       0.2391342251812917 -1.291722189981268
000200 0b 29 59 e3 a1 18 eb bf fd d9 82 12 c6 7e c1 bf
       -0.8467568817516463 -0.13668132690300175
000210 18 4f 3c b4 64 df b4 3f 3d 0e 66 bc 9e 36 d3 bf
       0.08153371238978158 -0.30020874403291825
000220 3e 09 6b 47 cf 06 cc bf ba 99 e3 ed 60 3c bf 3f
       -0.21895781504833595 0.12201505477751243
000230 fe 0e 9d 43 9f 7b d5 3f f2 69 80 68 05 9f ae bf
       0.33567029574281537 -0.059806984907670016
000240 4f 31 e7 53 62 da ae bf 6c 09 75 26 d8 31 b1 3f
       -0.060259888403012433 0.0671668142213428
000250 cd 20 d3 12 e5 9a b1 3f fd 5a fa 3b 0d 02 8f bf
       0.06876975736225006 -0.015140632050401498
000260 03 be 57 ee bc 1e a6 bf 6e 82 dc 42 e4 c3 a0 3f
       -0.04320326241929353 0.03274453464678549
000270 db 9f 74 49 65 a1 ab 3f 04 a4 99 81 3e 90 e0 3f
       0.053965726105445554 0.517607930302916
000280 0d f7 b4 6f 88 28 b3 3f 7e e6 c7 54 d1 7d d7 bf
       0.07483723380297765 -0.36705430297261177
000290 95 14 c2 a8 9c b2 f1 3f 80 76 bd c3 8a 84 86 bf
       1.106106433116371 -0.010994991396440001
0002a0 25 26 e7 cc 4f 5d d2 3f 0e f6 20 dc b9 0d 5e 3f
       0.2869452954297194 0.0018343272245283679
0002b0 3c 70 37 c2 bb c6 73 bf 09 5b 42 3d e8 cd b3 bf
       -0.004828198845157113 -0.07736064429841973
0002c0 f5 1f 43 30 bd ec d7 3f 22 bb 19 71 6b 98 80 3f
       0.3738244029341325 0.008103217495969487
0002d0 6a 1d 69 48 38 63 cb 3f dd 5a 32 80 e5 a9 c5 bf
       0.21396544967340542 -0.169247329326672
0002e0 08 ed ff b2 2f 51 c2 3f 45 50 a4 32 19 e4 b9 bf
       0.14310261001796953 -0.10113675581334387
0002f0 72 8e c9 68 7b d9 ad 3f d6 35 76 4d 39 a4 ab 3f
       0.05829988149778566 0.0539873034532367
000300 20 24 2c 60 6b 76 e8 3f 77 ac 7a 71 01 13 a3 3f
       0.7644554975860309 0.03725437650913304
000310 53 00 a7 fa 79 5e f1 3f a4 9c a2 2e f1 c6 74 bf
       1.085565547095048 -0.005072538488241882
000320 e0 b9 32 c3 be fe a4 bf 39 a1 37 9e 87 04 e2 bf
       -0.041006051376246466 -0.5630529489690509
000330 0a a9 ee f1 ce 14 a5 bf 19 fd 14 ac 0a a6 a0 3f
       -0.04117438033365957 0.03251679754839127
000340 0d 03 1e eb 4b 64 c8 3f e1 a6 05 40 6e c9 a4 3f
       0.19056080799421019 0.04059929400939467
000350 41 fe 7c 1f c8 a1 a0 3f 26 f3 1b 87 a0 4f c5 bf
       0.03248429664972408 -0.1664925250733173
000360 41 b2 32 26 bb 00 c9 3f ae 35 45 54 1e ff b7 bf
       0.19533480992449095 -0.09373654897100067
000370 c2 24 1e f6 9e 54 d4 bf db 35 59 57 a6 41 d5 3f
       -0.3176648524755131 0.3321319439899903
000380 b9 f7 4b d9 5f 8c d4 bf 7b ee 3c c3 26 fd 90 bf
       -0.3210677740133821 -0.016590696016676603
000390 37 b3 e6 64 6a 02 b8 bf e3 3f c6 00 a7 16 b4 bf
       -0.09378685916335604 -0.07847064751535941
0003a0 9e e0 fa 47 e7 f4 42 bf 68 3f 27 d4 06 39 9f 3f
       -0.0005785111715885976 0.03049097700005579
0003b0 f4 7d 87 4f 8b 64 d6 3f c6 ec e6 6c 55 cb 7a 3f
       0.34988672987489555 0.006541570370639243
0003c0 72 3c 7d 9d ac 0b bd bf 47 34 65 88 74 30 c8 3f
       -0.1134593853469015 0.18897873554161235
0003d0 02 4b 0b 9a 9d 90 a0 3f 02 93 ed 08 46 01 b5 bf
       0.03235332971020989 -0.08205068319291445
0003e0 67 8a 22 2f aa 5b 94 3f 6a a7 1a 10 36 f5 cd 3f
       0.019880923392188523 0.2340457514413246
0003f0 8b d5 02 37 51 4c e9 3f bf 2f f7 f2 4a ee d3 bf
       0.7905660700259188 -0.31141923644167585
000400 22 91 e7 00 94 ff c9 bf 00 58 a2 58 c1 cf 86 3f
       -0.2031121258179463 0.011138449208640822
000410 28 25 83 59 bd c7 d6 3f 10 42 2a 6d 57 0c b0 bf
       0.3559411405700126 -0.0626883164898191
000420 2d 28 2b 47 c3 20 b1 3f d0 12 ad 9f 3d b4 b7 bf
       0.0669061707259579 -0.09259400509206306
000430 aa b3 19 0a f2 30 c8 bf 49 01 61 51 51 cf c8 3f
       -0.1889936971014355 0.193826832519344
000440 6a 9a 95 bd e5 c1 a8 bf df b6 cc 95 c6 58 f3 3f
       -0.04835431994688551 1.2091737605618886
000450 c6 a6 39 6d b4 4c da bf ca cb 6d cc d4 91 e0 bf
       -0.4109316889431337 -0.5178016655685209
000460 f9 51 7e e0 0a b3 b5 bf 51 14 3d b3 b0 7e 8e bf
       -0.08476322155758699 -0.014890079946449005
000470 dd 3a 85 f4 d0 d6 b9 bf 23 93 1e 3a 75 da 8d 3f
       -0.10093408555733725 0.014576831661381079
000480 f0 75 9b 3f c7 05 ba bf 9c 10 d8 c9 27 c2 d2 bf
       -0.10165067007934403 -0.2931003066189619
000490 cc df 0a 65 53 46 a9 3f 40 77 31 5d 17 af 90 3f
       0.0493646679728382 0.016292920172751524
0004a0 5c 33 9b 36 dc 15 b7 bf 85 01 ef ee c3 cc ce bf
       -0.09017731030617199 -0.24062394301109805
0004b0 fa 33 a6 06 de ad eb bf de d8 2e 02 2f f0 87 bf
       -0.8649740342967782 -0.01168858266269662
0004c0 08 ab 46 4e 8b c5 b0 bf 41 62 8d fe b9 d2 d3 3f
       -0.06551428471599874 0.309736727319919
0004d0 58 90 b7 19 2f be 94 3f e6 82 bd 3f 03 84 d7 3f
       0.02025674433197397 0.3674324152434977
0004e0 ba b8 cd 22 f6 ac e6 bf f2 12 5c e1 18 e4 a3 3f
       -0.7086134605176746 0.038849618444180126
0004f0 5a 75 28 96 fb 2b 92 bf 30 d5 06 47 a8 96 ef bf
       -0.017745905914229844 -0.9871407878150986
000500 14 08 81 0a 52 b0 ad bf 06 7c 56 84 dd 3a bc 3f
       -0.05798584345076577 0.11027321320442249
000510 16 76 25 cd 06 64 ed 3f 0c 2d 1d 70 a3 73 e0 bf
       0.9184602743877714 -0.5141160192228269
000520 01 3d ba f0 fd ba 66 3f 58 6b e0 3d d5 c1 aa 3f
       0.002774711587171575 0.05226007824258855
000530 32 10 75 f0 e0 84 e7 3f e9 ff bb a0 3f 6e b5 bf
       0.7349705406600207 -0.08371350931338352
000540 7d a9 e1 45 35 5f a8 3f 74 c5 fa 7d c1 9e c7 3f
       0.04760138013883173 0.18453234340044455
000550 ff 3b 60 d5 08 3c 80 bf 59 ff c8 06 7e d1 af bf
       -0.007927006732669993 -0.06214517433954709
000560 88 a4 fb 69 7f 64 74 bf 91 65 63 70 d7 9c a2 3f
       -0.00497865458576386 0.036352856129904805
000570 c9 dd c5 a6 b8 76 bf 3f 2d 45 ea 35 0e 96 c7 3f
       0.12290529319385891 0.18426683075498698
000580 38 b1 05 84 d2 1a b6 3f b0 26 92 01 86 ed cd bf
       0.08634677622984988 -0.23381114079193344
000590 20 99 bc 37 bf 6a c4 3f 09 dd 54 76 2e 68 aa bf
       0.15950765820998303 -0.051576091713679224
0005a0 36 4c 3a b5 50 0f a1 3f 75 80 1b 97 87 c0 c4 3f
       0.03331997120144374 0.1621255386189692
0005b0 3b 06 4a 8e da f9 97 3f 78 5f 64 5d 17 6f cc bf
       0.02341405385459992 -0.22214023647461167
0005c0 15 da ba fe 47 9c be bf fd 72 5d 41 8e e0 95 3f
       -0.11957216233245334 0.021364424457135368
0005d0 cb 15 b2 71 39 c3 d6 3f 45 10 ba ef 05 40 bf bf
       0.35566555121507964 -0.12207066633897153
0005e0 a0 f3 ef fc 02 7e c8 3f 76 f1 09 68 79 59 b3 3f
       0.19134557104544303 0.07558401861201056
0005f0 40 0d 81 2e d5 0f a2 3f bc 91 2b 36 7c 5d c3 bf
       0.03527704422642808 -0.15129044194249086
000600 21 2a 96 a2 ef 4b f8 bf 7e 6a fc 71 f4 42 93 bf
       -1.5185390807188315 -0.018810100037720982
000610 ca 22 30 a2 2b 65 c2 3f 84 db 05 3d 73 1a a7 bf
       0.1437124769147629 -0.04512367362888539
000620 e6 44 37 b2 96 ca a7 bf 62 5a 3c 09 93 af 95 3f
       -0.04646750379073143 0.021177575529771515
000630 24 a4 24 9c c5 7a b4 3f 44 7f 77 75 76 4e 6d bf
       0.07999835073555112 -0.0035774530076508066
000640 df 6b 08 c4 b1 7f 97 3f a0 e2 52 db 74 6d 90 bf
       0.022948052968882023 -0.016042543302975276
000650 7a c7 81 86 e4 d8 a3 bf d2 e5 aa fa dc b6 eb bf
       -0.03876413480692427 -0.8660721679545367
000660 04 83 4a 44 55 0f dd 3f 76 26 11 49 e6 a6 cd bf
       0.454060856523981 -0.23165587012981675
000670 3f ea 22 a0 b8 4a bf bf ee df e1 7d 81 f4 96 3f
       -0.12223390492992169 0.022417090709922087
000680 3d 0d 22 5d 5d f7 bd bf 98 da 08 13 ea c8 e1 bf
       -0.11705573581462132 -0.5557756778496978
000690 c6 1d 59 34 33 b0 e4 3e 1d 71 34 be c0 4e 94 3f
       9.86494127198826e-06 0.019831668481047438
0006a0 20 ab e4 74 ea c3 a2 3f 3c c1 65 34 1d 0b b7 3f
       0.03665096928519618 0.09001333741412493
0006b0 d8 b3 75 d5 d3 8a d2 bf 35 74 80 57 30 0a 80 bf
       -0.2897233566825981 -0.007831933660833549
0006c0 07 ac 22 03 5c 43 a5 3f 88 78 39 01 a9 88 b1 3f
       0.041529536612266375 0.0684915187825671
0006d0 5f dd f3 86 ca a5 87 3f 62 3f bf 1b e3 0e 96 3f
       0.011546690219332132 0.021541164940401265
0006e0 ca 84 a1 5f 6e 37 e8 bf 43 ed 28 11 c3 01 e1 bf
       -0.7567664974013948 -0.5314650855210988
0006f0 35 64 c8 0c f7 c4 ce 3f 1b b6 8d 28 34 6c b7 3f
       0.24038589595946439 0.09149480810238979
000700 ab 54 a6 a5 36 0e 58 bf ec b1 7f 8f ed 29 9a 3f
       -0.0014682325041566562 0.02555056751582356
000710 f1 6d d8 a8 ef 2e a0 3f c2 58 d8 4f 34 0b cb bf
       0.03160809455968295 -0.2112794294232057
000720 6c 41 8c 34 bc e7 76 bf f9 a4 fa 3a ec b4 8d 3f
       -0.005592093636338152 0.014505239057444263
000730 44 ea 67 7f f6 31 9d 3f ee 99 e1 2f de 16 d3 3f
       0.028510905767669806 0.29827074695495426
000740 a5 2f 85 bb 16 f6 b8 bf eb cd ca 58 4f 7f d4 bf
       -0.09750501707202248 -0.3202703826056836
000750 7e 20 2e a5 97 e7 df 3f 95 52 f8 54 be f7 c5 bf
       0.4985102761352279 -0.17162303112913393
000760 d7 26 95 34 c9 af 96 3f b3 d4 31 10 26 11 d8 3f
       0.02215494521559588 0.37604667264470065
000770 03 34 74 1e 81 3b 9f 3f ef 46 cb ad cc 2f 78 bf
       0.03050042866111725 -0.005904960181128279
000780 08 6d 4b 27 38 ef c3 3f 78 f0 31 c3 2b 30 b9 3f
       0.15573789519007897 0.09839128032212041
000790 9b 35 ed 0d 63 e1 b1 bf b1 bc 5a d6 2a ef af bf
       -0.06984538164143432 -0.06237157694465035
0007a0 09 6a 37 37 72 8d 92 3f f7 ed 4d 8a 85 22 a8 bf
       0.018117699260850304 -0.04713837922369273
0007b0 e9 28 a8 8d 3f 8c cc bf 05 b3 b9 25 7d 33 c0 3f
       -0.2230300370868641 0.12657131521282153
0007c0 55 70 85 c8 35 4a b8 bf 9a f4 b1 fb ab 59 dc bf
       -0.0948823561242887 -0.44297313289264084
0007d0 19 d7 c7 51 aa b0 aa 3f b7 61 57 e2 15 78 b0 bf
       0.05212909935282379 -0.06433235908423894
0007e0 9c 4d 2f 14 c5 02 93 3f ad 76 24 b3 77 40 a5 3f
       0.01856525359819515 0.04150747358128846
0007f0 ce 64 48 b9 bb 15 ae bf 85 c0 eb 33 00 a1 b7 bf
       -0.05875956188919816 -0.09230042712784055

fc.2.bias f8 [3]
000000 3e 11 81 dc c2 93 d0 3f dd a2 a2 12 4f aa 9f bf
       0.2590186265336064 -0.030923114311607647
000010 31 53 81 43 ce d9 b6 bf
       -0.08926095150065973
