car_ros2/car_ros2/losses/haha_delay.pth (torch, 202669 bytes, 8 tensors)

fc.0.weight f8 [100, 40]
000000 14 50 88 ca 9c 9b c4 bf ea 2e e7 36 03 11 c2 bf
       -0.1609989155700765 -0.14114418202222306
000010 08 8e 66 45 d2 a5 b3 bf 1c 33 30 2d 2b 34 a1 3f
       -0.0767489833293028 0.033601140276095814
000020 9d d5 db 26 80 27 a6 bf 99 9d 64 97 9a a7 aa bf
       -0.04327011560773573 -0.052059966068834736
000030 3f 18 61 64 fc ac b9 3f 49 b2 43 f8 b4 63 6e bf
       0.10029580546060489 -0.0037096533361505074
000040 cc 09 b0 75 a3 59 ba bf da 86 00 28 d6 21 c0 bf
       -0.10293027518495207 -0.12603260949349854
000050 f9 66 77 1b 3f 50 9c 3f 5b 47 e0 cc 23 7b c2 3f
       0.027649866153160983 0.14438292983737253
000060 71 8a aa 0a d0 1f 88 3f f1 86 cb ff 5a 35 c2 bf
       0.011779427838807895 -0.1422532795905265
000070 43 c6 7b 7d a4 52 c0 3f 16 fe 51 63 e5 1f 96 bf
       0.12752205016254167 -0.021606048762349138
000080 03 41 16 22 1b 3f a4 3f af bd e6 9d cb 4d a4 3f
       0.039543960486414086 0.039656031632485315
000090 78 a4 3c 62 57 a0 b1 bf 5a be 35 9d 8a 60 b2 3f
       -0.06885286472665253 0.07178560579426954
0000a0 80 70 ec a6 59 cf ad bf f0 de 80 ed b5 42 a4 bf
       -0.05822258150712489 -0.03957146190844962
0000b0 9a 91 dd c0 39 b3 93 bf 1a f5 de bc 70 90 63 bf
       -0.019238378902984722 -0.0023882104787548266
0000c0 69 1f d0 78 c9 09 bf bf ac 87 17 66 b5 a0 9f bf
       -0.12124308776412608 -0.030886492115207595
0000d0 ad f2 5e 7e a4 0e b0 bf 33 d9 b1 19 a4 05 bc 3f
       -0.06272342763163392 0.10946107508957396
0000e0 2a fa 0a 9a 51 2e c1 bf 4a 1e fc 3b e4 39 b6 bf
       -0.13422603627800928 -0.08682085480187954
0000f0 e1 63 48 19 26 6e b8 3f 49 f8 72 66 6e ad ae 3f
       0.09543073765998102 0.059916925436013964
000100 73 c5 3c 81 61 41 b5 3f 7c 94 cf 46 3b f3 c3 bf
       0.0830288830300299 -0.15586033780633446
000110 5c bf 71 b0 d5 a5 a0 3f d5 c9 08 14 73 d7 85 bf
       0.032515218533147844 -0.010664843605899069
000120 89 95 16 cf 31 22 a2 3f 1d 10 9d 30 6d 1f b5 bf
       0.035417133836101185 -0.08251078068593683
000130 1c e2 d9 da 96 27 bd bf ee b8 f3 16 65 0c 76 bf
       -0.11388533442539778 -0.005382914430113168
000140 9d c5 c8 f6 2a 36 b5 bf bf ba 83 18 be 79 be bf
       -0.08285778546339491 -0.11904514406681253
000150 8c e5 c4 1e 96 b7 87 3f 49 9b 8e 95 ee 7a 93 3f
       0.0115806320323937 0.019023635748136845
000160 ac bf 44 55 7b 57 99 bf af cc 5c c8 95 c4 aa bf
       -0.024747778968219045 -0.05228107519942548
000170 2a e6 c2 a0 c0 f2 c2 3f 33 cc cd 98 33 2d 8f 3f
       0.14803321695016908 0.01522293386526572
000180 5e da 1f a5 de 2a a0 bf 9b e2 10 14 46 11 bd bf
       -0.031577069908895736 -0.11354482641116663
000190 95 b3 4e 80 b5 e9 b7 bf b2 91 40 ff 28 14 b2 bf
       -0.09340986616616782 -0.07062011939758042
0001a0 f2 74 3f d2 17 95 c4 bf 41 aa e7 3b 3b be 9a bf
       -0.16079995885858228 -0.026116300135905716
0001b0 55 05 06 19 c8 bc 8e 3f 59 10 03 ab 82 1d b4 3f
       0.015008509887368385 0.07857529330345993
0001c0 9b 7d ed 11 49 c9 bc bf f7 35 37 d3 92 67 c4 bf
       -0.11244637191474853 -0.1594108134581089
0001d0 c5 17 79 83 fa d5 c1 bf 5a bf fc c0 04 a7 bd bf
       -0.13934260768490794 -0.11582975112537267
0001e0 34 03 01 b5 20 61 b4 3f e8 ee 50 52 fe 39 9a 3f
       0.07960705203096269 0.025611852430514143
0001f0 2f 14 58 c1 c3 e8 b0 bf 1f 05 67 b7 ce af bc bf
       -0.06605170698465267 -0.11205760934446517
000200 22 cc 96 7a 9d 0e b1 3f e3 97 0d ba 73 56 b8 3f
       0.06662925951859269 0.09506915371238693
000210 1e dd 8d 49 4c 25 c4 3f f4 c7 88 56 49 d1 95 3f
       0.15738824454795347 0.02130617705024203
000220 ac 0a d3 1a 4c ac b5 bf 41 16 ed 84 09 92 c4 bf
       -0.08466029791729096 -0.1607067011884045
000230 d4 1f 12 2f 2d e3 c0 bf 0e c3 92 4e 53 56 a9 3f
       -0.13193287657145325 0.04948673566958038
000240 32 cc 4d cd 71 12 b3 bf d9 a6 eb 12 a9 4f c3 3f
       -0.07450019132902311 0.1508685438523603
000250 d7 f4 bc 63 46 6b 8d bf a6 67 e2 1b 25 7e c5 bf
       -0.014364766997113794 -0.1679121385721462
000260 e5 7f a7 28 c4 dc be 3f 37 71 71 2f 3b f0 79 3f
       0.12055612556969171 0.00633261794345357
000270 cf 6f 63 9e 4e 5b c0 3f af 39 0f e4 e0 55 c4 bf
       0.12778647168931775 -0.1588708032199526
000280 04 6e b5 d4 53 40 c1 bf 4d 4e 48 2b 26 0a c1 bf
       -0.13477561842124441 -0.13312222588921188
000290 1c 63 c5 4e 15 37 85 bf d5 c9 b8 56 fa e6 ac 3f
       -0.010358969179536319 0.05644972141853414
0002a0 e8 34 4f 06 4f ea c2 3f ea bd 04 29 28 66 bf 3f
       0.14777553375316832 0.1226525402205351
0002b0 a1 b8 ed 24 5c 37 80 3f fb b0 f9 13 89 c8 b8 bf
       0.007918090702983273 -0.0968099282997094
0002c0 77 5c 0e 02 c1 3d bd 3f b0 f0 25 c8 05 3f c3 3f
       0.11422354030797686 0.150360796669593
0002d0 9b 36 e0 f9 08 a7 b2 3f 40 1a af 19 18 02 92 3f
       0.07286125278934678 0.017586113517405133
0002e0 6d 5a 16 99 3e 07 b4 3f 99 fd 54 64 e9 3a b0 bf
       0.0782355426548322 -0.06339892100822055
0002f0 43 c0 8f 68 9b 8a bd 3f 4a e9 7f 9c 80 14 9d bf
       0.11539622595569292 -0.028398522903424074
000300 a2 16 71 6d 27 55 bd 3f ba 65 f4 de ec f4 c1 3f
       0.11458059713285221 0.140287026276196
000310 e5 32 81 41 ed d1 a6 3f 52 9d 2a 1b 10 e8 81 3f
       0.04457036423318587 0.008743406132750185
000320 7d ca 56 b1 92 62 c1 3f 78 2f 34 d1 70 c8 a2 3f
       0.13582070979244412 0.03668549112089087
000330 f0 c8 9d f7 b6 bc b1 bf c3 c1 36 2d 94 a7 96 3f
       -0.06928580804177265 0.02212363744701108
000340 10 b8 bb 53 0d d2 a0 bf 20 4f 5d 2d 33 85 b6 bf
       -0.03285257002958997 -0.08796996934443913
000350 6f dc 88 34 2c c5 bc 3f 79 42 ca dc 03 f7 a0 bf
       0.1123836162813505 -0.03313457555953376
000360 3e c6 c2 43 96 47 a8 bf 6b 3b ac 55 30 f8 9f bf
       -0.0474211652484766 -0.03122020266442453
000370 de bf 9a 04 ee f3 90 3f e5 da 11 a5 33 89 a9 3f
       0.016555518179927613 0.049874891185870664
000380 15 4f 93 4a 2e 42 b9 3f 8c be 33 75 89 fe ba bf
       0.09866608925522898 -0.10544642554645572
000390 f6 8e 93 2b 9a e7 91 bf 37 be 18 9a de a9 b1 bf
       -0.017485054883663552 -0.06899825346112541
0003a0 19 f4 e9 d5 90 05 bf bf 4b b3 47 11 5a 90 ae bf
       -0.12117867681986673 -0.059695067033180914
0003b0 58 4a 97 12 84 28 9f bf d5 9f 7d 8f 24 2a c0 bf
       -0.03042799342603994 -0.12628609663374726
0003c0 b9 e2 ff 40 a6 7f c0 bf 75 c5 f7 76 f1 ba b1 3f
       -0.12889555143171608 0.06925877718437852
0003d0 c2 7c e9 51 94 61 98 bf 32 37 c8 1d a4 e5 b1 bf
       -0.023809735774531722 -0.06991029479123936
0003e0 e5 9b 45 ad a4 01 c4 3f 86 7b e8 7b 87 23 a2 bf
       0.156300148587632 -0.03542731654692148
0003f0 2a 38 47 5c 41 69 83 3f 74 c7 48 c3 77 f4 c3 bf
       0.009478102329833222 -0.155898065904292
000400 b8 99 48 61 88 4e 8c 3f 77 ea cd 7d 04 4e c2 bf
       0.013821664303645828 -0.14300590651312792
000410 49 8c 5e f7 e6 84 9d 3f 43 a5 5e 10 e3 cb 8d bf
       0.028827294204927054 -0.01454903978067768
000420 32 2d f9 6f d3 9f b5 bf 96 8b a6 06 04 57 90 bf
       -0.0844700001118113 -0.015956938653868123
000430 22 e4 86 c4 41 c1 92 3f 41 a9 e6 6f 97 e6 c0 3f
       0.01831534158711546 0.13203709567944524
000440 ac 4c df 6f dc 7a ba 3f 6a c2 8f 3b 1c 4b c3 3f
       0.10343721133476674 0.15072968395499525
000450 00 91 95 4b 91 ff bb 3f 6c d4 08 15 f9 3a b1 3f
       0.10936840148275806 0.06730610621964822
000460 c7 f6 2a 57 fd c8 c0 bf 08 77 0e 32 a3 ea c0 bf
       -0.13113371616593936 -0.13216056770482276
000470 4d 79 4e 54 25 d7 a6 3f 32 34 13 ee ef 00 a7 3f
       0.044610182324719895 0.04492902547063017
000480 0c 12 60 31 34 3b 56 3f 2a 45 97 ff 73 da b8 bf
       0.0013568887420670776 -0.09708333005916772
000490 64 5f c5 51 5e f1 b7 bf c9 fb 08 85 52 e7 c1 3f
       -0.09352674003946287 0.13987189765791033
0004a0 21 c7 b6 be 67 3b c0 bf ae 9b 7a f1 11 86 a3 bf
       -0.1268129044743143 -0.03813224861851637
0004b0 02 2f a4 aa 8d 86 b3 bf fd 83 09 30 23 8c 7a 3f
       -0.07627187171982189 0.00648130173849015
0004c0 37 bb 67 c8 54 6d b0 bf a8 c9 14 b6 02 03 bf bf
       -0.06416826145844544 -0.12113968797056052
0004d0 1d 1e 75 18 dd 4d a4 bf 07 c3 ca a0 a4 a0 bd 3f
       -0.039656552539380586 0.11573246884905695
0004e0 b4 4c 2a cb df 8d 9a bf d5 ed 17 75 01 41 bd 3f
       -0.02593183209917234 0.11427315815665591
0004f0 12 ea ec 84 6f 82 b9 3f 6a 41 cf 5c e8 83 c0 bf
       0.09964653964281237 -0.12902550250738481
000500 24 51 d3 35 dc cf c3 3f 60 3e d2 97 e5 bf bb bf
       0.1547808897800077 -0.10839686352323374
000510 66 d5 da fc 1d 14 b8 3f 14 b3 78 de e7 2e b0 3f
       0.09405696318829868 0.06321572476799658
000520 f8 26 a8 1c 15 e5 b0 bf 37 8f c7 f4 45 c6 a2 3f
       -0.06599552106504436 0.0366689549735199
000530 ce 44 71 c1 e4 e9 b0 bf 7c f2 24 9b 53 09 a3 3f
       -0.06606893274990286 0.037180531204715955
000540 92 0e 2e 50 98 e0 c3 bf bf 4f 36 39 bb 91 c2 3f
       -0.15529159464869174 0.14507236760675643
000550 25 52 17 58 21 82 b9 3f ff 1d 12 8b 99 02 8c bf
       0.09964188004170944 -0.013676833683589072
000560 ad c1 fd df 68 5c c0 bf 61 8e 8f e1 d1 b1 c0 3f
       -0.12782011925766082 0.1304266311045579
000570 bc f9 96 3f 93 3e 7e 3f 27 c4 85 17 72 5e b6 3f
       0.007383895100643686 0.08737862657814387
000580 c6 d8 d4 c1 1c c5 c1 bf 69 19 55 0c 49 7e c3 bf
       -0.1388278910105269 -0.1522914228646173
000590 a8 f3 c4 fd 39 bc c2 3f 66 58 3d ac 6a e2 ab 3f
       0.1463692177875633 0.054461797261567566
0005a0 a7 ad 40 0d 47 64 ab 3f 54 c7 2d f2 14 ff a5 bf
       0.05349943196082601 -0.042961744845242095
0005b0 6a 74 1a 90 25 5c a3 bf 55 2f bb 6d d0 45 c2 bf
       -0.03781239875863991 -0.1427555595204192
0005c0 84 a7 b1 be f5 2d b8 bf cc 9c 05 cb 94 f8 a4 3f
       -0.09445129304518046 0.040959024222325974
0005d0 8a f0 25 27 ae 3f a5 3f 2f 05 7c f4 52 6b a3 3f
       0.041501467017014695 0.037928192467015946
0005e0 bc 42 9c 07 54 13 b6 bf 6f 0b cf b6 05 3f 92 3f
       -0.0862324255542814 0.017818536074411136
0005f0 e6 73 89 b4 4b cc ac 3f 6f ab b5 b9 12 01 90 3f
       0.05624615267581827 0.015629093727891282
000600 02 26 66 ee f3 0e b7 bf 68 4e 53 22 14 96 b6 3f
       -0.0900719124821521 0.08822751844427901
000610 08 92 31 00 0a a1 b3 bf 26 5c 42 ee d4 89 c0 3f
       -0.0766760111305943 0.1292062915206042
000620 18 24 0b 81 50 0e c1 bf e8 aa b0 7f 12 be 87 bf
       -0.13324934292748547 -0.011593002816956369
000630 5f d5 fb 44 be 11 9f 3f e8 1d de ee 5c 7f bb bf
       0.030341122589523702 -0.1074121554539641
000640 3d 47 77 f0 fe 61 a3 3f 4f 82 78 a1 70 29 be bf
       0.03785702405333644 -0.11781982366711329
000650 31 b5 49 e1 9d ea b4 bf ab 69 16 66 36 53 b2 3f
       -0.08170496702378639 0.07158222191211532
000660 75 32 90 c6 09 c1 c4 3f 1c de ca 63 15 77 91 bf
       0.16214105792495884 -0.01705583020767963
000670 41 4e ba 46 01 fd c1 3f 12 7f c5 d4 20 f6 c1 3f
       0.14053359941009272 0.14032373799545234
000680 11 d6 ad f1 cc e4 bb bf fc 59 43 04 bb 3e b4 bf
       -0.1089599695240724 -0.0790821919830264
000690 92 95 3e d8 8d d6 b5 bf cb bf c3 91 7b 8e ac bf
       -0.08530508546262741 -0.05577455667832928
0006a0 b8 46 f7 e2 d7 f1 a6 bf 31 60 d5 68 d6 55 6f 3f
       -0.044813868003655555 0.0038251102147732964
0006b0 5f 11 c7 53 c4 74 b7 bf 74 4d 4e 7a 5b 83 b7 bf
       -0.09162547154762056 -0.09184810386641634
0006c0 e7 eb 2c 60 d4 bd be bf 67 1b d7 bf fa 1e c1 bf
       -0.12008406971010253 -0.133757918998721
0006d0 11 ca 66 01 23 51 bf 3f 7e 45 f8 08 b3 1a 93 bf
       0.12233179840294663 -0.01865653745887163
0006e0 c2 b9 c3 88 94 90 b8 3f f9 18 d2 50 8d 38 c2 bf
       0.0959561189554057 -0.14235083051989486
0006f0 ba a1 90 63 64 f2 b5 3f 52 3b 81 0e 19 c5 c1 3f
       0.08572986059937807 0.13882744987719292
000700 89 87 73 51 e1 45 c5 bf 2c b2 dd ac b2 ec c1 3f
       -0.16619507290948501 0.1400359481880441
000710 82 95 6c 70 26 79 81 bf 06 87 d8 90 31 3c 92 bf
       -0.00853185682860658 -0.01780774542397181
000720 c9 69 90 96 f8 3a b9 3f e4 d8 1a 6e 85 b6 b1 3f
       0.0985560767734689 0.06919130266291834
000730 f7 8b 1e e0 c1 c5 c1 3f 2d 3b c7 71 56 de aa bf
       0.13884757464720085 -0.05247755183119405
000740 86 7c e5 4f 8c ce ac 3f fa 2a a0 95 a2 aa 96 bf
       0.05626333689974054 -0.02213529623262909
000750 bd 5c 3c 21 09 14 93 bf 98 97 75 58 04 9f c3 bf
       -0.018631117490340843 -0.15329031295112538
000760 80 cd 24 c5 79 e3 c0 3f 2d 50 04 c6 93 d6 ae bf
       0.13194200636062803 -0.06023084442327362
000770 e1 dc 3e aa 92 24 b3 bf bb 97 0e 23 7f 86 79 bf
       -0.07477680832277002 -0.006231781605412874
000780 b9 d2 b6 2a b2 d4 8c bf f3 9c 75 ed 44 4e ab bf
       -0.014077560356647966 -0.053331521975275374
000790 25 25 be 24 a9 a0 af bf da 30 ae 0d b8 eb c3 3f
       -0.061772618994903085 0.15563107173910035
0007a0 36 51 1a 1b e0 e0 c0 bf 39 9a 64 d9 79 4c b0 3f
       -0.1318626530015849 0.06366693074651487
0007b0 f6 05 dc 7a 45 f0 c3 3f 00 cb b8 8e 8e d3 b5 bf
       0.15577000140187608 -0.08525935158176523
0007c0 75 c6 77 e2 4e 0c c1 3f 64 1c ec be 16 7f b9 3f
       0.13318811471940575 0.09959547196568647
0007d0 0a e1 d4 eb 98 7e c1 3f 5b 93 4a 98 62 2c bc bf
       0.136675944473389 -0.11005226343202194
0007e0 b9 95 00 4b b1 7e b6 3f f9 57 40 fc f0 8a 7d bf
       0.08787067490683044 -0.007212582921075844
0007f0 3c 0f 51 e0 f7 fc 1f bf 73 c5 7d bb 0a d9 6b bf
       -0.00012202513615116884 -0.0033993920914602792

fc.0.bias f8 [100]
000000 8b d0 73 03 e0 c9 b0 bf 84 fc 4e b7 0c 29 b7 bf
       -0.0655803688458169 -0.0904701182871453
000010 d6 a0 8d 3f 39 d3 ae bf d9 d2 6c ec f5 41 9e bf
       -0.0602052583770402 -0.02954849486850972
000020 dd 62 15 8a 5d d4 93 3f 79 94 da b3 50 b3 87 3f
       0.01936479716582339 0.011572485436156509
000030 7d 4e 15 c2 18 11 b7 3f 51 ec 56 e2 87 9c b3 bf
       0.09010462511406021 -0.07660722041957625
000040 01 3b 37 73 3a df 9c 3f 22 a4 5e 3a e0 8c c2 3f
       0.02819529846402258 0.14492419099886528
000050 3f cd 9a a9 40 20 ae 3f 07 3e aa 07 6a b2 c3 3f
       0.058839817718217884 0.15388226866024032
000060 1c 44 b3 2d 23 23 bc 3f 6a d2 c4 71 1f b7 c3 bf
       0.10991115442017513 -0.15402596526259354
000070 71 ed c4 9d 29 56 bc bf f2 e6 88 03 5e de b2 bf
       -0.11068973638332637 -0.07370555483148758
000080 13 8d db 30 98 89 ab 3f 8a 9b e8 de dd 6e c2 bf
       0.053784137691559895 -0.14400838264665722
000090 e6 37 94 5b 1a cb b0 3f fc 54 2b 92 7c 22 c2 3f
       0.06559910522284404 0.14167744767352264
0000a0 9f 13 ac f7 96 6f b1 3f 9a 3b 25 b4 91 bf b3 3f
       0.06810897394832559 0.07714186332780884
0000b0 66 c9 c6 51 8d 07 bd bf e5 e6 02 ea 0e 0a ba bf
       -0.11339648481842843 -0.10171597684066176
0000c0 07 b0 e8 ad 8f 98 a9 3f ec 8a e3 ee aa 08 80 3f
       0.04999207494651619 0.007829032340344232
0000d0 8f 19 64 38 78 c0 b9 3f 9a fd 49 89 e3 44 93 3f
       0.10059310318692936 0.01881747746892657
0000e0 dd ef 76 34 a8 a7 a1 bf 9a 1f 3c 0f 34 f4 9d 3f
       -0.03448224678456289 0.029251874379979982
0000f0 f7 ab ae 10 d9 95 c0 bf fd b4 ae 2e 4f f0 bc 3f
       -0.12957299532476416 0.11304182901104194
000100 39 2c 53 8d 15 9d ad bf 4f 3e 59 74 a0 d4 aa bf
       -0.057839082242559355 -0.05240346355696756
000110 06 e5 eb 8a 31 38 70 bf 2c 0b 4a 8f e7 c0 ac bf
       -0.003959840322516733 -0.05615924476753373
000120 03 a0 25 f3 39 c3 bf 3f 33 f3 5b 73 f0 9a b4 3f
       0.12407266794400588 0.08048918548952315
000130 16 8e de 6b 53 c9 b7 bf 08 c7 a1 09 e8 ca a9 3f
       -0.09291573890237034 0.050376177955412216
000140 1f 8f a3 d0 87 9c c1 3f b4 72 e5 5e b9 f0 a8 3f
       0.13758943259664932 0.04871157916452287
000150 a9 d8 01 94 43 2a bb 3f f8 ad 59 69 c6 6f ae bf
       0.10611364711243944 -0.05944652591719185
000160 a8 bc 62 cc 24 b7 ac bf 4e 24 8d 4a 40 f8 c5 3f
       -0.05608477587645072 0.17163852348520198
000170 01 cd e5 30 5b af b7 bf 3e 99 d8 2f 75 c7 a0 bf
       -0.09251947349348556 -0.03277174195345588
000180 c0 c9 0a 7d 9a e9 b7 bf 84 53 75 ab f7 cc c2 bf
       -0.09340825608050007 -0.14688011047351435
000190 4b 71 b4 ae 54 15 b5 bf eb 39 c2 1f 58 93 c8 3f
       -0.08235673203711717 0.19199658919065085
0001a0 50 0c 54 7c de 2d ba bf 9c a3 5a e8 e3 9b c1 bf
       -0.10226240668639375 -0.13756989331639324
0001b0 a2 33 04 36 00 0a b5 bf b1 70 de e6 85 65 9c bf
       -0.08218385046730117 -0.027731029716605963
0001c0 34 8b f0 8a 17 2d 98 3f a5 35 ee 27 53 f4 b1 bf
       0.02360951219101111 -0.07013435101381178
0001d0 0a bc 5e a6 72 13 b8 3f f6 3a 29 dd 71 86 64 3f
       0.09404675065773929 0.0025055145172595506
0001e0 16 fa 29 27 b4 70 b9 bf 07 57 e7 bd e8 f2 b2 bf
       -0.09937597232963244 -0.074018999446107
0001f0 e0 e2 84 5c 6d 4c bb bf e0 fc 5b 8a a2 50 b4 bf
       -0.10663493641630906 -0.07935539129174485
000200 dd 16 bb 87 df ca c2 3f 4d 92 78 08 e7 7b c3 3f
       0.14681619765740708 0.1522187033998698
000210 bb aa ce 45 8f b1 84 3f 1d 8e 8a bd 2a a4 b0 bf
       0.010104293172692782 -0.06500498893233737
000220 14 38 25 db ae c1 c7 3f 2d 02 e6 d7 07 e5 aa bf
       0.18559823704202982 -0.05252861509780291
000230 49 b0 df 38 8c 27 a9 3f 58 5b 44 94 37 4f a9 bf
       0.049129850332832854 -0.04943250355625278
000240 b8 6a bf a5 2c 1d a8 3f 57 42 56 20 28 02 b2 bf
       0.047097583039165725 -0.07034540929294884
000250 da e3 33 ad 8a 3c bd 3f 0e e3 3c 9e 9a 14 b4 3f
       0.11420504311162408 0.07843939173916345
000260 f4 b0 55 22 89 35 a5 bf 5f cf 1d 40 6b d3 b4 3f
       -0.04142406982541216 0.08135099711745174
000270 2a af 9e 8b 4f 1f b9 3f cc 08 f2 f1 b3 29 ae bf
       0.0981340137356567 -0.05891191795764569
000280 36 d9 8f ed 41 29 93 3f dd 6d 0a 4b 30 81 c3 bf
       0.01871207249129122 -0.1523800245675905
000290 93 a5 14 5a 20 30 aa 3f 04 66 89 99 ea b3 ba bf
       0.05114842509858444 -0.10430780647711663
0002a0 21 4b 72 6f d5 9f b2 3f 81 b2 81 9c e8 64 b3 3f
       0.07275136919842541 0.07575849362337729
0002b0 fa da 7c 3a 83 e6 c2 bf 41 0e 62 f9 ed 64 c0 bf
       -0.14765968662114642 -0.12808012654214632
0002c0 c0 ab 39 6c 19 a6 8d bf 48 05 d2 7b 5a 1e c5 bf
       -0.01447696553733191 -0.1649888138381732
0002d0 45 77 39 5e 2e a0 c3 bf 0b 22 da 7b 98 df b7 3f
       -0.1533258400040102 0.09325554870350332
0002e0 e7 e2 f1 bb 0e 0b 96 bf 6a 8c 48 2b 94 20 b6 bf
       -0.021526556226009765 -0.0864346128151269
0002f0 f4 a0 87 bb 06 83 c4 3f 97 c5 e6 cd 5e e8 c1 3f
       0.16024860531548024 0.1399038796785532
000300 e5 2c d6 40 16 39 ca 3f 25 b9 58 30 09 16 bd bf
       0.20486715474940023 -0.11361749105774217
000310 c3 11 fa a8 dc c0 c1 3f ed 43 ab 12 8a a1 c0 bf
       0.138698179729671 -0.129929789653516

fc.2.weight f8 [100, 100]
000000 9d c4 32 c5 7a d5 a7 bf 47 80 d6 d1 7d 9c 72 bf
       -0.04655059487539257 -0.00454377315818994
000010 e8 ac 63 a2 f4 de aa bf 32 8b 7e 94 65 36 97 bf
       -0.052482266257209365 -0.022668444813130857
000020 7c f2 4f 2d e4 b4 b7 3f 05 b7 6d 4d 73 5c b0 bf
       0.09260393244034931 -0.06391068115564387
000030 13 0b 01 11 10 a2 90 bf 8a af f7 15 b5 5b 97 3f
       -0.016243220365377797 0.02281077334002605
000040 cf 04 90 b8 be f8 b6 bf 79 1c 2a d6 56 a5 b3 bf
       -0.08973304754183008 -0.07674162605882086
000050 ca e5 d0 76 87 95 b4 3f 61 76 5f a9 50 b2 9d bf
       0.0804066338613644 -0.029000530564977093
000060 7b a7 4c d8 47 e6 b5 bf f0 d0 ff 89 40 04 ab bf
       -0.08554505377528969 -0.052766815991988625
000070 eb fb b1 bd 49 e9 b3 3f 54 90 68 a9 5e 65 b2 3f
       0.07777844315749831 0.07185927997540037
000080 97 8d 45 ea 4e 01 b4 3f 4a 03 7d b1 69 48 b3 bf
       0.07814496249698376 -0.07532368262492387
000090 7d 00 33 7b cc f4 a2 3f 59 e3 e5 ff b6 12 91 3f
       0.03702391628166966 0.01667295395734256
0000a0 f7 3e 54 e1 9c 8a ad bf 5d 8b 0b c3 b4 f4 b4 bf
       -0.05769815683936302 -0.08185891877978464
0000b0 73 2f 62 78 5d f8 92 bf 42 76 89 d9 48 f0 a4 bf
       -0.0185255627371101 -0.040895725779347206
0000c0 12 d9 2d 87 f0 a9 b3 3f 50 5f a5 56 c7 fc b4 3f
       0.07681182194014394 0.0819820963419009
0000d0 56 fb 70 81 a4 c2 81 bf 9e 54 62 1f 92 6d 9c bf
       -0.00867203254722219 -0.02776172939828269
0000e0 4f 58 f8 61 6d ed 95 3f df c1 de c4 df a1 a3 3f
       0.02141352568113347 0.03834437635612508
0000f0 e7 82 c6 03 ea 2b 97 3f 5b 72 6f 4a 9f ff ba 3f
       0.02262845657390047 0.1054629856802846
000100 89 15 f2 fd c0 36 b3 3f 92 4c 04 a4 20 cf b0 3f
       0.07505422782749895 0.06566051487270588
000110 5f ef 9b 2c 3c 1c b0 bf 1f b6 60 75 02 cb ac bf
       -0.06293083275880694 -0.05623634035906044
000120 f5 f4 eb 13 e7 94 63 bf a0 4c 57 1e 6e 10 b9 3f
       -0.002390338252893027 0.09790695420024287
000130 71 2e 57 96 59 c2 94 bf 7b 0e 52 bc 46 c8 b0 bf
       -0.020272636223849397 -0.0655559739844253
000140 64 50 9f 14 f1 6b b3 bf 94 44 86 20 1b 82 9b bf
       -0.0758658099505865 -0.026863502369057615
000150 5e cf f4 8f d8 b9 a9 bf 24 75 c4 bb ff b2 b6 3f
       -0.050246017048634725 0.08866880735555022
000160 83 08 11 24 b5 25 ae bf 1b 0b 0d 0d f8 76 8c 3f
       -0.05888143601670583 0.013898790262492569
000170 f9 90 58 42 1f 7f 66 bf 81 d7 97 19 7e b8 7f bf
       -0.002746163418821831 -0.007744305208225445
000180 75 8f 46 d9 91 86 ba 3f c4 43 a6 67 87 39 70 bf
       0.1036158709962914 -0.003961113858523772
000190 ca bc ae 82 f3 f1 a3 3f 13 67 3d 56 87 fb a6 3f
       0.03895531625982469 0.04488776138050645
0001a0 b4 c1 dc 56 52 d0 58 bf 29 b4 b6 36 52 b8 99 3f
       -0.0015145114989075616 0.025117191876848608
0001b0 8b 18 4c 2b 93 5c 97 3f 3b 25 c2 6c fd 17 8c bf
       0.022814082639364613 -0.013717632180731179
0001c0 c6 25 79 13 44 3f b3 3f 25 5b ce 66 88 c6 aa bf
       0.07518411136074751 -0.05229593520123491
0001d0 eb be 69 a9 58 b3 b7 3f 29 f5 73 bd cc a1 aa 3f
       0.09258035789548173 0.0520156842485256
0001e0 03 a2 7f 2a 57 57 9a bf 2b 93 a7 07 55 2a 91 bf
       -0.02572380253687535 -0.01676304682941347
0001f0 0b bf 7d 7e c2 5d b7 3f bf 44 5b 73 d5 a6 99 bf
       0.09127441013492558 -0.025050482908061108
000200 46 34 46 e0 54 83 b8 3f 5d 83 d9 49 52 49 bc 3f
       0.09575396037526315 0.11049379637689812
000210 41 6a e2 5d f7 43 7a 3f 5a 09 f6 49 46 ea 60 bf
       0.006412473942101261 -0.002064835818317662
000220 0e 96 58 b0 71 bc b0 3f 44 96 90 33 63 a4 b8 3f
       0.06537542872737154 0.09625835427194668
000230 f3 46 d6 76 2d fa a9 bf e4 6a 5a 1e b2 1e a3 3f
       -0.050736828571769886 0.0373435651828993
000240 2e 05 d8 b9 a5 d2 8f bf 9e 2a 87 f9 7c 4f a9 3f
       -0.015538496717456409 0.049434571704826555
000250 8e d7 0b 0d cb e8 b7 3f 37 36 24 fc 88 7e a7 bf
       0.09339589184295802 -0.045887261179910536
000260 c8 4c 79 3f c9 60 b0 3f 81 b5 64 3d aa b5 a1 bf
       0.06397683906225204 -0.03458911895209394
000270 63 a6 2b 74 17 b9 a6 bf bc fe a0 d4 6f d5 b2 3f
       -0.0443808869657232 0.07356928769240317
000280 89 e5 b3 04 de 24 ba 3f be 66 24 12 76 d5 b9 3f
       0.10212504973232774 0.1009134096424544
000290 82 f5 df 68 12 bb a0 bf 4d 96 f7 99 02 37 b9 3f
       -0.03267724542818497 0.0984956384559947
0002a0 1c 09 74 f1 15 84 a4 bf ca d3 60 52 e1 c6 ae 3f
       -0.040070234035754576 0.06011108522981308
0002b0 3b 8e 8b 22 5b 92 b6 3f 0d a6 25 a4 51 b4 b0 bf
       0.08817071526896651 -0.0652514482259436
0002c0 90 97 c9 1c ac 85 a4 3f 1d 78 24 b0 f4 20 5c 3f
       0.04008233882340939 0.0017168416530419846
0002d0 c3 e0 ec c8 d8 2a af bf 47 35 11 84 79 46 a3 3f
       -0.06087377026273224 0.03764705407284424
0002e0 05 92 20 a2 1d e7 b9 3f aa 75 c4 05 c9 78 b2 bf
       0.10118279655632285 -0.07215553656393206
0002f0 04 ef 55 60 eb d2 95 bf 3a be 1c 91 48 6b b0 bf
       -0.021312406306136303 -0.06413701575069633
000300 a7 5b 85 a6 87 c6 88 3f 9c 82 f6 c4 44 61 b3 bf
       0.012097415704074367 -0.0757029515139131
000310 5c da d0 6e 86 e5 ae 3f 0d 7c cb d5 ee 75 ae bf
       0.060344887759516935 -0.05949350700188214
000320 14 0e 17 c1 60 81 b4 3f fd a2 20 11 76 a3 97 3f
       0.08009915079224356 0.023084492488268705
000330 8f 81 42 b1 ec c3 a3 bf 79 be d2 c3 4f 82 91 bf
       -0.03860416091743268 -0.017098661734677088
000340 8d 3e 16 2a 17 7d b3 bf b5 57 21 bb 63 22 b3 3f
       -0.07612747933876048 0.07474349325761305
000350 5f cb 8a 46 c3 ed b6 3f 61 f8 fe 60 ef fb 9a 3f
       0.08956547233792155 0.02635168103710617
000360 3f a2 58 5c e6 8f a1 bf 7a 27 b5 4e 97 94 b7 bf
       -0.0343009937026335 -0.09211106940816008
000370 21 96 97 93 11 5c 9b bf 9e 84 88 ca 7b 7d b2 bf
       -0.026718401559170716 -0.07222722716007232
000380 1d 8b 12 bb 3e 76 ac 3f 94 df a1 11 f3 57 b9 bf
       0.055589638076773286 -0.09899825268246182
000390 7d 5e 0e c8 d6 f8 b3 3f cb 2c da 6b e2 32 8b bf
       0.07801573166067928 -0.013280648151769011
0003a0 38 38 d0 44 df e0 ac 3f cf f3 52 c5 8e 73 a6 3f
       0.056403138303821654 0.043850385272413576
0003b0 c1 22 a8 38 8b 91 96 bf fc 63 97 03 f4 f3 9b bf
       -0.022039580662780226 -0.027297795027923386
0003c0 72 55 70 49 bb 53 b3 bf 49 93 5e 00 60 be 80 3f
       -0.07549639265956445 0.00817561150672365
0003d0 39 6d c1 05 6f c0 b2 3f 77 77 f0 57 e8 c4 a1 3f
       0.0732488049556438 0.03470541070440352
0003e0 2c d6 c4 0f 8b 06 b7 3f de c5 12 1d 88 14 9c 3f
       0.08994359145148029 0.027422072195525497
0003f0 2e 74 ca b2 de 5c 92 3f ad f8 c1 61 42 00 96 bf
       0.017932395613218848 -0.02148536416688589
000400 64 e7 4a 1e 71 e6 b3 3f c8 97 c3 c0 be 8b b3 bf
       0.0777350138622786 -0.07635109144356911
000410 3b ac 0c 1f 23 ad aa bf 11 6a fa be 5c df a8 3f
       -0.05210218194982771 0.048579119026914815
000420 c6 0e 3a 9e a5 56 a4 3f ae 65 c0 cf 5b e9 9a 3f
       0.03972356373290391 0.02628081756129113
000430 14 66 89 d7 08 41 b1 bf 0a 4b 89 62 b7 39 85 bf
       -0.06739859830977252 -0.010363991446103355
000440 ea 6b 1f e0 0e 48 b0 bf b9 39 86 dd 5b 64 7a bf
       -0.06359951946016876 -0.006443365906660886
000450 d7 19 57 52 d3 de a6 bf 26 27 b9 48 33 75 9f bf
       -0.044668773461626614 -0.030720521272349498
000460 86 cd c3 07 8c 9d 8f bf a6 b4 62 53 05 96 b2 bf
       -0.015437215792622149 -0.07260163579731457
000470 f2 22 78 ef 76 6f b7 3f ba e9 4a 0d c6 3c a6 3f
       0.09154456468980834 0.04343241607917343
000480 31 2b 48 fd ab 12 b9 bf 54 3d f4 94 19 10 b5 3f
       -0.0979411595691715 0.08227691542218923
000490 68 f9 11 f7 ad 00 b8 3f 02 bf 3d 37 66 4f 61 bf
       0.0937603691290626 -0.0021130558397358676
0004a0 86 65 f0 39 dc f9 b0 bf 86 48 e6 bf 73 9b 95 bf
       -0.06631256498839919 -0.02110081537973276
0004b0 1f 85 38 ce 10 0d a7 3f b3 b8 4c 96 07 0d 88 bf
       0.04502155797332307 -0.011743602060587532
0004c0 98 bd ed 22 81 42 a3 3f ff 97 f7 4b 26 71 b6 3f
       0.03761676360488336 0.08766402582804743
0004d0 a9 cd 48 fc 65 02 b4 3f 33 d4 0b a3 7e a0 ae bf
       0.07816159638678379 -0.05981822719869747
0004e0 a0 be 35 1a a6 d9 b8 bf 51 14 3a b0 a2 aa 9d bf
       -0.0970710577000724 -0.028971235281023692
0004f0 66 62 d4 f3 e0 80 a8 bf 3f 0b 24 ce a2 44 a9 3f
       -0.04785826660571928 0.049351775802298985
000500 67 c2 eb fa 90 3d b6 3f 53 54 cf 28 ab ad ab 3f
       0.08687692762374298 0.05405936120192991
000510 1f b9 4e a3 8a 11 a4 bf 78 af c7 22 e0 44 a5 3f
       -0.039196331439017344 0.041541103597267204
000520 7a 0c 2e 5f 8b 1d 86 3f a2 72 ec 54 98 d9 b3 bf
       0.010798539011153564 -0.07753898690539043
000530 0c 56 14 b5 2d 7f a5 3f e8 a7 86 3e 10 1f 7f 3f
       0.041985920290397244 0.007597983793326414
000540 4c 56 6d b1 21 0f a9 bf 26 29 35 d3 87 68 b2 3f
       -0.04894357004984026 0.0719075098651599
000550 11 8b 01 eb 0a 70 b6 3f 9b 0f 04 bd c6 ca b1 bf
       0.08764713513805257 -0.0695003711189756
000560 37 bd 30 44 fb 4f b5 3f d4 3d c4 37 ab 48 b3 bf
       0.08325167097858786 -0.07532758819092261
000570 ea 06 e5 7d 2f 6a a3 3f ce 75 4a 8d 1f 2f a6 3f
       0.037919506185529375 0.04332827186338371
000580 e8 16 43 15 d7 e9 a6 bf e8 74 63 c1 04 57 a6 3f
       -0.044752808900325125 0.04363264904689307
000590 53 27 d8 0a 0f 6e af bf fc 92 bf b6 c7 84 b1 3f
       -0.061386556695721815 0.06843231402997313
0005a0 e5 9b 46 b6 a8 0c 8a 3f 38 1a 0c a5 aa d0 b1 bf
       0.012719457686058486 -0.0695902493426751
0005b0 a6 98 74 44 d5 af b5 bf c9 29 04 4c 58 7c b1 bf
       -0.08471424981380213 -0.06830360275140558
0005c0 fd a4 c7 dc 3c 5e aa bf c5 b1 cf 03 72 44 af 3f
       -0.051500226927439365 0.061069071736571647
0005d0 b2 44 4e de 5a 9f 8d bf 1a 05 c8 9b ec 3a a5 bf
       -0.014464101704819352 -0.04146518136622941
0005e0 ff d3 d5 bc 4a f9 67 3f e7 1d 75 75 3a d0 b5 3f
       0.002926488849591013 0.0852085625420994
0005f0 60 ae 7d 75 5a df a7 3f f9 eb ae 56 91 74 ab 3f
       0.04662592586722947 0.053623716193634104
000600 86 8b 11 45 a8 96 8f 3f c4 67 00 42 97 43 af bf
       0.015424074752621097 -0.06106255226786986
000610 11 17 ea f7 e6 83 b0 bf 7a db 74 39 2d 6f a9 3f
       -0.06451266815755853 0.0496763355862901
000620 b2 af c0 84 48 0e 94 bf 6f a9 9a 18 e4 0b 82 bf
       -0.019585736372547742 -0.008811742783411984
000630 91 ce 05 d8 16 47 aa 3f d9 b0 24 cd cb 9e 9f 3f
       0.051323617811161466 0.030879196544604113
000640 28 02 34 4e e6 96 b7 3f d7 11 71 83 19 0b af bf
       0.09214629563576493 -0.06063155869972874
000650 47 cb 42 4a c0 98 a2 3f a1 76 ed 11 b9 00 b1 3f
       0.03632164865975667 0.06641728103337609
000660 e8 4a 2c dd f4 d1 8a 3f 9c 89 3b 19 b5 26 93 bf
       0.013095772742905479 -0.018702344574998628
000670 5c aa d4 39 30 f0 ad 3f 80 83 e0 a0 db f3 98 3f
       0.05847311693135701 0.024367744154122573
000680 11 f4 e4 ae f1 79 98 bf 3f 77 81 4d 15 11 a4 3f
       -0.023902679729179314 0.039192834578655404
000690 34 0e 2e ae e0 f7 a8 bf 50 17 3f f4 b1 fc 93 3f
       -0.0487661564466432 0.01951864293348332
0006a0 34 eb a2 a6 55 b7 b3 3f 53 29 54 a3 cc b2 ac bf
       0.077016213591304 -0.05605163091429923
0006b0 11 e7 49 36 50 c4 a5 bf 5f 7a 56 28 78 fb 9e 3f
       -0.04251337683395041 0.030256154500984397
0006c0 40 f2 7d 21 c5 1d af bf 84 01 1d 96 c6 29 a6 bf
       -0.06077400239789599 -0.04328747351110265
0006d0 50 d9 5a ca 21 a2 b5 bf 7b 76 6b 51 4c bd 9b 3f
       -0.08450518789581918 0.027089302510708606
0006e0 78 fb 0b ef 0e 1f a4 bf a8 42 03 c2 0e 91 b4 bf
       -0.03929945629169301 -0.08033840405119952
0006f0 07 34 57 be d9 3c ba bf 39 65 fb 87 83 97 ae bf
       -0.10249100586879943 -0.05974970850884138
000700 b1 b1 7d 9b 06 71 b4 bf 78 da 9e af 90 8e b5 3f
       -0.07984963699499904 0.08420662200556162
000710 94 83 fb c4 90 52 a7 3f 7f 7a c0 df b0 34 b1 bf
       0.04555179981776472 -0.06721024954502218
000720 d8 e8 70 4c 50 ca b5 bf 23 47 d2 df 01 79 aa bf
       -0.08511831156002658 -0.05170446259684371
000730 76 e4 db 59 f6 be a3 bf a8 0d 05 2a 26 1f b8 bf
       -0.038566301793204014 -0.09422529722092199
000740 40 cc da 25 03 b4 a3 3f aa 01 6b d4 98 43 b2 3f
       0.038482759829456814 0.07134394823061166
000750 09 05 7e c4 3c ad a1 bf 33 df 29 cd b5 96 ac bf
       -0.0345248212679597 -0.05583732728422177
000760 06 e5 48 03 da e4 a1 3f 23 a5 fb 31 37 82 97 3f
       0.03494912424180012 0.02295767061778976
000770 1b 57 55 a8 0f c8 ad 3f ce 7e e9 74 ee 2a b0 bf
       0.05816697053766814 -0.06315508226679897
000780 e8 08 fb fd 63 7d b4 3f 33 91 d5 8e c2 6e aa 3f
       0.08003830862711292 0.051626281677075524
000790 b9 45 0d 24 56 89 99 3f 4c 20 64 84 0b d6 b0 bf
       0.024937959623746873 -0.0657660673351767
0007a0 49 4e 35 5b 2c 14 8e bf 2b ef 3e 57 ad 3f b1 3f
       -0.014686914952711254 0.06737788562798801
0007b0 2f 83 52 2c e2 20 9f 3f 40 ae 99 10 ce 8a b3 bf
       0.030398878054828046 -0.07633674531251078
0007c0 7c 1b 26 26 35 61 97 bf e2 d7 55 45 85 7b b2 bf
       -0.022831755116864624 -0.07219727461583106
0007d0 4d 0f 5a 53 88 48 b6 bf ff 4c c3 f8 97 cc b4 bf
       -0.08704425845104176 -0.08124685118973572
0007e0 44 f3 ca 3b 08 3f 9b bf 8d 2c 81 1c 1a 81 a9 bf
       -0.026607636117421465 -0.04981309507328389
0007f0 a2 c4 0c ce db bc a7 bf 2c f3 1e 87 57 cc a8 3f
       -0.04636275186784046 0.04843400501656556

fc.2.bias f8 [100]
000000 7c 68 9f 05 5f d8 c0 3f 25 db da b5 2c c3 b3 bf
       0.13160312437577548 -0.07719687881295252
000010 fd 68 71 b7 6a ab a8 3f f8 db 0b 47 42 be 9b bf
       0.04818280686659369 -0.02709296759254795
000020 7a 57 28 ca b7 f6 b0 3f 3c 21 95 86 cd 39 b7 3f
       0.06626461682784948 0.09072575126368049
000030 d6 93 e1 34 4a af ae 3f c3 03 7b d5 49 e9 83 3f
       0.05993110557100294 0.009722306086929927
000040 57 4d 31 27 61 4c b8 3f 3c 27 4d ca 44 42 bd 3f
       0.09491545874452832 0.11429243029593023
000050 0e 95 09 07 48 c6 bb bf e7 50 7f 40 2f 16 a9 3f
       -0.10849428340732833 0.048997379897316944
000060 2f 95 3c cb 5a cb cd 3f 6b 8f 0e b7 4d 0d a3 3f
       0.23276839183487527 0.03721087321835522
000070 27 06 ab 3c 42 fa b0 3f f4 ff 53 53 7c 11 ab 3f
       0.06631864529756425 0.05286777989567773
000080 43 98 02 13 b9 76 bd 3f d0 c4 50 81 69 9c 9b bf
       0.11509281839480061 -0.02696385242251581
000090 f9 90 e5 ed 01 71 a2 bf 47 54 51 ac a8 4c ac 3f
       -0.03601842907917958 0.05527236083495573
0000a0 eb 9c 0b 22 09 e7 c7 3f 14 1a fd f8 4e 2c bb bf
       0.18673814928408858 -0.10614484385323691
0000b0 90 12 a8 39 60 e5 b0 3f 9b eb 2c 1b e0 98 a5 bf
       0.06599999816541868 -0.042181971852605936
0000c0 1a 32 8f 36 ba 99 ac 3f 27 34 c5 60 b7 11 91 3f
       0.05586034694679061 0.01666914489878848
0000d0 31 6d d1 e0 ca 21 a4 3f e0 a6 8e 96 ec 01 b1 3f
       0.03932031626092181 0.06643561053956715
0000e0 e2 28 70 31 cf 81 b4 bf e3 8b 1b 6a db 92 b3 bf
       -0.0801057334612412 -0.07645961132543237
0000f0 41 90 72 66 1c 00 b3 3f e3 40 29 ca bd 15 bc bf
       0.07422044278297425 -0.10970674691748487
000100 5e b3 9f 14 59 3e 8d 3f 8b 00 85 d1 4c 3f c5 3f
       0.014279075567139973 0.16599426489301936
000110 d2 2d ed d1 de e4 8f 3f b3 39 ed 45 86 fa aa 3f
       0.015573254376838461 0.052692600284547274
000120 bd 1a 22 e4 08 10 cd 3f 7c a1 84 b9 70 f7 82 3f
       0.22705184115712554 0.009261017476618554
000130 16 92 f5 b3 5b 67 b2 3f 42 0b 61 0d 32 6a a9 bf
       0.07188962119614248 -0.04963833249396156
000140 90 dc b1 c3 ac a6 4c bf 60 1b a1 2b a5 1f c2 3f
       -0.0008743613792735628 0.14159073477113804
000150 5b 80 c0 bd 76 8d ad 3f f0 ac 64 94 7d f0 a8 bf
       0.05771990839298332 -0.048709797253048026
000160 55 aa 5a 04 ce 31 5a 3f 05 8c 52 bc 7a 16 c7 3f
       0.0015987884411666948 0.18037351794654924
000170 c6 c7 2d 61 8c c2 b3 bf 44 5f 79 7b 7e c2 b8 3f
       -0.07718732235460299 0.09671774401192318
000180 e5 33 6d 10 e5 59 a7 bf cb a3 87 59 32 db a4 bf
       -0.045607717757412826 -0.040734837941108624
000190 72 be 95 a6 05 85 9a 3f cf 51 3c 8e 9d 9f a6 bf
       0.025898063938653633 -0.04418651925348948
0001a0 7d e8 1e 13 20 c1 b5 3f 3b 51 3a 9d 31 11 a1 bf
       0.08497810808958835 -0.033334303324553415
0001b0 03 70 a5 48 1a c5 b2 3f 08 f7 81 c4 9f 94 b2 bf
       0.07332004808034757 -0.07258032367277789
0001c0 b4 c8 ff ae da 19 c1 3f a1 8b b3 20 e6 97 ac bf
       0.13360150856857944 -0.055846396915306025
0001d0 cf 1c b7 f5 6f 58 83 bf 1f 2c 49 01 ee 6e 9b 3f
       -0.009446024595389705 0.026790350750428012
0001e0 02 8a 5d 6b e8 b4 cb 3f a6 b7 e7 19 11 1b c6 3f
       0.21645837061358014 0.172701013230321
0001f0 d3 95 c1 a8 40 92 c7 3f a4 71 32 61 37 07 bf 3f
       0.18415077438400704 0.12120386240935105
000200 be 67 84 18 4d 76 b8 bf 43 0d e2 cd fa f0 a1 3f
       -0.09555513237538002 0.03504165423603436
000210 12 01 3a 35 d6 28 9a 3f d1 ff 8d 3a 7e aa b8 bf
       0.025546404837315136 -0.09635151795919163
000220 12 0d 0c 26 6e 8a b4 3f 3d 2b 45 13 06 3f b5 3f
       0.08023727826007512 0.08299291582549713
000230 18 4a c4 46 c0 ee ad bf d7 0a 36 03 0c eb 8a bf
       -0.05846215118267056 -0.013143628929133495
000240 76 da 9c 4e a6 bb bd 3f 23 4f c6 b1 3a 5c 84 bf
       0.11614455622916772 -0.0099415383818165
000250 fc 7a e9 fb 7c fa b9 3f c4 e9 f1 91 74 14 bc 3f
       0.1014783968944179 0.109687123900506
000260 50 c9 f8 67 d8 69 6a bf 37 a4 6d 46 1d 81 97 bf
       -0.0032242991144581304 -0.022953469680406093
000270 e5 54 ce 4f cd 5d a4 bf 74 3c af 07 51 78 b1 bf
       -0.03977815245813491 -0.06824213445291766
000280 cc 06 57 f5 a4 51 b0 bf a7 83 ad f1 8a b9 91 3f
       -0.06374579419846355 0.017309351921884233
000290 96 ad f6 60 63 ac 9e 3f 5f 65 b2 31 8d 05 ab 3f
       0.029954483788669238 0.052776729885588784
0002a0 8d 0c c7 e7 01 84 ad bf 18 cf e0 6b fe 44 86 3f
       -0.05764776186290375 0.010873782794170547
0002b0 af d7 45 01 48 2d ac 3f 3b a8 70 0a 0f f6 a3 bf
       0.055032968669294184 -0.038986654304907074
0002c0 38 1e 7b 69 de 2b 99 3f 3c 9e d6 b2 ef 39 96 3f
       0.024581408680005107 0.021705384531428104
0002d0 04 4f 25 8e be 95 b2 bf 2f 52 00 3c 59 1a 9e bf
       -0.07259741754870325 -0.02939738682478515
0002e0 36 70 1d 08 c7 83 86 bf 24 dc 99 b0 15 3e d0 3f
       -0.010993533072614619 0.2537893509501734
0002f0 24 3a 17 4a 2b 60 77 3f bd 79 db ca bc be a5 3f
       0.005706948375019869 0.042470836413247316
000300 ed 13 ee fd e5 39 a0 3f fb 60 f2 95 45 bc b1 3f
       0.03169172978144972 0.06927904997644767
000310 5f 19 42 82 3f 39 c3 3f ca 4f 7a 7c 94 67 9f bf
       0.15018457279456762 -0.030668563935776473
