car_ros2/car_ros2/losses/hahahaha.pth (torch, 124005 bytes, 4 tensors)

fc.0.weight f8 [300, 47]
00000000: b354 547f 0332 dc3f 0edd f0d8 0a40 b03f
00000010: f6e9 f6ad 3627 9e3f b37f b24b 96e3 6a3f
00000020: 546f 5619 3602 b0bf 4705 4661 42e0 653f
00000030: 038a b53a 0227 b33f 911a 12b8 62f8 a0bf
00000040: e3be c456 0ecc 88bf 1ede d2a0 adc2 a8bf
00000050: fe97 f90f 3506 d0bf 87b7 acf2 58bf b8bf
00000060: 41af 46f5 4c3f 9d3f b4e6 02c8 2d5c a73f
00000070: 0fd6 6938 aaa2 c0bf ce9b 7e68 3580 ba3f
00000080: 5376 2a4b 9277 41bf a795 a942 bce9 9bbf
00000090: 573f 7150 1e98 d53f 0a29 9117 2a37 7e3f
000000a0: ba0e db44 c087 d7bf d149 74d6 da86 b83f
000000b0: 2ed8 0ded c04b adbf 6fc8 b308 88ad 67bf
000000c0: 61e8 3049 158c 90bf b66c b533 fd0d cabf
000000d0: 03b4 40e0 265b 97bf f491 c50d 4a5d b03f
000000e0: 1897 d652 7fe7 97bf 8ed7 901b 9532 af3f
000000f0: 3dc2 05f0 7acb 823f 5427 0429 d987 c23f
00000100: e64a 6aec 6e1c b2bf e5ed 7854 8842 60bf
00000110: 18e0 d2fc 9f99 79bf 196f 3819 6fd6 e43f
00000120: 869d 85f3 0ef7 c33f b86d bf59 e05f bf3f
00000130: dd7e f6d6 b277 973f 8895 5888 8e2a 843f
00000140: 0000 0040 cd53 b83f 0000 00c0 293e ba3f
00000150: 0000 00a0 8f5e 8b3f 0000 00e0 b9ab 9abf
00000160: 897d 3705 95a0 d1bf 0000 00e0 a61b b6bf
00000170: 0000 0020 ad39 83bf fbd0 7c94 39e2 afbf
00000180: 886a 9466 8c22 9fbf d7fe 1ac6 4dbe c53f
00000190: ce31 4ff4 0b8d 91bf 9500 146a c0d3 803f
000001a0: 7161 9935 cb22 b3bf 4ff5 dc42 1dcb b9bf
000001b0: 0dc2 2bcd a367 bc3f 6a67 6494 c270 b9bf
000001c0: 45ad 17d1 69ab 9dbf f3df ef64 a7c9 b93f
000001d0: 9e57 57a3 9d3e aebf 69de c1ab 82f0 91bf
000001e0: ed35 9642 c9f4 a53f fbae c133 6e3a aabf
000001f0: cadf b876 7f98 8a3f e6e6 0630 8381 adbf
00000200: 694e d058 083c bc3f 0116 b1c8 4f77 cd3f
00000210: dcc7 2c87 83fc e13f 3a19 fe36 2d2a a1bf
00000220: cd99 5b69 9226 c3bf d5c7 54b3 466d aa3f
00000230: 267b a152 ce29 993f a863 acfd 26a9 50bf
00000240: c5b3 3f87 8b15 b53f ddf9 44c7 97ad 83bf
00000250: 6851 0a39 0e59 c2bf fb41 ef8d 3acb b63f
00000260: 5ba6 6100 813f b23f 5501 9cc2 f580 bc3f
00000270: 9bd6 5c95 39a2 a53f 69d9 9e06 5bfb b63f
00000280: 7d57 7b1b 9f36 0b3f 37da 87a3 674d 9c3f
00000290: 4562 1cf8 060e c43f 7735 3837 bdde c23f
000002a0: e6fe 5dcb f2dd d3bf 98ef 1be6 cabb b13f
000002b0: cd85 83a2 6d89 c23f 0000 00e0 ede5 71bf
000002c0: 0000 0000 14c1 b1bf 0000 0080 fddc c13f
000002d0: 0000 0020 dcd7 c0bf 0ae5 92ee 46f9 d6bf
000002e0: 0000 0040 ec46 b0bf 0000 00e0 e268 a5bf
000002f0: 4717 1b78 c9a3 cebf 527b 4f2b d431 b43f
00000300: 88ec 30af 0dee d43f 8043 5377 f550 ccbf
00000310: 98d5 ce02 3b45 c2bf 130a 4946 adbf b53f
00000320: 11cb 913e eea2 b6bf 8e60 719c 1d26 b9bf
00000330: 426f 0368 2807 a23f dffc 212b d362 bc3f
00000340: 2aec 7711 4f75 b93f 9961 ab05 15e1 903f
00000350: a6be 289c 5c11 c23f 5a3e a6c5 b32f b4bf
00000360: 3fed 486f 82f1 b33f da54 8b41 359a bb3f
00000370: 681c b179 032c aa3f 17fa c3cd 567a d63f
00000380: d7d8 9979 557d c23f eab8 f2bd 23f0 dc3f
00000390: 645c 36cc 7c09 b63f 04d3 b390 8392 c2bf
000003a0: ec72 4a9e e069 a1bf 77a5 f005 72fc c23f
000003b0: 7f1b 1f0a f5fe b63f ec9b 265f 7bc5 b33f
000003c0: 6b99 7ffb 3b11 bd3f 31bf 777b 4f41 c93f
000003d0: f53e ed10 b151 d0bf 783d 8355 8226 c6bf
000003e0: 0f9f 237e 44db 8bbf dd38 0661 9041 bb3f
000003f0: be24 a600 4e7e b5bf fbd6 b345 490f d33f
00000400: 1596 72fd 8695 bcbf 08bc dfcd ef24 c6bf
00000410: 7dd3 66f1 1c23 863f ebd7 3465 c3b5 c43f
00000420: 832c 96ca 1303 c33f 2565 91cc a2a4 dabf
00000430: 0000 00e0 1f7e be3f 0000 00a0 0819 2d3f
00000440: 0000 00c0 1529 b83f 0000 0040 ea84 87bf
00000450: e083 2216 f332 bbbf 0000 0000 e91a 923f
00000460: 0000 00c0 89b0 a3bf cb91 1bcf 7a66 c53f
00000470: 5aab 167c c293 c0bf 355d 1c19 a9de ccbf
00000480: 3ed8 2652 2108 cdbf 06fd 6ddc 086b d7bf
00000490: 54e4 f0a8 2f3c d63f 9158 aafc 8287 9a3f
000004a0: 2634 27f7 328f e13f 20c2 65b1 8a07 c8bf
000004b0: 5d0d 3bfe 3508 e03f 6c26 3301 9dd5 d23f
000004c0: bfe6 af42 5778 be3f c95f ab7f 9ad5 b03f
000004d0: c8fa 46d0 d465 4dbf b05d a03e 26b8 c2bf
000004e0: cf7c 668b 38ea d1bf d79d 7505 8f63 b4bf
000004f0: 532e 2aca 7f33 bbbf fe59 1feb 14c4 ca3f
00000500: 0255 14e7 dd89 b73f b2c4 dceb ffa9 c93f
00000510: 1fc7 d4cc 8c89 9e3f b358 cfcb b242 de3f
00000520: 0302 0781 228f b5bf 38bc a94e 82d8 cfbf
00000530: 5fb9 2eb9 76b7 cebf fbcd 7618 3f2e 84bf
00000540: 8ad7 aa5e 469f c3bf 7568 d817 58a8 b7bf
00000550: 9b6d 7216 ddd8 ba3f 1f6b 071e 68dd 793f
00000560: 7a70 39c0 37a2 9b3f d6f2 8596 c80a c93f
00000570: c641 bcb8 bc52 af3f 770f ba24 fc66 c4bf
00000580: bcc6 f9a8 a591 bfbf 5382 3b55 fe44 bfbf
00000590: 7e3e c059 3906 c73f b363 0246 f11a d3bf
000005a0: 3383 53a6 62fd c73f 0000 00e0 9708 ba3f
000005b0: 0000 00a0 aa78 9b3f 0000 00e0 811c c2bf
000005c0: 0000 0000 94d8 bdbf f0f1 e7e1 8527 d5bf
000005d0: 0000 00a0 ac3f 99bf 0000 0000 b619 863f
000005e0: 571d 3256 ec36 c9bf 7979 7b27 9aee 953f
000005f0: 2e5f d6bd 7e09 b0bf 6f09 a0ea 907c d0bf
00000600: d4ad d518 fa45 cf3f aa4c cf55 4e9e cfbf
00000610: efe7 5faf eae9 b2bf 5d50 a27c 519c b6bf
00000620: 264c 21b8 44e3 bbbf 4ca3 5cb8 397c d3bf
00000630: 81f5 f1ea 11db b33f e551 db57 aae6 be3f
00000640: 18f0 826c 7e8a bdbf 86b5 e633 312a c63f
00000650: 9f1a ad18 28ef bfbf 235a 2a17 b18f b9bf
00000660: b294 d996 23e4 b53f 0e09 60be 0137 d83f
00000670: e848 9e94 892b c4bf b6e4 6559 753e d33f
00000680: 71be c044 518b c93f dc44 f767 e2aa c9bf
00000690: 76fa 8f8d d962 a03f d9bd 0f95 3fae d3bf
000006a0: 4e26 ba74 86c4 cfbf d8c2 0a6a 4efa 7bbf
000006b0: daf1 4a29 07dd b03f 17ec b14b d8be da3f
000006c0: c16e 265d b6fc b8bf ff57 d425 4596 853f
000006d0: b128 d47d 435c c43f c0f2 5a3d beda 84bf
000006e0: d2fa 4fb1 82c6 d1bf bc97 1d59 4f63 8abf
000006f0: 46cc 18e4 aa61 cdbf 6668 82e0 a96e 91bf
00000700: 382c f355 487f bf3f c3c6 24ad 36c0 d9bf
00000710: bc09 bd93 9798 b93f e3c5 0863 5e8d e13f
00000720: 0000 0080 a37c b13f 0000 0000 3c53 853f
00000730: 0000 0000 9c12 963f 0000 00a0 fc07 813f
00000740: 44e6 bc57 3d73 c9bf 0000 0080 bfd2 c1bf
00000750: 0000 0040 ae32 b3bf 5722 ffa5 434e a13f
00000760: 6662 31f6 d38f 9dbf 473b 50de 9a49 82bf
00000770: 0843 c8d4 c45a c0bf 04f3 490f 4471 803f
00000780: 8ba0 0b0c 8b17 83bf ec1c ca83 5478 9dbf
00000790: 9382 bdb2 f77a 7e3f 814c a9eb 3916 acbf
000007a0: 5fe1 69b6 6986 9abf c4f5 7887 eab7 d8bf
000007b0: 1788 c59d 6854 c0bf b29a 6e8f 3cd1 a23f
000007c0: 3405 5d52 f2e3 b5bf 4739 e67f 7015 b0bf
000007d0: b720 c9ab c861 debf 04e4 9ad0 b3f6 b43f
000007e0: 672e 6fac 8c0e 93bf 56c0 d52d 1409 e6bf
000007f0: 08f9 e8ba c73a a03f 4997 0c40 de19 ecbf
0.44055259165299815 0.06347720905693086 0.029446462982130904 0.003282350107454557 -0.06253374212832102 0.0026704117282753434 0.07481397565201324 -0.033145031899995854
-0.012107955954518917 -0.04836027706317857 -0.25037886200004766 -0.09666973042177861 0.028561785192933845 0.04562514368576612 -0.1299641395050206 0.1035188083757099
-0.0005330528568554073 -0.027258817261459758 0.33740957122517073 0.007376827642540338 -0.3676605865877992 0.09580772147845741 -0.05721857923246919 -0.0028903633989268355
-0.016159374801852148 -0.20355191254461652 -0.022808654248525084 0.06392348133301323 -0.023344029837651353 0.060932788481678476 0.009177170228867765 0.1447707605623757
-0.07074635764937973 -0.001984850186799158 -0.006250023795637126 0.6511760227763005 0.1559771241256664 0.12255670729739776 0.022917551393787917 0.009846795593214677
0.09502871334552765 0.10251103341579437 0.013363954611122608 -0.02604570798575878 -0.2754261542267718 -0.0863594338297844 -0.009387352503836155 -0.062272834182666124
-0.030405229340525725 0.16987011120908477 -0.017139612947902276 0.00821638416027807 -0.07474966105053739 -0.10075552828216881 0.11095641860061552 -0.09937683222633856
-0.02897420252513185 0.10073324407846922 -0.059071470440968485 -0.017519036992295876 0.04288319528414406 -0.051227039163533626 0.012986179171193064 -0.05762872658983813
0.11029102485945831 0.23020360278512444 0.5620744362006422 -0.03352490707679796 -0.14961462158608044 0.051614961043369746 0.024573539536841292 -0.0010168915529844367
0.08236000110601001 -0.009608445900650625 -0.1433427599446404 0.08903852429580887 0.07128149279892552 0.11134277344900075 0.04225330303453952 0.08977288161881848
5.190537507153337e-05 0.02763902602779408 0.1566780768851165 0.1474224586130892 -0.3104216562278296 0.06927173726938773 0.1448189776920529 -0.004369668196886778
-0.06935238838195801 0.13955658674240112 -0.13158752024173737 -0.3589646653959596 -0.06358219683170319 -0.04181584343314171 -0.2393733822302073 0.07888532693276076
0.32702962978846317 -0.22122066809108887 -0.14273774754626056 0.0849560066790576 -0.08842362430167962 -0.09823784894376983 0.0352108599633696 0.11088294795080199
0.09944624115443959 0.016483620139156583 0.1411548388000387 -0.07885287833618673 0.07790389267841123 0.10782177782251115 0.051117046933136845 0.3512169846943904
0.1444498866800987 0.4521569590532538 0.0860822676244069 -0.14509625020550498 -0.03401090557347239 0.14832902231254838 0.08982783791644343 0.07723208497064576
0.11354422464464668 0.1973056176061561 -0.2549860635090078 -0.1730502049963254 -0.013601813411198841 0.10646917694814158 -0.08395850673527414 0.2978079968155353
-0.11165660560308084 -0.17300221970023721 0.010809160344118269 0.16179697457999906 0.1485314120476212 -0.41629857995356395 0.11911200731992722 0.00022199850354809314
0.09437690675258636 -0.01148398406803608 -0.10624617853547091 0.017680779099464417 -0.038456253707408905 0.1671899329441103 -0.12950926836978277 -0.22554506040681024
-0.22681061278643883 -0.3659078743584846 0.34742347238676996 0.025907560988877313 0.5487303569040065 -0.18773015653597813 0.501002308410914 0.29428792111557445
0.11902375581839929 0.06575933091096355 -0.0008971490029166746 -0.14624479349070674 -0.27992070782961503 -0.07964414485251524 -0.10625456510222735 0.20910893898572164
0.09194743053042845 0.20050047890393824 0.029821586610700664 0.47282094863238483 -0.0842153134353865 -0.2487948307129686 -0.2399738697253708 -0.009853833135685433
-0.15329818365506426 -0.092412477323167 0.10487157629034131 0.006314665516095968 0.026985999209828006 0.1956415877320043 0.06117810969419994 -0.15939285081196505
-0.1233161485231688 -0.12214650708075085 0.17987744219179896 -0.29851943814133647 0.18742020722768302 0.10169362276792526 0.0268274936825037 -0.1414949744939804
-0.11658596992492676 -0.33053729115616104 -0.024656960740685463 0.010791227221488953 -0.19698862274911264 0.02141800752621623 -0.06264488348676586 -0.25760291016208375
0.24432302677756346 -0.24701861562661992 -0.07388178617102857 -0.08832272808860027 -0.10893659110415452 -0.30445712093437716 0.07756149278607972 0.1207071747297231
-0.11539449834066351 0.173162603704821 -0.12474299051710112 -0.09984881225168656 0.08551237519130231 0.3783573493129929 -0.15757865673783233 0.30068715791965006
0.19956413132739528 -0.20052747799358073 0.03200416424805479 -0.3075102763823146 -0.24818497371261333 -0.006830507569859555 0.06587261922954415 0.4178982485970563
-0.09760608457730326 0.010540523735965477 0.1590656628034757 -0.010182844397939816 -0.2777411204878436 -0.012884731204120807 -0.22954307687322933 -0.017023710563627857
0.12303592775713035 -0.4023567858558687 0.09998462063689478 0.5485069212210728 0.06830808520317078 0.010412663221359253 0.02155536413192749 0.008316014893352985
-0.19882933410717574 -0.13924401998519897 -0.07499207556247711 0.03380023385358715 -0.028868972684309567 -0.008929452809778872 -0.12777004613646903 0.00802853747995292
-0.009322248749825476 -0.028779335540574033 0.007441489764318593 -0.05485707284665243 -0.025903369673387796 -0.38622534970985734 -0.12757594779674328 0.036752598294062536
-0.08550943861793742 -0.06282714006940636 -0.4747182538599292 0.08188937991043593 -0.018610189461283257 -0.6886082549299413 0.031698457304161265 -0.8781577349625219

fc.0.bias f8 [300]
00000000: 6ff5 dd54 7775 b6bf b5ca 25bd c757 c8bf
00000010: a0f0 7517 4a25 923f eff1 e7c1 f71a d5bf
00000020: e2cb 79cf 2a55 b1bf e01a b4d5 ab8e bebf
00000030: b613 7ac4 f3b9 e03f 0f23 92fc 374d f83f
00000040: c793 516a d33c b03f 574b 3f91 cc13 b1bf
00000050: 3221 a2da 05d8 c2bf 90a9 9004 c697 aabf
00000060: 99cc 1977 f75e ca3f 048a 1fa5 8bd7 d2bf
00000070: 1b65 4d9d a1e5 d5bf cbe1 3fef acb4 b8bf
00000080: fccf e4cb 58f6 b73f 6b08 a73d 618a b93f
00000090: 732c 9e76 f6d1 e63f 1cb5 aed4 33a0 9b3f
000000a0: 67bb bfdd 7164 b7bf 290a 2303 b656 d0bf
000000b0: 0363 e970 7873 bd3f 60eb f2b3 b800 cdbf
000000c0: 0d6e 14f1 2d0d 99bf 27f3 fbbe 8b17 e3bf
000000d0: d4fe 1c6c 5a6d de3f 4ce1 bc55 ef92 b33f
000000e0: be4a 0839 9626 bcbf db1a db74 4598 acbf
000000f0: ab07 5326 d98d d6bf 280f 25d1 a80e cfbf
00000100: 2f76 8ca7 a1e2 913f 92b2 03ae c0b2 d9bf
00000110: 38a4 7164 641c 7c3f e31b d6d8 6b12 dabf
00000120: db2a f7ff 6033 d2bf 21fb 35b6 4696 a7bf
00000130: d80d 91df f447 d5bf a3f1 8452 27c8 c33f
00000140: faa1 0bce 7d80 b9bf 9ba4 bdd2 c431 df3f
00000150: 580f 61a0 fe4d d53f e92a b309 d8cc bf3f
00000160: a454 ff57 a3c8 db3f a284 3ffa f209 ccbf
00000170: c695 9126 3452 ae3f aa3f 0b87 ebcf d7bf
00000180: 781e 3217 a4b1 b13f d9f7 942c 2213 d33f
00000190: 2267 c7c2 8781 d03f e000 176a 84ef 81bf
000001a0: 1445 5c6c dc17 c8bf 3a2b 5f73 f1a3 de3f
000001b0: 4d0d e601 9452 983f 9150 6d78 7e69 c43f
000001c0: cc3a d5e5 27eb e1bf b643 885e a2d0 a7bf
000001d0: a707 0486 e15b d23f 3e8a f9ac 6f5b c03f
000001e0: fedd 86c5 a660 d6bf 385b 720d 9c48 ee3f
000001f0: dcd3 f353 3b79 af3f 2288 948e be4e b33f
00000200: ff12 6c43 a1c2 b8bf eb91 b54f d91d de3f
00000210: d3bc f3f3 02e5 dd3f 8fe0 aa48 ed1f a93f
00000220: c7e1 b53e 0f87 ce3f 764c 5d59 5ff8 d23f
00000230: a8ba faa3 2a0c c5bf d3ab ac21 9572 d9bf
00000240: c766 5920 b7c2 d43f 1de7 b11a 08ed d4bf
00000250: 38a1 18d8 01d6 c5bf bcef bb7d 800c e1bf
00000260: 639b 0fae b80f c4bf 66db 4d5e d124 efbf
00000270: 4185 5a8a 19fa f13f 53e3 e5df 7c66 bebf
00000280: e083 49c7 6342 b9bf 2078 61f7 5931 c8bf
00000290: 6756 d971 7581 d4bf 0a5e 6023 5987 c9bf
000002a0: e183 5f0b 1d21 b23f d6a2 1ab7 e557 c93f
000002b0: 40e0 a620 207f fabf e85a 7708 ec35 d8bf
000002c0: 057e d9b4 3fc0 a7bf 1cb3 f635 5a51 c0bf
000002d0: c7d5 2070 afc8 c93f cebd 0102 6dd1 a23f
000002e0: dcc4 338e 8d16 bcbf 5aa2 4166 6233 a4bf
000002f0: 2d2c 7686 83e8 c73f 3baa c152 80f7 de3f
00000300: bd7c 72a0 d4de c8bf e518 e4f9 b1e3 aa3f
00000310: bccf 922e 0a4c c7bf c651 7310 8b7d bebf
00000320: db5a 106b 88f5 ac3f 2fd1 b6aa e916 9ebf
00000330: 5529 186d 45db b1bf 4e3e 2503 e702 c7bf
00000340: b270 d9f0 0b63 ce3f 0bb4 d2ae 9cd7 e73f
00000350: 87b2 3129 b93a d3bf eb55 70ff 3360 cc3f
00000360: 1b3f f6f4 2dd6 debf 5c35 b97b c84f c63f
00000370: 37dd dbb3 10bd d63f b985 84b4 5e52 c7bf
00000380: b1c3 5f72 3dbc d33f c9cf 6664 1c7d e13f
00000390: 4df8 4122 ba3c cbbf 5899 ed72 599c f13f
000003a0: 7cf1 53b4 3637 d2bf 4006 ddad 922d bebf
000003b0: d69b fa89 3d4f ebbf 6933 647c ed91 c5bf
000003c0: 7b27 c4bb f947 e8bf 5dde 639c 9ddd 61bf
000003d0: 37ea b602 b02c a13f 46b6 9a18 ac9b d3bf
000003e0: 462a 7e60 cceb b5bf 09c1 9381 3ddb e23f
000003f0: a4bc 8264 bb87 d7bf afb7 4877 dae2 b6bf
00000400: e22f c4e9 ff5c a0bf 92e2 0da2 968d b63f
00000410: ab91 4f58 943e 8dbf 8fe2 0bce 3b2c f2bf
00000420: e6f1 d369 64b8 d1bf 6b69 7863 2e5c a83f
00000430: 6875 043e 390f cebf a2bf 8f95 eaa5 b03f
00000440: 5334 4e89 497e d5bf 0b3f 0b1f 1f2e c13f
00000450: dd2b 80d2 d9c2 c8bf 5d8d 5ed7 d289 cbbf
00000460: a19d 3d62 83b7 f03f 0972 dfac d2c3 f9bf
00000470: 5be1 4420 a665 e03f 07c1 2181 7ec4 c33f
00000480: 8956 084b ed73 a13f 8ae2 5118 51bc 9fbf
00000490: f786 1d8b 1107 d63f 7072 a8c4 620b e0bf
000004a0: e88d dace 59c8 d7bf fab3 d48b ee5c b73f
000004b0: 8dd8 7c92 9642 bbbf e817 4a08 54f9 b23f
000004c0: 3781 4f27 acf8 d2bf 7197 e1d8 0d26 a23f
000004d0: 79b7 7604 be4c c43f e1e3 1443 f631 b8bf
000004e0: 844c 4518 3dfb bbbf 1991 0838 6ed0 ed3f
000004f0: f659 ae0f a2eb 873f 95a3 1d72 5faa d6bf
00000500: 0b22 7ab1 740b c5bf 25e4 863b afb3 c7bf
00000510: 0db2 eca1 35bf ccbf ee28 ecdf e18a a13f
00000520: 27bc 6468 97ca f13f 5957 fa37 c263 d9bf
00000530: 7b7c 2717 6c5f babf d49d e7c7 dcf3 d13f
00000540: 7086 b388 bb04 babf 865f 7bf9 a596 c9bf
00000550: d9a7 e6a7 3e3a e4bf f39a 7c7e 5416 f2bf
00000560: 2f31 bdb3 f381 9c3f 0e6a 683b 118d b3bf
00000570: d915 f753 c298 ee3f c02b aaa2 4365 d03f
00000580: 9d06 fb12 0b2d d0bf 91da 68ba beb2 babf
00000590: db28 e571 e209 d13f f026 c5d8 f543 f73f
000005a0: 1355 6f5e 3feb cdbf b1c9 a837 da38 cc3f
000005b0: 537e 6cf3 2c82 c4bf 5c67 6df9 9220 a3bf
000005c0: dcf6 fb91 0d35 c3bf 5d83 cb02 b20f 99bf
000005d0: 759b aac6 9d66 c83f 177d 0d88 43af a9bf
000005e0: dd9c a8f5 dc25 cabf f19b b84c e030 a9bf
000005f0: cb43 67ea 916c 8b3f 1635 0fbe c8da e2bf
00000600: 1eb8 441e 6f08 d4bf 7073 e975 b8b3 f1bf
00000610: f90f dcc3 6a5e f23f 29a1 de6f e69b d63f
00000620: 07a0 a2e8 1b58 bdbf 913f 33b1 a20e e7bf
00000630: a22c fbd8 f957 f0bf ec71 c208 568c e43f
00000640: 8183 2ce6 0771 a3bf 49d1 f0a6 7a9c 853f
00000650: 4197 1dad c0c0 c1bf 042d 0cb4 8330 b7bf
00000660: 0078 be0b 2a86 c6bf 4f5f 9844 c0d0 c6bf
00000670: 320d 8601 140e f7bf 5c89 205d 2cc4 d23f
00000680: dec8 3638 2978 e63f 6d86 acad a564 c43f
00000690: b86a ddfe c4d4 933f 350f ea59 f983 d5bf
000006a0: 510a ffa7 639d fb3f f7c8 96c7 fa83 70bf
000006b0: befc 7d88 5009 bfbf ff07 0448 8e5d 903f
000006c0: e41b 2c68 b339 eb3f db01 0edd e625 c6bf
000006d0: 264a fc2f f927 c2bf d920 004e 9afe d1bf
000006e0: 8e7e c6e7 a7ed adbf a593 8e1e eaeb c4bf
000006f0: 6808 e184 95f1 d4bf 1d0c 4d30 5221 8e3f
00000700: 430f 34af 5616 9fbf e967 aafe 7ecc aebf
00000710: 8e64 c655 a361 d8bf c59c 4b8f 4a71 c3bf
00000720: 182f acb0 06a3 e2bf 336e 54f9 c8a5 c4bf
00000730: 5267 31bd c4e8 e23f 80ce 374c c770 d2bf
00000740: eff2 623d f93c c7bf 3950 bde4 fa45 b13f
00000750: 05de a16c 49f8 cebf b0c7 8f6f 80ec d6bf
00000760: d1ae ae45 1be9 b83f 2161 4052 6690 8b3f
00000770: 6dcd 0c7e d8e9 e4bf a29e 42d1 a5cc cabf
00000780: d9c5 ec16 55b3 ee3f 6c86 57a9 0fb3 b03f
00000790: ec24 f9f5 5b91 78bf 5463 d72e da0a a0bf
000007a0: 9f99 be9d 347e c53f 7cd9 c5f7 cc31 bb3f
000007b0: 88f6 8a96 2e17 cc3f d7aa d375 67b7 f6bf
000007c0: 9b45 4792 6ffb d13f 80cd 6016 5ef4 a5bf
000007d0: 0255 6d2d be16 b9bf 17ac abf7 bdf5 bb3f
000007e0: b075 1602 e76a e33f eeb0 88fb 6059 c4bf
000007f0: a352 1d53 6e40 d23f 6a4c b2e6 3f0f b03f
-0.08772989103268512 -0.19017884002422183 0.01772037285034911 -0.3297709840406062 -0.0677057987721095 -0.11936449019786322 0.5226992452086197 1.51885222111213
0.06342812867803992 -0.06670836015773084 -0.14721749473052054 -0.05193918996549762 0.20602315249889072 -0.2944058525592086 -0.34214058267169073 -0.09650688973477554
0.0936027047908396 0.099767758895753 0.7131302181964102 0.026978311401468877 -0.09137641586106114 -0.25529241854033785 0.11504318958885666 -0.22658451830451565
-0.024464338149398347 -0.5966242532882448 0.47542439039169193 0.07646079867561645 -0.10996378795997949 -0.05584923793280946 -0.3524077295552341 -0.24263487064501388
0.017466092921600115 -0.40153519624326706 0.006863014371540514 -0.40737434554506374 -0.28438591953879006 -0.046068391554390915 -0.3325168784396886 0.15454570321334157
-0.09961687355428941 0.48741264896541175 0.3328854147150557 0.12421941983044928 0.43412097543234496 -0.21905362338205686 0.059220914562313307 -0.37206543147930893
0.06911683622649345 0.2980428157205757 0.2579059030664316 -0.008757624137502196 -0.18822818079983306 0.47875629679463183 0.02375251065815336 0.15946942215180518
-0.5599555481838592 -0.04651362804373298 0.2868579682109335 0.12779041238816718 -0.3496491364453219 0.9463634741431184 0.06147179984865378 0.07542029362642258
-0.09671981712387988 0.4705718305979462 0.46710275481650604 0.04907170784048375 0.2384966903880594 0.2964094517421424 -0.1644337940865246 -0.3976185635426052
0.32438448104003864 -0.3269672642414763 -0.17059348155567888 -0.5327761131043114 -0.15672977923460527 -0.9732443658711929 1.1235595135152183 -0.11875133959064259
-0.09866927733811748 -0.1890060861505285 -0.32040153616012507 -0.19944299914708125 0.07081777122176859 0.19799491348864845 -1.6560364985907796 -0.3782911379507099
-0.046388617349972384 -0.12748267779297684 0.2014369294644622 0.03675404214379406 -0.10971913072332334 -0.03945453165289754 0.1867832571554983 0.48385627824487515
-0.19430024942719185 0.052518426660798125 -0.18200804971786322 -0.11910313750860899 0.05656076723987776 -0.029384280247272073 -0.06975206292569187 -0.1797760739668654
0.23739766369079046 0.7450698294175039 -0.30045918486465734 0.22168588612173265 -0.48182248041210735 0.17430978814301568 0.3552896267351175 -0.18220123113955625
0.30836425942748763 0.5465223275154979 -0.2127907435678388 1.1006712426547747 -0.28461997614046886 -0.11788288826667159 -0.8534228987599544 -0.1685158593540124
-0.7587860743817453 -0.002180869897639144 0.033544063884125945 -0.30637648012893626 -0.08562924724370999 0.5892627268604268 -0.36765942397591744 -0.08939900791366882
-0.031959531103069386 0.08809796768572145 -0.01427951712134575 -1.1357992218674189 -0.2768794091678316 0.04757828678357864 -0.2348395874804894 0.0650316825046944
-0.33583296211947306 0.1342200185376828 -0.19344637659409517 -0.21514354244309689 1.0448030316855255 -1.610308337482936 0.5124083166365766 0.15443402581468765
0.03408757725644047 -0.03099180899559654 0.34418142877085195 -0.5013898697830665 -0.3716034431510864 0.09126177705611829 -0.10648480488166197 0.07411694719675632
-0.29642776335642246 0.03544657967067522 0.1585919877811042 -0.09451235902532985 -0.10930234758898122 0.9316931814578623 0.011679903129146556 -0.3541487326061142
-0.16441210428116934 -0.18517103582942798 -0.22458525091623507 0.03426271303585958 1.1119607999678551 -0.3967137858065733 -0.10301852765359058 0.28050918123196067
-0.1016347130530677 -0.19990992242560085 -0.6321099547687893 -1.130451673592401 0.027839477391624342 -0.07637126636874589 0.9561473503060213 0.256180676319385
-0.2527492223126531 -0.104289932737496 0.2662283050782556 1.4540918796141646 -0.23374168501929002 0.2204849979185162 -0.1602226437180315 -0.0373578958012348
-0.1500565493405962 -0.024473935528365732 0.19063160133847715 -0.050165281637186414 -0.20428049082804636 -0.04920102058922982 0.013390674558566481 -0.5892070495698671
-0.31301477390195653 -1.1063770872053418 1.1480510378614766 0.35326538967867066 -0.11462568692752494 -0.7205365620557008 -1.0214785075975574 0.6421308680615403
-0.037971731994054465 0.010552366466165213 -0.13869484379682187 -0.0905840220040553 -0.17596936772764593 -0.17824557637572488 -1.4409370479123251 0.2932234677738472
0.7021680925302254 0.1593215082184999 0.019366338782996734 -0.3361800554341586 1.7259251177171289 -0.004032115562426101 -0.12123587925269683 0.015981887002460834
0.8507935556998487 -0.1730316714638452 -0.14184489100496583 -0.28116471879230925 -0.05845379547394912 -0.16344954006231407 -0.3272451207777807 0.014711992358234888
-0.030358652537884067 -0.060153931223979225 -0.38095935226881117 -0.15189487454265396 -0.5824006510387987 -0.16130935835177382 0.5909141249823995 -0.28813345378078026
-0.18154826638592378 0.06747406086407261 -0.24195211223899107 -0.3581849183529995 0.097306923401159 0.013459014306179075 -0.6535456144251107 -0.20937035291466538
0.9593911597968897 0.06523225673984151 -0.005998000356677507 -0.031332796304644944 0.16791398718232828 0.10622864770070878 0.21945745802615968 -1.41977640176872
0.2809714249134118 -0.04288000128908731 -0.09800327881869822 0.10921847626347901 0.6067996063972512 -0.1589776256745447 0.2851825534501506 0.06273269064176792

fc.2.weight f8 [3, 300]
00000000: 8c27 6cf5 5e1b e63f 26ee 06cc 5d7f d23f
00000010: ab49 7914 e0d7 a13f 6902 f77d 11af 733f
00000020: 48fe be2d 2abe aa3f 642f 4c2f 6eca f9bf
00000030: 9c99 7718 5f3a c1bf 1b93 c3cf de16 bf3f
00000040: b7cf 4f46 df05 dcbf 6cee 489a 2634 a1bf
00000050: 2754 9b30 dd7f cf3f 5d5c f374 87e6 cebf
00000060: 53eb 9bb0 e067 cdbf 8e5d 8b8a a4fa ef3f
00000070: 916b eb26 d755 87bf f742 df33 a544 ccbf
00000080: 81f7 9f2b ff8d be3f 6498 3148 97c0 b1bf
00000090: 8552 4c1d e6f0 b03f 33b2 07e1 c4b7 a13f
000000a0: b2c7 e51b bc68 d4bf 0f99 ce78 9c72 943f
000000b0: 11be 25cd b3e0 ddbf 9d70 309a 8d20 a6bf
000000c0: 78ae 98f2 597b a53f 5fd4 9f67 97c1 c53f
000000d0: ffe5 e87d aae3 a0bf 9ba3 8795 1e4e bbbf
000000e0: cbf6 5ebf febd d0bf b37a 35a2 fd8d a6bf
000000f0: 9ac8 845e e49f b13f dc0b 6542 f59b c6bf
00000100: b039 c476 f4fd f93f 45f2 44fb 1912 8ebf
00000110: 4d3b 4610 77a8 e23f ac46 a384 77a8 babf
00000120: 1dcc b1ec b27f 833f a3ea 7192 34eb e63f
00000130: aeaf 058b dda3 d6bf 5aa0 dbee 5c87 bd3f
00000140: a0ed 4152 2b5b f0bf 7b6b fb62 a41e b63f
00000150: 2e74 b21a 7f93 a83f 66bf 0b88 2781 ea3f
00000160: 783c 99f4 94c4 83bf a31c 3b3c dcf7 a93f
00000170: b99e 1db0 754b b2bf c6c0 0ba9 c5e2 663f
00000180: c798 5389 d7d4 d53f 0085 3a26 c0c2 b1bf
00000190: 7130 a4e9 d444 493f 543e 5309 57e7 d73f
000001a0: 0073 b8d6 0687 a23f ab8c dbef abc0 c1bf
000001b0: c307 fc2a d553 953f 14b7 d0bf bce7 c8bf
000001c0: 1217 aa98 1bb1 a13f ec6d 4fd3 300e cfbf
000001d0: 27e4 3b34 9857 c23f 6397 56d3 b42d bdbf
000001e0: 1a92 9d86 7032 d23f 0321 80c2 4eac afbf
000001f0: ad4f 3643 f869 cd3f 61e4 9f31 8298 f3bf
00000200: 8404 cd2e 6148 f5bf 4be4 0686 ea51 c2bf
00000210: eb12 1164 2580 b03f b2ff 5e87 e619 d6bf
00000220: d88e bd8a d713 c6bf 4f35 c77d d2e5 be3f
00000230: 7f92 7254 e382 d63f 56c6 e271 a592 9dbf
00000240: e8c0 01a9 8260 b2bf c389 a89c ed81 a23f
00000250: 18d9 447b 4ac6 ae3f 2a48 2e9e c3a6 91bf
00000260: fafa 4248 03db 94bf c80a 39ee 2822 933f
00000270: 87da 0549 1a81 b23f fcf1 bce9 ff2c e33f
00000280: 809b 2c7b f4a0 8fbf 5af5 c69c b906 ddbf
00000290: 2286 6f63 d1cb f03f 0c89 bdc1 767a 7bbf
000002a0: a428 ba96 c32f d13f ec17 3044 e4bf 43bf
000002b0: a8b8 4652 5eb2 3abf b9f2 787f c9b6 b2bf
000002c0: f51f b327 3422 d43f c737 f9d8 c426 913f
000002d0: 9d97 ef8f d487 c83f ec35 017c 1fab c6bf
000002e0: ab9f fb16 f594 c23f ff8f 5e42 3410 afbf
000002f0: a387 b282 8fb5 aa3f 7016 8b1b dd05 ba3f
00000300: 438b a151 dde5 e73f c514 5185 4fa3 9c3f
00000310: ce84 05ba fe7b f63f d5bc 5666 1815 703f
00000320: 4a30 f100 bb9d 95bf 7cf1 e5de c06e e2bf
00000330: 9319 39b3 f36d aabf 54e1 88c2 6877 9a3f
00000340: 73f9 bca6 7569 c63f 46ca 5795 3f00 a33f
00000350: a239 9a6e cb01 89bf 02e6 59a5 1626 c3bf
00000360: 5084 8c6c 80d9 c53f b3ad ba8a 38f8 b5bf
00000370: f390 0153 e410 d5bf 8541 471f 2565 d63f
00000380: 80a7 fcde 8d8c d4bf f234 5a22 c2a2 a0bf
00000390: 7ba9 07f5 9e49 a8bf 6233 6860 2755 b5bf
000003a0: 4ff0 efe3 d899 9c3f b72b 17f8 d6b0 a03f
000003b0: eac2 5e0d b684 d03f 9d31 8c55 b5b8 803f
000003c0: eb88 07d3 944a c0bf 2990 a59a d1f0 c23f
000003d0: 9a98 f927 0fae 983f 9d68 f86c 85c9 b6bf
000003e0: 2289 c191 acff 51bf f738 e350 3a08 cf3f
000003f0: a0b6 f9ea 0ee7 ee3f faec 1586 d454 d4bf
00000400: e0c0 8e28 80bd cbbf 86b8 58ea ad6e 6c3f
00000410: bcc3 738b 3f36 da3f a97c b5bc 9f0c a4bf
00000420: 745c 1e21 d2e3 af3f ee9f 4b09 8891 b1bf
00000430: 6431 bfd1 a96d c6bf 239f b0c9 c264 cc3f
00000440: e6ac 68be f600 a2bf ca8c 2242 97d9 f33f
00000450: ae96 80f2 4f45 ddbf 9bbc 53b0 e896 e5bf
00000460: 8271 11bb ca85 b3bf 026f ed49 9731 833f
00000470: fbc3 83c7 316a babf 07e3 2d5d 7496 9c3f
00000480: 9c03 c373 4b53 b3bf 8cd3 fce7 43d1 d1bf
00000490: d48e acfe 944e 803f a82d b1e9 ef97 72bf
000004a0: 34f8 f4c6 837f b6bf 24bf 97cc 4573 cabf
000004b0: f50d e7bd e83c ebbf 7f55 b091 76d6 7dbf
000004c0: d8e6 1603 6d07 babf 35a3 f6e9 527e da3f
000004d0: 7599 6f39 d7a5 923f 7473 a7a6 6069 d93f
000004e0: 10ec 875c 7f13 e7bf 8aff a61c 809f a53f
000004f0: ace7 9dc3 ff51 85bf f95c 66ec 0491 f0bf
00000500: e7c0 0e3a 4fe1 b0bf baf8 0e9d 4d3c c13f
00000510: 81e5 35df 9b0a f03f 73d6 aded afc2 e0bf
00000520: 672f 0816 331a 82bf 3ea2 e66d 043a a43f
00000530: 70a8 fe6a f0b4 ee3f f4fa 3237 a5d4 a8bf
00000540: eb3d afa1 d27e a43f ce0d c7ae 6dc3 ca3f
00000550: 089c 4ca0 0d28 863f e0a9 b88b 0aed 99bf
00000560: de66 7643 b3d8 973f 6a6f 6d59 4e2a 7a3f
00000570: 77ba 3af0 2408 bd3f e7d6 66ec ee55 ca3f
00000580: 3057 9805 ccaf b13f a3ef 7eca ef71 c0bf
00000590: 01e6 392e cbe7 c53f 45d2 ba8d 6846 a5bf
000005a0: 10d3 831b c7ad 803f 685f cf1d 93d2 c63f
000005b0: 9468 96ed 3f0b 973f 9d8b d37a af14 c6bf
000005c0: 7fac 0015 6809 b6bf 19b4 4d6d b31b a03f
000005d0: 163e 0bd5 1eab da3f a22c 7949 1bcf adbf
000005e0: ed1b 326b e3d9 c73f 2506 d8f9 022a a63f
000005f0: 7e17 1b6e 96b9 973f ab7f 4f56 7bc5 c3bf
00000600: 0f93 2f72 d316 f5bf 7568 944f 96c5 a03f
00000610: e414 1d00 5d36 b23f 709a ddc5 1457 b1bf
00000620: 08da 1176 1c8f aebf 4427 6166 a21d 943f
00000630: 151f acda 37d0 b23f 9233 7ef6 a32a 983f
00000640: 68b7 ed70 e9d9 46bf 3307 501a 1e5e 90bf
00000650: ee1b 834f fd73 a5bf a862 da8b 2898 f4bf
00000660: 5306 e794 ffd1 e13f 3ff8 2216 8caa ccbf
00000670: a5fd 59cc 3368 b4bf ab0f 16e5 ecd9 8d3f
00000680: 2f6b 72d2 998d c3bf fccc 94e2 bb72 e9bf
00000690: 5843 3988 9b15 a73f 04ce ab4c db46 a13f
000006a0: 060e 43f2 675f b33f ee6f 6b67 d3b1 bb3f
000006b0: c214 f747 adcd d5bf b89d ed92 c692 8a3f
000006c0: 9256 4511 a1ae a73f b122 7e3e 4e38 b23f
000006d0: f850 9b91 c210 ab3f cc4b 98c3 b88f a03f
000006e0: 22f6 7940 f482 e8bf a24e 9c36 55c9 e0bf
000006f0: cf02 c1f7 4988 d13f 56a2 1a19 d42a b33f
00000700: e60c c2a3 12db 7dbf 6552 f178 9cbd a53f
00000710: 50bb d067 c281 a43f 0fb1 3709 dd17 cfbf
00000720: 91bd 9c1d 6cbe 803f 85ac 0264 e30d 89bf
00000730: 5408 545f e276 93bf 6373 201b aaa2 d73f
00000740: 6318 9b19 9793 b3bf e5cd 4715 5a86 d3bf
00000750: 0eb2 66bb 785b e23f f510 b4f0 0587 cbbf
00000760: b76e c0f9 d5a6 963f 841f 4227 0373 da3f
00000770: bc63 4523 1d87 8dbf 0a35 98c5 7f54 99bf
00000780: ff85 209c ad40 c83f 1161 3dc5 c087 bf3f
00000790: 9463 ffe8 1402 abbf ca6b 0019 cef2 a5bf
000007a0: dc62 c052 18e3 a03f d0fa f4a2 cecf 93bf
000007b0: 5806 22f2 54d1 d4bf 382d d076 4dd5 c13f
000007c0: 76d2 91ff 20a9 b7bf 07aa cd0c e0d2 dabf
000007d0: 441c 4bae 2147 b03f 646b 5ceb 64c7 a1bf
000007e0: 306b 6714 e42f 883f 49c8 aa52 6d3d a83f
000007f0: 9779 2058 61de a0bf 10cc 8853 2d2e b0bf
0.6908411782653601 0.28902382778662383 0.03485012292789532 0.004805630043336431 0.052232091984020956 -1.6119214866220881 -0.13459385580717942 0.12144272396433246
-0.437858408607322 -0.033601003965000625 0.2460896003091488 -0.2414101906822194 -0.22973259566773638 0.999346037477993 -0.011394196391327134 -0.22084488900011198
0.11935419859943687 -0.06934495461027407 0.06617582526480177 0.034605171651353926 -0.3188925049245156 0.01996845710132172 -0.4668397429840932 -0.04321711070244414
0.04195672117597565 0.16997044143468806 -0.03298695361122483 -0.1066607585013472 -0.2615963810784307 -0.04405205350007204 0.06884600932679277 -0.1766344618027621
1.6245007170979129 -0.014682963352805287 0.583064586435151 -0.10413310039737195 0.009520910118430643 0.7162115917447703 -0.35375155044925577 0.11534672576419905
-1.0222581113037918 0.08640506187968626 0.04800030899898676 0.8282659203668856 -0.009652293886715166 0.050719148971944315 -0.07146392392825875 0.0027936802438191825
0.3411158410148229 -0.06937790807070954 0.000771144829998528 0.373494872194873 0.03618642207240974 -0.13869237148091904 0.020827608822407983 -0.19457206121426707
0.034554350267212666 -0.24262056653866126 0.14329817343221515 -0.11397867354989226 0.2843285860638233 -0.061861478083359976 0.2297964409050314 -1.2247335375270938
-1.3301708057554444 -0.14312488121302844 0.06445535367044967 -0.3453308412535946 -0.17248052858769003 0.12069430895572462 0.35173876997786374 -0.028879723621406526
-0.07178513170379441 0.03614752328236961 0.06010658983943723 -0.017237717179860258 -0.020366717610836617 0.018684997119872176 0.07228245051178749 0.5992431225964192
-0.015443716057758072 -0.4535354643847619 1.0497602352337556 -0.006708587545150257 0.2685402843423026 -0.0006027092534857093 -0.0004073601033053411 -0.07310160982246829
0.31458763005184603 0.016749454253208087 0.1916452124416396 -0.17709725909155283 0.1451708185406891 -0.06067050275967744 0.052166447357435496 0.10165197298473472
0.7468096346241072 0.027966730606085805 1.4052722231356714 0.003926368056837511 -0.02110950654268632 -0.5760197022896558 -0.051620116832555095 0.025846135018782704
0.17509337083351859 0.037111269932115706 -0.012210454285448705 -0.14959986757075688 0.17070012378920518 -0.08581879984801936 -0.3291559992415067 0.34992340139890415
-0.32107874656741586 -0.032491747563747966 -0.04743668309295664 -0.08333059409797053 0.02793063060015327 0.03259918001602762 0.25810004525832986 0.008164803193289322
-0.12727604202434092 0.14797420550451193 0.024101483168487016 -0.08901246939095349 -0.0010985551116609667 0.24243859243001228 0.9657053555835837 -0.3176776227407597
-0.21672059994080595 0.003470744780108839 0.4095610486829704 -0.03915881327224586 0.06228500990180744 -0.06862688281000803 -0.17522166005654605 0.22182497833386447
-0.035163603537819374 1.240622766818705 -0.45735548669686465 -0.6746715015305144 -0.07626025263875216 0.00937193102225065 -0.10318289872135715 0.027917688548288157
-0.07548972679343396 -0.27839753775634146 0.00796238329127822 -0.004539429816826347 -0.08788322074266902 -0.20664284219628215 -0.8511851986917792 -0.00728460613301729
-0.10167580914903895 0.4139601979064083 0.01821075714169625 0.3970567347985743 -0.7211300666089091 0.042232516763305375 -0.010410307080508684 -1.0354050859803563
-0.06593794982359534 0.13465280693885068 1.0025900572930768 -0.5237655298394216 -0.008839034185278384 0.03950513688625222 0.9595872964612351 -0.04849735544984482
0.040030081021196505 0.209089002934077 0.010818582968182625 -0.025318302896417566 0.023287583344063438 0.006388002445273469 0.11340552201247954 0.20574747603466578
0.06908869873617784 -0.12847707164280306 0.1711362815583897 -0.04155279855823272 0.008143954779805479 0.1783012290532 0.02250385177249166 -0.17250627038364721
-0.08608103287467549 0.03146134099265669 0.4166943626887315 -0.058220722884095424 0.18633692487875866 0.04328927326060875 0.023168898077322357 -0.15446416582471775
-1.318072744406155 0.03275747033531299 0.07114201786778868 -0.06773500281051681 -0.05968560162812159 0.019644296168088063 0.07348965729408648 0.02360016052221032
-0.0006973638390783523 -0.015984030109400037 -0.04190055461508978 -1.2871480429659332 0.5568845661402498 -0.22395468788994496 -0.079715001478681 0.01457581590762643
-0.15275881553392298 -0.7952556062140554 0.04508672750365034 0.03374371825148262 0.0756745306453511 0.10818215632337999 -0.3406785204682131 0.012975264891521884
0.04625418983293374 0.07117165590001197 0.05286224391389455 0.03234650981553208 -0.7659856089882775 -0.5245767656910696 0.27394341654512017 0.07487226117030707
-0.007289002238511011 0.04246224380827782 0.040052485630772794 -0.2429157538421198 0.008175701764769257 -0.012233520974709098 -0.019008194988608132 0.36930325173471185
-0.076470798255373 -0.30507518842861564 0.5736659679583356 -0.2150580811795703 0.022120803230889687 0.4132697947866222 -0.014417865408789747 -0.024736401019301225
0.18947382090941287 0.1231651765386952 -0.05275025696000238 -0.04286808066554888 0.032982597447874545 -0.01934740895853332 -0.325276600320739 0.1393219785826234
-0.09242445220463388 -0.41912080049829153 0.0635853815575596 -0.03472438214358567 0.01181009471195224 0.047343651143265726 -0.03294662667052533 -0.06320460595524957

fc.2.bias f8 [3]
00000000: 3595 d92a a42b d23f b10c d1cf b3df 97bf
00000010: 3f4f 6f0c 6287 853f
0.28391365227283255 -0.023314294394606253 0.010512128834228583
