car_ros2/car_ros2/losses/none0_.pth (torch, 405071 bytes, 6 tensors)

fc.0.weight f8 [200, 47]
0	0x3f52440b384b320d	0.0011148557252226327
1	0xbf8a521ea7bfc79f	-0.012851943487451055
2	0x3fc21ece4c5c0782	0.14156512001505567
3	0xbfb297fba8f1478c	-0.07263157724926667
4	0xbfa8983a49fd3e25	-0.04803640511692845
5	0xbfc1e2056a27c0b4	-0.13971011813510403
6	0xbfbc97a1aa24cc0f	-0.11168871311092253
7	0x3fc097b87d1d7e09	0.12963014706745948
8	0x3fb94f982b4ebc4a	0.09887076432527056
9	0xbfb429cbc4baec3b	-0.07876275589926333
10	0x3fa3e9e9a6fe2392	0.03889398730741002
11	0x3fbe2b54a67f69fc	0.11784867348561784
12	0x3fc20989f17d1f28	0.14091610232775875
13	0xbfba2c24d021a119	-0.10223608094532145
14	0x3fb0be982d9883dd	0.06540824044397149
15	0x3fbbc415153b1704	0.10846072929697576
16	0xbfb05ed78cc3714f	-0.06394717394454584
17	0xbfc1bafc0679d261	-0.13851881328777707
18	0xbf8bd1ea6ce695aa	-0.013583976219545619
19	0x3fc059f40849c1b5	0.1277451553792283
20	0xbfaf76969d3fdb3c	-0.0614516322092897
21	0x3fb24ce5bce1046f	0.07148586140921663
22	0x3fa316a59cb4602d	0.03728215730569704
23	0xbfbd754d85f57043	-0.11507114906766085
24	0xbfb846797cc3fb9a	-0.09482535644563797
25	0x3fbb96cad6c3e91c	0.10776965850155701
26	0xbfb1471cc69987c1	-0.06749133919359364
27	0xbfb93d83598ad99d	-0.09859486518948875
28	0x3f858a96cc6093c6	0.010518243896578638
29	0x3f94c1b74582837c	0.02027021753076806
30	0xbfbb0fee6d25f37a	-0.10571184315445051
31	0x3fc140cdc382f588	0.13479015394652216
32	0xbf8a4bfae2fb7c47	-0.012840232898666438
33	0xbfa8a62e1f0907dc	-0.048142854011999
34	0x3fb8f637c9a66d7e	0.09750698731516214
35	0xbfb039ca930b74ce	-0.06338182535133116
36	0x3fac9ca74e252697	0.05588267163200305
37	0xbfc186c4c0a6a122	-0.13692531019956627
38	0x3fc0b6a4cabe3321	0.13057384395178764
39	0x3f84ac74a8e614d3	0.01009455814779373
40	0x3fbf966c1d6de3e2	0.12338901251304393
41	0x3fb2eb1aa0000000	0.07389990240335464
42	0x3fb287c240000000	0.07238401472568512
43	0x3f7f3d1100000000	0.007626596838235855
44	0xbfc1c7dc80000000	-0.13891178369522095
45	0x3f991b00c0000000	0.02451707050204277
46	0xbfb8c433c0000000	-0.09674380719661713
47	0x3fb1bde9db74d11e	0.06930410011120045
48	0xbfc25b6890da626a	-0.14341456482795262
49	0x3f88a7658f374223	0.012038033898449879
50	0x3fa226687d4ba046	0.0354492810200218
51	0x3fa208edebbc1f36	0.03522437574980446
52	0xbfb3170d19bea0cc	-0.07457048300296093
53	0x3fb185c0e8091ec3	0.06844716706211344
54	0xbf89fe016ca4c712	-0.012691508415261708
55	0xbfbddd5a35d13bba	-0.11665881933116298
56	0x3fb0e9e15dfe3968	0.06606873078110242
57	0x3fb9c8a2d7800d0f	0.10071771394000371
58	0xbfc288c6656eec18	-0.14479904129788745
59	0xbf48cca6ca51fcc5	-0.0007568182378604674
60	0x3f92a7e54cbebb17	0.018218596276422163
61	0x3f60e2d6d8aff77b	0.0020612903804239613
62	0xbfc08134038137d8	-0.12894296809321193
63	0xbfacf8984a165aa7	-0.05658412842165222
64	0x3fb1ae3ecb2a01bc	0.06906502208767668
65	0xbfb25b69a59a4ea2	-0.07170734684978666
66	0x3fbb7b50a3c0c512	0.10735038755298756
67	0xbfc1621cb410153b	-0.13580664436464382
68	0x3fc01a5e2fd66885	0.12580468498055467
69	0x3f8e9ff675a2eb42	0.014953542199113937
70	0x3f856558cc54d549	0.010447210059832417
71	0xbfba110da4f1d375	-0.10182271267860961
72	0xbfc07dd916b5a8f7	-0.1288405762564435
73	0xbfa94b99a7c65032	-0.04940490887671024
74	0xbfbca64ba7fe16ca	-0.11191246844654326
75	0x3f77def8c3a27852	0.005827876792095026
76	0x3fb5b450e65de9de	0.08478265403929394
77	0x3fb97f430333bc9a	0.09959811046768366
78	0x3f7f68b8dca1ef03	0.007668230167947379
79	0x3fc0de5b37159de4	0.13178577603979058
80	0x3fb792d251200f39	0.09208406906696788
81	0x3fb8eac33d068f23	0.09733219375499096
82	0xbf8e07937988415a	-0.014662887712831352
83	0xbfbca2c93fe17d5b	-0.11185891923513706
84	0x3fa97bc7080b3202	0.04977247212591253
85	0x3fb91f47646dcf3e	0.09813352777365211
86	0x3fb7a33fa447d579	0.09233472595936644
87	0x3fa4a9960f3e0d61	0.04035633979858733
88	0xbfbda7c6a0000000	-0.11584130674600601
89	0x3fb95c5a60000000	0.09906544536352158
90	0xbf9a83ad60000000	-0.02589293383061886
91	0x3fbcd5ec00000000	0.11263918876647949
92	0x3fb80a0740000000	0.09390302002429962
93	0xbfacb627c0000000	-0.05607723444700241
94	0xbf9f2b15a0000000	-0.030437791720032692
95	0xbf8b02ac20000000	-0.01318869087845087
96	0x3fc1d8e1e0000000	0.13943122327327728
97	0x3fb56cf0e0000000	0.08369355648756027
98	0xbfa1cd7880000000	-0.03477074205875397
99	0xbfbe9fab80000000	-0.11962386965751648
100	0xbfb6abbb80000000	-0.08855792880058289
101	0xbfb2077b20000000	-0.07042665034532547
102	0xbfb03066e0000000	-0.06323855370283127
103	0x3fa8056ca0000000	0.04691638424992561
104	0x3fb71569e0000000	0.0901704952120781
105	0x3fa2627920000000	0.03590754047036171
106	0xbfc1cb5f60000000	-0.1390189379453659
107	0xbf8824c480000000	-0.011788878589868546
108	0x3fb5dd21c0000000	0.08540545403957367
109	0xbfb79a5e20000000	-0.09219921380281448
110	0xbfb206fc20000000	-0.070419080555439
111	0x3fa0b963c0000000	0.03266441076993942
112	0xbf967fd2e0000000	-0.021971983835101128
113	0x3fb1020ee0000000	0.06643765419721603
114	0x3f8de22ac0000000	0.014591535553336143
115	0x3fbddd0b20000000	0.11665410548448563
116	0xbfbe416300000000	-0.11818522214889526
117	0xbfaed4da60000000	-0.06021768972277641
118	0xbfbff29980000000	-0.12479552626609802
119	0xbfb92948a0000000	-0.09828618913888931
120	0x3fc0d6f740000000	0.13156023621559143
121	0xbfb8539300000000	-0.09502524137496948
122	0x3f8e5da320000000	0.014827036298811436
123	0xbfa07594c0000000	-0.03214707225561142
124	0xbfa4a393a0000000	-0.040310490876436234
125	0xbfb8712280000000	-0.09547629952430725
126	0x3fbcae0d60000000	0.11203082650899887
127	0xbf865007e0000000	-0.0108948340639472
128	0x3fbd31ff60000000	0.11404415220022202
129	0xbf908f6260000000	-0.01617196761071682
130	0xbfc08b9560000000	-0.12925975024700165
131	0x3fa24fc180000000	0.03576473891735077
132	0xbfc07b75e0000000	-0.1287677139043808
133	0xbf72067300000000	-0.004400681704282761
134	0x3fc1b04140000000	0.1381913721561432
135	0xbfb87ec9e0000000	-0.09568464010953903
136	0xbfb98976c0000000	-0.09975378215312958
137	0x3fc12688c0000000	0.13398846983909607
138	0xbfb250cc60000000	-0.07154538482427597
139	0xbfbed401e0000000	-0.12042247503995895
140	0xbfbfec09e0000000	-0.12469541281461716
141	0x3f7121cd6cebdb73	0.0041826271469663666
142	0x3f36eb78f4b91c47	0.00034972861314880695
143	0xbfa1dfca442597dc	-0.03491050798292836
144	0x3faab8fb621ae90c	0.052192550397608256
145	0x3fb4de6652536faf	0.08151855001363971
146	0xbfc1206ef0ec78fc	-0.13380228771070068
147	0xbfbb56751f9d64c5	-0.10678798696371235
148	0x3fc431736c8e4c31	0.15775912094668024
149	0x3f782375db8d28bc	0.005893192654932541
150	0x3fa00c5d1f9050c9	0.031344328024859154
151	0x3fb1e7f4ed402929	0.06994562904597913
152	0x3fa836d2f0056187	0.047293273734513135
153	0xbf98fdf4d4f283ce	-0.024406266686700033
154	0x3f9a813dc730e0cb	0.025883641512536564
155	0x3fc1f624d7f47dd3	0.14032421631507805
156	0xbfb32206ed4fa0c0	-0.07473796170927738
157	0x3fb1ea34e8f6ff77	0.06997996032350594
158	0x3fa8cd0b43dedd29	0.04843936160562585
159	0x3fb59e6d8d8ac4e7	0.08444866853348608
160	0xbfa5204cc43cdce4	-0.041262053446581765
161	0xbfc035af570d91bd	-0.12663833380351078
162	0xbfb7f07e9ae367bc	-0.09351340562298466
163	0xbfbb70c044386c7e	-0.10718919435059779
164	0x3f888596657c0b3d	0.011973547908842636
165	0xbfbd4d1a8e41f16c	-0.11445775960050292
166	0xbfbd7df3397c74fb	-0.11520309594603255
167	0x3fb9e900cac59cea	0.10121159506308045
168	0x3fb78a3de97d4b3b	0.09195315313745038
169	0x3fc2b8b51020c0c0	0.14626181876656652
170	0x3fc0aaca138feefe	0.13021207766711734
171	0xbf8a308fc4f7f9a7	-0.012787936399942646
172	0xbfbfd9e332cda0fd	-0.12441844930947706
173	0xbf96787ccb69c89f	-0.021943998256070626
174	0x3f6a9ee384c6e63c	0.003249592182524434
175	0xbfa4be7f2cde88de	-0.040515875079351935
176	0x3fb6a6950c4e8f5b	0.08847934294186414
177	0xbfbbee0e5745add0	-0.1091011965815405
178	0xbfbcc11d1594ccd8	-0.11232167984853747
179	0x3faa8d28232b5bd8	0.051858190816055305
180	0xbfc2e10afdc03e34	-0.14749276533301414
181	0x3fb397fa291b2bfb	0.07653773788040034
182	0xbfab5bf260000000	-0.05343587324023247
183	0xbfa89997e0000000	-0.04804682359099388
184	0x3fc13fc920000000	0.1347590833902359
185	0x3f9c2d03c0000000	0.027515467256307602
186	0x3f9fd6f440000000	0.031093422323465347
187	0xbfc03163e0000000	-0.12650726735591888
188	0x3fa8f6a5b409a50e	0.04875676939702532
189	0xbfbf6b7670673469	-0.12273349994866724
190	0x3fb5b8f716925788	0.08485359479013088
191	0x3fb5771a787a4ae2	0.08384862367010329
192	0xbfb32ef4d83b5ae1	-0.07493524817560228
193	0x3fbd9dae1d69ed5e	0.11568725793943233
194	0x3fbe8173b58be538	0.11916278059279228
195	0x3f8d193d70d3d6f4	0.014208297734949117
196	0xbfb89717393b6eb4	-0.0960554613806675
197	0x3fc1156dd7a7dffb	0.1334664633757255
198	0xbfbccf2e728e961c	-0.11253633782197209
199	0xbfc02351fc4b1027	-0.126077888670012
200	0x3fb261cb7d2f86a1	0.07180473142900691
201	0x3fb1981c97efd224	0.0687272902430967
202	0x3faeb3d23395e860	0.059965676114146715
203	0xbf9c88c4a7700c32	-0.02786547920187505
204	0xbfbb5a1cb8b54b25	-0.10684375295140265
205	0x3f93499ef8848db0	0.01883552924949833
206	0x3f9c8f42de93f0f3	0.027890248141361828
207	0x3fc7ef95060dc386	0.18699896617502193
208	0x3fb42e2db7ecf269	0.07882962932939964
209	0xbfc5a42028862d7b	-0.16907121638028486
210	0xbfbb2f09ec2288ee	-0.10618650450718167
211	0xbfbcd670a373136f	-0.11264709463564569
212	0xbfb392c5b0db2b1e	-0.07645831649567156
213	0x3fb0a8a36e853102	0.0650732178521061
214	0xbfb05ebbd23ab22f	-0.0639455211882669
215	0xbfbfce44240baea8	-0.12424112205524784
216	0xbf8bae3b1121ebd5	-0.013515912494986107
217	0xbfb3c509d054c762	-0.07722531639299526
218	0x3fb828991c727809	0.0943694776965175
219	0xbfc486916ae3d452	-0.16035669059025054
220	0xbf9058d1dbb11e47	-0.015963820489814286
221	0xbfb42df1be9b8138	-0.07882605460645642
222	0xbfb2e856b70d92b8	-0.07385770768230315
223	0x3fac12409016447c	0.05482675322412775
224	0xbfb2997abfdf12ef	-0.07265441116676262
225	0xbfca1e38d432142b	-0.20404730187525053
226	0x3f9228a15069f11b	0.017733116658278463
227	0x3fbb66bb3119bb5e	0.10703630398505257
228	0x3fbc6bd7cdb05b7b	0.11102055331899223
229	0xbfa774c5a0000000	-0.04581277444958687
230	0xbfb67b76e0000000	-0.08782141655683517
231	0xbfa7854000000000	-0.04593849182128906
232	0xbface03c20000000	-0.05639827623963356
233	0x3fb5a31420000000	0.0845196321606636
234	0xbfbdfad4e0000000	-0.11710863560438156
235	0xbfb6b57780000000	-0.08870646357536316
236	0xbfa670c2e0000000	-0.0438290499150753
237	0x3faacdb9e0000000	0.05235081538558006
238	0x3fa9e691a0000000	0.05058722570538521
239	0xbfb8866920000000	-0.09580094367265701
240	0xbfc2154c00000000	-0.14127492904663086
241	0xbfc008ab40000000	-0.12526455521583557
242	0xbf65df0e20000000	-0.0026698375586420298
243	0x3f9d9107e0000000	0.028873560950160027
244	0x3f634dbde0000000	0.002356406068429351
245	0x3fa0335220000000	0.03164154663681984
246	0xbf882b73c0000000	-0.011801628395915031
247	0x3f84abe5c0000000	0.01009349338710308
248	0xbfb745a380000000	-0.09090635180473328
249	0x3fa55f7f00000000	0.04174420237541199
250	0xbf8da370e0000000	-0.014471895061433315
251	0x3fa149a160000000	0.033764880150556564
252	0x3fbf8993a0000000	0.12319300323724747
253	0xbfa3a70840000000	-0.03838372975587845
254	0xbfb88ebde0000000	-0.09592806547880173
255	0xbfbd170be0000000	-0.11363290995359421

fc.0.bias f8 [200]
0	0xbfb7cc3522921c1e	-0.0929597100640511
1	0xbf9ceb90e183e53f	-0.028242362751347058
2	0xbfc0bae3c0000000	-0.1307034194469452
3	0x3fc39f41248d95fd	0.15329756054704538
4	0x3fbf495eadb05b7b	0.12221328487826881
5	0x3fbbff3740000000	0.10936303436756134
6	0x3fb9db8d80000000	0.10100635886192322
7	0x3fc1c7f8297165fb	0.1389150812490668
8	0xbf8e29b7511bddc0	-0.014728004610772838
9	0xbfa560b35ea7b378	-0.04175339251000926
10	0x3fb8dffbd1c8f152	0.09716771957113693
11	0x3fb58df1ba3312bc	0.08419714733015388
12	0x3fb67d82c0000000	0.08785264194011688
13	0xbfac9f1becd1c3b1	-0.05590140596257898
14	0x3fc862dd78c1742b	0.19051712414048558
15	0x3fbcafc61621289c	0.11205709495803479
16	0xbfb8d56a8e2696ff	-0.09700647325970733
17	0xbfb6f7cbc0000000	-0.08971856534481049
18	0xbfbfda79a94f12d8	-0.12442741759793863
19	0x3fb72d9df7ff9faa	0.09053981117869961
20	0xbf95696c0d8514e7	-0.020909965825258416
21	0x3fb6515b42a4df0e	0.08717890145350912
22	0x3f9bf7abf53038d4	0.027311980095014857
23	0x3fc68f5baa5a3902	0.17624994104375707
24	0xbfb3e1859bbcde32	-0.0776599412173418
25	0x3fc02e80947a876d	0.126419136523562
26	0x3f8f137000000000	0.015173792839050293
27	0xbfb0d96bb7d88a45	-0.06581757772850334
28	0x3fc0703880000000	0.12842470407485962
29	0xbfb02b95b37f4f49	-0.06316505081423175
30	0x3f9f2fcec7be34cc	0.03045580953726272
31	0x3fad1a59614894f9	0.05684165298979766
32	0x3f948fd7526a516f	0.020079960255843184
33	0x3f9590a3bbdaa083	0.021059568730067212
34	0x3fb088e1af62e0ff	0.06458864719286693
35	0xbfb33218bf11d52d	-0.07498316445147131
36	0x3f936bf8fba077d9	0.018966570242007073
37	0xbfbc0026a035531a	-0.1093773022779029
38	0xbfb004069050b18d	-0.0625614263851217
39	0xbfb4e44e82c0a2cf	-0.08160868351172755
40	0x3fc2101353d5ee4c	0.14111558526552626
41	0x3fcf2ba5d8ef3055	0.24351952641007082
42	0x3fc328e1d7164f86	0.1496851253729085
43	0x3fbece8000000000	0.12033843994140625
44	0xbfad4ea9ec94e58d	-0.057240781907647344
45	0xbf9098673d5ea39e	-0.01620637237616373
46	0x3fbcf072e9bc24db	0.1130439587251603
47	0xbf8de31cc1666ea6	-0.014593338634589625
48	0xbfb98755e07f6f57	-0.09972130518820897
49	0xbf8d79b3679cc723	-0.01439228210401528
50	0xbf6c09ec6331c843	-0.0034227005904137477
51	0x3fbd204eb32ac039	0.11377422212785938
52	0x3fca4a0190b35b6c	0.20538348737201362
53	0x3fb72c92578073a9	0.09052385936997943
54	0x3fb3b69100000000	0.07700449228286743
55	0x3fbe9f3d79e14201	0.11961731172164748
56	0x3fbd4a0f7eaec748	0.1144113239559178
57	0xbfabe14ce16901cc	-0.05445327998723179
58	0xbfa18615c0000000	-0.03422611206769943
59	0x3fae90bcb238be6e	0.059698006396840295
60	0xbf6a264d150b952e	-0.0031920915138125205
61	0x3fb8417e80000000	0.09474936127662659
62	0xbf9bfaa672a1bd80	-0.027323342081613244
63	0xbfa851ba3d9052e8	-0.04749853135596088
64	0xbfa47ea407bf12ba	-0.040028692193606344
65	0xbf93c7a738fe1ded	-0.01931630406718725
66	0x3fc12b985f01b7e5	0.13414291991233465
67	0xbf1060b6b8cc0afd	-6.247630353687843e-05
68	0xbfb14ba100000000	-0.06756025552749634
69	0xbfbfcc0bd69c783a	-0.12420724858790858
70	0x3f9c19bd09b656e7	0.027441934316434404
71	0x3fc743a1b01ecd48	0.18175145244240754
72	0xbf9d3c5e32ee3d97	-0.028550598009642405
73	0xbfbcb0d8cc1a26be	-0.11207346899950729
74	0x3fd0948121aa9a17	0.2590639904759952
75	0x3fb87adf3266857e	0.09562487583618481
76	0x3fc3e4f671ac2567	0.1554248862305869
77	0xbfbeed870c0feb7a	-0.1208118824433039
78	0x3fc2fb0537f3eb37	0.14828553421087928
79	0x3fb264d1ec6ccd7a	0.07185089132399539
80	0x3fbac06e271de922	0.104498753118524
81	0xbfa6c0bc4e03f278	-0.04443920566879894
82	0xbf944276ebb5b015	-0.019784792076663466
83	0xbfbbe85d80000000	-0.1090143620967865
84	0x3fbe1686e2108112	0.11753123301651083
85	0x3fb5bac1a94775d8	0.08488092787543822
86	0x3f63073efbcdd1ff	0.0023227911137218
87	0x3fb80fb61234e6a5	0.09398973412035135
88	0xbf8bfe52b55cbbba	-0.013668676528679192
89	0x3fc0635bb3d624f2	0.1280321720226208
90	0x3fc11a67c0000000	0.1336183249950409
91	0xbfbfe2616518a9d2	-0.12454804151699442
92	0xbf9332de573ccd9c	-0.018748735498957822
93	0xbf9ca1c849f39910	-0.02796090079655139
94	0x3faa5d789f3d737f	0.051494378508073695
95	0x3fa757434cd7acac	0.04558763802546059
96	0x3fa69606c0000000	0.04411336034536362
97	0xbfbada0a2f2ce988	-0.10488952304596044
98	0x3fb2bb72a0000000	0.07317272573709488
99	0x3fc567582f3daff6	0.1672163229626446
100	0x3faac48352b5837c	0.05228052506095701
101	0xbfb963c9bdad35ad	-0.09917889481331228
102	0xbfb9ff9826bb434b	-0.1015563101348224
103	0xbfb8870f80000000	-0.09581086039543152
104	0xbf98669a9e40ad48	-0.023828903111433847
105	0x3fa6f5a1ebd1f81b	0.04484277728714422
106	0x3fb98db540e83b6f	0.09981854281089196
107	0xbfb76ede958f911c	-0.09153548385035432
108	0x3f9bb750da5b68c1	0.027066481902559007
109	0x3fc190574a9e864c	0.13721743720548074
110	0x3fcd3d8b5fc5024e	0.22844068695305214
111	0x3fa2b1d210c207b8	0.03651291327061251
112	0xbf9d06f6bb643c77	-0.0283468772768711
113	0x3fb9433c7ff5207f	0.09868219493830742
114	0x3fbf69b4df29f710	0.12270670364702263
115	0xbfbe38df918e9eab	-0.11805531791344019
116	0x3fc332b083f4665b	0.14998442118740027
117	0x3fb79ec4e0000000	0.09226637333631516
118	0x3fbdbfd4afa3700e	0.11620835578963826
119	0x3fb6fb330a51f9cd	0.08977049829443402
120	0x3fa09d99b8414acc	0.03245239614684223
121	0x3fa48d69c5bf88de	0.04014139689367523
122	0x3fbeeac0ffcdf190	0.12076956029154062
123	0xbfa1eae7326c093c	-0.034995293526679266
124	0xbfabb1af07947c1a	-0.054089994120879406
125	0x3fbd2f7979063c2c	0.11400565342613395
126	0xbf83fc098ff856a5	-0.009758066850774691
127	0x3fb06b623c316c2c	0.06413854569966365
128	0x3fbb9605126ca44d	0.1077578706723596
129	0x3fac591d62447cee	0.05536739182047677
130	0x3fb86ecaed570011	0.09544056219510845
131	0x3fba049d3b78f53a	0.1016329069324983
132	0xbfa6a05f71ad3fba	-0.04419229757934269
133	0x3fc36eabf6d05ade	0.1518149333139353
134	0x3fc5fa5a503468a3	0.1717026607155435
135	0x3fc50a20cc549fac	0.16437158562734788
136	0x3f96680e7007baaf	0.02188131865289716
137	0x3fa4e4d150594f45	0.0408082399923431
138	0x3f80a5c04fb649ff	0.008128645355815143
139	0x3fc2e13315960846	0.14749754480368632
140	0x3fb58a1cb0ad5231	0.08413867295650658
141	0xbf8ddae5fdb164c3	-0.014577671818346244
142	0x3fc0e1aae7ba443e	0.13188682856392292
143	0x3fc0d852a30208d5	0.13160164794323373
144	0x3fc0c67a95f3c16d	0.1310570938289958
145	0xbfb7f340cf469c73	-0.09355549869961681
146	0x3fbf50cb911d1dfc	0.1223265866548146
147	0x3fb8c069be483aa5	0.09668599029121568
148	0x3fc0e346f3e6d536	0.1319359484602189
149	0x3faf0b84d26a6e5f	0.06063475674201579
150	0x3fb6ddbe38fc1f72	0.08932103053314025
151	0x3fa00ccb5882d020	0.03134761290985488
152	0xbfb86769663eee2f	-0.09532793756709944
153	0x3fa12ab233d0c22b	0.033528870415811284
154	0x3facd1f7ac3ee446	0.056289424682696196
155	0xbfb3efbc3b776d5b	-0.07787682010478163
156	0x3fa5f09ca0000000	0.04285134747624397
157	0xbfb61e2ceaf05d66	-0.08639794097722628
158	0x3fbda490b0cae6e8	0.11579231563782921
159	0x3f8e7cb532f1eadf	0.014886298768251148
160	0xbfc093d400000000	-0.12951135635375977
161	0xbfb192c38eb0ab01	-0.0686456893314862
162	0xbf7cbfb1a0000000	-0.007018750999122858
163	0xbfac5b715ff127bd	-0.055385153733893834
164	0x3fab529c9d572c3c	0.0533646528307021
165	0x3f931b12c0000000	0.01865796372294426
166	0xbfa27aab30501f46	-0.036092137954311584
167	0xbfbc92a07887b37c	-0.11161234800938574
168	0xbf996ee640000000	-0.024837110191583633
169	0xbfa77fa531010c92	-0.045895731193490566
170	0xbfb66ce2e0000000	-0.08759897202253342
171	0xbfb3558c2831319e	-0.07552410107854832
172	0x3f783aef4d4be3d6	0.005915579579544214
173	0xbfc0b8fbe55b53d8	-0.13064526270923582
174	0x3fc7cba747fb611b	0.1859025098299377
175	0x3faab8b7ab42421e	0.052190532355897754
176	0x3fb228c800000000	0.07093477249145508
177	0xbfb3b320d7edc0fd	-0.07695203086564457
178	0x3fc43c7058b29ac2	0.1580944474310027
179	0x3fc2d51810788521	0.14712811283337948
180	0xbfa5b2f7370566b9	-0.04238102480549117
181	0xbf8feb156d986c80	-0.015585105330549576
182	0xbf909f58cbfc97f9	-0.016232860041007744
183	0x3fc228ecbc334c8c	0.14187392415496836
184	0x3faa22b5162a1039	0.05104604621467996
185	0xbfbe2029a0000000	-0.11767826229333878
186	0x3fc159ec05762d12	0.13555670038872641
187	0x3fbfe04520000000	0.1245158389210701
188	0xbfbe8edda0000000	-0.11936745792627335
189	0x3fb366d90ebabac3	0.0757880841217498
190	0x3f7096a0464b1ebb	0.004049898216812837
191	0x3fc0b82ece2597f6	0.13062081399692688
192	0xbfba56b040000000	-0.10288526117801666
193	0xbf89ed853aa6b0b5	-0.012660065510168609
194	0xbfbfe850cd3c12c5	-0.12463860521900035
195	0x3fc7a79abaa85e04	0.1848023806967235
196	0x3fc54dfc8c88b887	0.16644245969786572
197	0x3fc5ca98c70d75f7	0.17024526328434295
198	0x3fc0be7ccefedc11	0.13081321818546646
199	0x3f9aa3cb743429aa	0.02601545235396833

fc.2.weight f8 [200, 200]
0	0xbfae844e42e02543	-0.05960316244461208
1	0xbf9337324c2da28b	-0.01876524534182748
2	0x3faca090c0000000	0.05591251701116562
3	0x3f7e7a5d8a3c9b4e	0.007440915480208711
4	0xbf8425826b6e9cbd	-0.00983716860157668
5	0xbf9377b120000000	-0.019011275842785835
6	0x3fb4d42220000000	0.08136189728975296
7	0x3fab5d5d103d4ad0	0.05344668219790594
8	0xbfac51efb3858828	-0.055312624611147776
9	0x3fb1c7e7ad4aa2d7	0.0694565580439631
10	0xbfa63589089e4b41	-0.0433771918316297
11	0x3fa3f5f1483e80c8	0.03898576743017795
12	0x3fb360c8c0000000	0.07569555938243866
13	0xbfa9a92a7ab9f40c	-0.05011875866055257
14	0xbfa2c99a56cac9fd	-0.0366943579623644
15	0x3fbc51b29861fc59	0.11062160702020786
16	0xbfb1497e347090f8	-0.06752766399637611
17	0x3fa2a993c0000000	0.03645002096891403
18	0xbfae17df916c5a84	-0.05877588892160637
19	0xbfab0498995d4912	-0.05276944038509347
20	0x3f9583c27b44ef2e	0.021010435842284618
21	0x3f9c63be4fbf9300	0.027724240891887852
22	0xbfbc52c48b7478e8	-0.11063793568289138
23	0xbf939549e4eeebda	-0.019124178503016377
24	0xbfa284532cd4053a	-0.03616580888957306
25	0xbfb36e00ce16b34f	-0.07589726478063351
26	0x3fb13a2340000000	0.06729336082935333
27	0xbfba6deb1810f45c	-0.10323972070269022
28	0x3fb48bf1c0000000	0.08026038110256195
29	0x3fb124a7509e02a9	0.0669655391520886
30	0xbf971d6094bd2738	-0.022573002889920007
31	0xbfac88b460d2d357	-0.05573047334602304
32	0x3f9f2a8565d103b7	0.03043564256609318
33	0xbf832aa1c60dc830	-0.00935865770017949
34	0x3f9862f0e1888994	0.023814929738486493
35	0xbfb39b46e139bbeb	-0.07658808706922542
36	0x3fb9ffc7053ba3f4	0.10155910375364369
37	0x3fa35a950239ab16	0.03780046131290342
38	0x3fbb079f2bca5609	0.10558504885769805
39	0xbf81818fe075fce0	-0.008547901189329854
40	0x3fa6c218f0045ca2	0.04444959573646058
41	0xbfb4d6ff3f1fb61f	-0.08140559474096463
42	0xbfa0de7a748c4ff2	-0.03294737503725277
43	0xbfa9310b60000000	-0.04920230433344841
44	0x3fbae2542df20cb6	0.10501600381580797
45	0x3fa59123dc214b0d	0.0421229559148256
46	0x3faad640b3103451	0.05241586862403181
47	0xbfa181f641282d36	-0.03419465585110475
48	0x3fa677a14df68370	0.04388145519920428
49	0x3fa64365f84242a1	0.0434829583692864
50	0x3fa60b60609b3d52	0.04305554560925863
51	0x3fad8a5704b05751	0.057696074793212156
52	0x3fbac6a7ab01db36	0.10459373402578084
53	0x3fb03324d363f9fd	0.06328039322759334
54	0x3fb77d0d20000000	0.09175188094377518
55	0xbf76f2a5908da70d	-0.005602499710997366
56	0x3f876bb9b7e8d511	0.011435938763592309
57	0x3fb42be1caeecf36	0.07879458622374788
58	0xbfa007e8e0000000	-0.031310345977544785
59	0x3fb757c11d222018	0.09118277512800466
60	0x3fb7b79cd7ff324f	0.09264545701371073
61	0xbf95df1920000000	-0.02135886438190937
62	0xbfc4091af092883c	-0.15652786966990273
63	0x3fb6929bf999ba52	0.08817458003771009
64	0x3f8cf692fc8f616b	0.014142177898904781
65	0x3f8ea068828a0ccc	0.014954391940824506
66	0x3fba0c76683e2ab4	0.10175266308776082
67	0x3fa4348aec6c7f33	0.03946336875946912
68	0xbfaa4e2100000000	-0.051377326250076294
69	0xbfac9a0e1c3ddb38	-0.05586284727808394
70	0xbf8eaaac999ec5c1	-0.014973972738377197
71	0x3fc3a490ec4e7213	0.15345965898895084
72	0x3f9fec1596de64c0	0.031174027760788148
73	0xbfabb739802d1ee6	-0.05413226785327456
74	0xbfb4b8829952230e	-0.08094040148911238
75	0x3fb30e34a392e46f	0.07443551057339602
76	0x3fa5ba33ac58eda2	0.042436232365129514
77	0x3f9d30cee8b28bef	0.028506501152730065
78	0xbf9641ee4e74fb7c	-0.02173588136542602
79	0xbfb21d86c31abbef	-0.07076303733150245
80	0xbf56cfc3e7c611ab	-0.001392308534463908
81	0xbfb13cae99c0f598	-0.0673321843505249
82	0x3fb3f293e309c966	0.07792019169736406
83	0x3fab7dee60000000	0.05369515344500542
84	0xbfbbd9514095303a	-0.10878475023963655
85	0xbfb8038d854a302c	-0.09380421165605018
86	0xbfaef4daab77b05b	-0.060461839133353755
87	0x3f9a45b17d89eaa6	0.025656483924175653
88	0x3fba8a6baea73075	0.10367463125220573
89	0x3fbe240ed247536f	0.11773769983058256
90	0xbfab648180000000	-0.05350117385387421
91	0x3f93ad2451a9b4a1	0.01921517132216322
92	0x3fa7978f54f73425	0.04607818519762245
93	0x3fb3cd8d7953b776	0.07735523426137356
94	0x3fab9adaab3ab3e8	0.053915818597807974
95	0xbfa2617c8a99a0df	-0.035900012892683845
96	0xbfb1c2b120000000	-0.06937701255083084
97	0x3fb39a55ff456423	0.07657372934535593
98	0xbf8fc30140000000	-0.015508661046624184
99	0xbfaf1670f2a9921f	-0.06071808778941467
100	0xbfbede33fd94a7d7	-0.12057805005011289
101	0x3f98f714ce9e70d9	0.02438004027463667
102	0x3fba03288934f287	0.10161069249893205
103	0xbfae473960000000	-0.059137146919965744
104	0xbfa1254702b870d9	-0.03348752887925039
105	0xbf5d2efef942ba4d	-0.0017812242486276054
106	0xbf42c2e551fe3e81	-0.0005725497940023001
107	0x3f92e9839454a43e	0.0184689101489861
108	0x3fbf0e2f2d85e9fd	0.1213101850643525
109	0x3fb3e910306f3806	0.07777501280290275
110	0x3f9b57e7536c936a	0.026702513186268297
111	0x3fa48307c96ed5a9	0.040062182749731896
112	0xbf82dd5acca5c3f4	-0.009211263056132048
113	0x3fb076e5a1d0e253	0.06431422424874116
114	0xbfb1565a1e1bac8d	-0.06772387728749348
115	0xbfa2617022b45940	-0.03589964316977268
116	0x3fba2244a0ffa587	0.10208538942938193
117	0xbfaafff4a0000000	-0.05273403599858284
118	0x3f99767ac378bc2b	0.024866026096955245
119	0x3fb0f08ba111188d	0.06617043192190604
120	0x3f81e0820fcd0c56	0.008728996379096337
121	0x3fb6247e976d096d	0.0864943618480873
122	0xbfa03a08c45b1078	-0.03169276616020594
123	0x3fb3558203760435	0.07552349647996055
124	0xbf9c7e5701a9c005	-0.027825698353296974
125	0xbfb0d8c7ce8c7f38	-0.06580780785270413
126	0x3fa1e1b72bf733a2	0.03492519771280135
127	0xbf85f664a33da9bc	-0.010723863822666206
128	0x3f775c95cb2a7f39	0.00570353043681831
129	0xbfa21eeceea14074	-0.035392192964196406
130	0xbfb0a19ebc87ff5d	-0.06496612646878704
131	0x3fb17ca42beb6fc7	0.06830812523133921
132	0x3f99ae1b1252a7a1	0.025078223222102406
133	0x3fa29437518494a5	0.03628704900828809
134	0x3f937d536c252680	0.019032767749456614
135	0x3fb892071f186543	0.09597820767557601
136	0xbfb0f5838e16fd69	-0.06624624461163865
137	0xbfae51d142d2f1de	-0.059217967421748105
138	0xbf79fd3f97d39e0f	-0.006345032129707841
139	0xbfa37b63c5137479	-0.03805076389992563
140	0x3f9bc4715cb4678c	0.02711655739140144
141	0x3fb4c00233815c5d	0.08105481870130533
142	0x3fa2f3d280069436	0.03701646626294812
143	0x3fbf2db8cdd72c80	0.12179141068843258
144	0xbf90dc637bccc981	-0.016465715819501184
145	0xbf54b9173902b5eb	-0.0012648321899563174
146	0xbfa5f86ea948acc0	-0.04291101280645071
147	0x3f51fc3793f9f790	0.0010977308992603275
148	0xbf940024b4b5ddf2	-0.019531796960533705
149	0xbf7823873fbe042b	-0.0058932574428363456
150	0x3fb48648851b71ed	0.08017400026023554
151	0x3f93dd4861d55f61	0.019398814173967497
152	0xbf9ac6b30b0d088a	-0.02614860300969516
153	0xbf9efa3bf63c060e	-0.03025144281764907
154	0x3f9402ddcf366ef8	0.019542184612517638
155	0x3f9c7bf1560b955e	0.027816553952012206
156	0xbfaa4d8320000000	-0.05137262120842934
157	0x3f88b2c87f3e483e	0.012059751876027144
158	0xbfb2b09940bcd39c	-0.07300718145854862
159	0xbfa30f17c98820da	-0.03722452483276735
160	0x3f9aa6dd80000000	0.026027165353298187
161	0x3fb4bc6af5582439	0.08100002755976811
162	0x3fb22aad80000000	0.07096371054649353
163	0x3fb20a6e15b6268d	0.0704716494566588
164	0x3f91da03dcb04ba8	0.017433224053160196
165	0x3fa8e6b160000000	0.04863504692912102
166	0xbfb64f830066f901	-0.08715075263805618
167	0xbfa962bc243d3129	-0.04958141271944989
168	0xbfaca02800000000	-0.05590939521789551
169	0x3f99b27d03005753	0.025094941433131023
170	0xbfac48aa60000000	-0.055241893976926804
171	0x3fb0ca9d76b0b039	0.06559166095456782
172	0x3fb3ff18ecb56594	0.07811122683542343
173	0x3fb5196747cbcfde	0.08241887572131598
174	0x3fc185d8a7cae1b4	0.13689716523164253
175	0xbfbac49b33a9b8d2	-0.10456247340491423
176	0xbfc3defde0000000	-0.1552426666021347
177	0xbfa5dad5c351d276	-0.042685203640677225
178	0xbf5c11c740bc7662	-0.001713223059545931
179	0x3fb4c2820da0980c	0.0810929568548035
180	0x3fa25f7c29883753	0.035884742803416934
181	0xbf49edbedb44c470	-0.0007912809292404243
182	0xbfad633c55aa9bdb	-0.05739773317082327
183	0x3fb15ac5a238667a	0.0677913209005058
184	0xbfa67d0940a56a5e	-0.043922700063110595
185	0x3fa922fea0000000	0.04909511283040047
186	0x3fb0d74376c4839e	0.06578466081238196
187	0x3fa021d8a0000000	0.031508225947618484
188	0x3f45f14dc0000000	0.0006696347845718265
189	0x3fba5ef085312a93	0.1030111622978132
190	0x3f96cbd84169073b	0.022261981003118363
191	0xbfb44f2570911f06	-0.07933267591681323
192	0xbfbe11e120000000	-0.11746031790971756
193	0x3fb09f8bd53a92f8	0.06493448215276121
194	0x3f9a96a64ef596df	0.02596530777864003
195	0x3fc6736e2b1f46db	0.17539765458655307
196	0xbfa33a2b960c8ec4	-0.037553178850684016
197	0x3faf8ddba04b2fdc	0.061629164998151714
198	0x3fb0fdd94c43eca5	0.06637342559763455
199	0xbf97c0d1fd9dc073	-0.02319648848009632
200	0xbfae13f1ff016320	-0.05874592054232708
201	0x3f659e80e7853d38	0.002639056936608288
202	0x3faa3760c0000000	0.05120375007390976
203	0x3f9cd7ee497bf597	0.028167460665817847
204	0x3fa5b427fbca3fbd	0.042390107618416085
205	0x3f9fd5b160000000	0.031088611111044884
206	0x3faa9a0ee0000000	0.05195662006735802
207	0x3faee176de337111	0.060313906311167405
208	0x3f9f91f161f8fc6f	0.03083016548611933
209	0xbf7e75f670a59c5d	-0.007436716705661342
210	0x3f8001ce2bb3ec30	0.00781594344015532
211	0x3fa661ab6b5a1ac1	0.04371390996407377
212	0xbfa77be3e0000000	-0.045867081731557846
213	0x3fa16d9b9e94d91f	0.034039366825185484
214	0xbf87bc092b9a9343	-0.011589118617232002
215	0xbfa16dca72e6b379	-0.03404076244928595
216	0x3fb1f75696f73569	0.07018033204731967
217	0xbfaa8a3020000000	-0.05183554068207741
218	0xbf6a07e21f036646	-0.003177587168562454
219	0x3fb3edb8d2611286	0.07784609924517313
220	0xbf8660f2df8fd4dd	-0.010927102515760395
221	0x3f9a4aa82a8aa8f8	0.025675418468986216
222	0x3fb49d0a99c0b786	0.08052126172762372
223	0x3fb0cc7780c84627	0.06561991590594883
224	0xbf9721fa3d4f1fa3	-0.022590551368722022
225	0xbf84c99ffbc9e692	-0.010150194045525116
226	0xbf91459360000000	-0.01686697266995907
227	0x3f8d0de1d08dfed2	0.014186634232600612
228	0xbfa0e51da0000000	-0.032998014241456985
229	0x3f766ccee789728b	0.005474861355278758
230	0x3f9450ce9e80e3a0	0.01983950464657236
231	0x3fb4dfcfd34c7b88	0.08154009731923229
232	0x3fb3905c82d2b1c3	0.07642152971192843
233	0x3fb7c8b0d0c20e46	0.09290604683524703
234	0x3f9b44bc05279e30	0.02662938863241332
235	0x3facda0b2cbd1d93	0.05635104104163271
236	0x3fa22b5ba790fc2e	0.035487045483471355
237	0xbfb3e79bf0bbc1a4	-0.07775282504349562
238	0xbf838f04ea02ec4f	-0.009550131217443218
239	0xbfac7b4ef809ec65	-0.05562826898400245
240	0x3f9d24e10e857227	0.028460995208080455
241	0x3fb9732f4c5b2705	0.0994138299385235
242	0xbfb01d66859a7bea	-0.06294861566355761
243	0x3f9159f620000000	0.01694473810493946
244	0x3f9bd11e579773a4	0.027164911361854074
245	0x3f601ff181357b2f	0.0019683567895038205
246	0xbf9c6f499be41c4d	-0.0277682782553053
247	0x3f856f412342b502	0.010466107262198768
248	0x3f8bd11daa216cc8	0.013582450632546275
249	0xbf99d379fa1c1247	-0.025220781221849255
250	0xbf8a4b212e98f67b	-0.012838610872786696
251	0x3faada399157d9dc	0.05244617366036028
252	0x3f7e3da1892230e5	0.007382994650594753
253	0xbfa404a667b9c4dc	-0.03909797683889746
254	0xbfa5e160a0000000	-0.04273511841893196
255	0xbfb0286ba800ece5	-0.06311676837588072

fc.2.bias f8 [200]
0	0x3fb0fe6340844787	0.06638164830317637
1	0xbfa0bf4da508875e	-0.03270952834669914
2	0x3f9710905f87b60f	0.022524123984046848
3	0x3fa08b4e4ee15663	0.0323128196038567
4	0xbfa0e0af7b1a7ee1	-0.032964214112551245
5	0xbfa4f5b4c4205d2b	-0.04093708891030653
6	0x3fb186d66601030e	0.06846370687800293
7	0xbf9ed87ee576140e	-0.03012274051208768
8	0x3fb0e36ba1a97b5e	0.06597016045405499
9	0xbf82f416b7e749d9	-0.00925462483147481
10	0x3fb5f0d88b8e1017	0.08570626647093636
11	0x3f953ca0ad627406	0.020739088614039523
12	0x3f717ea440000000	0.00427116546779871
13	0x3fa62c4343d9556f	0.043306448013633474
14	0x3fb876cc4397365a	0.0955627121940891
15	0xbf9b72b61892ced0	-0.026804776429982635
16	0xbf946012dd1d8f33	-0.019897742029015574
17	0x3fad86e3e22f9c7f	0.05766975532588336
18	0xbfab106d40000000	-0.052859701216220856
19	0x3fa7d95a283486ca	0.04658014050279531
20	0x3fb480f0340b7ed9	0.08009244223239466
21	0x3fb2c30e41c7b6b5	0.07328881364784474
22	0xbfb062e96b38551b	-0.0640092741744706
23	0xbf99b10fb58ff609	-0.025089498001753117
24	0xbf9ed6232dffd59b	-0.030113744433000283
25	0x3fb4bccd9f657091	0.08100590840826018
26	0x3fa81aead845c778	0.04708036317869263
27	0x3fa90218e65c22f1	0.04884412586222265
28	0x3fa9da3592bfc72b	0.05049292961474657
29	0xbf9bb37180000000	-0.027051709592342377
30	0xbfae530821a63867	-0.05922723208196672
31	0x3f92707c396bd0eb	0.01800722218008925
32	0x3fa42bf2b8286c37	0.03939779756566291
33	0x3f6c175ad5e3a148	0.0034291051989507083
34	0xbfa99e2b6c41c71a	-0.05003486343856718
35	0xbfac82cd900a59a7	-0.05568544753366505
36	0xbf3e7570f8762290	-0.00046476371832019584
37	0x3fb3798eac36e64d	0.07607356743292222
38	0x3fa357f6e08637a3	0.03778048983359319
39	0x3facdcc8c78ccc2d	0.0563719504920289
40	0x3fb228df74c1020c	0.07093617058217933
41	0xbfb1053dc0000000	-0.06648622453212738
42	0x3fbaaa925fa32fc4	0.10416521868609069
43	0x3fa91a87ee8d71df	0.049030540342503086
44	0x3f9cfffb71093fa3	0.028320244573762598
45	0x3f94ebb7a09c8cd9	0.020430440118741486
46	0xbf9a6a5d0946b4bb	-0.025796369258092904
47	0xbf9832c39b769947	-0.023631149638867723
48	0xbf967297989efe5b	-0.021921509447336934
49	0x3f91ef56ef0db005	0.0175145705610902
50	0x3fb1536a2fe34e01	0.06767905873430637
51	0xbfa309305b5fbc78	-0.03717948069958593
52	0x3fa786c70240d9c9	0.04595014479166399
53	0xbfa0953e5b4d3f09	-0.03238863815806609
54	0x3f9c1dd120000000	0.02745749242603779
55	0x3fa596e9915d3e4a	0.04216699504342765
56	0x3fb7fde8949b66c0	0.09371808651067237
57	0xbfa2d682c0000000	-0.03679283708333969
58	0x3f7e2bfb9fe61f63	0.00736616412030586
59	0x3fbab3d56deea6b0	0.10430654462711675
60	0x3fb5f932da23a62d	0.08583371949830428
61	0xbf8a2962c1888d6e	-0.012774249583407307
62	0x3f8703e1db40f4fc	0.011237873557656368
63	0x3faf7a570ed880fe	0.0614802556631293
64	0x3fa3a07ca475ad4f	0.03833379275860215
65	0xbfb14ccb511eb9af	-0.06757803659886606
66	0x3ef0cec6c78788da	1.6029091485133446e-05
67	0xbfad1c72f7be0a34	-0.05685767435263181
68	0x3fac349ca1d4c6d1	0.0550888965175439
69	0x3f6e9a5721fdca4a	0.0037357045948110167
70	0x3fb7aa75c93e2f46	0.09244476473957972
71	0x3fb566f648218ee9	0.08360232602131713
72	0x3fa589ef4d92f8e5	0.04206798383664693
73	0x3fb46f6b297470ca	0.07982511293488695
74	0xbf9e311edcbc1411	-0.029484255049300915
75	0x3f94ee352f9d7e14	0.020439940482331734
76	0xbfaf412a1f728436	-0.06104404100302256
77	0x3f66041c75e7dbd3	0.002687507235573852
78	0xbf9e96bebcd4616b	-0.029871921801800577
79	0xbf7e27ca60000000	-0.007362165953963995
80	0x3fa1185845523dcf	0.0333888611431764
81	0xbfb27da8467c10b5	-0.07222987862411652
82	0x3fb3176f18c95830	0.07457632403506476
83	0xbfa74ae6e3dd6d97	-0.04549333125643356
84	0x3f995ac5573d1f91	0.024760325860625768
85	0x3fb3e8d3c68def1e	0.07777141187210332
86	0xbf43d8d542c07a5a	-0.0006056824981931039
87	0x3fbabec7f41c2888	0.1044735880824722
88	0xbf9098b88c323c24	-0.016207583958529295
89	0x3fb6a2d2fb4fb3ed	0.0884219993165087
90	0x3f65464e769bf3ec	0.002597001312891303
91	0xbfb17d03aada41a2	-0.06831381722645927
92	0x3fb2752061b9353c	0.0720997084219634
93	0x3fac7fae29e9d2eb	0.0556616235889232
94	0xbfa4f4c10a4c2da4	-0.040929825312640916
95	0xbf8b72b38b8265e9	-0.013402369208324454
96	0x3f84dbff52d2cb68	0.010185236659116817
97	0xbf9f79df2990e933	-0.030738341247549882
98	0xbf919ad559f61d5a	-0.017192205062682354
99	0x3fb4ff47483d307a	0.0820202399601743
100	0xbf8501468833e50c	-0.010256339103295285
101	0x3fb62151d3b00745	0.08644591730265201
102	0xbf9eb5bc76572b5c	-0.029990143511706577
103	0xbfa6997373c37f7c	-0.044139488107020036
104	0x3fa35f917b31adf8	0.0378385031588912
105	0x3fa8ac8a2afe504e	0.048191373584956496
106	0xbf842bacb7cc19a5	-0.009848927840278085
107	0xbf95a17920000000	-0.02112378366291523
108	0xbfa66a05534dc116	-0.043777624529754686
109	0xbfa99376dac52935	-0.04995318813833408
110	0x3f962bd428bdc9a0	0.02165156840005411
111	0x3fa2cb50a5512c1a	0.03670742052107574
112	0x3fa29893b035698d	0.03632031942352674
113	0x3fb615bd261eb3b2	0.08626920872366275
114	0xbfb156692f1ecdd4	-0.06772477531813276
115	0xbfb203df516536d7	-0.07037158715430834
116	0x3fae362439f8c2c1	0.0590068169370901
117	0x3f8d0c7305cd033f	0.014183901419188792
118	0x3f8528080ce1986f	0.010330260174850473
119	0xbfa95fc6d6f202cc	-0.04955884336323421
120	0x3f7737c2ccd6346a	0.005668412149487082
121	0x3f7f63a52bf2d504	0.007663388444759226
122	0x3fb36a8f507ece38	0.07584472384660834
123	0xbfa2bd6f91336dde	-0.03660153052780023
124	0x3fa67ad087d395f6	0.04390575082815566
125	0xbfad37c62987d670	-0.05706614739385152
126	0xbf6a08737b1f31cc	-0.0031778579222871747
127	0xbfa803b5f02346eb	-0.046903310359665294
128	0xbfa56c2a80000000	-0.04184086620807648
129	0x3faa2252a9cd6bdd	0.05104311297210249
130	0xbfb3622880000000	-0.0757165253162384
131	0x3f18a633fedd5a56	9.402935367339971e-05
132	0x3f94716222bb7a90	0.019963773126500828
133	0x3fb5945dd8b3a6c2	0.08429514446802513
134	0xbf98b5778d34e564	-0.024129741662567553
135	0x3f9458df21afc5bf	0.019870268279140065
136	0x3fc48738619a88fb	0.16037659421733239
137	0xbf90f22dd7bf60d8	-0.016548839848696456
138	0x3f87a9147e98c736	0.011552963365008755
139	0x3f919d770b00c608	0.01720224384934535
140	0xbfa479116228afe4	-0.03998617480496572
141	0x3fa37196b3bc3703	0.037975987854322234
142	0x3fba1e35a3daeef5	0.1020234608685618
143	0x3f9565c309a6a577	0.020896003212020866
144	0x3fb324fa09ddf438	0.07478296986478561
145	0xbf91d5af27251476	-0.017416702999316823
146	0x3f82f26ed746ea81	0.009251466698392054
147	0xbf8be7465b522dfb	-0.013624715482612784
148	0x3fbbaf657a067b85	0.10814508656629414
149	0xbf977fe20235aa31	-0.02294877184378147
150	0xbfaad22140000000	-0.05238441377878189
151	0xbf9dd908e0000000	-0.02914823405444622
152	0x3f95054c9b9bfcd7	0.020528027532233786
153	0x3f75fef36c64a93a	0.005370093224238476
154	0x3fbc13bae94a09a3	0.10967605777299254
155	0xbfa858d99ed6ce66	-0.04755287231401155
156	0x3fa2479a45196c5d	0.03570253461358484
157	0xbf90a05bdb5e31d5	-0.016236720337063765
158	0x3fa96b91347ef3db	0.04964879766291804
159	0x3f819f3245fea68d	0.008604424248761755
160	0x3f507fbe0b015cf9	0.0010070186508722141
161	0xbfa88bce9b4e5f80	-0.047941643198270434
162	0xbfa9f5242ae94423	-0.05069840453928289
163	0xbf6795d54cf671c8	-0.0028790632274662033
164	0xbfa798f3dae741b2	-0.046088810416793705
165	0xbfa74a49c0000000	-0.04548864811658859
166	0x3f224d162acc44bf	0.00013962646098567529
167	0x3fa32814f2da537b	0.03741517509948885
168	0xbf755c040a9ce840	-0.005214706217708864
169	0x3f83561d4f56e348	0.009441594108339793
170	0xbfa43b3cb49f6c28	-0.03951444344394189
171	0xbf808058ef5a6331	-0.008057303242183874
172	0xbf8326d7383f8e3a	-0.009351426509915151
173	0x3fb3b404dfdb27c4	0.07696562257038325
174	0x3fb1df06eee8adf0	0.06980937321412006
175	0x3fb2c8a16dd22024	0.07337387972995707
176	0x3f939318e0000000	0.019115818664431572
177	0xbfa3ffc76a744bd8	-0.03906081366053343
178	0x3f7a5f50cbae1f2a	0.006438556297218937
179	0xbfa1090b58fd2655	-0.03327212773599501
180	0x3f87e155314901f0	0.011660256926121243
181	0xbfa515b94b33713d	-0.04118136446934038
182	0x3fb046e35c5d6644	0.06358166699410456
183	0xbf9016d9a64a0612	-0.01571216657112557
184	0xbf5cd6453b85770c	-0.0017600704287227846
185	0xbf9836f70553f305	-0.023647174549284795
186	0x3f9d07af13208996	0.028349624197412014
187	0xbf5fe3c262f3a1d4	-0.0019463918977696741
188	0xbfb020e72931812b	-0.06300205951402364
189	0x3f9de37de0000000	0.02918812446296215
190	0x3fa02d5f1dd033e8	0.03159615744525707
191	0xbfa650ca12937692	-0.04358512379415659
192	0xbfa18465bf9e601b	-0.034213237420033425
193	0xbfa530c0f9a24932	-0.041387587044612664
194	0x3fa7af2d6d6c01b0	0.04625837288586199
195	0x3f97a5da2ebfc617	0.023093613723125097
196	0x3fa9dcb7a462f556	0.05051206475898577
197	0x3f9d5d855a16931d	0.028677066443964273
198	0x3f8b917f462584e5	0.013461107567027184
199	0xbfb36f1c1720caf2	-0.07591414990092085
