car_ros2/car_ros2/losses/none1.pth (torch, 405063 bytes, 6 tensors)

fc.0.weight f8 [200, 47]
00000000: 9b20 e5a4 e5c3 a83f 066e 9cca 8964 a33f
00000010: d224 8067 8dd3 9c3f 00f9 ebad 7f29 9fbf
00000020: a2df ef74 68c3 c7bf 35c5 2468 7bb1 c6bf
00000030: 4b37 5b6c 688e c33f 2c98 e280 0fca c63f
00000040: e698 0026 489a a6bf 4159 ef09 e29e c1bf
00000050: ced6 cc72 1978 a23f 4ea4 52a2 802b c63f
00000060: 6805 798c 83e6 bf3f 8ec5 5223 ccf4 bdbf
00000070: 8aaa efde afe1 b8bf 0b29 88d3 c9de a7bf
00000080: ccd8 cb1a fd92 98bf 8775 64f3 c999 b03f
00000090: 1cb0 1f3c 9e73 913f 7757 c1a1 e67b c2bf
000000a0: 0504 7fd4 1704 b3bf 2642 29b6 5657 c73f
000000b0: f165 6e9f 10f2 bbbf 6a74 a42f 4d7f 88bf
000000c0: fc58 fd78 5c21 c6bf 29cf 52b2 7983 8fbf
000000d0: 8a14 407d 45d7 ce3f cede 96e8 791c d13f
000000e0: e2b1 3571 f6fd a8bf 4fd4 4689 83a0 b5bf
000000f0: 5ec5 500b 57b2 b0bf 37b4 abcb 68e0 c23f
00000100: e274 d420 db4f c53f d512 c792 4201 c0bf
00000110: 900d e2f9 0749 cebf a552 f42b 2da9 ad3f
00000120: cbf9 8d06 5e99 d63f 5084 2465 f084 d83f
00000130: eb24 502e 826b c03f 81f2 fc7c a206 873f
00000140: c4c1 6178 197b c13f 0000 00e0 d163 a53f
00000150: 0000 00a0 1439 babf 0000 0080 c6d4 bdbf
00000160: 0000 00e0 0ca6 b5bf 0000 00a0 4c81 b63f
00000170: 0000 0080 a9f0 b9bf f0ee a6a3 9e12 b83f
00000180: f3bd e03e c2b2 b1bf 60cf 0cca 67b4 ab3f
00000190: 333f 12c3 582d aebf 0928 2e1d 83ad c53f
000001a0: 80d4 04b0 fdc1 b63f 720b 2421 81b8 b0bf
000001b0: a595 3778 8698 b13f 2a2e 2edc 58e7 b03f
000001c0: 2b42 f660 f23a cd3f 5ec7 4319 ecca d03f
000001d0: bbe0 b9f4 dffa b63f 0338 01e4 69ad a73f
000001e0: 638f 83bf fbf4 cf3f c4ac 3df5 1ae5 d33f
000001f0: 9072 97a6 c66f 743f d612 953c aef8 7bbf
00000200: 0c06 69dc 46a0 cabf 379d dd17 ea6f c33f
00000210: 422e 0e39 7f00 ca3f 7f2c da94 6a7a c5bf
00000220: 9258 ca00 1a2e b3bf be90 ec96 53c5 cbbf
00000230: acb8 da31 e991 c03f a54b c0f4 2f1c b53f
00000240: 83e2 4a17 1a08 c7bf 4e30 41e7 ecbf b8bf
00000250: 93f5 af3e 4cb4 a7bf 06d2 106c ce1a 7bbf
00000260: 645e 95fb 3320 c13f a1c5 3161 d23f c6bf
00000270: 58e0 058c a1f0 74bf 456e ee88 4005 8a3f
00000280: 09ea d65e 6aad a2bf 49fc 85ce 6171 c43f
00000290: 57b3 4ef0 2496 b23f d998 46e0 462b 90bf
000002a0: 4a6e 4fe0 15bf c1bf 2d10 4760 4bea 89bf
000002b0: 718d 937b 992a ad3f 2de6 fa6f e592 c4bf
000002c0: 0000 0060 cb0b b9bf 0000 0000 4765 b23f
000002d0: 0000 0060 2923 b73f 0000 0080 3772 b7bf
000002e0: 0000 00e0 feb5 ad3f 0000 0000 ea49 adbf
000002f0: d922 5b39 a8e1 b33f 3969 785a 932a a1bf
00000300: fe46 6bdf 37cd c1bf 9d6a 970d a786 a93f
00000310: b860 1dc7 61ba e5bf 838d 594e 19ae b4bf
00000320: a2d4 bc3d 413c c43f 5584 c137 613b dc3f
00000330: e756 a432 48bc 71bf 342d 049b d6dd d73f
00000340: 8281 6ee4 8898 b53f e9f2 ee94 e0ae b0bf
00000350: eda9 55f0 746b c4bf 480e e49c 6744 9f3f
00000360: 1fdf 072e 4c1d c83f da60 40da 950a aa3f
00000370: 1f0b 2f13 5cbb 723f e572 5db7 1eb5 debf
00000380: 5c49 a2b2 2c56 b9bf d5c9 f06b 5400 e3bf
00000390: c88e b04f 692d b23f 43a7 63e3 a2b9 bd3f
000003a0: b4c7 5a8c 6528 ef3f bb50 713b f5ff ab3f
000003b0: 247d e46e b14b e73f 1cb2 0c79 a39e 82bf
000003c0: 7cfb 8117 54c0 76bf b4f1 c208 aeee debf
000003d0: 98a8 a48a 63d3 aebf 2e62 cd07 1e14 9b3f
000003e0: 8e3c 20eb 4db1 c1bf cdca c557 3571 c8bf
000003f0: 2f94 5472 2ae2 d3bf 9096 40c3 ebb9 b53f
00000400: 8d98 1a68 4c09 c0bf d9e6 9160 e4a6 8f3f
00000410: cc61 4edf 3968 c4bf fc9b be66 9db5 ca3f
00000420: d6ca 84c5 32ff bd3f 3522 5dc6 6bc7 d93f
00000430: 2a1c 0114 0aaf b73f 0000 0080 a737 883f
00000440: 0000 0060 59b1 953f 0000 0040 6712 adbf
00000450: 0000 0060 168b c23f 0000 00e0 e2bc c1bf
00000460: 0000 0080 cb22 c13f b157 fb42 2cee b13f
00000470: 62a6 7e6b b0c2 a8bf 0c0a b7cb 77bf c33f
00000480: 8284 59e5 c2e1 9abf cd9d 0f5d 4b90 8bbf
00000490: 4ab0 07f2 a4a7 60bf 984b 0bd0 a0bf 9a3f
000004a0: 2f30 1164 9620 b5bf 7b13 9a24 1bc6 abbf
000004b0: df95 5750 8501 c23f 7a68 ae1d 7cb5 a9bf
000004c0: 7b61 0c42 1c36 a03f 7dab 7d1f 4ad7 8f3f
000004d0: 80fb 0e8e 75ae 96bf 83fa 5dd9 5cce a53f
000004e0: 6b97 b2b0 07f4 c13f ec41 e258 a90e bd3f
000004f0: f817 2bb8 4603 61bf c952 a84e 6b6e bd3f
00000500: 4474 d80b 6643 c73f aaac f44f aaeb 85bf
00000510: 3106 4f3b 9bf2 4f3f fc9b f7d2 ae49 99bf
00000520: 0c67 4f2d 0128 be3f fb67 f03c 65b4 e03f
00000530: f550 8295 b702 c73f 44aa 9565 7367 913f
00000540: 9293 b669 6c4d 93bf bc47 d105 7331 b4bf
00000550: 0d0b 9aa4 38a6 d03f e961 631b c06f b23f
00000560: bfc3 8337 4736 ad3f c315 7af8 1324 92bf
00000570: d957 e8cb 14de b4bf d10c b306 423e cc3f
00000580: 789a c246 81e6 b1bf d7fb 5a49 7083 c7bf
00000590: 75f7 787f b0b4 dabf b64f 5484 5844 b03f
000005a0: 13ac 5521 5552 983f 39b6 7aef bb8e d1bf
000005b0: 0000 00e0 339f 853f 0000 0080 5753 bebf
000005c0: 0000 0060 601f aebf 0000 0060 80e4 b33f
000005d0: 0000 0040 d3c7 b4bf 0000 00e0 dd4c c2bf
000005e0: 8dae 59d0 188c c13f 81e7 c5e6 6977 a53f
000005f0: 33a9 80dd 77dc b43f 660e 6be5 675c d7bf
00000600: 0d09 743c f3b1 b23f 455d 0213 0a26 cf3f
00000610: 1ba1 eea8 d207 a93f c6b2 0167 079f 86bf
00000620: 7fe9 9f56 0377 dcbf 2658 2fe3 a2d2 ca3f
00000630: 11dc a154 c256 a63f c13f dce0 b650 b33f
00000640: 6997 6bed 0b08 acbf dcd0 6152 1bbd cbbf
00000650: 2e1d 7565 ad5e ce3f b7a8 eddc f4da dbbf
00000660: 24df e8bd cb69 a93f 2a43 f335 6cc9 b5bf
00000670: ba2b 005b 93b7 c13f 233a f944 715d b9bf
00000680: 2644 cfca 00e9 e4bf 0306 53e5 c19d c2bf
00000690: 5263 f134 19a9 c73f 7f43 2d09 cc7b c03f
000006a0: b00e 8225 5402 b8bf a9bc e5a4 18c2 c1bf
000006b0: b742 2754 4d9e bebf 6c61 5994 0217 c73f
000006c0: dfe2 d022 7ddb c23f 2498 91c9 0ed2 bbbf
000006d0: f15d 7e98 1494 d33f 6237 b1a5 357a c5bf
000006e0: dd44 b1b4 6379 adbf d6b3 147c 93f5 a73f
000006f0: 55b2 ad56 dcd0 9f3f cf8d 5d8d 936e e03f
00000700: 0364 6b43 2cb0 c2bf a937 8c8a 952b d7bf
00000710: 3b3d e89a 49db 72bf bbe8 08b2 1a44 79bf
00000720: 3982 300a 7adb a0bf 0000 0020 bbcd 88bf
00000730: 0000 0060 9681 95bf 0000 0060 22da b63f
00000740: 0000 0020 30e4 bebf 0000 0000 58e6 a7bf
00000750: 0000 0080 3dc6 c13f 77a2 3ec1 eddc b8bf
00000760: bf33 d45f c57e acbf 0c48 fd6e 0c11 b93f
00000770: 6e91 10cd 72eb 94bf a955 bf88 1f08 d3bf
00000780: 75ce 016a 0c32 b63f 059f 23a2 a084 a63f
00000790: 87d5 fd27 606b c1bf 9e31 5265 0a5f 8dbf
000007a0: eedb bfea 69b6 dd3f 236a aac3 a3ac b0bf
000007b0: 0b94 83b1 8ebe 88bf c0c4 6ffb 7021 d53f
000007c0: b4f1 cd75 6dc9 b73f b63e b20a b0ee b7bf
000007d0: 9dc4 c236 1b9a bb3f 4481 58d9 5cc2 913f
000007e0: c3d9 d316 5039 d6bf dcee 0a4f 2066 a43f
000007f0: 5519 2b17 7fcd d2bf 6a7c ef06 e459 afbf
0.048369575861728374 0.03787642095832315 0.028150758211300815 -0.030431742658941552 -0.18565087995352508 -0.17729132256639848 0.15278344431720323 0.1780413989374109
-0.044145826949078246 -0.13766122326951272 0.03607253576630641 0.17320259023589063 0.12461111239919875 -0.11701656210313713 -0.0971937102582762 -0.04662161547828888
-0.023998217354311888 0.06484663192937577 0.017042610568680158 -0.14440615556912537 -0.0742812055386964 0.18235286612117924 -0.10916236774792033 -0.011961558357649522
-0.17289310367295474 -0.015387488131046805 0.24094456306207618 0.26736304963877167 -0.04881258136706258 -0.08448049642068266 -0.0652212526918183 0.1474734301076823
0.16649951079390407 -0.125038453739896 -0.23660373402900037 0.057931338897252695 0.3531107963571258 0.3831139552804119 0.1282808996332173 0.01124312347348533
0.136569198398787 0.04177718982100487 -0.10243348032236099 -0.11652794480323792 -0.08456497639417648 0.08791045099496841 -0.10132846236228943 0.09403411384021942
-0.06913389239411298 0.05411075917655128 -0.05893971806756184 0.16935767102069146 0.08889756724677689 -0.06531531390286974 0.068733600950131 0.0660300767469201
0.22836141333074642 0.2623853918768101 0.08976554608114189 0.04624491604100458 0.24966379977478956 0.3108584780627093 0.004989410380826911 -0.006828957187569448
-0.20801625978678862 0.15185285725895323 0.20314016614826086 -0.16779835003066876 -0.07492220420167175 -0.21695942754116077 0.12945284780784527 0.08246135449762322
-0.1799347509129526 -0.09667854925027194 -0.04629743828989343 -0.00661736138959102 0.1337952593264503 -0.17382268663236025 -0.005112296145277716 0.012705330065549645
-0.03647930534085126 0.1597101457991548 0.07260352007751912 -0.015790088118273402 -0.13864396526956774 -0.012653912425669567 0.05696563371182151 -0.16073291747834287
-0.0978362187743187 0.07185786962509155 0.09038027375936508 -0.09158656001091003 0.058029141277074814 -0.05720454454421997 0.07766200447361928 -0.03352795104383905
-0.13907526406415366 0.04985544243728166 -0.6790017022094821 -0.08078153765523237 0.15808883204014018 0.4411242527476749 -0.0043299503543232426 0.3729149354773711
0.08435874535508073 -0.06516841541356268 -0.15952932105149334 0.03053438086591445 0.18839409110636837 0.0508620098991643 0.004573211353035927 -0.479804686610619
-0.09897117005519845 -0.5937902553762863 0.0710054225497131 0.11611383487220643 0.9736812344838115 0.05468717909448758 0.7279898801679434 -0.009091641551628497
-0.005554512485217763 -0.48331786018004697 -0.06020651881620259 0.026443928934300746 -0.13822339993246086 -0.19095484529278509 -0.3106790653712918 0.0848681785288028
-0.1252837665862824 0.015455040165977806 -0.15943072703954753 0.2086674453432521 0.11717526743158699 0.4027966916224018 0.09251463879000768 0.011824902147054672
0.021184345707297325 -0.05678103119134903 0.1448696106672287 -0.13857685029506683 0.13387435674667358 0.07004047999666231 -0.04836036026183589 0.15428063818951931
-0.02625183605994553 -0.013458813455101382 -0.0020330640402246624 0.026121628473287112 -0.08252849524541327 -0.05424580404090925 0.14067140982585521 -0.050212744353488284
0.031662829458755724 0.015547350965524615 -0.022149884028972888 0.042590047391958506 0.14025970580876942 0.11350496692671869 -0.002076757549136051 0.1149661128077454
0.18174434259791117 -0.010703402104431287 0.0009749658553276972 -0.024695140482346986 0.11779792171673992 0.5220209303108726 0.17977042007681346 0.016996195864900324
-0.018850034668179534 -0.07887953655270413 0.2601453406752377 0.07201767605454958 0.057054734732339345 -0.017715751686884006 -0.08151369074070604 0.22064996077651824
-0.06992347695868684 -0.18369868833357714 -0.4172784085129629 0.06354287367531594 0.023751573714815132 -0.2743367994943103 0.010557561181485653 -0.11845919489860535
-0.058833133429288864 0.07770540565252304 -0.0811740905046463 -0.14297078549861908 0.1370879189811273 0.04192667905858994 0.08148907811906696 -0.3650150051509854
0.07302780366811508 0.24334836891351067 0.04888780891571028 -0.011045511084568981 -0.44476397952498553 0.20955310910238828 0.043630669432722986 0.07545035352472863
-0.05474889062115446 -0.21670857927859444 0.2372643227956614 -0.43523904395136576 0.04963528340561954 -0.08510471646446818 0.1384147829379268 -0.09908206876682661
-0.6534427605748803 -0.14543937394596193 0.18484797558883287 0.12877798507772906 -0.09378553310130644 -0.13873584796553942 -0.11960299782300408 0.1803897117959069
0.14732326698301443 -0.10867397709952847 0.3059131135173337 -0.16779203978006324 -0.05756675320356817 0.04679547204646155 0.03107017783206552 0.5134980927509164
-0.14600137035338898 -0.36203516511965944 -0.004603660125680971 -0.0061684649268107196 -0.03292447447188746 -0.012111150659620762 -0.02100214920938015 0.08926596492528915
-0.12066937237977982 -0.04667925834655762 0.13886231184005737 -0.09712110488784186 -0.05565468592440181 0.09791639051152873 -0.020429414526135607 -0.29737079958189355
0.08670117939055351 0.0439806173251878 -0.1360893435736836 -0.014341431824754388 0.46425865101576747 -0.06513427283281507 -0.012082209389015849 0.33016609720568724
0.09291729093633344 -0.09348583470477476 0.10782022559102918 0.017342997327547197 -0.3472480986523829 0.039841661118286104 -0.2937925077680082 -0.061232686850183196

fc.0.bias f8 [200]
00000000: bfe0 305c 1799 d53f e033 0a20 c02d b73f
00000010: 598e 006a 6675 c83f 886c f5be 4029 ccbf
00000020: 99fb 9e4b 0a96 983f b2e3 cf75 1dcd cebf
00000030: 31ca b3d2 3ca9 d13f dddf 0828 7c7a d0bf
00000040: c09c 7e31 65b5 d23f a775 2e82 4422 cbbf
00000050: 89d0 aa8b a37f c4bf 16c7 66b8 6273 d03f
00000060: 2663 edae 4f99 e8bf 2b6e 48af a7ec b13f
00000070: 587a 48c6 eb0d b5bf 7ec6 fbee 1770 a0bf
00000080: c62c ced0 40a0 cf3f 2d43 d693 25c4 ccbf
00000090: 5048 797b 1888 d0bf 82b3 e58c a8bf c0bf
000000a0: 4324 e0ae c98e ce3f 9352 81bb 9dc0 b63f
000000b0: 903d 79b6 1981 b93f d879 eba4 b9b3 cb3f
000000c0: 77f3 0457 16bf b7bf 441a bb76 0de8 b93f
000000d0: cb01 74da f207 c2bf ed02 86d8 2de6 cb3f
000000e0: 5dd6 9203 bb62 d8bf 12f4 977c 9987 c63f
000000f0: 9814 bbf7 86f4 a13f 1864 c1aa 4cbb a43f
00000100: 1e7f 69bb 6c00 df3f 1c3e 4901 0114 ccbf
00000110: d061 a8bd 57af ac3f 2ffd 36d8 3e54 b73f
00000120: 3bc6 296a e0f1 d0bf 1994 7ba6 c0db dbbf
00000130: c222 b3fb cc43 b83f ce37 e141 ae70 9b3f
00000140: 355b 82ec 3794 cbbf 6926 295a 9e10 d2bf
00000150: 02f9 0d4c 4c7f bc3f 4a7d 2a81 3378 e0bf
00000160: 148e d189 9a71 bfbf 9b0f ce49 3fe6 b13f
00000170: 0c91 99f6 0345 d7bf 3539 1d70 2e8f b43f
00000180: a7cd a713 369c 98bf 8e43 d167 ab79 cabf
00000190: c89c 7024 61f7 d43f a1dd b0bb 1c95 d8bf
000001a0: 6f21 977c 6b1b b7bf d5ed 86d9 eecd 95bf
000001b0: 466b 528d b1db d5bf dcbc ad43 f7af b5bf
000001c0: 5104 7b1f 2e7b d5bf e40d c0f1 fba4 a13f
000001d0: f0c2 8eb0 31ce bcbf b3e4 ed1a 520a d13f
000001e0: 0cb8 3960 8e7f b83f 77dd 28bf 9a05 c2bf
000001f0: 1639 ccde aecf b0bf f45f 9237 1379 ce3f
00000200: 6895 2d2c b350 863f 3bcb 3c1f abb1 dabf
00000210: 9169 c5d1 0baf d0bf a41b 466d f045 d3bf
00000220: 2f6f b415 19c2 60bf 2fc9 74a0 5aa8 c93f
00000230: 0e64 57e8 7622 b5bf 9e66 3ffa 6920 c7bf
00000240: 98af 74e4 e32b c7bf 700c 681e 7a87 afbf
00000250: 32b3 8c8b e0fa c33f 8910 a030 5191 a8bf
00000260: bec9 1547 450b d3bf e1e7 3534 0150 d1bf
00000270: a877 7b81 8900 c0bf aa70 4d7a 6725 a4bf
00000280: 0cc1 8e87 19d0 9b3f 0704 8aa0 5fa6 cf3f
00000290: f637 436a 3012 b6bf d6b2 165d 436c c8bf
000002a0: 5a0a a2d4 18bf bbbf 921a 4855 d1d1 bdbf
000002b0: 392c cbf7 d8e0 ce3f d847 8315 8224 babf
000002c0: cdea e3b9 1e32 c4bf 4b49 58ba 64d5 8dbf
000002d0: 46b4 a53d ca5a cbbf 72ac 4a25 ddf3 d23f
000002e0: 819c 3cba 8105 aabf 0f92 9013 61b0 93bf
000002f0: 0ea7 735c 86c6 9dbf f4e1 8656 71db c43f
00000300: c880 90e7 2d72 b93f 66c1 138d 2abe 93bf
00000310: 7817 af65 61cd d13f 5a59 0910 a028 c9bf
00000320: 39ab 0d1b cbb0 ce3f 6607 7afe dee5 b53f
00000330: 4158 4114 4bf3 aa3f 70a8 9bca bde3 92bf
00000340: a844 de0b 62b7 bdbf 8e99 add9 51d9 b63f
00000350: f306 7563 b9fd d4bf 3a54 f668 4820 d23f
00000360: 604b 868f eed0 9dbf 99f0 03eb 8dd5 c0bf
00000370: 0b28 fdbc c343 ae3f b0b6 e26a ce63 cc3f
00000380: 95d6 8871 0070 72bf de76 c306 8ad8 c53f
00000390: 0a5d 5b4e 2b69 c0bf bd97 6922 b178 b7bf
000003a0: e2c4 a7f2 690d c1bf 91d3 16db 090b c03f
000003b0: 7258 c0c1 5f9c c83f 1e1c 38a6 0744 b8bf
000003c0: bf97 767d 39a8 95bf 6450 0b48 e99d 753f
000003d0: fd7b cc08 3fdd 9c3f df5e ab43 7fc0 b7bf
000003e0: 2df4 4acb 8c18 cbbf f73e 40c5 759c b9bf
000003f0: 3681 c58b a11d c23f 3449 e70e 95b4 5fbf
00000400: 3dcd 3dd3 3cc9 bdbf 7615 04fb 2f5a bdbf
00000410: 00a2 baee 8312 b1bf 4013 f367 2559 c9bf
00000420: 6373 ee86 46c2 bdbf 6691 895d 8895 d7bf
00000430: f4d7 4f2a 2848 d53f c555 a6e5 9575 a7bf
00000440: 2b6d e475 fd74 a43f fca9 d440 4741 b2bf
00000450: 34a0 05f7 230e bdbf cf98 257a 4928 d6bf
00000460: 72da 3f7f edea c5bf dac0 b226 bc7a d6bf
00000470: 7422 ed4b a7ca b9bf 3f52 10bf 8d7d 993f
00000480: db5e 2426 18d0 b0bf c6f2 09e4 3e16 a03f
00000490: d24f 89ea 942b 913f a4ee ed4b 835f d5bf
000004a0: 1f6e 230b 3981 d13f 455b dcfc e863 b3bf
000004b0: 21ca f9f9 d791 d8bf d6ae fd15 8caa b2bf
000004c0: 4bd7 fbc4 c5f0 ccbf 90f8 325a 45c3 a63f
000004d0: eaf7 fe32 d16e c23f 4a12 e3ee 2ef0 d0bf
000004e0: c108 8e7c a366 bd3f 121f 6824 741f c8bf
000004f0: e551 23a9 279d b0bf 6e97 8c28 7275 df3f
00000500: ed84 d421 42a2 c23f e127 9f6d 8bad d8bf
00000510: d565 0234 e309 d3bf 411a edc1 3fc4 b2bf
00000520: 4737 1f39 cedc d2bf 206f da59 748e a3bf
00000530: db91 d9c2 da51 c7bf 07aa c210 0819 d9bf
00000540: 1c7c 664c f14d a0bf 0826 38f5 2d23 c3bf
00000550: 0dbe 9c3e 90ba d13f 3545 0654 d158 cebf
00000560: 38a3 3b23 2d1d a3bf e3d2 bffc 767f cfbf
00000570: a5df 827b 7eb4 b83f 5223 723e 5f28 da3f
00000580: 170a 4f4f 419f b13f b694 e639 0d07 bcbf
00000590: 9f6f a542 2dec d23f edeb 6520 59a9 bdbf
000005a0: ebb9 f8a5 6582 b9bf 95c0 84ad bebf dfbf
000005b0: d13e 820b f505 873f 13a1 62d3 ddf5 bebf
000005c0: 348d f108 716f d1bf eb70 6f13 dbd7 b73f
000005d0: b1fa 3422 3229 c93f 7392 56fb 3b0d d63f
000005e0: 7851 065e faa4 d03f 5594 cf60 2003 c53f
000005f0: b039 74b6 ee30 bd3f 2e32 ed3d 5b51 9b3f
00000600: 4fcb ca8e c65f d4bf 86b4 c530 3148 b53f
00000610: baeb 0df5 e3b3 c83f ba37 6ad1 e724 c03f
00000620: 7bbe 20a7 0033 d2bf f17d a0e3 6131 c7bf
00000630: 9164 245b 3c5f cdbf 09dd 7dd5 54d6 b23f
0.337468948393063 0.09054184705946922 0.19108276534926708 -0.2200089390197244 0.02400985800317876 -0.24063461544554127 0.2759544427528083 -0.2574758902514967
0.2923214896531583 -0.21198326450841629 -0.16014522857370064 0.2570425797267587 -0.7687147537754739 0.07001731900566514 -0.08224366751572043 -0.03210520546225569
0.24707803912710896 -0.22473592489816366 -0.2583066182897982 -0.1308489501929238 0.23873253859372498 0.08887658908617828 0.0996261663906266 0.21642227699972127
-0.0927595102738915 0.10119709156706685 -0.14086757342012243 0.2179620082133832 -0.3810260329149509 0.17601317008657752 0.03506871961648378 0.040491481632393966
0.48440092374765864 -0.21936047137067838 0.05602525892408361 0.0911292341106573 -0.2647629772901358 -0.4352876306350609 0.09478455681813627 0.02679703023050433
-0.21546076820660578 -0.28226431660423273 0.11131741387177743 -0.5146729967854438 -0.12282720436774525 0.06991954376104419 -0.36358737070101266 0.08030977475320784
-0.024033398580241585 -0.20683806008539957 0.32759884413321716 -0.3841010888022201 -0.09026214401013076 -0.02129338457755899 -0.3415340309235727 -0.08471627619086369
-0.3356433207919212 0.03446185422947304 -0.11252127228250308 0.26625492696582426 0.09569635247473246 -0.14079603513685487 -0.06566899241827104 0.2380699178072515
0.010896110330302647 -0.417094021325443 -0.2606839703127202 -0.3011437480094463 -0.0020456781327434985 0.2004502566792978 -0.08255713627239933 -0.18067669600605013
-0.18102692275112697 -0.06158048268482552 0.1560936623949601 -0.04798368185586905 -0.2975629038038753 -0.27050809954346106 -0.12501639196756043 -0.03934787147474712
0.02716102495077259 0.24726481760811245 -0.0862150439672574 -0.1908039288076881 -0.10838465872988348 -0.11648281414100328 0.24123680209445 -0.10211957001891336
-0.15777954174685363 -0.01456717199019821 -0.21370819101449195 0.29613426820532773 -0.05082326315305697 -0.019227520770202896 -0.029077624695594877 0.16294686055131502
0.09939848807744334 -0.019280114041010953 0.2781604283339827 -0.1965522840789145 0.23977030583349704 0.08553880417642076 0.05263743040329461 -0.01844688939210254
-0.11607945241691431 0.0892535358849271 -0.32798609459506095 0.2832203888913828 -0.029117324361844665 -0.1315171620880207 0.059110752887662064 0.2217958471205086
-0.0045013444255822726 0.17067075090647327 -0.1282095081903452 -0.09168536272190315 -0.13322185848622953 0.12533686826432391 0.19227215729251018 -0.09478805358968187
-0.021149538309735535 0.005277549033696347 0.028187737381013978 -0.09278102304540024 -0.21168670584111862 -0.10004364076325688 0.14152926754742062 -0.0019351440092703733
-0.11635189206372316 -0.11465740087813522 -0.06668877199502532 -0.19803302360210218 -0.1162456588194352 -0.3685017503214766 0.3325291073991814 -0.04581898144094113
0.03995506347765806 -0.07130856831341953 -0.11349701672372775 -0.3462089245644053 -0.1712319251380055 -0.35124114779592974 -0.10074849704427341 0.02489301184330572
-0.06567526751711787 0.03141972097089289 0.016767813506092306 -0.33395464339239767 0.2735121353887013 -0.07574325726851068 -0.38390159045880706 -0.07291484391106037
-0.2260977947077499 0.04445854879439637 0.14400687208211532 -0.2646596272354925 0.11484739104165255 -0.1884598901526649 -0.06489799384446078 0.49154333076363954
0.14557673122275308 -0.3855923243069111 -0.297478485861203 -0.07330702290082859 -0.29472690180124456 -0.038196216553130435 -0.18218550218729387 -0.39215280186422813
-0.031844654632770836 -0.1495110938415538 0.27701192965011573 -0.23708550074346993 -0.03733197264756999 -0.2460774168136118 0.09650412097368972 0.4087141141722458
0.06883629022835468 -0.10948259986487838 0.29566508778020223 -0.11586529770822525 -0.09964595129051872 -0.49607817597553466 0.011241831220359629 -0.1209391251637764
-0.2724268519725286 0.09313744759078062 0.19656969709645503 0.34455775780433057 0.260069457837083 0.16415791251270898 0.11402790026134002 0.02667753758878371
-0.3183456797079786 0.0831328147957767 0.19298982110544022 0.12612626767480412 -0.2843629486187422 -0.18119453062625682 -0.22946886492062338 0.07358293735693534

fc.2.weight f8 [200, 200]
00000000: 427e b468 4882 833f de47 0b5b 271e 94bf
00000010: e873 1bde 2dd1 c9bf d6e9 b026 ae8f aebf
00000020: f13b 7e2f 8071 aabf 7afa a122 7710 a13f
00000030: c760 e6a4 595f 873f ba25 6d6e 9544 82bf
00000040: 8c70 47d5 1362 393f 5a0c b36d 0f58 9f3f
00000050: 860b 540d b4b9 863f 8c14 296c 9d89 83bf
00000060: e6c9 60a7 01cc ba3f 1edc f73d 0492 a33f
00000070: 07a5 10c0 c018 873f c4be dfc9 efae b43f
00000080: 1146 7bf9 2374 9dbf 99b9 9c66 1e89 c2bf
00000090: 16de de9b bf91 be3f 55c1 c8b1 de2e b3bf
000000a0: eccb e618 18fe c8bf e70e 664f c636 a13f
000000b0: 6567 de2a 928d a13f a86e 6c12 c3b2 d0bf
000000c0: c06c 7466 8e83 85bf ae98 ffbe 0760 6fbf
000000d0: 0d91 4aed 5253 91bf 5f91 51c8 f73b 9c3f
000000e0: 79de f359 f2bc c13f 461f 00f8 be95 683f
000000f0: 5046 5173 2e6b 8d3f c51d e6ee 2fc7 8dbf
00000100: b213 229c 5170 603f 9dd3 7e02 c800 b73f
00000110: 8dc2 4e60 b596 c13f 590b 3a23 be23 ab3f
00000120: dcd6 bbc7 192c a33f 21d4 4cbd 8bf0 903f
00000130: a988 c20e 9779 a43f befc 4f88 ae1c 9a3f
00000140: 8579 e3cd c661 a23f 76e5 6240 2c52 aa3f
00000150: bc76 8588 cb22 973f 6ae7 0ce7 483e b3bf
00000160: 28f2 2623 5c7f ae3f a6a9 70ae e8c4 af3f
00000170: 58dc c454 96d8 7d3f 8436 a164 980f a4bf
00000180: fb5c fb51 54fd 953f e5c2 b7c9 adf4 70bf
00000190: 5209 0142 0cde b4bf 286e faa9 41ae a13f
000001a0: e456 25d7 dacc b4bf b0af 7b7e 6962 b53f
000001b0: 72aa 3935 05b8 b3bf e543 f029 7b18 aa3f
000001c0: 6b04 cf64 043e b0bf 0e8f 1edc c096 903f
000001d0: d071 f846 e389 c0bf 11d0 e183 1494 c23f
000001e0: a3d6 4705 b617 a73f a8b2 236a 5fb9 93bf
000001f0: f54c 7f1d 80e9 6e3f ce8e a798 46f5 b0bf
00000200: 9197 686a 02e2 9fbf dbc6 75e4 a4e3 81bf
00000210: b2c0 3889 2b36 b8bf 831c 3ae0 9f3e 8c3f
00000220: fa88 559d a392 783f 85d2 30a7 17e7 abbf
00000230: 9ac2 3660 b33b 8c3f c955 f3ec d53f a43f
00000240: bc70 09f2 679c a9bf 028b 0d11 270d b4bf
00000250: ecc8 f8df 8509 74bf 0f8a a5c6 dfe1 a0bf
00000260: eee0 2190 82cf 973f bed1 9589 d3f6 9ebf
00000270: b7b1 1c41 9e7e ab3f 47f2 5ff9 42fe 62bf
00000280: 0132 63f6 bcf7 a23f 4c11 298b d033 a43f
00000290: d9af f97f 6c24 853f 519b 2532 17d4 bfbf
000002a0: 0cd2 40b0 79c0 7f3f 1ec2 505a 7dda b93f
000002b0: 91f1 7e49 895d 5f3f 1b23 d468 9282 963f
000002c0: 9d92 f33e 7584 febe be0b 50ab 5990 a83f
000002d0: 8721 bec8 8f6d aebf d14c 44d4 e17e 6a3f
000002e0: 6aaf facf f706 a13f c0f2 a98e 02d1 9fbf
000002f0: 5ebe b98a 40a7 b03f 49f4 29d7 c644 b1bf
00000300: d63e 81ec fdb3 a13f e676 3f3c 92e3 aebf
00000310: f79e 6fb8 6e3b c2bf b4f6 c5e8 5a71 b43f
00000320: 9834 83e7 ed9c 923f 1fda d4e8 d22a 96bf
00000330: ea34 3ce2 2b77 a33f 40bf 3667 1b9c a63f
00000340: 72fd a6cb c466 8d3f 17e2 a1f0 b1ec b43f
00000350: c917 f12c 9707 c53f 704f e395 8cec 91bf
00000360: 92be e03f f9fc 84bf 510b 6cb1 b0e0 5f3f
00000370: 3b46 2fcf 269b 903f ca07 34b9 7926 adbf
00000380: 4bde b202 ac14 a93f 7034 4b99 4511 9b3f
00000390: 793a 6d8a a152 373f f28c c3c0 f366 963f
000003a0: 7674 874f a0e9 9c3f 4678 b725 34fa a33f
000003b0: 2eb7 22f5 8c4e b33f f7bc 536c 478a 903f
000003c0: a60a d2cf 0623 9d3f 54b7 2b4d 1820 8ebf
000003d0: ae28 1044 f255 99bf 992a 771c a1f4 aebf
000003e0: 825a c359 4ffd 973f b1d7 87ad 2228 97bf
000003f0: af0a 5061 e553 78bf 76b0 2d4a 0ee9 b2bf
00000400: fcbe 292c ba17 83bf 6f3e 4737 aef6 b6bf
00000410: 1f78 46ce 8521 b13f bf38 a6a9 401e 913f
00000420: b6b5 466e bb29 a4bf 3de9 4211 e601 afbf
00000430: 6d8a ae90 377c a53f 3d8a 7e3f 68f7 b0bf
00000440: de36 4af4 c2f8 943f 6666 a8a6 0eb0 aa3f
00000450: a4fa ce55 b1e7 a3bf 3ce6 b18f 52b7 b0bf
00000460: 389a 44c5 9269 abbf a2a6 62e2 6129 b63f
00000470: fb6b 4908 2229 b4bf 28e3 5e33 b404 a5bf
00000480: 57a5 2dcd b60a b43f 9af7 539b bb50 b83f
00000490: 3c12 aeb0 ace3 abbf e50f d722 2e49 a33f
000004a0: 70ad 3baf 827e a93f 9e99 bc22 31a5 9f3f
000004b0: b56f 80af 5ee5 bfbf 6388 5906 2e84 95bf
000004c0: 3de3 ed95 c27b 933f 95f3 d199 352f 97bf
000004d0: aa0d 3e67 b676 b8bf d790 5396 f5f2 8f3f
000004e0: 94f3 0d93 d134 a23f 9e3d f779 334d a3bf
000004f0: c697 072f 5312 a63f 61ff 0560 b1bd 93bf
00000500: 6b9f 90d8 93b5 b13f 3783 273d 80e8 91bf
00000510: a045 c847 d362 ae3f 1b56 fc05 d413 9c3f
00000520: 548c fb9a 0504 a93f 7400 3aca d0aa 79bf
00000530: 1992 e3c2 637a 88bf 5968 ef8a 525d 923f
00000540: d9a6 f0f6 8379 b0bf 7818 dc45 69e3 a7bf
00000550: d22e 02a0 7f7f b8bf 47af 0ede 4ba6 903f
00000560: d2f5 273c 7987 8e3f b1b4 cb51 58e6 b3bf
00000570: 2fd3 c93f f11b acbf 663f d20c 1118 aa3f
00000580: 28ac 6256 9f4a 9a3f 2545 20d7 152d a23f
00000590: 5178 874e 483b 9a3f 7744 99e8 c9bd b1bf
000005a0: 68ca b148 ff40 88bf de27 96e7 7945 93bf
000005b0: e7d7 6db0 20a1 bc3f 1ac5 b60e 1495 a2bf
000005c0: 4512 0587 78b2 87bf 1b68 4e41 8c7d b8bf
000005d0: 9ecc d8aa 9449 aa3f 5668 3396 0dbf c13f
000005e0: 2baf ba67 55ab 983f be2c 4de6 7f23 7d3f
000005f0: b792 9f79 b352 ae3f ec6f c244 3a09 b0bf
00000600: f995 837e 6563 a4bf 9340 c15b 7f63 65bf
00000610: 693c 1c22 9268 c33f 51df 65e6 210d bbbf
00000620: fc1b ab22 bcaf ab3f e509 02af d549 6b3f
00000630: 5d42 60cb 62df 843f ec0c 9cae 39fa b43f
00000640: c1ca 1808 83ff a6bf fadb b48e 464f a93f
00000650: 142f 8571 b1e8 95bf 12d4 17d6 1874 913f
00000660: a0c4 15dc 43b0 963f 748f bf7a 559a ad3f
00000670: 148d 2555 9928 acbf 17d8 636e 14a1 a93f
00000680: ecf7 a40f 29f6 adbf 697f 168c 2595 aabf
00000690: e531 08af 974c a73f 9191 40a6 06cb b0bf
000006a0: fe45 7e4b 1680 95bf 25a8 9c62 d52f 763f
000006b0: b75d 5e05 aef1 953f 43c2 536f c49a 783f
000006c0: ddce a290 631f 843f e700 8035 b1a2 ab3f
000006d0: 6d73 814f da3a 9ebf 670a da5d f2a0 90bf
000006e0: 9846 5e2f 1a10 9a3f e8e1 7258 9172 86bf
000006f0: 3ce4 39f5 b9a4 aebf 9eaa 1329 ef1b 853f
00000700: 63d9 2c1d 8e37 a5bf 9252 fd48 1663 afbf
00000710: e45e 90bc df31 ac3f 1737 ecf9 8fe3 a5bf
00000720: d26e e392 7bbb 90bf 07dd 5108 af7a 573f
00000730: f8a9 6114 c7e9 acbf 6441 a840 0d04 a33f
00000740: ccb7 9c01 169e a1bf 70e0 d7d5 bc28 87bf
00000750: 7693 cadd 792f a2bf 6958 9ed6 8574 aa3f
00000760: 1767 8070 0ec7 9cbf a50c f976 e9dc ac3f
00000770: 6434 c800 bcf8 9b3f 782c d712 da75 93bf
00000780: 0eae e708 cb6a 963f a242 3753 8fe2 593f
00000790: 20d9 4da4 f910 913f d59f 57e7 534d b23f
000007a0: 1d8b 7387 3d91 933f c484 e176 50ba ab3f
000007b0: 8697 2700 5ea2 a7bf 35b5 a63c afb1 6f3f
000007c0: 58dd 116f e5e5 ab3f 608c d943 c619 b1bf
000007d0: 06d5 087d c936 aa3f 64aa 5c34 19dc 65bf
000007e0: 4399 9437 19b9 9d3f 7201 7eb5 96b2 89bf
000007f0: 1322 aab1 ce4d 943f cfca 2b8c e686 a3bf
0.009525838561386672 -0.019646277362717394 -0.20169614167289684 -0.05968994352629735 -0.051647191808221644 0.03332874582064434 0.011412334771009459 -0.008919875557370161
0.00038731559950889376 0.030609360762138806 0.011096388489482367 -0.009539823401733004 0.10467539154414104 0.038223393024900285 0.011277681218489833 0.08079432180943075
-0.028763353445191046 -0.14480953226434393 0.1194114451926612 -0.07493392792162486 -0.19525433746238663 0.03362102240774139 0.03428322575855595 -0.2609107665937054
-0.010504829885169875 -0.003829970482899978 -0.01691941808043489 0.02757250938556532 0.13857869522302105 0.00300109194359158 0.014364588636598757 -0.014540075758090585
0.0020066827719937503 0.0898556715099645 0.1374117584469058 0.05300707035077918 0.03744583666950316 0.016542609623872665 0.03999015860724004 0.025500037259914114
0.0359022260979485 0.051408179149301 0.02259367008934164 -0.0751691402519136 0.05956542901137524 0.062049170774418 0.007286631804439635 -0.039181482585815025
0.021474187377717318 -0.004139593943805341 -0.08151318179537739 0.034532596587464603 -0.08125083687385942 0.08353289926497953 -0.07702667760319473 0.05096802603669185
-0.06344630681179957 0.016200078425426638 -0.1292080017600612 0.14514404716067067 0.04510277571163825 -0.019261828282582855 0.0037734510660613015 -0.06624261118809757
-0.031135595078147175 -0.008734977933929347 -0.09457656955851482 0.013791321783413807 0.005999220962026758 -0.05449747005369424 0.01378574502345602 0.03954952733480927
-0.0500214083628818 -0.07832569280939697 -0.004891894291676229 -0.03297328281293598 0.023252525374545856 -0.030238442680870163 0.053700395057919285 -0.0023185070122038495
0.03704634196910562 0.03945781420455549 0.0103233791880583 -0.12432999586381512 0.007751918168697813 0.10099013762442907 0.0019143906301755979 0.021982467315896686
-2.9103673964042167e-05 0.047976305162613184 -0.05942963910553361 0.0032343302465363895 0.033256286752787315 -0.03107074733496762 0.06505206477026479 -0.06745569947266107
0.034576354141447815 -0.06032998071144195 -0.1424387360159398 0.07985466177884853 0.018176762824442777 -0.02164773508158124 0.03801858078632299 0.0441597522252537
0.014356172051406022 0.0817366802674616 0.16429414457723926 -0.017503925941880494 -0.010248133909129185 0.0019456601636995317 0.01621685638003199 -0.05693416963369165
0.04898583920424623 0.02643307445650972 0.0003558773409410364 0.0218771063235978 0.028234963277885737 0.03901827774437598 0.07541733727222485 0.01615249251056824
0.028453928408007777 -0.01470965371614922 -0.024741921810382088 -0.060460123753349033 0.023427238324837514 -0.022614042130917947 -0.005939384475825689 -0.07386864958761116
-0.00932259986186023 -0.08970154618804725 0.0669177654840216 0.01671696696717428 -0.03938089104790825 -0.06056136093816853 0.0419633258927846 -0.06627513456491214
0.020480199966690253 0.0521244600715363 -0.03887705013720691 -0.06529727943588964 -0.05353983552986502 0.08656894471155366 -0.07875263883890675 -0.04105151297648596
0.07828848370777074 0.09498188535869048 -0.054471394126299505 0.03766769576353094 0.0497933234126674 0.030903594727669785 -0.12459365639409621 -0.021012038362080775
0.019026794815974347 -0.02264102698653721 -0.09556140919271763 0.01560012688646177 0.035559224320400734 -0.03769837249603401 0.04310855816929364 -0.019278308378033574
0.06917690312604712 -0.017488483173909244 0.0593477273106473 0.02741938864263292 0.04885880963208736 -0.006266418061955038 -0.011952189812697122 0.017934121828013214
-0.0643541791802379 -0.046656884935189546 -0.09569547325571229 0.01625937025862292 0.014906832836454696 -0.07773353573766674 -0.054900683437983815 0.050964863600824015
0.025675286910580436 0.035500223646645325 0.025616769593277692 -0.0693021958225176 -0.011842722326240465 -0.018819718131943712 0.11183361346579056 -0.03629362754453265
-0.011570874805905915 -0.09566570848838334 0.05134262643368824 0.13864297708534207 0.02409108586895951 0.007113933189269504 0.059224709126089285 -0.06264080218028284
-0.039820834821323765 -0.0026109206647007637 0.15162874856511913 -0.10566913485479047 0.054075125915510086 0.0033311055668161387 0.010191699821036676 0.08194313538483627
-0.04491815065229821 0.04943294994375687 -0.021395466378904507 0.01704443747253854 0.022156772907184874 0.057818099244996285 -0.05499724544895393 0.050057066417068245
-0.058518679771154186 -0.05191914877946042 0.04550622951146347 -0.06559793051616782 -0.020996425969832082 0.0054167113646972674 0.02142974765555802 0.00600697262164879
0.009825494624557002 0.05397561815334644 -0.029521380522385444 -0.016238963106398076 0.02545205034363693 -0.010960708152524881 -0.059850512680846596 0.01030718654734147
-0.041439477025437176 -0.061302849206787205 0.05506800820165639 -0.04275178838552856 -0.016340189781529464 0.0014330586721181275 -0.056471081960655256 0.03714028753541035
-0.03440922517471243 -0.01130816962812295 -0.03551846344388469 0.051670248459388564 -0.028103089920569504 0.05637292458825386 0.02731603388570071 -0.019004256629881117
0.0218917583642178 0.00157989498699266 0.016666317609144277 0.07149242780690142 0.019108735458654203 0.054155840408165484 -0.04616063835037125 0.003868906268698647
0.054488344009707645 -0.06679953724374021 0.05119924212741904 -0.0026684276844169286 0.02902640725837925 -0.01254766217584866 0.019828061670098828 -0.03813858471939612

fc.2.bias f8 [200]
00000000: 1415 f670 a3e1 92bf 28e5 128a 1bf6 b03f
00000010: 865e 8b2b e309 a0bf d53c 5ef1 0d72 a8bf
00000020: 39f8 8a33 09bb b23f d380 f256 de1e a73f
00000030: 9fa9 421a 397a b13f 256e 020a eef4 a13f
00000040: a04c e73a 1325 73bf fcaa 8bf1 49b0 823f
00000050: c3c0 f82f 855f 823f 886e 3845 0e44 ba3f
00000060: 11ba 9407 1ac4 b33f 5deb 3039 0a9d a33f
00000070: 51af 7869 58a3 653f fd44 7946 2934 a33f
00000080: 203a c9f2 adfe 40bf 578b da44 66a4 b93f
00000090: 449e c3e1 743b ae3f af15 94f6 2303 963f
000000a0: faa0 58ca bdc9 a13f 89f6 c907 3e1c a3bf
000000b0: 66f8 ad2b e663 5abf 608a 10c8 f203 adbf
000000c0: 865f 8461 74a9 b73f ded8 d47b a4d5 a5bf
000000d0: 1e36 bb64 93d0 bf3f 5ddd a593 371c ad3f
000000e0: fed3 870d 334b 9dbf 752a 4262 3a16 a73f
000000f0: a8b4 1adc 4e52 90bf 5c92 286c 3cc4 ab3f
00000100: 0856 5172 2c36 a73f 54f8 4832 2a72 9ebf
00000110: b9f1 290d f95b 88bf 8f32 2c3c 890c ad3f
00000120: 8637 6844 0bd1 a2bf e4b1 6875 613e ba3f
00000130: 60f7 918d 630b 90bf 7e30 2942 0d45 b2bf
00000140: 9828 9b44 46f4 b1bf 24bd 81da db51 863f
00000150: 757a 1d76 dc6e 813f fd5c 7c8b 8bc0 ae3f
00000160: 67e5 f757 24c4 a03f 54d9 b824 9c67 b0bf
00000170: 23e2 bd76 b255 a2bf 88f6 027f 30f4 903f
00000180: 52ed 1f73 46aa aebf 71bf b56c 52a2 a83f
00000190: c5c4 4c11 2c89 9bbf 1141 4834 1832 ab3f
000001a0: d834 6519 c5e9 45bf f4de c4a5 1ca6 c73f
000001b0: f13d 7579 2b48 623f fe51 05ad 7d95 ae3f
000001c0: 270e fd89 573f ab3f c77a 770f 041f a6bf
000001d0: e05f 254d bebc aebf 5656 f99c bf80 a1bf
000001e0: 5db2 9d18 fa1f 9abf 33a9 7df5 d3d9 823f
000001f0: 9446 88cb 3723 c43f e57c 4502 b95c a83f
00000200: 8461 99e0 acc2 86bf f0e9 9d0c afc1 7e3f
00000210: b187 2a36 504a a83f 3a3b 7633 ba7f acbf
00000220: e1f7 ca2c aae1 9f3f f780 afad 642d 92bf
00000230: 23a8 d0f9 9086 9abf 6546 093b 736b b23f
00000240: d1a6 4cc3 1ba6 803f 1f3f 5b2b 227a a2bf
00000250: 756e a758 2506 6a3f fbad 06ce 0032 c63f
00000260: 5977 7f7d 12c5 ae3f 6698 b1b2 cfdb 9b3f
00000270: 9587 79b9 3fc1 a33f aef9 68ab 61da 96bf
00000280: d1e6 8972 685a c73f 6f15 917f 5fb7 a23f
00000290: b0a2 2945 e67b b63f 5d90 3134 f024 8fbf
000002a0: 193c 1747 22e2 b73f 6da5 6d6d 8cfb a8bf
000002b0: 6de2 1cc4 41b1 ae3f b3bf 4dd7 763c 8fbf
000002c0: 3a15 7fac 8a1b 91bf 5723 afaf 38ba a83f
000002d0: e329 8f70 be7a a2bf 0889 20b5 55fe 973f
000002e0: f755 5b88 a1fd ad3f 9d25 0844 b921 993f
000002f0: eba4 df30 5962 afbf 40dc 149c 80ac a43f
00000300: 9d38 6637 a727 af3f 9528 ba27 7e13 8abf
00000310: 3151 9223 e96a cb3f 60da 3441 1899 b43f
00000320: ae04 b7bf 0dd2 75bf e09e bb8e 0b5d 98bf
00000330: dcf5 eb23 89c4 a5bf 0046 a8ee 90a1 be3f
00000340: cd68 4920 43b6 75bf 9b74 1492 328b b0bf
00000350: 2dae 8d09 265a b03f d6f6 3c42 70f7 b23f
00000360: d59e 9a6c 6de0 b53f 073b a4e6 ead6 b33f
00000370: 34f7 3871 2116 b03f cf23 0690 0f7c a8bf
00000380: f22b 54f8 9b62 a8bf dc36 9f10 182c c13f
00000390: 77de 7a67 566c a23f f489 54c8 2f7f b0bf
000003a0: 38bc 6f1f feae 8e3f a086 7bea 5b9e aa3f
000003b0: 1e5c ded0 2350 a83f e1dc 511b 010d b13f
000003c0: 9aaa b014 1360 adbf 6daa 25a4 5caf bd3f
000003d0: cfbe 2dbb 0f05 a43f 50fa fbda 6c12 ac3f
000003e0: f6e5 805b dbaf a1bf 6008 4b7c 88f1 a8bf
000003f0: 1560 c28c 9faa b83f 7e02 13ef 4414 98bf
00000400: a869 f455 6454 a73f d3ab 5bda 9b1b b73f
00000410: 8784 0500 9604 abbf fd4a 43b5 4a30 63bf
00000420: 1732 0d35 eaac 85bf 2869 2bc4 c523 8c3f
00000430: cac3 556d 3c9a 94bf a400 1c82 1bdb afbf
00000440: a965 0419 cdbf a0bf 5793 f4ef ce0e 9d3f
00000450: fcb1 94bc 033a b2bf 587a c393 652d 87bf
00000460: 35c0 20c6 900d 9d3f 2fa2 80a4 c076 733f
00000470: 27f6 5e07 7d70 a5bf 293e bd2c 8d5f b03f
00000480: b36d 8673 02e0 a33f d212 8c98 e6c3 a53f
00000490: e2e0 48a4 1bdf a73f 2462 110b 49f9 923f
000004a0: 40ff 5e1c 9426 b1bf 7a01 b6e0 4748 b33f
000004b0: a15b a2fe 8e10 993f 8742 6c17 aea4 9abf
000004c0: 8bac 1d8f 4824 c03f f35a 302f 43d7 af3f
000004d0: 4939 2aa9 7698 92bf bbd9 7bb4 27fd 9d3f
000004e0: 496f 2cc7 fefd aa3f ef09 673c 777c 893f
000004f0: c16c 594e 7655 8ebf 546b f170 f39a afbf
00000500: dc62 bac1 2402 74bf 57a3 b211 ea2c ad3f
00000510: c07e fb09 1478 aabf 4291 956a 69c0 a03f
00000520: a84b e06b 693a b0bf 695e 68f8 5592 b0bf
00000530: 8a97 4409 0c89 a33f fcff df7e 3ae3 bb3f
00000540: c9c8 71e6 8aad 98bf a5fb ae04 a81c b93f
00000550: a812 2828 7359 893f 323b 49e9 80c0 80bf
00000560: 683d f64c a7ff a13f 8044 c8a4 0393 9fbf
00000570: d73a b46f 6fe2 663f 04b8 183e bdd8 b13f
00000580: dfbf 9674 1df0 8f3f ce58 b686 df33 903f
00000590: 1c95 df73 d708 c03f 39b5 c04f 2ec4 853f
000005a0: 0efe 826e f697 b3bf 6611 32fa 4fd4 b53f
000005b0: 2921 ccaa 4b32 b43f 1aac 26b7 2133 b53f
000005c0: 38bf 33fb c52d acbf de1e 747f 85d7 82bf
000005d0: a80f f13b 3b0e a1bf 553f 8ec6 83f2 ae3f
000005e0: 3256 3f2c aa01 9dbf fefb 24ca ccc7 9c3f
000005f0: 7d62 5f51 1a30 963f 225b d113 96cd a03f
00000600: 23b7 4b06 1fd9 a5bf ea6a e5bb dbc7 65bf
00000610: a2be f5cb 5746 b13f 8ea6 1931 e7eb 69bf
00000620: 566a b80b 8423 a13f 07a2 503d 2b98 a53f
00000630: 74ef 7447 2288 92bf a6a4 7113 ff29 a23f
-0.01843886734925089 0.06625530358259779 -0.031325434747199885 -0.04774516650570041 0.07316644199724544 0.04515738307350294 0.0682712258446032 0.03507179138361164
-0.004674029462381629 0.009125306781660118 0.008971252943496549 0.10260094823791566 0.07721102414209492 0.03830749462254943 0.0026413656994658604 0.0375073336150624
-0.0005186414105738425 0.10016478711126574 0.059047367629145 0.021496354985193807 0.03474228949591125 -0.03732484669761244 -0.0016107318649285717 -0.0566707486361977
0.09242942219532155 -0.04264558803190409 0.12427636346111412 0.056855904363085165 -0.028607175541726086 0.04509146165317627 -0.01593898027811194 0.0542315370587729
0.045335186915206604 -0.0297323792640259 -0.011894174303272874 0.05673626765756012 -0.03675112924621175 0.10251435390882296 -0.01566844512534915 -0.07136614670997862
-0.07013358282998394 0.010898320775793176 0.008512232164943992 0.060062752511095475 0.03274644445259405 -0.06408096214804476 -0.035810067171898184 0.016556508781596452
-0.05989284663516038 0.04811341836000239 -0.026890457683468556 0.05311656606875393 -0.0006687366865577816 0.18475683302107593 0.00223167887785513 0.05973427521772477
0.05321763572149179 -0.04320538224032116 -0.0600337475941044 -0.03418539801775171 -0.025512607338372784 0.00920453637055072 0.15732476652242566 0.04758241799094679
-0.01111350117132371 0.007508930002467981 0.04744196568687132 -0.05566198232837967 0.031134280189455302 -0.017751286602902785 -0.02590395474195629 0.07195205870928019
0.008129326722684212 -0.036088054459126655 0.003176758710862699 0.17340097484462533 0.060097291774339374 0.02720570114288314 0.038583747282941484 -0.022317434393920692
0.18244653313359163 0.03655527527056789 0.08782805622616752 -0.01520717295915846 0.09329427943815495 -0.04879416309160942 0.05994611281352467 -0.015252045102641753
-0.016706625727029613 0.04829575676519109 -0.036092711677685484 0.023431147747154518 0.05857567586432915 0.024542708184559826 -0.061297213760392065 0.04037858872691702
0.06084940482388499 -0.012732492053391812 0.21420015561000974 0.0804610404200985 -0.005327275950038386 -0.023792439066624094 -0.04251507342813074 0.11965280367464715
-0.005300771914870062 -0.0646239859238044 0.06387555821645981 0.07408811204092144 0.0854557409426165 0.07749813204666732 0.06283768667432527 -0.04782150872330925
-0.047627328933309246 0.13415814220063893 0.035982799655752844 -0.06444071427225834 0.014982209524502563 0.051989433644633154 0.047486418959288054 0.06660468022333844
-0.057373615527770386 0.11595705993173917 0.03910111579795982 0.05482807324550676 -0.034544806403982095 -0.04871775166749681 0.09635350405221772 -0.023514821140226953
0.04556573437931216 0.09026502686508246 -0.05276936292899231 -0.002342363275695701 -0.010583715194706618 0.013740105675812034 -0.02011961381271358 -0.06221853221177412
-0.03271332674394085 0.028376801868165682 -0.07119773248695788 -0.011317056247603194 0.02837206086422857 0.004751923093899309 -0.04187384333588922 0.06395799963251449
0.038818432428537795 0.0425102292265699 0.04662405376842728 0.018529073048144565 -0.06699491207745911 0.07532166706187651 0.024477228442801317 -0.026018829517001876
0.12610728252488843 0.06218919707332828 -0.018159727168091142 0.029286022559028995 0.052719079793148334 0.012444430857503767 -0.0148114435825647 -0.06172905687045352
-0.004884856778198023 0.05698329416310937 -0.05169737455230239 0.03271798540189021 -0.06339129337020089 -0.0647329074348534 0.038154960757579806 0.10893598172697233
-0.024099512400831444 0.09809351076454094 0.012377643263797936 -0.00817967140133433 0.03515360655284888 -0.03083425229312242 0.0027935196391192063 0.06971342817334408
0.015594701881894877 0.01582288036078055 0.12526982457999558 0.010628091629849666 -0.07653751562155994 0.08527088030138472 0.0788924495683473 0.0828114578386451
-0.05503672305519419 -0.009200137092661927 -0.033311701838584284 0.060443990695715634 -0.028326662970206758 0.02810592635909969 0.02166787263544955 0.0328184985343596
-0.04267212821819857 -0.0026587764433946186 0.06747959832659459 -0.003164245172958164 0.03347408907957987 0.04217658160661491 -0.01809743462693754 0.03547665703156015
