car_ros2/car_ros2/losses/none2.pth (torch, 405063 bytes, 6 tensors)

fc.0.weight f8 [200, 47]
0	0x3f9315b0609403e2	0.018637424368538442
1	0x3fb0300e2fa95cda	0.06323326743710159
2	0xbf966488e9e1cd39	-0.021867884898211207
3	0x3fb11068ba01542f	0.06665663281576494
4	0x3fcd03cdd2ee9359	0.2266785888615697
5	0xbf73ee278dec4974	-0.0048657937138777314
6	0x3f74d1b5f34681d7	0.005082808249796198
7	0x3fcacdbe6b9bae32	0.20940380338957848
8	0xbf905d12271bbf2f	-0.015980037343012284
9	0x3fda4a34e96283c8	0.4107792166851678
10	0xbfa85f318de4638d	-0.04760126931268536
11	0xbfc13a000a6c05d3	-0.1345825243843551
12	0xbfb86893eaa7d90f	-0.09534573058030936
13	0xbfaf9a4a70a8b837	-0.06172402024491002
14	0xbfcc5e1319c24f94	-0.22162092931523303
15	0xbf986a0d2471e810	-0.0238420537466269
16	0xbfc7ac062204e759	-0.18493725453464085
17	0xbfde5c8e4ebbe9de	-0.47439916314001873
18	0x3f982e231c3850ab	0.023613499257479614
19	0xbfd8a77b21839352	-0.3852222277912932
20	0x3fa402ac440834c0	0.03908289270848675
21	0xbfa704746ceed1db	-0.04495586232897938
22	0x3fab4b8c6a1bf87f	0.05331076426772174
23	0x3f43459b59374c49	0.0005881317651365094
24	0x3fbc16539011f973	0.10971567408885168
25	0xbf95aa1f7f6aa1d2	-0.02115678038777153
26	0x3fae7af849c184fe	0.05953193569508562
27	0x3fde6f2caa23f309	0.47553555121685115
28	0xbfa135602898aa97	-0.03361034865914297
29	0x3fe196baddba14b9	0.5496496515849209
30	0xbfa68b761b6637b5	-0.04403275570358237
31	0x3fa452afab4adb7d	0.03969334569904157
32	0x3fb82b82145392c5	0.09441388126613066
33	0x3f96f0d3655d80ed	0.022403052388995915
34	0xbfe1febe9eb1a0d8	-0.5623467540254081
35	0x3fa7797c5c8bf6d0	0.04584873800011524
36	0xbf96ea1c3aa3a26d	-0.022377434805920183
37	0xbfd521dd2d17652a	-0.33019189265685844
38	0xbf9bd208299b368d	-0.02716839555687627
39	0x3fc4f4f7952492c0	0.1637258032070772
40	0xbfd47b6e06ec2ba1	-0.3200335567095696
41	0x3f7f5a8800000000	0.007654696702957153
42	0xbfb2e3f400000000	-0.0737907886505127
43	0xbf8a4314e0000000	-0.012823260389268398
44	0xbf88dc7da0000000	-0.012139302678406239
45	0x3fb2c37300000000	0.07329481840133667
46	0xbfa2d81aa0000000	-0.03680499270558357
47	0xbfc34d6a6bad4d7e	-0.1508000398413109
48	0x3f80e58cb88ccbee	0.008250331289309156
49	0xbfc187b9df6c5fdf	-0.13695453080504102
50	0xbf993de1d541c85f	-0.02465012420766077
51	0xbfc06d2caab1d922	-0.12833174071028802
52	0xbfbf8c77cdc869d2	-0.12323712133403511
53	0xbfbd2381c28306c3	-0.11382304190467622
54	0xbfc1125e8fe680c6	-0.1333730890883144
55	0xbf94e57c85f79a79	-0.02040667121573356
56	0x3fc47d57612d1721	0.16007511372497965
57	0x3fb4725634a94159	0.07986964021370592
58	0x3f9437d3a952cbbe	0.019744212350541572
59	0xbfb97c71915039e6	-0.09955510900201822
60	0x3fac5d0d70b407f9	0.05539743424198202
61	0x3fc61d79b78e2d1b	0.1727745195642932
62	0xbfc03dc34bcfe202	-0.12688485337982064
63	0xbfc153116cae1098	-0.13534753615033845
64	0x3fb9d1fddc08346d	0.10086046811939449
65	0x3fc3aab87b39d84f	0.15364748017208504
66	0x3fc1f42df4af3bb0	0.14026426742063114
67	0xbfcb02038b2367e4	-0.2109989575754404
68	0x3f99a30dda71b2e6	0.025036064584514593
69	0xbfb9000610a558d2	-0.09765661150354113
70	0x3fc9b3ef2bc78efb	0.20080365789100782
71	0x3fc1c66dea502fc8	0.13886808339191092
72	0xbfc643709ffef0b7	-0.17393310367868306
73	0xbfa1c693691e7dd6	-0.03471813829605323
74	0xbfa5eada18af358c	-0.042807403100236646
75	0x3fcc54f71bcd1840	0.22134293420293893
76	0xbf8cb3c83168420b	-0.014014781959333275
77	0xbf8c5808b545aaae	-0.013839786560045777
78	0x3fbcdb7efe778afe	0.11272424423763636
79	0x3fbf32dcd3899db0	0.12186985172740239
80	0x3f641c4e60bc2ae4	0.0024549036805913017
81	0x3fa25039584db7a6	0.03576831057476619
82	0xbfc1e68801c62a29	-0.13984775625824966
83	0xbfa4a5268db10f49	-0.04032249908098479
84	0x3fc2ed4032a4536b	0.1478653189921276
85	0xbfb465769a8170dc	-0.07967320701704089
86	0x3fb1c844e589135e	0.0694621143712317
87	0xbfa5a73e04b975fa	-0.0422915821807059
88	0xbfaf7fe540000000	-0.06152264028787613
89	0xbfb85602a0000000	-0.09506241232156754
90	0xbfbddd1040000000	-0.1166544109582901
91	0xbf9f209e40000000	-0.030397865921258926
92	0x3fae4e39e0000000	0.05919056758284569
93	0xbfb54e47a0000000	-0.08322570472955704
94	0xbfb7776bb57392cb	-0.09166596584288837
95	0xbfb5359e2eb86d48	-0.08284939423213189
96	0x3fc321d3e02404bc	0.14946983761186583
97	0x3f8a91210a05339d	0.01297212421254717
98	0xbfba46a89b4640d2	-0.10264066496734195
99	0x3fc02ab1d3aa864b	0.12630293689021452
100	0xbf8fc60c34acb73a	-0.015514464719298727
101	0xbfb0865999ae2823	-0.06455001832924316
102	0x3fb9ba3947497502	0.1004977988281617
103	0x3fadfefbf5db5cca	0.058586000215365155
104	0x3f89bb58450cd544	0.01256436310505172
105	0x3fb9a192b8467526	0.10012166022211896
106	0xbfb8fb70bb336395	-0.09758667536097072
107	0xbfaf46da8978c7ef	-0.06108744552729194
108	0x3fc0db0dd73e157d	0.13168499956024596
109	0xbf24ed98623e8657	-0.00015966878083610816
110	0xbfbf00b297434349	-0.1211043948453724
111	0x3fa8a2e3e043c938	0.048117753149102105
112	0xbfd143fc954a3a0e	-0.26977457598778265
113	0xbfcb2d064eac033e	-0.21231154290583193
114	0x3fc1411d0e9f6abd	0.13479960645675773
115	0x3fa107369dddc6a6	0.03325815846518525
116	0xbfa14ffc00d7b9fc	-0.033813357451311504
117	0x3fbaf554b6dc9e2f	0.1053059526863016
118	0x3fc9c7a444dd958f	0.2014050804383882
119	0xbfc2a6c7af99af32	-0.1457147223876461
120	0xbfa4443f0d6224ab	-0.039583177932464984
121	0x3f7d1d80fe7a7a74	0.0071082152204825395
122	0xbf91ed2fd2d5e11b	-0.017506358378768554
123	0xbfab7f9a3b94d580	-0.0537079045993023
124	0xbfaaa042c3219a03	-0.052003942794545586
125	0xbf9f950e13c720f6	-0.030842037160057033
126	0x3f848b8aab3b730d	0.010031779623596937
127	0xbfa904109f454202	-0.048859137956814194
128	0xbfbcf2911356b3c7	-0.1130762741292549
129	0x3f7c12f4fbd61cfd	0.006854016273229788
130	0x3fc0c0ebb967e009	0.13088747551933036
131	0x3fb1d60632e47093	0.06967200033654057
132	0x3fba906ead1b911f	0.10376636244069858
133	0x3fb9c55f0d854657	0.10066789703457722
134	0xbfb12ecb8d25006e	-0.06712028690253799
135	0xbfaf8e95a0000000	-0.06163470819592476
136	0x3fb92f9cc0000000	0.09838275611400604
137	0x3faf941ac0000000	0.06167682260274887
138	0xbfbd966320000000	-0.11557597666978836
139	0x3fc2556960000000	0.1432315558195114
140	0xbf71f496c0000000	-0.004383648745715618
141	0xbfc4899eb964264f	-0.16044982960038331
142	0xbf9845a316852000	-0.023703144311440383
143	0xbf8365eb49295397	-0.009471738977632245
144	0xbf989f54157c828a	-0.024045289813445815
145	0xbfd2762b5e87da18	-0.2884624884749498
146	0xbf8feea61e6ea752	-0.015591905406683235
147	0x3fa5512295503498	0.0416346366183486
148	0xbfab3867c842b4ef	-0.053164714046355026
149	0xbfc3a1bb68d525b2	-0.15337317103175746
150	0xbfc538586c640b9c	-0.16578202526588093
151	0x3fb13fe98f19b05e	0.06738147491131616
152	0x3f9d6dececead876	0.028739644966400545
153	0xbfb46261052b255e	-0.07962614418206246
154	0x3fccbb273daf5154	0.22446146499590702
155	0xbfd0a1a46b6a33bb	-0.25986586084109903
156	0x3f808507cb3106c9	0.008066235435879492
157	0xbfbb03c8d8c5f278	-0.10552649776759349
158	0xbf9f172d49dc4491	-0.030361850388605453
159	0x3fb360e299a3eda2	0.0756971001718996
160	0x3fc7b753ffe8e021	0.18528223033513405
161	0x3fb4370de77fc63f	0.0789650621589084
162	0xbfbc7008c2ef187d	-0.1110845065987593
163	0xbfcd08e4b18e584e	-0.22683390302398937
164	0x3fc962ecb9dab5b9	0.19833144259375304
165	0xbfc202b1883aa421	-0.14070719863710315
166	0x3fb0397e03864586	0.06337726198241542
167	0xbfb8d600d3537620	-0.09701543006254854
168	0xbfc5f89d2f500b51	-0.17164959726513954
169	0x3fa0ec23ec46b018	0.03305160769681964
170	0x3fbb6c98fdafe939	0.10712581819089885
171	0x3fcb3bb555056915	0.2127596535818347
172	0xbfbbb49e31c76c02	-0.10822476115519922
173	0xbfcbbc7826531808	-0.21668912764852188
174	0xbfbf2c53a4b05682	-0.12177012224887032
175	0x3fbdbdbb2a865a2a	0.11617631710246515
176	0xbfbe2b1bc2d392ed	-0.11784528261666667
177	0xbfa6e5c60f4cb1b7	-0.044721783988595325
178	0xbfb1702f2d3269b4	-0.06811804631653368
179	0x3fb6acc6ec14058c	0.08857386840465703
180	0x3fc1fd593014ff8b	0.14054407928233234
181	0xbfa3ba1acc1553d2	-0.03852924100161882
182	0xbfb17b7fc0000000	-0.06829069554805756
183	0xbfc069d160000000	-0.1282293051481247
184	0xbfb9f70480000000	-0.10142543911933899
185	0xbfbf9e9c80000000	-0.12351396679878235
186	0xbfa93d2880000000	-0.04929472506046295
187	0xbfc10d90c0000000	-0.13322648406028748
188	0xbfb11d8e122127c5	-0.0668572229634768
189	0xbf74bc7f232f6160	-0.005062576895362575
190	0xbfad6c16e709a0dc	-0.05746528215678534
191	0xbf96a52faa46935b	-0.022114510314753626
192	0xbfc7094e61a4d4c4	-0.17997150199668088
193	0xbf8e966fd5f26139	-0.014935373036039411
194	0xbfc6c505535b8163	-0.17788759775340698
195	0x3fb23b1bb51126e3	0.0712144200380425
196	0x3faf4c2c9c48c5b2	0.06112803848044325
197	0x3fddb9a73c6d6ca5	0.46445637608639806
198	0x3fb1f1de85ca0dd4	0.0700968815454453
199	0x3f75e19a3c1496e8	0.005342104415182659
200	0x3fdb5d8dcfa71c5e	0.42758507994262185
201	0x3faa25f7a91f8e8a	0.05107091845982577
202	0xbfcb50988e190ba3	-0.21339709223147194
203	0x3fa090f94c5f500f	0.032356062481682206
204	0xbfba9095ffe5bebb	-0.10376870629783756
205	0xbfe5c93c81bac47b	-0.6808149846821289
206	0x3f9e919ff4b15579	0.029852389631135765
207	0x3fe1d0de559f86fb	0.5567466423346724
208	0x3faf6e93edb7001a	0.06139051701347871
209	0x3fbd6a5c91dda04f	0.11490419922995553
210	0x3fe7e683904e7202	0.7468889063343911
211	0x3fac302495bec198	0.0550548012537348
212	0x3fdbe35dd09c5d49	0.4357523476805523
213	0x3fa326fbf3d057d2	0.037406800758773465
214	0xbfb57c2e883cbd5c	-0.08392611337761963
215	0xbfe0738854ebe250	-0.5141030939694904
216	0x3faae817414d7ebc	0.05255196258690151
217	0xbfcd3cf53c29889d	-0.22842278897866644
218	0xbfbc882707711695	-0.11145252162631387
219	0xbfd142d9a7f545f4	-0.2697052135673339
220	0xbfe5a7dfb9228cb3	-0.6767424217145134
221	0xbf82398887e097be	-0.008898798605581845
222	0xbfdee77d28d8555c	-0.48287896145605713
223	0xbfb0394c28cbbd8f	-0.06337429042809205
224	0xbfb0691713117226	-0.06410354819804151
225	0x3fe38607138c728f	0.6101107961472553
226	0xbf899c0709f1e2da	-0.012504630080216673
227	0x3fce4e94e072e9bd	0.23677311858575747
228	0xbfd6d35e0cbc8341	-0.3566508411768617
229	0xbf75327ce0000000	-0.005175102036446333
230	0xbfa2c68420000000	-0.036670807749032974
231	0xbfb61105e0000000	-0.08619724959135056
232	0x3fbbc42c60000000	0.10846211761236191
233	0x3fb1fd0d20000000	0.07026750594377518
234	0xbfb3fcf580000000	-0.07807859778404236
235	0x3fb63741c5523339	0.08678065364274525
236	0xbfb91fa27b9ece02	-0.09813895719599233
237	0x3fbb71cc13810099	0.10720515705270585
238	0xbf7b802cd134018c	-0.006714034144579616
239	0x3fcbbec57bcd8ade	0.21675938172400938
240	0xbfb8a70cba6a4d09	-0.09629897643235465
241	0xbfc1380c751ca8a0	-0.13452296942097508
242	0x3fa0ad346093bd29	0.03257144621772518
243	0xbfa4e90fb0d6d178	-0.04084061654740173
244	0xbfc184741bf74190	-0.13685466161269888
245	0x3fb4bc67227a3fde	0.080999799649589
246	0x3fb6abb424845075	0.08855749026798938
247	0xbfd2d9c10963a44c	-0.2945406524364145
248	0x3f6b327e66b20036	0.0033199757359057237
249	0xbfc2abb48311bc6f	-0.1458650245653845
250	0x3fc46966076ab239	0.15946650850436742
251	0x3fc5e7d7c9b898f0	0.1711377844778279
252	0xbf8f7d8420858d9c	-0.015376121752246168
253	0x3fc9405cd9d7eaea	0.1972766936958899
254	0xbfc5faaa4835bbd5	-0.17171219373582738
255	0x3fc16dc2483f19e8	0.13616207626019095

fc.0.bias f8 [200]
0	0xbfd60fdc06ec2ba4	-0.34471798587827096
1	0xbfab6032c4b97602	-0.05346830989286035
2	0xbfae59d2da4a010a	-0.059279050013175974
3	0xbfcaf63baf0554c5	-0.21063943906725605
4	0xbfd4b5a8acbc8347	-0.3235875784758275
5	0xbfad759e368a450c	-0.05753797927639867
6	0x3fb4cc9a704afa80	0.08124699822927006
7	0x3fae9339aa2a1a79	0.05971698953822097
8	0xbfbd70e27749ff85	-0.11500373279886673
9	0x3fb69b9a6b944214	0.08831181646770175
10	0x3fa7ba470697bd95	0.04634305911519757
11	0x3f9c5579a13cce8e	0.027669811693341866
12	0xbfba782c8d42abbf	-0.10339621018162769
13	0xbfd7b4fa8b748ed6	-0.3704210626476486
14	0x3f8930be5dcf18fa	0.012300002324888915
15	0x3f85408897f6bbd5	0.010376994264189957
16	0x3fa2ec55517322b4	0.03695932978877661
17	0x3fc55b748a0a6ce4	0.16685349216718415
18	0xbfd68b1caaa11d7b	-0.35224072134993606
19	0xbfcbf17ba6f4bd43	-0.21830697681569164
20	0x3fc4b9c955eac91d	0.16191975302860664
21	0xbfd5749dd1409410	-0.3352427047232718
22	0x3fb7af56f1ffe2a4	0.09251922043029964
23	0x3f98e1b0e89f2e37	0.024298443029506536
24	0x3fb56d58bd3c06f6	0.0836997472761388
25	0x3f7d409e5c8d0ea7	0.0071417032239115335
26	0x3fae870b97143f17	0.05962406367518563
27	0xbfa2d7af319a3971	-0.036801791005120495
28	0x3fc28695ed1ee3cf	0.14473222807080652
29	0x3fbfc0da912e6906	0.12403646511521424
30	0x3fb77dc463f83543	0.09176280441916611
31	0xbfc62abddbc7999c	-0.17317937117986737
32	0x3fcfeb33dc71984a	0.24936531318525318
33	0x3fd4405f10afa9f4	0.3164289153052373
34	0x3f7b278b9e7660c4	0.006629510294622946
35	0xbfd4654749021178	-0.31868154649443836
36	0xbf91abc3b1830f7b	-0.017256791791410358
37	0x3fb500ae321925ac	0.0820416328725943
38	0xbfd5899453940cfa	-0.336522180194336
39	0xbf8ae43f656b8adf	-0.013130660326571895
40	0xbfc947ef4e5f600c	-0.1975077755621445
41	0xbfbebb5af7c7fd37	-0.12004631566377531
42	0x3fa087407a4441a3	0.03228188984406024
43	0xbfd2680fd8e6d380	-0.28760143453410336
44	0xbfd4b0edfa1c247d	-0.32329892563627266
45	0xbfc32a83c500dddd	-0.14973494643503119
46	0xbfc07e75bdec5973	-0.12885925077052782
47	0xbfb8438e94ac5d71	-0.09478083734244593
48	0xbfcbf23088fbed59	-0.2183285397403363
49	0x3fc135cdb8fa3d7b	0.13445445568184397
50	0x3faa1231e095e19a	0.05092006556054969
51	0x3fa89b6e17bf8267	0.048060837172447184
52	0xbfd950c7dfdadc02	-0.39555546627838123
53	0xbfbf89749cb6d661	-0.12319115472822652
54	0xbf839285a1fe7ba1	-0.009556812292258078
55	0xbf951f2149ca41ff	-0.020626564148701117
56	0x3fcb6cc1e5f575b0	0.21425651291330672
57	0xbfc026628262001b	-0.12617141119335504
58	0x3f8c9c2841a12187	0.013969721320010077
59	0xbfbed871a15ca003	-0.12049017133233524
60	0x3fceff014c7c67a6	0.24215713724771354
61	0xbfd8295761a31ca0	-0.3775232747543189
62	0xbfdad9a8f7240fe5	-0.4195349133954081
63	0x3fa4ce0a2cd76e96	0.04063445851690266
64	0xbfa11614424ea6e6	-0.03337157544531326
65	0xbfcf99bee10fe156	-0.24687944402081524
66	0x3fc2ce1f28b39e26	0.14691533553490038
67	0x3fc8827687753cbf	0.19148141492994417
68	0xbfbe08da9953ec24	-0.11732259982447651
69	0xbfa39ebc69c43f04	-0.0383204344853976
70	0xbfae4eafde6dfedc	-0.059194084074076975
71	0xbfa7e540696a6ebe	-0.04667092596829779
72	0xbfe85245db085ba9	-0.7600430753690165
73	0xbf51f9f279a9684c	-0.0010971897051122058
74	0xbf9ece5738e12d94	-0.030084002348571184
75	0x3fb8666e39e82e51	0.0953129664778143
76	0x3fc15ebbdf83dff7	0.13570354856324204
77	0x3fd6e9514be0c628	0.35799057397807355
78	0xbfc1b8682a62818d	-0.13844015187806882
79	0xbfd64f9bafbeb21d	-0.3486088958987084
80	0xbfd230c9f24bee29	-0.28422783529069534
81	0x3fa0b7b06bf0dcf4	0.032651436973930276
82	0x3fd0f5a6d3ae8a3f	0.264993387909417
83	0x3fdd84468e205560	0.4611984622909713
84	0xbfd0824b34e0a9c1	-0.2579525009520261
85	0xbfc03c1767365e54	-0.12683384456316793
86	0x3facb150dce1aa1e	0.05604031273181341
87	0xbfc4377b7ffa0da3	-0.15794318913331748
88	0xbfcb4e68f7dcd7cf	-0.21333038427991233
89	0xbfd4d2b8fd61d650	-0.3253614878115956
90	0xbf9eac2b73542345	-0.029953650392630555
91	0xbfd3f234e57d583e	-0.3116581193074842
92	0x3fb294832aab6354	0.07257861892447909
93	0xbfcf6f05d7b2fa4d	-0.24557564766105813
94	0xbfdc12fe9d0b8fad	-0.43865933739129553
95	0x3fae3123b86f30fe	0.05896865488429802
96	0xbfe1e02da638cff9	-0.5586155172845785
97	0x3fd2ea8c4a171eff	0.29556567416555873
98	0x3fb873901b205a85	0.09551335012688796
99	0xbf973b675245f6b2	-0.02268754424721093
100	0x3fb77bf31f2a8755	0.09173507223979745
101	0x3fa1d7872c255eb7	0.03484747327700915
102	0xbfd41ac8b13d2009	-0.314134762844788
103	0xbfdc74ad41e8e6e3	-0.4446213859224441
104	0x3fca732a587437bf	0.2066395694641283
105	0x3fca23885a238dc8	0.2042093696719418
106	0x3fd0957e8c05b8f4	0.2591244094281955
107	0x3f94d483df6a8988	0.02034193087696104
108	0xbfbbbc3dce2a89c6	-0.10834108622888214
109	0xbfd831edfc31a66b	-0.3780474627334118
110	0x3fc5cf244ee211b9	0.17038396693909677
111	0xbfd8e7406c58c6f6	-0.3891144807886201
112	0x3fbbb25cc6fdb2b9	0.10819034441164889
113	0xbfc1f9d7e8f62ad1	-0.1404371154315727
114	0x3f9c90a9b078c896	0.027895594974503078
115	0x3fc464604f6ba28e	0.15931323888732546
116	0xbfc79566b75e217d	-0.1842468638753977
117	0xbfc4112ebbf513e9	-0.15677436997989894
118	0x3fb6f400b5fb6654	0.08966068690224321
119	0x3fc984c4076e340f	0.1993641887933397
120	0xbf85360dbcfa69aa	-0.010357005433708395
121	0x3fc51f4f304da24e	0.16501798494870673
122	0xbf89c109b55e5033	-0.012575221869873676
123	0xbfc00620c5361a27	-0.12518701199970048
124	0x3fa1320cf20d821d	0.03358498053308188
125	0x3fb2bc3d6e295ff0	0.07318481387608222
126	0xbfb212d5a1ea4699	-0.07059989169126836
127	0xbfd569cf33999150	-0.3345830921082511
128	0xbf4d3b3a442fc2cb	-0.0008920702460938011
129	0x3fb8fccc3bcb97eb	0.0976073881134593
130	0x3fbba4d668fe85d6	0.10798397124610601
131	0x3fb9924a6ac38982	0.0998884688047266
132	0xbfb6fb00d5bfaba9	-0.08976750582193795
133	0x3fc55492d5d8c037	0.1666434806988961
134	0x3f830e65a07201d7	0.009304803809073654
135	0xbfbb30b171be053d	-0.10621174837981058
136	0x3fccc1be5ead537e	0.22466258643057907
137	0x3fc67015fd9853bf	0.1752955902344677
138	0xbfc16b229593a23c	-0.13608200362729572
139	0x3fcb92ce65a360cb	0.2154176708488705
140	0xbf837337b44ca960	-0.009497103872111168
141	0xbfa12ae70c6f8245	-0.03353044535447628
142	0x3fd5c7d486e4e075	0.3403216664623934
143	0x3fd16c3c1669c84c	0.2722311228636769
144	0x3fd353bed6fe5894	0.30198641772711565
145	0xbfc489eae38edefc	-0.160458909141873
146	0xbf7f6ed07b41071f	-0.007674040203768744
147	0x3fbf07ee0237a061	0.12121474794514732
148	0xbfbf8e8d6e2460db	-0.12326892794624504
149	0xbfb081d066342982	-0.06448080535134262
150	0xbfcf4af8cc1412ef	-0.24447545971647552
151	0xbfc80471cf23903b	-0.18763563741879516
152	0x3fc642dc28bdec88	0.17391540517187232
153	0xbfd4dc84df3442c8	-0.32595941350249946
154	0xbfbd1f96e91d3d53	-0.113763267433787
155	0x3fc7a22b79cd0563	0.18463653037364755
156	0x3fad5e31e0170c13	0.057359274487247223
157	0xbfd71f1cdc59d3f8	-0.36127397078172363
158	0x3fb302d4c63d1531	0.07426194991883929
159	0x3fc04e73b7a2f905	0.1273941656745096
160	0xbfe4a8c686f7b9c6	-0.6456024776542157
161	0x3fcd841e0000f0ba	0.230594396592897
162	0x3f8a90eee253f648	0.01297175052831813
163	0xbfc6b7db400a3275	-0.17748585345215742
164	0x3fc6a947d92cf811	0.1770410356929806
165	0xbfc191dc692cb0e0	-0.13726382384755365
166	0xbf664cc13752380f	-0.0027221463920517118
167	0x3faa31bccfed81a7	0.051160717374617186
168	0x3fc88a4cb590520b	0.1917205702344663
169	0x3fd2d061f217baee	0.29396866456856585
170	0x3fc5619de2591664	0.16704152633808456
171	0x3fbc302ba8ad8d51	0.11011002414811812
172	0xbfc563f05ed2865a	-0.1671123946189706
173	0xbfdd61233c190ace	-0.45905381077697605
174	0xbfb282f0f3c594c3	-0.07231050445041647
175	0xbfabca26ffd988b4	-0.05427667496839331
176	0x3fa7596f468e1320	0.04560420738474691
177	0x3fd68e84a0b7d579	0.3524486131203371
178	0x3fc452e8124816df	0.1587801064744587
179	0x3f744a631b684d3b	0.0049537536019841856
180	0xbfd63f06b9b325db	-0.3475968183016371
181	0xbfaf97ae3a8dda48	-0.06170410599491
182	0xbfbf34294b143873	-0.12188966830237451
183	0xbfdcd88a7dec712b	-0.45071661278940905
184	0x3fcdc59e54c4266a	0.23259333743071703
185	0x3fb9063cc05a3881	0.09775142379860037
186	0xbf8ad557775a9ef1	-0.013102229432959219
187	0xbfd7f46d881db81f	-0.3742936925181101
188	0xbfbfa66e69cad3a8	-0.12363329012698776
189	0xbfd31ae6a57e4a2c	-0.29851690446335755
190	0x3fc0af6e5138b9c9	0.13035372701547335
191	0x3fb79ce6ecb5ef43	0.09223788527554881
192	0xbfc038c3e62178a4	-0.12673233734944234
193	0xbfb281f1fe5622a0	-0.07229530772577641
194	0xbfdde5a04bcbfb9f	-0.4671402683451848
195	0xbfbd0327a5b5cb92	-0.11332938953073171
196	0x3fbd8295d7c90003	0.1152738239115934
197	0xbfabb2271f2da74f	-0.05409357314677143
198	0xbfbd3d39162ea2d5	-0.11421543876225411
199	0xbfd161589a8de038	-0.2715665349310288

fc.2.weight f8 [200, 200]
0	0x3fb435bcb56fff42	0.07894496373773754
1	0xbfbd57d2e3acf32d	-0.11462133463369346
2	0x3faa6d6a3df6fae9	0.05161602026372753
3	0xbf8e2c51ee3e39a1	-0.014732971270657926
4	0x3fbdffab70a05eb8	0.11718245982808184
5	0xbf90c8c97d808a49	-0.01639094189170923
6	0x3fb0bfc541900a0e	0.06542618609095305
7	0x3f877b145515f3e0	0.01146522411976919
8	0x3f87d32f1e87ab1b	0.011633270377350116
9	0x3fa51e43123e5123	0.04124650571535173
10	0x3fb306d68a96d2e9	0.07432309039615927
11	0x3f750adc4dd8810b	0.0051373105648340285
12	0xbf5f8384052fb6ee	-0.0019234456310601128
13	0xbfb62356eeceb13c	-0.08647673921831694
14	0x3fa101c5ef326035	0.03321665329821181
15	0xbf8cb26ad55f33d2	-0.014012179028123049
16	0xbfaab63d176f4a3e	-0.05217162047451439
17	0x3f9c68ff60619694	0.027744283921853866
18	0xbfc2e54e1ad549be	-0.14762283621037214
19	0x3faea01510c4ff0d	0.05981508092599883
20	0xbfb652e1297d608c	-0.0872021414082857
21	0x3f0c963821560c87	5.45249824126732e-05
22	0xbfa7ca30ce9445b2	-0.04646446725576982
23	0x3fabf4a8c90b337b	0.05460097746035949
24	0xbf96b103d7bdd2d4	-0.02215963367730718
25	0x3f9fc8805c6cf290	0.031038289681634412
26	0xbf9719c9254945b1	-0.02255930223538422
27	0xbfa64f4a8439b1c6	-0.04357369293288431
28	0x3f9d70c526b7d539	0.028750496376195065
29	0xbf6092e9cd9e6203	-0.0020231787174902495
30	0x3fa2af77fe398bc3	0.036494970114993495
31	0x3fa063b562beb99b	0.03201071577437916
32	0xbfae8be744557297	-0.05966112813141427
33	0x3fb670bd359ab450	0.08765776213358945
34	0xbf911b607febcfcd	-0.0167059972836368
35	0xbf96eed5e40e7dfb	-0.022395460171194852
36	0x3fb01137a648e005	0.06276271638569149
37	0x3fa4eb1b7b9f40eb	0.04085622676905295
38	0xbfb42adc95480530	-0.07877901691974354
39	0x3f9b88958db54fc8	0.026888214849648567
40	0x3fb6ca92b8fa4d51	0.089028520737249
41	0x3f7c379b844d8a0f	0.006888968932659014
42	0x3f944fb32e2b5c22	0.019835281079249374
43	0xbfc6c942cce52d51	-0.17801699642800853
44	0x3fbfbcd6954fa117	0.12397519250192023
45	0xbfb60eaed3d700f4	-0.08616154357787648
46	0x3f898422cecc9b0f	0.012459060607921594
47	0x3fb6c5f484354201	0.08895805576072037
48	0x3fa9b38c674c603a	0.05019797097173791
49	0xbfac15991981a731	-0.05485228000982401
50	0xbfa0caf76afcee2e	-0.0327985113239858
51	0xbfac3cfdacc33c27	-0.05515282377165703
52	0x3fc2faced317a46d	0.14827904994243415
53	0x3f68db2118917bce	0.0030341764836942847
54	0xbfb3f4fb9e64091c	-0.07795689217531215
55	0xbf52535f040c15bc	-0.0011185100449336701
56	0x3f9c78ab7bfdfb7d	0.027804068987730347
57	0xbf787cbdcb7a26a4	-0.005978337656083053
58	0x3fa781dbe7dd6d0f	0.04591262059576639
59	0x3fa760d76c772238	0.04566071700134383
60	0x3f90a469e17b969a	0.016252188098312283
61	0xbf901ede2a64d625	-0.01574275144340311
62	0x3fa10e9474b8d5dd	0.03331436085538162
63	0xbf935af1889eb7cd	-0.01890160938608414
64	0xbfa6b2625dad9728	-0.04432971375972122
65	0xbf69fcc12cc4cc37	-0.0031722805926164515
66	0xbfa2096898c76561	-0.035228031778113296
67	0xbf788d99d7139d70	-0.005994416177805703
68	0x3fba60ee8772a0a1	0.1030415611918465
69	0x3fa4f0de328c867c	0.04090017668773968
70	0xbf9202f5b7928484	-0.017589415864339944
71	0xbf90878b9969b45b	-0.016142064322071863
72	0xbf5cb60d8409b668	-0.0017523891439411802
73	0x3fa750c31fd3c9e7	0.04553804172055092
74	0xbfa7066831ccb33d	-0.04497075660615344
75	0x3fb204e1ababe170	0.07038698617168904
76	0x3fa0dfdf52eec2ad	0.03295801055299328
77	0xbfad33e2da601908	-0.05703648486819374
78	0xbfae79e02ec2f188	-0.05952358790225093
79	0x3fc24d2217a688ce	0.14297891764460363
80	0x3fc2ccd71efa0da0	0.1468762303594362
81	0xbf990012d84ba272	-0.024414343310953553
82	0x3fb1864e6b62c7f8	0.06845560189938726
83	0x3fc587e848c2ba36	0.16821006348387052
84	0x3fb12317037a97e9	0.06694167933400731
85	0x3fb3494c6962fe71	0.07533719609181745
86	0x3fa53dc7e476f795	0.04148697532535476
87	0xbfc802c7013b45b2	-0.18758475837834748
88	0xbf641af73b9dcd9b	-0.0024542645232316757
89	0xbfb1117b5122fcd9	-0.06667299967647312
90	0x3f576c46ea1c3526	0.001429623844561087
91	0xbfbf3c573b7295fc	-0.12201447678906868
92	0xbfb01d8a87aabea7	-0.06295076191121983
93	0x3faf5ddc150c6bba	0.06126296765270163
94	0xbfbab3aa41ccdbc1	-0.1043039713521088
95	0x3fb476ee03cc9476	0.07993972389938783
96	0x3fbf239b87436cb1	0.12163707783058687
97	0xbfa1ba065e661edc	-0.034622382186226125
98	0x3f986555918ef121	0.023824059495141662
99	0xbfae9e3b39181139	-0.05980095931957625
100	0x3faffdc8299f72b8	0.062483077126420594
101	0xbfaf24307807778d	-0.060822977687833825
102	0x3f94c34610fd3bc2	0.020276160036981634
103	0x3fbca1604f54cb60	0.11183740555570187
104	0xbfabbfef31aca3d1	-0.05419871789337772
105	0x3fb1e095a2abfc7c	0.0698331377170564
106	0xbf9c273b0e7b5ce0	-0.027493403204826516
107	0x3f95733799c315f6	0.02094733119954203
108	0xbf85d6ba66b6693b	-0.010663467654741346
109	0xbfb74c0b24da2896	-0.09100408220015974
110	0x3f8eb5d00ce1813d	0.01499521769818612
111	0x3fa9b3b37ba76f1f	0.05019913563202593
112	0xbfae2aa76bf9f599	-0.05891917412825904
113	0x3fa0a3e433fce92b	0.03250039229029008
114	0x3f8b31fa17568a4a	0.013278917157383625
115	0xbfa9c1fcad2c1d50	-0.05030812848968458
116	0x3fbc703ebb9c9107	0.11108772354470285
117	0xbfb2b7efae634468	-0.07311914451135382
118	0x3f847280a49a4cee	0.009984021209027163
119	0x3fb1341f4cbb60d6	0.0672015726407865
120	0x3fa14d9abe678ea4	0.03379520010255746
121	0xbfb0e5ce0e85d922	-0.06600654463349945
122	0xbf8857d50d1682de	-0.011886276685630855
123	0xbfa2a43b5358cfdd	-0.03640923874300459
124	0x3fa4413d9cd1bf96	0.039560246842369626
125	0xbfb1064c5903de4c	-0.06650235341282346
126	0x3fa1ef88e9374271	0.03503063055871259
127	0x3fa05d974852d07f	0.03196404226164961
128	0xbfaabfb948f5a7ef	-0.052243986278725056
129	0x3fb302bae02aa3f4	0.07426040623489866
130	0xbf99b3c15dde85b1	-0.02509977469856545
131	0x3fb0ffeae5e45752	0.06640499222370735
132	0xbf8003c889234a52	-0.007819716153254639
133	0x3fae376888af05ca	0.05901648205282191
134	0xbfacf20b269aca58	-0.05653414579628152
135	0xbfb405a9b2489b9f	-0.07821140864017061
136	0x3fa133c068c38d91	0.03359795836311286
137	0x3fb65be0335a235a	0.08733941320146013
138	0xbfb04b2d3e30c261	-0.06364710586854862
139	0x3f837b1d5d2f5534	0.0095121664107106
140	0xbfa1df69101e8e72	-0.03490761110086006
141	0xbfb0b6d7c9a401a1	-0.065289961556124
142	0x3f9368910cc4a0ac	0.018953577427197985
143	0x3f9769b3a5f5ba40	0.022864157680880348
144	0xbfbaa263c4f95fe5	-0.10404037054956879
145	0x3fab61a1e5b22ad3	0.05347925118356547
146	0xbfa20ba952387256	-0.03524521950405261
147	0x3f97a98e5396d2fe	0.023107742168309457
148	0x3f99aa644a74990f	0.025064055485153832
149	0x3f91bbdec3539f23	0.017318230315964144
150	0x3f957f0d1195c580	0.020992473791414223
151	0xbf8d61f1b484ec80	-0.014346969911107843
152	0xbfb3fd21cc4da29b	-0.07808123815415018
153	0xbfb3153f474726fc	-0.07454295625862167
154	0xbf92975cf918930c	-0.01815552969323435
155	0xbf444d465d49ca90	-0.0006195634437758547
156	0x3fa4eff0605e31cf	0.04089308906904742
157	0xbfbb302c7cb6c48f	-0.10620382351659628
158	0xbfa84d9f0a72a94a	-0.04746720316446103
159	0x3fb65373efc5da2d	0.08721088985280608
160	0x3fc36f5eeade74ae	0.1518362662144787
161	0x3fbbdd4c8198c097	0.10884550250989587
162	0x3f5576fd199527d2	0.00131010739126446
163	0x3f979f6f1c6b2131	0.02306913004829986
164	0x3f975558f164bd7b	0.022786512120715124
165	0xbf96c619fd8ccef3	-0.02224007234617793
166	0xbf8c32624ac576c6	-0.01376797476467163
167	0xbf825921926542e2	-0.00895906665815133
168	0x3fb1cc6e18041794	0.06952560507133249
169	0xbfc20b57667734b9	-0.14097111228185158
170	0xbfb3885778dbe7d9	-0.07629915905627573
171	0x3f82ecd39c19ded1	0.009240773392988373
172	0xbfb1348571ef99b1	-0.06720766097678312
173	0xbfbe0446b91b9139	-0.11725275058012564
174	0x3f98aff4118ac16d	0.024108708925895273
175	0xbf743eb5a6ae14ea	-0.004942617010674536
176	0xbfbc2656ade5b472	-0.10996000047244239
177	0xbfb467330f175fa3	-0.07969969862403885
178	0x3f8763c0d2a3fd38	0.011420732906570849
179	0x3fb3919daf93b00f	0.07644067322297608
180	0x3fbf0cccd4f4acf3	0.12128906439891178
181	0x3f8dcb16f198807e	0.014547518966594671
182	0x3fb1aba64e758bd4	0.06902541556841807
183	0x3fc791b5a9526964	0.18413420455619722
184	0xbf915a374aa89bb6	-0.016945709163475896
185	0x3f8ae89a6b9ebc19	0.013138967904380338
186	0xbf90711c7c5014d7	-0.01605648525948741
187	0x3fc19b896b1aa56e	0.13755910615627037
188	0xbfb80910f65df3c1	-0.09388834013766624
189	0x3fc428b4ecb43768	0.15749227102099472
190	0x3fae930b78371fdc	0.05971561281654633
191	0xbfc07153115e1a6b	-0.12845838878657231
192	0xbf80335da425a93c	-0.007910472461578714
193	0xbfb525dfcd846b11	-0.08260916488181304
194	0xbfc3587dbe56b98a	-0.15113803666958986
195	0xbf92ed41ed01a907	-0.01848319062302386
196	0x3fa3dae0bba4e141	0.03877928057267122
197	0xbfb222c155cb8fc7	-0.07084282250030959
198	0xbf9c8baac3d40f62	-0.02787653751603559
199	0x3fb9a04cbb8941f3	0.10010222986716837
200	0xbf95d45598c30e15	-0.02131780381092881
201	0x3faff7b123cac4fa	0.0624366146270265
202	0xbf913af3888486ad	-0.01682644386995118
203	0xbfb14fa319de1552	-0.06762141591578555
204	0xbf71248bf02a34bb	-0.004185244210600898
205	0x3f9ce0288843c941	0.028198846165602424
206	0x3fb10f59173b20b1	0.06664044205820364
207	0xbfa0ad70d1e68417	-0.03257324754964246
208	0xbf2fa99a0d0a38e0	-0.00024156575684170564
209	0x3fb1fc8490e9267c	0.07025936639652203
210	0x3fb6c8588fb79afa	0.0889945364830104
211	0x3fa10109a3ca2201	0.033211041683049565
212	0x3f9bf2f64f06b236	0.027294014523862674
213	0xbf8311ee49ea5ecc	-0.009311544066164322
214	0xbf9beddc1e6b581f	-0.02727455077805285
215	0xbfb3a135fd3272b2	-0.07667863303727065
216	0x3f97acc859067789	0.0231200508438785
217	0x3fa666df40be35b7	0.043753601697157966
218	0xbfa6ec38003d8ed8	-0.04477095606742204
219	0x3f8d6b4e93628644	0.01436482798846151
220	0xbfa7ce5247547c0b	-0.04649598236778026
221	0x3f981c89c2710824	0.02354636430050773
222	0xbfa393b21269b4c7	-0.03823620295302415
223	0x3fa2a1d72c746d7e	0.036390995194063955
224	0xbfa99bc671012caf	-0.050016595167642
225	0x3f7b668b6fbe402f	0.006689591096702015
226	0x3f9859ae37913bf6	0.023779604093132144
227	0xbfb03e056f2ebe0f	-0.0634463688318123
228	0x3f9b1e69bd163e8e	0.026483204046199797
229	0x3fa9b293389826ee	0.050190544756402264
230	0x3faa0ba7f28cefea	0.05087017856428118
231	0x3fa644788d0e8c6a	0.04349114152798779
232	0xbf99ad6c1513bc30	-0.025075615679210184
233	0x3f9f617ebbc9562d	0.03064535161168729
234	0xbf9a2eab1ae890df	-0.025568650739061446
235	0xbfb20a6b33b7e5a4	-0.07047147762923217
236	0xbfa2c57722d77391	-0.036662791255117295
237	0x3f7297bf907d912c	0.004539249704837805
238	0x3fac9d5be73b5e7b	0.0558880538716808
239	0x3f64ff0b7a467d9a	0.0025630211041087316
240	0x3f6ffb7dc049278e	0.0039041000439156764
241	0x3fa2241b91c78eb6	0.03543172983679936
242	0x3faf24c5d7f3c0cb	0.060827429400775644
243	0xbf93ba9bc945f064	-0.019266542587033433
244	0xbfa228f834c10907	-0.03546882289858116
245	0x3f93a4865169c7a3	0.01918229934603456
246	0xbfa8a8f12178aac4	-0.04816392453752408
247	0xbf98d839506ad0c9	-0.02426232865646297
248	0xbfa3bd36e383459e	-0.03855296637778881
249	0x3fa6531ec897fa45	0.043602907167941164
250	0xbf9309a4e3401886	-0.01859147679353914
251	0xbfaa1558688a3f87	-0.05094410205958782
252	0x3fa74fb78f1b064c	0.04553006765264608
253	0xbfa1eb4a9885294e	-0.03499825584238413
254	0x3f8917bde7b9218d	0.012252315172319306
255	0xbf7a739c7a3aa5d9	-0.0064579117203406805

fc.2.bias f8 [200]
0	0x3fb972c04a71d1f8	0.09940721337790837
1	0xbfa9d4e685ab651c	-0.050452426735953376
2	0xbfb06f08181abdc2	-0.06419420803535217
3	0x3fa197409f39f331	0.03435708945924033
4	0x3f9ac9e5749e817b	0.026160798304432725
5	0xbfa0d6ff59a389c3	-0.03289030045722854
6	0x3fc3168e1aec6bf8	0.14912582697510834
7	0x3fad6fb74155889a	0.057492949223857795
8	0x3fad35bc98d1c86a	0.05705060353729226
9	0x3f3cc1bed68a6bf9	0.0004387942231375837
10	0x3fa05359bfd77842	0.031885914486097025
11	0x3fac94d64997b647	0.0558230366549251
12	0xbf9c59956a523ca6	-0.027685484518369073
13	0xbf8d10044955a4e5	-0.01419070576476362
14	0x3fc77d9ac2771d23	0.18352064605117233
15	0x3f99ae8b67472e14	0.025079897097198225
16	0xbf8a86ada86dcbbf	-0.012952191069166006
17	0x3fc6038f55962f56	0.17198363951717494
18	0x3f9f4006660bd470	0.03051767347183837
19	0xbfb35b036002a58a	-0.07560750097277072
20	0x3fa33b2986c3d3fc	0.037560746861267064
21	0x3fbaf34599f2c3ee	0.10527453430655928
22	0x3fabe73d5698618f	0.05449859315939697
23	0x3fb4f0dab6593678	0.08180014564387672
24	0xbfb674b766e0dbd8	-0.0877184511344774
25	0x3f8a3a48bf4f358e	0.012806480730342764
26	0x3f81778cbea63365	0.008528804367210882
27	0x3fb15d7c769ee98e	0.06783273597731052
28	0x3f812ed40b850527	0.008390099145460695
29	0x3f9eb97e96853af1	0.030004480301893236
30	0xbfb3396f0c841319	-0.07509512000622144
31	0x3fa69476650a8b1d	0.04410142882740884
32	0xbfad70d546369c48	-0.057501473256075075
33	0xbfaf94acd46e2e54	-0.061681176120228415
34	0xbfb47b275c365338	-0.08000417710566132
35	0x3fbcf9aceaf2ca5a	0.1131847451786511
36	0x3fb041837a1090c0	0.06349965791793277
37	0xbf9bf33b78709f27	-0.02729504511458383
38	0xbf8e34a713ddd094	-0.014748864454056133
39	0xbf9cdc7cec8106d9	-0.0281848449087708
40	0x3fa41ae9f1375d59	0.039267836280198316
41	0x3f722bffcc586ccd	0.004436492168248663
42	0x3fb5b78ef0250674	0.08483212817102431
43	0x3faddca88228fa32	0.0583241137396623
44	0x3faf6e06e035de2a	0.06138631331390017
45	0x3fad1c5b71954792	0.056856973281028136
46	0x3faacf1983c59b1e	0.05236129506629637
47	0xbfad0403bed4d7f7	-0.05667125420079338
48	0x3fa87332d683234a	0.047753895459726595
49	0x3fc6dbe5ae4d13c8	0.17858572970194886
50	0xbfa838b2d53eb44e	-0.04730757573211318
51	0xbfa3a3619db694ed	-0.038355875494099446
52	0xbf9b3a957b2270cb	-0.02659066738179731
53	0x3faf8cdd08488017	0.0616215775119146
54	0xbfb5fcf0ef7e8dd1	-0.08589082572012009
55	0x3fb4050461e7068f	0.07820155515858061
56	0xbfa1836aa3f8a607	-0.03420575381853657
57	0xbf90f14a972608b8	-0.01654545352494871
58	0x3fb0e5aa284912a2	0.06600440486460937
59	0xbf8a116735db0ce1	-0.012728506403965447
60	0xbfa7eb4e6abad95b	-0.04671711972098321
61	0xbfa6a1920b1699b5	-0.044201434949445874
62	0xbf10a467e8712fe8	-6.348499492608818e-05
63	0x3f506942befda1b0	0.0010016586129158837
64	0xbf9c11973b6251b8	-0.02741085338546309
65	0xbf82aa7cb764c540	-0.009114240977029398
66	0x3f97bb383edea6e9	0.02317512401319891
67	0x3f7eab4e074aca0c	0.007487587736863432
68	0x3fada36355ef5c28	0.057887176742660806
69	0xbfa0658e085462e2	-0.032024801747132306
70	0x3f9007e45809db37	0.015655105470126798
71	0x3fa8059aa6e6d219	0.04691775596021248
72	0x3faa3fea7ac5e1eb	0.05126888989156327
73	0x3f849398b673190a	0.010047143047256419
74	0xbfa61ab361f99797	-0.04317246027930748
75	0x3fba0a9c322ba90b	0.10172439789645098
76	0x3f9fc34c9292c685	0.031018444486738978
77	0x3fa0ece1eed0eb06	0.03305727043376376
78	0xbf9d81a14e407866	-0.028814812089074236
79	0xbfb0e7a69f09e38f	-0.06603471167353646
80	0x3fb107dd40c8ad75	0.06652624923360924
81	0xbf9c65ff309ed91c	-0.027732837050018153
82	0x3fb682922e8ccba7	0.08792985569452459
83	0xbf92e82a79f43398	-0.018463767713047113
84	0xbf93ddd1c60fd211	-0.01940086146710668
85	0x3fb758f80f61bde2	0.09120130897075954
86	0xbfa0a7db7fe8150f	-0.03253065048560632
87	0x3f5e76e6ab24765f	0.0018594029066386836
88	0xbf653d211e715ebb	-0.002592625317941214
89	0x3f856ff9a351e1c7	0.010467481896044085
90	0xbfb6cbe0429d7dbf	-0.08904840113017708
91	0xbfb3d23e36263b23	-0.07742680379872673
92	0xbfa5b07838058cd4	-0.042361981237968444
93	0x3f707c5b44039d88	0.00402484560638728
94	0xbf8427ce6fdca97f	-0.00984154967189421
95	0x3fa372b1f1e4ce21	0.03798442914776624
96	0xbf99bd61ca4da0f4	-0.02513649747143716
97	0xbfb954d62b7d3c5f	-0.09895075380085093
98	0xbf9801b7b9de6886	-0.02344405242875116
99	0x3f75833659f76a36	0.005252086935309699
100	0x3fb398c03d8098cd	0.07654954434892432
101	0x3faac015def0c27e	0.05224674555245644
102	0xbfb11b19d0834937	-0.06681977596898468
103	0xbf928f7db0d79e93	-0.01812549964770811
104	0x3fb2d24a9451f305	0.07352129098030609
105	0xbfaec036c4d3c4ec	-0.06006022598911351
106	0x3fbbbdea1c49c86b	0.1083666152060531
107	0x3fb2bf9f4751765f	0.0732364224545221
108	0x3f9131dcfa3c4ff2	0.016791775487106926
109	0x3fa3128a01917c95	0.03725081700462699
110	0xbfb4aa8a1708086a	-0.08072722494401466
111	0x3fa0e9af401d5e16	0.0330328717961345
112	0x3fb72f48a8e020a0	0.09056524393975218
113	0x3fbad68a2220e04c	0.10483611424649658
114	0xbf8ac8c891f09fb9	-0.013078276590093073
115	0x3f9b4ca4d240bd35	0.026659560520952048
116	0x3f99665431a10a20	0.024804416207425573
117	0x3f9ca2f2c94b5ed8	0.02796534875491727
118	0xbfa0733940b8dd00	-0.03212908663811653
119	0xbfa2f7ae578a5bea	-0.037045906244365615
120	0x3fa40951ed6dc8a8	0.039133606179249825
121	0xbf9c794af7a77aab	-0.02780644547044157
122	0xbfa0bb6d83f51687	-0.032679960592344286
123	0xbf98dd46740dbda9	-0.02428159793219967
124	0x3fad7d7331825857	0.05759773234710568
125	0x3fac352cfbaea588	0.05509319851200717
126	0xbfac8ef61febfb05	-0.05577820911093138
127	0xbfac48c1b4851459	-0.055242589269746296
128	0x3fb3515f2a8b0735	0.07546038426064856
129	0x3fb9f3d020a59577	0.10137654110947901
130	0xbf7157255023ff4c	-0.004233499292467812
131	0x3f7183f79ab1cfda	0.0042762443582553215
132	0xbfa1a7e0e2bf2281	-0.03448393600371436
133	0x3fa4d2499290edd1	0.040666865483639854
134	0xbfa04eb0d6d13e02	-0.03185036299020895
135	0xbf936280dad88b7a	-0.018930447919170736
136	0xbfa40dc22ddcbbe3	-0.039167469118517116
137	0x3facab19505e4a21	0.05599288087900712
138	0xbf890749e294fa76	-0.012220933177215825
139	0x3fa59cd5c72ddec3	0.04221218162905196
140	0xbfa85b725228298c	-0.04757268193141603
141	0x3fa6d2576dd228a7	0.044573528438449465
142	0x3fa78fab2bacce1a	0.04601797969953854
143	0x3fa59c8e2e384787	0.042210047857351767
144	0xbf86a233373eee61	-0.011051559565991189
145	0x3fa336c593504c4f	0.037527250511765524
146	0x3fb3e470038473cc	0.07770443044542147
147	0xbf73f82720d5694b	-0.004875328869582705
148	0x3fa709bf4d64d908	0.04499624080419734
149	0xbfbad61209a60ab1	-0.10482895598947085
150	0xbfa9a7512ba6e9cb	-0.05010465295659435
151	0x3fb0cec64f74fc5c	0.06565513076655932
152	0xbf9b013ce8118dac	-0.02637190977510577
153	0xbfa7d4bcf5d8f99d	-0.046544938097656564
154	0xbfa3dfb6901793fe	-0.03881617077767173
155	0x3f9a3a1e7b2b2bef	0.025612331645600447
156	0x3fa4a4c82b02c116	0.04031968617471386
157	0xbfa3c45da42bea69	-0.03860752705619037
158	0x3facde40c9e8bb1d	0.056383156439883765
159	0x3f9ae9b271ea034b	0.026282108500257178
160	0x3f83ca2f071a22e0	0.009662978557814339
161	0xbfa1e0fe1ed92d25	-0.0349196827561065
162	0x3f87b0061a7e87cb	0.01156620758394302
163	0xbfad905926f601f2	-0.05774191475484604
164	0x3fb2d8860d520fdb	0.07361638856133317
165	0xbfa579b0b498c22a	-0.041944047971245915
166	0xbf936c52dff15569	-0.018967909735086694
167	0xbfa2a7ccbd310dc6	-0.03643646058528875
168	0x3fb92c1fbf03202f	0.0983295289362338
169	0x3f9b56416112ff09	0.0266962256907837
170	0x3fb2c904a4962c7c	0.0733797933409494
171	0x3f6b6ebdfd4a08e3	0.003348704407757018
172	0xbfad5646f6706f0f	-0.05729886778155279
173	0xbf8a6d6c34882174	-0.01290401969255648
174	0xbf96ae724d66ef43	-0.02214983556198936
175	0xbf97f670c183d794	-0.02340103322145344
176	0xbf65c71887e775bb	-0.002658412849298767
177	0xbf816960e5203f83	-0.008501774780625975
178	0xbfa1b3d023f97e16	-0.03457498969214272
179	0xbfa9ee5e3c590b33	-0.05064672934215366
180	0x3fa546d50892ab28	0.0415560315098758
181	0xbf6e6d3785e72fd5	-0.0037141880450004363
182	0xbf51698a7e98ff30	-0.0010627605901305064
183	0x3fa610f2a6c2d4cc	0.043098051888060235
184	0x3fa1b1ddef6669f6	0.0345601420151133
185	0xbfb0333deb4982f7	-0.06328188890757845
186	0x3f86ef29513bd880	0.011198351661260597
187	0x3fada177abc23092	0.05787252399122268
188	0x3fab3bd586bc5772	0.05319087285731329
189	0xbfac11b309c1b36b	-0.05482253545856149
190	0x3fa9f05ae937f07c	0.05066188904672317
191	0x3f76de60dd1aac55	0.0055831702936003
192	0xbfacbe71e2595b61	-0.05614047897386488
193	0x3fb07152cf029304	0.06422917894321861
194	0x3f690224775ef583	0.0030527794105796326
195	0x3fa03b5273e814bd	0.031702591561079775
196	0x3fa408db4c883474	0.03913007077435618
197	0xbfa24c2f85a41329	-0.035737500251377625
198	0x3f9c533d56774b76	0.02766128387686303
199	0xbfb1e367fdc70eda	-0.06987619348279442
