car_ros2/car_ros2/losses/none_lstm_delay.pth (torch, 234903 bytes, 6 tensors)

fc.0.weight f8 [150, 40]
000000 00 00 00 00 15 52 9e bf 00 00 00 a0 0d b8 be bf
       -0.02960999310016632 -0.11999592930078506
000010 00 00 00 a0 00 dc b7 3f 00 00 00 00 62 4f c1 3f
       0.09320072084665298 0.13523507118225098
000020 00 00 00 e0 79 46 a0 3f 00 00 00 20 71 c3 b1 3f
       0.0317876897752285 0.06938845664262772
000030 00 00 00 20 f7 37 9b bf 00 00 00 c0 56 28 c3 3f
       -0.026580678299069405 0.14966854453086853
000040 00 00 00 20 b2 4c a1 bf 00 00 00 c0 ca 8e a5 3f
       -0.03378826752305031 0.042105041444301605
000050 00 00 00 20 e8 a0 bf 3f 00 00 00 40 da 9d 59 bf
       0.12354899197816849 -0.0015635138843208551
000060 00 00 00 00 0c 0b c0 3f 00 00 00 a0 c2 b6 b1 bf
       0.1253371238708496 -0.06919495016336441
000070 00 00 00 e0 06 5a b2 3f 00 00 00 40 97 1a b5 bf
       0.07168620079755783 -0.08243699371814728
000080 00 00 00 00 ce ad ab 3f 00 00 00 e0 be ed a4 3f
       0.054060399532318115 0.040876355022192
000090 00 00 00 a0 4c 4c a0 3f 00 00 00 80 aa 2e 8f bf
       0.03183211758732796 -0.01522572711110115
0000a0 00 00 00 00 30 e9 98 bf 00 00 00 00 e6 39 b7 bf
       -0.02432703971862793 -0.09072721004486084
0000b0 00 00 00 a0 d0 df c3 3f 00 00 00 a0 9f f4 bb 3f
       0.15526778995990753 0.10920140892267227
0000c0 00 00 00 c0 9e d6 a7 3f 00 00 00 c0 fa f0 a6 bf
       0.04655929654836655 -0.044807277619838715
0000d0 00 00 00 40 54 ff af 3f 00 00 00 20 fc 28 be bf
       0.06249488145112991 -0.117812879383564
0000e0 00 00 00 20 fa 2b b9 3f 00 00 00 20 cb b1 94 3f
       0.09832728654146194 0.020209478214383125
0000f0 00 00 00 60 96 1d bd bf 00 00 00 20 2c bf 87 bf
       -0.1137327179312706 -0.011595101095736027
000100 00 00 00 c0 28 f2 a9 bf 00 00 00 40 69 f8 84 3f
       -0.0506756529211998 0.010239431634545326
000110 00 00 00 80 1f 45 af bf 00 00 00 e0 54 16 8b bf
       -0.06107424199581146 -0.013226187787950039
000120 00 00 00 00 5e 64 a0 bf 00 00 00 e0 9b 3a c0 3f
       -0.03201574087142944 0.12678860127925873
000130 00 00 00 a0 8d f9 b9 bf 00 00 00 80 b4 e9 b7 bf
       -0.10146412998437881 -0.09340980648994446
000140 00 00 00 c0 4b 93 c1 3f 00 00 00 20 e3 56 c0 3f
       0.13730761408805847 0.12765158712863922
000150 00 00 00 c0 4c 89 be bf 00 00 00 40 36 12 a8 bf
       -0.11928252875804901 -0.04701394587755203
000160 00 00 00 c0 32 16 c0 3f 00 00 00 e0 ea 9c 80 3f
       0.1256774365901947 0.008111796341836452
000170 00 00 00 60 ba c7 45 bf 00 00 00 00 b6 3a 9a bf
       -0.0006646785768680274 -0.02561458945274353
000180 00 00 00 c0 f8 19 bb bf 00 00 00 40 d1 28 a6 3f
       -0.10586504638195038 0.043280161917209625
000190 00 00 00 e0 d1 43 bd bf 00 00 00 80 2a 5a be bf
       -0.11431609839200974 -0.11856332421302795
0001a0 00 00 00 c0 64 b6 c1 bf 00 00 00 a0 cb 06 bd 3f
       -0.13837870955467224 0.11338493973016739
0001b0 00 00 00 c0 48 a8 b3 bf 00 00 00 60 ed eb 9e bf
       -0.07678656280040741 -0.030196866020560265
0001c0 00 00 00 80 31 b7 ae bf 00 00 00 20 a2 b9 b8 3f
       -0.05999140441417694 0.09658253937959671
0001d0 00 00 00 00 8a 70 aa bf 00 00 00 a0 66 1a a1 bf
       -0.0516398549079895 -0.03340454772114754
0001e0 00 00 00 60 e2 55 9c bf 00 00 00 00 4d a3 c3 3f
       -0.027671372517943382 0.1534210443496704
0001f0 00 00 00 40 4b 2c c4 3f 00 00 00 00 ae d7 c3 bf
       0.1576017439365387 -0.15501952171325684
000200 00 00 00 e0 51 17 b8 bf 00 00 00 40 24 5a b4 3f
       -0.09410583227872849 0.07950045168399811
000210 00 00 00 80 02 55 bf bf 00 00 00 40 5e e7 c1 bf
       -0.12239089608192444 -0.13987329602241516
000220 00 00 00 a0 6a be 83 bf 00 00 00 60 a1 cd a1 3f
       -0.009640534408390522 0.034771960228681564
000230 00 00 00 20 85 c7 9d 3f 00 00 00 00 50 85 c0 3f
       0.029081420972943306 0.12906837463378906
000240 00 00 00 80 05 9c bb bf 00 00 00 20 1f 12 b6 3f
       -0.10784944891929626 0.08621401339769363
000250 00 00 00 a0 fa a9 b0 3f 00 00 00 80 9d c0 b1 bf
       0.06509367376565933 -0.06934532523155212
000260 00 00 00 e0 1e ad c1 bf 00 00 00 40 ec 39 ae bf
       -0.13809572160243988 -0.05903566628694534
000270 00 00 00 e0 8f b1 ba bf 00 00 00 e0 5f 14 ad bf
       -0.10427188128232956 -0.05679607018828392
000280 00 00 00 40 05 0c aa 3f 00 00 00 40 81 5f b2 bf
       0.050872959196567535 -0.07176978886127472
000290 00 00 00 a0 5f 50 c3 bf 00 00 00 80 30 26 c0 3f
       -0.1508903056383133 0.1261654496192932
0002a0 00 00 00 a0 97 01 ac 3f 00 00 00 e0 66 9e ba bf
       0.054699648171663284 -0.10397952049970627
0002b0 00 00 00 40 1a 8d c0 bf 00 00 00 80 69 2f bc bf
       -0.1293061077594757 -0.1100984513759613
0002c0 00 00 00 40 62 7b a3 3f 00 00 00 e0 35 33 7a 3f
       0.03805071860551834 0.006396494340151548
0002d0 00 00 00 40 c8 11 84 bf 00 00 00 00 e4 f5 c2 3f
       -0.009799541905522346 0.14812898635864258
0002e0 00 00 00 20 b0 2e c1 3f 00 00 00 40 3c e4 bb 3f
       0.13423730432987213 0.10895134508609772
0002f0 00 00 00 80 b9 e4 b4 bf 00 00 00 00 07 e0 c3 3f
       -0.08161506056785583 0.15527427196502686
000300 00 00 00 60 8c 03 c1 3f 00 00 00 80 b0 6d 93 bf
       0.1329207867383957 -0.01897311955690384
000310 00 00 00 20 e2 e4 bf bf 00 00 00 20 83 54 ed be
       -0.12458623200654984 -1.3985693840368185e-05
000320 00 00 00 20 d7 ea c3 3f 00 00 00 40 e7 1c c3 bf
       0.1556042581796646 -0.14931955933570862
000330 00 00 00 20 ad 8a a1 bf 00 00 00 40 42 9a c0 3f
       -0.03426114097237587 0.12970760464668274
000340 00 00 00 e0 20 7c c3 bf 00 00 00 a0 22 12 bc 3f
       -0.15222559869289398 0.10965172201395035
000350 00 00 00 80 54 69 b4 3f 00 00 00 60 d0 01 c4 3f
       0.07973220944404602 0.15630535781383514
000360 00 00 00 00 4a f2 a6 bf 00 00 00 c0 6c 03 c4 3f
       -0.04481726884841919 0.15635451674461365
000370 00 00 00 60 94 9d b4 3f 00 00 00 40 ef 2a b9 bf
       0.08052947372198105 -0.09831137955188751
000380 00 00 00 e0 c2 f5 bb 3f 00 00 00 80 24 e1 b2 bf
       0.1092187687754631 -0.0737479031085968
000390 00 00 00 80 ab 6a 9f 3f 00 00 00 80 84 71 b6 bf
       0.030680350959300995 -0.08766964077949524
0003a0 00 00 00 60 a3 c8 bd 3f 00 00 00 c0 4e d1 b0 3f
       0.11634274572134018 0.06569378077983856
0003b0 00 00 00 80 c8 3d bd 3f 00 00 00 20 6c fb bb bf
       0.11422398686408997 -0.10930515080690384
0003c0 00 00 00 c0 f4 3d 69 bf 00 00 00 00 c7 65 b6 3f
       -0.003081300761550665 0.0874904990196228
0003d0 00 00 00 60 12 ad be bf 00 00 00 a0 91 67 c3 3f
       -0.11982836574316025 0.15159817039966583
0003e0 00 00 00 20 95 56 9d 3f 00 00 00 80 be 8a b3 3f
       0.028650598600506783 0.07633581757545471
0003f0 00 00 00 40 30 88 b0 bf 00 00 00 80 09 48 bf bf
       -0.06457807123661041 -0.12219294905662537
000400 00 00 00 40 f8 51 c1 bf 00 00 00 c0 a6 60 a8 bf
       -0.13531401753425598 -0.04761239141225815
000410 00 00 00 60 17 53 bc bf 00 00 00 c0 72 8e 6b 3f
       -0.11064287275075912 0.003363823052495718
000420 00 00 00 40 f6 c0 be 3f 00 00 00 a0 d8 2d b4 3f
       0.12013186514377594 0.07882455736398697
000430 00 00 00 80 c4 09 aa 3f 00 00 00 e0 99 22 bc bf
       0.05085577070713043 -0.10990297049283981
000440 00 00 00 e0 91 a0 bc 3f 00 00 00 40 44 4c bf bf
       0.11182510107755661 -0.12225748598575592
000450 00 00 00 60 bb 05 bf bf 00 00 00 60 30 52 c0 bf
       -0.12118121236562729 -0.12750820815563202
000460 00 00 00 a0 5a ce b1 bf 00 00 00 80 6f 86 b2 bf
       -0.06955496221780777 -0.07236382365226746
000470 00 00 00 e0 05 c6 a9 3f 00 00 00 00 bd 01 ba 3f
       0.05033892020583153 0.10158902406692505
000480 00 00 00 80 50 cf bf 3f 00 00 00 e0 74 12 92 3f
       0.12425711750984192 0.01764853112399578
000490 00 00 00 60 e4 f3 c1 bf 00 00 00 e0 c6 e3 98 bf
       -0.14025549590587616 -0.0243063997477293
0004a0 00 00 00 20 09 20 bb bf 00 00 00 60 cf c4 bc bf
       -0.10595757514238358 -0.1123780831694603
0004b0 00 00 00 a0 89 f5 7e 3f 00 00 00 20 22 20 c3 3f
       0.007558381650596857 0.14941813051700592
0004c0 00 00 00 20 f4 dc b1 3f 00 00 00 40 cf a8 b0 3f
       0.06977773457765579 0.0650758296251297
0004d0 00 00 00 40 4a f2 bc 3f 00 00 00 80 4d 3b af 3f
       0.11307205259799957 0.060999318957328796
0004e0 00 00 00 a0 cc b8 9c bf 00 00 00 40 29 9c c0 bf
       -0.02804870344698429 -0.12976565957069397
0004f0 00 00 00 20 3a 03 95 3f 00 00 00 00 a6 16 c0 3f
       0.020520122721791267 0.12569117546081543
000500 00 00 00 60 46 33 9e 3f 00 00 00 e0 c1 bc bf 3f
       0.029492473229765892 0.12397395819425583
000510 00 00 00 80 6a 9a c2 3f 00 00 00 80 4c 68 a7 3f
       0.14533740282058716 0.04571761190891266
000520 00 00 00 60 2e 9d c3 3f 00 00 00 a0 d5 7d b7 bf
       0.15323428809642792 -0.09176383167505264
000530 00 00 00 e0 1c e4 b8 bf 00 00 00 20 ff 7a c0 bf
       -0.09723072499036789 -0.12875355780124664
000540 00 00 00 20 12 f1 ae bf 00 00 00 e0 58 d0 bf 3f
       -0.06043297424912453 0.12427287548780441
000550 00 00 00 60 8b d4 c0 3f 00 00 00 e0 16 3b b3 3f
       0.13148634135723114 0.07512038201093674
000560 00 00 00 80 d2 ed 70 3f 00 00 00 80 4a fe b6 3f
       0.0041330549865961075 0.08981767296791077
000570 00 00 00 e0 37 8d 97 3f 00 00 00 00 6f 62 b4 3f
       0.02299964241683483 0.07962697744369507
000580 00 00 00 40 ef c2 c2 bf 00 00 00 c0 fc 77 c0 3f
       -0.14657393097877502 0.12866172194480896
000590 00 00 00 80 0e 96 bb 3f 00 00 00 80 46 e5 b6 bf
       0.10775843262672424 -0.08943596482276917
0005a0 00 00 00 a0 7c cd 83 bf 00 00 00 20 d5 88 c1 3f
       -0.009669278748333454 0.1369882971048355
0005b0 00 00 00 e0 c2 5f c0 3f 00 00 00 60 02 d7 c3 3f
       0.1279224008321762 0.15499906241893768
0005c0 00 00 00 e0 86 33 aa 3f 00 00 00 a0 f4 75 b8 bf
       0.05117436870932579 -0.09554985910654068
0005d0 00 00 00 60 f7 79 ae 3f 00 00 00 40 e9 3e bb bf
       0.059524279087781906 -0.10642869770526886
0005e0 00 00 00 c0 85 4e 88 3f 00 00 00 00 ad 3a c3 3f
       0.011868519708514214 0.15022814273834229
0005f0 00 00 00 40 37 2d 9d bf 00 00 00 e0 8b c9 55 3f
       -0.028492797166109085 0.0013297906843945384
000600 00 00 00 40 42 3e bd bf 00 00 00 20 a4 89 b2 3f
       -0.11423124372959137 0.07241273671388626
000610 00 00 00 e0 8d 12 b1 bf 00 00 00 80 d1 a2 b4 3f
       -0.06668936461210251 0.08060941100120544
000620 00 00 00 a0 ea 47 b4 bf 00 00 00 00 b2 3f 79 3f
       -0.07922235876321793 0.00616426020860672
000630 00 00 00 00 9b 92 a6 3f 00 00 00 80 39 83 c0 bf
       0.04408726096153259 -0.12900465726852417
000640 00 00 00 c0 c7 f6 a4 bf 00 00 00 60 1e cb b7 bf
       -0.04094528406858444 -0.09294309467077255
000650 00 00 00 00 42 d7 81 3f 00 00 00 c0 4b 79 bd bf
       0.008711352944374084 -0.11513207852840424
000660 00 00 00 60 5a 52 b3 bf 00 00 00 00 29 b7 af 3f
       -0.07547535747289658 0.061944276094436646
000670 00 00 00 40 48 b2 78 bf 00 00 00 20 dc 90 b4 3f
       -0.006029398180544376 0.08033538609743118
000680 00 00 00 a0 78 c1 a2 bf 00 00 00 40 aa 7f b0 3f
       -0.036632318049669266 0.06444801390171051
000690 00 00 00 a0 7c f0 a5 3f 00 00 00 80 d4 ae c2 3f
       0.042850393801927567 0.14596039056777954
0006a0 00 00 00 c0 b9 00 c3 3f 00 00 00 60 e6 de c1 3f
       0.14845964312553406 0.13961486518383026
0006b0 00 00 00 40 c9 d0 c3 3f 00 00 00 00 08 6c 8d 3f
       0.1548091471195221 0.014366209506988525
0006c0 00 00 00 60 67 ca b3 bf 00 00 00 80 28 cd c1 3f
       -0.07730718702077866 0.1390734314918518
0006d0 00 00 00 e0 af da b1 bf 00 00 00 60 5c 2f a1 bf
       -0.06974314898252487 -0.03356445953249931
0006e0 00 00 00 60 fb c4 a8 bf 00 00 00 40 35 af 97 3f
       -0.04837785288691521 0.023129303008317947
0006f0 00 00 00 a0 d5 71 8f 3f 00 00 00 c0 a1 19 bf 3f
       0.01535384077578783 0.12148486077785492
000700 00 00 00 e0 58 aa c1 bf 00 00 00 e0 ff 7d c2 bf
       -0.13801108300685883 -0.1444701999425888
000710 00 00 00 e0 a0 75 b6 3f 00 00 00 e0 1d fe c1 bf
       0.08773236721754074 -0.14056752622127533
000720 00 00 00 60 ec 2e a1 3f 00 00 00 a0 c3 ab 87 bf
       0.03356112167239189 -0.01155808288604021
000730 00 00 00 40 88 c0 b8 3f 00 00 00 c0 b1 5d a0 3f
       0.09668780863285065 0.03196483105421066
000740 00 00 00 60 27 d2 b4 3f 00 00 00 40 01 51 bd bf
       0.08133169263601303 -0.11451728641986847
000750 00 00 00 20 b1 5a c3 bf 00 00 00 c0 07 dc c1 bf
       -0.15120519697666168 -0.13952729105949402
000760 00 00 00 20 9d cb b8 bf 00 00 00 20 6b 49 b1 3f
       -0.09685689955949783 0.06752652674913406
000770 00 00 00 00 a9 51 c1 bf 00 00 00 20 be d4 b4 bf
       -0.13530457019805908 -0.08137119561433792
000780 00 00 00 c0 34 22 bd 3f 00 00 00 00 89 b4 bc bf
       0.1138031929731369 -0.11212974786758423
000790 00 00 00 60 9d f2 98 3f 00 00 00 60 5f 4d b8 3f
       0.024363001808524132 0.09493061155080795
0007a0 00 00 00 00 3e 47 c0 3f 00 00 00 a0 58 af b8 3f
       0.12717413902282715 0.09642557054758072
0007b0 00 00 00 00 de 9f b4 3f 00 00 00 60 55 f0 b7 3f
       0.08056437969207764 0.0935109481215477
0007c0 00 00 00 e0 34 51 b7 3f 00 00 00 c0 04 22 c1 3f
       0.091082863509655 0.13385066390037537
0007d0 00 00 00 a0 55 f6 bb 3f 00 00 00 e0 93 5a 53 bf
       0.10922751575708389 -0.0011812633601948619
0007e0 00 00 00 c0 88 fa bc 3f 00 00 00 00 c0 5b c1 bf
       0.11319784820079803 -0.13561248779296875
0007f0 00 00 00 40 3a 6d ba 3f 00 00 00 60 84 59 be bf
       0.10322917997837067 -0.11855342239141464

fc.0.bias f8 [150]
000000 00 00 00 20 25 6a ac bf 00 00 00 00 87 73 c3 3f
       -0.05549732223153114 0.15196311473846436
000010 00 00 00 20 0d 3e bf bf 00 00 00 00 97 d1 ab 3f
       -0.12204057723283768 0.05433341860771179
000020 00 00 00 e0 a8 f4 93 3f 00 00 00 80 86 d5 bc bf
       0.01948799006640911 -0.11263313889503479
000030 00 00 00 c0 b0 50 ba bf 00 00 00 60 aa 24 a7 bf
       -0.10279373824596405 -0.045201610773801804
000040 00 00 00 80 81 d7 86 bf 00 00 00 40 26 22 b5 3f
       -0.01115323230624199 0.08255232870578766
000050 00 00 00 a0 56 27 7b 3f 00 00 00 e0 09 30 b4 3f
       0.006629312876611948 0.07885801047086716
000060 00 00 00 20 e4 65 6e bf 00 00 00 c0 53 6e b2 bf
       -0.003710694843903184 -0.07199595868587494
000070 00 00 00 80 2d d6 6f 3f 00 00 00 60 b5 6e b3 bf
       0.0038863075897097588 -0.07590802758932114
000080 00 00 00 60 94 d9 79 3f 00 00 00 40 01 29 84 bf
       0.0063110156916081905 -0.009843835607171059
000090 00 00 00 e0 18 c1 a1 3f 00 00 00 e0 5c 1b a2 3f
       0.034676339477300644 0.03536501154303551
0000a0 00 00 00 00 2c 6d a2 3f 00 00 00 60 37 9d a2 bf
       0.03598916530609131 -0.03635571524500847
0000b0 00 00 00 c0 9d e7 c3 3f 00 00 00 60 da a0 82 bf
       0.15550586581230164 -0.009095865301787853
0000c0 00 00 00 c0 7d 26 c4 bf 00 00 00 e0 6f 64 c3 bf
       -0.157424658536911 -0.1515025943517685
0000d0 00 00 00 20 b1 6d a5 3f 00 00 00 e0 7e 5c a6 3f
       0.04185250774025917 0.04367443546652794
0000e0 00 00 00 20 15 06 bd bf 00 00 00 80 41 e6 ab 3f
       -0.11337406188249588 0.054491087794303894
0000f0 00 00 00 a0 20 f0 b2 3f 00 00 00 80 14 4c ad 3f
       0.0739765539765358 0.05722106993198395
000100 00 00 00 20 10 b5 c2 bf 00 00 00 e0 90 55 aa 3f
       -0.146150603890419 0.05143406614661217
000110 00 00 00 c0 5f df c1 bf 00 00 00 c0 75 34 a3 3f
       -0.1396293342113495 0.03750961273908615
000120 00 00 00 00 9d 58 a9 bf 00 00 00 00 7a c9 af 3f
       -0.04950419068336487 0.06208401918411255
000130 00 00 00 c0 40 90 be 3f 00 00 00 e0 70 e5 a9 bf
       0.1193886250257492 -0.05057862028479576
000140 00 00 00 a0 a9 e7 c1 bf 00 00 00 00 48 e0 b6 3f
       -0.13988228142261505 0.08935976028442383
000150 00 00 00 60 86 d1 b7 3f 00 00 00 c0 e5 5c a1 bf
       0.0930408462882042 -0.03391187638044357
000160 00 00 00 60 0f 3c b8 3f 00 00 00 a0 d1 be ba 3f
       0.09466644376516342 0.10447416454553604
000170 00 00 00 e0 2f 81 97 bf 00 00 00 40 c1 5d c0 3f
       -0.02295374684035778 0.1278611719608307
000180 00 00 00 e0 b1 2f 8c bf 00 00 00 e0 14 be b8 3f
       -0.013762845657765865 0.09665041416883469
000190 00 00 00 20 ff 49 c0 bf 00 00 00 00 d1 79 b0 3f
       -0.12725819647312164 0.06435877084732056
0001a0 00 00 00 c0 30 63 c2 3f 00 00 00 40 bf 5f 80 bf
       0.1436520516872406 -0.00799512304365635
0001b0 00 00 00 c0 16 f1 c3 bf 00 00 00 00 51 d8 c2 bf
       -0.15579494833946228 -0.1472264528274536
0001c0 00 00 00 a0 a4 5b bb 3f 00 00 00 20 cb e0 bd 3f
       0.10686711221933365 0.11671132594347
0001d0 00 00 00 e0 55 1d 31 3f 00 00 00 c0 7a 29 90 3f
       0.0002611479430925101 0.01578323170542717
0001e0 00 00 00 60 22 22 bb 3f 00 00 00 a0 32 7e c0 bf
       0.10598959773778915 -0.1288512498140335
0001f0 00 00 00 60 ef de 94 bf 00 00 00 c0 74 d0 b8 3f
       -0.020381679758429527 0.09693078696727753
000200 00 00 00 80 b6 22 b4 bf 00 00 00 20 53 d6 9e bf
       -0.07865467667579651 -0.03011445887386799
000210 00 00 00 c0 83 b8 b1 bf 00 00 00 40 ee 9b b2 3f
       -0.06922172009944916 0.07269181311130524
000220 00 00 00 40 8c 9a b8 bf 00 00 00 40 b4 71 b8 bf
       -0.09610821306705475 -0.09548498690128326
000230 00 00 00 a0 51 81 a8 bf 00 00 00 80 ff e6 bf 3f
       -0.047861624509096146 0.12461850047111511
000240 00 00 00 e0 d1 e6 c1 3f 00 00 00 60 6a c0 c0 3f
       0.13985656201839447 0.13087205588817596
000250 00 00 00 e0 08 41 a9 3f 00 00 00 a0 14 fe ac 3f
       0.04932430014014244 0.056625980883836746
000260 00 00 00 60 d6 63 c1 bf 00 00 00 e0 68 63 b9 3f
       -0.13585929572582245 0.09917312115430832
000270 00 00 00 60 25 00 ad 3f 00 00 00 c0 90 2b c3 3f
       0.05664173886179924 0.14976701140403748
000280 00 00 00 00 ec 06 c3 bf 00 00 00 40 79 a9 99 3f
       -0.14864873886108398 0.02506055310368538
000290 00 00 00 40 25 1e 9d bf 00 00 00 00 bf ee aa bf
       -0.02843530848622322 -0.05260273814201355
0002a0 00 00 00 00 e8 26 ad 3f 00 00 00 e0 da 36 c2 3f
       0.056937456130981445 0.14229904115200043
0002b0 00 00 00 e0 e9 0e aa bf 00 00 00 60 f3 85 c3 bf
       -0.05089503154158592 -0.15252535045146942
0002c0 00 00 00 60 5c 41 a7 3f 00 00 00 20 75 a9 b8 3f
       0.04542053863406181 0.09633571654558182
0002d0 00 00 00 00 b8 62 9e bf 00 00 00 a0 dc 8d c3 3f
       -0.029673457145690918 0.15276677906513214
0002e0 00 00 00 60 0d 76 ba bf 00 00 00 e0 00 29 9b bf
       -0.10336383432149887 -0.02652360312640667
0002f0 00 00 00 20 b4 33 b8 bf 00 00 00 60 ec d0 b7 3f
       -0.09453893452882767 0.09303166717290878
000300 00 00 00 40 80 98 af bf 00 00 00 60 55 25 bf 3f
       -0.06171036511659622 0.1216634139418602
000310 00 00 00 a0 8d 22 c3 3f 00 00 00 a0 a4 4d c3 bf
       0.14949198067188263 -0.1508069783449173
000320 00 00 00 a0 9a 57 aa bf 00 00 00 80 80 61 ba 3f
       -0.05144961550831795 0.10305026173591614
000330 00 00 00 c0 00 10 bf 3f 00 00 00 60 b1 6b c1 3f
       0.12133793532848358 0.13609902560710907
000340 00 00 00 e0 cb fa a1 3f 00 00 00 20 c6 fa bb bf
       0.03511654958128929 -0.10929525643587112
000350 00 00 00 e0 96 0b c2 3f 00 00 00 e0 26 08 b9 3f
       0.14097867906093597 0.09778063744306564
000360 00 00 00 40 8b 0a c4 3f 00 00 00 80 b4 5f b2 3f
       0.15657177567481995 0.07177284359931946
000370 00 00 00 c0 41 da 85 3f 00 00 00 a0 36 73 b9 3f
       0.010670198127627373 0.09941426664590836
000380 00 00 00 60 af 97 b2 3f 00 00 00 20 24 3b c2 bf
       0.07262703031301498 -0.14242984354496002
000390 00 00 00 40 a5 9a b5 3f 00 00 00 20 00 c6 c3 bf
       0.08439095318317413 -0.1544799953699112
0003a0 00 00 00 60 ff 19 9f bf 00 00 00 20 cb 51 b4 bf
       -0.030372610315680504 -0.0793730691075325
0003b0 00 00 00 80 d8 49 b8 3f 00 00 00 60 37 0f c4 3f
       0.09487679600715637 0.15671436488628387
0003c0 00 00 00 80 5b 00 c2 3f 00 00 00 e0 6c 57 93 bf
       0.1406359076499939 -0.018888188526034355
0003d0 00 00 00 40 55 3c ba 3f 00 00 00 40 a0 42 a3 bf
       0.1024831086397171 -0.03761769086122513
0003e0 00 00 00 20 2f ee b9 3f 00 00 00 a0 48 75 b9 3f
       0.10129065066576004 0.09944585710763931
0003f0 00 00 00 a0 65 67 b7 bf 00 00 00 20 18 90 a5 3f
       -0.0914214625954628 0.0421149767935276
000400 00 00 00 e0 1c 6d a0 3f 00 00 00 a0 c5 5f b2 3f
       0.032082464545965195 0.07177386432886124
000410 00 00 00 80 2d b2 b5 3f 00 00 00 60 e0 e7 c3 3f
       0.08475002646446228 0.15551380813121796
000420 00 00 00 20 a7 7d b3 bf 00 00 00 a0 4e 0b c2 bf
       -0.07613606005907059 -0.14097006618976593
000430 00 00 00 e0 8b e6 bd 3f 00 00 00 80 78 c0 b0 3f
       0.11679910868406296 0.06543686985969543
000440 00 00 00 60 54 18 c3 bf 00 00 00 a0 ef 19 ba 3f
       -0.14917998015880585 0.1019582524895668
000450 00 00 00 a0 71 be 81 3f 00 00 00 40 cc 71 9d bf
       0.0086640240624547 -0.02875441685318947
000460 00 00 00 a0 e8 4e be bf 00 00 00 20 c4 7d c1 bf
       -0.11839155107736588 -0.13665057718753815
000470 00 00 00 e0 14 27 a7 bf 00 00 00 20 5e 22 a9 3f
       -0.04522004351019859 0.04909032955765724
000480 00 00 00 60 33 91 9b bf 00 00 00 c0 a2 29 c4 3f
       -0.02692108415067196 0.1575206220149994
000490 00 00 00 00 5a bf ac bf 00 00 00 80 52 b5 b8 bf
       -0.05614739656448364 -0.09651675820350647
0004a0 00 00 00 00 0c e7 c1 bf 00 00 00 60 3b fd b9 3f
       -0.1398634910583496 0.10152026265859604

fc.2.weight f8 [150, 150]
000000 00 00 00 60 e2 b1 9e 3f 00 00 00 e0 a1 58 99 bf
       0.029975449666380882 -0.024752167984843254
000010 00 00 00 e0 2d a4 a7 3f 00 00 00 00 63 d7 95 bf
       0.046174462884664536 -0.021329447627067566
000020 00 00 00 20 9e 85 92 bf 00 00 00 80 fd e9 a9 bf
       -0.018087835982441902 -0.05061332881450653
000030 00 00 00 40 fd 76 b2 bf 00 00 00 20 0d a1 75 bf
       -0.07212813198566437 -0.0052805435843765736
000040 00 00 00 c0 e4 63 8d bf 00 00 00 a0 64 e9 95 bf
       -0.014350688084959984 -0.021398136392235756
000050 00 00 00 60 81 0c 8e bf 00 00 00 80 24 37 a1 3f
       -0.014672289602458477 0.0336238294839859
000060 00 00 00 60 34 e5 8a 3f 00 00 00 60 e6 d4 a7 3f
       0.013132485561072826 0.046546172350645065
000070 00 00 00 e0 67 37 a9 3f 00 00 00 00 ef c7 a8 bf
       0.04925083741545677 -0.04840037226676941
000080 00 00 00 80 4a db 93 bf 00 00 00 a0 9f 7d ad bf
       -0.019391216337680817 -0.057599056512117386
000090 00 00 00 60 d8 24 8b bf 00 00 00 e0 b9 e6 ac 3f
       -0.01325387042015791 0.05644780024886131
0000a0 00 00 00 c0 cc 25 b3 bf 00 00 00 e0 d0 3a 8e 3f
       -0.07479552924633026 0.014760619960725307
0000b0 00 00 00 60 4b 96 ad 3f 00 00 00 40 39 84 b1 3f
       0.05778728052973747 0.06842382252216339
0000c0 00 00 00 40 38 ba a5 bf 00 00 00 20 3b e0 82 bf
       -0.04243636876344681 -0.009216749109327793
0000d0 00 00 00 e0 67 90 8c 3f 00 00 00 a0 b4 1f b2 3f
       0.013947307132184505 0.07079628854990005
0000e0 00 00 00 40 e4 d2 8d 3f 00 00 00 a0 85 0b b3 bf
       0.014562400057911873 -0.07439456135034561
0000f0 00 00 00 c0 37 64 9e bf 00 00 00 60 82 df 7c 3f
       -0.029679175466299057 0.007049092557281256
000100 00 00 00 a0 5e c4 a7 bf 00 00 00 c0 ad c3 54 bf
       -0.046420056372880936 -0.0012673565652221441
000110 00 00 00 c0 44 f1 a4 3f 00 00 00 40 85 f4 af 3f
       0.040903232991695404 0.06241241842508316
000120 00 00 00 c0 b5 cb b4 bf 00 00 00 80 17 9f 65 3f
       -0.08123336732387543 0.002639337442815304
000130 00 00 00 20 e9 36 90 bf 00 00 00 40 f8 4a 95 3f
       -0.015834467485547066 0.020793799310922623
000140 00 00 00 00 9e c2 64 bf 00 00 00 00 37 3d 9c 3f
       -0.0025342069566249847 0.027577266097068787
000150 00 00 00 e0 18 ae a0 3f 00 00 00 20 17 99 a0 bf
       0.032578255981206894 -0.032417986541986465
000160 00 00 00 00 ca 59 a5 bf 00 00 00 e0 bb af ab 3f
       -0.041700661182403564 0.05407511815428734
000170 00 00 00 a0 1e 59 ad bf 00 00 00 80 b9 43 b0 bf
       -0.05732055380940437 -0.06353339552879333
000180 00 00 00 40 6e 2d ae bf 00 00 00 80 07 89 62 3f
       -0.05894035845994949 0.0022626062855124474
000190 00 00 00 e0 21 11 9a bf 00 00 00 00 2f b5 ae bf
       -0.025455979630351067 -0.05997607111930847
0001a0 00 00 00 80 7e 65 b1 3f 00 00 00 60 1d 48 a4 bf
       0.06795492768287659 -0.03961269184947014
0001b0 00 00 00 c0 d5 e2 b4 3f 00 00 00 80 56 49 90 3f
       0.08158622682094574 0.015904761850833893
0001c0 00 00 00 c0 94 e9 ad 3f 00 00 00 00 fb 40 9e 3f
       0.05842270702123642 0.029544755816459656
0001d0 00 00 00 60 e0 4f 94 bf 00 00 00 a0 ef 76 83 3f
       -0.019835954532027245 0.009504196234047413
0001e0 00 00 00 00 8d fd a2 3f 00 00 00 20 47 f4 85 bf
       0.037090688943862915 -0.010719829238951206
0001f0 00 00 00 a0 63 5a 93 3f 00 00 00 40 17 c1 a2 bf
       0.018899494782090187 -0.036629416048526764
000200 00 00 00 20 22 85 ab bf 00 00 00 80 48 9b 91 bf
       -0.05375010147690773 -0.01719392091035843
000210 00 00 00 20 24 05 b1 3f 00 00 00 a0 6d 82 ac 3f
       0.06648469716310501 0.05568258836865425
000220 00 00 00 00 92 fe ac 3f 00 00 00 40 67 e3 ae bf
       0.056629717350006104 -0.06032869964838028
000230 00 00 00 80 05 fb 7f 3f 00 00 00 c0 b7 0b b4 bf
       0.00780775211751461 -0.07830379903316498
000240 00 00 00 a0 da d4 ab 3f 00 00 00 c0 2e 8b 9d bf
       0.05435832217335701 -0.028851252049207687
000250 00 00 00 80 2a ab ae 3f 00 00 00 60 32 3d 8d 3f
       0.05989964306354523 0.014276879839599133
000260 00 00 00 60 06 56 b4 bf 00 00 00 a0 62 10 a8 bf
       -0.07943763583898544 -0.047000009566545486
000270 00 00 00 80 60 2d 9f 3f 00 00 00 c0 08 31 a0 bf
       0.03044653683900833 -0.03162410110235214
000280 00 00 00 e0 a8 6e a0 3f 00 00 00 a0 e5 c7 9d bf
       0.03209426626563072 -0.029082858934998512
000290 00 00 00 a0 25 d4 a2 bf 00 00 00 40 4b 9d ab bf
       -0.03677480295300484 -0.053934432566165924
0002a0 00 00 00 40 a7 57 a6 bf 00 00 00 e0 10 8d b1 3f
       -0.04363749176263809 0.06855874508619308
0002b0 00 00 00 60 2c 31 b0 bf 00 00 00 20 0a e5 97 3f
       -0.06325032562017441 0.023334654048085213
0002c0 00 00 00 a0 43 d1 80 3f 00 00 00 40 4d 14 ae 3f
       0.00821163970977068 0.05874864012002945
0002d0 00 00 00 60 2b 1d b2 3f 00 00 00 80 b3 5b 31 3f
       0.07075759023427963 0.0002648652298375964
0002e0 00 00 00 00 28 28 9f bf 00 00 00 40 38 09 8c 3f
       -0.030426621437072754 0.01368946023285389
0002f0 00 00 00 e0 00 60 a0 3f 00 00 00 60 13 9c ab 3f
       0.03198244795203209 0.05392513796687126
000300 00 00 00 e0 71 b1 97 3f 00 00 00 40 9e 67 ac bf
       0.023137835785746574 -0.0554780438542366
000310 00 00 00 00 ec 6d a6 bf 00 00 00 a0 57 b3 9a bf
       -0.043807387351989746 -0.026074761524796486
000320 00 00 00 a0 26 83 a1 3f 00 00 00 20 be e9 b0 bf
       0.034203726798295975 -0.06606663018465042
000330 00 00 00 a0 22 9b 62 bf 00 00 00 20 15 07 ac 3f
       -0.0022712398786097765 0.05474153533577919
000340 00 00 00 20 93 81 98 3f 00 00 00 80 70 7f b1 3f
       0.02393178828060627 0.06835082173347473
000350 00 00 00 40 90 a9 b0 bf 00 00 00 80 e8 4b ab 3f
       -0.06508733332157135 0.05331350862979889
000360 00 00 00 60 1c 1f aa 3f 00 00 00 c0 9a 65 b1 bf
       0.0510186068713665 -0.06795661151409149
000370 00 00 00 60 58 6c aa bf 00 00 00 a0 03 26 90 bf
       -0.05160785838961601 -0.015770012512803078
000380 00 00 00 c0 68 30 ab bf 00 00 00 c0 ae 7e b2 3f
       -0.05310370773077011 0.0722455233335495
000390 00 00 00 e0 19 65 b4 3f 00 00 00 80 4f c3 b2 bf
       0.07966767996549606 -0.07329270243644714
0003a0 00 00 00 a0 7b 77 b0 bf 00 00 00 c0 2a 9e a0 bf
       -0.06432316452264786 -0.032456718385219574
0003b0 00 00 00 60 88 b3 8d 3f 00 00 00 c0 f1 63 9f bf
       0.014502587728202343 -0.030654694885015488
0003c0 00 00 00 60 e2 d6 93 bf 00 00 00 80 33 90 ae 3f
       -0.019374405965209007 0.059693917632102966
0003d0 00 00 00 40 63 64 97 bf 00 00 00 40 3b fc ae 3f
       -0.02284388616681099 0.06051812320947647
0003e0 00 00 00 80 a6 9e 84 3f 00 00 00 40 62 12 ab 3f
       0.010068226605653763 0.05287463217973709
0003f0 00 00 00 00 7e 29 b4 bf 00 00 00 20 a3 3d ad 3f
       -0.0787581205368042 0.05711087957024574
000400 00 00 00 60 92 13 aa 3f 00 00 00 00 06 6b 8b bf
       0.05093057081103325 -0.013387724757194519
000410 00 00 00 80 c8 25 86 bf 00 00 00 40 e8 88 a6 3f
       -0.010814253240823746 0.04401326924562454
000420 00 00 00 80 87 f5 9b 3f 00 00 00 80 f5 2d a9 3f
       0.02730380743741989 0.04917876422405243
000430 00 00 00 e0 f9 42 94 3f 00 00 00 60 3c bd a5 3f
       0.019786743447184563 0.04245937988162041
000440 00 00 00 60 48 69 ad bf 00 00 00 e0 e3 05 a1 bf
       -0.05744386836886406 -0.033248063176870346
000450 00 00 00 c0 dc 6d 85 3f 00 00 00 c0 9c 08 a2 3f
       0.010463451966643333 0.03522195667028427
000460 00 00 00 00 b1 fb 9b 3f 00 00 00 e0 dc 7a a8 bf
       0.027327314019203186 -0.04781236872076988
000470 00 00 00 00 a7 85 96 3f 00 00 00 a0 99 d1 a8 bf
       0.021994218230247498 -0.04847412183880806
000480 00 00 00 20 fc 92 9e 3f 00 00 00 80 6b 31 b4 3f
       0.02985757775604725 0.07887908816337585
000490 00 00 00 00 86 61 b2 3f 00 00 00 e0 8a 65 6b bf
       0.0718005895614624 -0.003344317665323615
0004a0 00 00 00 20 dd 84 a8 bf 00 00 00 c0 37 91 b3 3f
       -0.04788867011666298 0.07643459737300873
0004b0 00 00 00 c0 bf 9c 96 bf 00 00 00 00 30 ea a0 3f
       -0.02208232507109642 0.03303670883178711
0004c0 00 00 00 00 12 f8 8c bf 00 00 00 a0 35 b1 a9 3f
       -0.014145031571388245 0.05018012598156929
0004d0 00 00 00 00 29 d3 af 3f 00 00 00 40 b2 98 9a bf
       0.062157899141311646 -0.025973115116357803
0004e0 00 00 00 20 3b 69 b0 bf 00 00 00 00 90 7d b3 bf
       -0.06410569697618484 -0.07613468170166016
0004f0 00 00 00 80 87 6e 9b 3f 00 00 00 e0 1a 61 9c bf
       0.026788823306560516 -0.02771417610347271
000500 00 00 00 c0 6f b1 b0 bf 00 00 00 e0 81 59 7a bf
       -0.06520746648311615 -0.006433017086237669
000510 00 00 00 20 52 88 b1 bf 00 00 00 60 fb f9 aa 3f
       -0.06848634034395218 0.05268846079707146
000520 00 00 00 20 f0 e1 73 bf 00 00 00 e0 fa d5 b2 3f
       -0.004854143131524324 0.07357757538557053
000530 00 00 00 80 4d c8 ab 3f 00 00 00 a0 a9 df a0 bf
       0.054262563586235046 -0.03295641019940376
000540 00 00 00 80 97 0f b2 3f 00 00 00 40 ef 47 80 bf
       0.07055041193962097 -0.007949704304337502
000550 00 00 00 20 c8 13 b2 3f 00 00 00 00 95 e9 9f 3f
       0.07061434537172318 0.03116448223590851
000560 00 00 00 00 cf c5 b2 bf 00 00 00 40 f1 b8 ac bf
       -0.073330819606781 -0.05609849840402603
000570 00 00 00 60 08 3c b3 bf 00 00 00 00 ad 7f b0 bf
       -0.07513477653265 -0.06444817781448364
000580 00 00 00 e0 5c 9e 81 3f 00 00 00 c0 fd 0d a1 bf
       0.008602834306657314 -0.03330986946821213
000590 00 00 00 e0 4a 8c 9d 3f 00 00 00 80 c6 48 a9 3f
       0.02885548584163189 0.04938335716724396
0005a0 00 00 00 00 e4 00 a5 bf 00 00 00 60 f9 fd 9d 3f
       -0.041022419929504395 0.02928914688527584
0005b0 00 00 00 a0 02 c2 82 3f 00 00 00 a0 1f bb 9d 3f
       0.009159107692539692 0.02903413213789463
0005c0 00 00 00 40 b3 92 9a 3f 00 00 00 40 88 a7 b0 bf
       0.025950241833925247 -0.06505633890628815
0005d0 00 00 00 e0 ce 2a ad 3f 00 00 00 e0 b5 6b a8 bf
       0.056967224925756454 -0.04769676551222801
0005e0 00 00 00 00 86 5f 91 3f 00 00 00 a0 20 90 b0 bf
       0.01696595549583435 -0.0646992102265358
0005f0 00 00 00 20 88 0d a6 3f 00 00 00 00 88 5e b0 bf
       0.043071988970041275 -0.06394243240356445
000600 00 00 00 40 62 09 b0 bf 00 00 00 c0 2e 03 b2 bf
       -0.06264318525791168 -0.07036106288433075
000610 00 00 00 40 58 9a 49 bf 00 00 00 20 ba 92 95 bf
       -0.0007813387783244252 -0.021067531779408455
000620 00 00 00 00 73 10 b4 bf 00 00 00 e0 38 1f a5 3f
       -0.07837599515914917 0.04125383123755455
000630 00 00 00 80 a7 28 a3 3f 00 00 00 c0 03 f7 ae bf
       0.03741954267024994 -0.060478322207927704
000640 00 00 00 00 59 4c 74 3f 00 00 00 a0 66 a3 ad bf
       0.004955623298883438 -0.05788727477192879
000650 00 00 00 40 6b 8a b3 bf 00 00 00 60 af f8 b2 3f
       -0.07633085548877716 0.07410713285207748
000660 00 00 00 20 cd 3c 83 bf 00 00 00 20 eb 17 74 3f
       -0.009393312968313694 0.00490562291815877
000670 00 00 00 60 a2 9a 95 3f 00 00 00 40 7b 8e 83 bf
       0.0210976954549551 -0.009549105539917946
000680 00 00 00 60 f1 ad a6 3f 00 00 00 00 38 5a 8b bf
       0.04429582878947258 -0.013355672359466553
000690 00 00 00 c0 61 36 a2 3f 00 00 00 20 97 ca 87 3f
       0.0355711504817009 0.011616879142820835
0006a0 00 00 00 c0 72 21 95 bf 00 00 00 a0 db 59 85 bf
       -0.02063540741801262 -0.010425296612083912
0006b0 00 00 00 80 ac 01 84 3f 00 00 00 a0 a7 ff 97 3f
       0.009768817573785782 0.023436183109879494
0006c0 00 00 00 80 5d bd a8 bf 00 00 00 00 19 79 5b bf
       -0.0483197420835495 -0.0016768211498856544
0006d0 00 00 00 00 95 af b4 bf 00 00 00 a0 81 71 a2 3f
       -0.08080416917800903 0.036022234708070755
0006e0 00 00 00 00 a5 f9 ac bf 00 00 00 60 dd bc 8a bf
       -0.05659213662147522 -0.013055543415248394
0006f0 00 00 00 60 b3 60 97 3f 00 00 00 20 dc 09 92 3f
       0.022829821333289146 0.01761573739349842
000700 00 00 00 60 c6 11 9b 3f 00 00 00 20 0c dd 9a bf
       0.026434993371367455 -0.0262338537722826
000710 00 00 00 80 6d 52 b2 bf 00 00 00 80 b4 0b a1 3f
       -0.0715702474117279 0.03329242765903473
000720 00 00 00 00 8f 89 88 bf 00 00 00 a0 85 0f ac 3f
       -0.011981122195720673 0.054805923253297806
000730 00 00 00 c0 31 4a a3 3f 00 00 00 60 8a 0b 9f 3f
       0.03767543286085129 0.030317461118102074
000740 00 00 00 e0 6f bb a4 bf 00 00 00 40 20 a0 b2 3f
       -0.04049253091216087 0.072755828499794
000750 00 00 00 c0 ff 4a 9b 3f 00 00 00 60 be d0 8b 3f
       0.026653286069631577 0.01358174066990614
000760 00 00 00 a0 ea ba b3 3f 00 00 00 60 7e de a2 3f
       0.07707086950540543 0.036853741854429245
000770 00 00 00 40 d6 73 a4 bf 00 00 00 80 ca ae 97 3f
       -0.039946265518665314 0.023127712309360504
000780 00 00 00 c0 23 61 b1 3f 00 00 00 00 9d 3a b3 3f
       0.06788848340511322 0.07511311769485474
000790 00 00 00 c0 56 a8 aa bf 00 00 00 20 98 0d b3 bf
       -0.05206557363271713 -0.07442618161439896
0007a0 00 00 00 80 6d 24 b0 bf 00 00 00 40 c5 d1 b1 bf
       -0.0630558431148529 -0.06960709393024445
0007b0 00 00 00 e0 e2 85 90 3f 00 00 00 40 2f 58 a3 bf
       0.01613573543727398 -0.03778216987848282
0007c0 00 00 00 20 c2 b9 b2 3f 00 00 00 80 17 f8 ad 3f
       0.07314694672822952 0.05853341519832611
0007d0 00 00 00 40 7a b0 a7 bf 00 00 00 40 06 b8 89 3f
       -0.046268291771411896 0.01255802996456623
0007e0 00 00 00 20 bb e1 ae bf 00 00 00 00 f5 4a 85 3f
       -0.06031594052910805 0.010396875441074371
0007f0 00 00 00 40 4c 77 a9 3f 00 00 00 a0 d9 7c b1 3f
       0.04973829537630081 0.06831131130456924

fc.2.bias f8 [150]
000000 00 00 00 e0 fb 12 84 3f 00 00 00 00 69 3c 96 bf
       0.009801833890378475 -0.021714821457862854
000010 00 00 00 c0 b5 5b a7 bf 00 00 00 e0 23 04 89 bf
       -0.045621566474437714 -0.012214927934110165
000020 00 00 00 80 5c cf 77 bf 00 00 00 20 f6 b1 b4 bf
       -0.0058129895478487015 -0.08084047585725784
000030 00 00 00 40 90 e5 9d 3f 00 00 00 a0 ea 2d a9 3f
       0.029196027666330338 0.04917844012379646
000040 00 00 00 e0 01 9d a5 bf 00 00 00 20 dc da 8e bf
       -0.04221349582076073 -0.015065879561007023
000050 00 00 00 00 fa e1 82 bf 00 00 00 20 91 11 b4 3f
       -0.009220078587532043 0.07839304953813553
000060 00 00 00 a0 a8 c1 80 bf 00 00 00 80 e0 9e b4 bf
       -0.008181874640285969 -0.08054926991462708
000070 00 00 00 00 33 82 b2 bf 00 00 00 80 f5 a2 99 bf
       -0.07229918241500854 -0.02503570169210434
000080 00 00 00 20 de 99 8a 3f 00 00 00 e0 ce b6 ab 3f
       0.012988791801035404 0.054129090160131454
000090 00 00 00 e0 e0 f4 b3 3f 00 00 00 40 5c 3e b4 bf
       0.07795529812574387 -0.07907654345035553
0000a0 00 00 00 60 cd 59 b4 3f 00 00 00 60 8a d3 99 bf
       0.07949527353048325 -0.025221025571227074
0000b0 00 00 00 e0 94 1c a9 3f 00 00 00 60 a9 06 ac bf
       0.04904618486762047 -0.054738324135541916
0000c0 00 00 00 80 3b d7 b2 bf 00 00 00 a0 40 a0 ab bf
       -0.07359668612480164 -0.053957004100084305
0000d0 00 00 00 e0 f9 49 9a 3f 00 00 00 e0 9a 62 b1 bf
       0.025672821328043938 -0.06791084259748459
0000e0 00 00 00 c0 e7 2c b1 3f 00 00 00 40 d5 7d 8d bf
       0.0670914500951767 -0.014400163665413857
0000f0 00 00 00 20 af 56 aa 3f 00 00 00 a0 c8 e6 b3 bf
       0.051442597061395645 -0.07774022966623306
000100 00 00 00 40 6a 53 86 3f 00 00 00 c0 90 5c a9 3f
       0.01090128906071186 0.04953434318304062
000110 00 00 00 40 2a ab b0 3f 00 00 00 e0 70 9e b0 bf
       0.06511177122592926 -0.06491761654615402
000120 00 00 00 a0 6c ad 9d 3f 00 00 00 40 59 c6 80 3f
       0.028981873765587807 0.00819081999361515
000130 00 00 00 40 5f 50 ac bf 00 00 00 00 8a f5 b0 bf
       -0.05530069023370743 -0.0662466287612915
000140 00 00 00 40 6f 76 a2 bf 00 00 00 80 6e 7a b0 3f
       -0.03605983406305313 0.06436815857887268
000150 00 00 00 60 4f de a1 3f 00 00 00 e0 d2 29 a0 bf
       0.03489921614527702 -0.031569089740514755
000160 00 00 00 60 87 57 8d 3f 00 00 00 60 6a 55 76 3f
       0.014327104203402996 0.00545255234465003
000170 00 00 00 40 7e a4 86 3f 00 00 00 a0 df d1 7c bf
       0.011055933311581612 -0.0070360885001719
000180 00 00 00 a0 aa 0a ac 3f 00 00 00 e0 a3 da b4 3f
       0.0547688789665699 0.08146118372678757
000190 00 00 00 40 fa 8a b1 3f 00 00 00 80 ad f9 8c bf
       0.06852687895298004 -0.014148097485303879
0001a0 00 00 00 c0 dc 9c 9c 3f 00 00 00 60 d7 26 a4 bf
       0.027942132204771042 -0.03935883566737175
0001b0 00 00 00 20 e8 e5 a3 3f 00 00 00 20 6c 28 a8 bf
       0.038863424211740494 -0.04718339815735817
0001c0 00 00 00 60 c3 b1 b3 bf 00 00 00 00 a5 e6 b2 3f
       -0.07693120092153549 0.07383185625076294
0001d0 00 00 00 20 20 52 a4 3f 00 00 00 20 c9 c4 b3 bf
       0.039689067751169205 -0.07722146064043045
0001e0 00 00 00 00 d0 69 ac 3f 00 00 00 60 32 f2 a7 bf
       0.05549478530883789 -0.04676968976855278
0001f0 00 00 00 20 08 cf 8a bf 00 00 00 60 6b 2f 80 3f
       -0.013090194202959538 0.007902945391833782
000200 00 00 00 00 86 c5 a4 bf 00 00 00 a0 fa cc 75 bf
       -0.0405694842338562 -0.005322436336427927
000210 00 00 00 60 ce 32 96 bf 00 00 00 40 97 98 a9 3f
       -0.02167818509042263 0.04999230057001114
000220 00 00 00 a0 48 85 9c 3f 00 00 00 40 eb a0 af 3f
       0.027852186933159828 0.061774589121341705
000230 00 00 00 60 c0 e5 96 bf 00 00 00 60 49 f8 ae bf
       -0.02236080728471279 -0.0604880265891552
000240 00 00 00 60 c4 90 87 bf 00 00 00 60 cd f2 98 bf
       -0.011506590060889721 -0.024363717064261436
000250 00 00 00 20 63 fa ac 3f 00 00 00 40 db 93 b1 bf
       0.05659780278801918 -0.0686623603105545
000260 00 00 00 a0 33 f4 8e bf 00 00 00 80 80 37 32 bf
       -0.015114215202629566 -0.000277966377325356
000270 00 00 00 20 f3 27 a0 bf 00 00 00 c0 14 39 a4 3f
       -0.03155479207634926 0.039497993886470795
000280 00 00 00 80 b5 4a 97 bf 00 00 00 a0 6a d0 9c 3f
       -0.022745929658412933 0.028138795867562294
000290 00 00 00 20 23 a7 b0 bf 00 00 00 80 92 1c 74 bf
       -0.06505031138658524 -0.0049100611358881
0002a0 00 00 00 40 1c 10 a6 bf 00 00 00 a0 0d 63 ac bf
       -0.04309166222810745 -0.05544321611523628
0002b0 00 00 00 60 2c ab 9f bf 00 00 00 a0 87 53 67 3f
       -0.030926411971449852 0.002847447292879224
0002c0 00 00 00 e0 45 95 a1 3f 00 00 00 00 39 8e b0 3f
       0.03434198722243309 0.0646701455116272
0002d0 00 00 00 60 b7 13 b0 3f 00 00 00 a0 c8 d1 b3 3f
       0.06280084699392319 0.07741979509592056
0002e0 00 00 00 c0 a3 10 ab bf 00 00 00 a0 a7 3a b1 bf
       -0.052861325442790985 -0.06730125099420547
0002f0 00 00 00 00 10 01 8b bf 00 00 00 e0 ad 14 a9 bf
       -0.013185620307922363 -0.04898589476943016
000300 00 00 00 a0 b9 13 79 3f 00 00 00 80 b9 59 87 3f
       0.006122326944023371 0.011401604861021042
000310 00 00 00 c0 c9 3c a6 3f 00 00 00 00 68 5c b3 bf
       0.04343252629041672 -0.07562875747680664
000320 00 00 00 e0 07 9b 90 3f 00 00 00 c0 01 79 a1 3f
       0.016216395422816277 0.03412633389234543
000330 00 00 00 40 ef 60 a1 bf 00 00 00 60 44 52 54 3f
       -0.033942677080631256 0.0012403171276673675
000340 00 00 00 80 b0 88 a8 bf 00 00 00 c0 64 00 92 bf
       -0.04791785776615143 -0.01757962629199028
000350 00 00 00 e0 9b 77 a1 bf 00 00 00 00 8b 7c 69 3f
       -0.03411566838622093 0.0031111445277929306
000360 00 00 00 a0 f4 57 b4 bf 00 00 00 40 16 e9 ae bf
       -0.07946709543466568 -0.060372062027454376
000370 00 00 00 60 d0 5c b2 3f 00 00 00 e0 9c 0b ad 3f
       0.07172872871160507 0.05672922357916832
000380 00 00 00 60 0d d1 b1 bf 00 00 00 a0 b0 6e aa bf
       -0.06959613412618637 -0.05162574723362923
000390 00 00 00 e0 1d 44 a8 3f 00 00 00 60 9d a0 a1 bf
       0.04739468917250633 -0.034428518265485764
0003a0 00 00 00 80 7f 2e a5 bf 00 00 00 c0 eb 3d 9f bf
       -0.04137037694454193 -0.030509646981954575
0003b0 00 00 00 60 8f e8 a5 bf 00 00 00 e0 73 e0 ae bf
       -0.042789917439222336 -0.060306187719106674
0003c0 00 00 00 80 79 19 ab 3f 00 00 00 20 0d bc a8 bf
       0.052928730845451355 -0.04830971732735634
0003d0 00 00 00 c0 a7 6c ab 3f 00 00 00 00 e9 09 46 bf
       0.053563348948955536 -0.0006725681014358997
0003e0 00 00 00 40 f1 ae ae bf 00 00 00 40 8f 76 88 bf
       -0.05992845445871353 -0.011944884434342384
0003f0 00 00 00 80 1a 2c 9f 3f 00 00 00 e0 f2 16 a4 bf
       0.030441679060459137 -0.03923758491873741
000400 00 00 00 60 f2 f9 b2 bf 00 00 00 c0 2e 53 b1 bf
       -0.07412638515233994 -0.06767551600933075
000410 00 00 00 20 df 57 90 bf 00 00 00 e0 26 a9 ad bf
       -0.015960203483700752 -0.05793115124106407
000420 00 00 00 60 69 60 8a 3f 00 00 00 00 8b 37 52 3f
       0.0128792030736804 0.0011118752881884575
000430 00 00 00 a0 e6 d1 5f 3f 00 00 00 40 cf 4b b4 bf
       0.0019421341130509973 -0.0792817622423172
000440 00 00 00 40 80 b0 a5 3f 00 00 00 e0 a3 9d 9e bf
       0.04236222058534622 -0.029898224398493767
000450 00 00 00 e0 49 9c a2 bf 00 00 00 a0 c7 d3 8b bf
       -0.03634863719344139 -0.013587531633675098
000460 00 00 00 a0 e8 36 b3 3f 00 00 00 00 bb 1c 95 3f
       0.07505659013986588 0.02061741054058075
000470 00 00 00 e0 bc da 8c bf 00 00 00 20 a7 a8 ae bf
       -0.014089084230363369 -0.059880468994379044
000480 00 00 00 c0 41 7c af 3f 00 00 00 c0 9c 26 a0 bf
       0.06149487942457199 -0.03154458850622177
000490 00 00 00 60 ee bb 78 bf 00 00 00 c0 c1 dc a4 bf
       -0.006038600113242865 -0.040746740996837616
0004a0 00 00 00 40 93 e1 7e bf 00 00 00 c0 01 58 8a bf
       -0.007539344020187855 -0.012863172218203545
