car_ros2/car_ros2/losses/none_delay.pth (torch, 234863 bytes, 6 tensors)

fc.0.weight f8 [150, 40]
0	0xbfb8b6cc60000000	-0.09653928130865097
1	0x3fbe1a08e0000000	0.11758475750684738
2	0x3fbf422660000000	0.12210311740636826
3	0x3f8341f100000000	0.009403117001056671
4	0x3fa7e88820000000	0.046695951372385025
5	0x3faf193780000000	0.06073926389217377
6	0x3fb784bd00000000	0.09186917543411255
7	0x3f815a2e00000000	0.008472785353660583
8	0x3fbe376220000000	0.11803258210420609
9	0xbfc19cae00000000	-0.13759398460388184
10	0xbf8051fdc0000000	-0.007968885824084282
11	0x3f94833d20000000	0.02003188617527485
12	0xbfc3bcdac0000000	-0.15420088171958923
13	0xbfb2bee140000000	-0.07322509586811066
14	0x3fb48bf000000000	0.0802602767944336
15	0xbfbed8c540000000	-0.12049515545368195
16	0xbfa7892960000000	-0.04596833512187004
17	0x3fc2703f80000000	0.14405053853988647
18	0xbfc3c551e0000000	-0.15445922315120697
19	0x3fbf0c8ce0000000	0.12128525227308273
20	0xbfb79f9120000000	-0.09227854758501053
21	0x3fb35e1ce0000000	0.07565479725599289
22	0x3fc3baf900000000	0.15414345264434814
23	0x3fbb72acc0000000	0.10721854865550995
24	0x3f9f486760000000	0.030549636110663414
25	0x3fbf66dde0000000	0.12266337126493454
26	0xbf8be439a0000000	-0.013618898577988148
27	0x3f7e271ea0000000	0.007361526135355234
28	0x3fc14f0000000000	0.135223388671875
29	0x3fb6993dc0000000	0.08827577531337738
30	0x3fbd2f4ee0000000	0.11400311440229416
31	0xbfaad1c300000000	-0.05238160490989685
32	0x3f86501240000000	0.010894911363720894
33	0x3fc2d56340000000	0.14713707566261292
34	0xbfb2a7b4c0000000	-0.07287149131298065
35	0x3f99c31f60000000	0.025158395990729332
36	0xbfb92e5b80000000	-0.09836360812187195
37	0xbf566836a0000000	-0.0013676198432222009
38	0x3f9766ada0000000	0.022852623835206032
39	0x3fb0673ec0000000	0.06407539546489716
40	0xbfc00fe0a0000000	-0.12548454105854034
41	0xbfb453a7c0000000	-0.07940147817134857
42	0x3f9e4e8660000000	0.029596423730254173
43	0xbfc4015e60000000	-0.15629176795482635
44	0xbfa284af20000000	-0.036168549209833145
45	0xbfc34a87c0000000	-0.15071198344230652
46	0xbfb2d48e20000000	-0.0735558345913887
47	0xbfb957ee20000000	-0.09899795800447464
48	0xbfb0b85aa0000000	-0.06531301885843277
49	0x3fc18a1e00000000	0.13702750205993652
50	0x3fb63a2300000000	0.08682459592819214
51	0xbfc2754780000000	-0.14420408010482788
52	0xbfc24a4fa0000000	-0.14289279282093048
53	0x3fc1047f40000000	0.13294973969459534
54	0xbfb5d1e5e0000000	-0.08523403853178024
55	0xbfa0dac840000000	-0.032919175922870636
56	0x3fb0d99800000000	0.06582021713256836
57	0xbfa32f2d80000000	-0.03746931254863739
58	0x3fb1aa8580000000	0.06900820136070251
59	0xbfa55d5c00000000	-0.04172790050506592
60	0xbf8a2639c0000000	-0.012768222019076347
61	0x3fbbb0b880000000	0.10816529393196106
62	0xbfc3c66500000000	-0.15449202060699463
63	0xbf898580c0000000	-0.012461667880415916
64	0x3f876344c0000000	0.011419808492064476
65	0xbfb0703c00000000	-0.06421256065368652
66	0xbf91a8a4e0000000	-0.017244888469576836
67	0x3fc291c000000000	0.14507293701171875
68	0xbfa7c77880000000	-0.04644371569156647
69	0x3f82bfb700000000	0.009154729545116425
70	0x3fc2ad6b00000000	0.14591729640960693
71	0xbf9f364020000000	-0.030480386689305305
72	0x3fbbd51780000000	0.10872027277946472
73	0x3fc3469260000000	0.150591179728508
74	0x3fc40ea9c0000000	0.15669748187065125
75	0xbf87b41fc0000000	-0.011574028059840202
76	0xbfc1bcf0e0000000	-0.13857851922512054
77	0x3f9079ef60000000	0.016090145334601402
78	0xbfa8b72960000000	-0.04827241227030754
79	0xbfad8a4c40000000	-0.05769575387239456
80	0xbfb3f46a80000000	-0.07794824242591858
81	0x3fb61d3040000000	0.08638288080692291
82	0x3f9cc90a60000000	0.02811065874993801
83	0xbf97d2e460000000	-0.023265426978468895
84	0xbfb778aa20000000	-0.09168494492769241
85	0xbfa39258e0000000	-0.038225915282964706
86	0xbfb89e92e0000000	-0.09616964310407639
87	0xbf9cf705c0000000	-0.02828606590628624
88	0xbfbb2d94e0000000	-0.10616426914930344
89	0x3fb665b320000000	0.08748931437730789
90	0xbfc1e6da20000000	-0.13985754549503326
91	0x3fc23589a0000000	0.14225883781909943
92	0x3fa3c0c100000000	0.038579970598220825
93	0xbfbd382fa0000000	-0.11413858085870743
94	0xbfb3ce1920000000	-0.07736355811357498
95	0x3fa7908dc0000000	0.046024732291698456
96	0x3fb127ca80000000	0.06701341271400452
97	0x3fa7ba7e40000000	0.04634470492601395
98	0x3f52b64c20000000	0.001142095890827477
99	0xbfc32a12c0000000	-0.14972147345542908
100	0xbf97c77e40000000	-0.0232219435274601
101	0x3f98800fc0000000	0.023926015943288803
102	0xbfb937fb80000000	-0.09851047396659851
103	0xbfc163f740000000	-0.13586321473121643
104	0xbfc147a7c0000000	-0.13499924540519714
105	0x3fc32bc2e0000000	0.1497729867696762
106	0xbf92e648e0000000	-0.01845659129321575
107	0x3fb33c37a0000000	0.07513759285211563
108	0xbfb7b42520000000	-0.09259254485368729
109	0x3fa687ed80000000	0.04400579631328583
110	0xbfbe3eb920000000	-0.11814457923173904
111	0x3fb27418c0000000	0.07208399474620819
112	0x3fae1bc3e0000000	0.05880558118224144
113	0x3fc1144520000000	0.1334310919046402
114	0x3faeccbca0000000	0.06015576794743538
115	0xbf95d6f380000000	-0.021327786147594452
116	0x3f9ca3e100000000	0.02796889841556549
117	0x3fc0017920000000	0.12504495680332184
118	0xbfa1621e20000000	-0.03395170345902443
119	0xbf86b9ff80000000	-0.011096950620412827
120	0x3fc3a95600000000	0.15360522270202637
121	0x3f87bda920000000	0.011592217721045017
122	0xbf9e3faac0000000	-0.029539745301008224
123	0x3fc2bc4440000000	0.14637044072151184
124	0xbfc24639e0000000	-0.14276812970638275
125	0x3fab99a000000000	0.05390644073486328
126	0x3f8b824b20000000	0.013432108797132969
127	0x3fc34750c0000000	0.15061387419700623
128	0xbf72244260000000	-0.004429110791534185
129	0x3fb333e1c0000000	0.07501040399074554
130	0xbfad43a7e0000000	-0.057156797498464584
131	0x3faca835c0000000	0.05597084015607834
132	0xbfc1b18ba0000000	-0.13823075592517853
133	0xbf48a537e0000000	-0.0007521174266003072
134	0xbf9b3c8ce0000000	-0.026598168537020683
135	0x3fc02b6ec0000000	0.12632545828819275
136	0x3fa4b16f60000000	0.04041622206568718
137	0xbf9c702f80000000	-0.027771703898906708
138	0xbf86c13b40000000	-0.01111074723303318
139	0x3faf5b2400000000	0.06124222278594971
140	0xbfaebca1a0000000	-0.06003289297223091
141	0xbfc33fc7e0000000	-0.15038393437862396
142	0xbfc1318ca0000000	-0.13432462513446808
143	0x3faaf198e0000000	0.05262449011206627
144	0x3fba1bdb00000000	0.10198754072189331
145	0xbfc0233480000000	-0.12607437372207642
146	0xbf8169dce0000000	-0.008502698503434658
147	0x3f8c698b80000000	0.013873185962438583
148	0xbf77303540000000	-0.005661209113895893
149	0xbfbd2df820000000	-0.1139826849102974
150	0xbf5c7ba8a0000000	-0.0017384669044986367
151	0xbf76bef580000000	-0.00555320642888546
152	0xbfbe58a800000000	-0.11854028701782227
153	0xbfb5b99f60000000	-0.08486362546682358
154	0xbfc22e4a80000000	-0.14203768968582153
155	0xbfb00706e0000000	-0.06260722130537033
156	0x3f93f2cc00000000	0.019480884075164795
157	0xbfc24d1dc0000000	-0.14297839999198914
158	0x3fbe2aa700000000	0.11783832311630249
159	0xbfc1aa3480000000	-0.13800674676895142
160	0xbfa6a486c0000000	-0.04422398656606674
161	0x3fc387d920000000	0.1525832563638687
162	0xbfae8c5660000000	-0.05966443940997124
163	0xbfc1b8de80000000	-0.13845425844192505
164	0xbfc215c860000000	-0.14128975570201874
165	0xbfc1eead00000000	-0.14009630680084229
166	0x3fb3a405c0000000	0.07672153413295746
167	0x3fc1f75fa0000000	0.1403617411851883
168	0xbfba8ab920000000	-0.10367924720048904
169	0xbfb41ab400000000	-0.07853245735168457
170	0x3fc3464ee0000000	0.15058313310146332
171	0xbfc3dc4f40000000	-0.1551608145236969
172	0x3fbc226ac0000000	0.10990016162395477
173	0x3fa8c80040000000	0.0484008863568306
174	0x3fb8aaece0000000	0.09635811299085617
175	0x3fa3f40780000000	0.03897117078304291
176	0x3fb4af4ac0000000	0.08079974353313446
177	0x3fc3edd320000000	0.1556953340768814
178	0x3fc3d43100000000	0.154913067817688
179	0xbfc0a3aa80000000	-0.1299946904182434
180	0xbf9befcc20000000	-0.02728194184601307
181	0xbfb83bc480000000	-0.09466198086738586
182	0xbfbfb747a0000000	-0.12389037758111954
183	0x3fc0149540000000	0.12562814354896545
184	0xbfb9cec840000000	-0.10081149637699127
185	0xbfb4232800000000	-0.07866144180297852
186	0x3fbce8e1e0000000	0.11292850226163864
187	0xbfa689a5a0000000	-0.04401891306042671
188	0x3fbd379140000000	0.11412914097309113
189	0xbfbe986f80000000	-0.11951348185539246
190	0xbfbd7d2240000000	-0.11519064009189606
191	0x3fb2a460a0000000	0.07282070070505142
192	0x3fb738ac00000000	0.09070849418640137
193	0x3fbd3b4de0000000	0.11418616026639938
194	0x3fb7dd69c0000000	0.0932222455739975
195	0xbfb2a6d020000000	-0.07285786420106888
196	0xbfb109d040000000	-0.06655599176883698
197	0xbfaa195260000000	-0.050974439829587936
198	0xbfbe25c3c0000000	-0.11776374280452728
199	0x3fa8517980000000	0.047496601939201355
200	0x3fb2d01da0000000	0.07348809391260147
201	0x3f72a5b200000000	0.0045525506138801575
202	0x3fb901c5e0000000	0.09768330305814743
203	0xbf96e38ea0000000	-0.022352436557412148
204	0x3fc1602340000000	0.13574638962745667
205	0x3fa583b3c0000000	0.04202043265104294
206	0xbfc0fc3800000000	-0.13269710540771484
207	0xbfc05913a0000000	-0.12771840393543243
208	0x3f825ea720000000	0.008969598449766636
209	0xbfbb0f6580000000	-0.1057036817073822
210	0xbfa7ac3da0000000	-0.04623596742749214
211	0x3fbb73cba0000000	0.10723564773797989
212	0xbf844b6000000000	-0.009909391403198242
213	0xbfbcf9ac60000000	-0.11318471282720566
214	0xbfa8ae3bc0000000	-0.048204295337200165
215	0x3fac375620000000	0.05510968342423439
216	0xbfc1706640000000	-0.13624265789985657
217	0x3fc4178bc0000000	0.15696856379508972
218	0x3fa4bf8a20000000	0.04052383080124855
219	0xbfbc6d79c0000000	-0.1110454648733139
220	0x3fc355dac0000000	0.15105757117271423
221	0xbf9ddbbe60000000	-0.029158568009734154
222	0xbfb9b3b120000000	-0.10039813071489334
223	0x3fbc905500000000	0.11157733201980591
224	0xbf982e11c0000000	-0.02361324056982994
225	0xbfc3935d20000000	-0.15293468534946442
226	0xbfb4d21ba0000000	-0.08133099228143692
227	0x3fa9e824c0000000	0.05059923976659775
228	0xbf9674e460000000	-0.021930282935500145
229	0xbfa12748e0000000	-0.03350284323096275
230	0x3fc3a43ee0000000	0.1534498780965805
231	0xbfc0fe5e60000000	-0.13276271522045135
232	0xbfc1f25ee0000000	-0.14020906388759613
233	0x3fb92af5e0000000	0.09831177443265915
234	0xbf8b6c5d80000000	-0.013390284031629562
235	0xbfc414b5e0000000	-0.15688203275203705
236	0x3fbf6c59a0000000	0.122747041285038
237	0x3fb8ef9600000000	0.09740579128265381
238	0x3fbd7985e0000000	0.1151355430483818
239	0xbfa7ac0ee0000000	-0.04623457416892052
240	0xbfa9750640000000	-0.04972095042467117
241	0xbfb13fab80000000	-0.06737777590751648
242	0x3fbea8eae0000000	0.11976497620344162
243	0xbfada6f6a0000000	-0.057914454489946365
244	0xbfaf3fef60000000	-0.061034660786390305
245	0x3fb4efc260000000	0.08178343623876572
246	0x3fa35d3940000000	0.037820614874362946
247	0xbfb5aae0e0000000	-0.08463864773511887
248	0x3f950c4a00000000	0.020554691553115845
249	0x3fb60573a0000000	0.08602068573236465
250	0xbfa1362f20000000	-0.03361651673913002
251	0x3fa35520a0000000	0.03775884583592415
252	0x3fc03a76a0000000	0.12678416073322296
253	0xbfc266b6a0000000	-0.1437595635652542
254	0x3fc4125400000000	0.15680932998657227
255	0x3fc1adde20000000	0.13811852037906647

fc.0.bias f8 [150]
0	0xbfb53c8da0000000	-0.08295521885156631
1	0xbf9bc27680000000	-0.02710900455713272
2	0x3f9003b480000000	0.015639133751392365
3	0xbfbadce940000000	-0.10493333637714386
4	0x3fb45fecc0000000	0.07958869636058807
5	0xbf942be540000000	-0.019698698073625565
6	0xbfa42ff7a0000000	-0.03942846134305
7	0xbfb40ffa80000000	-0.07836881279945374
8	0xbfbbd5e700000000	-0.10873264074325562
9	0xbfb8775540000000	-0.0955708771944046
10	0x3fc10121e0000000	0.13284705579280853
11	0xbf5b9a07c0000000	-0.001684672897681594
12	0x3fa7d7ac40000000	0.04656732827425003
13	0x3fb8db0440000000	0.0970919281244278
14	0x3fbdc0b440000000	0.11622168123722076
15	0xbfc2bc8ce0000000	-0.14637909829616547
16	0x3fc1446280000000	0.13489943742752075
17	0x3fa15d64e0000000	0.03391566500067711
18	0x3fa835ff60000000	0.04728696867823601
19	0x3faab3a4c0000000	0.05215182155370712
20	0x3fb5fd9ec0000000	0.0859011858701706
21	0x3fc13af000000000	0.1346111297607422
22	0x3fb8c68100000000	0.09677892923355103
23	0x3fb2560320000000	0.07162494212388992
24	0x3fc3ea57e0000000	0.15558908879756927
25	0xbfbafbc280000000	-0.10540404915809631
26	0x3fadaf81a0000000	0.057979632169008255
27	0xbf53ac15e0000000	-0.0012006963370367885
28	0xbfbfab1260000000	-0.12370409816503525
29	0x3fc3238be0000000	0.14952228963375092
30	0xbfb8f62ec0000000	-0.09750644862651825
31	0x3fa624c2c0000000	0.043249212205410004
32	0xbfa5a605c0000000	-0.04228227585554123
33	0xbfb7e12ca0000000	-0.0932796373963356
34	0xbfc36fbee0000000	-0.151847705245018
35	0x3fad9446c0000000	0.05777188390493393
36	0xbfb0530d20000000	-0.06376726180315018
37	0x3fc3687c60000000	0.15162615478038788
38	0xbfa99c2020000000	-0.050019267946481705
39	0xbfc167c860000000	-0.13597969710826874
40	0x3fb2655300000000	0.07185858488082886
41	0xbf8e07cda0000000	-0.01466332096606493
42	0xbfa12c0360000000	-0.03353891894221306
43	0x3fc0d31dc0000000	0.13144275546073914
44	0xbfa79926a0000000	-0.046090323477983475
45	0x3fadc5e280000000	0.05815036594867706
46	0xbfbf780da0000000	-0.12292561680078506
47	0xbf84fd9960000000	-0.010249326936900616
48	0xbfb9486440000000	-0.09876085817813873
49	0xbf9cd51000000000	-0.028156518936157227
50	0xbfb743a240000000	-0.09087575972080231
51	0xbfb0caa600000000	-0.06559216976165771
52	0xbf95af7000000000	-0.021177053451538086
53	0x3fc01a4ec0000000	0.12580284476280212
54	0xbfbda14200000000	-0.11574184894561768
55	0xbf7798c2c0000000	-0.0057609183713793755
56	0x3fc1833ca0000000	0.13681752979755402
57	0x3fc090e7a0000000	0.1294221431016922
58	0x3f947f8ec0000000	0.020017843693494797
59	0x3fa9f20b00000000	0.050674766302108765
60	0xbfc1c40300000000	-0.13879430294036865
61	0xbfc2c65ac0000000	-0.14667829871177673
62	0xbfa9bfbc60000000	-0.05029095336794853
63	0x3fabd5b920000000	0.05436495319008827
64	0xbfab5a3080000000	-0.0534224659204483
65	0xbf75008640000000	-0.0051274532452225685
66	0xbfc24b2d80000000	-0.14291924238204956
67	0xbf9636e6e0000000	-0.02169380895793438
68	0x3fb4441fc0000000	0.07916449010372162
69	0xbfb32599c0000000	-0.07479248940944672
70	0xbfc0f93be0000000	-0.13260601460933685
71	0xbfaa507120000000	-0.05139497295022011
72	0x3fb644dbe0000000	0.08698820322751999
73	0x3f9b89b840000000	0.02689254656434059
74	0x3fbfc74aa0000000	0.12413469702005386
75	0xbfa116a2c0000000	-0.0333758220076561
76	0x3fa30e50a0000000	0.03721858933568001
77	0xbf91ef0780000000	-0.01751338690519333
78	0x3f85091ca0000000	0.0102712856605649
79	0x3fab293420000000	0.05304873362183571
80	0x3faa1300a0000000	0.05092622712254524
81	0xbf81ffb4a0000000	-0.008788500912487507
82	0xbfabab62c0000000	-0.054041944444179535
83	0xbfa0b1ee80000000	-0.032607510685920715
84	0xbfbb275f80000000	-0.10606953501701355
85	0x3f96e1cee0000000	0.022345764562487602
86	0x3fc4246a40000000	0.15736129879951477
87	0x3fc3215420000000	0.14945460855960846
88	0xbfb7e5b760000000	-0.09334894269704819
89	0xbfc0756980000000	-0.1285831332206726
90	0xbf9a640ee0000000	-0.02577231638133526
91	0xbf91955be0000000	-0.01717132143676281
92	0x3fb26a0e40000000	0.07193078100681305
93	0xbfc01d38e0000000	-0.1258917897939682
94	0x3fbece64a0000000	0.12033680826425552
95	0xbfc1f6ff80000000	-0.14035028219223022
96	0xbfbb26b420000000	-0.10605932027101517
97	0x3fb05cc6c0000000	0.06391565501689911
98	0x3fbb53aa20000000	0.10674536973237991
99	0x3fbb646f40000000	0.10700125992298126
100	0x3fb2b732a0000000	0.07310787588357925
101	0xbfc4041c80000000	-0.1563754677772522
102	0xbf810cd7a0000000	-0.008325275965034962
103	0xbfc0b448a0000000	-0.13050182163715363
104	0xbfc0bd4800000000	-0.13077640533447266
105	0x3fbc61f960000000	0.11086996644735336
106	0xbfab964900000000	-0.0538809597492218
107	0xbf920f4a20000000	-0.01763645000755787
108	0xbfaba310a0000000	-0.053978461772203445
109	0xbfab1fffa0000000	-0.052978504449129105
110	0xbfb4d75b40000000	-0.08141107857227325
111	0xbfbf14c280000000	-0.12141051888465881
112	0x3fb16e4cc0000000	0.06808929145336151
113	0xbfa7add5a0000000	-0.04624812677502632
114	0x3fa40ae820000000	0.039145711809396744
115	0x3fb472ad80000000	0.07987484335899353
116	0x3fb4ea8120000000	0.08170325309038162
117	0x3fc24121e0000000	0.14261268079280853
118	0x3fb6d551c0000000	0.08919249475002289
119	0xbfc1117e20000000	-0.1333463340997696
120	0x3fc2307320000000	0.14210356771945953
121	0x3fb97e7c40000000	0.09958626329898834
122	0xbfbf72ada0000000	-0.12284360080957413
123	0xbf94add880000000	-0.020194418728351593
124	0xbfb6bc21e0000000	-0.08880817145109177
125	0x3fc1d10e40000000	0.1391923725605011
126	0x3fa786f540000000	0.04595152288675308
127	0x3fb4e293e0000000	0.08158230036497116
128	0x3fb8be89a0000000	0.09665737301111221
129	0xbf92f0e360000000	-0.01849704049527645
130	0xbfc0b750a0000000	-0.13059432804584503
131	0x3fc1f0ca40000000	0.14016082882881165
132	0xbf6d48ee20000000	-0.0035748148802667856
133	0x3f72ed29a0000000	0.004620707128196955
134	0xbfb5892a00000000	-0.08412420749664307
135	0xbfc370ffc0000000	-0.1518859565258026
136	0x3fc07f2ba0000000	0.12888093292713165
137	0x3f93eb5600000000	0.019452422857284546
138	0xbfac41fca0000000	-0.05519093945622444
139	0x3f91885080000000	0.017121560871601105
140	0xbfa618c560000000	-0.04315773770213127
141	0xbfbcfc4380000000	-0.11322423815727234
142	0xbf5056e720000000	-0.0009972817497327924
143	0x3fb0fb9460000000	0.06633879989385605
144	0x3f84082fc0000000	0.009781239554286003
145	0xbfc2a56180000000	-0.1456720232963562
146	0x3fb0d71480000000	0.0657818615436554
147	0x3fba5e74c0000000	0.10300378501415253
148	0x3fb74e3ea0000000	0.09103766828775406
149	0xbfb45cd920000000	-0.07954175025224686

fc.2.weight f8 [150, 150]
0	0x3fa573f3e0000000	0.04190027341246605
1	0xbfa50e0c20000000	-0.04112279787659645
2	0x3fb3676b80000000	0.07579681277275085
3	0xbfa2dddf40000000	-0.0368489995598793
4	0x3f9af177a0000000	0.02631174959242344
5	0x3fb097ea80000000	0.06481805443763733
6	0x3fac410020000000	0.05518341436982155
7	0xbfb0c13700000000	-0.06544822454452515
8	0x3f905670a0000000	0.015954742208123207
9	0x3fb1fce120000000	0.07026488333940506
10	0xbfa7f0f100000000	-0.046760112047195435
11	0xbf9110b4c0000000	-0.016665291041135788
12	0xbfafd4cd60000000	-0.06217042729258537
13	0x3fa92a7000000000	0.04915189743041992
14	0xbfa093fa80000000	-0.03237898647785187
15	0xbf5e19d9a0000000	-0.0018372178310528398
16	0x3fb368ff80000000	0.07582089304924011
17	0xbfb348c200000000	-0.07532894611358643
18	0x3fab31aac0000000	0.05311330407857895
19	0xbf8b308ac0000000	-0.013276180252432823
20	0x3f9fca9fc0000000	0.031046386808156967
21	0xbf9bfc3640000000	-0.027329299598932266
22	0x3f93f04120000000	0.01947118528187275
23	0xbfac559220000000	-0.05534035339951515
24	0xbf919a5980000000	-0.0171903595328331
25	0x3f86107500000000	0.01077357679605484
26	0x3fb4b05360000000	0.08081551641225815
27	0xbfb3f0dde0000000	-0.07789408415555954
28	0x3f8996b8c0000000	0.012494510039687157
29	0xbf89142de0000000	-0.012245520018041134
30	0xbfadfdd040000000	-0.05857706815004349
31	0x3f9a788220000000	0.02585032768547535
32	0x3fb18f9280000000	0.0685969889163971
33	0xbfa39e1500000000	-0.03831544518470764
34	0x3fb34db820000000	0.07540465146303177
35	0x3fa4179340000000	0.03924236446619034
36	0x3fb3b06da0000000	0.0769108310341835
37	0x3f9c1d6460000000	0.027455871924757957
38	0xbfa87a2560000000	-0.04780689999461174
39	0x3f96abe0a0000000	0.022140035405755043
40	0x3f8b9d8a00000000	0.013484075665473938
41	0xbfa9304100000000	-0.0491962730884552
42	0x3fac257ca0000000	0.054973501712083817
43	0xbfab0ba2e0000000	-0.052823152393102646
44	0xbf92cbc920000000	-0.018355505540966988
45	0xbfa9df2aa0000000	-0.050530750304460526
46	0xbf9ebcf9e0000000	-0.030017761513590813
47	0xbface0f1c0000000	-0.056403689086437225
48	0x3faa5caec0000000	0.05148836225271225
49	0xbfb2d5bfa0000000	-0.07357404381036758
50	0xbfaf488b20000000	-0.06110033765435219
51	0xbf9da57d40000000	-0.028951603919267654
52	0xbf86800040000000	-0.01098632998764515
53	0x3fb0e4c960000000	0.06599100679159164
54	0xbfb239bb60000000	-0.07119341939687729
55	0xbf68140f40000000	-0.0029392526485025883
56	0x3fafa17b80000000	0.06177888810634613
57	0xbfb1fe9f40000000	-0.07029147446155548
58	0x3fb0e8c9a0000000	0.06605205684900284
59	0xbfa0545080000000	-0.03189326822757721
60	0xbfb13c2740000000	-0.06732411682605743
61	0xbfb0fe78c0000000	-0.06638292968273163
62	0xbf968b4ca0000000	-0.022015759721398354
63	0xbfa8af13e0000000	-0.048210736364126205
64	0x3f812dfce0000000	0.00838849600404501
65	0x3fb356baa0000000	0.07554212957620621
66	0x3fb09c82a0000000	0.06488815695047379
67	0x3fb29c8760000000	0.07270094007253647
68	0xbfb29eb2a0000000	-0.072734035551548
69	0xbfa7d0d420000000	-0.04651511088013649
70	0x3faf990f60000000	0.06171463057398796
71	0x3fb14ada00000000	0.06754839420318604
72	0xbfb06b3460000000	-0.06413581222295761
73	0xbf9b43f6e0000000	-0.026626450940966606
74	0x3fa02af5e0000000	0.031577762216329575
75	0x3faf097320000000	0.06061897054314613
76	0xbfae857c60000000	-0.05961216613650322
77	0xbfa45d7e20000000	-0.0397757925093174
78	0x3f939379a0000000	0.019117260351777077
79	0x3fad4189e0000000	0.057140644639730453
80	0xbfaf163620000000	-0.060716334730386734
81	0x3f908f5300000000	0.016171738505363464
82	0x3f9fe3cae0000000	0.031142396852374077
83	0xbfa9d55f60000000	-0.050456028431653976
84	0xbfb05f70e0000000	-0.06395631283521652
85	0x3f89b27500000000	0.012547411024570465
86	0x3ef61b4d20000000	2.108254011545796e-05
87	0x3fad5696c0000000	0.057301245629787445
88	0xbf916eb1e0000000	-0.017023829743266106
89	0x3f9bf06bc0000000	0.027284320443868637
90	0x3fa809aa20000000	0.04694873467087746
91	0x3fa6c27b40000000	0.04445252567529678
92	0xbfb08e6900000000	-0.06467300653457642
93	0xbfa20599a0000000	-0.03519897535443306
94	0x3f7243a320000000	0.004459035117179155
95	0xbf8d79f700000000	-0.014392785727977753
96	0xbf8920c4c0000000	-0.012269532307982445
97	0xbfa03aa420000000	-0.03169739618897438
98	0xbf9331bba0000000	-0.01874440349638462
99	0x3fa7bbf640000000	0.04635591059923172
100	0x3f93f6f1e0000000	0.019496707245707512
101	0xbfa9878160000000	-0.04986194893717766
102	0xbfb10b9700000000	-0.06658309698104858
103	0xbfa1ba3b80000000	-0.03462396562099457
104	0xbf83348a20000000	-0.0093775549903512
105	0x3fb382bb80000000	0.07621356844902039
106	0x3f932fd300000000	0.018737122416496277
107	0x3f617d1360000000	0.002134836046025157
108	0xbfac4d3c80000000	-0.055276766419410706
109	0x3fae61a200000000	0.05933862924575806
110	0x3f963fd5a0000000	0.02172788418829441
111	0x3fb30669c0000000	0.07431660592556
112	0x3faa309a20000000	0.051152054220438004
113	0xbf9eb862c0000000	-0.030000250786542892
114	0xbf9495f3c0000000	-0.020103272050619125
115	0x3fa69f7e40000000	0.0441855862736702
116	0xbfa097ad00000000	-0.03240719437599182
117	0xbfaaf96520000000	-0.052683982998132706
118	0x3fa6ecb080000000	0.04477454721927643
119	0xbf70b27640000000	-0.004076444543898106
120	0xbfa30d0600000000	-0.037208735942840576
121	0xbfa5b609c0000000	-0.04240446537733078
122	0xbf8f024560000000	-0.015141050331294537
123	0xbfb4c09fc0000000	-0.08106420934200287
124	0x3fb4decba0000000	0.08152458816766739
125	0x3fae773fe0000000	0.059503551572561264
126	0xbfac96b6e0000000	-0.05583735927939415
127	0x3f8f39fca0000000	0.01524731982499361
128	0xbf87214640000000	-0.011293934658169746
129	0xbfb2e8c7c0000000	-0.07386444509029388
130	0xbf4bb926e0000000	-0.0008460464305244386
131	0x3fa5e4afc0000000	0.04276036471128464
132	0x3fb459b1a0000000	0.07949361950159073
133	0x3fb308ef80000000	0.0743550956249237
134	0x3fa12f3600000000	0.033563315868377686
135	0x3fa679c8c0000000	0.04389788955450058
136	0xbfb2e059c0000000	-0.07373581826686859
137	0x3fb318e2e0000000	0.07459848374128342
138	0xbf901f5980000000	-0.015744589269161224
139	0x3f86624000000000	0.010929584503173828
140	0x3fabd6fe60000000	0.05437464639544487
141	0xbfa2fd0ea0000000	-0.03708692267537117
142	0x3fb4d780e0000000	0.08141332119703293
143	0xbfa6bfa9e0000000	-0.04443102702498436
144	0xbfa5ea4c80000000	-0.04280318319797516
145	0xbf8238b780000000	-0.008897241204977036
146	0x3f84e21fc0000000	0.010196922346949577
147	0x3fa57e1280000000	0.04197748005390167
148	0xbfa0a40a60000000	-0.03250152990221977
149	0x3fb24852e0000000	0.07141607254743576
150	0x3f78e91d40000000	0.006081690080463886
151	0xbfb28b79c0000000	-0.0724407285451889
152	0xbf9b5a90e0000000	-0.02671266905963421
153	0xbf7e13b4c0000000	-0.007343011908233166
154	0xbf92b300a0000000	-0.01826096512377262
155	0x3f93d3ff00000000	0.019363388419151306
156	0x3fb40324a0000000	0.0781729593873024
157	0xbf8a29dac0000000	-0.01277514360845089
158	0xbf7f080d80000000	-0.007576039060950279
159	0x3fa7d5aa40000000	0.046552009880542755
160	0xbfa12e8e80000000	-0.03355832397937775
161	0x3fae9a9aa0000000	0.0597732849419117
162	0x3fa9620be0000000	0.049576159566640854
163	0x3f91378280000000	0.016813315451145172
164	0x3fb21fd0e0000000	0.07079797238111496
165	0x3fa4f25a60000000	0.04091150686144829
166	0xbf69bee740000000	-0.0031427876092493534
167	0x3fa8a88980000000	0.04816083610057831
168	0x3fa2496560000000	0.0357162170112133
169	0xbfb48a3180000000	-0.08023366332054138
170	0xbf5a655de0000000	-0.0016110817668959498
171	0x3f7de112a0000000	0.007294724229723215
172	0x3fb0fde2a0000000	0.06637398153543472
173	0x3f95ceb960000000	0.02129640243947506
174	0x3fb488a880000000	0.08021023869514465
175	0xbfb1b32d00000000	-0.06914025545120239
176	0x3fa0f17740000000	0.03309223800897598
177	0x3fb4862060000000	0.0801716074347496
178	0x3fa8472ec0000000	0.047418080270290375
179	0x3fa131bb00000000	0.03358253836631775
180	0xbf73ba31e0000000	-0.004816241096705198
181	0xbf80aef220000000	-0.008146182633936405
182	0x3f81c62840000000	0.008678736165165901
183	0xbfb062f040000000	-0.06400968134403229
184	0xbfb30ffb20000000	-0.07446260005235672
185	0xbfb4438e60000000	-0.0791558250784874
186	0x3fac107be0000000	0.054813262075185776
187	0xbfaf475fe0000000	-0.06109141930937767
188	0xbfa34d53e0000000	-0.03769933804869652
189	0x3fa1f8c400000000	0.03510105609893799
190	0x3fa1380920000000	0.03363064303994179
191	0xbfa7cc19c0000000	-0.04647903889417648
192	0x3f8e409a60000000	0.01477165799587965
193	0x3fb1cc8480000000	0.06952694058418274
194	0x3fa2dd6d00000000	0.03684559464454651
195	0x3fa780e320000000	0.045905206352472305
196	0x3fa5114180000000	0.041147276759147644
197	0x3fa7bd1800000000	0.046364545822143555
198	0xbf95ed4f40000000	-0.021413076668977737
199	0x3fb3affc20000000	0.0769040659070015
200	0xbf98f47400000000	-0.024370014667510986
201	0xbfa823f360000000	-0.047149281948804855
202	0x3fae37bc80000000	0.05901898443698883
203	0xbfaf217700000000	-0.060802191495895386
204	0xbfaeef2c20000000	-0.06041849032044411
205	0x3f9345f180000000	0.01882150024175644
206	0xbf9f7a3ec0000000	-0.030739765614271164
207	0x3fb4dd3f00000000	0.08150094747543335
208	0x3fa87a3c40000000	0.04780758172273636
209	0xbf897254e0000000	-0.012425101362168789
210	0xbfa574db20000000	-0.041907165199518204
211	0xbfa13cdd00000000	-0.03366747498512268
212	0xbfb10596c0000000	-0.06649152934551239
213	0x3fa77dcb20000000	0.04588160291314125
214	0x3f9e168680000000	0.029382802546024323
215	0xbf94d84ce0000000	-0.020356370136141777
216	0xbf91a9f7a0000000	-0.01724993623793125
217	0x3f893bbd00000000	0.012320972979068756
218	0x3fb100d520000000	0.06641895323991776
219	0xbf92a25c60000000	-0.01819748245179653
220	0x3fb3b6c7a0000000	0.07700774818658829
221	0x3fa50f8800000000	0.04113411903381348
222	0xbf9dbd8a40000000	-0.029043350368738174
223	0xbfaa7c2ec0000000	-0.051728688180446625
224	0xbfb08963e0000000	-0.06459640711545944
225	0x3fad6c44e0000000	0.05746665224432945
226	0xbf7b1486a0000000	-0.0066113718785345554
227	0x3faf1b0420000000	0.0607529915869236
228	0xbf75640c80000000	-0.005222367122769356
229	0xbfa275f0e0000000	-0.036056067794561386
230	0xbfa5a58980000000	-0.04227857291698456
231	0x3fa45b5300000000	0.03975924849510193
232	0x3fb28662c0000000	0.07236306369304657
233	0xbfb141b900000000	-0.06740909814834595
234	0x3f925b0840000000	0.017925385385751724
235	0x3fb1e3af80000000	0.06988045573234558
236	0xbf9a6581e0000000	-0.025777844712138176
237	0xbf9554a720000000	-0.020830737426877022
238	0xbfb3a52240000000	-0.07673849165439606
239	0x3fb2f5e5c0000000	0.07406459748744965
240	0x3f88128f20000000	0.01175414863973856
241	0x3fb0b08360000000	0.06519337743520737
242	0xbfa3d36780000000	-0.038722261786460876
243	0xbfa44c1b00000000	-0.03964313864707947
244	0x3fa3f07ea0000000	0.03894420340657234
245	0x3fa50f14c0000000	0.041130684316158295
246	0x3f92b00d80000000	0.018249712884426117
247	0xbf92a9ae80000000	-0.01822540909051895
248	0xbf55a84c40000000	-0.001321863615885377
249	0xbfb0ac0b20000000	-0.06512517482042313
250	0xbfaf2fcac0000000	-0.060911498963832855
251	0x3fb4a7baa0000000	0.08068434149026871
252	0x3f9218e620000000	0.017673106864094734
253	0x3fa3393380000000	0.037545785307884216
254	0x3fa2f5c6c0000000	0.037031374871730804
255	0xbfa3becd40000000	-0.038565076887607574

fc.2.bias f8 [150]
0	0x3f930c86a0000000	0.018602469936013222
1	0xbfb27fb920000000	-0.07226140052080154
2	0x3f86cbb200000000	0.01113070547580719
3	0x3fb2fb2a80000000	0.07414498925209045
4	0x3f9fe57020000000	0.031148673966526985
5	0xbf98543a80000000	-0.02375880628824234
6	0x3fa2887000000000	0.03619718551635742
7	0xbfaa97a140000000	-0.051938094198703766
8	0x3f9afda940000000	0.026358265429735184
9	0xbfa21bafc0000000	-0.03536748141050339
10	0xbfadafdec0000000	-0.05798240751028061
11	0xbfae5073c0000000	-0.059207551181316376
12	0xbf957091c0000000	-0.020937230437994003
13	0xbf86438f40000000	-0.010871047154068947
14	0x3f9cfec600000000	0.028315633535385132
15	0x3f6ccf8e80000000	0.0035169394686818123
16	0x3fa439dea0000000	0.03950401023030281
17	0xbfa920cb00000000	-0.0490783154964447
18	0x3fa106c440000000	0.033254750072956085
19	0xbf99bc09c0000000	-0.02513137087225914
20	0x3fb43d1a20000000	0.07905734330415726
21	0xbfb16096c0000000	-0.06788007915019989
22	0xbf976833c0000000	-0.02285843715071678
23	0xbfb004f820000000	-0.0625758245587349
24	0xbfaf27a020000000	-0.06084919348359108
25	0xbfb11212e0000000	-0.06668203324079514
26	0x3fa683a540000000	0.04397312551736832
27	0xbf90f220c0000000	-0.01654864475131035
28	0x3fa73cff80000000	0.045387253165245056
29	0xbfb0470000000000	-0.0635833740234375
30	0xbfa47e2f40000000	-0.04002521187067032
31	0xbfa4c0d180000000	-0.04053358733654022
32	0x3fb1e5f500000000	0.06991511583328247
33	0xbf830f3da0000000	-0.009306413121521473
34	0x3fad3cb600000000	0.05710381269454956
35	0xbfb051b020000000	-0.06374645978212357
36	0xbfade391e0000000	-0.058376844972372055
37	0xbfa77f8f80000000	-0.045895084738731384
38	0xbf8e46ee40000000	-0.014783727005124092
39	0xbf98f414a0000000	-0.024368593469262123
40	0x3fa64a80a0000000	0.04353715851902962
41	0x3faec58420000000	0.060100678354501724
42	0x3f99ece340000000	0.025317717343568802
43	0xbfb40ba320000000	-0.07830256968736649
44	0x3fa5ef9920000000	0.042843613773584366
45	0xbfb1fda500000000	-0.07027655839920044
46	0x3fb3dc1e80000000	0.07757750153541565
47	0xbf70a5b980000000	-0.004064297303557396
48	0xbf8435e780000000	-0.00986843928694725
49	0x3fa18fe5a0000000	0.034300971776247025
50	0x3faea2b3e0000000	0.05983507260680199
51	0xbfb05ca900000000	-0.06391388177871704
52	0x3fa3614dc0000000	0.03785174340009689
53	0x3fa426ed80000000	0.03935949504375458
54	0xbface58840000000	-0.056438691914081573
55	0xbf98f87b60000000	-0.02438538335263729
56	0xbfa6c61a80000000	-0.044480159878730774
57	0x3f959bf560000000	0.021102746948599815
58	0x3f8b1d5800000000	0.013239562511444092
59	0xbf9b40bbe0000000	-0.026614127680659294
60	0xbf74a53400000000	-0.005040362477302551
61	0x3fb3d19fc0000000	0.07741735875606537
62	0xbfaf795380000000	-0.06147252023220062
63	0xbf373dcfa0000000	-0.00035463637323118746
64	0xbfb03bcb00000000	-0.0634123682975769
65	0x3fa90975c0000000	0.0489002987742424
66	0xbf7a4df420000000	-0.006421998608857393
67	0x3fa24f9e40000000	0.0357636883854866
68	0xbf99ea4ae0000000	-0.02530781738460064
69	0xbf9f832a40000000	-0.030773792415857315
70	0xbfb4b1ffe0000000	-0.0808410570025444
71	0xbfa6849ce0000000	-0.04398050531744957
72	0x3f446ced00000000	0.0006233365274965763
73	0xbf9f99dfc0000000	-0.03086042031645775
74	0xbfb23eb6a0000000	-0.0712694302201271
75	0x3fb0370c80000000	0.06333997845649719
76	0xbfa726a780000000	-0.04521678388118744
77	0xbfb4586620000000	-0.07947386056184769
78	0x3f9e106580000000	0.029359422624111176
79	0x3f96bb9d80000000	0.022200070321559906
80	0x3f92dcae80000000	0.018419958651065826
81	0x3f9c9debe0000000	0.027946172282099724
82	0x3fa21bf1a0000000	0.03536944463849068
83	0xbf95085b40000000	-0.02053968980908394
84	0xbf98a8b880000000	-0.024081118404865265
85	0xbfa2f751a0000000	-0.037043143063783646
86	0x3fb1101d60000000	0.06665214151144028
87	0xbfa4bd35e0000000	-0.04050606116652489
88	0x3fb06bf5a0000000	0.06414733082056046
89	0xbf8fa7d760000000	-0.01545685064047575
90	0x3fa3e46ea0000000	0.03885217383503914
91	0xbf9fa0a400000000	-0.03088623285293579
92	0xbfa79c95a0000000	-0.04611651971936226
93	0xbf81e857c0000000	-0.00874393992125988
94	0x3f9d327d00000000	0.02851291000843048
95	0x3fb203c160000000	0.07036980241537094
96	0x3fb032c1c0000000	0.06327448785305023
97	0xbfb43a97e0000000	-0.07901906222105026
98	0x3fab0c8340000000	0.052829839289188385
99	0x3fa3fd9860000000	0.039044152945280075
100	0xbfb3857a20000000	-0.0762554481625557
101	0xbfa9905760000000	-0.049929361790418625
102	0xbf9eca98a0000000	-0.03006971813738346
103	0xbf9c04b600000000	-0.02736172080039978
104	0xbf9d023ba0000000	-0.028328830376267433
105	0xbfb0114760000000	-0.06276365369558334
106	0xbfa0c5cbe0000000	-0.03275906667113304
107	0x3f9c393040000000	0.027561906725168228
108	0xbfa4b434c0000000	-0.04043736308813095
109	0xbfa2420c80000000	-0.035660162568092346
110	0x3fb03c9d00000000	0.06342488527297974
111	0xbf87e02fc0000000	-0.011658070608973503
112	0xbfadcb6420000000	-0.05819237604737282
113	0x3faff44c00000000	0.062410712242126465
114	0x3f88e1c020000000	0.012149334885179996
115	0x3fb12db320000000	0.06710357218980789
116	0xbfa02b7dc0000000	-0.031581811606884
117	0x3fb089c3e0000000	0.06460212916135788
118	0x3f7eb986c0000000	0.007501150481402874
119	0x3f9f0e7080000000	0.030328519642353058
120	0x3fb4a03c80000000	0.08057001233100891
121	0xbf7c5fc200000000	-0.006927259266376495
122	0xbfa7398060000000	-0.04536057636141777
123	0x3f6255b660000000	0.0022381364833563566
124	0xbfb4497180000000	-0.0792456567287445
125	0x3fad130320000000	0.05678567662835121
126	0xbfa5b8b9e0000000	-0.04242497310042381
127	0xbfb16e0620000000	-0.06808508187532425
128	0x3f9ef8c380000000	0.030245833098888397
129	0xbfa469f360000000	-0.039870839565992355
130	0xbf83a41000000000	-0.0095902681350708
131	0x3f96a93160000000	0.02212979458272457
132	0xbfa0fb9e00000000	-0.033169686794281006
133	0x3fa4bc84e0000000	0.040500786155462265
134	0x3fa96c5720000000	0.04965469613671303
135	0xbfb0845920000000	-0.0645194724202156
136	0x3faa409660000000	0.05127401277422905
137	0xbfae701660000000	-0.059448909014463425
138	0xbfa031d3a0000000	-0.031630147248506546
139	0xbfb0eacce0000000	-0.06608276814222336
140	0x3fae35dbc0000000	0.059004656970500946
141	0xbfa08913c0000000	-0.03229581564664841
142	0x3faaf33ca0000000	0.052636999636888504
143	0xbfb4463640000000	-0.07919634878635406
144	0xbfb4a71c80000000	-0.0806749165058136
145	0x3f624bef60000000	0.0022334742825478315
146	0xbfb2c6c020000000	-0.07334519177675247
147	0x3f9ae97000000000	0.026281118392944336
148	0xbfb0dcc0c0000000	-0.06586842238903046
149	0x3fa7f33a80000000	0.04677756130695343

fc.4.weight f8 [2, 150]
0	0x3fa7b49bc0000000	0.046299807727336884
1	0xbfa6ca3ca0000000	-0.044511694461107254
2	0xbfb2d69a80000000	-0.0735870897769928
3	0xbf7b1ab880000000	-0.006617279723286629
4	0x3fb2525ce0000000	0.07156925648450851
5	0xbfae2de320000000	-0.058943841606378555
6	0x3fb4a01300000000	0.08056753873825073
7	0xbf95ac3cc0000000	-0.021164845675230026
8	0x3fa5ac8200000000	0.0423317551612854
9	0x3fa1638c60000000	0.03396261855959892
10	0xbf70bb7e80000000	-0.004085058346390724
11	0xbfae4de1a0000000	-0.059187937527894974
12	0x3fa2300e20000000	0.035522881895303726
13	0xbfb3b0a980000000	-0.07691439986228943
14	0x3fb35055c0000000	0.07544456422328949
15	0x3f9fb57420000000	0.03096562810242176
16	0x3fa0b941c0000000	0.03266339749097824
17	0xbfb0622c80000000	-0.0639980137348175
18	0xbfa412d060000000	-0.039206039160490036
19	0x3fa89b3180000000	0.04805903136730194
20	0xbfa22e44e0000000	-0.03550925478339195
21	0x3fb256d980000000	0.07163771986961365
22	0x3fa01a9a80000000	0.0314529687166214
23	0x3fb29994c0000000	0.07265596091747284
24	0x3f917819a0000000	0.017059708014130592
25	0x3faf74ecc0000000	0.06143894046545029
26	0xbfb1b540a0000000	-0.06917194277048111
27	0xbfa4c37160000000	-0.040553610771894455
28	0x3fb4b4a900000000	0.08088165521621704
29	0x3f82c36de0000000	0.009161814115941525
30	0x3fa34e7fc0000000	0.03770827502012253
31	0x3f90e29b60000000	0.016489436849951744
32	0xbf7dc44020000000	-0.007267237175256014
33	0x3fb4c8da40000000	0.08118976652622223
34	0xbf52f5f320000000	-0.0011572717921808362
35	0x3fa90cf6a0000000	0.048927027732133865
36	0x3fae288280000000	0.058902814984321594
37	0x3fb49c5900000000	0.08051067590713501
38	0xbf9a0b21a0000000	-0.025433087721467018
39	0xbfa74270c0000000	-0.04542877525091171
40	0xbfa7294700000000	-0.045236796140670776
41	0xbfaa94b300000000	-0.0519157350063324
42	0x3fb1900f40000000	0.06860442459583282
43	0x3fa5021d80000000	0.04103176295757294
44	0x3fa91d5680000000	0.049051955342292786
45	0xbfb03f9c80000000	-0.06347063183784485
46	0xbfae5aaac0000000	-0.0592854842543602
47	0xbfad893d00000000	-0.0576876699924469
48	0xbf81751d60000000	-0.008524159900844097
49	0xbfa5a8f800000000	-0.04230475425720215
50	0x3f70447300000000	0.003971528261899948
51	0xbfb3b2bf40000000	-0.0769462138414383
52	0xbfaaf31ea0000000	-0.05263610556721687
53	0x3fa1351ce0000000	0.033608343452215195
54	0xbf97b76460000000	-0.023160522803664207
55	0xbfb3eaa160000000	-0.07779892534017563
56	0xbfa881dd40000000	-0.04786578565835953
57	0xbfafc17f40000000	-0.062023140490055084
58	0x3fb059e120000000	0.06387145072221756
59	0xbfa15b47c0000000	-0.03389953821897507
60	0x3fa4d96b60000000	0.04072127863764763
61	0x3f9acfb7c0000000	0.026183005422353745
62	0xbfb4d674a0000000	-0.08139733225107193
63	0xbfa6b35f00000000	-0.04433724284172058
64	0x3fb2d62080000000	0.0735798180103302
65	0x3fb009cb00000000	0.0626494288444519
66	0xbfa69af840000000	-0.044151075184345245
67	0xbf60e41ae0000000	-0.002061893930658698
68	0x3fb41fee60000000	0.07861223071813583
69	0xbfb1ebcc20000000	-0.07000423222780228
70	0xbf948b5c60000000	-0.020062869414687157
71	0x3fab699680000000	0.0535399466753006
72	0xbf960a5760000000	-0.021523823961615562
73	0xbfaa95a660000000	-0.0519229881465435
74	0x3fa439d220000000	0.039503637701272964
75	0x3fa76b5440000000	0.04574073106050491
76	0x3fb2a424a0000000	0.0728171244263649
77	0x3fa174e8c0000000	0.034095071256160736
78	0x3f98416740000000	0.02368699386715889
79	0xbfb0bc7620000000	-0.06537569314241409
80	0xbfab9779a0000000	-0.05389003828167915
81	0xbf4bd0d480000000	-0.0008488690946251154
82	0x3fa6d9efc0000000	0.0446314737200737
83	0x3fb3e93040000000	0.07777692377567291
84	0xbfafcf8140000000	-0.06213001161813736
85	0xbf98ea0320000000	-0.02433018572628498
86	0x3fb3c75720000000	0.07726044207811356
87	0x3f8d974ec0000000	0.014448752626776695
88	0x3fab712a80000000	0.05359776318073273
89	0x3faf5a4e40000000	0.06123585253953934
90	0x3facbec6c0000000	0.056143008172512054
91	0xbf9e07eba0000000	-0.029327088966965675
92	0xbf9847d0c0000000	-0.02371145412325859
93	0xbf9b5dcc80000000	-0.026725001633167267
94	0xbfb27de9e0000000	-0.07223378866910934
95	0xbf78546e20000000	-0.005939893890172243
96	0x3fb085dea0000000	0.06454268842935562
97	0x3fb01b41a0000000	0.06291589885950089
98	0xbfafdb4d60000000	-0.0622200183570385
99	0xbfb3020060000000	-0.07424928992986679
100	0xbf98946520000000	-0.024003582075238228
101	0x3fb3e23f40000000	0.07767100632190704
102	0xbfb4983dc0000000	-0.08044801652431488
103	0xbfa715af60000000	-0.04508731886744499
104	0xbf91ee4c40000000	-0.01751059666275978
105	0x3f8344fde0000000	0.009408934973180294
106	0x3fb23918e0000000	0.07118373364210129
107	0x3fb1d0abc0000000	0.06959031522274017
108	0x3fadac2660000000	0.05795402452349663
109	0xbfa6d2c300000000	-0.0445767343044281
110	0xbf51f1bb80000000	-0.001095231156796217
111	0xbf8f864720000000	-0.015392833389341831
112	0x3fa88c7b40000000	0.04794678837060928
113	0xbf87811480000000	-0.01147666946053505
114	0xbfa0f53ea0000000	-0.03312106803059578
115	0xbf90b43d80000000	-0.01631256192922592
116	0x3fa353fcc0000000	0.03775014728307724
117	0xbfb346d4c0000000	-0.07529954612255096
118	0x3f92927d80000000	0.018136940896511078
119	0x3fadc9b220000000	0.05817944183945656
120	0x3f926ec620000000	0.01800069399178028
121	0xbfaaa07980000000	-0.052005574107170105
122	0xbf97182460000000	-0.022553032264113426
123	0xbf8bf12200000000	-0.013643518090248108
124	0xbfb3bfcf40000000	-0.0771455317735672
125	0x3f854f4e00000000	0.010405167937278748
126	0x3fa6981120000000	0.04412892833352089
127	0xbfa55bd8c0000000	-0.04171635955572128
128	0xbf96fb7a60000000	-0.022443687543272972
129	0x3fa1ecf320000000	0.03501090779900551
130	0x3f90238580000000	0.015760503709316254
131	0xbf83d7daa0000000	-0.00968905258923769
132	0xbfb193f000000000	-0.0686635971069336
133	0x3fb301ee40000000	0.07424820959568024
134	0x3fb2a8a3c0000000	0.07288573682308197
135	0x3f9dc87fc0000000	0.029085155576467514
136	0x3f9c3a2740000000	0.02756558731198311
137	0xbf89fb66a0000000	-0.012686540372669697
138	0xbfa84ef260000000	-0.04747731611132622
139	0x3f770373a0000000	0.005618526134639978
140	0xbf78dc7560000000	-0.006069620605558157
141	0xbfb342a2e0000000	-0.07523553818464279
142	0x3fa1d04620000000	0.03479212895035744
143	0xbf90db0ea0000000	-0.016460636630654335
144	0xbf8b6cfe40000000	-0.013391481712460518
145	0xbf844b7ae0000000	-0.009909591637551785
146	0xbfaa410ea0000000	-0.05127759650349617
147	0x3fb169acc0000000	0.06801871955394745
148	0xbfa1a3e9a0000000	-0.034453678876161575
149	0xbfb2699b60000000	-0.07192393392324448
150	0xbfaceef0e0000000	-0.056510474532842636
151	0xbf78bab4e0000000	-0.006037432234734297
152	0xbfa1d6f4e0000000	-0.03484311327338219
153	0x3f972747e0000000	0.022610781714320183
154	0x3f8cacffa0000000	0.014001843519508839
155	0xbf69121780000000	-0.003060384653508663
156	0xbfaefa9100000000	-0.060505419969558716
157	0x3faac05600000000	0.05224865674972534
158	0xbf9ea07ae0000000	-0.029909057542681694
159	0xbf961a80a0000000	-0.02158547379076481
160	0x3fb2de2280000000	0.07370200753211975
161	0x3f50d3d600000000	0.0010270681232213974
162	0x3f962f2ee0000000	0.021664364263415337
163	0x3faa0bddc0000000	0.05087178200483322
164	0xbf90bb5a00000000	-0.01633968949317932
165	0x3f92d98340000000	0.018407870084047318
166	0xbfa3982980000000	-0.03827027976512909
167	0xbf8e1b5480000000	-0.014700565487146378
168	0x3fa144fec0000000	0.033729515969753265
169	0xbfb1bd1320000000	-0.06929130107164383
170	0xbfb0346ee0000000	-0.06330006569623947
171	0xbfb40d85a0000000	-0.07833132892847061
172	0xbf7e302160000000	-0.007370119448751211
173	0x3fa4161c60000000	0.03923119232058525
174	0x3fabdea9e0000000	0.05443316325545311
175	0x3fa3f1e4e0000000	0.038954880088567734
176	0x3fa1d2c100000000	0.034811049699783325
177	0x3fac369860000000	0.055104028433561325
178	0xbfb0266fa0000000	-0.06308648735284805
179	0xbfa9b1bf60000000	-0.050184231251478195
180	0xbfb45d9080000000	-0.07955268025398254
181	0x3fa3a91680000000	0.03839941322803497
182	0x3fae8b7920000000	0.05965784564614296
183	0xbfac7fca00000000	-0.055662453174591064
184	0xbfb0998e80000000	-0.064843088388443
185	0xbf82bf6480000000	-0.009154114872217178
186	0xbfabe0f180000000	-0.05445055663585663
187	0x3fb0758e20000000	0.0642937496304512
188	0x3fa646c220000000	0.04350859299302101
189	0xbfb4a5d760000000	-0.080655537545681
190	0xbfa60bc760000000	-0.0430586151778698
191	0xbfa4db0e60000000	-0.04073376581072807
192	0xbfb0b32e20000000	-0.06523407250642776
193	0x3f749a30c0000000	0.0050298599526286125
194	0x3f85c94ca0000000	0.010637854225933552
195	0x3fa2fd6720000000	0.03708956018090248
196	0x3fa6928320000000	0.04408654943108559
197	0x3fa88dfaa0000000	0.047958213835954666
198	0x3fa89282c0000000	0.04799278825521469
199	0x3fb3888de0000000	0.07630240172147751
200	0x3fa707f780000000	0.044982656836509705
201	0x3fa5b5d320000000	0.04240283742547035
202	0xbfafb6bac0000000	-0.0619409903883934
203	0x3fb0c90420000000	0.0655672624707222
204	0x3fb0abda40000000	0.06512226164340973
205	0x3f9a6c19a0000000	0.025802994146943092
206	0x3f679312c0000000	0.0028777471743524075
207	0xbfa1c4ab60000000	-0.03470359370112419
208	0x3fb32fe540000000	0.07494957745075226
209	0x3fafab2b20000000	0.06185278668999672
210	0x3fa3b5b140000000	0.03849557787179947
211	0x3f96d5d860000000	0.022300129756331444
212	0xbf9b1d2520000000	-0.026478366926312447
213	0xbfa292b360000000	-0.03627548739314079
214	0xbfa4e33d20000000	-0.0407961942255497
215	0x3fa003ee80000000	0.031279996037483215
216	0xbfa2026a60000000	-0.03517467901110649
217	0x3f830b4a80000000	0.009298879653215408
218	0x3fb21658e0000000	0.07065349072217941
219	0xbf98922060000000	-0.0239949282258749
220	0xbf8edb7a20000000	-0.015067056752741337
221	0x3f81c787a0000000	0.008681354112923145
222	0xbfb3f4c020000000	-0.07795334607362747
223	0xbfa740e100000000	-0.04541686177253723
224	0xbfaa914720000000	-0.051889631897211075
225	0x3f9d2e3980000000	0.028496645390987396
226	0xbfaab23000000000	-0.05214071273803711
227	0xbf82289360000000	-0.008866454474627972
228	0xbfb1ddc800000000	-0.06979036331176758
229	0x3f9ce05c80000000	0.02819962054491043
230	0xbfb341a960000000	-0.07522066682577133
231	0x3f822aa5c0000000	0.008870406076312065
232	0xbf8c8f0f00000000	-0.013944737613201141
233	0x3fb3df1f20000000	0.07762331515550613
234	0x3fb1347360000000	0.06720658391714096
235	0xbfb041f000000000	-0.0635061264038086
236	0x3fad55d560000000	0.057295482605695724
237	0xbf4ae78ea0000000	-0.0008210607920773327
238	0xbfa3190400000000	-0.0373002290725708
239	0x3fb3a6dac0000000	0.07676474750041962
240	0x3fae27bb00000000	0.05889686942100525
241	0xbf9e93a160000000	-0.029860040172934532
242	0x3fb3da3ae0000000	0.07754867523908615
243	0xbfa8b78fc0000000	-0.04827546328306198
244	0x3f84c5d3c0000000	0.010142950341105461
245	0x3f99fe0800000000	0.0253831148147583
246	0xbfb299c880000000	-0.07265904545783997
247	0xbfb38f8b60000000	-0.07640906423330307
248	0x3f93e78c80000000	0.01943797618150711
249	0x3faee8d7e0000000	0.060370203107595444
250	0x3fb38b8380000000	0.07634755969047546
251	0xbf99fca560000000	-0.025377830490469933
252	0x3faa013e20000000	0.050790730863809586
253	0x3fb2c1bd40000000	0.07326872646808624
254	0x3f8b633720000000	0.013372831977903843
255	0x3fb077fcc0000000	0.06433086097240448

fc.4.bias f8 [2]
0	0x3fb36f19a0000000	0.07591400295495987
1	0x3f9a118da0000000	0.025457585230469704
