car_ros2/car_ros2/losses/var_params_var_delay_known.pth (torch, 124177 bytes, 4 tensors)

fc.0.weight f8 [300, 47]
000000 43 9d b1 b1 0d 08 db bf 82 3b 4d 5f ad 07 86 3f
       -0.4223665461817811 0.010756830664517162
000010 d9 90 52 35 4b 0f 9c bf 94 88 ae cc 83 9b ae bf
       -0.027402091149853234 -0.05978023408467084
000020 42 6f a0 d1 57 44 92 bf 77 2c c4 0c 26 25 77 3f
       -0.0178388330169661 0.005650662071512539
000030 89 57 72 15 b8 38 c1 bf 7f 48 f6 61 03 75 8c 3f
       -0.13454342887115114 0.013895059992851564
000040 4f df 32 81 fc 6e 99 3f 58 d0 14 db f8 9f 9a 3f
       0.02483744181219488 0.02600087010542071
000050 0e 7b 7e a5 65 ae c2 3f 51 43 17 02 45 ec b4 3f
       0.14594717579617406 0.08173018742605832
000060 66 f8 b8 2f 20 f3 92 3f 65 4d 47 b9 69 73 95 3f
       0.01850557605052252 0.02094807809210177
000070 30 0a 5a 14 57 b1 50 bf 8f 2f cc 86 be 9c d8 3f
       -0.0010188436876040867 0.3845669094450778
000080 00 8e 97 11 a6 26 ac 3f 4c ab fc 1f 74 ab ad bf
       0.05498236622568342 -0.057948712258016316
000090 2d 4d 2b 50 06 ea d0 3f dd 47 43 30 d5 b1 6e 3f
       0.2642837317373104 0.0037469066465769378
0000a0 b1 9b 1a f8 ce dc e4 3f 1a ec bb 6b cb 53 88 bf
       0.6519541593341868 -0.01187857553985876
0000b0 0a 6f f6 3d 00 1d 8c bf 7e d7 c4 43 23 45 bd bf
       -0.013727189913701494 -0.11433620838655931
0000c0 d2 2e a8 d1 03 85 99 bf 50 73 69 14 23 85 ee 3f
       -0.0249214741434532 0.953752078883193
0000d0 d1 61 7a d6 f9 65 98 3f 36 31 ad 12 a7 4e 9a bf
       0.023826507297231295 -0.025690660967755373
0000e0 cf 68 6a 6e 75 3d ab bf 70 a3 a0 b3 46 b3 88 3f
       -0.05320326779220041 0.012060692173763349
0000f0 c3 03 3d a9 50 f9 c2 bf 18 71 e4 45 98 89 a2 bf
       -0.1482334925040317 -0.03620601514032468
000100 98 bd 37 de fe 91 a5 3f 34 39 6c 4f 2e 6d dc 3f
       0.04212948286646706 0.4441638732540867
000110 bd c5 de ea 00 ef 93 3f d8 8f 85 7b 88 4f f8 bf
       0.01946641381772961 -1.5194172692363193
000120 70 b4 25 ae a1 58 a7 bf 48 fe cb 68 68 64 95 bf
       -0.04559808016606659 -0.0208908380473061
000130 a4 63 97 e6 3d de bf bf 05 3e e5 da fd b4 92 3f
       -0.12448489074394203 0.01826855324298828
000140 a2 bc 08 2d 74 e2 e4 bf e0 7e ac f0 e9 3f e5 3f
       -0.6526432876179522 0.6640519810352679
000150 97 b5 23 d6 f6 71 ea bf 87 fa de b8 a7 a9 e8 bf
       -0.8264116461192995 -0.7707098589670104
000160 1b 11 db ec ad b9 dd 3f 00 00 00 20 a1 83 ba 3f
       0.4644579709095226 0.10357100516557693
000170 00 00 00 00 3e da b8 3f 93 cd 4a 64 00 61 b8 3f
       0.09708011150360107 0.09523012589015982
000180 d3 63 8e 8b 97 de 9b bf 10 e1 00 5e 85 89 93 bf
       -0.02721630849154961 -0.019079288351549428
000190 fb 5f 3e 33 5c 60 81 3f eb df 20 e1 f9 39 a6 3f
       0.008484573663551478 0.04341107247495287
0001a0 2c c8 64 23 dd d9 d5 3f 34 6d 56 fc 75 7e 9b bf
       0.34142235237516405 -0.02684959747931011
0001b0 a7 55 70 2f 0b 70 a0 bf ed 43 07 50 2e 71 ad 3f
       -0.03210482553565024 0.05750412680539072
0001c0 9a 74 42 8b 95 47 80 3f 75 01 ae 4f be 4a cb 3f
       0.007949035942426175 0.21321848765002085
0001d0 30 3a f3 e0 38 17 c3 bf 57 e4 9b 82 75 67 a9 3f
       -0.14914618476764607 0.0496174547133214
0001e0 da a2 5d 08 fb ff 93 bf e0 cd c6 57 a4 61 92 bf
       -0.01953117598114571 -0.017950599534470757
0001f0 af 52 b3 16 52 fc a0 3f 9f 2d 81 1d c5 1d a3 bf
       0.03317505385499452 -0.03733650193370441
000200 1f e3 b6 f3 9a b2 81 bf ef ec a2 75 91 05 cf bf
       -0.008641443789075219 -0.24235742801634028
000210 d8 31 af 02 f5 20 a1 bf 4d 2f 95 89 41 9e d0 3f
       -0.033454567506484956 0.25965918002906535
000220 96 40 8f 71 7e 4a c1 3f 6e 70 51 a0 7d 4e a9 bf
       0.13508587403203326 -0.049426961727221705
000230 07 1a 58 b6 68 ed d5 bf 0e 91 63 91 2d db a3 3f
       -0.34261529738469715 0.03878157043235052
000240 d7 98 67 83 57 ce bf bf 0d 8e c4 02 a3 f2 a2 3f
       -0.12424227674600573 0.03700742157732515
000250 c2 ae 4b 8e c5 2a a3 bf 58 b6 c7 24 08 44 e0 3f
       -0.03743569719321506 0.5083046644555891
000260 70 b3 57 38 dd 07 8f 3f 03 30 da ff 10 cc cf bf
       0.015151718408526554 -0.2484151124266419
000270 25 0e bf 96 f3 0d af bf 01 7f ab 2d 0a c5 a1 bf
       -0.060653316642426604 -0.03470641906255701
000280 69 d3 fd 1d 55 e4 cf bf 71 03 a9 69 e5 fa ab bf
       -0.24915565456799563 -0.05464856066510649
000290 4f 68 4d 08 06 27 b2 bf f0 c6 06 c6 e6 3a b9 3f
       -0.07090795233435297 0.09855501494055452
0002a0 56 ea b4 e5 87 84 94 3f fa 9d a0 a7 ac 13 be bf
       0.020036815066513412 -0.11748770801988676
0002b0 94 14 31 c3 72 b3 b1 3f 83 c8 6e bd 5c e7 b3 3f
       0.06914441361830576 0.07774905800650526
0002c0 96 15 6d 66 f2 45 ac bf c8 d1 b7 71 24 69 f6 bf
       -0.055221152308642704 -1.4006695215331195
0002d0 9a fe 0d 51 62 7b c3 3f c1 2a 9e df 5f ed 6c bf
       0.15220288236377116 -0.0035311577348172423
0002e0 00 00 00 c0 8d 00 9a bf 00 00 00 c0 b2 c7 a6 3f
       -0.025392737239599228 0.04449232667684555
0002f0 ee f7 1f 71 9e 52 ae 3f 80 c8 13 e0 47 ad bf 3f
       0.0592240822879687 0.12373780460964845
000300 80 95 48 a3 13 36 96 3f 33 89 c9 44 22 51 c6 bf
       0.02169066127875885 -0.174351008975529
000310 e1 68 95 bb cf 4c c2 3f 46 4b 48 13 52 b6 b2 3f
       0.14296909961087237 0.07309449167977985
000320 4f 70 a7 59 b8 a1 b3 3f 1c c9 ac 0d 43 91 b3 3f
       0.07668640316791307 0.07643527110920839
000330 29 a4 9d 27 f7 46 c0 3f c5 f2 b5 cd 5c a4 d6 bf
       0.127165693610807 -0.35378189171732927
000340 db c3 4b 8d db 3c dd 3f 21 d2 af 00 a1 9f a9 3f
       0.45683945463593795 0.05004599698432722
000350 be b1 c1 d4 ec 59 bc bf 9f de 22 29 9d b3 c9 3f
       -0.11074714845898989 0.2007938814983747
000360 4c 5f 0c c8 02 3a ba bf 05 b6 95 b4 10 91 c9 bf
       -0.10244767555229578 -0.19973954026811228
000370 6f 6c bb 2c f2 50 a7 3f 60 7d 39 8e 05 51 c5 bf
       0.045539443932022354 -0.1665350861030488
000380 9c e4 22 21 c8 14 a2 3f 88 d7 6d 6c 54 8c de bf
       0.03531480221267566 -0.47731505001808516
000390 28 27 5f 35 2e 1b cb bf 69 06 5a 9a c1 0c c5 3f
       -0.21176698308982478 0.16445179020597614
0003a0 4a b6 ff 07 54 ee 8d bf fe ae 40 ca 96 0c be bf
       -0.014614731306177426 -0.11737959325608568
0003b0 8f c2 df ff c7 c6 e1 bf f4 db 6b 8e 89 a6 9a bf
       -0.5555152890720637 -0.026025914495189498
0003c0 59 d8 36 c6 be 2b b5 3f 0b 5e 5f bc c3 c5 b5 3f
       0.0826987489625436 0.08504889820994081
0003d0 8a e0 bb 08 3e e3 af 3f bc 04 67 ef 15 33 da bf
       0.06228059631934098 -0.40936802271978556
0003e0 e4 0c 31 fe e9 69 db bf 98 42 ec b8 8b 5a 72 bf
       -0.42833947966955876 -0.004480882444810284
0003f0 63 a2 13 88 cc 39 d3 3f 0b 4a a0 8f 15 ee c3 3f
       0.3004027680276861 0.15570325386995906
000400 13 65 e9 0b f4 22 ea 3f d4 62 08 ef 22 17 90 bf
       0.816766761078869 -0.01571325859012769
000410 58 63 3b 7a 49 56 c3 3f 98 34 a9 cf 30 50 d0 bf
       0.1510707709155905 -0.25489444999113564
000420 61 35 e2 12 a7 9f 9a 3f f0 c5 4b 75 a9 7e 9d 3f
       0.025999651458325505 0.028803489479235667
000430 c5 a4 39 f0 96 91 d2 3f be 14 fa 1e 76 39 ec 3f
       0.29013608417023945 0.8820143322961014
000440 4a 05 88 b0 d4 e0 ea bf e5 83 13 af a2 aa db 3f
       -0.8399451682927659 0.43228976342476094
000450 82 4a ee 93 0e ee db bf 00 00 00 40 96 10 c2 3f
       -0.43640484281892367 0.141131192445755
000460 00 00 00 c0 91 3c b7 3f a8 fa 41 de 9a 51 a5 3f
       0.09076796472072601 0.04163822138888423
000470 c1 f4 45 71 80 51 b9 bf 04 06 a7 57 be e6 ab bf
       -0.09889986768208116 -0.054494808387527655
000480 88 fe b4 37 23 82 c1 3f c5 c2 33 56 a8 85 73 bf
       0.13678398342198173 -0.004766137662259144
000490 ca a1 9d 7b 7d 8e b8 3f b7 43 7b f0 2f c6 9f 3f
       0.09592422740900655 0.031029461911035585
0004a0 5d cc 3f 39 23 8c a4 3f d8 59 f5 ad f3 b6 d0 3f
       0.04013166498034402 0.26116649616360865
0004b0 68 cf e7 06 8d 4d 9d bf 6b e1 00 4f c3 05 c7 3f
       -0.028616145655134956 0.1798633704909308
0004c0 a2 eb 96 77 8a 60 bf 3f 56 25 c5 22 66 a5 3c 3f
       0.12256684703508694 0.00043710464048681474
0004d0 5f 6d b9 3a b5 da d4 3f 41 3f 0e 3b 70 e8 48 3f
       0.32584887251660705 0.0007601306916615662
0004e0 99 94 5a 5c 32 4e c9 3f 74 b4 88 21 15 aa c1 3f
       0.19769887456383087 0.1380030072918178
0004f0 da 8a 36 5a fe 45 96 bf a0 88 63 f0 12 a9 df 3f
       -0.021751379257362348 0.4946944568201932
000500 09 2b 4e 80 03 28 a4 3f a4 18 2a 6b a5 c2 ac 3f
       0.039367780124925096 0.056172532397839064
000510 6c 07 c4 61 a4 e0 a0 3f 18 da dd a9 95 33 c3 3f
       0.032963883337301464 0.15001173776882193
000520 01 b9 df 18 01 b7 d8 3f e8 47 f1 36 81 cf 7b 3f
       0.38616969517796923 0.006789688820463248
000530 52 d2 1d f0 03 f9 bb 3f 66 72 95 bc f7 bf c9 bf
       0.10926842319697386 -0.20117088993255833
000540 21 4b d7 10 92 43 bb bf 83 e0 71 cf 92 ef cb 3f
       -0.10649979506642328 0.21824870232717694
000550 7d 86 b5 e8 ca 48 ba bf 4e 6a ab 87 15 4d cd bf
       -0.1026732271325503 -0.22891492008678188
000560 8c 33 bd df 25 0b be bf ac 52 ff 43 b6 2a ae 3f
       -0.11735760414485535 0.05891961650892105
000570 91 f3 c9 30 21 ff d1 bf 2d b3 b8 8a 8f bf 98 bf
       -0.28119687809503896 -0.024168246118438198
000580 35 bf 53 5f f4 24 dd bf 1c f6 6a df d4 9e b9 bf
       -0.4553805285386148 -0.10007982687508171
000590 38 f9 c7 4a 0d 2d 8a 3f a1 7d 4d 8c fa b6 c4 bf
       0.012781242222442132 -0.16183406687467275
0005a0 f9 0e 7c ec 1c 72 b1 3f a7 f9 39 d5 ed 5e e6 3f
       0.06814747594404115 0.6990880169467361
0005b0 29 b0 1d 9d ae 6d e0 3f 3e c7 44 a3 b8 a9 d4 bf
       0.5133889263793253 -0.3228589624805983
0005c0 32 dc 92 1e 3d a3 c8 bf 2e f0 6d 25 60 64 eb bf
       -0.19248165123801325 -0.8560028773349637
0005d0 00 00 00 80 02 37 75 bf 00 00 00 a0 1f f0 98 3f
       -0.00517941452562809 0.024353498592972755
0005e0 a7 1a 86 30 05 a0 c1 bf e5 74 cb 50 7a b0 c2 3f
       -0.1376959311421235 0.14601067490631361
0005f0 99 82 6c e5 65 8b ba bf 6f 42 ca 79 6e cc 9c 3f
       -0.10368954516571662 0.02812359445903428
000600 fc 80 b4 15 51 e2 cb bf e2 f2 74 2e 17 a9 d5 3f
       -0.21784413871592523 0.3384454682998649
000610 3c 8c 68 47 4d ac b5 3f 1a 14 bb 68 17 3e 98 bf
       0.08466036790245907 -0.023674360053309675
000620 a2 11 e6 aa 73 10 92 bf 5f 30 22 45 e2 37 7e 3f
       -0.017640883737401254 0.007377513759035364
000630 12 91 14 09 1d 6e c6 bf ff e9 bb 63 fd cf 76 3f
       -0.17523539489150913 0.005569448283262889
000640 01 1f c0 d0 c5 d8 8d bf 78 34 9c db 69 64 bd bf
       -0.01457361739450347 -0.11481343852592996
000650 e1 f3 d5 ee 07 3d d2 bf 86 c8 3f de 91 1d c7 bf
       -0.2849750358944317 -0.18058989860543678
000660 cd 4b a4 3f d3 2c 8c 3f 08 e9 b4 52 d5 1d be bf
       0.013757372264569323 -0.11764271992879938
000670 ee a1 6a 94 91 db c1 bf 1a 2f 97 7a dd 86 e3 bf
       -0.13951320406819384 -0.6102130312296794
000680 a9 e9 13 de 33 27 a2 bf 94 b6 85 64 9a 30 b4 3f
       -0.03545534215841723 0.07886662439497122
000690 3a 9d 9a ac d5 d8 86 3f 5f 80 de ea ef f5 a2 bf
       0.011155766801791079 -0.03703260175757416
0006a0 23 09 06 d9 f9 7f eb bf 39 ba d6 04 1c 67 a3 bf
       -0.8593720663778054 -0.037896037665053624
0006b0 19 3a e4 6d c6 12 b7 bf 2d 81 54 c7 74 ea b4 bf
       -0.09013023550890188 -0.08170251718957351
0006c0 a4 05 13 1b 0c e2 a3 bf bd 20 58 10 be d6 f4 bf
       -0.03883397894379506 -1.3024273527571915
0006d0 86 8e 52 d0 32 72 98 bf 8c 31 2e 2b ee e3 76 bf
       -0.02387313267230564 -0.005588465067273406
0006e0 e6 39 50 c7 1d 61 b1 3f cb 4c 06 17 c2 ce aa bf
       0.06788812748002435 -0.05235868960439801
0006f0 bb 8d fe 2a 08 ce f2 3f 1a de f9 4d 89 29 aa bf
       1.1753007583109667 -0.05109814717155477
000700 76 c2 ed 67 94 5d ab 3f 7f 2d f0 a4 b4 12 e6 3f
       0.05344833153401833 0.6897834035348039
000710 60 d0 c0 e7 8e 75 ad bf ce 09 a0 0b 79 fc c5 bf
       -0.057537523069556284 -0.17176735942491778
000720 0c 31 9b 6c 67 71 e1 bf d5 a3 75 70 41 6c f1 3f
       -0.5450932618346385 1.0889295952749667
000730 48 b3 73 b0 13 f0 e8 bf 29 7a 30 d6 de 4a e0 bf
       -0.7793062635733827 -0.509139459932901
000740 69 a8 7d b0 4c 0a d2 3f 00 00 00 80 08 0b 7a 3f
       0.28187863574442545 0.006358178332448006
000750 00 00 00 00 c9 7d 9d bf fa 18 2d 6f 1a 14 da bf
       -0.02880014479160309 -0.4074770055489264
000760 52 f8 59 c8 0e cf 90 3f 46 a8 ee b7 bf 89 a5 bf
       0.01641486261223008 -0.04206656570688998
000770 4e f5 55 9a d2 02 cc bf 7b d2 18 df 89 f5 c3 3f
       -0.218836140975251 0.15593074220091183
000780 f9 74 28 f6 fe 12 c9 bf 49 93 f0 76 ce ec cc 3f
       -0.1958922101920633 0.22597676093678334
000790 32 f1 fc af 5d 80 d1 3f ca 17 ef c0 d2 38 b0 bf
       0.27345983682950525 -0.06336705408384016
0007a0 31 38 b4 75 83 a4 cd 3f fd 1e c6 d1 08 06 c2 bf
       0.23158305403961912 -0.14080915682665554
0007b0 24 e1 90 bd 0e 36 c3 3f 56 37 0c 74 fa 81 b4 3f
       0.1500872064223212 0.08010831196972154
0007c0 ac 60 49 1b 46 0b 9a 3f 1b d5 49 13 6c 85 d3 3f
       0.02543363133949643 0.30501844295152275
0007d0 57 da 33 94 d3 c0 bb bf 0d e5 74 59 a2 0b c1 3f
       -0.1084110485861428 0.13316754692076707
0007e0 1f b8 44 8c ba ae c3 bf 4f 26 3a 41 38 b7 84 bf
       -0.1537697968391862 -0.010115088930677944
0007f0 1f 5d fd 3f d6 0c bb 3f 32 bf 2c e0 3e 83 c6 bf
       0.10566462576149548 -0.17588029809984956

fc.0.bias f8 [300]
000000 ca b2 20 47 e8 e1 f3 bf 2e 5d e2 df 9e 46 f6 bf
       -1.2426531580378417 -1.3922413583257582
000010 ff 09 7a 7b 8c 5e cb bf bf 86 75 75 33 c4 c5 bf
       -0.21382289914261318 -0.1700500796824169
000020 89 0a d5 7d 1b 5a c4 bf f4 ba 25 c1 ce c8 b6 3f
       -0.15899985927724838 0.08900158133995345
000030 13 98 3c ea 55 28 f0 bf fb 4c 46 0f 21 be c8 bf
       -1.0098475599165837 -0.19330228086310072
000040 87 a2 84 75 10 54 d7 3f 87 c9 b9 e1 9b 2e 8e bf
       0.3645058772695297 -0.014737336946585312
000050 19 13 bc 06 96 fe f5 bf f5 70 1c 50 74 11 ea bf
       -1.3746547949860484 -0.8146306576414007
000060 1e b6 77 65 8a 33 ae bf 0d 3e f5 25 bf 79 d5 bf
       -0.058986973653969196 -0.33555582720598026
000070 ec fb ed f5 10 b4 b0 3f 76 ce ed eb 62 14 b8 bf
       0.06524759296551935 -0.09406107196792299
000080 a6 67 2a a2 4d 17 05 c0 cf d9 46 94 a3 3d f9 bf
       -2.6363785428229276 -1.5775485794125534
000090 ea cb 01 fd 16 9b f1 bf 31 4b 2e 9b d9 4f f2 bf
       -1.1003637202345495 -1.1444946347953187
0000a0 7d cc a5 42 ff 1d e4 bf 13 dd 1e 72 5f 42 b7 bf
       -0.6286617566787666 -0.0908565190901423
0000b0 72 63 99 51 0d cc f8 bf c0 a2 55 8e 3a 6c fe bf
       -1.5498173892467233 -1.901423030847738
0000c0 e8 99 55 86 af 30 de bf d6 52 5c 58 c7 a8 ea bf
       -0.4717215358599831 -0.833102867678998
0000d0 f7 32 fc 26 ed 93 c8 3f 1c ec 1c 2f 2a ef e1 bf
       0.1920143547398749 -0.560444919602904
0000e0 0e a8 dd 8b 31 61 d9 bf bc 60 ab 3e 93 64 e5 bf
       -0.39655722292684537 -0.6685272430431932
0000f0 3c fe d5 e8 cd e1 e2 bf 62 f1 9e 0a 14 09 ea bf
       -0.590064005620611 -0.8136081893385774
000100 cf 73 4f 86 a5 17 ee bf 72 2e 39 1b f8 6e e9 bf
       -0.9403865454911456 -0.794796040697703
000110 9c 78 7f 16 f8 4b e0 bf 04 e3 9a 1e a2 7d dc bf
       -0.5092735709584022 -0.4451680468442165
000120 c7 b0 3e 61 46 fb e1 bf fa 81 cd af ab 61 d1 bf
       -0.5619232081712874 -0.27158634346235966
000130 bf 1b b9 5c 05 f3 f6 bf 0f e8 f0 8e bf 5a d0 3f
       -1.434331285666971 0.25553883513532666
000140 ad bb 7c 8b e0 69 b5 bf ff b9 9f b3 25 f7 f0 bf
       -0.08364680676889576 -1.0603386894759976
000150 0d 5f c0 66 b2 06 11 c0 ff 73 91 fd d3 ee c0 bf
       -4.256539922229206 -0.13228845483072857
000160 9c 51 02 44 d2 ce f1 bf d4 45 d4 86 4c 27 c4 bf
       -1.1129934937099284 -0.15744930823761527
000170 b0 52 1c 36 52 68 c9 3f 86 8c 60 ea be b7 d2 bf
       0.1984961284839719 -0.2924649514045047
000180 3c 17 f5 50 20 b2 fa bf 0c f6 f2 cf a1 de 0b c0
       -1.6684878504178888 -3.4837070699711656
000190 a7 ef 00 de 72 e3 c6 3f 14 87 09 04 87 c5 0b c0
       0.1788161834718924 -3.471448928395043
0001a0 02 f5 47 a7 c4 bf f0 bf 5b 30 1e 95 32 c5 e1 bf
       -1.0468184027116085 -0.5553219711741905
0001b0 f7 40 6c 76 f2 a6 f4 bf 88 97 41 66 72 e7 eb 3f
       -1.2907585740941252 0.8720027920905844
0001c0 16 82 81 3d e3 6b ef bf 90 f4 3f de 5f 83 c7 bf
       -0.981919880036062 -0.18369673111002216
0001d0 89 2b be ff 47 38 d3 bf b3 5a c0 a7 03 7c d3 3f
       -0.3003101346482074 0.3044442308613881
0001e0 e5 ec 58 f0 cb 93 00 c0 70 97 e4 8e 30 e5 eb bf
       -2.072166326249873 -0.8717272559049274
0001f0 67 1a af 5b 53 c3 db bf 26 99 8e 04 63 eb d9 bf
       -0.4337967295981912 -0.4049918694021407
000200 dc 50 5d 69 c1 73 d8 bf c9 8c 7f 6d 4e 05 f4 bf
       -0.38206515588286805 -1.2512954976344182
000210 66 fa 20 a4 9b 7d 08 c0 37 6e 24 0f d8 e7 f7 bf
       -3.0613320181430934 -1.4941025344368322
000220 fd 85 91 a2 67 3a de bf fd 7a 78 ae 68 12 f4 bf
       -0.47231474757981556 -1.254494363332639
000230 5c a2 f1 9e 9c b3 f3 3f dc c9 8f ee f7 49 f2 bf
       1.2313505371804672 -1.1430587118926416
000240 cf 59 b7 35 0a 04 02 c0 8c 4f c7 0b 84 a7 f1 bf
       -2.251972598703311 -1.1033974132633118
000250 00 a0 57 99 45 6e ea bf c6 7e 87 02 9d c7 e7 bf
       -0.8259609217611796 -0.7431168603324856
000260 24 f9 60 a6 1d 22 e4 3f 5a c5 ce 6f 71 54 cb 3f
       0.6291645288072556 0.2135144992767362
000270 a3 6a e3 0c c5 81 c9 3f 61 89 ed 15 1b b2 06 c0
       0.19927275780977025 -2.8369657242885045
000280 6d ca 8f c8 ae 6b e1 bf d6 82 b1 50 cc bd f0 bf
       -0.5443948666782724 -1.046337428291897
000290 d0 57 8e 3f fb 7b f2 bf 08 70 10 12 02 22 f3 bf
       -1.1552689058930703 -1.195802755893057
0002a0 c2 3c b9 9b 17 f7 f2 bf ba 6f a3 b7 bc 1b 05 c0
       -1.1853252489998316 -2.638543543505844
0002b0 ca a5 73 27 93 2e cb bf e0 a0 6c 90 9c ee e8 bf
       -0.21235885073046595 -0.7791273899829569
0002c0 57 1b e4 27 18 e2 eb bf 62 ec 4c bc a5 78 e0 bf
       -0.8713494090196531 -0.5147274663680828
0002d0 6e 67 68 ac ab a6 de bf 36 c2 ab e6 45 c3 d7 bf
       -0.4789227660818288 -0.37129352117975445
0002e0 2d 1f 4a f8 ee b2 d7 3f 78 4e d5 cb a2 ef f1 3f
       0.37029623267197814 1.1210048639522068
0002f0 b2 a0 ec 30 3f 50 d0 bf 61 10 d2 3b e0 86 d5 bf
       -0.2548978784348136 -0.33635717241145896
000300 c9 a1 ab 08 1a 5a ec bf 39 d4 3a 66 98 99 f4 bf
       -0.8859987420410614 -1.2874988549567787
000310 1a f3 42 cc 9c 50 f9 bf b4 cf 67 e7 d5 dd 04 c0
       -1.5821807841268254 -2.6083181456142146
000320 05 54 60 b5 58 07 e0 bf ac 55 9f 92 2b dc e5 bf
       -0.5008967916970738 -0.6831262458533067
000330 b9 a7 aa fc e4 3e ec bf 4f 9b 74 ee 5d aa df bf
       -0.8826775488753277 -0.4947733715693418
000340 81 82 13 3d 80 9d f1 bf 20 14 c3 68 2c bb f4 bf
       -1.1009523759641129 -1.2956966488138804
000350 52 11 51 5a 88 be f0 bf 91 80 6f 0c 48 3a 7b 3f
       -1.0465167549128478 0.0066473783872142015
000360 72 8c 70 fb 93 37 e0 bf 46 c8 2c 30 4a 66 ef bf
       -0.5067844305925873 -0.9812365475575084
000370 b9 d2 15 3f 38 d8 c9 bf 78 88 a0 eb 1d c5 df 3f
       -0.201911001971572 0.4964060593648649
000380 6d ec 76 8b d7 7a 00 c0 be ec 2e 3b 65 d2 9b 3f
       -2.059981431547888 0.02716978238798328
000390 14 16 b6 51 49 7d d6 bf 19 b8 7c 7e 90 e5 d9 bf
       -0.35139687518707885 -0.4046365008570106
0003a0 d2 c4 ca 3a f5 23 05 c0 c6 cd 99 ca 8f 2b 97 3f
       -2.6425575822000633 0.022627112141391036
0003b0 51 f7 67 12 a7 56 d0 bf 1c ba 11 66 b9 31 d2 bf
       -0.2552888564822427 -0.2842849251527768
0003c0 d5 fa 04 0b 4d 37 e7 3f 14 d4 6b 9b be fe 00 c0
       0.7255006041740112 -2.1243869917184472
0003d0 37 5d 4d 30 0d 71 08 c0 12 77 e6 2d e2 ad a0 3f
       -3.0552009366616875 0.03257662592225875
0003e0 71 57 13 e2 38 c3 e7 bf 1a c1 59 f4 2d 37 fd bf
       -0.7425808349168915 -1.8259715599961681
0003f0 4f 86 a6 65 7a a9 f5 bf 88 be a8 40 76 2a f9 bf
       -1.3538764925691742 -1.5728666806934672
000400 0d 24 04 15 f3 3b f3 3f 31 3b 9d 40 d0 f4 db bf
       1.20213611802524 -0.43681722936610173
000410 70 6b 2a b1 aa 1b df bf 31 70 f6 82 59 bf d2 bf
       -0.48606364537561486 -0.29292905606576186
000420 df d1 73 63 e9 7b c7 bf dd db f3 75 35 ba cf bf
       -0.18346898418498278 -0.24787014254954345
000430 87 8b e6 e2 14 e4 f6 bf b9 2a a7 84 43 62 d5 bf
       -1.4306839812568073 -0.33412254290002924
000440 a0 9d 92 f8 c3 f7 ce bf 8e f5 90 7b c3 ae f4 3f
       -0.2419362033590291 1.29266689556184
000450 5f 80 c1 fd 19 3a f4 bf 2b e0 71 70 0a 56 ee bf
       -1.2641849434221724 -0.9480030246913932
000460 22 2a 18 3c f8 1d f6 bf 38 0d 82 89 d7 16 0b c0
       -1.3823168132245276 -3.3861532919705972
000470 c7 1c bb 31 ed 43 d6 3f 6a 87 3c cb 3d 57 0d c0
       0.3478959069875142 -3.6675983312460874
000480 fc b7 5f 30 cf 4f d1 3f c3 fc b5 b1 5c 88 fc 3f
       0.27049617504133017 1.7832915250617567
000490 8a 3f 3f 15 37 1c 0c c0 9c b1 a7 9b 29 9b db bf
       -3.513776937477762 -0.43134536934555867
0004a0 33 57 c9 f9 cc 63 04 c0 11 6f 81 58 b3 26 ee bf
       -2.5487308039254457 -0.9422241905808467
0004b0 18 51 83 65 d3 89 ca bf 20 62 bd 0b a9 8c d0 bf
       -0.20733110863387405 -0.2585852255483889
0004c0 80 c9 8b 75 6e 47 d2 bf a9 6a 97 dd 00 26 09 c0
       -0.28560983161073494 -3.143556338485116
0004d0 76 be a7 a5 c8 7c 00 c0 77 f8 5e 52 00 05 02 c0
       -2.0609295789543536 -2.252442019961616
0004e0 f6 b5 eb ac ab c3 02 c0 32 2d bf 69 b5 ee e2 bf
       -2.3455422887261603 -0.5916392388693679
0004f0 b6 1b 66 42 03 59 e7 bf 0c a8 6a 56 00 58 b9 bf
       -0.7296158120014897 -0.09899904355793882
000500 bb d1 89 99 23 fc e0 3f 76 29 5c df 79 2f fc bf
       0.530778694038012 -1.7615908360481547
000510 b4 c5 96 03 0c 9e d7 bf 00 3d b0 51 de 38 df bf
       -0.3690214190529233 -0.4878459737528402
000520 39 be 4e b8 51 2b e4 bf 0f 47 34 54 ff b9 b2 3f
       -0.6302879905469531 0.07315059476630047
000530 84 cc eb f4 f1 6a f4 bf e8 37 97 0a 1c b6 e2 bf
       -1.2761096541624122 -0.5847301680421397
000540 77 8d 84 81 95 61 e4 bf 63 2e b1 65 6a a3 e0 bf
       -0.6369121102947436 -0.5199481950925925
000550 e8 9a 4b f0 a8 da d8 bf 26 ab 60 63 04 d5 f8 bf
       -0.38834594217625673 -1.5520061380327177
000560 0f ef 5c d8 a5 73 fe bf ec fc 10 2c df 28 e1 bf
       -1.9032343341522766 -0.5362392292662697
000570 8d 17 89 1e a1 60 00 c0 59 ef 07 4d f8 79 e0 bf
       -2.047182310637203 -0.5148889069091452
000580 93 ef e9 be 02 f9 e3 3f fb 61 44 ab 0e 91 ea bf
       0.624146817091502 -0.8302071900425853
000590 65 6e 13 3b f8 72 e3 bf 85 b6 d3 bf e7 87 01 c0
       -0.607784381277679 -2.191359995506732
0005a0 3e 6a 7f e4 a4 e1 c4 3f 6b b4 df b7 33 08 de bf
       0.16313611180415138 -0.4692506118433985
0005b0 50 2d f4 a9 37 38 c1 bf c5 c5 70 41 16 9f f4 bf
       -0.13452812002683823 -1.2888395839948867
0005c0 97 52 43 85 cd f4 ee bf 85 be 4f a4 93 57 a3 bf
       -0.967383156089073 -0.03777753239398599
0005d0 19 fd bf 30 e8 ee c1 bf 94 0f 2b 22 92 13 ee bf
       -0.14010336284989292 -0.9398890178058417
0005e0 c3 40 8b d3 c6 8d d0 bf 92 78 89 1a 95 f9 d7 bf
       -0.2586533609255747 -0.3746083029890396
0005f0 a9 35 eb 95 a0 9c e4 bf f1 44 16 22 99 f5 f3 bf
       -0.6441195419408149 -1.2474604922793413
000600 0d 31 30 62 e2 89 ff 3f 13 23 50 ab 36 fb df 3f
       1.9711631618002372 0.4997078583697185
000610 bb bd d4 63 03 bf f1 bf cd 7f ed ec 82 ff f7 bf
       -1.1091340922974797 -1.4998807196607118
000620 45 36 58 ae 50 2a 02 c0 36 6e 13 3a 5c 2d d6 bf
       -2.2706616993589557 -0.34651857062792446
000630 30 ee a7 79 3b 9d 03 c0 68 30 ef a2 91 95 de 3f
       -2.4517735962270066 0.47787896071964164
000640 2c 07 55 7b 86 fb d4 bf ae bd f9 74 e6 c0 e9 bf
       -0.3278518871703564 -0.8047973904303285
000650 b4 f1 b5 fb 9f 78 e2 bf 9f 67 c6 62 09 da 9e 3f
       -0.5772247234559047 0.030128618863819786
000660 a4 c8 08 aa 62 48 a3 3f 5e 04 01 4a 5c 98 b9 bf
       0.03766163182844309 -0.09998108679521198
000670 1b dc 03 92 6d 0b bb bf 9e af 36 70 05 a3 bd bf
       -0.10564312758275245 -0.1157687567671801
000680 e8 e1 16 39 27 45 76 3f f0 bf e7 f1 6c a4 aa 3f
       0.005437043394913556 0.05203571751542302
000690 d5 c2 2c 45 77 e7 f6 3f cc 23 98 4b 87 80 da bf
       1.4315102293150421 -0.4140947569108533
0006a0 4d 62 75 46 d5 bd ff bf de 93 df 46 0d 76 ee bf
       -1.9838459732328773 -0.9519106277699583
0006b0 60 2a 5b 87 75 c5 e4 bf 94 34 d9 13 8d dd f2 bf
       -0.6491038936304214 -1.1790896201448833
0006c0 98 4b 26 72 0c 2e cb bf 4c e4 c6 5c ce 4d e5 bf
       -0.21234279226027009 -0.6657478153275718
0006d0 6e 5d 8b 21 74 ac f1 bf 3a d1 9a 96 ee 3e 06 c0
       -1.10460293868331 -2.780728508567475
0006e0 20 76 03 eb 1a f9 f4 bf 44 6f 64 76 47 f8 ff bf
       -1.310816686650817 -1.9981150269222363
0006f0 d8 6a 79 fb f9 f4 ec bf f1 ad ad 29 d7 a4 03 c0
       -0.9049043571097526 -2.4554885154845967
000700 79 fc bb 59 53 d6 f7 bf 32 8e e0 9b c6 d8 e2 bf
       -1.4898255830046578 -0.5889618916011783
000710 ae 53 53 0e b3 6f f0 bf 21 a4 e1 14 ba c5 e5 bf
       -1.0272703704442665 -0.680386582168584
000720 aa 07 84 71 ee 24 04 c0 d5 68 29 37 f1 6d c4 bf
       -2.5180329197327938 -0.15960517114110098
000730 90 2b ae fc 50 71 b1 bf 92 da 6f 12 6c 6d d0 bf
       -0.06813532036737358 -0.25667859840852103
000740 b2 91 24 83 ea a2 d9 bf 21 18 91 e1 ed 0a 09 c0
       -0.40056860739630473 -3.1303365347294094
000750 a5 5a 7a 32 1c 4c 98 bf 39 4e 0e 95 9d 22 c8 3f
       -0.02372783716290407 0.18855638292426294
000760 8c 07 74 c5 84 e7 e7 bf 53 1e 9c 3b a8 ce f1 bf
       -0.7470115524777028 -1.1129534080991064
000770 7a a4 53 3a fe 99 e1 bf 5d 23 1c b9 68 6b ec bf
       -0.5500479830926814 -0.8881114592960376
000780 c4 a1 7b 27 e0 23 ee bf 0f e9 9b ef e9 02 e9 bf
       -0.9418793460036388 -0.7816056899894493
000790 73 07 a2 1a 6a 06 5f bf f6 81 8e 69 9d 76 de bf
       -0.0018936191723075396 -0.4759896784617291
0007a0 bb 15 8e 5e d8 30 d8 bf 5c 96 d1 2d c7 1b 7f bf
       -0.37798127397430975 -0.007594850581062209
0007b0 7c 2e 20 3f 71 f1 dd bf 63 40 c9 fc 47 ec e7 bf
       -0.4678614727460866 -0.7475929200391075
0007c0 8f ab 02 36 2f f7 d4 bf 3f 4c 5d 51 d8 14 f6 bf
       -0.32758693956810075 -1.3800891092585201
0007d0 1d 2b e1 44 6e bf f7 bf fb 77 74 32 02 74 f3 bf
       -1.4842360201461766 -1.21582240780799
0007e0 b9 f0 ee 55 a6 2a f9 bf 3d 78 57 54 e9 ca f6 bf
       -1.5729125363132381 -1.424538926562959
0007f0 41 94 74 90 a6 55 d4 3f f1 72 6f 2d 39 aa f2 bf
       0.31772770029994396 -1.1665584349458948

fc.2.weight f8 [3, 300]
000000 c6 dc 3c 82 47 1a 01 40 ef 65 09 f2 f8 eb e5 bf
       2.137831704599736 -0.6850552298812412
000010 a2 f4 99 62 69 45 95 3f 1b 69 05 8a c5 35 e3 bf
       0.0207725969726097 -0.6003139205670637
000020 63 9c 0a da ba ad 94 bf 23 74 74 07 48 52 a6 bf
       -0.020193976934617896 -0.04359650698663866
000030 b9 cc 57 00 7a ff a6 3f e1 83 9a 68 2d 73 d4 bf
       0.04491788152872673 -0.3195298692244802
000040 7a bd c4 f6 1d 61 a4 bf bd 9b c1 dd d2 a2 c2 3f
       -0.03980344426451672 0.1455939848703717
000050 0a 3f 42 f4 b5 80 b7 3f 75 2b 57 d2 ba 73 f3 3f
       0.09180772031163201 1.215754338877301
000060 ec e3 cd 45 71 3d cb 3f d8 c0 12 4f 63 7a a1 3f
       0.21281257542048537 0.03413687076806732
000070 67 46 ab 91 f3 2e e1 3f c6 70 f9 0d 1d e8 de bf
       0.5369813771341797 -0.48291708340344675
000080 27 16 b5 24 07 81 c1 bf db 41 08 1e 45 25 fd 3f
       -0.13675011913635268 1.8215991185316998
000090 b2 fe 35 8f 42 cc d1 bf be b1 c1 28 20 84 01 c0
       -0.2780920408767812 -2.18951446381672
0000a0 65 67 59 34 0b 52 f3 3f 3d 7f 2f 26 ba 80 c0 bf
       1.2075302166835737 -0.12892844070938195
0000b0 8e bb 6f 75 f7 2c 05 c0 76 ff db 0f 69 95 04 c0
       -2.646956365082082 -2.5729542960179357
0000c0 1e 32 8e b1 e2 c9 7a 3f 28 2d 64 3a da d2 bc bf
       0.006540189286976998 -0.11259235311097326
0000d0 9b 62 03 09 36 7c f4 3f 75 97 11 48 70 a4 a0 bf
       1.2803249694899594 -0.03250456695313534
0000e0 b1 76 da cd bc f2 74 bf b3 60 d1 5f 2d 22 b9 bf
       -0.005114305034707265 -0.09817775334647898
0000f0 05 63 88 b5 8a 14 90 bf 9f 7b 5a 82 b3 07 a4 3f
       -0.015703360872154643 0.03912125555256484
000100 7e a7 3a 2c 6c b6 fd bf 24 2c e9 ae 32 ea 73 3f
       -1.857036755342477 0.004862020474841553
000110 12 c8 81 75 95 db eb bf ed 3b 3d b6 d7 ad f1 3f
       -0.8705546660478396 1.1049420469969349
000120 bb aa 5f 1f a7 c8 eb bf d3 9d d7 ef 48 9a c6 bf
       -0.868243752743488 -0.17658340178534945
000130 5a d6 c9 39 52 37 be 3f ea b8 ec 36 53 3b b4 bf
       0.11803163443422574 -0.07903022852835631
000140 fe 35 54 d9 48 cb 57 bf 80 dd 3a d7 c4 eb a9 bf
       -0.0014522754111710996 -0.05062689902609474
000150 39 6d bc e7 25 48 d1 bf d5 d0 ea c0 4f e4 ef bf
       -0.27002856855843366 -0.9966200607218761
000160 0a 84 fc 76 05 90 fa 3f 1a 51 f0 d6 de 00 e7 3f
       1.6601614616304254 0.7188562582037179
000170 88 84 6e 19 07 62 c7 3f ae 40 61 42 48 ae a5 3f
       0.18267906896383956 0.04234529314328604
000180 24 ba 4b e7 65 d1 be 3f b9 e3 11 38 a8 00 c4 bf
       0.1203826608359369 -0.1562700532702175
000190 17 01 d7 d3 66 e7 95 3f 82 6b 18 93 eb 4d d4 bf
       0.02139053981750391 -0.3172558723905966
0001a0 e1 d0 cf 7e 85 e5 ef bf 6e e0 a4 77 07 e1 ae 3f
       -0.9967677571098897 0.060310586314188494
0001b0 a1 fe e5 73 53 70 a1 bf ff c1 59 95 b1 49 b0 bf
       -0.034060104272609644 -0.06362447639708789
0001c0 f1 fb 21 f9 96 67 00 c0 b8 e5 6a 63 67 47 a0 bf
       -2.0505809272285593 -0.031794768224652825
0001d0 96 7c 11 a9 c4 0e c1 3f 21 b6 1a 67 25 1f 9f 3f
       0.13326318984306756 0.0303922504596611
0001e0 ba e0 36 ab 22 e9 69 bf c1 56 0c 61 90 a0 ed 3f
       -0.003162925446044876 0.9258500953171379
0001f0 ee 54 ff 78 c8 9e d2 bf 73 1b d0 91 39 31 f4 3f
       -0.2909413510909208 1.262017793256487
000200 e7 0a 86 74 e8 3a 80 3f 4d 03 43 e8 68 f3 a3 3f
       0.007924858146684822 0.03896644435145067
000210 b4 cb f0 e1 ec 80 d9 bf 29 07 ba 34 10 42 04 c0
       -0.39849397720825697 -2.5322574729224425
000220 0b b4 e2 a2 df 25 f3 3f 89 44 87 a1 7c ab b6 bf
       1.196746479293554 -0.08855418151439855
000230 c7 cc 42 3f 89 42 b0 3f 0a 2e 1f 3a 93 6f c4 3f
       0.06351526064354394 0.15965500200250943
000240 b9 75 d4 69 80 3c 09 c0 bb 01 d9 fe 6f a5 be bf
       -3.1545418041193583 -0.11971187564723255
000250 00 38 69 73 64 64 c4 3f 18 c3 26 d7 7f f3 cf 3f
       0.1593137324838949 0.24961851125183254
000260 88 dc c4 79 fd e0 9e 3f 43 40 e6 89 ea d7 a9 bf
       0.030155144269170125 -0.0504754346212626
000270 e3 75 9b fb 3f d0 d0 3f 97 96 ba 4f d0 53 d1 bf
       0.2627105671980116 -0.2707405832864906
000280 8f be 48 4f b3 c7 e3 3f e0 df 6b ba 56 90 a5 3f
       0.6181274937170701 0.04211684251453085
000290 e0 df 9e 19 bc 15 f7 3f 78 27 e1 81 ce 4b b9 bf
       1.4428063393406703 -0.09881296797644079
0002a0 97 40 f9 7e ff 70 f3 bf 3d 5c a4 c1 27 d8 93 bf
       -1.2150874099643596 -0.019379254526111323
0002b0 08 aa b5 2c de 19 d2 3f 9b 3b c5 c7 69 e2 f1 3f
       0.2828288494698943 1.1177766612561075
0002c0 4c 52 41 1a 37 e5 c2 bf 4a c5 b5 f1 98 99 85 bf
       -0.14762009412756283 -0.010546870113759117
0002d0 f0 a6 8e c9 67 12 f0 3f d5 00 4e ea 02 c8 f5 3f
       1.004493510563801 1.3613309052016593
0002e0 b7 fe a2 4b 79 97 84 bf 88 1b 5f 6f 54 9e 91 3f
       -0.010054538365124583 0.017205542848184346
0002f0 50 a5 40 b5 a8 d7 e3 3f 59 fd 0c 9a 6e 39 8c 3f
       0.6200755634392099 0.013781417919402615
000300 91 2e 97 f6 ab 8a f6 3f 1f 63 61 48 3a 74 bf bf
       1.408855403179505 -0.12286724345302645
000310 4b 9d 46 77 a8 3e 95 bf d5 5c bc 6c c8 22 d6 bf
       -0.020746834068316827 -0.3458729802964176
000320 68 dc ef 59 87 4c de bf 58 cd e8 72 8f b5 b2 bf
       -0.47342094214349695 -0.07308289103894106
000330 3a 9f d8 ca 0b 93 f8 3f ed a1 b6 b0 76 40 85 3f
       1.5358999179533854 0.010376860874047511
000340 2f e7 34 4c ae 91 fb 3f b5 59 54 c4 07 66 8a 3f
       1.7230666138479582 0.012889919928551355
000350 23 94 a1 9d fd 29 91 bf 04 19 57 cd 7b b1 94 bf
       -0.016761744257014165 -0.020208296211216684
000360 de 74 53 20 44 48 96 3f 2a 8f 77 96 d8 9a fd 3f
       0.021760048363707145 1.8503042104357044
000370 0b 87 b8 b5 25 ff d9 bf ab 07 73 ba dc dd 90 3f
       -0.40619795557186994 0.016471337203945485
000380 78 07 a0 43 c4 8a 81 3f c7 05 34 ad 85 0d 9f bf
       0.008565457643274973 -0.030325020500645807
000390 ee 66 86 9c 9d 94 a2 3f 0e 2f 7f 30 77 32 f3 bf
       0.03629009757714906 -1.1998206991583547
0003a0 25 1d ff dd 34 3e c4 bf ae d1 d2 70 94 07 8f 3f
       -0.15814839210200052 0.015151176159954396
0003b0 2a 2e aa 2f ad 2f d4 bf a1 a6 56 35 e7 3a b3 3f
       -0.315409943149208 0.07511754085740076
0003c0 e5 f9 52 b0 a5 2e 9d bf e1 c0 f7 0a 69 3d ba 3f
       -0.028498257529230648 0.10249954717415079
0003d0 76 55 c9 8e 97 47 bd bf b6 29 07 dc 7a cb b5 3f
       -0.11437365756986204 0.08513610717560635
0003e0 bb f3 6e 82 22 01 ca bf 8f e0 db 31 18 e3 a9 bf
       -0.20315963143175772 -0.05056071861867039
0003f0 42 e6 a2 b0 be 6d f5 3f b2 d4 fc 0a ce d4 05 c0
       1.3392931842667086 -2.7289086206825113
000400 45 a4 81 f7 22 0b 33 bf bb 49 38 19 9c 2d 9a 3f
       -0.00029058078462768463 0.0255646124260893
000410 f2 3c ce a3 78 c5 b3 bf c3 35 26 39 46 7e 92 bf
       -0.07723192214165289 -0.01805982326327694
000420 97 3a 07 60 b9 11 9c 3f 59 23 e7 a4 5b 2b 67 bf
       0.02741136215791559 -0.0028282918858377024
000430 a4 b2 13 1f ed 66 00 40 19 19 40 d3 cc 89 f5 bf
       2.050256960667257 -1.346142602154549
000440 3d c5 67 79 b9 0b df bf 87 21 cd 46 69 b7 95 bf
       -0.48509060722343006 -0.021207470842712375
000450 c2 9a db 70 ea d7 b5 bf 83 8f af 77 16 a5 6c 3f
       -0.08532586341207618 0.003496688730125487
000460 46 84 ca b2 3e 53 00 c0 5b fd 92 54 62 94 c8 bf
       -2.040646931462592 -0.19202832345579676
000470 a6 1d 7c f5 2d 39 92 bf f4 58 d4 05 f1 69 d8 bf
       -0.01779624758549194 -0.38146615571294196
000480 ef fb e9 0b ed 79 b3 3f 62 e5 b7 79 d6 52 ae 3f
       0.07607919255131866 0.05922575221843364
000490 10 68 b6 df 89 c0 ce bf 0f ad 0f b8 53 cb f0 bf
       -0.240250810846931 -1.0496403875247926
0004a0 a8 0d d8 9a 4b b1 d5 bf 3d 7d 6e 27 48 15 f3 bf
       -0.3389462482593566 -1.1926957645699325
0004b0 04 2c 4e e1 8a 38 aa bf 27 38 36 2c 75 07 e1 3f
       -0.051212635043235394 0.532160364485894
0004c0 b3 b3 e7 1d 71 d3 e7 3f ad 26 5c 4e bc 77 d7 bf
       0.7445607742389398 -0.3666830792650256
0004d0 90 e5 4b 59 22 c2 c1 bf d2 55 b9 a9 e1 a8 af bf
       -0.13873700485400464 -0.06183533856225733
0004e0 58 01 31 d3 03 35 a6 3f 11 81 75 e2 94 b9 96 3f
       0.043373221903041326 0.022192312547646035
0004f0 b9 89 8b 63 20 7f a0 bf 7b 95 2e 7f 55 df e6 bf
       -0.032219898368356543 -0.7147624477408238
000500 36 be cf 87 00 78 b8 3f e4 22 42 e4 74 05 9c 3f
       0.09558108630857806 0.02736456530741095
000510 20 33 66 32 32 28 b1 3f 8f db 17 a6 ae 98 b9 bf
       0.06701959352922104 -0.09998599581727617
000520 8a 29 36 0a 62 c9 c7 3f 6c d8 89 fa 07 81 a9 bf
       0.18583322046863443 -0.04981255467730325
000530 72 65 db 4d 6d a0 bd bf a0 d2 a1 ed 8d ef f7 bf
       -0.11572917128377982 -1.495984962702245
000540 e7 ad 84 52 9a ac f4 bf 36 3a 8d 57 5d 5c da 3f
       -1.292139360749269 0.4118874888417027
000550 d2 f4 9e 41 78 b7 e3 3f cb 33 bd 0c f2 5d 1b bf
       0.6161462098749786 -0.00010439672331337341
000560 21 bc 61 2a bd 7e b1 bf a3 45 cf 1d dc 43 a9 bf
       -0.06834013256751394 -0.04934585441481978
000570 57 f7 63 1d ff 55 e6 3f 91 0e 8c 10 96 e2 b6 bf
       0.6979976247819007 -0.08939493087751262
000580 fc 0f 55 99 00 49 df bf 81 57 c8 a0 7c 5b e0 3f
       -0.48883070920805927 0.5111678257260196
000590 db 7d 2e 27 4a 9b f4 bf f4 22 06 00 9b 8d fe 3e
       -1.2879125147372779 2.913775097249361e-05
0005a0 e1 b8 05 68 0e f3 d1 bf 0c bc 8c 02 b4 b9 97 bf
       -0.28045997770722236 -0.023169338851570173
0005b0 fc 28 4a 85 a5 57 c1 3f 9d f3 0b e7 e0 33 01 40
       0.13548726089749852 2.1503313112757056
0005c0 f8 10 4e 60 83 e3 b1 bf 8b 4c 7a d3 f5 61 a6 3f
       -0.06987782574839574 0.043716127457764285
0005d0 40 fb 22 63 5c b4 a4 3f 79 43 a9 42 c2 41 7f bf
       0.04043854437030925 -0.007631071881932233
0005e0 44 48 0d da 5b a0 98 bf 0d 1f 82 58 ab e7 a6 bf
       -0.024049220260458762 -0.04473624663756768
0005f0 a0 e0 24 49 63 0b a3 bf 32 70 a7 a9 d5 94 02 c0
       -0.037196257284848544 -2.3226731542800048
000600 fc 8d 9d a9 60 90 a5 bf ef 82 b8 38 2f f5 f2 bf
       -0.042117138581286157 -1.184859487119123
000610 e2 1a 91 59 fc ea e7 3f b1 8a fa 1c 8e ac 9c 3f
       0.7474347829200634 0.028001995581358134
000620 24 6c c5 85 d0 fa c9 bf 74 c1 95 47 b2 b7 ac bf
       -0.20296675235553707 -0.05608899234619261
000630 73 05 e3 a0 8e c4 b4 bf 27 2b d5 ef 4a 41 e3 bf
       -0.08112422397518575 -0.6017203029854031
000640 2d 2f 1e 1a 5c 25 e8 bf e8 b2 00 59 0f 93 fa 3f
       -0.7545605192294481 1.6609033085507523
000650 9f 8d 03 28 e4 60 94 3f 99 31 5a f6 bf 91 a5 3f
       0.01990086073136654 0.042127608129791834
000660 38 ae 7f f3 ee c0 a3 bf dd f3 16 55 22 d0 de bf
       -0.038581340049713864 -0.48145349797760933
000670 7c 39 ce 41 43 97 9b 3f 3b 58 69 da cd ae c5 3f
       0.026944208995297356 0.16939709820388935
000680 29 a0 a0 45 16 46 ca bf 32 67 c4 f9 60 99 91 bf
       -0.20526388549592525 -0.017186656231479698
000690 91 10 53 18 16 0b c2 3f 68 af 19 b8 23 c9 b9 3f
       0.14096332729070984 0.1007253956283286
0006a0 f1 cb 40 c9 67 c4 b1 3f 5b a8 d7 f9 3e 7e f5 3f
       0.06940315879255345 1.3433217772931332
0006b0 13 b7 20 97 a1 74 2c bf 14 cd ad 34 bd 2c 80 bf
       -0.00021709892786375053 -0.007897833032734648
0006c0 e4 0d c0 0a df a2 9c 3f 60 b8 83 14 80 ec e0 bf
       0.02796505454172217 -0.5288696671175437
0006d0 5e 59 ca 70 39 4f b2 bf e0 89 93 64 af 8f c9 bf
       -0.07152136806175721 -0.19969742213204622
0006e0 76 02 7c df b0 bb fd bf df 8c 4d 18 68 12 c2 3f
       -1.8583229760990014 0.1411867254892973
0006f0 4a 35 9b 43 bf 51 df bf e1 32 df 82 24 be b4 bf
       -0.4893644485681149 -0.08102634616006867
000700 95 30 f9 93 39 9d b7 3f 32 ca 6c 04 ed f8 a2 3f
       0.0922428118003061 0.037055403509289056
000710 f8 84 37 0a 47 b0 88 3f c0 70 a1 0c 7d d5 f0 3f
       0.012054972647947512 1.0521212094673018
000720 76 5a d6 29 a7 1d 92 bf e7 db 75 d9 8a 71 e6 3f
       -0.017691242149874907 0.7013601538918665
000730 6d ca 9a d6 b0 b4 a6 3f de 57 b5 1d 8f 70 d6 3f
       0.04434731120763478 0.350620059024889
000740 16 c1 70 f7 1b e0 a6 bf 5d 00 8f c6 7c da bd bf
       -0.04467856784356365 -0.11661510322210362
000750 dc b2 22 5b e6 31 a4 bf 45 4a 28 41 f9 9a ea bf
       -0.039443205475753834 -0.8314176819424764
000760 82 b0 d2 fe 4c d3 c0 bf 87 9b 4e 8b f5 f3 f9 bf
       -0.13144838755158977 -1.6220603410417611
000770 bd c8 d0 4a 16 94 9a 3f 47 8e 56 c8 bd 5d 86 bf
       0.025955532375697688 -0.010920984913190724
000780 77 c6 61 81 4a c3 b4 3f 91 06 83 12 c5 23 d4 bf
       0.08110490473497999 -0.3146832161693079
000790 0c 28 f9 cb fc 92 df 3f c7 d5 63 6e 2d 7c a2 bf
       0.49334640425934206 -0.03610364887746758
0007a0 83 a4 f7 ab 3d 33 e7 3f d0 88 c3 c8 7e 4a f8 3f
       0.7250049933183081 1.5181873171173272
0007b0 de 1b f1 17 43 9a 9f 3f c4 8e 5d 64 86 9f e1 3f
       0.030861900650304246 0.5507232628119358
0007c0 0b 2b 21 c2 87 ab b1 3f 16 87 b0 81 7d 36 03 40
       0.06902359475604329 2.40160657234163
0007d0 48 d4 8a c0 be 21 94 3f 96 df 12 c2 57 28 b7 3f
       0.019659977437829462 0.09045933235290557
0007e0 b3 b7 e9 83 ee 1c 01 c0 eb 91 a2 ba 64 e8 c8 bf
       -2.1391268068027443 -0.1945920859626676
0007f0 07 41 b6 90 0b 9a e2 bf ac a0 21 0b a6 a8 f0 3f
       -0.5813043428807142 1.041173976404063

fc.2.bias f8 [3]
000000 12 1e 92 03 95 4d d7 3f 1d f3 b5 6e 6b 0a c4 bf
       0.3641102347250761 -0.15656798272893804
000010 f7 41 45 41 65 a1 ea 3f
       0.8322016024413291
