car_ros2/car_ros2/losses/var_params_var_delay_known_delay.pth (torch, 203017 bytes, 8 tensors)

fc.0.weight f8 [100, 40]
000000 1a c0 a2 a0 8c 22 86 3f 3f f1 e5 d2 e4 32 b5 bf
       0.010808085109914645 -0.08280782841570032
000010 03 47 c9 d2 ca f4 c1 3f 32 67 8c 97 e9 03 c3 bf
       0.14028296749398103 -0.14855689906908648
000020 e6 fa 7d 74 08 c3 c2 bf bb 1f 81 c3 23 a0 ba 3f
       -0.14657693565455715 0.1040060379319802
000030 23 50 37 9c 91 e7 73 3f e3 60 7f e6 14 bf a3 bf
       0.004859513082426078 -0.03856721223536554
000040 78 8d 5c 75 3c 39 9c 3f 12 f6 35 43 79 35 bc bf
       0.02756208864515261 -0.11019094363106088
000050 16 65 4d a7 9a 2f b0 3f 68 08 4d 2e 63 94 b7 3f
       0.06322638115434062 0.09210796242135333
000060 4b 46 00 b7 51 27 8a 3f 8b 90 16 a9 fe e8 99 bf
       0.012770307919740228 -0.025302867002793532
000070 68 cf f0 81 2f 24 93 3f dd 58 80 95 6b 20 a8 3f
       0.018692724519680765 0.04712234687774395
000080 e4 4f 24 bf b4 9a b6 3f 4e 7e 4e 3e 04 b4 aa bf
       0.08829812685536315 -0.05215466747835916
000090 85 df d5 48 7f 28 b1 3f 40 04 5b 0c e3 2d 7e bf
       0.06702418831070929 -0.00736797991493271
0000a0 3a 73 ac fd f2 77 aa bf 62 36 47 23 4e 7a ae 3f
       -0.05169638964273422 0.05952686482087867
0000b0 15 12 5d 1d 85 1c 8c bf 0c 25 d3 df 67 ef b4 bf
       -0.01372627254353013 -0.0817780419776179
0000c0 ef ae c2 1d 6d f4 b7 bf 5b 89 68 1b 1d c5 c1 3f
       -0.09357339836668264 0.1388279327230276
0000d0 b1 59 63 37 61 1d a2 bf e3 7e 69 33 42 79 b7 3f
       -0.03538039971469987 0.09169400935342824
0000e0 01 06 1f 2c ab c3 c1 3f 54 0a ef 2e 11 cc ac 3f
       0.13878383306841616 0.05624440858766336
0000f0 c4 31 96 9a c6 0e c3 bf 09 4f ce 16 47 43 a2 bf
       -0.14888842151812132 -0.035669538053438705
000100 cf 12 fe 64 04 20 af 3f c1 6c 14 02 11 a0 c5 bf
       0.06079114659136097 -0.16894734002639747
000110 78 6b 42 dc e3 aa aa bf b4 ce 82 ff 56 c9 97 3f
       -0.05208503783906954 0.023228988022948996
000120 8f 10 82 3e 9c 3e b8 bf fa f3 86 28 f3 ae a5 bf
       -0.094705357800253 -0.04235038633076012
000130 a7 79 30 39 85 76 b6 bf 02 13 67 56 c8 a1 99 3f
       -0.08774597784256476 0.025031214021299604
000140 3a 8c e8 4e 02 2d c0 3f c5 64 6c ee 7f 05 60 3f
       0.12637356617878642 0.0019557474764836124
000150 3a 7c c3 61 4e 4e 3e bf 77 72 ba 05 0a 35 c1 bf
       -0.0004624310838731747 -0.1344311264009723
000160 52 6d b1 f7 42 1f 92 bf 58 bf 87 01 f6 45 c1 bf
       -0.01769737850950765 -0.13494753908843893
000170 a0 0f d2 2f 3b 08 93 3f 28 4d 57 9d 43 50 6c 3f
       0.01858608703015785 0.0034562416646878487
000180 5a f1 bf a2 5c 59 d0 bf 8e c3 83 45 72 a2 a0 3f
       -0.2554542149880682 0.03248936747139118
000190 55 37 27 6e 62 16 c4 3f b5 8b 3a 99 1e 80 9b 3f
       0.15693312052320132 0.026855924703919693
0001a0 85 df 59 83 6e 61 6c bf 6f 42 bb 22 c1 99 c3 3f
       -0.0034644278010169138 0.15312971301911513
0001b0 99 cb 03 ee 11 4f 92 bf a2 0c 93 d5 6b e0 d4 3f
       -0.01787975325801092 0.32619758469463467
0001c0 e4 d2 54 e6 7b 51 c2 bf 81 99 e4 f4 e8 15 a5 bf
       -0.1431116938271294 -0.041182784933243795
0001d0 73 6d a4 78 21 36 d7 3f 13 78 b2 44 db 2f a9 3f
       0.3626788786075032 0.04919324124897186
0001e0 49 bb 3d 46 e7 3a dc bf 41 3c 1a b2 64 d0 ae bf
       -0.4410951791714309 -0.06018366502859652
0001f0 fe 65 3d 9d aa 67 b1 3f 6e d7 0c 6b 9a 72 a7 3f
       0.0679880746733019 0.04579622799648929
000200 23 be 0a 64 42 86 97 bf 19 ab ad ac 15 18 e4 bf
       -0.022973096233441247 -0.6279400227188915
000210 ee 79 d9 17 e9 17 b1 bf aa 6f 11 66 bc 74 8c bf
       -0.0667710955835685 -0.013894531121131443
000220 2d f0 ae 1f f0 26 c3 bf 45 24 66 e8 dd 91 9d bf
       -0.1496257929519528 -0.028876750287541126
000230 53 7a fa 7d b6 af c3 3f fb 37 7d 77 4e c1 bc bf
       0.15379983092585067 -0.1123246232720873
000240 90 d9 da d6 f6 db a2 3f 23 6f 5a 26 7e 79 a9 bf
       0.036834443786051385 -0.04975504129580901
000250 13 8b 2f fa ef d4 a0 3f ac 67 80 b8 c5 5e db 3f
       0.03287458352112629 0.4276594449780713
000260 b4 45 b3 cd cd 57 af 3f 96 73 02 16 03 1c 9e bf
       0.061216765746972795 -0.02940373250804703
000270 17 db e2 45 ea f8 9f 3f e9 1d 67 ce 8a e9 6c bf
       0.031222973361504005 -0.0035293303546699473
000280 be a8 d6 b9 2e 60 c3 bf 58 33 51 6d ea a8 b5 bf
       -0.1513727576651202 -0.08460869950176908
000290 e9 6c 4c 28 5b 1b 8b 3f 2c b6 de fb 94 3c c8 3f
       0.013235771338762041 0.1893488149484467
0002a0 9e cd b4 85 a8 fd ac bf bd 2e 63 ec ec 2c 93 3f
       -0.05662275917202496 0.01872606461328873
0002b0 a2 2b b8 6d 26 b2 c1 3f 36 be 3e c8 88 54 ac 3f
       0.13824920995133733 0.05533244556806631
0002c0 05 7f fb ce c5 cd c5 bf 5c 8c 40 cc a6 74 9c 3f
       -0.17034218412936056 0.027788740364610084
0002d0 3f 7d 84 1c e1 d2 c1 3f 2b 93 48 71 9b b6 90 bf
       0.1392480267759115 -0.016321591176296096
0002e0 31 1a 89 5e 2f db b5 bf 6f 50 03 61 cb df db bf
       -0.08537574823376627 -0.4355343291656543
0002f0 ae e6 1c e4 fb 6a 59 bf 05 a3 99 e8 24 de d9 3f
       -0.0015513858674708714 0.40418360438211237
000300 a8 e8 f4 87 b8 7a ac 3f bc 63 8f 87 55 17 9d 3f
       0.05562378558757192 0.028409325026448093
000310 af 37 03 2f e4 00 c1 bf bb f0 5f bf d2 18 b3 bf
       -0.1328397016099507 -0.07459752247081301
000320 03 5a 08 49 c1 64 d1 bf e2 d6 23 2e 27 bf 80 bf
       -0.2717745984276975 -0.008177095504361135
000330 68 fa 0d e9 e2 6f b0 3f b9 ab ba 1a af 55 cc 3f
       0.06420725049790976 0.22136486821304205
000340 b1 42 85 90 ce 4f a9 3f 90 1b 81 16 7a 7e e4 bf
       0.049437003270786824 -0.640439075425876
000350 b3 e2 39 34 00 9e 9d bf 64 bc b1 e8 c0 85 b1 bf
       -0.028923037707928766 -0.06844716721546856
000360 92 8d cd 8f f5 f1 c0 3f 7a f2 c2 24 86 2d a3 bf
       0.13238400956752777 -0.0374566955447095
000370 10 5a f8 3a eb 54 81 bf d6 c4 73 e6 53 80 ae bf
       -0.008462751137853025 -0.059572812920927795
000380 39 2a 5c 7c b6 80 a7 3f 5e 09 0e 94 f4 f2 a4 3f
       0.045903876000086226 0.04091610247907583
000390 6a 8c c5 4b 4e 7a 88 bf a2 b6 99 43 79 45 df 3f
       -0.011952029883735633 0.4886153373871399
0003a0 6b 03 f1 53 89 06 b7 bf 39 ec 51 ca a1 1a 92 3f
       -0.08994348811485302 0.01767971799243304
0003b0 21 ef 28 d5 c9 4a 85 bf 33 f8 2a 95 79 41 b0 bf
       -0.010396553819297662 -0.06349906818192678
0003c0 6b 29 d5 fd 79 c5 b3 bf 54 13 f2 9b ee 6c be bf
       -0.07723200270735268 -0.1188496714331227
0003d0 64 84 7b 69 a3 3d a4 3f 2d 3c 1c 68 49 f7 c8 bf
       0.03953276312473333 -0.19504659255514536
0003e0 31 da 68 26 d4 27 d1 3f 15 29 06 2e f1 a8 e0 bf
       0.26805595160422785 -0.5206228159816272
0003f0 ed 10 85 c7 bc b1 8a 3f e6 94 b1 90 80 87 c4 3f
       0.013034319723950161 0.16038519921418198
000400 cb d7 cd 13 ae a4 c6 bf 14 7c d7 28 eb c5 d4 3f
       -0.17690063445087242 0.32457999218417055
000410 8e 2e 40 e8 7c d4 c4 bf 10 ef 4e a7 9e f0 bf bf
       -0.16273461666456907 -0.12476531586338191
000420 2e 92 69 4a de b6 8f bf 08 f2 4f 2e 76 b1 98 bf
       -0.01548551239574988 -0.02411446244876639
000430 6f f3 7a 27 00 b2 7f 3f 3a 8c 74 0e e4 5c d1 3f
       0.007738113977833957 0.2712946072735495
000440 a9 de 18 b7 d4 85 cd bf 60 7a c1 1d 51 12 d0 bf
       -0.23064669552126318 -0.25111797242963085
000450 a6 f4 09 07 93 ba b4 3f da f3 b4 e6 4b 4a d1 bf
       0.0809718982872761 -0.2701596978184263
000460 5c e3 ce 54 7b 7c e1 3f 30 ab 38 00 bc a9 c3 bf
       0.5464455276879607 -0.1536173821526403
000470 cd 65 42 c2 04 99 c9 bf 6c 27 ca 23 5d 28 a8 3f
       -0.19998225674934958 0.04718295156369731
000480 33 38 8a 12 d2 00 aa bf a2 82 d6 30 11 bf bc 3f
       -0.05078751064603217 0.11229045336086554
000490 10 c5 00 54 02 6d c5 3f 6c 85 41 d1 24 46 c3 3f
       0.16738919355115245 0.1505781194455652
0004a0 55 3a 4e 54 2b 5d a8 bf dc 3c 28 90 c2 47 7e 3f
       -0.047585825005729866 0.0073926544305457885
0004b0 89 dd 20 c0 7e 16 b8 bf 89 84 d1 4a 68 97 57 bf
       -0.09409324827799116 -0.0014399069289299535
0004c0 e6 5d 26 c8 10 3a af 3f 1d f6 3d 79 3e 92 8e bf
       0.060989880020482265 -0.014927375864995313
0004d0 98 69 f1 9b dc 8f a1 3f 63 f7 68 79 95 49 ba bf
       0.03430070308305061 -0.10268530096160826
0004e0 a6 1f 76 cd 2a ef 85 bf 39 4f bb 18 97 53 b1 3f
       -0.010710081477341604 0.067681735551841
0004f0 9d 36 cc 8c 8a f6 78 3f a0 ec f7 eb dd e3 84 bf
       0.006094495020773441 -0.010200246585546247
000500 9a 66 be fa 4b 12 bd 3f 17 4d ce e8 01 d6 b6 bf
       0.11356043693231258 -0.08920299466835889
000510 16 3f cc 0e de b6 94 bf e0 59 7b 0b ec ee a5 bf
       -0.0202288338214763 -0.04283845558318311
000520 1d dd 13 cd 2b 3d b9 3f 8c 2b e4 f3 74 22 a5 bf
       0.09858964688088574 -0.04127850987614243
000530 09 42 ec 70 81 3e ba bf 98 bc 11 8d c4 e1 b5 3f
       -0.10251626021295847 0.08547619289469066
000540 47 bd 4e a6 be 47 c4 bf aa fb 76 89 66 5f 88 bf
       -0.1584394752548894 -0.011900712080089654
000550 5a 87 43 8b 80 ba c1 bf 23 10 a3 d1 46 97 a4 3f
       -0.13850409317006546 0.04021664914174063
000560 47 1a 9c ed ec 67 ac bf 71 d3 1e c1 96 26 d1 3f
       -0.055480388646220784 0.26798027858176626
000570 95 11 b1 37 82 7a a6 bf 64 b1 36 b1 62 0d d0 3f
       -0.043903416918087114 0.2508169870950694
000580 71 92 11 f4 b6 7c 8a bf 16 7e bf 19 5a 91 a8 3f
       -0.012933186839469731 0.047983947413509906
000590 d7 31 c2 63 3b 6c a6 bf 1c 8c 55 ba 46 64 c7 3f
       -0.043794494559822254 0.18274768923137763
0005a0 48 13 e0 f7 9e ae c1 bf c3 b3 75 c2 f3 58 a1 3f
       -0.13814150908742762 0.033881776321187405
0005b0 8a 7c d0 fa 0f ae bf 3f 02 c7 53 7a 2b 05 c0 bf
       0.1237497317638249 -0.1251577708531429
0005c0 62 f0 6f d9 02 0f c8 bf d7 a2 73 48 2a 01 d3 bf
       -0.1879581033425693 -0.2969461162124793
0005d0 be 5b 3f 91 e1 4f 93 3f 66 85 dc fc f3 80 d6 bf
       0.018859409799769848 -0.3516206712102615
0005e0 88 b2 0a 4e 66 6f c4 3f 97 91 60 aa 5d 62 b4 3f
       0.15964964686044802 0.07962594422912726
0005f0 9c 1f 39 9b 09 8e dd 3f 7f 5b 46 8f 6b 82 a9 bf
       0.46179428251752497 -0.04982315181694385
000600 c5 7a b4 35 2d 73 cd 3f c5 47 51 db da 4d 7c 3f
       0.23007741091074344 0.006910185727138034
000610 c9 bc 27 72 e2 3d b3 bf ab 41 d8 de e6 c2 c8 bf
       -0.07516303336136611 -0.19344793206302077
000620 40 6f 40 23 32 ae 9b 3f 52 8c ec c8 b8 79 b1 bf
       0.0270316919341973 -0.06826357751246917
000630 e1 5b d5 7e 00 3e a1 bf 19 43 d4 66 9b 8b 8a bf
       -0.033676162226292446 -0.012961591792675574
000640 d2 5d 50 66 f5 9a 70 3f 06 ad 8e dd 15 af a9 bf
       0.004054030029713345 -0.05016392068440649
000650 1a 7a 09 73 c4 bc 7b 3f c7 74 a4 ac df cf b2 bf
       0.0067718194773918276 -0.07348440136816513
000660 7b e4 2f 2f 88 c6 c5 bf 22 03 2a 99 02 6b b9 3f
       -0.17012121490532536 0.09928909530027544
000670 ff 44 45 ec 1e 2a 6a 3f 57 d3 bb b2 9f 8c b0 3f
       0.003193912884093763 0.0646457492219502
000680 cb 7b cb 9c f8 bd c7 3f ef ce 2b ee db 00 d2 3f
       0.18548495918272886 0.2813024354829698
000690 ba 0e 8d c3 98 c2 83 3f cb 6b 83 45 6b 8c 9c 3f
       0.00964850756429968 0.027879406087645536
0006a0 95 5d c4 8d 0f e2 ba bf b8 37 d3 24 66 20 be 3f
       -0.10501191340551082 0.1176818694977716
0006b0 d5 8d d1 4b 9b bb d2 bf 82 0a 74 bc cf 1a c0 bf
       -0.29270059971005696 -0.12581822110958646
0006c0 5b 6b 11 97 c8 81 a2 bf 11 8a 38 83 85 66 b7 3f
       -0.03614641994564379 0.09140810445436666
0006d0 d9 03 b8 ea c7 3e aa bf c7 fb 31 f6 55 bd 9f 3f
       -0.051260230447958306 0.03099569621235412
0006e0 d9 72 b2 f2 b0 9b d1 bf 3e 9c b0 32 70 67 c3 bf
       -0.27512763691792724 -0.15159418559162136
0006f0 dc 54 f1 db 61 37 cf bf 40 8f 85 e3 7b 53 9c bf
       -0.24387763251676275 -0.027662215959380676
000700 c4 7a a7 b0 94 5c a0 bf a8 17 12 45 0b db e6 3f
       -0.031956335605845904 0.7142387723003951
000710 a1 8e 25 9b ed 09 c8 3f 29 00 eb 72 2f 19 e0 3f
       0.18780298305056412 0.5030743832103372
000720 dc 47 21 fb 32 71 7d bf 88 17 2d 48 ab ca aa 3f
       -0.0071880332416913405 0.0523274922948494
000730 0d 27 8c 88 b7 dd 76 3f 90 32 8c a5 67 8b d1 bf
       0.0055825394890776205 -0.27413359801065784
000740 a6 6a 08 61 d7 a3 e0 bf 3f f4 9d 23 cc 69 77 3f
       -0.5200001616643319 0.005716130655739226
000750 8f 4e 3a 19 0c 6d 80 bf 4e 29 27 32 2f f5 da bf
       -0.00802049114216821 -0.42121486566306465
000760 ad cd 8f ce 85 d9 c7 3f ed 77 dd 70 5a 58 d4 3f
       0.18632576547643734 0.31789265653594506
000770 13 30 0f f6 e5 cb 81 bf c4 84 1b b8 e2 c1 91 bf
       -0.008689686366686577 -0.01734117745116205
000780 b2 a0 8f df 12 ba e0 bf 10 d7 4e 65 9b 73 86 bf
       -0.5227140776087451 -0.010962690381215917
000790 ce cb 6b 21 1b e9 39 3f 8d bf b6 e0 8e e0 d5 bf
       0.00039536392561883855 -0.3418309397193234
0007a0 68 81 be 6f 05 b4 83 bf ab 23 86 a4 1a 46 9e bf
       -0.009620707008992382 -0.029564300815340932
0007b0 88 90 1d d1 e6 39 b4 bf 3f 68 3d d1 cb 08 af bf
       -0.07900850873335419 -0.06061398438642173
0007c0 80 0b cc d4 78 f3 be bf d7 14 c1 28 12 c5 c3 bf
       -0.12090258784523478 -0.15445162763550144
0007d0 4d fa b0 b9 bf 9f e5 3f 0c c1 40 3a 52 ed b6 3f
       0.6757506014617519 0.08955873415175492
0007e0 fd 6f f6 71 22 95 9d 3f bd 94 c2 65 05 f7 b1 3f
       0.02888921566555779 0.07017549261452678
0007f0 9d bb 92 8f e7 1a c1 bf 37 b8 56 cc 93 14 e4 3f
       -0.13363356123360584 0.6275118819228344

fc.0.bias f8 [100]
000000 52 04 01 59 54 f5 b8 bf 3b 76 fd 74 ec ce 84 bf
       -0.09749343083332576 -0.010160300560239857
000010 be bf 93 fe 3e 40 85 bf 72 87 f7 5e 2c d9 bc 3f
       -0.010376445907667061 0.11268880194213951
000020 5e f7 bd a3 a8 86 96 3f 85 de 47 0d 33 31 91 bf
       0.021998057359716376 -0.01678924339827727
000030 18 23 49 c7 40 93 a5 bf a7 00 b6 55 48 fc 7e 3f
       -0.0421390765446345 0.007564814145894306
000040 32 9c ff 0b ff 2d b8 bf ac 59 09 92 92 14 6c 3f
       -0.09445184748584337 0.003427778501911413
000050 df 01 c0 fa 7d e7 8e 3f 93 b9 8b 3a 22 d9 a7 bf
       0.015089973654540621 -0.046578473707870625
000060 81 06 61 2c 9b 6d a0 bf 6b 79 42 0e f2 03 a9 bf
       -0.03208622853027255 -0.048858227005655085
000070 b6 ac e2 e4 09 38 b4 3f 84 f1 ce 25 54 82 aa bf
       0.07898008192084913 -0.051775579085616946
000080 ff 02 0d fa a2 70 18 bf 45 38 83 89 4e 41 85 3f
       -9.32311509247545e-05 0.01037846905856211
000090 b0 79 65 51 aa f7 87 3f ee 53 32 90 10 cf a5 bf
       0.011702852829952842 -0.04259540329181975
0000a0 06 d2 cb d1 e7 10 9e 3f 8e b3 73 9d b9 79 6a 3f
       0.029361364536230304 0.0032318711561089624
0000b0 93 2e b7 08 9f c7 99 bf 09 97 66 c0 df ab 5b bf
       -0.025175557047801233 -0.0016889271806603287
0000c0 98 d5 54 29 e2 e6 7f 3f 7f e9 9b 52 85 79 92 3f
       0.007788546984831689 0.018041690032057908
0000d0 3e 45 7d c8 3f b5 75 3f 88 98 1b b0 ae 2b 9b bf
       0.005299805787062182 -0.02653382253529249
0000e0 76 e7 dc fa 3d a8 c2 bf ae de a0 00 62 24 5b bf
       -0.14575934170880672 -0.0016566235594960665
0000f0 60 04 01 14 6f d7 83 bf e4 81 7e db 35 a8 88 bf
       -0.009688251302693185 -0.012039585839205232
000100 d8 65 88 fc 31 c4 a7 bf e0 ac 83 55 4a 0d 96 bf
       -0.04641872604060965 -0.021535073727972143
000110 70 56 61 8c 77 a7 98 bf a7 39 8d 98 11 f3 ad bf
       -0.02407633585274599 -0.058495092269925046
000120 7b ec d9 e5 89 ed b2 3f 53 ca 1d ee 5e 26 3d bf
       0.07393705236056462 -0.00044479196196004384
000130 a1 37 15 cb 72 b5 87 bf d7 52 96 66 01 a0 ba 3f
       -0.011576554129216822 0.10400398974008894
000140 c0 cc 92 05 ee 0b 92 3f ce 03 00 fb c2 bc a3 bf
       0.017623633470702726 -0.03854951204267075
000150 56 d2 b1 90 8f 64 75 bf 60 dd 82 7e a2 bb 9a bf
       -0.005222855378737087 -0.02610639474070575
000160 4c 01 2f 31 59 6e aa bf 95 bb 73 7c 26 64 9a bf
       -0.051623141530856204 -0.0257726682147524
000170 ad c4 31 d8 5f 94 99 3f bd c7 e1 10 bf e0 b8 bf
       0.024980065889796666 -0.09717935716778832
000180 f6 45 af 69 79 52 a2 3f 0a ef f0 81 20 82 2c bf
       0.035785478735885265 -0.00021750113316609143
000190 6b 3d 34 56 74 06 a0 bf c6 8e a2 7e 8d 16 a3 3f
       -0.03129924347205811 0.0372814385493974
0001a0 8b 23 e7 e2 f2 50 af 3f 57 1e 5c 50 00 ff af bf
       0.06116446513949033 -0.06249237996058515
0001b0 d1 1b dd be f5 03 8b 3f 6a 00 57 5b 2e de 54 3f
       0.013191146743009615 0.001273675222691418
0001c0 2d 72 bc 00 eb 91 93 bf 8d 43 e6 1a d2 93 98 3f
       -0.01911132041924384 0.02400139130765271
0001d0 d9 12 5f 94 c3 b4 c7 3f 74 90 37 d5 57 0a b7 3f
       0.18520397896477084 0.09000157313818297
0001e0 62 bb 91 81 8b 27 7c bf 2e 6c ad c6 3a 07 b5 3f
       -0.0068736504991722975 0.08214156485102883
0001f0 2d 2a 21 02 af 26 a1 3f 7b 24 89 21 2f 1e 8a 3f
       0.03349825764651757 0.012752884112290133
000200 73 51 cd 86 7b 45 c2 bf b1 a1 8e 9b 52 c3 a3 3f
       -0.1427454384053238 0.03859956883326577
000210 19 d8 17 e1 d7 cc c7 3f 27 e1 c0 94 45 1d 95 bf
       0.18593882075191528 -0.020619475559415037
000220 fd 91 c1 44 a3 71 9d bf 38 15 52 78 1a 40 23 bf
       -0.028753806182423947 -0.0001468689262404206
000230 2f 4f 70 96 c8 cb c3 bf 64 5a f3 a8 7b 81 84 3f
       -0.1546564802707677 0.010012594312155794
000240 17 ed 97 38 f3 24 91 bf 79 7a d2 2b b0 cc b7 3f
       -0.01674251587790562 0.09296704358937714
000250 d6 d5 4a b4 b7 43 94 bf 9d e7 b6 d6 c7 66 9a bf
       -0.01978957212368989 -0.025782701950198484
000260 4e 8a 6b 98 d1 d4 64 bf d4 4f 1a f8 c7 51 83 3f
       -0.002542886129377287 0.009433328875537862
000270 8f 2e 55 6f 4d e0 9a 3f 75 03 10 26 8f 72 ac 3f
       0.026246271057330402 0.05556151713972827
000280 57 9d 9e 1d 21 fb a4 bf d5 c4 27 78 ed cc 65 bf
       -0.04097846495215645 -0.0026611936639190184
000290 7f 42 39 7b d7 e9 b8 bf 2f df b3 d1 6f 1b b7 bf
       -0.09731814154043582 -0.09026240224545455
0002a0 61 7c 06 13 4f c2 77 3f 3b 01 2d 81 39 e1 87 3f
       0.0058005417671714585 0.01166005063498742
0002b0 7d fc 9f 9c 51 94 a4 bf 82 d5 ca c1 56 0c 71 3f
       -0.040194082612281946 0.004162157911811961
0002c0 16 3b 72 05 98 67 d1 3f 7a 20 fb 75 8b d5 c8 3f
       0.27194786578995556 0.19401686917104027
0002d0 af 48 a3 23 fd 0d c2 bf 00 c8 cb 42 c0 d8 a0 3f
       -0.14105190506103812 0.03290367904072866
0002e0 e7 c8 a0 fc 1e 3d 79 bf e6 f5 52 79 8a 3f 9b 3f
       -0.006161805193231929 0.02660957684996914
0002f0 a9 15 f1 79 f1 0c b1 bf 64 4e 79 6e a5 1d a0 bf
       -0.06660374857991393 -0.0314761826854493
000300 45 66 b2 e9 7f a3 8b bf ff 86 3a 5f 56 f5 b3 bf
       -0.013495444602358417 -0.07796230149190463
000310 be c3 a5 88 58 05 9c 3f 92 3d 88 b5 bd e0 bb bf
       0.027364142742445578 -0.10889802629411907

fc.2.weight f8 [100, 100]
000000 53 56 4c 6a 07 2c 98 3f 10 91 dd 68 29 bb ad 3f
       0.023605457175184984 0.05806855588051196
000010 f4 10 8f 56 1d 54 b7 3f 7e 07 27 6b d3 0c bd bf
       0.09112723696950181 -0.11347695699717339
000020 79 99 b0 a1 9a a1 b3 bf 77 3c 80 51 e5 b2 9f 3f
       -0.07668463180070785 0.03095587072317271
000030 00 b9 a9 84 9f 95 c0 3f 04 59 fa 12 ca 79 ab bf
       0.1295661351936772 -0.05366355401672432
000040 a5 a4 ca 6c 31 8b 98 3f e0 dd 13 c8 98 d0 94 3f
       0.02396847940932347 0.020326983653800812
000050 25 f6 e4 fc d2 6c a4 bf 83 3f b4 24 13 4b b2 bf
       -0.03989276253785715 -0.07145805021377609
000060 9e a3 fe 06 87 d2 99 3f 1d fd 2a b3 bb f4 bd bf
       0.02521716098968662 -0.11701558231560623
000070 fd 3d be be c1 17 c7 3f b2 c6 82 97 9f 49 ca 3f
       0.18041250051145133 0.2053718080328984
000080 dc f2 22 b0 28 ac cc 3f 92 8a 4a 92 54 37 c9 3f
       0.22400387382903986 0.19700104849933503
000090 95 57 c2 0b 73 42 75 bf af 2d d1 2b 6e b5 b0 bf
       -0.0051903242093852735 -0.06526840753320216
0000a0 fc 87 73 a3 46 f9 a3 3f 9d a4 78 38 37 f8 90 bf
       0.03901119942908335 -0.01657186777280072
0000b0 8f d3 cb 8c df fc b3 3f fe cc 06 16 3e dd 9d 3f
       0.07807728946120406 0.029164285749811995
0000c0 8a e4 d6 22 b8 fc c0 3f aa b1 35 5f ec ea c1 3f
       0.1327123804201487 0.1399817910090751
0000d0 ea 16 46 13 cb 85 b5 3f f3 ab 17 a9 8e b9 95 3f
       0.08407277317573017 0.021215657301507162
0000e0 c4 16 c0 7a 57 fa a3 3f db 6e d3 95 6d e5 b4 3f
       0.039019330724881424 0.08162579448565614
0000f0 4a 63 21 b0 a3 11 a2 3f 6b a5 6f 9a 7b 6f c5 3f
       0.03529082798986012 0.16746468582941118
000100 c6 e9 8a 04 0e af c9 3f 75 ae 12 2b bf 1a 8a bf
       0.20065474721725546 -0.012746327878935685
000110 16 b5 69 eb f9 e6 a9 bf 5c b8 88 cc c5 86 b3 3f
       -0.05059033392613281 0.07627521747119331
000120 da da 22 db 43 3b b1 bf b3 89 c1 be 1a 51 b8 3f
       -0.06731056308749875 0.09498755604867064
000130 f4 31 62 e3 79 16 6c 3f 01 e2 c8 6f 49 ab bf 3f
       0.0034286862019767776 0.12370738009565942
000140 cd 01 7a ed 80 d8 9c bf 2c 6b b0 b7 66 e0 bd 3f
       -0.028169645780964637 0.1167053411922267
000150 43 69 39 1f 58 68 b1 3f 70 99 ab 1c 8c 93 8d 3f
       0.06799841654120535 0.014441580414722849
000160 bd e0 dc c4 b2 39 a6 3f d5 df d4 69 2b c5 85 bf
       0.04340895321951297 -0.01062997738573294
000170 10 2b 8f ee de 36 c3 3f 70 ba 06 91 9b 83 84 3f
       0.15011202476883811 0.010016646731711293
000180 35 3f fd 7c 6a 02 9d bf f5 5f fd 15 c8 3c a4 3f
       -0.02832952869294943 0.03952622669629583
000190 a8 83 ec 96 a2 66 b0 bf 90 b3 a0 81 21 a4 91 3f
       -0.06406608757653365 0.017227672135209426
0001a0 b0 f5 29 43 bf b0 c9 3f 3c 31 69 c2 3b b3 c4 3f
       0.20070639399993473 0.16171977036209195
0001b0 4d e5 ef a3 ae 64 c3 3f 6a e5 1d 50 a6 42 a4 bf
       0.15151007656803941 -0.0395709965513998
0001c0 c1 14 8d a3 f3 f2 bf bf 74 00 a7 c6 4e 4d ca 3f
       -0.12480089896151282 0.2054842443449193
0001d0 f7 ea de e8 c9 bb c3 3f 76 5b 4e 9d 53 be b1 3f
       0.15416835661547854 0.06931040373306793
0001e0 99 6e 18 e6 79 ef b4 3f e9 aa 5e 01 69 83 bb 3f
       0.08177911632122416 0.10747391017381926
0001f0 a6 32 a6 3e e5 73 af bf 58 e0 15 69 e5 89 84 bf
       -0.061431087396248515 -0.010028641004041258
000200 f5 8b db 15 5a f0 aa bf b6 09 df df 89 57 a1 bf
       -0.052614989441074934 -0.03387099130442854
000210 69 b6 ce e7 c5 9f c0 3f cf c4 44 50 2f ff c0 3f
       0.1298758870956818 0.13278762263647656
000220 9f 30 e4 35 98 c1 63 3f cc 81 5e 24 dd 72 93 bf
       0.0024116490232071876 -0.01899285826186929
000230 ac ef ca 64 b5 20 ad 3f ed 8a fb d0 02 63 be 3f
       0.05689017157916906 0.11869828798402766
000240 93 e8 6f 40 d7 3b b4 3f 06 5f 92 cf b8 61 af 3f
       0.07903809855625558 0.06129243406138411
000250 df e5 98 c9 90 51 bf 3f 1a ec bc f5 7f ee bd 3f
       0.12233834192092939 0.11692046880209297
000260 13 7f 9c 26 d2 2d a9 3f 11 dc e3 52 dc a7 c3 3f
       0.04917771073655621 0.153560200189276
000270 b6 9d 7c d2 75 93 5f bf 46 32 c5 b1 9c 48 b2 3f
       -0.0019272471053656099 0.07142047252745795
000280 74 ad 6b 69 30 a3 a9 3f 41 b2 fb 8c 19 e4 c2 bf
       0.05007315909264323 -0.1475860536951519
000290 cf 62 15 df f5 ea c0 bf 14 7c 79 ea e0 b1 cf 3f
       -0.13217042343855787 0.24761592339470495
0002a0 39 af 55 39 ff 98 b2 bf b8 b7 6e 14 c6 1b a1 3f
       -0.07264704847119398 0.03341502189083151
0002b0 84 8a b4 db 7f ac b9 3f 31 dd f6 a5 e6 03 b1 3f
       0.10028838266274859 0.06646577407706357
0002c0 dd 84 07 5a 61 cc b7 3f 4d 57 9d 35 e9 22 b7 3f
       0.09296234558088963 0.0903764491934826
0002d0 47 b8 b9 5d 55 27 b1 bf e7 2a b4 98 b5 12 b6 3f
       -0.06700643099040447 0.08622298219794865
0002e0 f4 0f 3b 0e 17 74 a5 bf c0 82 97 84 48 99 78 3f
       -0.041901321875712855 0.006005557320776844
0002f0 78 e6 51 fa 0a 0b b7 bf ac 7a 35 95 3b d7 a2 3f
       -0.09001225100828403 0.036798345531442095
000300 c7 62 5d c1 96 b0 9e 3f a8 3a 86 06 8a f0 b8 3f
       0.029970508148241117 0.09742033633504354
000310 f9 b9 59 fa 83 91 af bf a7 e4 38 cb e7 d7 91 3f
       -0.06165707045589736 0.01742517640943633
000320 10 a1 6a 1e 17 ef b1 3f 0d 87 5a c7 e4 7c cc 3f
       0.07005447857466529 0.2225614522367824
000330 b8 48 75 f7 02 4b b7 bf c4 dd 8e b1 79 cb ca 3f
       -0.09098833600481526 0.20933457536533073
000340 75 3d 04 6e 7c fe cd 3f 53 33 6c b9 24 2c a8 bf
       0.23432879802610854 -0.04721178782901938
000350 d4 8e 77 48 7c 56 81 3f 45 d3 c1 52 72 98 92 bf
       0.008465739213483849 -0.018159662533850058
000360 97 cb cb b6 29 7a c4 3f aa 93 6f c9 b9 82 c2 3f
       0.1599781172331773 0.14461443267569268
000370 4a 67 52 e7 b2 89 bc bf 11 76 9e 80 9b 77 c2 3f
       -0.11147611758715673 0.14427512912963938
000380 e4 5a ac bb 90 ba b5 bf 9f bb 3f 5a 76 25 c6 bf
       -0.08487801153055902 -0.1730182591122373
000390 1d ac 12 85 37 5c b1 3f 26 b3 fc 5c 5e 91 b9 bf
       0.06781336783267063 -0.09987439890091973
0003a0 e3 da 1b 9a 48 c8 b7 bf 7d f2 6e c9 bd 64 6d bf
       -0.09289983522817695 -0.0035880762838743072
0003b0 2d 8d fb 6e 9f 3c 94 bf 78 29 29 cd 9a c5 a7 3f
       -0.019762507580606204 0.046429479164163234
0003c0 f2 6c b1 c5 cc ee ae bf 12 d4 d6 58 f5 d8 c1 3f
       -0.0604156485867068 0.1394335445199038
0003d0 bf 18 63 3c 97 fd a8 3f b2 9d 7a d4 15 aa cb bf
       0.04880974399707005 -0.21612809061956068
0003e0 82 31 d6 35 c6 23 b9 bf 6d ac cf b3 c5 eb a9 bf
       -0.0982021218716849 -0.050626924705135724
0003f0 70 be 37 c2 93 6c b4 bf 3e de 8f 25 05 2f a4 bf
       -0.07978175632137563 -0.03942123492737125
000400 df 71 fa ac 6b b9 82 bf 21 6b 93 54 85 1c 93 bf
       -0.0091427242435253 -0.01866348580083888
000410 c0 d7 2b e3 bd 11 b1 bf e7 31 6f 01 07 33 a4 3f
       -0.06667696758435593 0.039451807904331386
000420 a8 f8 61 3e c2 f1 95 3f ee a4 10 ff 9b 0c c4 bf
       0.021430048997438306 -0.15663480715128436
000430 f2 60 28 11 ad 85 ce 3f c2 be d6 c3 fc 40 92 bf
       0.23845446908740758 -0.01782603211694212
000440 97 f8 78 00 6d 14 ab bf 5a 52 02 3a 01 15 c3 3f
       -0.052890211398776525 0.14907851536249234
000450 1f 99 c9 c1 bc 71 c4 bf f8 67 ba 67 31 39 8f bf
       -0.15972098791389386 -0.015245805719406022
000460 4d 11 ef 7e 1e 69 c0 3f c1 fd 8b c7 16 dc a7 bf
       0.12820798108999512 -0.04660102067827721
000470 8e a6 a2 c0 91 bb a9 3f ba 68 0a 03 d0 c5 c5 3f
       0.05025916553979669 0.17009925983876945
000480 2d db e0 49 c8 e6 c4 bf 7b fb cf 14 ee 43 b8 3f
       -0.1632929192289451 0.09478652961841576
000490 95 a7 46 e9 fd a4 92 3f 94 c7 3f 4c 16 7c 91 bf
       0.018207518923794536 -0.017074917224767797
0004a0 84 52 ab d1 c6 2b 9a 3f 5b e5 41 e8 3d ff b8 bf
       0.025557619616693575 -0.09764468117091012
0004b0 1a 62 a6 c3 0f f4 b3 3f a3 70 c2 f5 ea 0c 96 bf
       0.07794283415422179 -0.02153365254399432
0004c0 81 5d a0 05 56 1c a5 bf 40 e1 0d 7e cb f6 bd 3f
       -0.04123181170160262 0.11704704120154918
0004d0 ae 64 5e d3 75 4c a5 bf 21 1b b9 0b d9 fa b9 3f
       -0.04159897046265236 0.10148388420303124
0004e0 f3 05 c8 bc 53 a9 b8 3f a1 e3 87 c1 7e 01 c9 3f
       0.09633372649115994 0.19535812806841782
0004f0 45 39 b3 8e 01 29 74 3f c5 83 e2 c1 02 d1 ab 3f
       0.0049219189488226055 0.05432900063284011
000500 86 36 f6 0d 03 d8 a0 bf fd 02 d5 c1 82 c3 ac bf
       -0.03289804025108105 -0.05617912880052776
000510 11 20 30 92 5c a1 a3 3f 53 75 cb 53 8d 7a c1 bf
       0.03834046635171274 -0.136552492061052
000520 dc 84 a8 6f 3a a7 66 3f 1c 59 d8 ea ef 5e 98 bf
       0.00276528752625947 -0.023799656590278592
000530 43 ee 3e 17 8b a7 bd 3f a0 b7 45 b7 18 b3 b6 3f
       0.11583775823140123 0.0886702964250774
000540 a6 a2 e1 83 73 2a ce 3f 4d d9 f4 95 2c fe 99 3f
       0.23567050876160528 0.025383659985174934
000550 6d 5a 28 18 e2 de 8b 3f 41 18 ff cd 6d 98 9f 3f
       0.013608709680778841 0.030854907701517446
000560 d5 85 3d cf 91 3c b7 3f 0c 22 bc f5 b5 1f b2 bf
       0.09076796826914031 -0.0707963681162555
000570 6b 87 72 cc 21 81 a6 3f ac 4f 0d 7e 10 44 ae bf
       0.043953949171977445 -0.059113040339666995
000580 b5 c0 12 6e 0a 81 61 bf 0d 4f 62 88 44 63 c1 3f
       -0.0021367267332480185 0.13584190997482218
000590 99 30 59 da de 24 78 bf c2 b3 56 b1 33 19 ba 3f
       -0.0058945374672242585 0.10194705085332514
0005a0 66 11 d6 c3 49 27 b0 3f 9f d3 0b b4 9c a5 89 bf
       0.0630994895091753 -0.012522911305021199
0005b0 0b 13 93 0b 93 13 93 3f 15 46 17 5e be c5 b9 3f
       0.018629357892467484 0.10067357823506769
0005c0 52 91 d3 7e 31 b5 b1 bf f2 fe 4f b8 39 a9 c6 3f
       -0.06917104097698726 0.17703935145981792
0005d0 68 21 92 a8 00 c3 83 bf 92 70 b3 fd bb 6b 95 bf
       -0.009649281639455068 -0.020918786391903206
0005e0 18 5b fc 5f ea 31 b9 3f ab 00 71 d0 f0 98 c3 3f
       0.09841790049936738 0.1531048791675905
0005f0 98 16 5a b0 b3 22 ba 3f 51 e3 cf a2 71 bc a7 3f
       0.10209200911966787 0.04635958778812344
000600 0b 79 ed 63 11 b4 a3 3f f0 e1 73 59 7f 7b b2 3f
       0.03848318428821259 0.07219692167189584
000610 1f 7b 76 f0 2a 94 a3 bf 20 b8 16 a4 1d dc bd 3f
       -0.038239805081721416 0.11663995033333707
000620 f2 ec ac c6 0a e6 aa 3f 80 d0 60 a8 a9 0a a3 bf
       0.05253633189428254 -0.037190725139596204
000630 d0 fb ba 6f 5a 15 bb bf f7 0b 63 e6 88 d7 b9 3f
       -0.10579457500260436 0.10094504952125748
000640 87 ab 40 0f 19 58 87 3f a4 60 c1 4d 27 46 b4 3f
       0.011398502138112011 0.07919545791935662
000650 4e ab f2 f3 4a 99 96 bf f6 85 67 ed 21 9c a8 bf
       -0.02206914056720715 -0.048066196661022006
000660 eb 03 27 6b 36 1f c0 3f a0 0f ac 73 a0 57 d0 3f
       0.1259525321202369 0.25534831329445673
000670 d2 cc b9 66 8f f6 a4 bf 5f 58 4f d9 2b b8 aa 3f
       -0.04094360474564386 0.05218636539181953
000680 a1 c6 1f f1 70 70 a6 3f 24 3a 66 66 11 6c af 3f
       0.043826608118149986 0.061371368169705925
000690 cd ca 76 c0 cf 3a b7 3f db ad 8f 52 3a 5d 96 bf
       0.09074114273861796 -0.021840010918749413
0006a0 c6 0f d4 2c 2a 83 8d bf a1 97 15 18 de 13 a5 bf
       -0.014410333149960663 -0.041167202415450584
0006b0 a9 48 d3 81 29 0c b3 3f 39 28 0a a7 84 2b b7 bf
       0.07440432948650035 -0.09050778463475319
0006c0 bc ea d5 98 75 ea a0 bf 52 a6 b5 6a f0 04 a8 bf
       -0.033038782984438936 -0.046912682558126875
0006d0 c2 ea 1c 33 96 e2 c7 3f 9c 9b 8b 57 4c df 94 bf
       0.18660237785100803 -0.020383065074294757
0006e0 5f b4 43 79 e4 ba b1 3f f3 fe 6f 21 51 44 b5 3f
       0.06925800285871862 0.08307368341774772
0006f0 02 3c 54 2e 78 fe cb 3f 23 cb ea 8c e6 cc b2 bf
       0.2187032915321368 -0.0734390348468819
000700 9f 33 f2 fa 37 03 d2 bf a9 52 b1 76 7b 43 bb bf
       -0.2814464522023687 -0.10649844787378505
000710 13 17 1c 03 10 13 71 3f aa ae d4 b1 7c c4 bf 3f
       0.004168570086908979 0.12409190503665948
000720 47 62 ff f4 a0 b8 77 bf 6f b6 6e 9c 5e f0 a7 3f
       -0.005791310060850713 0.046755749316940924
000730 9f ab a9 f6 34 f5 8e 3f a3 11 fb 54 7b 14 a8 bf
       0.015116132524061686 -0.047031263469338634
000740 6a 17 02 9c 68 f0 cd bf 10 58 e7 2f 47 c7 9c bf
       -0.23389918916307845 -0.028103935526665735
000750 2d 52 7f 83 61 08 bc 3f 98 ab 74 f8 6e 19 b9 3f
       0.1095028825796553 0.09804433408559843
000760 db f6 30 bf c2 ea 72 3f 75 f7 b9 27 4e 67 b2 bf
       0.00461841652855607 -0.07188881368526075
000770 69 22 ed 49 03 f7 b8 bf 33 ba 66 3a 28 f3 a5 bf
       -0.0975191169246813 -0.04287076676279291
000780 b0 32 26 86 64 fa c8 3f b9 67 88 1d a2 07 bb bf
       0.19514137792829933 -0.10558522435203956
000790 61 f8 40 67 40 75 aa 3f c9 55 56 fc 34 f5 b4 3f
       0.05167580852911225 0.08186656151368434
0007a0 ad 8c 7a 3c 8d d1 b8 bf 30 2f 8d 62 48 dc 86 bf
       -0.09694750525027258 -0.011162343509247913
0007b0 94 ee 7b a1 e2 e0 b0 3f e1 e0 7a 66 f8 67 ba bf
       0.06593147699816831 -0.10314896108582473
0007c0 04 a4 63 41 23 2c ac bf 20 e4 08 99 f6 f3 81 3f
       -0.055024244052965826 0.008766104264497143
0007d0 4f 21 43 cf bd ec c5 3f 04 5f ce 29 cd 92 98 3f
       0.17128727550722053 0.023997502972263454
0007e0 38 98 54 c6 1e d1 a0 bf b0 64 62 d7 2d 83 57 3f
       -0.032845460615405775 0.001435084120691859
0007f0 ca 88 ec e6 35 38 60 bf f6 f9 ac 69 3c cd a7 3f
       -0.0019799282812452456 0.04648770132051887

fc.2.bias f8 [100]
000000 cf 1f fc 2a 49 6d cf 3f 9c 5f 50 4a 8b 88 c4 3f
       0.24552263831014762 0.16041699532138132
000010 8c a5 5a d8 4f c2 bf 3f df 12 ee db f6 e6 a7 bf
       0.12405871421892395 -0.046683992716713744
000020 59 c6 c0 27 01 8e a5 bf e1 1d 4b 92 12 a4 c7 3f
       -0.04209903345362127 0.18469459670289637
000030 6f fb a9 95 50 a7 ca 3f 33 fc 8a bc 1d 8c 9e 3f
       0.20823104198276662 0.02983137572550394
000040 91 c5 37 20 bc d1 c2 3f d6 fa 93 48 ec 90 97 3f
       0.14702560017716995 0.02301377480489005
000050 39 5c 44 72 0d e8 5d bf 96 91 8e 8c ed 33 cb 3f
       -0.001825345164496074 0.2125222145379097
000060 99 7a 07 a6 5d a2 b1 bf 70 1d b7 84 96 8b b2 bf
       -0.06888375571677798 -0.07244244327659088
000070 96 53 ef d3 29 be b2 bf 06 c7 49 2f 1a de a9 3f
       -0.07321416305724279 0.0505226309513898
000080 ba bb 08 1c 93 a6 b2 3f 74 37 ae 42 9a a6 98 3f
       0.0728542273943579 0.024073038406235495
000090 fd b3 08 ab 88 7e 76 3f d4 44 88 28 3f 4a a9 3f
       0.005491765842219995 0.0493945824602037
0000a0 96 2c c1 a6 e1 44 bc bf 5e f8 5e 75 91 e6 c0 3f
       -0.11042604752690219 0.13203638297085524
0000b0 91 87 85 d5 4f ed 95 3f 76 c4 39 a0 ea f6 b0 3f
       0.02141308537228032 0.0662676469016946
0000c0 14 65 7c 29 1c c1 b2 3f d7 12 a9 ac d7 c1 a9 bf
       0.07325912487830905 -0.05030702574416573
0000d0 6b 42 0e 93 b5 52 b7 3f 04 ca 5b c6 22 5f bf 3f
       0.09110579338290285 0.12254540770280903
0000e0 61 25 13 55 8e 1f a8 bf d2 5a 91 fe 15 16 c6 3f
       -0.047115753064256756 0.17254900865619632
0000f0 d4 1e be ee 5e be b9 3f 8c 4a 14 fc 1f 3c 9f 3f
       0.1005610783450906 0.030502795944878744
000100 6a 3f c0 28 bb 5c b9 3f 72 26 2e 7f 40 ee b4 3f
       0.09907121415039702 0.08176043610560571
000110 64 6f 0c 2a d0 23 b4 3f 50 5f 31 7a 4c 89 99 3f
       0.07867146517349749 0.024937815626201953
000120 97 66 26 81 bd 64 b6 bf 8f ae ac e9 33 27 b7 3f
       -0.08747467425419085 0.09044193701691426
000130 ad ed 56 d6 d8 8c b4 bf e5 aa 52 46 2e 78 80 3f
       -0.08027415497684016 0.008041726609311304
000140 60 e7 82 f9 4a 86 a2 3f e4 74 73 36 9f f8 c5 3f
       0.036180823285987485 0.17164983900776243
000150 0c 6c 10 a1 df a9 c5 3f 97 24 02 60 c2 91 8e bf
       0.16924662937603363 -0.014926451258604962
000160 7c 76 60 e7 50 23 c3 3f c1 9d 30 1a 68 6d b5 3f
       0.1495152597207613 0.08370066298868208
000170 73 a5 f4 0a cf 19 c0 3f 64 71 f2 09 2e 32 c0 3f
       0.1257876208776839 0.12653136716552205
000180 7f 7f c7 b8 db aa be 3f dd bf 98 42 6d 45 88 bf
       0.11979459058011165 -0.011851171107167541
000190 3c 5c 53 7b 42 cc be 3f 1c b1 68 ad d0 84 92 3f
       0.12030425558929009 0.018084774574320325
0001a0 88 61 2d 71 5e 7f 8f bf 24 4d 85 10 65 57 c3 3f
       -0.01537965567483536 0.15110457712817393
0001b0 cd 9c 0c 8f 6c a6 c0 3f 54 9f ad 9c 6b 8e ca 3f
       0.13007885918452758 0.20747132444671001
0001c0 42 bb 6e 30 c6 11 bf 3f eb cd 7e 6d 78 08 c9 3f
       0.12136496241030861 0.1955709967274822
0001d0 3e 04 96 01 3f 3e b1 3f fe 61 84 8a 6d 3b c5 3f
       0.06735605038376577 0.16587609542399656
0001e0 65 66 57 ac 6d c9 ca 3f 2f bf df e0 35 d5 af bf
       0.2092721072684071 -0.06217354173702316
0001f0 df 48 ea 4f 41 62 b9 bf 06 2a d9 13 f4 85 a9 3f
       -0.0991555042367369 0.049850108549964786
000200 d1 0e 49 05 84 1b 8f bf 00 39 2b ef 82 b8 9f 3f
       -0.015189200793549603 0.030977292869288853
000210 06 fb 54 1e 11 a2 b4 3f a5 b9 a3 f4 9a 93 a4 bf
       0.08059794416929486 -0.04018863903353357
000220 14 ec ce 1e 33 a7 72 bf 1b 69 a7 5e 37 5f a0 3f
       -0.004553985298964686 0.03197644262736984
000230 c4 5e 9e 66 86 e8 95 3f 74 00 f6 4c e4 3b a3 3f
       0.021394824994415598 0.03756631316628126
000240 5c 8d 8f a3 35 3b ba 3f 89 50 97 00 20 78 c0 3f
       0.10246596568281546 0.12866592434750526
000250 b9 b8 83 28 73 25 5c 3f 48 17 e6 42 55 99 94 3f
       0.001717913111913867 0.020116169174364346
000260 83 b2 72 69 0c 6e ad 3f f7 d0 c3 98 40 4a c4 3f
       0.05748022830207324 0.15851600131248464
000270 f0 5d bc 7a 97 8f 59 bf 10 b2 b4 c1 80 31 ca 3f
       -0.00156011383928056 0.20463571031849925
000280 d9 07 8c 4b ec 06 a5 3f 57 0f ee 0e 63 c0 a2 3f
       0.0410684435100987 0.036624045917988006
000290 36 7e 9f 04 c4 bf 70 3f af 72 7b c8 9c c7 b4 bf
       0.004089132018605881 -0.08117084402642648
0002a0 ab 34 b3 66 4b ac 9b bf 5b ef 73 ad 40 40 79 3f
       -0.027024438994705118 0.006164791723900577
0002b0 26 6e 45 4c b7 9a a0 bf 69 ee 26 d9 7f a9 cc 3f
       -0.03243038946194714 0.2239227114022129
0002c0 e5 93 ea c8 c6 04 c6 3f 50 7b 4e 3a d1 ac 95 3f
       0.1720207673107829 0.021167058166266017
0002d0 9b dd 93 5e 3a 4c a9 3f 38 11 db c7 53 eb b3 3f
       0.04940969852935525 0.07780955914774246
0002e0 a5 1c 8e be b6 11 92 bf c9 2d ce a6 94 99 bc 3f
       -0.017645697956620982 0.11171845505139467
0002f0 18 79 e3 bc a8 31 c1 3f 24 ec 25 70 c6 64 c3 3f
       0.13432797644686256 0.15151291347487572
000300 cc 97 05 81 5d 78 c5 3f c2 22 db 57 38 13 ba 3f
       0.16773575591940781 0.10185577530786374
000310 e5 64 4b f3 38 f2 a2 bf b8 f6 be e6 2f 3b b7 bf
       -0.03700426072982469 -0.0907468736977205

fc.4.weight f8 [100, 100]
000000 36 f9 11 c7 90 61 c4 3f 8e 3d 42 5b cc 4f c1 3f
       0.15922746391511006 0.13524774986261118
000010 63 a5 c3 37 af 12 a7 bf f8 89 82 c2 47 1f a6 bf
       -0.045064425999792566 -0.04320739983929295
000020 66 f4 5e 6d 00 55 a2 3f 38 e6 f2 48 dc 7a c9 3f
       0.03580476126760672 0.1990619045443951
000030 e7 1b ef 49 86 f0 a9 bf 78 5b d7 e7 f3 82 c0 3f
       -0.050663181805752626 0.12899636097310085
000040 2f 60 14 70 40 ae 95 3f c7 a0 89 ce 63 41 b5 bf
       0.02117253002242608 -0.08302902023717983
000050 cb 99 81 60 19 68 ba 3f 62 45 08 08 82 8d d1 3f
       0.10315092664823237 0.2742619589272036
000060 c8 99 a8 3a e4 67 b4 3f 93 34 0f 92 e7 a3 c1 3f
       0.07971025878996507 0.13781447059446758
000070 08 4a 96 48 d2 d1 92 bf 5b 6d 22 94 93 e8 94 bf
       -0.018378530197489723 -0.020418458858882143
000080 60 4f c7 e2 94 ad bc 3f a2 5b 7b 0b 7b ec ce 3f
       0.11202364479623617 0.2415918165267757
000090 51 5f b1 b9 5d f1 97 bf e4 80 c7 86 9c 30 ca 3f
       -0.02338167615775372 0.20460850316067714
0000a0 88 33 e8 27 8c 59 66 3f dd 6f 97 be b5 66 81 bf
       0.002728246442762875 -0.008496684912579095
0000b0 5f 3a bc be 8f b5 8a bf 2f 9c 88 0a ff 95 c9 3f
       -0.013041613586691257 0.19989002241456563
0000c0 df 4b ac 0b c7 39 61 3f ab 7e 6b df da 3f ca bf
       0.0021027457818347662 -0.20507369908499604
0000d0 29 bf 9f 5f f4 ea d3 3f 7f 77 22 25 93 b3 bf bf
       0.31121548975260055 -0.12383384377105065
0000e0 84 92 3b 62 f8 65 84 3f a5 49 1a 19 2d bf c8 bf
       0.009960117814850074 -0.19333423352925397
0000f0 44 cd 6a d3 3f f6 c1 bf 1d 51 f8 06 0d 64 d2 bf
       -0.1403274328527947 -0.2873566215578352
000100 47 07 de b6 75 83 cd bf 1a aa 91 ca 66 e2 d5 bf
       -0.2305743353754741 -0.34194345266465265
000110 37 67 db 7e 21 dc 98 3f e4 fc fd 61 74 e6 a9 bf
       0.02427723252080868 -0.050586354219370994
000120 1b 7c e7 e9 f4 15 a3 bf 73 6a 84 c6 30 67 c3 bf
       -0.03727689128185593 -0.1515866250345713
000130 a3 9f 86 5e 72 29 8f 3f e6 a6 bb a5 32 1d b9 bf
       0.015215772161198354 -0.09810177370277592
000140 a1 86 55 39 e8 31 a9 3f 45 a1 95 f8 1e 45 b4 3f
       0.04920888614539121 0.07917970246274304
000150 97 74 45 91 a7 4f ca bf 1e 9d 6c 54 b0 44 a2 3f
       -0.20555586427045533 0.03568030386514408
000160 cc b0 2a 81 18 ae b3 3f 0a fe d0 a7 71 87 50 3f
       0.07687523988232953 0.001008854858142063
000170 58 73 18 4f e0 8b ac bf d6 0a 7c 26 79 9e a2 3f
       -0.055754670767987846 0.03636530489713656
000180 48 10 0b eb 95 7f cd 3f ec a0 16 25 3e 6b ad bf
       0.23045610405654515 -0.05745882227648899
000190 15 8a 1e 80 db 1c 94 3f fa 1c 52 83 e2 f5 a9 3f
       0.0196413323352634 0.050704077272763784
0001a0 c6 3d b8 52 b9 a0 83 bf 0c 79 61 da 9a 8e c2 3f
       -0.00958390029612034 0.14497695601580352
0001b0 47 2c 14 82 2e fe b3 3f 7c c3 54 f9 3c 81 d7 3f
       0.07809725452186554 0.3672630724786854
0001c0 9b 3d ae 9f 6a 77 a5 3f c9 8b 81 aa 6f d1 d3 3f
       0.04192670058466349 0.3096579709146537
0001d0 91 6e 40 01 85 be c7 3f ed d0 e2 b3 d1 4b bf 3f
       0.18550169526212248 0.12225065843341883
0001e0 d3 15 28 53 90 0c b5 3f 8d a3 48 5f 12 ee 9a bf
       0.0822229578989984 -0.026298796716364193
0001f0 ac b8 a0 6a f8 81 84 bf 72 a7 19 8c 91 df c5 3f
       -0.010013523820898783 0.1708852705081046
000200 69 77 dd 71 75 58 c3 bf c4 fa c9 73 6f 11 ba 3f
       -0.15113704738444803 0.10182854248885592
000210 ac cd ac c1 84 a0 b7 3f e6 2d d0 84 78 ef 95 bf
       0.09229306915658836 -0.021421321016573368
000220 ce 27 82 11 0b b7 b7 bf 0e 24 8c 0d 19 c5 90 3f
       -0.0926367681260267 0.0163768686789219
000230 10 d8 1f dd 5f 6f a3 bf 59 96 f2 bc 59 56 bb 3f
       -0.03795909475586268 0.10678635466555288
000240 06 97 b6 61 cb 83 ad 3f 04 78 42 18 21 25 a7 bf
       0.05764613693035696 -0.045205148898489284
000250 05 de 5c c6 a1 00 a7 bf 57 c7 37 a9 95 e4 b4 3f
       -0.04492669626636928 0.08161292439743072
000260 b2 a0 a6 46 f2 e1 c8 3f a3 40 54 8c bb 7d bf bf
       0.19439533662558045 -0.1230122773743028
000270 48 02 c3 1d f6 fa 8a bf 8c 13 a7 a5 65 20 d1 3f
       -0.013173983367210998 0.2676023595525343
000280 64 ba b7 d6 5c 40 ba 3f 0a 75 de 4a 01 2b c5 3f
       0.1025445961201768 0.16537490993224707
000290 d6 cf 53 cf 72 8e c4 bf c3 12 4d d2 eb 8f b6 3f
       -0.16059718249709815 0.08813356289199263
0002a0 fc 45 58 7f 02 8b b4 bf a6 7d 40 1c 26 d9 c1 3f
       -0.08024612053875296 0.13943935756195208
0002b0 aa 78 3d 8d 0d b1 a2 3f 4e ab bd df 79 de 44 bf
       0.0365070567047366 -0.0006368727767783551
0002c0 f2 4e dd 9e ab fd aa bf 3a 90 39 d6 b4 79 bd bf
       -0.052716601507794794 -0.1151383421907334
0002d0 3c fa 21 5e f8 b2 c4 3f c4 0a 05 2f 97 f2 b8 bf
       0.16171173664402427 -0.09745163820211206
0002e0 11 5b 96 07 df 57 b0 bf d8 4c 8d 6e 60 6c b8 3f
       -0.06384080825078466 0.095403697004531
0002f0 e6 86 fe 92 64 26 c8 3f 34 b1 47 95 95 57 c9 bf
       0.18867165734723484 -0.19798536099495723
000300 5f 38 73 c6 b4 45 c0 bf 1a fe 17 fe b7 a4 b0 3f
       -0.12712726297326335 0.06501340821704851
000310 da ab eb 8f 57 6f c3 3f 7c 85 12 36 29 79 89 bf
       0.1518353893983136 -0.012438127482087273
000320 06 d0 1f f1 28 3c c1 3f d6 70 ac ff 19 31 97 bf
       0.13464843534131904 -0.022648245077207495
000330 5a 66 f2 25 1b 1f c6 bf a5 46 f4 d3 33 76 93 3f
       -0.1728242812430832 0.01900559407392301
000340 b5 15 10 65 58 f4 b3 bf 68 de 90 d2 48 08 9f 3f
       -0.07794716327051428 0.030305040218279095
000350 6c 14 ec 72 a8 d3 b1 3f 26 d1 00 09 ff 9c ba 3f
       0.06963589482991644 0.10395807237438656
000360 10 ff fb bd 08 28 a2 3f 8a 77 8c d4 35 fe 9c bf
       0.035461686316919594 -0.028313485238974624
000370 b9 c0 d8 fd 90 de b1 bf 25 a6 98 b7 5c 0d b8 bf
       -0.06980234334401104 -0.09395389063197308
000380 5f da ca 55 39 36 35 3f a0 41 dc 7d b3 aa ae bf
       0.0003236665705047877 -0.059896096338096116
000390 4d a0 d5 57 46 cf b5 3f fa 68 8f fc b2 a6 ba bf
       0.08519401211162965 -0.10410612741489791
0003a0 ce a2 23 d3 be c2 b1 bf 73 c2 f3 d4 25 fd d2 bf
       -0.06937782912030885 -0.2967009143458547
0003b0 53 95 c6 42 9a d4 a4 3f 1e 37 25 58 05 93 c6 bf
       0.040684528971989174 -0.17636172107671028
0003c0 66 b0 22 4f 6a dd ae bf b1 27 09 66 7e 27 b3 3f
       -0.06028301445016453 0.07482137671573132
0003d0 1a 98 18 3b 0c ef b4 bf d8 dd 7e 90 5d d9 a6 bf
       -0.08177257960105103 -0.04462711705076189
0003e0 ad 24 88 2c 46 50 c7 bf 85 20 cd 5a ae 1b a0 3f
       -0.18213727163700835 0.03146118982709915
0003f0 d0 d2 b5 47 9a 0f d6 bf d7 09 f7 07 f8 48 a5 3f
       -0.34470231059030443 0.041572333309449476
000400 c5 7e 2c 41 3e e2 bd 3f cf cf 68 e4 a3 7c a9 3f
       0.11673344699056105 0.04977905429078044
000410 ae a4 1c 47 59 57 c0 bf a1 95 15 b2 c7 fb b1 3f
       -0.12766567203769824 0.07024810884248335
000420 54 5a cd c7 7c 79 b5 3f 57 35 73 66 87 94 cb 3f
       0.08388500097258006 0.21547024252360344
000430 c7 6f c3 f8 b7 f0 99 bf 72 4d 3c 17 ca 68 a8 bf
       -0.025332331236185526 -0.04767447980534713
000440 9d 62 51 6e bb 99 a4 3f 50 10 68 2a d7 3b 94 3f
       0.04023538324026286 0.01975952335671166
000450 7d c2 8e 67 08 ca b6 3f 8b 6d 67 dd f3 e4 b1 bf
       0.08902027633917871 -0.0698997893845698
000460 be 9e 5f 70 72 c7 b3 bf 04 37 f8 64 d2 ab d0 bf
       -0.07726207011693995 -0.26048717365561935
000470 c8 1c c8 a8 e8 dc d3 3f 31 9e c2 a3 d7 6d 9f bf
       0.31035820467554887 -0.030692452783709526
000480 78 6c e2 ac 68 07 c2 bf bd 33 16 cb 37 fd c7 3f
       -0.14085110131859202 0.187415098346177
000490 0e 8d 4b 27 97 bc af 3f 7a 0d 1e 4d 43 f5 99 3f
       0.06198570589710971 0.025349666196701183
0004a0 41 44 ab 9d ec fa 93 3f 87 4e 39 5e 10 23 7c 3f
       0.01951188766799228 0.006869377076856537
0004b0 ab 6e 38 cf ca 52 d2 3f 46 28 40 3f 2a 62 b0 bf
       0.28630323635455096 -0.06399787944988686
0004c0 70 fb 51 f9 47 30 c8 3f a1 61 ce 2e 77 90 9a 3f
       0.18897342370834336 0.02594171736891016
0004d0 35 c4 4f 31 86 6b ad bf d6 89 62 af e7 2a cf bf
       -0.057460969466668045 -0.24349685729710185
0004e0 22 52 53 b2 7f 76 a8 3f c4 8a 78 07 c5 af c7 bf
       0.04777907420944795 -0.18505156388081023
0004f0 ed b1 0a 98 c9 78 bf bf df 69 88 6e 18 43 c4 bf
       -0.12293682062108476 -0.15829759022820064
000500 40 e8 d6 97 28 ab c1 3f 71 9e 6b 14 6b 87 a0 bf
       0.13803584493672538 -0.032283159487460085
000510 b5 cb 51 e0 cd fb b8 bf 5b 07 c7 f6 9d 28 93 bf
       -0.09759222723532342 -0.018709629237270913
000520 73 b8 ac c2 66 fb b2 3f d1 19 ff a4 66 1b bd bf
       0.07414858105468784 -0.11369935539469302
000530 e3 43 59 1b 69 ec bc bf 77 4a ce 95 f4 1c 93 3f
       -0.112982339074065 0.01866514362661539
000540 e9 50 7d e5 da 08 b3 3f a2 7a 97 e3 6c 58 9a 3f
       0.07435386755725272 0.025727940932365308
000550 de 1c 4c 6e 7c ae c6 3f d7 e8 02 9b 87 36 86 3f
       0.1771998919068442 0.010846194665976956
000560 1e b3 f8 e2 79 33 c2 bf 8e f1 81 10 f3 23 bd 3f
       -0.14219592650024365 0.11382979538934121
000570 b6 c6 86 3e b6 a0 73 bf 9a 8c 38 2e af 20 bf bf
       -0.004791938678339205 -0.12159247282447652
000580 f5 c3 a8 1f d6 97 b2 bf 10 98 a0 a9 1a 48 b8 3f
       -0.07262933991366068 0.09485022202770232
000590 ed 5f 2d 84 8e 45 98 3f 51 f7 a9 54 21 52 a1 3f
       0.023702837769945907 0.03382972868437995
0005a0 81 27 6e 67 11 12 8e bf b4 42 33 1c fa 0d b8 bf
       -0.014682899445478405 -0.09396327198488558
0005b0 6e 05 06 05 ae 5a c3 3f 97 79 11 f3 17 7c b8 bf
       0.1512048267868908 -0.09564351734431963
0005c0 e1 c1 08 21 9d d3 34 bf 17 1a 09 04 71 ee b4 3f
       -0.00031778894575309856 0.08176332806133534
0005d0 83 19 57 dd 7f 05 b9 3f 1e 96 2e 7c 91 69 86 3f
       0.0977401652699879 0.010943543054803103
0005e0 e7 d8 38 6a 0a f2 bf 3f 43 4b 57 1b 45 19 a3 bf
       0.12478699773132328 -0.0373021694064364
0005f0 dd 46 bc 17 96 ad b4 3f da d0 6d e3 73 7c ce 3f
       0.08077371673087037 0.23817299466066438
000600 9d a9 a3 56 52 b1 af 3f 7c 59 55 da 44 12 a4 3f
       0.06189973170860983 0.0392018810768375
000610 8e cc 01 1d 98 00 c2 bf 3a 10 0a a0 eb 61 c2 3f
       -0.1406431333194615 0.1436132937852806
000620 92 3d db dd 98 fe d1 3f 7b ec ad 23 ca c3 a3 3f
       0.28116437593140475 0.038603131156343694
000630 06 4e ff 6b 48 75 c4 3f 05 60 e8 4e ce ef a0 bf
       0.15982918999962709 -0.03307957375744767
000640 29 cf 8d ca 08 9c b1 bf 26 54 ab 39 18 ab b9 bf
       -0.06878714509167295 -0.10026694686833135
000650 93 0f ee 8a 4b 8d b6 bf 2a f3 44 98 fd a0 aa 3f
       -0.08809349195331455 0.05200951083904777
000660 61 8e f6 55 b4 28 b6 bf f2 23 93 4a 86 14 8f 3f
       -0.08655860041340581 0.01517586627086762
000670 7d 7f d0 79 46 3e b9 3f 1a ca 24 60 30 e2 98 bf
       0.09860649560914499 -0.024300342434068957
000680 6c 51 1a 94 a4 d5 b8 bf aa b0 4b 89 58 53 4b 3f
       -0.09700993171492706 0.0008339102083403567
000690 61 7b 6c 21 3a c7 ad 3f ce 89 92 44 a7 97 9e bf
       0.058160606937454735 -0.02987538677246864
0006a0 0e 50 64 bf 05 a4 9f 3f 82 e6 fa 5d 80 d6 b2 bf
       0.030899133497840174 -0.07358553213534871
0006b0 50 db 22 3c 07 33 a1 3f da 63 cb eb 8a 3f a8 bf
       0.03359243973812076 -0.047359792026049966
0006c0 21 ef a8 84 ad c2 ae bf df 88 5e e8 6a 2c 91 3f
       -0.060079023784480386 0.01677100222844607
0006d0 25 3b 87 6a 50 c0 b2 3f 4a cf 48 13 c5 23 88 bf
       0.07324698067462217 -0.011786975527776317
0006e0 a6 3c 2d 51 fc 17 b6 3f 49 60 f6 c4 b7 38 b8 3f
       0.08630349141934576 0.09461544569637782
0006f0 bf 28 e4 b2 d6 45 b7 bf 34 4a 44 7e 61 3c aa bf
       -0.09090940349065856 -0.05124191919653179
000700 5f e3 b5 53 cc 25 86 bf 55 1e 51 e8 85 6a a7 3f
       -0.010814281754152054 0.04573458157443314
000710 7e 84 84 ce bd 5e 93 bf 18 37 3a 6d 9b 33 9c 3f
       -0.018916097383343537 0.027540615598403567
000720 de 0f a9 85 8f 74 aa bf a9 a8 33 6c 7e fd b7 3f
       -0.05167053705784473 0.09371175901074714
000730 4f c2 6c 2f bf c8 9e bf dc 56 3f 64 55 c4 a5 bf
       -0.030062663335402025 -0.04251353119586351
000740 e1 eb d3 e7 7c a5 b6 3f a0 be bf 3c c0 6a b6 3f
       0.08846264514788472 0.08756638987665122
000750 c3 da c0 21 a6 86 b1 bf 14 fd 46 1e a4 c6 b4 bf
       -0.06846082996421914 -0.08115602244560122
000760 ec 0d b1 62 c3 0a 89 3f 84 0a bf e6 db 08 aa 3f
       0.012227560471848663 0.05084883872725235
000770 60 c3 86 7c 4b 76 b6 3f 16 81 2d 9a c2 d7 b8 bf
       0.08774253645129937 -0.09704223884682892
000780 c5 58 55 ac 73 41 b1 3f ab 4b 4d b9 44 77 9e 3f
       0.0674049659477048 0.029751848039562805
000790 d6 f5 80 e7 49 8b 85 bf 22 1a 6e 78 d7 22 a5 3f
       -0.010519578339990437 0.041281445933283104
0007a0 18 d9 74 8a 73 f8 a1 bf e3 de 3d 98 c2 d8 b7 bf
       -0.035098658229275326 -0.09315124718511529
0007b0 f7 85 54 e3 11 00 9e 3f ef 1d f0 ef 88 6e 8f 3f
       0.029297141552097696 0.01534754736168417
0007c0 42 ed 2a 0a 05 bf a3 bf 39 49 58 bf 22 3d 72 bf
       -0.03856673955075475 -0.004452834827605217
0007d0 9b 63 4d 8c 80 cf 9a bf d7 fc cd 6d c0 2e a1 bf
       -0.026182182849285956 -0.03355981197727836
0007e0 43 ed 75 66 8c f3 aa 3f bd c5 13 ea f5 28 b6 3f
       0.052639377124217755 0.08656250920082349
0007f0 9a 18 71 d0 93 df ac 3f 77 e4 5f dc 16 a1 b2 3f
       0.05639326018767683 0.07277052765120283
