car_ros2/car_ros2/losses/var_params_var_delay_known_single.pth (torch, 109819 bytes, 4 tensors)

fc1.weight f8 [300, 41]
000000 b4 9d 30 d9 a3 9c d4 3f 9a 26 46 d1 49 a5 d0 bf
       0.3220605488772563 -0.2600884002391496
000010 4a 0d 6d 15 48 a9 91 3f 15 50 28 78 11 f9 81 3f
       0.017247320468652995 0.008775841216483152
000020 e9 10 14 dc b3 69 df 3f 5c af ea 7e 12 96 cd 3f
       0.4908265732958755 0.23114234158617364
000030 9f f9 c9 b3 52 ed c8 bf 02 02 91 df ae 50 c3 bf
       -0.19474252489812913 -0.15089975277261664
000040 09 e1 4c 01 df db cb bf af 47 4c 71 2f f0 f5 bf
       -0.21764743388644828 -1.3711389947606951
000050 09 75 3a 01 7b 0b e6 bf b1 c0 7e d7 5d 1a 9e 3f
       -0.688901426695936 0.0293974554803646
000060 c2 85 ec 23 32 ed d6 3f 32 76 ef 10 f8 97 b7 3f
       0.358227286416959 0.09216261304342124
000070 88 34 a4 60 47 34 fe 3f 29 32 93 a6 c2 6d d8 bf
       1.8877633833938336 -0.3816992403706388
000080 1a ee 3b 8b 01 36 d4 bf 68 27 21 a0 33 bb ea bf
       -0.31579626652794135 -0.8353517653970188
000090 15 cc 57 ad 16 e8 bf bf 3d 12 59 7f 81 88 fa bf
       -0.1246351407242375 -1.6583266233948415
0000a0 32 15 a6 10 c3 00 e4 3f 20 1c 63 b0 78 e3 d6 3f
       0.6250930142565834 0.3576337549715749
0000b0 51 9f 12 97 07 18 f7 3f 73 ee 3b 7d 26 7f 71 bf
       1.4433666135100405 -0.004271650646611047
0000c0 f2 0f 56 0f 0b aa 01 40 f1 70 e1 24 14 1d df bf
       2.208028907598412 -0.48614982225059494
0000d0 ea 49 29 f5 b3 73 e9 bf 17 21 02 12 78 f3 00 c0
       -0.795373896437295 -2.118881359758358
0000e0 17 86 82 2c 4b bc 9e 3f 1d c9 66 19 13 d6 fa bf
       0.030015158263841792 -1.6772643081899965
0000f0 bf 7e 71 1b 1a a0 d0 3f 16 79 31 72 09 74 e2 3f
       0.25977184944165893 0.5766646604859342
000100 5d 9a 96 35 81 42 03 40 ab 85 aa b0 c3 8c a3 3f
       2.407473009737528 0.038183322253881734
000110 46 8e 56 e3 1e 2e dc 3f 3e d2 8b 97 1b 67 95 bf
       0.4403149814699855 -0.02090113747086008
000120 3c 58 6c 65 3b 47 f0 bf 0f 96 6e 7b 11 31 f4 bf
       -1.0173906289906105 -1.2619795629083261
000130 9c fb bf 74 4e 77 b7 bf 9d 8f 64 53 0c a2 c3 bf
       -0.09166422224369203 -0.15338281700053083
000140 f2 c2 82 f7 6b 38 eb bf 08 35 6c 82 1a 68 d8 bf
       -0.8506374201006948 -0.38135397659864667
000150 1e fa 3d d6 58 34 b1 3f d3 01 04 04 d6 62 70 bf
       0.06720500212211575 -0.004000507353567123
000160 1c a7 eb b5 b7 a0 96 3f bf fb ff 6d b7 ca b5 3f
       0.022097464064166336 0.08512445865197459
000170 69 23 10 13 0b e6 b0 bf 91 5a ca ee ce e4 bf 3f
       -0.06601018157392748 0.1245850880608066
000180 57 7f f2 9a 74 f8 7e 3f 1e 01 ff de e6 31 8d 3f
       0.007561164368922699 0.014255336456586106
000190 1c f8 4b 99 1d 01 98 3f 50 78 0d 6f 84 78 d4 bf
       0.023441755753985757 -0.31985579342825066
0001a0 4d 9f 7c a3 07 b9 c4 bf 9b 74 84 17 d4 3f c9 bf
       -0.16189666254762827 -0.1972603907424045
0001b0 db 4a 32 69 09 1c b4 3f d2 ef cc 49 72 9d ab bf
       0.07855280702851124 -0.05393559599767141
0001c0 7b 3a d8 09 1d db d0 bf 92 16 74 6d 6f 60 c3 bf
       -0.2633736225260816 -0.1513804706993836
0001d0 de 54 bf 4e 7d 78 be bf 22 19 ca b7 6a 8b e3 3f
       -0.11902602360290213 0.6107686605107896
0001e0 92 c8 1d 36 bb 84 b9 bf 7a 7a 2c 9b 97 30 bb 3f
       -0.09968156882476567 0.10621020830556374
0001f0 70 30 f1 4d 6d bf 83 3f bd 77 ed 61 80 d2 bb 3f
       0.009642461720567236 0.10868074789820432
000200 10 1d 02 5f 61 2d cd 3f c7 e2 3c 39 e7 85 9a bf
       0.2279473985583782 -0.025901425236244415
000210 76 03 b8 38 68 a4 cb 3f 70 e3 79 cf 80 82 ba bf
       0.215954806990364 -0.10355382027945637
000220 c0 56 d5 4e 69 62 ca bf f9 dd 5c 98 7b fd ac 3f
       -0.20612827634129438 0.05662142023941991
000230 e3 4e de 6c 47 c0 b0 bf 74 38 27 ad c8 d5 c8 3f
       -0.06543394477767665 0.19402416662927957
000240 35 27 6e 5f b6 a6 91 bf 6b 01 81 a8 6c 3e cb bf
       -0.017237519812204744 -0.21284254291277746
000250 dc dd d3 62 6f 8b d0 3f dd dc 98 68 a5 05 96 bf
       0.2585104432214089 -0.02150591326627881
000260 c2 2b 4c 07 6a 3f d7 bf 4b 06 62 e6 40 be c0 bf
       -0.363245494009501 -0.130806076518683
000270 f4 09 05 1b 56 97 b1 bf fd 86 e5 e6 bf 82 d0 3f
       -0.0687154594388984 0.257980323300316
000280 35 80 bd b4 f9 c7 a3 bf 89 38 70 8d 19 b2 ba 3f
       -0.038635066330926206 0.1042800875004294
000290 7c f9 5f 33 c6 3e 95 3f 48 66 71 62 33 61 a2 bf
       0.020747277150797924 -0.0358978326482427
0002a0 fe b0 de b0 25 d3 a2 3f cf 58 c7 4c ec 79 a6 bf
       0.03676717552238705 -0.043898949024581684
0002b0 7a d6 7c 65 a5 30 b1 3f 55 9a 6f 02 77 1b 95 3f
       0.06714853027082227 0.020612582706144817
0002c0 c6 6e d6 30 0e b0 98 bf 96 df 62 a7 a6 a2 c8 bf
       -0.02410909817773079 -0.19246371434360005
0002d0 5e cd 99 dc 08 1e c3 bf ea a4 0f c7 70 94 d6 3f
       -0.14935408374331421 0.352810091395965
0002e0 7c 08 30 31 86 1e d8 bf 14 dc 8d 76 6d cc c6 bf
       -0.3768630485866493 -0.1781136349561342
0002f0 43 f8 7c bb 2e 9b c5 3f d0 23 15 07 d6 5f d0 bf
       0.16879829554267375 -0.25584936801584224
000300 0d e7 5c 59 1c d3 d5 bf 49 ad 47 6e 71 bb b4 bf
       -0.34101017691465146 -0.08098515455610768
000310 75 db 67 68 34 a9 b0 3f 39 f1 6e 85 e1 67 b2 3f
       0.06508185910193538 0.07189759738588898
000320 9b a0 b9 8b 20 b1 b7 bf f1 8e 07 ed 8c 38 ff 3f
       -0.09254649554498189 1.9513062724080863
000330 b7 cf db 69 51 9c cd bf 83 52 98 d6 e8 85 cc bf
       -0.23133294743422336 -0.22283659437438894
000340 e7 57 28 c0 ce a1 d3 3f cc 87 9a c9 b1 ef a5 bf
       0.30675095334424757 -0.042844348773783375
000350 0d 92 31 d1 3b 55 ff bf 43 af dd c4 71 33 c5 bf
       -1.9583089992166862 -0.16563245880694852
000360 d4 82 f3 78 38 2b b9 3f 54 b2 af d1 21 c3 e2 bf
       0.09831574395094417 -0.5863198371349179
000370 e4 0e 61 ab 72 6f b1 3f ee 41 3c bd 7d 26 dc 3f
       0.06810681041775585 0.43984931449906994
000380 07 42 2b 6c fb 3f d2 bf fb 8c 0c 1d b1 62 c8 3f
       -0.28515515864731394 0.19051183622750742
000390 25 4f c5 b1 b8 0b f4 3f a6 4f f4 8d 16 0f d1 3f
       1.2528616851968277 0.26654590475777196
0003a0 21 42 af 9b 6b 49 dd 3f c0 5d a6 aa ad 0d e5 3f
       0.45760622218679897 0.657919724751018
0003b0 5a 40 91 f9 9c 59 e8 bf b9 c3 ad 61 2a 32 f3 bf
       -0.7609391092646647 -1.199747449453055
0003c0 31 e0 26 b6 44 8e 90 bf 90 ce 84 53 fc 0b d0 bf
       -0.01616771089331354 -0.2507315459836059
0003d0 d5 c1 bc 3b a4 5b 03 c0 0a 1a 71 06 ef 4d 7c 3f
       -2.4197468440035927 0.006910260860485193
0003e0 54 c4 8d ad 50 89 b4 3f b6 3b ff e9 8b 59 a9 3f
       0.08022026288178213 0.04951131087692977
0003f0 dc 32 d8 79 97 5e c2 3f 27 4b 37 4a 73 41 b7 bf
       0.14351170968475102 -0.0908424431029685
000400 81 b2 26 38 84 5c d0 3f 84 d1 28 1a ee 28 45 bf
       0.2556467579222855 -0.0006457483871771673
000410 27 a8 7a 66 8d 3e bd bf 6f 37 14 38 34 73 bf 3f
       -0.11423572303706973 0.1228516232406187
000420 d2 2b 76 c5 7b 80 a7 bf c7 90 81 1d 6d 71 c6 3f
       -0.045902126173210114 0.1753364938805417
000430 be 22 5c 8e 3f 40 c9 3f e6 aa 8c 9a d0 98 b3 3f
       0.19727320147673838 0.07655051968746882
000440 92 f7 dc e5 06 83 cd 3f 63 b0 ff 8c 30 86 cc bf
       0.23056112502848386 -0.22284514317232426
000450 b1 40 70 d1 3f 39 c7 3f e9 5f 00 57 62 11 c6 3f
       0.18143460966576222 0.17240552185171445
000460 49 96 c9 01 9f 86 ba bf f7 5c 9d ac 25 b0 d0 3f
       -0.10361665528906729 0.2607511697473934
000470 3b 34 8a 7d e4 e0 e3 bf 93 b2 08 2d ee 1c b6 bf
       -0.6212027027082806 -0.08637894248449589
000480 84 7b 2f 30 d0 d1 be 3f 20 0b 1e 64 85 15 c1 bf
       0.12038899589923174 -0.13346927059691271
000490 72 39 e9 0a e2 9d ca 3f 9a 89 1f 04 bd 9b ca 3f
       0.20794320614590905 0.20787775708511164
0004a0 b9 d5 4b 3e c7 5e ba bf 32 d3 a5 61 0d 9b d6 3f
       -0.10300870200065661 0.3532136396018358
0004b0 08 0f aa 52 90 4d d2 3f ba b3 11 6c 42 be c6 3f
       0.28598411629376175 0.17768125798047923
0004c0 93 66 b9 e7 5a ef 04 40 0a 6b 1c cf 02 b2 a1 3f
       2.616872606606941 0.03456124094210196
0004d0 0d 79 53 8f e0 89 e8 3f a1 cb b3 0f 40 41 f1 3f
       0.7668307113015388 1.0784302342769723
0004e0 1e ca de ad 2b a0 77 bf e7 29 e6 6b 75 c7 04 c0
       -0.005767984983253286 -2.5973919324508077
0004f0 a7 11 5c a5 7d 66 e3 bf 98 02 0d 7d 0b 68 d4 bf
       -0.6062610845261148 -0.31885039531702253
000500 18 30 58 e6 30 4a f4 bf 89 bb a7 61 6b 30 ba bf
       -1.2681130407172585 -0.10230132230911528
000510 97 9b 56 3f 39 dc c2 3f 28 a2 19 77 cf 58 17 c0
       0.14734569161120412 -5.836728917064228
000520 dd f1 55 f5 33 48 c0 bf 8c 43 3e f3 fa ad c5 bf
       -0.12720345954211512 -0.1693719566069628
000530 a3 a2 e7 2b 1a e3 70 3f 2f a7 b0 4e e9 ab d1 bf
       0.004122831566271276 -0.2761176365335016
000540 f0 58 f7 15 84 21 fe bf 86 15 77 4f 4d 7b d0 3f
       -1.8831826074652405 0.25752575645704956
000550 2b 4f ea 15 93 9e ce bf 6c dd 26 5d d6 ad a7 bf
       -0.23921431131440704 -0.04624814879519587
000560 3f 6a 11 b1 b6 68 b5 bf 28 17 74 70 1c 2a 03 40
       -0.08362905333471192 2.3955620561054225
000570 88 87 a0 92 e8 56 dd bf 5d 33 b4 eb 8c 67 d3 bf
       -0.4584294731049501 -0.30319521921119535
000580 0d 3f f6 4a 94 7c c0 bf 01 34 db 1b 48 f2 d5 bf
       -0.12880185756920817 -0.3429126998933612
000590 a8 d4 59 9a a8 ec d1 3f d1 82 12 5b fd 25 d7 bf
       0.2800694949467677 -0.3616937054994596
0005a0 ba 7e 67 da 7b f7 d0 bf eb 4b 81 86 cc 25 e2 bf
       -0.26510521248381347 -0.5671141268779797
0005b0 cb a9 06 9c 3f 7e d1 bf 8c 03 a2 71 b4 dd ec 3f
       -0.2733305953685458 0.9020635814086844
0005c0 b3 69 ba 5c ab 1a a8 3f 54 73 e0 c1 aa 34 e4 3f
       0.04707847124992117 0.6314290796905007
0005d0 ae 8c d0 63 4c a9 05 40 60 b0 34 cd 49 e7 5c 3f
       2.707665233423163 0.0017641277998548185
0005e0 d1 54 31 18 af c7 f1 bf cf e8 1f 42 5f 27 c8 bf
       -1.1112509675052034 -0.18870154122107016
0005f0 ca 9a 9d d7 be 84 dc bf ba ba 3b 37 68 3f fa bf
       -0.4456021409627452 -1.6404802472640498
000600 95 48 11 e6 1b 91 cc 3f f4 5b 91 e9 e1 b7 f0 3f
       0.2231783746124775 1.0448931812040856
000610 fd dc d9 71 71 38 d4 3f ef 83 a0 a8 85 e3 d4 bf
       0.31594501608147124 -0.32638684718591454
000620 5c 76 d0 e4 a3 12 cb bf 77 55 0d d6 e0 bb c2 bf
       -0.21150635407041107 -0.14635858966600399
000630 ae 80 d8 a4 87 b1 bd bf b5 df 57 86 b7 5e d6 3f
       -0.11599014067224075 0.3495310604043838
000640 d8 fe 4c ae ad e9 cd bf 05 fc 28 13 ed b9 9b 3f
       -0.23369380007533525 0.02707643918460791
000650 a7 de 83 69 1f 77 c3 bf bf 06 2f 5a d0 4c b9 3f
       -0.1520728364191559 0.09882833673239143
000660 ac 4e 6c 8d 21 5d d0 3f ac c1 69 19 a3 77 d1 bf
       0.2556842690548631 -0.27292706948994794
000670 e6 45 93 2d b5 6c a2 3f 2d a2 89 8c 67 e2 b6 bf
       0.03598562413538868 -0.08939215832800392
000680 d8 85 8c c9 77 ce b1 3f b8 82 6f ae a4 14 88 bf
       0.06955670042636741 -0.011758123944617935
000690 84 1a bd 4a b6 b0 cf 3f 55 aa ab 8f a7 e2 b8 bf
       0.2475803246436109 -0.09720847375471327
0006a0 11 46 2c b2 60 29 a5 3f 02 cc 22 b5 c4 b6 a0 bf
       0.0413313119407911 -0.03264441214687254
0006b0 80 9e d6 27 45 e5 88 bf a4 5d 66 ae b4 55 d9 3f
       -0.01215604808642401 0.3958560660480208
0006c0 96 b3 76 fa 51 82 c0 3f 9b 9e 47 1a 9a 8e a0 3f
       0.12897705773994222 0.032337966640452374
0006d0 22 c9 ca c3 b6 0c b7 bf bc 90 48 16 91 be 9e bf
       -0.09003774910050713 -0.030023829445909853
0006e0 89 59 fc d5 69 31 e3 3f 44 b7 fb ae 2f 29 bb bf
       0.5997819117936142 -0.1060972025113332
0006f0 ca f8 8a d9 65 1f 98 bf 52 86 f9 99 bc f6 b8 bf
       -0.023557273295175908 -0.09751490363262263
000700 0e 6a 83 21 0f 0a 96 bf 43 0b c4 cc 8b ec de 3f
       -0.021522747440807115 0.4831876277605042
000710 c0 ee 5b da ef a8 c6 3f 02 be a1 7e 91 2a a5 3f
       0.17703054582658773 0.04134039564894111
000720 92 4a f7 dd 18 2d e3 bf 2d ab b5 d3 1a 98 bc bf
       -0.5992550215981558 -0.11169593495075665
000730 2f 5e ea a2 35 e5 be 3f c5 fb 4f a1 43 28 c1 bf
       0.12068495967320624 -0.13404126526435625
000740 3c cb 44 47 49 7a bb bf ba 66 2b 0b d0 75 f0 bf
       -0.10733468999823698 -1.0287628589925775
000750 f4 1f c4 9e bf 2e 87 3f 84 63 07 b3 40 57 e6 bf
       0.01131963446870541 -0.6981509682328668
000760 61 f4 86 40 5c 64 c5 3f 12 47 83 1d ae c0 bd 3f
       0.16712525511494206 0.11622131557967588
000770 31 72 b1 24 48 dd d3 bf ec 16 3d d8 3b 54 88 3f
       -0.310380969842103 0.011879413162783924
000780 da 53 9f 04 b8 db e2 bf 3f 1c 2e f0 ff e2 ca 3f
       -0.5893211450844504 0.21005248286766862
000790 60 5c f0 b1 40 db 76 bf 6b db 19 32 a4 7d c2 3f
       -0.005580189433223998 0.1444592709192095
0007a0 f5 36 20 0c 5b 90 a4 bf e3 d3 5c 25 b1 64 dd bf
       -0.04016384623547068 -0.4592707505101414
0007b0 73 23 34 e1 f2 c1 9a bf a0 b9 42 be 78 94 c4 3f
       -0.026130480761853158 0.16078099527426293
0007c0 90 43 ff 46 73 27 80 bf ce 25 90 47 d8 a4 ba 3f
       -0.007887745479736613 0.10407783267159873
0007d0 54 eb 67 f4 56 19 b0 bf 15 71 02 6a 96 d8 c5 3f
       -0.06288665263120424 0.17067222763297055
0007e0 4a 57 97 fb 93 08 c0 3f 14 9b 13 f8 08 9d b4 bf
       0.1252617815468347 -0.08052116447980168
0007f0 25 b3 e0 07 5e 25 da 3f dc 8a 06 2b 37 65 eb 3f
       0.4085307194643966 0.856105407747545

fc1.bias f8 [300]
000000 2a b2 e6 3f ef 49 e9 bf 94 ea 18 df 89 4f f7 bf
       -0.7902752159184889 -1.4569185938586644
000010 25 7c db ea e1 3b 13 40 34 02 bb a8 04 13 1b 40
       4.80847899403219 6.768572460569477
000020 e6 d1 6b 50 5b 58 01 c0 f9 dd f2 64 a0 1d d8 bf
       -2.1681429179100062 -0.376808260519709
000030 35 47 4e d8 68 86 e0 bf dd c5 d5 35 c8 70 01 c0
       -0.5164074158403539 -2.1800693708289445
000040 42 87 7a 3f 0a c1 db 3f 52 49 aa 4b aa d1 fd bf
       0.43365722846111876 -1.8636877971335548
000050 ce 1d c1 a2 25 c3 1b c0 32 35 38 e1 a7 8c f9 3f
       -6.940573256527797 1.596839790119088
000060 51 89 bd 48 7e 20 08 c0 6f 0d 39 84 e2 3f f0 3f
       -3.0158658678857724 1.01559688233905
000070 45 5a 18 4c b5 5b f4 bf 78 d1 63 91 b3 a7 2a c0
       -1.2723896954027094 -13.327541869578212
000080 da c5 a2 14 cd 3f f5 3f 8d ba 6d 06 92 09 d3 bf
       1.328076439484326 -0.297459131505925
000090 a3 64 14 09 64 7d 00 40 d9 a7 90 16 33 f0 04 c0
       2.0612259587620243 -2.6172849429030802
0000a0 61 fe 4a 85 ff 19 03 c0 b4 f3 f2 1e 94 d9 bb 3f
       -2.3876943982611896 0.10878873591987209
0000b0 a1 80 7b ea ac 03 f4 bf 69 7a f8 76 33 a2 93 bf
       -1.250897327372549 -0.019173435341253518
0000c0 43 47 d1 8d a8 e7 0c c0 b0 32 57 16 bc a5 ca 3f
       -3.6131144599429788 0.2081828221402211
0000d0 13 5f 33 0a f1 b4 e0 bf 55 88 1c 36 e2 f8 ca 3f
       -0.5220875930053545 0.2107203258720484
0000e0 13 ef 8d 3e 1a d4 df 3f 4c 2f 56 b9 bc 3f 01 c0
       0.4973207102664087 -2.1561216811586856
0000f0 81 64 1a fd ec 31 e7 bf 77 a3 b5 e3 0e 3a e7 bf
       -0.7248444503230901 -0.725837177987258
000100 f0 10 b0 ec fe af f0 3f 75 36 11 5d e8 54 11 40
       1.0429677243819775 4.332917646575528
000110 00 a8 39 13 c4 dc 17 c0 93 f8 13 f1 5f 85 f0 3f
       -5.965591717142161 1.0325622002706367
000120 6a 99 c0 13 ad 8e ca bf 02 58 16 81 f6 09 04 c0
       -0.20747912849874278 -2.5048647007888585
000130 1a 73 7f 56 d8 81 f2 3f 6c e3 d1 60 89 c3 e7 bf
       1.1567004565069454 -0.742619217969247
000140 da 9c b7 48 7b a9 e7 3f 3b 69 65 34 75 c9 f2 bf
       0.739438669229368 -1.1741840407108401
000150 3f 98 c1 a7 35 18 e7 3f b2 80 6d 89 09 7d e9 3f
       0.7217052723397116 0.7965133365760464
000160 eb 1e 2f fc 0c f5 25 c0 7f 07 57 36 58 ef f9 3f
       -10.978614693405197 1.6209337351469626
000170 3d 47 b4 e8 51 6b 16 c0 ce 65 c1 a7 9b 5b cb 3f
       -5.604804645541489 0.21373315516647867
000180 66 5b 13 39 0b a5 f0 bf ba b7 2a 52 12 ce 14 40
       -1.0402939061657093 5.2012417639324955
000190 d9 c6 22 a5 92 ff a9 3f 7e 08 da 36 ce 8d 06 40
       0.05077799096888009 2.819240978745312
0001a0 25 ad 6c f8 86 e8 e3 3f 63 72 19 ac 83 20 f5 bf
       0.6221346714059207 -1.3204380724556806
0001b0 2e 7c df c4 e2 30 b1 3f 67 c7 40 c8 ae d9 01 c0
       0.06715218836278389 -2.2312904019135433
0001c0 71 12 a1 17 41 0a f4 3f 53 24 b1 08 9e 44 18 c0
       1.25250348310615 -6.0670091016882735
0001d0 02 5d 14 9b a7 cf 0e c0 2c d5 d7 c9 fd 8a 31 c0
       -3.8513939014043226 -17.54293500441888
0001e0 7c 9f 6c 6c 62 d4 f3 bf 26 59 fb 21 e2 e1 07 40
       -1.2393516764950325 2.9852945952253718
0001f0 53 5d 07 5a a8 d8 10 c0 e6 73 49 f1 64 61 db 3f
       -4.2115797106738055 0.4278194767301201
000200 ef c9 9b 09 f7 12 04 c0 c2 3f 51 7f 2e 7e d4 bf
       -2.509260249201581 -0.320201515515688
000210 5f 22 dc e0 6b 95 01 40 77 8c 51 22 96 3b f4 bf
       2.197959667890515 -1.2645474758690207
000220 32 10 c4 5d a6 e5 05 c0 b5 f4 3e cc 74 a8 cb 3f
       -2.7371337247332344 0.2160783765120066
000230 22 99 af 18 ed 73 16 c0 ca 3a 84 5c e1 47 05 c0
       -5.613209138600981 -2.660097811494187
000240 ed e2 43 77 34 19 10 c0 38 0d 22 77 8d 19 01 c0
       -4.024614203947505 -2.1374768550173506
000250 46 0e 19 93 ad 81 b4 3f c8 cf 3f a7 a3 3c 03 c0
       0.08010372964150134 -2.4046090189312714
000260 09 91 4c a1 88 87 21 c0 02 d4 61 3b 58 45 fc bf
       -8.764714279743673 -1.7669298476805584
000270 86 c8 f5 20 c6 9d f0 3f 88 e7 1f 1b 4f 88 31 c0
       1.0385190284255557 -17.532457061089673
000280 83 04 f7 5b e0 83 eb bf 53 b0 b5 3a 04 40 03 40
       -0.8598481937589358 2.406258066816045
000290 a4 70 c1 93 81 e7 ee bf ac 46 69 2b c7 0e ff bf
       -0.9657600293972064 -1.941107911658416
0002a0 ff 43 39 5a b8 25 e1 bf b8 9c 9e cb 76 95 f8 bf
       -0.535854507654335 -1.5364902452363776
0002b0 27 87 45 2f 1c 59 a8 bf 45 c0 4b 93 eb dd 07 40
       -0.04755485608144588 2.9833594806187045
0002c0 24 d9 33 c4 29 73 f2 3f b1 ea ef 15 d3 21 05 c0
       1.1531160034333618 -2.6415158952562128
0002d0 b4 ac f0 83 d0 6a f1 bf fb 7a 77 e4 77 07 fe 3f
       -1.0885777620231183 1.876823322723509
0002e0 f4 c6 e6 be 0c 70 e0 bf 4e 80 6b d5 49 30 c5 bf
       -0.5136779526276016 -0.16553614540953493
0002f0 c4 e1 ed e0 a9 0c 22 40 31 d5 5b a6 4e b2 d2 bf
       9.024733571089094 -0.292133009395303
000300 b3 69 71 a9 e3 b8 e9 bf fe dc 56 28 bc c5 f1 3f
       -0.8038194951471297 1.110775144172123
000310 90 98 0d 30 83 98 ec bf 35 70 97 60 83 86 ee 3f
       -0.8936172426736153 0.9539200674585177
000320 e4 2c 45 26 91 da e3 3f dc ac 36 fa bc c8 e0 bf
       0.6204305407967721 -0.5245041739448442
000330 50 3d 08 a8 74 c9 06 c0 a2 57 ba 0e b3 01 0d c0
       -2.8483670356287476 -3.625829806386677
000340 a4 b2 a0 23 39 f6 10 c0 44 3c 35 7e af 45 ee 3f
       -4.240452343638626 0.946006533145813
000350 ab 40 5e 80 48 1c dd bf a2 67 1d db ac de 17 c0
       -0.45485127006487386 -5.9674562679955745
000360 3a c8 aa cc cd 5f f4 3f ff 5d 04 c9 ff 78 0c 40
       1.2733896250542913 3.5590816215951686
000370 10 e9 4b 18 d1 ab de 3f 2d ea 6d 05 6d 69 ec bf
       0.47923686382968445 -0.8878693681757049
000380 2f 3b 52 76 f8 12 eb bf 75 91 df 1b f6 56 f3 3f
       -0.8460657416306726 1.2087308014680194
000390 27 e2 93 e5 04 05 24 c0 64 b3 7f 91 e1 37 1e c0
       -10.009802984525846 -7.5545714124863
0003a0 0e 2b 51 59 60 dc 11 40 d0 cd 6c a5 6d 19 18 c0
       4.465211291865456 -6.024832329526774
0003b0 50 7a 49 4c df 03 1f c0 80 d8 39 dd 81 e3 f6 bf
       -7.753781501755455 -1.4305437699927381
0003c0 b8 47 96 92 7a aa f4 bf 22 54 a7 c8 7b c5 e8 3f
       -1.2916208005958492 0.774106876279465
0003d0 05 2e 34 19 0d c9 d0 bf 11 d5 73 10 42 23 f1 3f
       -0.26227118932067156 1.0711079256701093
0003e0 02 07 c1 e1 90 9b 06 40 2b 93 0e 76 fe c7 cd 3f
       2.8259599339515953 0.23266583218096434
0003f0 0d a9 b1 80 be 89 e0 bf 16 ed 2f 1b f1 d0 de bf
       -0.5168144715837869 -0.4815027966976272
000400 a5 3a 42 c5 87 ac ec 3f f8 81 27 ec fb 9a f7 3f
       0.8960608341893318 1.475337908246841
000410 86 8e af 47 0d d2 f9 bf 6b 3c 47 50 60 d0 f1 3f
       -1.6137821960664112 1.1133731017942192
000420 5c b5 5c 4a 07 7f f2 bf 81 de 61 d4 62 99 ec bf
       -1.1560128121157822 -0.8937238834468674
000430 e9 ed 29 7b 34 46 ee bf b4 7b 17 64 d1 ab dd bf
       -0.946069946817656 -0.46361193441947113
000440 4e 3d 79 44 c4 8d 13 c0 da 9f fa 04 dc 81 0f c0
       -4.88844401350009 -3.9384079350456718
000450 11 d0 f5 31 cc 70 c6 bf 61 dc 12 e2 3a fa ec 3f
       -0.17531731070960224 0.9055456557752103
000460 6c 39 84 9a df bf ff bf f2 a5 66 57 87 0a e6 bf
       -1.9843441043663814 -0.6887852389383495
000470 2c 85 77 2d d9 c6 05 c0 27 e2 d0 d6 4b 1d 0d c0
       -2.722093920907943 -3.639304807901016
000480 c7 0c 3e bd 52 cc 17 c0 dd 20 b8 67 65 26 ee 3f
       -5.949534375107027 0.9421870256201391
000490 3e 79 3f 99 a2 f6 c7 3f 51 54 6d 05 5f ec 14 c0
       0.187214207485292 -5.230831227109847
0004a0 fb d5 44 3a 15 85 e7 3f 76 27 22 2d 1b 53 f3 bf
       0.7349954736770877 -1.2077895892166146
0004b0 9e 35 7f 62 4d da e9 bf ee e8 5b bf 0d bf e2 3f
       -0.8078982280509768 0.5858219850045125
0004c0 cb 14 fa ac b7 9a c4 3f 8b f6 e3 74 c1 94 09 c0
       0.1609716028798743 -3.1976346141880803
0004d0 dd 75 6a e5 3c 6a 28 c0 5c 66 1e 26 65 fb e4 bf
       -12.207495850797324 -0.6556878799921821
0004e0 65 61 6e 9a 55 f5 eb bf cc db 70 06 7d 0f f2 bf
       -0.8736980453714237 -1.128781342658601
0004f0 b6 a3 f9 17 3f 54 00 c0 40 7a 91 52 32 3e e2 bf
       -2.0411359665926865 -0.5700923550283008
000500 11 60 64 30 84 49 1e 40 48 e8 a4 f0 94 1a db bf
       7.571793323637409 -0.4234974241295544
000510 c5 56 d0 3f 82 6a 06 40 59 4f 57 1d c2 5e f7 3f
       2.8020062432723045 1.4606343408713285
000520 19 d6 bc c8 4e 72 0d c0 95 ef 1c 03 60 ce fb bf
       -3.680814331305339 -1.7378845330813182
000530 29 44 3a 7e 31 27 20 c0 ad 13 b1 78 3b c9 12 c0
       -8.076549477207736 -4.696515928085245
000540 9d 3e cc 7c 8d 68 e9 bf db 62 c6 59 fa 3f 10 c0
       -0.7940127789933801 -4.0624784495673465
000550 0a a8 c7 04 c5 f1 1c c0 aa 94 b0 6a 27 01 f0 3f
       -7.236103129087505 1.0002817313736991
000560 0a bb d0 88 44 6b fc bf a7 81 57 20 ae 67 b2 bf
       -1.7761884064054265 -0.07189453401179567
000570 73 0d 5a 37 c8 94 bc 3f fc 34 cc 03 48 ad ed 3f
       0.11164523459779278 0.9274025034116273
000580 99 d9 48 ec c2 98 25 c0 7c c5 fc 86 1d 29 02 c0
       -10.798362144368001 -2.270075850094768
000590 bc b0 b2 26 ed be e1 bf c9 e6 f0 df 41 7d 22 c0
       -0.5545564418621534 -9.24464320960705
0005a0 41 bf 62 38 21 6b 20 c0 cc d1 5e 62 6e 0d 09 40
       -8.209237825445259 3.131558197516119
0005b0 35 cc 1e be 5b 7e 03 40 6d d8 5f a8 de 36 e1 3f
       2.43669842273223 0.5379479683458733
0005c0 0f b0 ea cf 5d 4c b7 3f 86 ee 4e 29 0a 10 db bf
       0.0910090096101046 -0.42285398515716854
0005d0 38 c6 a7 0a 51 79 f1 bf c8 17 93 90 ca 25 01 c0
       -1.0921183029389692 -2.1434527678384008
0005e0 17 19 2c ef bc 55 c1 bf df 03 77 fd e1 07 e0 bf
       -0.13542901686032202 -0.5009622526632674
0005f0 72 c8 35 01 eb 45 17 c0 1a db 14 4e e0 20 f9 bf
       -5.818279284389165 -1.570526413923011
000600 47 57 de 08 3b c0 f0 bf f6 8c 34 c0 2d cf c9 3f
       -1.0469312998224767 0.20163509259246098
000610 65 eb 4b 21 f5 30 09 c0 ec 9e 24 48 63 4a 09 c0
       -3.1489050484937473 -3.1613221775222566
000620 2f a3 be 10 27 0a e6 3f 62 ca a7 53 2e e8 0d c0
       0.6887393309635622 -3.738369611318647
000630 ef 28 e0 80 76 1d f7 bf 24 3c 03 14 b5 e3 d6 bf
       -1.44469309179345 -0.35764815286978746
000640 39 56 42 73 4e 3c 09 40 6f 49 59 1e dc 91 04 c0
       3.154446506940783 -2.571220624065226
000650 c3 6e 32 9b 70 9c 11 c0 e3 e9 77 73 4c bd ee bf
       -4.402773308709302 -0.960607743763202
000660 1d 50 90 98 11 17 f7 3f b4 92 f6 1a 2a 65 04 c0
       1.443132015182534 -2.549396715783894
000670 d8 92 bd 0f 0e e6 f5 3f 4f e5 fa ae 4c c7 e4 bf
       1.3686657538284432 -0.6493285577372861
000680 35 6e 34 1c e3 7a 0e c0 4c ee 1d 72 ee 10 e4 bf
       -3.8100034907818334 -0.6270668248029749
000690 60 fc cf 93 cb 3b f6 bf b8 89 eb 6b 12 48 0d 40
       -1.3895984434054967 3.6601913863425715
0006a0 1e e1 36 06 bd 68 19 40 a6 55 b8 61 3d 27 0b 40
       6.35228357038457 3.3941600450877614
0006b0 62 8e 65 76 b2 04 01 40 fb 70 03 7e f1 c4 22 c0
       2.127293515180825 -9.384654939575276
0006c0 c6 68 e6 99 b9 9d f3 3f 9b 05 5a 9b 9c ed ca bf
       1.226007081195847 -0.21037633500604333
0006d0 34 6f 33 58 a1 46 e8 3f 09 b6 f9 cf 85 3c 1d c0
       0.7586218569444783 -7.309104203811793
0006e0 a6 2c c6 4f 79 8f c1 bf 7f bc 09 06 ce 45 dc 3f
       -0.1371909751436295 0.44176054563190087
0006f0 0a 7d 14 2a fd 8b ea 3f 48 06 2a 58 72 0c da 3f
       0.8295884916186946 0.4070096837022885
000700 87 7e 0a 83 b5 b4 13 c0 98 05 70 9d 20 03 7b bf
       -4.92647366286804 -0.006594779398257165
000710 8f d3 ae 72 16 4d e4 3f 18 4e b8 14 1c 62 e2 3f
       0.634410118093557 0.5744762806593284
000720 09 98 66 7a 56 3d ed bf 75 2f a6 96 9a 6c 03 40
       -0.9137375250472825 2.4280292291131738
000730 43 dc 6e ac 3e bc fa bf ad ff 5c 24 7d ac f0 bf
       -1.6709582076707796 -1.0421115322533112
000740 be 47 54 4b f2 f8 e2 3f 00 a7 f1 87 e0 df f1 bf
       0.5928889724038908 -1.1171574888525697
000750 7e 50 3a 2f 6d 99 01 c0 45 53 6b 8d 5b 43 f3 bf
       -2.1999152841254377 -1.2039447330655133
000760 fd a1 92 ed 77 73 d0 bf 65 ef cb 0b c2 39 16 c0
       -0.25704763603656017 -5.556404289552892
000770 b2 25 eb 63 39 84 f4 3f 5d b9 b9 56 cc 14 fa 3f
       1.2822812941616175 1.6300776851381535
000780 0c 1d 8d e1 e2 e1 09 c0 ba e0 e7 c2 c3 f4 e0 3f
       -3.2352960225285923 0.5298785025361419
000790 57 ec 7e 7e f7 77 b6 bf 2a 0e c8 d1 c9 0e d5 bf
       -0.0877680476977941 -0.32902760969611455
0007a0 ba 56 c4 77 41 00 e6 bf 45 8c 30 b6 49 42 df bf
       -0.6875312174986086 -0.4884208945460993
0007b0 09 1d 37 7a 76 69 04 40 e3 a7 a1 27 c7 70 03 c0
       2.5514955089635163 -2.430067357655376
0007c0 36 42 e7 e6 50 6d e2 bf 97 b3 a3 79 9a 30 e3 3f
       -0.5758442411261686 0.5996830344935117
0007d0 29 aa 5e 7a ba 76 da 3f ae 66 e0 2b 83 c1 1e c0
       0.4134966082589551 -7.688976941653591
0007e0 90 85 46 01 33 97 f0 3f 87 25 06 a0 7b 6d ff 3f
       1.0369138765166532 1.9642292262018104
0007f0 0d 63 ec 5e 15 de 01 c0 bd e8 6a 64 9b a3 f4 bf
       -2.23343919905563 -1.2899431154788055

fc2.weight f8 [3, 300]
000000 ed bb e3 38 02 e5 8e 3f 2e 85 ea dc b3 35 cf 3f
       0.01508523689378013 0.24382637297552762
000010 24 24 cb a3 e1 a3 c1 3f 52 0a 16 b2 98 e7 c3 bf
       0.1378137635968254 -0.15550526328668696
000020 c6 ce 02 6b fc cd 9e 3f fe 79 ca 16 d5 8e e6 bf
       0.03008264926093209 -0.7049355931411012
000030 1c 47 1f 5e 62 2e 66 bf ab 6d 32 64 11 22 b2 3f
       -0.002707664608330952 0.0708323354360149
000040 60 07 4f 22 e3 6e bc 3f c5 61 51 d3 30 f5 89 bf
       0.11106700503935718 -0.012674695443067993
000050 86 c3 d9 21 1a 63 db bf 01 24 f3 68 8b 20 c0 bf
       -0.42792371087767156 -0.1259931814622917
000060 bf bb f8 f5 9d 6e 8c bf 07 e5 a5 ef d2 90 a9 3f
       -0.013882860249479266 0.04993304419890348
000070 7e d2 c3 8e 36 a9 a7 3f 4d b1 88 17 b9 ec cd bf
       0.04621286862121553 -0.23378671311491886
000080 62 cd 7e 5b 9e 5a c3 3f 16 97 7a ce 66 93 f4 3f
       0.15120295970482817 1.2859867158489968
000090 7f 42 8c 15 4a 4c cc bf 95 c5 6a 92 d4 1f e1 3f
       -0.2210781674589448 0.535135541888098
0000a0 6e d3 3a cf 90 dd 8c 3f a1 a1 d9 a0 56 62 aa bf
       0.014094477962638154 -0.05153151238920662
0000b0 7a cb ae 3c 7d 8d a3 3f e2 93 47 f7 f6 15 b3 3f
       0.03818885198361151 0.07455390488719574
0000c0 25 bb d4 d5 7a 36 b3 bf 1d 48 0b 43 38 0d 00 c0
       -0.07505004616244244 -2.006454967290678
0000d0 a6 63 74 48 50 5a f4 3f 00 ef 21 33 ff 37 9b bf
       1.2720492201099005 -0.02658079862202012
0000e0 77 12 1d 34 e9 54 7e 3f 32 8e c9 10 02 d2 f2 bf
       0.007405196143569818 -1.1762715011362954
0000f0 55 a7 1f 9f de d1 b3 3f ad 08 ac f6 f4 40 a5 3f
       0.0774211061940638 0.04151120673306372
000100 9c 1a 38 40 19 07 90 3f 98 f9 6a d7 f4 b1 a1 3f
       0.01565207914793608 0.03456082467663463
000110 de f9 4c d4 93 95 b3 bf 66 b6 7c d2 5d 04 9d bf
       -0.07650112088320024 -0.028336969349018658
000120 f4 3f 2c b8 78 bf 73 3f 4c 01 c6 f6 63 17 f0 bf
       0.004821273384337122 -1.0057105674350906
000130 23 20 39 53 af a5 d6 bf a0 8f 5c 25 e5 1c 97 3f
       -0.35386260154018795 0.022571163564080288
000140 66 77 0b 23 eb 93 d6 bf f9 2f a9 a1 04 89 96 bf
       -0.3527782289728435 -0.022007057539937567
000150 8d 4a 74 80 71 ba a0 3f 66 9e d2 14 6c 78 fb 3f
       0.032672449999286625 1.716899949396884
000160 20 72 1a 68 e9 1a 02 40 af 1f 88 6a 3b ae e0 3f
       2.2631405003615015 0.5212685661981505
000170 bd 5c ec c3 73 b9 c7 bf 28 cf ee 70 73 13 c5 bf
       -0.1853470522553148 -0.16465609564112893
000180 69 b9 7e 93 c6 aa 86 bf ec 9e 1e 17 d4 6a d0 bf
       -0.011067916275206273 -0.2565202928330865
000190 28 e0 15 7b 2b 56 7a bf 84 e1 00 fd c6 4c a5 bf
       -0.006429834219822829 -0.04160138929768478
0001a0 74 98 9a 82 74 5e 91 3f f8 22 87 30 02 20 ed bf
       0.016961880179814107 -0.9101572940645317
0001b0 0d c5 1f 79 0c d2 b4 bf 76 cb 96 7c 9d aa a8 bf
       -0.08133008916026459 -0.0481766905390008
0001c0 82 1b e8 1b e2 88 94 bf 7b 2c 10 46 0f dd 83 bf
       -0.02005341811493678 -0.009698981595667391
0001d0 97 0f c0 c3 72 a6 a0 3f 43 88 1a aa 77 a6 c7 bf
       0.03251989974526664 -0.1847676830848873
0001e0 ac 77 24 38 4a 6a b0 bf a3 cb 67 41 b4 91 c8 bf
       -0.06412185545602139 -0.19194653695703065
0001f0 32 98 d2 2e f4 3d a3 bf c4 ab 60 07 84 47 aa bf
       -0.03758204528394095 -0.05132687177714204
000200 33 47 97 df eb 32 a2 3f 67 f5 6a a4 71 37 97 bf
       0.0355447493017337 -0.02267243925120024
000210 2d ec 90 96 57 22 8e bf cf 1b ea 4e 97 44 c1 bf
       -0.014713939936077914 -0.1349057326626437
000220 ce 08 75 db c0 4e c8 3f 5c a8 fd dd f4 ea f9 bf
       0.18990336147005 -1.6198624297635638
000230 24 e4 e3 78 a2 fd da bf 64 2e 46 fa 76 0c 8f bf
       -0.42173063092883667 -0.015160493386040481
000240 47 47 6d 1a c7 b3 fd bf d8 11 10 b4 18 28 ad 3f
       -1.856391051511723 0.05694653699905289
000250 69 f5 64 7a d8 6b 7d 3f 13 40 1d c3 ae 4d cc 3f
       0.007182927720632428 0.22112068678916383
000260 64 7f cb 02 99 43 0e c0 86 fa fa 28 0a ac a0 3f
       -3.7830066889145417 0.03256255865334361
000270 1a 17 c3 d4 f0 91 95 3f 15 fe 42 35 fc bc ba 3f
       0.021064532266584647 0.10444618511518684
000280 f7 8a a8 17 cb af 7a 3f c3 9d 0e 47 84 88 ce bf
       0.0065153058335762825 -0.23854115933975892
000290 43 dc c4 0c 14 4e 9f 3f 99 ee dd da 47 37 9e bf
       0.03057128265319543 -0.029507754071785717
0002a0 97 d9 99 42 df 8e 66 3f 40 27 7c 02 6e 00 ad 3f
       0.0027536736059190037 0.056643903544751684
0002b0 56 cb b0 66 82 f8 a3 bf 12 dd 59 a8 3b 35 a7 3f
       -0.03900535110041996 0.045328010845816405
0002c0 ac 27 68 0b 11 ad a9 3f bd 3a bb b4 38 0b 73 3f
       0.05014851822131958 0.004649373538724686
0002d0 80 ee c2 ab ed a7 a4 3f 2e 6e 73 4a d2 3e 93 3f
       0.04034369203278931 0.018794332307932198
0002e0 60 59 54 93 86 15 92 bf f7 8e 43 d0 5e d8 a8 bf
       -0.017660238973883025 -0.04852577488216341
0002f0 21 20 f9 da 53 bc a1 bf 22 a7 12 9d e8 35 f0 3f
       -0.0346399502564625 1.013161290708418
000300 df 1f 14 d0 45 a6 67 3f 9c 93 0c 11 5d 3a 9e bf
       0.002886902192248172 -0.0295195142417871
000310 de ee 33 9d 48 b7 a7 bf 0e 35 3c a2 d8 4f 5c bf
       -0.04632021826725262 -0.0017280211986333035
000320 bf c0 6e b8 7b 01 f3 bf 8d 73 db 38 ab b7 7e bf
       -1.187862129631 -0.007499379001925
000330 d0 a5 e0 a4 2e 23 80 bf 39 9d 3d 27 2d a1 5c bf
       -0.007879604727423578 -0.0017474118185079725
000340 3a 89 8f c8 cb b9 b1 bf 35 59 05 1e 74 9d 9a bf
       -0.0692412724161259 -0.02599126275284754
000350 25 74 37 ec 95 d7 c2 3f d1 b5 64 3f 08 5d 9e 3f
       0.14720415147795154 0.029651764744974166
000360 dc af eb 8d 19 40 06 40 8a 5a b1 f1 2e e9 b8 bf
       2.7812987411070775 -0.09730809593870951
000370 bb 9f da 5c 42 57 52 bf 87 58 ba e6 0d 3a b7 bf
       -0.001119437033972644 -0.09072958834653565
000380 3b da 54 de cc f6 c7 bf 2d 13 cf df ba 7a e7 bf
       -0.18721924644496987 -0.7337316867129623
000390 8c 9d 47 2e 0c 27 c1 bf dd 47 b6 55 c4 07 d1 bf
       -0.1340041376090365 -0.26609905596080613
0003a0 89 f1 f9 52 3a 60 c3 bf cf 72 07 4f 5f 57 c7 bf
       -0.15137414027766408 -0.1823538909801727
0003b0 b8 23 b2 a1 9e ed d3 bf a5 68 22 b9 8a 17 a5 3f
       -0.3113781527577504 0.041195235347190086
0003c0 39 62 c6 82 e3 18 b3 3f ef 18 30 9e bc e8 e7 3f
       0.0745985216402766 0.7471602525336304
0003d0 4e 1c c6 21 63 f5 fe 3f 8e 55 0b fe ec fd e9 bf
       1.9349089926997922 -0.812246795826171
0003e0 4a 22 6c 4a 15 28 88 3f 13 21 cf 99 8f 1a b1 bf
       0.011795202573481895 -0.06681153779129927
0003f0 eb 89 2b 18 15 16 aa 3f 7b 92 e0 06 80 3d 93 3f
       0.05094972534222449 0.018789291782143707
000400 fa 5f 2f 83 ba 37 bc 3f bf 09 19 54 ac c1 c3 3f
       0.11022535040626727 0.15434793573701985
000410 3d 53 b8 86 d6 56 99 bf 7f 1c 56 b5 36 fb b1 bf
       -0.024745323155076483 -0.07023946692616966
000420 d9 e6 44 e7 5a d7 fa 3f 9f 31 ba c1 48 03 06 40
       1.677576926608188 2.7516036162325714
000430 76 e5 3d c5 1a 32 94 bf 37 30 26 b4 9f 46 ff bf
       -0.019722383774455086 -1.9547421490742758
000440 6b 40 aa 36 cd a4 f9 bf 73 98 d0 6d 1b 58 9e 3f
       -1.6027347693780267 0.0296329770827914
000450 2a 64 ef c3 ac bf 81 bf bc 69 cc 23 48 2e e3 bf
       -0.008666372041192433 -0.5993996333302714
000460 c8 01 22 b4 3b de a5 bf 94 7a 86 c3 21 19 86 bf
       -0.04271112989318088 -0.010790122775515422
000470 f2 82 f9 4a 5e 22 f5 3f b2 43 74 4b 55 a9 00 c0
       1.3208907059380945 -2.0826822180610742
000480 17 15 ed ad a6 1e c7 bf 4a 6c a5 ff 2b e8 8c 3f
       -0.18062289707646847 0.014114707698061352
000490 55 0e 22 1a 86 6d e4 bf 85 24 48 16 3e 00 d2 3f
       -0.638369608918263 0.2812648027034544
0004a0 c6 42 00 c1 99 3b a4 3f bb 92 a8 13 2f 64 90 3f
       0.03951721650094479 0.01600717122541327
0004b0 44 35 76 d1 05 d0 fc bf 4f 6f 9b 77 a6 9e b0 bf
       -1.8007867986774082 -0.06492081089112144
0004c0 2f 35 62 aa a3 f3 7e bf 56 2b a0 4d e5 57 c8 3f
       -0.007556571310613421 0.19018236437144748
0004d0 cc 9a 1f 29 80 93 ab bf 87 4c a4 d0 bb 40 a8 bf
       -0.05385971548075971 -0.047368878573387944
0004e0 77 0d 2a a3 dd 4a 85 3f ee 64 7a 8c fb de a7 3f
       0.010396701375845236 0.04662309732266033
0004f0 4c 46 c6 00 7b eb 98 3f 3d 83 fb d6 79 33 a3 3f
       0.024335786745331142 0.03750210522935624
000500 f4 88 49 d9 ee 9f ba bf 07 bd df d8 e3 22 eb 3f
       -0.10400288395752338 0.8480090366191754
000510 21 57 82 e8 c5 5a 9a bf 04 4e f8 25 45 0a b6 bf
       -0.025736896816474734 -0.08609420945168017
000520 46 ee c5 89 ce fd c2 bf 1a 4c 74 e4 ec aa 9f 3f
       -0.14837056853490277 0.030925466006987624
000530 86 35 55 4e d1 2a c4 3f 5f 35 4e 06 6d 4b be bf
       0.15755668949934093 -0.11833840755408208
000540 a8 5a 26 5e ba cc 9e 3f 4f dd 63 73 4a 89 c5 bf
       0.0300778503384104 -0.16825228342325224
000550 a5 e2 fe cc ab 90 d3 3f f5 50 2c 17 20 f7 93 3f
       0.305705022994099 0.019497395910620125
000560 90 a1 70 a9 82 c9 a8 bf 6f 34 e1 9a aa b9 d1 3f
       -0.048412402328099735 0.2769571793076641
000570 22 a0 71 68 6b 27 9f bf de 57 9a 19 7b 74 3f bf
       -0.030423811197039304 -0.0004799652611863196
000580 9b c7 d3 c1 0d 20 07 40 18 b8 b7 ef 05 62 89 3f
       2.8906512396578825 0.012393995645620534
000590 5b f3 1e 6d 6e ed cb bf 04 1d 44 21 2b d0 d2 3f
       -0.21818332985085473 0.2939555954803412
0005a0 93 b6 4e 2b fd 88 c3 3f 22 0d da 87 40 eb 6e bf
       0.15261807074187014 -0.0037742863049189538
0005b0 06 3d 54 54 47 23 74 3f 73 1d f0 87 98 64 fb 3f
       0.004916456823834686 1.7120595274044177
0005c0 91 07 a2 37 4f a8 94 bf 71 26 4b 5e 70 49 95 3f
       -0.02017329957062192 0.02078795981905163
0005d0 89 17 50 a8 50 8d b1 bf 42 7e ce 47 d9 04 b3 bf
       -0.06856254681778585 -0.07429273608294643
0005e0 62 a9 51 8f c7 c8 ba 3f 91 89 ac cc 9d 1d 94 3f
       0.10462615250586318 0.01964422761660384
0005f0 d9 bd 1e 0f 5e 95 10 40 db 63 f6 1f 5e 9f a0 bf
       4.145866619349783 -0.0324658788696934
000600 4e b7 59 63 a4 83 b6 bf 44 71 71 46 bd c9 b7 bf
       -0.08794619966076064 -0.0929220482807454
000610 60 07 74 66 dd c1 9c bf a7 d8 4a 26 1d ce 89 3f
       -0.028083285692452775 0.012600162249651282
000620 3f f1 2a 24 e9 fe a9 3f 45 b4 86 a8 e4 2e b4 bf
       0.05077293936253335 -0.07884053339394466
000630 fc fb f0 23 c4 38 ba 3f 5c ad 45 26 b2 0a f2 bf
       0.10242868306612246 -1.1276113028532881
000640 34 8e f5 67 d9 96 cf bf 17 80 00 b8 f1 19 b4 3f
       -0.24679105354435793 0.07852087728724687
000650 6a 19 3e c6 33 77 fa bf 0a ce 4b 25 d8 43 cd bf
       -1.6541021102762792 -0.2286329443082738
000660 b0 a3 51 2f 4f ce 9c 3f 60 91 49 27 47 50 a4 3f
       0.02813075758277578 0.03967497210104187
000670 6f 77 9c 3f 0e 97 a9 3f 75 5e 6b 36 8c 93 c6 bf
       0.049980588212050196 -0.17637779862592465
000680 ea 62 23 ee 57 e4 ec bf 64 a1 52 d5 a7 03 b6 bf
       -0.902873959649779 -0.08599328001094403
000690 06 88 31 3e fa fb a7 bf 6a bc a2 32 53 8c 9d bf
       -0.04684431084821487 -0.028855609860951516
0006a0 47 96 c2 57 45 72 01 40 70 69 a6 7e 3b 58 d9 bf
       2.1807963234194037 -0.39601027839821423
0006b0 9f 0b 51 34 12 f3 91 3f e6 45 d0 4f a8 2d c7 3f
       0.01752880520167432 0.18108085534235768
0006c0 09 62 96 8f 64 cd e3 3f 6d 1d bb ea 54 c5 d3 bf
       0.6188223652307566 -0.3089191715520972
0006d0 d0 e1 17 7a 26 ae b4 3f aa a0 a8 c6 33 2e b4 3f
       0.08078232270043562 0.07882999038759189
0006e0 18 0e c7 2f 13 08 a2 bf 6f b0 d5 f1 d0 24 94 3f
       -0.03521785696241525 0.019671692619724398
0006f0 d8 c0 f4 eb c6 ec a9 3f ca 19 f0 ff f7 da a1 bf
       0.050634590438109306 -0.0348737239765345
000700 fe bb 62 3e 3e 1d dc bf b0 83 98 08 1a a0 7f bf
       -0.4392848595843474 -0.007721044248257522
000710 86 d6 ba 41 0d ca 9a bf 78 35 14 88 0b 54 a1 3f
       -0.026161391388731768 0.03384433780784496
000720 df 13 6c d9 2e 1d a1 bf 9c db 1d 75 76 25 a7 3f
       -0.03342577365950893 0.04520769290586843
000730 d9 c6 7f 28 a0 36 a1 3f c0 46 66 5c 27 7f f5 bf
       0.03361988539098854 -1.3435433968883643
000740 1e 4d 10 a7 d5 09 df 3f e9 98 13 47 b6 b9 e5 3f
       0.48497525515377216 0.6789199245656877
000750 30 cf f4 e6 15 6e af bf 78 ac 2f 0a 91 91 80 bf
       -0.061386761134058054 -0.008090146182402544
000760 7c 3e 86 c2 36 0f a9 bf 46 d1 a9 32 b4 2d db 3f
       -0.04894419788899726 0.4246645445594094
000770 8c 21 61 03 c1 12 a5 bf 88 d8 c9 7f 90 42 d2 bf
       -0.041158706343199375 -0.28531277160016844
000780 ae 4d ed d8 26 d5 f2 bf bd db c5 a1 fb a4 82 3f
       -1.1770390008649474 0.009103742479721672
000790 ea af fa 55 fd 3f a8 3f f0 86 43 d3 f5 99 43 bf
       0.047363201852334516 -0.000598187476978233
0007a0 05 4b 28 76 21 7a 6c 3f f9 a5 b2 89 8d bd f3 3f
       0.0034762052102989016 1.2337775591680595
0007b0 ea a0 2f 84 58 8b b1 3f f1 01 2d f5 a8 40 8a bf
       0.06853249766539063 -0.012818641645595515
0007c0 5b aa a6 69 54 5f ea bf 88 48 46 25 6d ef b2 3f
       -0.8241369307991805 0.07396585617087414
0007d0 0a 77 ba ac dd f7 9d bf 0d e9 1f 1b 13 83 0e c0
       -0.029265845935348124 -3.814001285468413
0007e0 0e e2 8c 50 1a d8 cf bf 70 e6 9d 30 71 87 9a 3f
       -0.24878243382569604 0.02590729579194434
0007f0 a3 e4 d5 ce d5 31 c0 3f 4d a0 ca 8c 6e 4d f4 3f
       0.1265208492220938 1.2689042567890454

fc2.bias f8 [3]
000000 fe b6 7b 75 18 04 0c 40 21 82 22 10 b2 cb cf 3f
       3.5019997766856923 0.2484037951262659
000010 3c 29 7b e0 09 4d f2 3f
       1.143808247451104
