car_ros2/car_ros2/model_new.pth (torch, 107179 bytes, 4 tensors)

fc1.weight f8 [300, 40]
-1.2079192639437657 0.253057221638657 -0.027256692537095534 -0.6473272064277813 -0.06217164856256129 -1.0388773369398638 0.023708610861039592 -0.10658450024225301
-1.194971871680675 -0.1635409488302036 -0.20595846975900026 -0.04832351825756428 0.022842970442647242 -0.9803135011305333 -0.2446737398939918 1.346056946381127
0.09891647576274064 0.18561043907780214 -0.7395823604010076 -0.18830571336792776 0.9658944585840153 0.12681705402727866 0.36092906582778145 -0.08465034399479512
0.22317850909926948 1.7045277086090413 0.10512255213966516 -0.009399646178936214 0.5928154309801075 0.30473113040621586 0.7649209104825868 -0.28574503585819344
-0.36137121555400625 0.9399266332344526 0.019453175733907126 -2.3231995949714634 -0.1570931048979562 -0.12212749001159111 0.7778663830990455 -0.11051804050383525
0.30750188568578657 -0.4011031124098113 -0.216921530675879 -0.6879434046140924 0.2607369239006841 -1.4279235229686722 -0.16884377958810298 0.25384927780526645
0.445981512935727 1.3203806957147306 -0.653738731176039 0.12502236908371936 0.5978271930771148 -0.5770994522096276 1.412479652060545 1.6128099843290244
0.35671559648062984 0.06579023230439392 -1.186013601331155 0.9388085841803423 -1.5513332050813384 -0.33367022098848503 -1.0860501548994776 -0.4739343401166492
-0.08231998365694317 -1.8274649937406275 -0.5510348010718383 -0.9077961042779406 0.22686123998532662 -2.290932921212622 2.041851116811238 -0.6478399033791112
-0.3245811928140981 0.05549632031531011 -0.17267489443103134 1.2243072159325672 0.0988156645765924 0.5754563109545212 -0.16300774784652103 1.0253913071408687
0.48013445039815705 -0.3744456841804637 -0.5041412730518251 0.30459440218192846 2.554451281305597 -0.7115029529249473 0.024125020490469246 0.7183601699769832
-0.06328142906423624 -3.0107801837363892 0.1705864013193698 0.017423185657645092 -0.2552724038627847 -0.5152783205823652 -0.8097510594698782 -0.14782788099500987
0.5410088544459796 0.5504478237580002 0.21149328576711235 -1.485765400539696 0.07474502215720484 0.656085726756673 1.0383305985613966 -0.15201287309779857
1.1777086556779837 -0.6350912299318929 -1.3412491024859434 -3.4647591852778064 -0.07296745161681416 0.27645053041042744 -0.33338967587747176 0.1748437637733114
1.6184811250210476 0.08663638313024906 0.5382306477870444 1.0204831632469058 0.6258612675341836 1.007477257019507 -0.09405652473565222 0.5295176183251867
0.539550220469633 -0.36743789772860486 0.32520514591743627 -0.23088142504386902 0.016106548335654936 0.12081869871545413 -0.07392393653930394 -0.0534073681005376
-0.25020232910043366 -0.1027483843836773 -0.06960624078321616 -0.1901704696016688 0.07334390650898578 0.07996479460970937 -0.6840072231965382 0.47050396956132173
-0.21358961354120176 0.12165652274526095 0.028792480130861033 -0.07161721672156957 -0.003049704452347646 -0.11760029906833222 0.3198086771215459 -0.00016375284739201954
-0.25500721844961755 -0.27825400159509317 -0.4763506775227642 -0.8523719913038902 -0.26180763151376596 -1.0423788509282697 -0.09300052344327865 -0.15466652968445974
-0.18858519761552014 -0.4070643753599356 0.1942402366257851 -1.124098534400313 -0.9547764760643161 2.279297040060661 0.05115792329804815 -0.731202476588366
-0.04975606657884269 -0.021087232616216603 0.1724533774475235 0.4049790484417233 -0.7487846072939124 0.16392406778709923 -0.15089220550438162 -0.2158274398710229
0.05074678696444684 1.2914867913918147 0.2370419256879944 -0.026276529997114734 0.2806753195891108 0.221957390079977 -0.07296424219260225 0.3817272837183768
-0.1775133870109103 -0.6917104825786734 0.4089903689548914 0.631144350459777 -0.8295543062956361 0.8377386546098453 1.6779702872055262 -1.0318291315806263
-0.03957517385399217 0.5572753849225143 -0.3984181953842755 -1.437196478810564 0.5472378151663889 -0.13151384557018803 0.10797749617518325 -0.05981463563590824
0.30614539529104434 -0.4688721245156337 -0.01621633313349657 -0.5917305177545604 0.07066291176783361 -0.5191453641056133 0.37349727402111466 -0.04987205056690174
-0.24806946775509772 -0.21822147361892877 -0.1487827199621746 0.10631818154332227 -0.5409862242989413 1.1815225087216272 -0.21251112414730397 -0.464786113587793
-0.6004834541678523 0.3637409602938973 0.36330531826056034 -0.17345337142334086 -0.0406466623469758 -1.4929915081096197 -1.27716678691227 0.025855872058348935
0.1345084427311602 -0.205451509708485 -0.5854637922896808 0.06316049915881365 0.2908764521903601 -0.3079422282621048 -0.8857451385934266 0.6869997884373008
1.401917819190611 -0.7597599967505508 0.14240453479084597 0.6856981814696425 -0.31435745791819564 0.5973694988305034 0.11055935498811485 -0.2139986628823796
0.40704441342552683 0.11138049112670009 0.19076048567672718 -0.23101977829587167 -0.3247461140420902 0.06137638222472543 0.10799853666083307 -0.324256442802573
0.03240398162892661 0.6127898098844738 -0.22102798312829006 -0.20148460760424736 -0.014597068123549859 0.6613355407420856 0.47520711506967017 -0.07169557893036113
-0.045859098748604624 -1.1146865165177737 1.2728981728686433 0.48270635136673784 0.938517078304283 0.5153152001232802 0.3915345729376227 0.4700344207308496
00000000: c38c 6d26 a353 f3bf 1319 bdea 1632 d03f
00000010: e801 2dac 2de9 9bbf 3863 ad8b e7b6 e4bf
00000020: 0f14 a15a f6d4 afbf 8865 abd7 3d9f f0bf
00000030: 8084 20f1 1147 983f 130d cd2e 1f49 bbbf
00000040: 7022 48d3 9a1e f3bf 122a 64e9 e8ee c4bf
00000050: 797c f9dd d85c cabf bb79 1635 dcbd a8bf
00000060: 5889 facb 2564 973f 50da 656b ba5e efbf
00000070: 3971 8417 7851 cfbf 472b 3402 7389 f53f
00000080: 97c1 6f14 9752 b93f 7f53 d136 15c2 c73f
00000090: b3dd 53a0 a8aa e7bf 7758 48d0 661a c8bf
000000a0: ed30 e07e 9be8 ee3f 22a5 cf8d 8a3b c03f
000000b0: 67fe 7939 7619 d73f fa83 0d1b a5ab b5bf
000000c0: e72d e006 1d91 cc3f 5ca0 b9d8 be45 fb3f
000000d0: f90c 83c3 4fe9 ba3f d2c3 7527 1f40 83bf
000000e0: 68f5 1311 58f8 e23f 5fbd caff b680 d33f
000000f0: 7d93 d16a 3b7a e83f a456 008c a549 d2bf
00000100: 574b 21bc b420 d7bf 1b34 cc04 e113 ee3f
00000110: 3a67 5286 88eb 933f f1dc 53ab e995 02c0
00000120: 6e5e fb79 a01b c4bf 7bd7 8a47 bf43 bfbf
00000130: c22e 820a 48e4 e83f 5dfc 9409 e94a bcbf
00000140: 65a4 9e63 1cae d33f d1ee 8763 acab d9bf
00000150: 728c 06b0 15c4 cbbf 2220 0ae3 a103 e6bf
00000160: 49d6 40ec e9af d03f ce6e 0556 c6d8 f6bf
00000170: 3662 bb47 ac9c c5bf 8e5b 920a 113f d03f
00000180: b97d 2b0b f68a dc3f f9d4 2582 4720 f53f
00000190: acf2 d07c 6deb e4bf 79d3 3da5 bb00 c03f
000001a0: 389f 5d7e 6621 e33f a8f4 3845 9977 e2bf
000001b0: 16d9 7d43 8499 f63f daaf 95d7 11ce f93f
000001c0: 43e0 36a7 6dd4 d63f edc3 24f0 a0d7 b03f
000001d0: 8241 e565 e9f9 f2bf b946 c84c b80a ee3f
000001e0: 115f 50c4 42d2 f8bf 51db b257 da5a d5bf
000001f0: 6dbe 9120 7660 f1bf 7d26 d0b2 f054 debf
00000200: a923 9d25 ec12 b5bf a436 ebee 4b3d fdbf
00000210: 15f7 31bc 13a2 e1bf 32eb 696a aa0c edbf
00000220: 2dc6 3b03 ca09 cd3f ef80 afa3 d453 02c0
00000230: f10a d009 b655 0040 9fd3 c1bf 1abb e4bf
00000240: 4d20 0232 f0c5 d4bf 0aee 9a81 036a ac3f
00000250: c4f4 3500 361a c6bf b7fe ca29 c396 f33f
00000260: 5760 b0bf fb4b b93f 7c72 7a5a 236a e23f
00000270: ff69 ff18 70dd c4bf 125d 1cb7 0068 f03f
00000280: 3827 89d8 85ba de3f 6bbd eb07 ebf6 d7bf
00000290: de48 0ae1 ec21 e0bf a0a0 fa84 797e d33f
000002a0: 7276 4327 846f 0440 103e 3ad7 a1c4 e6bf
000002b0: b86b 16b8 3ab4 983f c79a 9977 cefc e63f
000002c0: ed68 4634 3633 b0bf c6bd c4eb 1316 08c0
000002d0: 1e8e 6773 c6d5 c53f 5aec 5d32 62d7 913f
000002e0: a05d 8a10 6256 d0bf 66a6 e7f5 287d e0bf
000002f0: 2062 ca0d 7be9 e9bf 04c0 2725 06ec c2bf
00000300: 1924 16cd f14f e13f 4c3d 26c1 449d e13f
00000310: 08bf d844 3612 cb3f 978a cdf0 b1c5 f7bf
00000320: b338 b461 7d22 b33f 8b5a 797e a7fe e43f
00000330: ea1d b48b 009d f03f 6155 4367 2875 c3bf
00000340: 27a6 0508 e5d7 f23f ae15 d1d7 aa52 e4bf
00000350: b376 6f9e c175 f5bf 3045 eaa9 d3b7 0bc0
00000360: afde 5db2 fead b2bf e4c6 c490 5db1 d13f
00000370: 21f0 ada6 4156 d5bf 2270 a8cb 4761 c63f
00000380: fb89 d276 4ce5 f93f 532a 3050 cd2d b63f
00000390: 7468 be7a 2f39 e13f b639 4427 e653 f03f
000003a0: bf8e 7c35 0e07 e43f 15cd e578 a01e f03f
000003b0: f30c b7a1 1614 b8bf 7f99 abee cef1 e03f
000003c0: e8ee eed2 fe43 e13f dd8a 833e 1a84 d7bf
000003d0: f733 8d3e 29d0 d43f 0d9d e8c4 858d cdbf
000003e0: 1d8e 6929 3c7e 903f 3768 ba67 f9ed be3f
000003f0: 97f0 d3d9 adec b2bf 82e8 b6e6 3558 abbf
00000400: 1da4 37a1 5003 d0bf 190d a5d6 b74d babf
00000410: 15ec c2ef b6d1 b1bf 1f54 cd85 8157 c8bf
00000420: 4e25 d18f aac6 b23f 5618 aea1 9278 b43f
00000430: c26b bb1d 63e3 e5bf 0fdc 79ae bc1c de3f
00000440: e45d 768a e756 cbbf b835 89c2 e124 bf3f
00000450: 8a90 21a2 c67b 9d3f cc51 a683 8155 b2bf
00000460: 015e 549c b1fb 68bf fe90 7f9e 0d1b bebf
00000470: 36b3 4dd0 be77 d43f d2f1 933f a276 25bf
00000480: d10a dfcb 0952 d0bf 6c40 35df e9ce d1bf
00000490: 51d0 588d 877c debf bfa6 55a0 a146 ebbf
000004a0: 5278 cccb 74c1 d0bf b176 2c72 95ad f0bf
000004b0: ad23 b3de e1ce b7bf a5e9 63e3 1ccc c3bf
000004c0: 7f59 224c 8f23 c8bf e767 e2bc 570d dabf
000004d0: 9601 f033 dddc c83f aab1 abbe 4efc f1bf
000004e0: b3f6 7565 878d eebf ee70 2716 003c 0240
000004f0: 4227 fe0e 5f31 aa3f 8a70 76bc 0266 e7bf
00000500: 31ab 778d a079 a9bf 0497 cc39 e497 95bf
00000510: d365 1cc8 f312 c63f 6cd5 273e 2deb d93f
00000520: f66a 0223 0bf6 e7bf e020 16bf 76fb c43f
00000530: ab6a ee8f 6f50 c3bf 57a8 e9c9 3ba0 cbbf
00000540: 975c c79c 7bfb a93f aee6 c30d eea9 f43f
00000550: a32e 4ecb 6357 ce3f e5ba f513 3ce8 9abf
00000560: 397e 9b9d 95f6 d13f c2df bf89 1969 cc3f
00000570: 62a1 fed9 c8ad b2bf 05ed e345 386e d83f
00000580: d232 e837 c2b8 c6bf 9739 9f05 7e22 e6bf
00000590: 2a93 c2f0 e52c da3f fbf4 08a3 5532 e43f
000005a0: 9276 f978 b58b eabf 509e 844b c1ce ea3f
000005b0: c451 335f f7d8 fa3f 932e 7343 5f82 f0bf
000005c0: 3771 df7a 3243 a4bf d274 2330 33d5 e13f
000005d0: a2a2 d307 af7f d9bf 05af 26bc c1fe f6bf
000005e0: b3c5 e8e0 f882 e13f befa d818 72d5 c0bf
000005f0: a7c0 c6c6 69a4 bb3f 4bbb c11f 06a0 aebf
00000600: 5225 26db e297 d33f 733e 333a 0002 debf
00000610: bfac e0b1 039b 90bf aaa1 b9d6 74ef e2bf
00000620: 1b3e 15ef f616 b23f 1184 16bd d69c e0bf
00000630: b036 441c 61e7 d73f a7ae 5654 d488 a9bf
00000640: 7b77 9285 bdc0 cfbf 8136 3d66 aeee cbbf
00000650: 9346 39ea 4f0b c3bf efe1 b218 ab37 bb3f
00000660: 476a 9e57 c24f e1bf fe27 6725 84e7 f23f
00000670: dbda 1f84 9033 cbbf 16a6 5f41 0ebf ddbf
00000680: d014 ae13 2937 e3bf 1963 2b2a 8847 d73f
00000690: 2c16 19f3 6440 d73f d174 d256 b833 c6bf
000006a0: d391 f1aa a3cf a4bf a695 4810 4be3 f7bf
000006b0: a935 d570 466f f4bf dfc5 9933 f679 9a3f
000006c0: f679 4899 9237 c13f 774e 8e2d 3c4c cabf
000006d0: c80a 1c90 1ebc e2bf 7b40 4956 492b b03f
000006e0: f761 5544 b89d d23f de5b dc51 53b5 d3bf
000006f0: 3131 5b30 0658 ecbf db4e f6fa e6fb e53f
00000700: 2ea7 1161 416e f63f 2c49 5b32 f44f e8bf
00000710: 9648 ddd1 4f3a c23f 59d7 0a50 3df1 e53f
00000720: 49ca 40be 6e1e d4bf 865b a3a3 a61d e33f
00000730: c7d8 f02d 9e4d bc3f a9d8 3be5 4e64 cbbf
00000740: 33a8 eb02 040d da3f 5635 cd8e 6e83 bc3f
00000750: 1be1 acef d66a c83f b245 415c 0e92 cdbf
00000760: 5816 d4ec a3c8 d4bf d3d1 cda4 b96c af3f
00000770: eb60 f9c6 caa5 bb3f 99ad 5618 9ec0 d4bf
00000780: 497d b632 4197 a03f f3d3 1860 f99b e33f
00000790: 5bb7 841b a54a ccbf 9860 2764 3fca c9bf
000007a0: 7240 aa51 11e5 8dbf 746e e526 a929 e53f
000007b0: 5c3f 831a cb69 de3f 6610 c636 a45a b2bf
000007c0: 52d6 b202 d87a a7bf aac6 5b87 c1d5 f1bf
000007d0: 5fbe 7979 ca5d f43f 9143 2c2e a9e4 de3f
000007e0: 5fbd c1f7 5408 ee3f 6b28 754d 767d e03f
000007f0: 804e 8106 e70e d93f a521 4240 0b15 de3f

fc1.bias f8 [300]
-1.005528954487474 -1.903328840591182 -2.72885138797571 -0.4517714225652247 1.2135761423097942 -1.8420521523545026 -2.0203656355529236 -2.867781790229504
1.506766927478187 -1.61940640888728 -2.8554251625591553 -1.1911249335175793 1.6295892277391513 -1.7232966668950256 1.3497169200118067 1.1061800704164158
0.9931984094408038 -2.704959229943812 0.3939418082009411 0.06610542609655229 -1.4334421735855272 1.1264851085482899 1.2462606655988764 -2.783415133122483
1.0665092419254594 0.20695681339273442 -2.0624350870420636 1.4910657700297207 1.6812309191218533 -1.4326776587414385 -1.6268187944035133 1.075262307193572
-2.694256810889309 -1.0835538958924849 -2.3080406502392945 -2.674626134707332 -0.237264625407864 -2.954952452745088 -1.6206290673437362 -1.1451021260745113
0.8226310558732095 0.9815240096311777 -0.17655357598095633 -1.1298142141962628 -0.8918531988116696 -1.7724267131333262 0.964749651295748 1.1136650422465928
-1.9586373112638091 -2.2034196694983526 -1.9656856025768912 -0.2567777628953812 -1.6728227903720667 -0.2617165449776761 -0.24578078617755175 -0.41931755563801515
-2.7423731318976623 0.9032660988683158 1.0623773510710606 -2.106522177367091 1.3829874468577654 0.3006615740910218 1.1308574463514944 -3.0229529342782366
-1.8719059602297956 1.4459381994402616 -0.9494309433801903 1.121258848268621 -2.4827016248832154 -1.1070216332287919 0.6881972134061356 0.6613932973864375
-1.9702686949612553 -1.8612478575968643 -1.7762207682229911 -2.6357250185147096 -3.040312210041034 -2.6068717432835005 -1.2210775345927845 2.436020720958455
-0.9844900948640191 -0.7919457486195733 -2.4509827811955938 1.488341497113207 1.1340684089961977 -1.0534202438435547 -1.2656455520956733 -2.988457036837075
0.010368582697889749 -1.719620066499474 1.8112607463596824 -2.5210229053327433 1.0100609812009453 -0.9518773742887142 -0.9571668218319497 -0.16186859919197732
-1.1176995218982857 1.0778249488620801 -2.160203879108419 2.3038710597294094 0.4541225469047227 -2.4392315478435806 0.5643428184692348 -2.118893661110704
-2.4983776083557565 -2.4356410373595776 0.8928557683299964 -1.3821178374220169 1.1688664553331987 -1.800353222952745 -0.3037805287457433 0.825911679268097
-1.255310206470787 1.0674785945521008 1.453343271547458 0.9442138474448003 -3.2218364868799085 -1.9640351393699522 1.171114856544739 1.0010690556708715
1.0999504059787628 1.7534402915539529 1.4618576028141708 1.043406164518028 -1.4806942340717322 1.3220340685180936 -1.6832851353833886 1.0458399365002435
-2.220879103551221 1.9915559848420432 1.0400890469967055 -2.4975293502393776 0.8299291123650632 -2.524619526926796 1.2770462812782264 1.15364200492041
0.0891006954700799 -2.411091876572119 0.7859972359577149 -2.983883193146455 -2.932463081768257 1.159301964963391 1.5180025829462311 1.2253598576282256
-2.034153775089871 0.9619152652126249 -1.923359914300114 0.3999894291356538 -1.6248548220713392 1.4320008519713567 -2.210716882067281 -2.8391872732399555
-1.4775743093417395 1.218863842733275 0.7014900672931097 -2.2567931729588167 -2.127510635256147 -2.5462662551156816 1.4267586373622063 -2.4845803094184116
-2.668812571985326 -3.147215658166793 -1.7872110259486038 -2.1763955643008814 1.772368734421969 -2.0304872897042117 0.9733115281908418 -2.635368871211841
-2.8657788074738186 0.3662687581736757 -2.4403038594017303 -2.457977847147551 -1.526791149153422 0.05953732689597057 -2.3671481712980924 -1.7878943904109237
-2.098016374836176 0.918417304970916 -2.775068644042102 -2.7276860264676444 -1.1790629742479224 -1.9143223358886592 1.3247257576596545 0.9942818763792588
1.7466921823484818 -2.05757145806053 -2.302980202682932 -2.6320266706146183 -2.925779941362815 1.0002763556364642 0.7527802535100178 1.1724494582826794
-0.8174131379390523 -2.4414204366237606 1.0553344237514921 -2.9435993770612514 -0.6360959216588329 -1.9262507096694303 -3.9085478554111126 -1.7126108152079236
-0.47808136076007335 -4.131674122393992 0.998189226464408 -2.029714296170535 -3.587169630845829 -3.530184316143409 -2.3247297607611794 -1.9198902310126533
-2.7754210462778968 1.0021704715191222 0.5934483921709907 -0.46708652926961053 1.4162804533951427 1.1674496618437729 1.067313196443873 1.0165479236599295
-2.3179096380461757 -1.4602045080418944 -0.9416694984928986 1.5613686282965125 1.087026609942992 0.9943246964709256 -1.9184740469723423 0.6588502360538804
-0.4403886311998399 -1.2965939597094243 2.5414644203503025 -1.5643809220313873 -3.0567681287199333 1.3328625421442153 -2.147906120157038 0.7098794854497256
0.32908291164552894 -0.891083920952688 -1.4636689950906783 -0.1065021459463229 1.5046789325175525 1.3724325145266678 1.0495311231528026 1.3164755052281296
1.1237244230648116 -2.7132313738925786 0.609683647607772 1.4847107522876777 0.37290753336592575 -1.4648960604120878 0.6022283444293611 -2.8627574541329888
-1.9314038476855544 -2.3772389892714725 1.1544992266925702 -3.016875296026593 0.9340298324566951 -0.3075665411028834 -2.390664061336447 1.2029032516400502
00000000: c046 6b87 a516 f0bf adf6 3df1 0874 febf
00000010: c2ff 5709 b0d4 05c0 a3d7 4baf d2e9 dcbf
00000020: 91d2 26d1 ce6a f33f 5639 7ead 0b79 fdbf
00000030: e74b 5575 b529 00c0 e8cc 4894 37f1 06c0
00000040: 5669 43a3 b71b f83f a3a8 d1b1 16e9 f9bf
00000050: bbef ca25 e9d7 06c0 e587 ae04 d90e f3bf
00000060: 58db 7027 cc12 fa3f 47eb 9986 9f92 fbbf
00000070: daef e4c4 7098 f53f c7ce 9edf e9b2 f13f
00000080: 5b99 df07 48c8 ef3f e4f9 2caa c1a3 05c0
00000090: 6702 b0b3 5736 d93f 0c3f 2c03 49ec b03f
000000a0: a61c 840f 61ef f6bf ab55 ca3f 1506 f23f
000000b0: 269d 1006 aff0 f33f d39e 3f27 6f44 06c0
000000c0: c139 affe 6b10 f13f c063 9a94 8f7d ca3f
000000d0: a5bf 87f7 dd7f 00c0 4067 e7c7 67db f73f
000000e0: 2770 6a64 52e6 fa3f b911 a068 3fec f6bf
000000f0: 26b3 e724 7307 fabf 4f49 c03f 4634 f13f
00000100: d45b ce83 d68d 05c0 5cfc 249c 3c56 f1bf
00000110: 46ee 3404 de76 02c0 51c2 0c63 a265 05c0
00000120: 85ee 4fef af5e cebf 7c33 8e1c bea3 07c0
00000130: 6503 b3be 18ee f9bf 1c1f 619b 5652 f2bf
00000140: c0c7 345d fe52 ea3f ae59 330a a568 ef3f
00000150: 5c3f 6abd 4e99 c6bf 5376 c811 b813 f2bf
00000160: d854 37b8 0f8a ecbf 396e f71c dc5b fcbf
00000170: 8590 24a9 3adf ee3f 775c 726f 92d1 f13f
00000180: a9a7 c913 9456 ffbf 51de de7d 9aa0 01c0
00000190: a492 14bf 7273 ffbf f171 7eff 0b6f d0bf
000001a0: 816c 8ad4 e1c3 fabf 2f14 60c0 f6bf d0bf
000001b0: 8d12 4fab be75 cfbf e1a6 064d 19d6 dabf
000001c0: ba6f 1753 61f0 05c0 8932 474e 8ee7 ec3f
000001d0: f3c7 ad64 7fff f03f 12b9 a04c 28da 00c0
000001e0: b285 f071 b720 f63f e2a0 f80a 0a3e d33f
000001f0: ad48 48fa fd17 f23f ff93 b0f2 012f 08c0
00000200: befd 05aa 53f3 fdbf f820 ea17 9022 f73f
00000210: 671b 7400 bd61 eebf 31a1 3a1e adf0 f13f
00000220: b7cb 64ab 92dc 03c0 29ea ea50 5cb6 f1bf
00000230: cce2 9829 b605 e63f ef2f c246 222a e53f
00000240: 1f0f 9377 3886 ffbf bc0e 62d5 abc7 fdbf
00000250: 5fe6 df77 666b fcbf 4a28 9eff f615 05c0
00000260: b90b 3e35 8f52 08c0 3427 9292 dfda 04c0
00000270: 144d cf98 8889 f3bf c428 876e f87c 0340
00000280: 29a9 155f f180 efbf aedf 509c 9e57 e9bf
00000290: 855a 42dc 9c9b 03c0 2d18 762c 3fd0 f73f
000002a0: f70b 81ea 2425 f23f e209 842f cfda f0bf
000002b0: b042 e98c 1540 f4bf feba b529 5ce8 07c0
000002c0: 3918 bf9c 1f3c 853f c391 b254 9083 fbbf
000002d0: 504b 628c ecfa fc3f e2f7 960e 0e2b 04c0
000002e0: 6794 13b4 3529 f03f 87ea 0b8a c775 eebf
000002f0: 15b4 9250 1ca1 eebf 2ab2 e339 1cb8 c4bf
00000300: 75ed d4e4 18e2 f1bf e0ce a25f c53e f13f
00000310: 38b4 abf8 1848 01c0 cfe8 3df3 536e 0240
00000320: a73f d503 5810 dd3f 8ae0 6ad4 8b83 03c0
00000330: bbd9 a1ab 180f e23f a060 1185 7ef3 00c0
00000340: c892 4766 adfc 03c0 090a 425e 317c 03c0
00000350: 93b6 a042 4692 ec3f 0722 ef97 271d f6bf
00000360: b2c2 f04f adb3 f23f a648 5d2e 3fce fcbf
00000370: b7f8 07e3 2371 d3bf cde8 7a54 de6d ea3f
00000380: 5908 b227 c015 f4bf 4680 4c6f 6414 f13f
00000390: 1587 d2df e440 f73f 8295 66f5 ff36 ee3f
000003a0: 80ab 4135 52c6 09c0 b59e 3c1c b06c ffbf
000003b0: 9a82 8bee e2bc f23f cf4d 72fc 6004 f03f
000003c0: 4e69 ce98 6599 f13f 2c68 3b68 170e fc3f
000003d0: e2ee 37cc c463 f73f adcb 90a9 cab1 f03f
000003e0: f76b eb6f ecb0 f7bf 83ba 0732 0d27 f53f
000003f0: 8c08 e564 bcee fabf 80e8 41a8 c2bb f03f
00000400: 74fa 7043 5cc4 01c0 5bcb f0ce 69dd ff3f
00000410: 6175 9c69 34a4 f03f 45a0 00ab f0fa 03c0
00000420: 7266 737f c78e ea3f daf2 f7b8 6b32 04c0
00000430: 2a18 d914 c86e f43f eecc a651 5175 f23f
00000440: fe47 189d 4dcf b63f 693a ac89 ea49 03c0
00000450: b9e9 e5ac e326 e93f 422f cd26 fede 07c0
00000460: 5560 4734 af75 07c0 044d 9b37 808c f23f
00000470: 21f6 8f13 bd49 f83f d982 25f0 129b f33f
00000480: 135e 186a f245 00c0 8390 b385 02c8 ee3f
00000490: 9fb3 a50b 15c6 febf af88 3843 6d99 d93f
000004a0: 75b5 18c5 67ff f9bf 53fa b0b9 79e9 f63f
000004b0: 708d 2955 8caf 01c0 bb47 2ed1 a7b6 06c0
000004c0: 5c85 80f5 24a4 f7bf 940f 6d5f 7780 f33f
000004d0: 92c4 2f4c 9b72 e63f b38d 3d94 e90d 02c0
000004e0: e789 c24b 2405 01c0 be0a a5d7 c05e 04c0
000004f0: 6519 6cdd 00d4 f63f afe6 29a4 6be0 03c0
00000500: 1da5 de67 ba59 05c0 b048 2a67 7f2d 09c0
00000510: 6eff b796 6a98 fcbf 6da7 de13 4269 01c0
00000520: 69b9 6c51 9f5b fc3f 40c9 c11e 703e 00c0
00000530: 46c8 cc37 5e25 ef3f a602 5646 3c15 05c0
00000540: 055c 7d70 1ded 06c0 11c2 7984 f270 d73f
00000550: d076 a307 be85 03c0 6a54 1e4a f0a9 03c0
00000560: b3fa 568e bc6d f8bf 0fa4 d12f ad7b ae3f
00000570: 9417 6461 ebef 02c0 b444 f825 379b fcbf
00000580: 9d26 23cf bcc8 00c0 01c7 1db0 ac63 ed3f
00000590: f386 7230 5733 06c0 507a 2b0d 4dd2 05c0
000005a0: ec1b 2523 71dd f2bf 4f4e 2a75 10a1 febf
000005b0: 9612 d5a2 1332 f53f e7bd c139 28d1 ef3f
000005c0: 7dd9 7580 73f2 fb3f 926c 4c06 e875 00c0
000005d0: 81de 6ee2 806c 02c0 99ea c3ff 630e 05c0
000005e0: 9791 5b50 ff67 07c0 1abb a6c7 2101 f03f
000005f0: bfcd 3c9d c616 e83f a797 f85c 5ac2 f23f
00000600: 609b d898 3f28 eabf 45ae 1870 0788 03c0
00000610: cdb0 4559 a6e2 f03f 4a08 88d4 7d8c 07c0
00000620: e898 94d5 e55a e4bf f8d4 9e43 ecd1 febf
00000630: bbbb eebc b444 0fc0 be80 2199 da66 fbbf
00000640: 18ab 5290 e298 debf 94a5 c594 d586 10c0
00000650: 1f4b 5c88 2af1 ef3f 7735 52d9 da3c 00c0
00000660: 727f cdfd 85b2 0cc0 2981 5546 d13d 0cc0
00000670: af0e b4ea 0b99 02c0 69bf a1d1 deb7 febf
00000680: 3c26 13f3 0f34 06c0 8110 83e7 e308 f03f
00000690: 3b9f 877b 87fd e23f 315e e7e5 bee4 ddbf
000006a0: 32bd 54b1 15a9 f63f 3386 55b2 dfad f23f
000006b0: ef0c 9500 b713 f13f 46fa 6ec1 c743 f03f
000006c0: a3ee 5335 148b 02c0 f22f f866 ff5c f7bf
000006d0: f85d 7512 2822 eebf dc8a b8ab 5dfb f83f
000006e0: f063 b903 7664 f13f fc53 9e06 82d1 ef3f
000006f0: 2089 9fd7 11b2 febf 8606 1a17 4d15 e53f
00000700: 2725 22cc 532f dcbf 374a d24e d9be f4bf
00000710: 32d1 4a4c eb54 0440 35c7 294a b407 f9bf
00000720: 3675 42d9 4274 08c0 4c2a 49ac 6753 f53f
00000730: 2e9f 6767 e92e 01c0 bf73 c32e 55b7 e63f
00000740: 0829 ccc5 b10f d53f bc76 4f6d c283 ecbf
00000750: 9f56 212e 306b f7bf 2014 cb81 b943 bbbf
00000760: 0d4a 6237 2a13 f83f cebe ddcb 7bf5 f53f
00000770: fc34 a125 e1ca f03f ce09 8f9e 4810 f53f
00000780: 337a ec75 c6fa f13f 56cc 8aa6 b2b4 05c0
00000790: 2e34 ec47 8782 e33f aa85 d10f 60c1 f73f
000007a0: 8846 0f8f b7dd d73f 8225 f8d9 3670 f7bf
000007b0: eb8b 8160 7445 e33f 1f0d 4f61 ede6 06c0
000007c0: 2dd9 92b8 07e7 febf 9993 0de0 9504 03c0
000007d0: 196e 5e2e d478 f23f 365b e483 8f22 08c0
000007e0: c679 fc87 92e3 ed3f c85d d892 2baf d3bf
000007f0: f64c b97a 1420 03c0 b8bc e07a 173f f33f

fc2.weight f8 [3, 300]
-1.2935951355551447 -0.07440025115329202 -0.2473994143600481 0.15075795489520874 -0.7661802207392204 -0.05515443396830408 0.055278862901582834 -0.0835941463788566
-0.12621467213620519 -0.15342544496372154 -0.11149092006026586 -0.649676959050325 0.8809080068100853 0.032094948841823054 -0.7439051560704784 0.2583656869906223
0.5803878577625036 -0.0191998881512868 0.7836485487982457 0.38582201681332795 -1.23249186591919 -0.11632479977244127 0.3030127152997481 -0.1170332158686424
0.5916619573335302 0.06863724065594679 0.18989289883817048 -0.03543367456865703 0.1121136992405831 0.0371297158579779 1.2024188532852618 -0.44581648897779574
-0.03990730109161049 -2.0136476176980334 -0.23752784355794362 -0.07749992903714242 -0.1157363722294824 0.1552438114282874 0.09207603820114228 0.03050293509307255
-0.6497579354596267 -0.14049635398968452 0.009529156142113937 0.04974884571099324 1.8631276028906667 0.653916038910229 0.6558447680357028 0.7660384786413006
0.14675695924022447 -0.015293196881773307 -0.05799172756081822 0.047240238193763086 0.045169587488180944 0.09019363229674816 0.0639212027711505 -0.06740769089762187
-0.05833920101405588 -0.06996669594106075 0.7397518488058207 -0.008658154473313225 0.14617618364443458 -0.3428313820425522 0.7078736808980072 0.0504771746710797
0.4869230977848574 0.32626769121563665 -0.09703142673540788 -0.6996917064884236 0.1536062556786232 0.07320517645819147 -0.07688143486936226 0.12613038954488529
-0.001633825262859153 -0.10117892452796702 -0.10178405402657512 0.06509234755114367 -0.14005040031797472 0.075362929170038 -0.04791272641083361 -0.06352315840203061
0.02318666816289383 -0.029970263622579645 0.040107284601036235 1.0210954949888575 -0.07255085697810103 -0.3494512681259272 -0.053607620048553066 -0.03702997305482744
-0.030300768758543022 -0.44386626075410585 0.011265830829187818 0.012052544942348939 -0.8009868121391108 -1.6602949410453376 1.5279624103929972 -0.47552552137310444
-2.3938996338497613 0.43141863974116457 -0.15946704216041083 0.027616814370637507 -0.0919491006526414 0.039662818621750875 0.4858557984209735 -1.0261077861701293
0.002679253034072052 0.07267071369634356 -0.5446997612382708 -0.10277726954820902 -0.02420240266969853 0.28294439710918146 0.032464719202689216 -0.6907603852116758
-0.8181012378752918 -0.04579399730514003 0.020583936874957808 -0.15036555531577078 0.2239790822351668 1.0355948253387 0.030280149918368766 0.004245996077279364
0.8343183754281863 0.20520982782497765 -0.2804100190940128 -0.8053603824013842 0.6964924107324931 -0.8041712841760883 -0.172101752584909 -0.7705581873820025
0.14437797761612875 -0.010173687149044127 -0.13803989923057103 0.039463608674976135 0.01940878284331463 0.09830462314506963 -0.020828391788460403 -0.01917028869076155
-0.0032163763502035753 -0.011828057507340064 -0.13704183943729556 0.014371990158189196 0.06880714983323459 -0.06875168762916806 -0.06238008994144297 -0.14279518545969078
0.20703210572236003 -0.04465940598512165 -0.08014043885915835 0.0009932315471456973 0.04660987646861454 0.8312762120174918 0.18071271585803142 -0.011865414230110184
0.0037613276218159235 -0.759353539972458 -0.011671770994143963 -0.3878457664299779 -0.03172363428729653 -0.03587082597092726 -0.08035476441660273 0.1339469165649873
0.14868524895932891 0.004505518510977932 0.15019264923129866 -0.011658822099460623 0.008133532716772687 -0.16610381673463565 0.021179849329860737 0.044444603965937864
-0.0734174522562959 0.031376792012202614 -0.06875851180024894 0.027433160461433178 -1.2562195766634534 -0.096863885116197 -0.13530660964431138 0.7495029607719771
-0.05662199030314028 0.6996953962521545 -0.0671082019567677 0.023284411075308646 0.11511464144307794 -0.0011799973666903076 0.08762668451050801 -0.6437014534752222
0.17205131757539052 -0.2578985339329608 0.06508572828575258 0.0038424758076496617 0.12188365221877637 -0.10095279246169757 -0.1321094513943739 0.8021236339781566
0.24923555957830115 -0.06412629159110865 -0.5726663170347503 0.022287285738886574 -0.10422884037595533 -0.028881015589911452 -0.11265584783890353 0.1545128614518233
0.05261865398786166 -0.023704681583475835 -0.0874124474751988 -0.0021929422015489635 0.0026313376979413923 0.055005384378060906 -0.015168069128378722 0.06221134149396515
-0.0006207498837119275 0.8355878783014535 -0.7437180782015133 -0.3370309617481485 0.05113458046742742 0.7340875818458104 0.04220194239497105 0.03836854834549323
-0.05323349597017012 0.06837356830350995 0.033085546715257416 -0.128402113478582 -0.10612592785443623 0.8500893814197624 -0.07090367583977782 0.1693138361095552
0.29407837549230614 1.8861898582388037 0.08918248073140181 -0.4546289181732445 -0.01206254044890823 0.739678264928489 -0.09060061509505522 -0.08442848127494641
-0.006507411418893857 0.06882370180177991 1.8382098529467021 0.11826852848361664 0.04265869869139337 -0.7716552216596821 -0.7112132768315167 0.023265664358889063
-0.761057317174411 -0.03423776585716633 0.7535202995532261 -0.05076204804857382 0.6782555047330325 -1.5395100246457523 0.11299618478503971 -0.04993163734188157
0.037173540345043915 -0.06835714089934791 -0.11996496493113173 0.08341990485042301 0.696904747633413 -0.04639590147699992 -0.15600580226105654 0.9989289243450068
00000000: a495 17d0 90b2 f4bf d47f 8415 e50b b3bf
00000010: 3cec dcb4 c8aa cfbf 8181 f162 094c c33f
00000020: 2b58 dd61 8c84 e8bf 9c1b 3fb4 333d acbf
00000030: 260d a5d8 824d ac3f d58f d50c 6d66 b5bf
00000040: b8d8 8c68 cd27 c0bf c728 3fea 71a3 c3bf
00000050: f1b4 753f ab8a bcbf 81bf 8255 27ca e4bf
00000060: 6515 01fd 6530 ec3f aeeb 48c7 bf6e a03f
00000070: 5ac0 942f 12ce e7bf 8321 023c 1089 d03f
00000080: 07bc 828e 8992 e23f 9c5a c9ae 22a9 93bf
00000090: b3ae 141f a613 e93f 748f 12d4 4eb1 d83f
000000a0: cf57 0b64 49b8 f3bf a183 bc4a 76c7 bdbf
000000b0: 4f03 9f71 8f64 d33f 4c97 b38a e3f5 bdbf
000000c0: 921d a10e e5ee e23f 50ac e7cf 3592 b13f
000000d0: 7f54 2017 694e c83f 6723 e6d2 5c24 a2bf
000000e0: 9f00 acbf 7bb3 bc3f 35bb a386 aa02 a33f
000000f0: ac43 2f8d 1b3d f33f df56 0be2 4188 dcbf
00000100: 66c4 1ed2 ba6e a4bf 6f73 3d48 f31b 00c0
00000110: 4342 fcf7 4f67 cebf 2827 a80c 09d7 b3bf
00000120: 5fed ae1d e6a0 bdbf 55d5 7e7a 07df c33f
00000130: ffb3 d194 4b92 b73f fe84 a052 293c 9f3f
00000140: cbb2 6327 d1ca e4bf 44e5 cbd6 c8fb c1bf
00000150: cd2d e9af 0584 833f af57 af42 ae78 a93f
00000160: 6c0b abe3 5ecf fd3f a460 2e54 e1ec e43f
00000170: e1e9 be2a aefc e43f 4ebe a720 6383 e83f
00000180: 70d6 329a eec8 c23f f304 ab23 0a52 8fbf
00000190: 08e0 9f7a 17b1 adbf 9de6 315c df2f a83f
000001a0: 5733 12da 7720 a73f a9a0 050d ee16 b73f
000001b0: b54e 6cd3 235d b03f 3777 e763 a141 b1bf
000001c0: 513b dcc0 a2de adbf a043 e05e 56e9 b1bf
000001d0: 63d9 b811 0cac e73f d1e8 73d2 5dbb 81bf
000001e0: e67c 1ab4 e6b5 c23f 5993 7a09 f3f0 d5bf
000001f0: 9dfe a4b4 e6a6 e63f bf43 d0ec 24d8 a93f
00000200: 4dca 297f bf29 df3f 35ce e0e1 91e1 d43f
00000210: a846 8334 0dd7 b8bf 86ce 94dc df63 e6bf
00000220: c5e3 4caa 5ea9 c33f e82c c90e 93bd b23f
00000230: 8ff7 6e70 80ae b3bf 4742 1065 0a25 c03f
00000240: f023 9184 c2c4 5abf bd5e e4ab dce6 b9bf
00000250: 6266 4c0f 850e babf 17b8 f35f e4a9 b03f
00000260: fe25 94e8 2bed c1bf 44b7 1d24 fc4a b33f
00000270: d952 fe51 0488 a8bf e116 e0bf 0d43 b0bf
00000280: 00f1 d9f5 3ebe 973f 4e27 7258 86b0 9ebf
00000290: a7b8 6227 f188 a43f 071f d13a 6856 f03f
000002a0: 1f89 0466 b192 b2bf a461 09da 685d d6bf
000002b0: 5790 d93d 7572 abbf 8c07 7cb6 97f5 a2bf
000002c0: 7b47 722b 2a07 9fbf fa25 6f08 4e68 dcbf
000002d0: a7fe c937 8a12 873f 6b3e e332 01af 883f
000002e0: da45 5518 afa1 e9bf 4610 986d 9190 fabf
000002f0: eb7b 62b6 8872 f83f 487e ad98 026f debf
00000300: 2c54 ead9 b426 03c0 ccad 24ed 5c9c db3f
00000310: 6b35 6f81 6a69 c4bf cf96 2a0a 9547 9c3f
00000320: 0120 33ec f989 b7bf 9af8 b159 af4e a43f
00000330: 2c90 32eb 4218 df3f bf58 7cff ef6a f0bf
00000340: 54ec 1605 cdf2 653f 0ee9 b342 8c9a b23f
00000350: 4509 9531 2e6e e1bf f352 7b73 9c4f babf
00000360: 40cd cdbf 83c8 98bf 5de7 0ad1 c21b d23f
00000370: dead 7f36 379f a03f 8768 fb85 b51a e6bf
00000380: 53ba afa5 e22d eabf 44b0 8e91 4f72 a7bf
00000390: 73b1 cd9e f413 953f b857 43b3 2d3f c3bf
000003a0: d714 98b8 58ab cc3f e7c8 2be1 cb91 f03f
000003b0: 1530 7876 c201 9f3f ee5b a7e4 3f64 713f
000003c0: 234f 1d73 bcb2 ea3f a8bc a9cd 5044 ca3f
000003d0: 77b0 5edd 3cf2 d1bf 540e fd22 83c5 e9bf
000003e0: a543 c073 aa49 e63f 5965 bd6a c5bb e9bf
000003f0: 2cde 7723 6e07 c6bf 4f10 cfa4 69a8 e8bf
00000400: badb 0f42 fa7a c23f 91d5 ad2c f1d5 84bf
00000410: 2485 5e9a 4aab c1bf b346 48f9 9234 a43f
00000420: a9d0 445e e5df 933f 4a24 74e5 7d2a b93f
00000430: 3e25 3db6 0954 95bf a342 ed4b 60a1 93bf
00000440: 3248 8be7 3a59 6abf c196 5a01 4f39 88bf
00000450: 1d8f 4845 968a c1bf a6b0 a9dd 0f6f 8d3f
00000460: 53c4 436a 589d b13f 607e e9e9 b599 b1bf
00000470: 93a8 707c 48f0 afbf 22ae c9d5 1c47 c2bf
00000480: ae57 a62d 0780 ca3f b26b 5400 99dd a6bf
00000490: 59b7 fc73 1584 b4bf ef47 ca40 ea45 503f
000004a0: a9e3 34ee 3fdd a73f 3bda 1192 d099 ea3f
000004b0: 6571 4a22 9821 c73f 6714 93f0 e44c 88bf
000004c0: 18f9 0164 13d0 6e3f ba12 89cb 9f4c e8bf
000004d0: 4266 a695 5ee7 87bf 245d ad0c 77d2 d8bf
000004e0: 5164 8c87 143e a0bf 7ded d930 a95d a2bf
000004f0: 8141 3f3d 2192 b4bf fef8 052d 2c25 c13f
00000500: 99c6 d644 1e08 c33f 16af 7fea 6074 723f
00000510: c225 4642 8339 c33f e23a 049d 94e0 87bf
00000520: 9be7 2748 50a8 803f 52da 4ece e342 c5bf
00000530: 04e7 d2a0 2bb0 953f 61e5 0871 71c1 a63f
00000540: 967c 6574 7ccb b2bf a873 176f 9e10 a03f
00000550: 70f2 8067 289a b1bf 5ff6 073c 7017 9c3f
00000560: fbd4 e5b2 7919 f4bf 35d1 bc52 12cc b8bf
00000570: 2f6f ad1b ba51 c1bf 7faa 18a2 edfb e73f
00000580: cd3e 2cb9 8efd acbf 8d12 8299 e763 e63f
00000590: 309b b2cc 002e b1bf 5edf 4c60 ded7 973f
000005a0: e1ed 4934 2778 bd3f 8bf2 5a86 4455 53bf
000005b0: 3ec3 3ad0 b36e b63f 330a 62ca 3399 e4bf
000005c0: 5d29 1c0f c705 c63f 1e6b 3bda 6881 d0bf
000005d0: 4b74 6c52 75a9 b03f 53ae be7d 417a 6f3f
000005e0: c659 325c c433 bf3f 0318 10ce 0ad8 b9bf
000005f0: 789c 9d66 f6e8 c0bf 8c1d e92e ffaa e93f
00000600: d1cc b168 f3e6 cf3f 0b94 32a5 946a b0bf
00000610: b0eb e54f 4853 e2bf 56e3 756d 7ad2 963f
00000620: b5f8 b6c4 bdae babf ad59 bc25 fc92 9dbf
00000630: 94d6 2b7e 03d7 bcbf 649c 5fd3 13c7 c33f
00000640: db26 130c d5f0 aa3f 8209 a740 0a46 98bf
00000650: 0657 2b83 a960 b6bf e599 34e1 eef6 61bf
00000660: 96bd 6fab 508e 653f c0ee 036e aa29 ac3f
00000670: 2b80 ccc6 6f10 8fbf 0451 503a 2ada af3f
00000680: 867a 8a39 3a57 44bf 03a4 47ca 22bd ea3f
00000690: 1939 eada 89cc e7bf 86a7 9c4f ea91 d5bf
000006a0: 99c4 9acd 4f2e aa3f e8ad 8d3d a57d e73f
000006b0: d801 d434 7e9b a53f c582 add8 0aa5 a33f
000006c0: debc 7cb8 6b41 abbf e93e c61f ee80 b13f
000006d0: ce80 39ba 96f0 a03f 705b 10ff 7a6f c0bf
000006e0: 3278 649d 112b bbbf f3fd 7ba5 ee33 eb3f
000006f0: 5de5 e548 be26 b2bf 70e8 6c66 13ac c53f
00000700: 1bd1 4c1b 2ed2 d23f adeb b26a d52d fe3f
00000710: da15 1ebe a9d4 b63f 2fad d7e3 a318 ddbf
00000720: 52be e0c5 3eb4 88bf 9cc1 adc0 71ab e73f
00000730: c7ab d416 9a31 b7bf 9945 eddd 1a9d b5bf
00000740: e3bc 9cf3 83a7 7abf 22a5 6d1c 6e9e b13f
00000750: f674 19bc 4e69 fd3f 8db1 fba5 d846 be3f
00000760: aef5 8967 5cd7 a53f 641c 9a4a 66b1 e8bf
00000770: 901d 8f58 42c2 e6bf f420 2a4e f4d2 973f
00000780: b6a8 f4df 945a e8bf 920d 4ac9 9c87 a1bf
00000790: db80 6e9a d61c e83f 0943 7eb0 7bfd a9bf
000007a0: 9221 65e3 44b4 e53f 897b 7b43 d5a1 f8bf
000007b0: 097a 3966 51ed bc3f 1396 d6ba a390 a9bf
000007c0: bcf3 1d08 6908 a33f fc5a 9c84 da7f b1bf
000007d0: f884 0b21 06b6 bebf f501 2bc3 015b b53f
000007e0: 9167 702f 0b4d e63f e338 061f 34c1 a7bf
000007f0: 0c47 5985 fff7 c3bf 6ee3 a2ca 39f7 ef3f

fc2.bias f8 [3]
0.2119768847697182 0.16379304345377846 0.5553879547589237
00000000: ec04 ccfd 0e22 cb3f e11f 79a2 2bf7 c43f
00000010: 5d05 c9f5 bcc5 e13f
