car_ros2/car_ros2/model_fixed_params_var_delay.pth (torch, 107421 bytes, 4 tensors)

fc1.weight f8 [300, 40]
000000 52 1b c5 e2 f9 fd c3 bf a3 05 b2 8a 6e 25 b8 bf
       -0.1561882359767091 -0.0943211639987767
000010 1a c4 cd 54 df a6 8d 3f ce 61 60 e7 1a 3c a2 bf
       0.014478440070634636 -0.035614815468025904
000020 88 f8 e3 71 a2 89 d5 3f 41 8c 2f b6 cf 97 c1 bf
       0.3365255462848684 -0.13744541545665537
000030 0b dd ff 93 b4 b7 b2 bf 86 c6 74 c5 cc 70 95 3f
       -0.07311562169330814 0.020938109924094415
000040 2d a9 6c ac 4a c2 a0 bf bf c4 d4 9a 01 02 e6 bf
       -0.032732327983767774 -0.6877449058576061
000050 61 11 68 f7 3f bd c9 3f da 71 a6 81 98 71 b1 3f
       0.20108794765850305 0.068139583256602
000060 79 90 0e 01 c1 97 ce 3f 3d e2 77 64 d4 19 9b 3f
       0.23900616218191198 0.02646571982583822
000070 0b 29 17 92 0b 26 d3 bf 43 45 22 e6 3b 11 b9 bf
       -0.2991970945992228 -0.09791921967032118
000080 43 c1 d6 41 dd 2e c3 bf b3 98 2b fc 53 fe eb bf
       -0.14986768450536134 -0.8747959065629146
000090 bb 12 09 6e 1b e9 89 3f aa f3 1d f5 f4 b9 e3 3f
       0.01265164784957428 0.6164498126450912
0000a0 8a be ec 28 5c 1d 90 3f 07 55 49 4e a2 e3 d6 3f
       0.015736999509668816 0.35764367718850604
0000b0 13 fe 8e 90 c2 7a e4 3f 1a fe cf 16 dc 93 b3 3f
       0.6399853537950001 0.0764749103254804
0000c0 47 3f 2c 7a 91 3b af bf 84 be 00 f0 ec c9 ed 3f
       -0.061001344836880515 0.9308991134220865
0000d0 b0 b2 7b 7b 0b 1a d7 3f c1 ca 4c 64 ad f7 e7 3f
       0.3609646516695575 0.7489840468391195
0000e0 2c a9 fe 3b 59 a9 da 3f d6 aa 37 8d 7d f5 b4 bf
       0.41658621653427264 -0.08187088678065932
0000f0 66 3e 37 34 b8 1f ab bf b7 32 cb 53 2e f3 c2 bf
       -0.05297637593650677 -0.14804629413119638
000100 d0 c8 2c 79 f0 81 ef bf bf 56 39 4c e1 74 c9 bf
       -0.9846117369363814 -0.19887939664720553
000110 0b 8c f4 3a f9 2f af 3f 67 c5 04 0a 01 1d e9 bf
       0.06091288418453907 -0.784790534560824
000120 cf fc 6c 70 71 ae b0 3f 03 54 57 44 2d 63 cf 3f
       0.06516179079789029 0.24521413647622134
000130 af 7d ba db c7 1c b8 bf eb 3e 67 f5 f8 89 8a 3f
       -0.0941891585775838 0.012958474148859497
000140 fa 5e b0 29 46 ff cd bf cb 57 67 a2 52 c5 b7 3f
       -0.23435284648507332 0.09285465683873821
000150 23 94 9b 5e 3d d8 cf 3f 41 63 c5 53 8b d9 a0 bf
       0.24878661269681954 -0.03290973088832639
000160 41 79 f8 93 5e d3 f6 3f 23 8d 05 4a 14 e1 cb bf
       1.4266038684941835 -0.21780637373294906
000170 d5 c1 f1 4f fe f8 cf 3f 13 6c 04 c7 7f f6 ee 3f
       0.2497861757615413 0.967590225892652
000180 43 c0 12 eb 67 d9 5f 3f eb 30 10 f7 5e a2 fc 3f
       0.0019439234568317122 1.7896413470180572
000190 4f 0d 3d 91 77 b5 bd 3f b0 b3 e1 74 31 0c e4 bf
       0.11605021758901056 -0.6264884264797868
0001a0 28 43 5d dd 9c bd e6 bf 2a f9 f3 5a a5 2b a3 3f
       -0.7106460879823304 0.037442366936362895
0001b0 55 2d 32 ee d5 38 8b bf 49 d6 ab 4b cb bc d4 3f
       -0.013291999179520767 0.32402307882089026
0001c0 8f b2 b2 25 ba 20 eb bf 97 a7 44 c2 7f 70 01 c0
       -0.8477450119294917 -2.179931180687116
0001d0 cc 3d 9a 04 df 2d a5 3f 49 dd 8b dc c4 af f8 bf
       0.04136559420760086 -1.542912351140176
0001e0 ed 97 1b 2c 04 92 d2 3f 2f 0d d2 fc ad ce e0 bf
       0.2901621275653941 -0.5252294481182725
0001f0 9a 93 77 53 bf 9a ed bf 8e e5 10 00 df c4 b0 3f
       -0.9251400594917982 0.06550401450740237
000200 71 09 5f c8 4c 40 fd bf 1e bc 3d 3d 37 3e c5 3f
       -1.8281982256890752 0.16596117487230883
000210 8b c2 7e ac dc e8 c1 3f 74 90 26 54 a3 f9 d6 3f
       0.13991888449301756 0.3589866945060358
000220 8e ac 2f a3 ae 30 92 bf 67 a6 fe 82 a7 d5 ec bf
       -0.01776383276948628 -0.901080852364612
000230 2e 4d c8 98 f3 0d b3 3f b3 aa 66 2b bb b1 e0 3f
       0.07443163375892389 0.5216956947018246
000240 1b e2 25 84 12 a0 ff 3f 32 2b d1 fd ca 68 89 bf
       1.9765801584272882 -0.012406907912141916
000250 15 60 d3 9c 47 03 02 40 ba 71 28 67 ba 26 d9 bf
       2.2516014339453343 -0.3929887778665734
000260 c3 98 87 75 9c 29 d2 bf 4f 7c fd 63 bc 49 ca 3f
       -0.2837897441626291 0.20537524111111558
000270 46 4a 31 ed 06 a8 71 3f 26 50 ec f2 d7 26 df bf
       0.0043106337135037694 -0.48674582217177187
000280 4b fa 21 17 dc d9 c7 3f 70 38 62 51 ea 8d 9c bf
       0.18633605126884087 -0.027885113923325766
000290 21 56 7c 4c 94 c1 ae 3f 9e 2d 21 fe d6 ea b2 3f
       0.060070642792350755 0.07389587120376581
0002a0 24 80 c6 2c 35 4e f3 3f 93 ae 77 57 66 1b e3 3f
       1.2065936802901058 0.5970946987485654
0002b0 77 9e 8c e1 91 d4 cd 3f 5d d8 90 83 ff 90 f0 3f
       0.23304961693905898 1.0353999270714873
0002c0 18 87 8d f3 1b d6 c4 3f 05 3a ba 36 50 76 e4 bf
       0.1627840937826981 -0.6394425457854714
0002d0 0f 17 90 57 51 57 d5 3f 2c 39 8b 89 ee 21 e3 bf
       0.33345445204791785 -0.5978920637515208
0002e0 e0 0c 0c d6 9e 8c 03 c0 f8 7a 6c f1 0d 61 c9 3f
       -2.443662330858942 0.198274367220584
0002f0 e9 ef dc ce 28 14 f7 bf 96 b1 ff b1 34 67 d4 3f
       -1.4424217300975164 0.31879918463416723
000300 8b 67 17 fb 20 27 83 3f 30 cc 2c 9d 12 19 cd bf
       0.009351976072981013 -0.2273276584106454
000310 27 5e 16 b8 3d 34 d4 3f a6 6a 4f 16 43 85 ee bf
       0.31568854310305244 -0.9537673412081247
000320 9d 61 a2 4e cb 84 cb 3f fd 4f b7 97 ac 49 e1 3f
       0.21499005641522909 0.5402434313969021
000330 b3 ed 0b f6 cf 72 f2 3f 5c c5 69 b9 3c 8f d3 3f
       1.1530303584284922 0.3056175051379648
000340 12 ae ab 22 e6 80 ba 3f 05 88 81 27 77 c1 d8 bf
       0.10352934214068224 -0.3868081937599757
000350 b4 b1 e4 d9 25 04 e3 3f 9e 91 00 9b cf 8b f5 3f
       0.5942563300828199 1.3466335348867697
000360 21 e6 db af 97 9d c0 3f 74 80 e7 39 e4 0f f1 3f
       0.1298093422590663 1.0663797628294818
000370 9d 9a d7 a3 67 e8 d5 bf 3f ba 9b 86 47 03 c2 3f
       -0.34230986595358975 0.14072507927581232
000380 1e a6 e5 2d b7 1f ee 3f 97 e1 f1 76 5d 29 a5 3f
       0.9413715263773985 0.04133121563876612
000390 ba 16 9f 0d 25 11 03 40 ef a3 15 ae 90 2f e9 bf
       2.3833714546370546 -0.7870562934959916
0003a0 73 15 1f 59 cd 9b f4 bf 46 b0 d3 ba 35 50 02 c0
       -1.2880376321130285 -2.2891649814464783
0003b0 60 ae 34 8f 89 fb 92 3f 6b cf a6 8e 06 cd c1 bf
       0.01853766380842925 -0.13906938519869114
0003c0 07 7f e7 f1 cd f0 b3 bf 13 27 91 8a 3a fd 6b 3f
       -0.07789313464990864 0.0034166472801516828
0003d0 95 11 03 ba b1 2a ab bf 7f 90 64 b3 9d 32 76 bf
       -0.053060106236020456 -0.005419364946906423
0003e0 65 8c d3 66 c2 5f 02 c0 c7 6a 3f 1f b1 88 a3 bf
       -2.2967575105008557 -0.038152251305026356
0003f0 9b af 36 c0 60 6c 70 3f d6 75 f0 74 9f 89 b0 3f
       0.004009607251116788 0.06459995846713382
000400 2c e2 b9 bc 76 19 9e bf a8 93 e3 94 1e 4d ed 3f
       -0.02939401175396676 0.9156639965045672
000410 9b ce b4 f4 0a c0 b8 bf b6 4f cc 48 ec 15 c6 3f
       -0.09668034052156786 0.1725440364322119
000420 2e 37 57 7e 4a 67 e1 bf 8d 36 9e 89 81 e6 c3 bf
       -0.5438587634650724 -0.15547198505048634
000430 30 43 28 5a 97 41 fa 3f 93 31 8f d9 c4 5b b2 bf
       1.6410134813088 -0.07171278296954701
000440 18 40 2c d4 fb 5c a6 bf f8 30 ea ee 21 63 e7 bf
       -0.043678159379965276 -0.7308511415772321
000450 70 c4 0c 2f 1f 4a b8 bf ff 48 be 37 a5 0a fb 3f
       -0.09488100908926511 1.6900989701721867
000460 1f 99 5c fa 3f ef c7 bf 11 ee 84 d2 17 12 f9 3f
       -0.18698882794087354 1.5669172500046253
000470 f9 8e 7e ec 68 a8 0b 40 7f bd 9e 48 4b 7c b5 bf
       3.45723137627817 -0.08392782710028789
000480 d7 b0 2f 0f e5 7b ff bf 9b fd 86 dd 41 5e e1 bf
       -1.9677477448668037 -0.5427560164170474
000490 92 c9 ed 5f c2 13 c4 3f 97 a3 a3 ca 06 89 d0 bf
       0.15685300525690288 -0.2583634356402
0004a0 bb c0 f7 03 7d ab ba bf 9d 49 ed 20 44 fb e5 3f
       -0.10417920443410626 0.6869221346953968
0004b0 1c 76 21 4b f1 24 d1 3f c6 68 3b ae f6 fe e2 bf
       0.2678797944734883 -0.5936234858484333
0004c0 62 9a 34 66 bf 41 f6 bf 9f b6 51 be a0 d9 95 bf
       -1.3910516731645193 -0.021337997070466682
0004d0 49 cc fd b0 47 77 91 bf 7a 2e 57 e7 b8 c3 e4 3f
       -0.01705657975930944 0.6488918798799681
0004e0 92 81 65 b0 85 ee e1 bf 87 21 c7 0d d6 07 f1 bf
       -0.5603664822811416 -1.0644131220052218
0004f0 71 ed 69 e0 0a 86 a1 3f f7 ff 91 6d 5b e8 cc bf
       0.03422578801561372 -0.22584097719300164
000500 5a 40 6b dc eb b6 b9 bf fc cd e8 aa 4d 4a 93 3f
       -0.10044740802118338 0.018838132435304175
000510 6c 7d 40 2c 68 ed 65 bf cd 46 9f 49 b3 ca b4 bf
       -0.0026766810060647097 -0.08121796176353797
000520 93 48 e1 fb 33 ef bb 3f 30 69 1d ef ec 5c c6 bf
       0.10911869906820675 -0.17471086192637975
000530 59 81 73 0f 07 3c c5 bf f3 19 fc cd 22 09 a7 3f
       -0.16589439634754902 0.044991576809525834
000540 2a 20 9b e8 56 ed b2 bf 2a b1 eb bf 25 22 72 bf
       -0.07393401316505846 -0.004427096805312206
000550 1e 41 49 80 c3 68 b3 3f 10 03 39 3b 37 d7 bb bf
       0.07581731683717804 -0.1087526816927602
000560 55 5a 32 a2 4d 2e 98 bf 3a e5 c2 48 99 37 af bf
       -0.02361413290472066 -0.06097105992507541
000570 4e ab e0 8c 10 d7 a9 3f df b0 4d 6e dc 5c bb 3f
       0.050468938061689714 0.10688569729763085
000580 3d 0a 14 c8 83 ba d1 bf af 62 e7 5a 94 78 9b 3f
       -0.2770089582337823 0.02682716183503214
000590 e4 45 1a 7f f0 fd af bf 8e 87 ce ad a6 38 ac bf
       -0.06248427917047275 -0.05511971351303578
0005a0 38 35 b4 37 6f a5 cf bf 8a 50 55 cb 3d 7a ad bf
       -0.24723615856093217 -0.05757325274558507
0005b0 e1 f9 b3 e9 10 20 bb 3f 0e fd 6d 2c 05 b1 b7 bf
       0.10595803933754368 -0.09254486403186865
0005c0 ae 53 e0 4d 8e 3f cd bf 4e ca 8b 54 30 a6 db bf
       -0.22850207140495854 -0.4320183587689471
0005d0 4f ec 16 61 4a ae cf bf 44 a4 1c dc 28 c2 bf bf
       -0.24750642529201847 -0.12405639051270706
0005e0 44 fa 32 e5 be 0e b9 bf e0 fb 75 1f f3 73 11 40
       -0.09788125129396358 4.36323212773911
0005f0 f2 90 d2 6f c9 23 da bf 09 06 7a e2 8f e5 c1 bf
       -0.40843425674599054 -0.13981817778044128
000600 91 7a 67 48 e3 db 9c 3f d5 2a 05 05 0c 31 99 bf
       0.028182555479242814 -0.024601161772163167
000610 5b 26 a9 45 9e 60 89 3f 6c 31 33 9d 04 ed cb bf
       0.012391315937878724 -0.21817071605472493
000620 b6 5a 5f d1 eb 59 b8 3f 54 97 ad 09 08 f7 c3 bf
       0.09512208806641351 -0.1559762999779034
000630 70 da ea 7c b9 2c 96 3f ee 06 3a 4d fa 69 bc 3f
       0.021654985665657767 0.11099209199349122
000640 a5 d5 d2 58 08 91 c4 3f d0 6b 48 61 bc b0 c0 3f
       0.1606760438641405 0.1303935503973137
000650 74 87 0c 99 da ea b1 3f 4f f4 86 7e 3e 14 be bf
       0.06998983608766968 -0.11749640072862742
000660 13 ab 5c 22 f7 6e fe bf 08 1a 9a 56 63 a8 b6 bf
       -1.9020911543145231 -0.08850689758592278
000670 a3 28 db 65 76 49 82 bf 06 1e 49 3c e0 57 d4 bf
       -0.00892918108310809 -0.31786352050082234
000680 eb b1 ee 2a ab 7e b2 3f f9 96 25 63 09 18 d6 3f
       0.07224530981211046 0.34521708185489747
000690 90 16 65 0d 30 a6 c9 bf ff eb ea 55 8a 25 c0 3f
       -0.20038414625212342 0.1261456412811128
0006a0 c5 9e a8 8b 6c 94 ec bf f5 4c 72 29 c8 54 99 3f
       -0.8931181647976351 0.024737479715054318
0006b0 78 d9 11 ba c9 a6 ea 3f 28 60 df 5a d9 fe c1 3f
       0.8328598627256687 0.14058987557541625
0006c0 6f 9f 17 f9 1d 49 e5 3f de 07 7f 07 5b e5 01 40
       0.6651754250606084 2.236990030826731
0006d0 b7 e2 81 1a 39 6b b5 3f be e6 14 4e 97 bc fd 3f
       0.0836673440661667 1.858542733198575
0006e0 5d 40 b0 1c 1d 0c cf bf 66 9c dc 09 dd db dd 3f
       -0.24255718136601248 0.4665443989092125
0006f0 b4 ec 79 b1 8f 5f e3 3f c3 9d 85 ed 5e 07 96 3f
       0.6054151979764328 0.021512492415608053
000700 7c d5 c2 ab cd 9c d1 3f 5f 4d 36 10 08 5d a7 3f
       0.27519552014867776 0.045631648997324296
000710 5c d2 c7 e9 4c 65 ad 3f b7 60 77 d2 d2 1b d2 bf
       0.0574134860397961 -0.2829482131323959
000720 20 ee 38 fd 4d 5f b3 bf b0 7e c9 21 78 49 f5 bf
       -0.07567298347651574 -1.330436832409685
000730 0b 8a b1 a5 be 12 cd 3f 6c c4 53 8f 28 6a ce bf
       0.22713454332831903 -0.2376146983947679
000740 af af 45 e1 fc 9b 00 c0 e9 af 06 4c 77 1c 9a bf
       -2.0761659240142403 -0.02549921418692228
000750 09 b7 e4 3f 4f 02 de 3f cd 27 37 4d 4a 0f d3 3f
       0.4688909648856315 0.2978082422310962
000760 c8 95 b6 f6 4e e9 d2 3f 7d 2d 4e ac 57 e6 b0 3f
       0.29549001782501394 0.06601474720644336
000770 0b 32 b4 88 68 e8 93 3f 22 47 4c 77 11 ec c0 3f
       0.019441254943602753 0.13220423054786418
000780 de c0 4b 7b 85 5a bf bf e4 de 55 0f 6e 38 d1 bf
       -0.1224749971404466 -0.26906920907593546
000790 b9 6e 94 13 d0 60 ba bf 2b 82 60 40 31 1e b4 bf
       -0.10303974607489409 -0.07858569928840413
0007a0 d2 db 90 8d 42 cf b3 bf 89 b4 14 d6 f5 92 c9 bf
       -0.07738128620336163 -0.199797372371368
0007b0 93 5d d7 27 4e e7 b4 bf e8 5d 9b f1 36 9e 91 3f
       -0.08165443871199889 0.017205103394045823
0007c0 85 60 8a 9a ed bf a0 bf 9b 66 65 21 a2 b9 98 bf
       -0.03271429549676078 -0.02414563492616271
0007d0 3b 06 24 a5 46 61 c9 bf a4 7d ca 73 84 d4 d3 bf
       -0.19828112662803385 -0.30984603221619467
0007e0 11 d7 d9 e4 23 39 d1 3f 21 02 72 c3 d3 fa b1 bf
       0.26911256169056325 -0.07023356935133808
0007f0 f2 3a ba 61 16 ba b4 3f 40 cb 41 55 c1 67 d5 bf
       0.08096446882175792 -0.3344577152812924

fc1.bias f8 [300]
000000 92 79 4f bf 7c ea ea bf 41 05 9b 5e bc 06 fd 3f
       -0.8411239372760966 1.814144486954618
000010 19 6f 5f b3 7f db e9 3f 7b bc 6f 6f 1b cc fe bf
       0.8080442908644471 -1.9248308518397426
000020 75 98 b0 84 ec 3b f4 3f 88 18 c9 3f 1e bd f0 3f
       1.2646298583217945 1.0461714259741104
000030 ee ad 9f 1f b7 83 ba 3f bf cb 4f 5d d9 6c e7 bf
       0.10357231638015893 -0.7320372412199204
000040 ee 52 de 06 ca ad e9 3f c9 c5 c0 6c fd 24 e4 3f
       0.8024644979619475 0.6295153736193068
000050 5a 20 2a 21 87 c8 e8 3f 39 87 ac 83 0c 89 fc bf
       0.774478497290157 -1.783459200240442
000060 93 8d 84 dc 31 4d e1 3f a1 da a2 23 fc 40 fa bf
       0.540673189829635 -1.6408654586827327
000070 0a 1a e8 b4 1d 01 f7 bf 99 1d fe cf bb 61 e3 3f
       -1.437772471109954 0.6056803762775643
000080 82 08 17 e8 0e 24 e6 bf 3b b7 95 dc 5d f3 fc bf
       -0.6919016392714783 -1.8094156853289423
000090 f4 7a ff fd ff ba f5 bf 90 8a 62 cb 3e 8e fc bf
       -1.3581542894168566 -1.7847278542255118
0000a0 d2 ca e4 bb 23 7e f4 3f 00 ac d1 a1 4b 34 e9 3f
       1.2807957973097257 0.7876337204482979
0000b0 61 3a 26 a9 0a 72 f8 3f 7d 08 62 78 0e 34 f2 bf
       1.5278421981235157 -1.1377091124018357
0000c0 83 eb 2b eb 7f 8e fd bf 00 94 1b 33 73 96 c4 3f
       -1.8472899614705234 0.1608413695859383
0000d0 0e 13 dd 58 d4 06 01 40 d0 4a 73 cd 6d bd f7 3f
       2.1283347074953616 1.4837472939877223
0000e0 ce 50 30 06 24 6d f5 bf e8 f9 74 a3 10 c9 e2 3f
       -1.3391456834552176 0.5870440666693044
0000f0 ae dc 3d 0b 51 b6 ef bf 16 53 03 5a d8 1a f4 bf
       -0.9910054416240166 -1.2565539852268492
000100 9a e2 0c 24 bb 80 f0 bf b6 d7 ff 8f 6c 16 f0 3f
       -1.0314284713951225 1.0054746270156847
000110 d8 83 21 cc 5c 59 e0 3f 34 48 18 50 df 2c e4 3f
       0.510908507054519 0.6304775776245664
000120 e7 fd 52 4b 3a b5 b7 3f 0f 9f a8 30 db e4 f6 bf
       0.09260906542748835 -1.4308730984429905
000130 f1 25 61 95 5e 73 f4 bf f3 e1 c4 f9 69 a5 ed bf
       -1.2781663737426892 -0.926442134695263
000140 df a2 5a c9 c6 aa fc bf c4 6c 05 cd 73 78 d3 3f
       -1.791693483866929 0.30422682782746
000150 b9 77 fb 26 fb e7 f4 3f a4 1f 49 52 a9 b9 f5 bf
       1.3066360018487855 -1.3578274931223655
000160 dd fe 4c 49 7a 24 fc 3f a3 ae 13 63 5a d3 f1 bf
       1.7589056838332262 -1.1140998716536294
000170 c8 9a 85 cd 99 d0 ea 3f b7 a3 b1 1c 2d 56 e9 bf
       0.8379639638995622 -0.7917695579936809
000180 24 85 4c 34 7e f0 e3 3f 32 61 ea 51 84 fc dc 3f
       0.6231070538962382 0.4529124069172382
000190 cb 58 71 bb 4a 46 f0 3f 6c fe e6 8e 50 f1 f5 3f
       1.0171611139281136 1.3714147169229376
0001a0 53 ff 74 90 19 92 02 c0 cd f3 68 15 58 67 f2 bf
       -2.3213378225044976 -1.1502304874731977
0001b0 0f dc dc df 30 96 fa bf f1 45 54 5a 1e e5 de 3f
       -1.6616677040708543 0.4827342874642389
0001c0 b0 33 53 c6 23 00 d8 3f d8 54 a0 a3 87 85 de 3f
       0.3750085293548251 0.4769000146782907
0001d0 9b 10 2a 85 e9 8c e4 3f 3f ad 80 d8 29 b6 fa bf
       0.6422011948457284 -1.6694735009321702
0001e0 c7 9c b3 81 b3 46 de 3f 99 56 0f 9e 2d f8 de bf
       0.47306525865719745 -0.48389759479082667
0001f0 88 5f 43 9d 7f cd f4 bf f2 fe af e4 72 05 e3 bf
       -1.300170530614169 -0.5944151369621677
000200 f9 e8 35 88 be 91 c1 bf 7d 49 70 71 ab 01 e1 bf
       -0.13726026202113653 -0.5314538207624505
000210 5d 43 d4 be 28 f6 03 c0 fe cc bd d3 c9 c8 f8 bf
       -2.4951949032332963 -1.549020602335815
000220 3b 2d 6f 15 b7 a8 f8 bf eb be 49 d6 0c ae e9 bf
       -1.5411902272488323 -0.8024963555635315
000230 51 eb a8 26 b7 fe fa bf 7a 53 43 66 85 48 f2 bf
       -1.6871863851690316 -1.1427053446434159
000240 9e 42 a3 9b 12 e5 e4 bf eb 96 95 ab 51 c2 fa bf
       -0.6529629745292203 -1.672441168071084
000250 a9 1f 95 2a 9f a4 f1 3f 60 24 ef 13 61 37 e7 3f
       1.1026908553485362 0.7255101575220912
000260 39 92 3c 63 65 32 ea 3f 96 ad 09 7d a4 e9 f2 3f
       0.8186518610205616 1.1820416340150124
000270 88 4a a1 3f 5a 43 eb 3f 41 3f 9a 0d 69 93 08 c0
       0.8519717448019302 -3.071977716703174
000280 af a4 aa a4 5d aa f2 bf 0d 8d 3d 25 a1 25 ed 3f
       -1.1665932113922215 0.9108434417106835
000290 dd cc 58 1f 71 48 e2 3f ee 6b d6 c9 c6 6a f2 3f
       0.5713430034869834 1.1510684856682434
0002a0 5e e5 8d 3c de 71 ec bf 37 58 3e 34 4d b3 fd bf
       -0.8888999159527591 -1.856274799419692
0002b0 35 cc 9a 89 b4 51 f6 3f 85 be 5a 47 c3 31 e3 3f
       1.3949475646193268 0.5998245614664063
0002c0 6a b7 1b de 0b c8 f5 bf b8 91 49 06 dc df f2 bf
       -1.3613394428352543 -1.1796531911469241
0002d0 31 27 e3 a0 4d bf f4 bf 59 fc 39 e8 7e ee f7 3f
       -1.2967048916493236 1.49572649682502
0002e0 2b 88 41 aa 10 bc ea 3f ff 8c a6 db 77 90 f9 3f
       0.835457165271014 1.5977705555058603
0002f0 df 36 4a fb ed b3 f1 bf 53 02 24 46 ca af f2 bf
       -1.106428128815814 -1.167917512881236
000300 e2 f3 d7 95 57 1b e6 bf d9 8e 8d 59 95 17 e8 3f
       -0.6908376623756534 0.7528788327294605
000310 6f fa b5 62 19 fc d4 bf 4f 84 64 9b 95 e4 e5 bf
       -0.3278869117711229 -0.6841533694279266
000320 45 34 0a 49 50 4e e4 3f dc 0e 76 40 75 bb e4 bf
       0.6345597673949973 -0.6478830584532846
000330 bc 12 cb 2e a8 a9 f7 3f da 13 61 2a 78 de f8 3f
       1.4789201572286137 1.5543138175428255
000340 be ed b4 5a ac da b9 bf 49 3a 6a 49 ac ff f6 3f
       -0.10099293913383797 1.4374201648494298
000350 b7 5d 62 be 90 89 f8 bf 75 a4 b0 ed d9 02 ed bf
       -1.533585303963134 -0.9065980570204731
000360 a1 dc 6c 94 9e c3 fa bf d7 96 fd 6d 6e dd f0 3f
       -1.6727586553441045 1.054060392046656
000370 94 a6 53 75 cc c4 fb 3f 38 c2 7e dd 2b e9 f5 3f
       1.7355465491367896 1.3694265987543428
000380 9d 79 18 fa 01 db f2 3f 2d 77 17 15 ce 54 0b 40
       1.17846868222805 3.4164086959634887
000390 3a 51 c0 d5 14 7b f9 bf dd 5f 6a 60 36 aa f2 bf
       -1.5925491666467466 -1.1665557638389068
0003a0 78 55 3e c4 0a 67 f6 3f 4e 7c bb 7e 92 ea c8 bf
       1.4001567521821396 -0.19465857685188087
0003b0 54 02 97 73 a5 f9 e3 3f 03 14 bd 54 da 59 f5 3f
       0.6242244012465314 1.3344367323018111
0003c0 4e c4 c4 f3 73 f0 e1 3f 01 9a 2a 7d 54 60 e3 3f
       0.5606021653276316 0.6055090374619
0003d0 96 d1 b4 e8 01 27 f0 3f 40 f2 e9 60 32 7b fc bf
       1.009523304947924 -1.7800773416230555
0003e0 d4 06 fa 45 df 99 e9 bf cd d3 77 7d a1 24 e4 3f
       -0.8000332228404781 0.629471535734973
0003f0 86 e9 69 80 32 71 f1 3f d5 69 99 cc d1 92 ef bf
       1.0901360527192039 -0.9866723056869043
000400 6c df 3d 51 d7 b4 f4 3f 83 54 b7 62 25 06 03 c0
       1.2941506551269084 -2.3780009948919214
000410 3e 4a 32 ee c0 12 e4 bf a9 d8 1c 23 a1 4e f2 bf
       -0.6272892620348285 -1.1441966411198712
000420 68 de fd e8 4a cc f1 bf 93 72 f7 29 59 78 f3 bf
       -1.1123761273610402 -1.2168819083518982
000430 80 a5 ab 8b b9 b1 f2 bf 28 02 c1 7c 84 33 e4 3f
       -1.1683898406866717 0.6312887608147024
000440 f7 8c 41 6c 2b f3 cb bf 73 ee 88 29 3f 83 fb 3f
       -0.21835844789448064 1.7195426580864506
000450 7c 7b 20 3c 83 54 07 c0 80 0c c9 01 ab d2 fe bf
       -2.9162659356510954 -1.9264326162090413
000460 6b 97 3d 3e 04 44 e6 3f 55 a7 33 6b 19 76 f6 bf
       0.695802804530769 -1.4038328349656315
000470 f7 c5 ad aa dc 25 f1 3f c7 45 6c 36 10 4c f4 bf
       1.0717436473026944 -1.2685701490303118
000480 f7 00 58 5d 05 f3 d6 bf 8b b2 0b 40 4a ad fa 3f
       -0.3585828219948008 1.6673071386132132
000490 eb 9f 42 df c4 0e 00 c0 2f f7 09 e1 4b 49 e4 3f
       -2.0072114412505377 0.6339473147670328
0004a0 98 7e 19 ae e4 16 f4 3f c9 9e e5 2a f7 63 e1 3f
       1.2555891800656465 0.5434528196173797
0004b0 0c 63 31 83 d8 f2 f8 bf ea 3c ba 0a 06 d4 f0 3f
       -1.5592885136340469 1.0517635745089202
0004c0 74 80 37 96 61 07 f8 bf 68 48 3a d4 9f c7 f6 bf
       -1.5018020503848932 -1.4237364092009788
0004d0 a9 78 8d e8 a4 b7 f3 3f 83 52 69 c3 72 e0 ef 3f
       1.2323350032889187 0.9961484734181599
0004e0 40 76 89 a6 04 d2 fe bf a1 e7 82 aa 5b 3b f4 bf
       -1.9262739663457893 -1.2644917164420593
0004f0 19 36 36 96 b8 bc f6 3f 3f 9a 00 a3 ed b4 f8 bf
       1.421074473156642 -1.5441719405440748
000500 f5 c3 84 04 9c 19 00 c0 99 33 46 6d 04 f4 f4 bf
       -2.0125046113030245 -1.3095745342754752
000510 59 34 00 8f 89 0d ed 3f 5e 2c e3 bd 9c 8e e1 3f
       0.907902507112918 0.5486587246645163
000520 91 2b 22 85 c1 b6 ea 3f 17 07 13 12 06 28 f9 3f
       0.8348090744269588 1.5722714143780132
000530 8d 80 01 ba 90 83 f1 bf 2e 26 dc 37 15 f8 02 40
       -1.0946204439024172 2.371134220510405
000540 b9 92 7d 3d 2c 82 d6 3f 25 00 c8 9a cc bb fe 3f
       0.3516951179974899 1.920849423040644
000550 78 f4 ed 31 1e 95 e2 bf 69 02 6b 6a 60 b7 0c 40
       -0.5807028746782086 3.589539367094677
000560 cb eb 38 7a 73 82 e0 bf aa 97 3a ce 84 c9 f6 3f
       -0.5159242045550568 1.4241989188971993
000570 d7 16 7b 05 e7 9e f0 3f fd 8e 2a 49 99 c0 ec 3f
       1.0387945379347252 0.8985105923679552
000580 a3 5e 84 a2 55 18 09 c0 d2 08 78 38 60 4e e5 bf
       -3.1368820854803103 -0.6658173659236815
000590 79 2c 27 7c 64 20 0c c0 78 8c 68 90 47 ef f5 bf
       -3.5158166598753806 -1.3709178582146517
0005a0 75 c9 44 cf d4 94 e4 3f 15 34 5e d3 5e 53 ea bf
       0.6431678817955758 -0.8226770523339179
0005b0 5a 91 7e cd 9d 09 e5 3f 22 5b df b2 8f dd e6 bf
       0.6574238790094953 -0.7145460599520883
0005c0 1c 13 54 28 5d 1f 00 40 7e 04 e4 06 7c 39 e7 3f
       2.0153144026429697 0.7257671484550341
0005d0 17 24 66 5e 47 a5 f4 bf cd 89 8f 93 8d 59 e3 bf
       -1.2903512656650997 -0.604681766705022
0005e0 ec 01 87 c9 24 a6 fc bf dc 1a 18 1e 5f db e4 3f
       -1.7905624267733584 0.6517787540222701
0005f0 4d c0 bd 94 b0 6c f9 bf 23 d3 8a 3f e7 47 f8 bf
       -1.5890355882838947 -1.5175545198555447
000600 37 39 aa 21 9f 03 e5 3f 02 38 1a 16 6d b4 e5 bf
       0.6566920907514832 -0.6782746726692042
000610 9b 08 30 52 9c d1 e3 bf 45 29 6c f6 ec 1d e6 3f
       -0.6193372349955725 0.691153031629519
000620 77 c7 0e 40 45 2d e8 bf 0a a1 e8 58 0a 10 f5 bf
       -0.7555261851432381 -1.3164161179539087
000630 7b 94 4a 4a 5f 3b e3 bf cf c2 89 57 89 ce da 3f
       -0.6009975863459113 0.4188559870590724
000640 00 0c fa 95 54 d4 e8 bf f7 66 49 c1 f9 5f ec bf
       -0.7759192399247468 -0.8867157721644777
000650 d5 7a 25 4d 2c d7 e1 3f 30 7f a6 2e 35 7d f5 3f
       0.557516241718839 1.343068296649971
000660 d8 8d 1d f5 4a 00 64 bf b4 f0 cb 73 82 f7 e9 bf
       -0.002441545869190636 -0.8114635717061192
000670 bd 73 23 c8 1c b7 f4 3f 47 71 55 42 b3 0e fb bf
       1.294705182829815 -1.6910889235651483
000680 ef b2 7b 3a 40 f1 f5 bf 0c 40 55 80 6e 90 f8 3f
       -1.371399143648144 1.5352616322525163
000690 0d 0d 80 3a 87 08 e2 bf 2e bb 16 73 3e f8 f7 bf
       -0.5635410444814696 -1.4981064315467836
0006a0 1c 83 d5 50 2c 37 0b c0 64 1a 6c 59 0e 91 f0 3f
       -3.401939994350313 1.0354140751893732
0006b0 d2 59 bb 11 0a dd ff 3f f1 f2 ac 14 25 5c fc bf
       1.991464680924413 -1.772496300472252
0006c0 81 9a 47 65 a6 02 f6 bf da f2 57 c0 cc 22 df 3f
       -1.375646968482812 0.48649901183652633
0006d0 97 4f d3 ae e3 be 97 3f 47 8b 89 b8 e9 63 f7 3f
       0.023189122720239288 1.461892815445667
0006e0 a5 f1 05 ab c2 9d e8 3f 87 a3 b0 b7 c4 9a ee 3f
       0.7692578640267597 0.9563926303572864
0006f0 95 72 0f 07 88 49 f5 bf ae f4 c3 8f f3 e9 e5 3f
       -1.3304519916338553 0.6848085220259656
000700 57 76 90 70 e1 fa ef 3f 5f 34 7a 06 17 e0 e3 3f
       0.9993750761529537 0.6211047293196649
000710 e0 4b c2 11 f8 19 e6 3f cf 7b 85 9c 7b da e9 bf
       0.6906700465063942 -0.8079202706393235
000720 97 79 7a bf 44 fd f3 3f fc bf 07 96 b6 d6 f8 3f
       1.2493331412912079 1.5524202213819072
000730 18 c9 62 9f 6d fa f4 bf 98 39 2a 07 ff d8 f9 bf
       -1.3111397005091643 -1.61547758864217
000740 7d 57 7e 33 b1 3f e3 3f 74 1b 07 d0 34 d9 e1 bf
       0.6015249257786618 -0.5577644408266296
000750 7b 0e 7a bb 05 90 08 40 2f 9e 4b f6 05 ae ec bf
       3.0703234335540492 -0.8962430773216904
000760 c8 26 1e 6d 86 c1 f4 bf 4b eb 00 e0 76 25 f8 3f
       -1.2972473394788029 1.5091465711727376
000770 e3 1d 89 cb 19 1a f9 3f d1 73 4e 55 64 24 f3 3f
       1.568872256337152 1.1963847477229488
000780 f0 d7 cc 3b e1 8b f3 3f b4 48 ed 71 0c 43 e8 bf
       1.2216503463691843 -0.7581846451887686
000790 bf 1b dc 41 7a 53 03 40 4f 70 61 4d 79 c0 f6 3f
       2.415760530976939 1.421990682857558
0007a0 7b 4f 03 4d 23 54 e8 3f 1c 1a be 87 32 fe f1 bf
       0.7602707389983004 -1.1245599081463586
0007b0 df 70 94 79 ae 13 f5 bf 22 b4 38 d8 29 3b f7 3f
       -1.3173050641262802 1.4519442030098237
0007c0 54 43 c8 22 6d 9c 01 40 07 ff f6 4b df f4 f4 3f
       2.2013800351491373 1.3097832648635988
0007d0 5f cf ca 3c 32 62 b3 bf 0f a8 15 ca ee 95 f5 bf
       -0.07571710571465705 -1.3491046804360882
0007e0 74 eb 68 1c 6b d9 87 3f 88 68 47 d6 05 4d f7 bf
       0.01164516144227943 -1.4563043947478338
0007f0 b4 3f 48 b9 68 c7 00 40 d6 c6 d6 2d 7f 9d fd bf
       2.097367713467941 -1.8509513655266594

fc2.weight f8 [3, 300]
000000 15 43 a2 18 21 7b fe bf 5b 30 12 9f 24 62 bb bf
       -1.905060859895632 -0.10696629413195195
000010 4d 50 c9 aa 29 2a b3 bf 5b c5 ab 51 92 3f 82 3f
       -0.07486210269536393 0.008910315625572698
000020 fd 43 5e a5 9f 66 b2 bf 1e ea e6 a9 d2 65 b8 bf
       -0.07187841212568453 -0.09530369422910964
000030 34 a4 ac 2d 65 72 cc bf 0d d0 9c ba 78 33 f4 bf
       -0.22224106531328547 -1.2625663079788894
000040 ee b0 5c d2 f5 62 ad bf 38 0b e5 8e 3f 8a f6 bf
       -0.057395631722416116 -1.4087520200561823
000050 31 bc 84 1b a0 8d f7 3f 30 4d ed cb ce 00 bb bf
       1.4720765185300133 -0.10548107603726886
000060 f6 7c 8d d3 fc a4 c1 bf 54 ee 23 84 72 d8 bd bf
       -0.13784752206536383 -0.11658397413332838
000070 82 8a d5 6e 68 94 88 3f d4 25 d7 63 4a b7 f5 3f
       0.012001815683736487 1.3572486782089657
000080 2a 69 6b ab 9f b1 fa 3f 43 79 25 70 a9 7f 90 3f
       1.6683651634289824 0.016111991376754686
000090 90 5c 43 a1 78 10 ae 3f 0a 84 10 c6 e9 02 b9 bf
       0.058719415364685834 -0.09770070157584612
0000a0 9a 80 5d e9 b1 8f c0 bf 3d 10 e7 2c 60 a6 7b bf
       -0.12938522238528521 -0.006750465092810795
0000b0 82 46 51 8c d9 7c b3 bf 61 be 11 75 74 cc b2 3f
       -0.07612380672187594 0.07343223436486702
0000c0 89 a7 ea d0 57 45 c2 bf 0e eb 05 b0 d3 4d bc bf
       -0.1427411813831976 -0.11056254432143595
0000d0 1d 27 66 93 37 a5 91 3f 7a 04 8f 2f 6a 78 be bf
       0.017231815692446795 -0.11902488385296009
0000e0 df 93 b9 2b a0 b1 ab bf 68 38 21 86 44 e5 f8 3f
       -0.05408955129386305 1.5559735526508351
0000f0 d1 31 7f 2e a7 bd 73 3f e6 be 14 5f eb aa bd bf
       0.0048195391208989006 -0.11588927336992647
000100 ff 11 ed 48 08 6d ad 3f 5b 8a 11 d6 32 22 c8 3f
       0.05747247591219561 0.18854365780414892
000110 fb be 70 eb 30 f5 f6 bf 1c 9a eb 77 8d 4f f7 3f
       -1.4348611065760781 1.456922024191619
000120 91 41 03 8a ac 90 cd 3f 72 45 a6 99 1b c5 a5 bf
       0.23097759951498323 -0.04251943827251638
000130 97 29 b5 d2 ec 3d b0 bf d2 6d a7 9f 9b 0e ca bf
       -0.06344490188818096 -0.2035707978783266
000140 38 2c 38 90 72 23 b5 bf 22 c2 a7 3f 39 1f f4 3f
       -0.08257213612539338 1.257622955945529
000150 8a 50 02 c5 df 1f ac bf c7 5e 0e 8b 10 8b c0 bf
       -0.05493068008323217 -0.12924391546106603
000160 c1 10 71 d8 02 07 95 bf 33 4b 38 79 e4 52 b9 3f
       -0.020534557781744626 0.09892108878584054
000170 3e cd e4 29 41 8a f7 3f fb c6 af 4c 4a ea bd 3f
       1.471253551146972 0.11685623523933579
000180 1b 74 e2 62 13 f8 f3 3f 0a 08 e1 6c 8d fe f2 bf
       1.2480653631857936 -1.1871465924346034
000190 2e 79 2f b6 90 3f f8 bf c2 c6 30 9d 44 d2 9e bf
       -1.515518867170225 -0.030098983854435664
0001a0 ef 7e 81 71 52 11 a2 bf 00 4b 9d 5a ff fd 87 bf
       -0.035288406711286295 -0.01171493048938066
0001b0 58 c8 a1 6e 2c 04 99 bf 19 eb 40 7e 99 b5 93 bf
       -0.024429983379782833 -0.019247434931666783
0001c0 24 36 23 67 31 01 b6 3f b9 14 81 43 be 5d f2 bf
       0.08595570343023745 -1.1478865277179422
0001d0 a6 7c dd c8 95 5a f5 bf ad dd 7b 41 ee 76 9b 3f
       -1.334615502004263 0.026820872065369695
0001e0 70 3e f5 f5 48 11 f3 bf 03 21 9b ef d9 82 a1 3f
       -1.1917199714406728 0.034201441286827027
0001f0 8a 4a 87 9e d7 8d 79 3f 51 88 f3 fd cd 21 f7 bf
       0.006238786947920469 -1.4457530899021729
000200 29 03 00 63 be 8e 96 bf 28 21 a4 05 da 5c f8 3f
       -0.02202889899490682 1.5226688595158269
000210 c5 0a ff eb 7e 77 c5 bf 17 76 8b 0d 31 d9 b6 bf
       -0.16770922206167974 -0.08925158100779416
000220 f7 98 2a 8b ff ff c0 bf 7b ec b3 8a 0f 4a b6 bf
       -0.13281244559511382 -0.08706757675456515
000230 ba 11 05 08 8d bc da bf f2 ae 04 02 96 28 be 3f
       -0.4177582338636757 0.1178067927291371
000240 6b 86 b3 0e a7 4d fa bf aa 39 b4 64 43 6a d1 3f
       -1.6439581465023376 0.2721107943952129
000250 f8 66 af 42 45 8e c3 3f 53 bb e4 62 30 81 b5 bf
       0.15277925258742875 -0.0840025178374451
000260 bc 35 96 ee c2 6b fd bf 50 67 53 34 b5 4f c3 bf
       -1.8388089484973156 -0.15086998991938083
000270 8b 21 20 ba 5c 03 b1 bf 83 a6 80 10 72 e3 cd 3f
       -0.06645755333022955 0.23350358777797817
000280 5c 1e 60 e8 99 be af 3f 56 6d 66 d2 72 fe f5 bf
       0.062001046768327156 -1.3746212214235434
000290 2a 5a 8c 45 91 4b a7 3f 3d 04 8f 1b c8 fc 8b 3f
       0.045498409023071965 0.013665736523650657
0002a0 40 f8 96 8c a0 14 b6 3f c1 96 2b c1 3f 10 a9 bf
       0.08625224525801034 -0.048952095346789466
0002b0 f0 81 59 01 87 ee c9 bf 76 77 ed e7 1b a4 f3 3f
       -0.20259177747631396 1.2275656757041964
0002c0 4e ce 46 c7 18 11 a2 bf 51 a8 06 6d 0e f4 a4 3f
       -0.035286688161616384 0.04092450219043598
0002d0 be 1f 6c 09 27 ce d7 3f 7e e9 7d ac c5 be bd 3f
       0.3719575492873409 0.11619220219828283
0002e0 73 8f d9 3b ba 14 af bf c9 a8 b7 00 ec 08 ac 3f
       -0.06070501309002809 0.054755568587852084
0002f0 be ac 70 3a f7 95 bc bf c2 5d d8 38 76 08 bf bf
       -0.11166329552422646 -0.12122286689588349
000300 55 d2 5e 75 1e 2e fb bf 52 83 77 9a e0 2f 6a bf
       -1.6987595162182931 -0.00319665782784321
000310 2d c3 5d e3 ad 5d bc bf 59 63 74 2d d5 34 f9 bf
       -0.11080443192419116 -1.5753986144611274
000320 23 29 f1 fa f5 ab be bf e5 1c 4c f0 ad 4e ae bf
       -0.11981141449465275 -0.059194026549499935
000330 af 41 a3 2b d8 35 ba bf 72 42 1e 90 e6 dc a2 3f
       -0.10238410058378265 0.036841588108590964
000340 63 99 17 9d f7 89 d0 3f cc 2b 3f 6f 1b 47 b2 bf
       0.25842085209878557 -0.07139750925050165
000350 64 5d 20 a5 9a 5b 90 3f c5 13 f7 d4 a6 b5 a7 3f
       0.015974441841618683 0.04630776738807855
000360 5d 2a 5e e6 40 2d 98 bf 08 18 ee a0 78 63 b4 3f
       -0.023610128460442293 0.07964281014400865
000370 2d 63 84 01 b8 c3 65 3f 27 4b ae 3f f2 51 a7 bf
       0.002656802546095702 -0.045547075532473884
000380 4f 98 9c 78 6a 75 81 3f eb 7d 67 f6 44 09 a9 3f
       0.008524734311844777 0.048898844793935435
000390 7a ee 25 1a f9 91 bd 3f 1b 77 75 07 3f d0 92 bf
       0.11550862205870685 -0.018372521238567346
0003a0 90 a3 8b e0 fb 0a b1 3f 06 9d 8c ed 98 a2 cd 3f
       0.06657385093752866 0.23152457808576105
0003b0 86 d8 80 b0 bb d2 fb 3f c4 2e 5c 4c e1 83 c8 bf
       1.7389485258732136 -0.19152466038246108
0003c0 ce 57 c7 04 8b ca f1 3f 1f 92 af d7 25 8b f6 3f
       1.111948984781964 1.4089716363170124
0003d0 39 81 3b 3a cb b8 ad 3f b9 f8 0a 07 c3 4b d1 3f
       0.05805049024434301 0.2702491349008472
0003e0 9e 84 31 29 17 e3 97 bf 72 28 10 d6 94 f8 f4 3f
       -0.02332721890377753 1.3106888162460817
0003f0 40 81 a6 0c ff e5 b3 bf 1c 63 16 a1 36 33 a4 bf
       -0.07772821482513326 -0.039453227199549995
000400 c8 17 1d c5 07 fa 70 bf 30 0f ad 37 4e 30 52 3f
       -0.004144697524514691 0.0011101497500058503
000410 d1 37 fd ea ec 4f fb bf bd e4 53 3d c1 dd 91 bf
       -1.707013051916409 -0.01744749008955603
000420 79 41 ef 84 3d 07 92 3f 3f 1f 94 c8 a3 91 b1 3f
       0.0176057445895039 0.06862853667200584
000430 97 59 5c 0b 65 dc b7 bf b7 0a 9f e8 b0 9d be 3f
       -0.0932067063080012 0.11959367446165002
000440 87 4b 7e f3 a2 65 cc 3f ae 74 32 96 e8 f2 9b 3f
       0.22185170068095436 0.027293810050299676
000450 ee e5 37 f9 00 f6 a1 3f 8a ee 45 4d f7 e9 a3 3f
       0.035079985067522176 0.03889439409519209
000460 27 dd f0 34 4d 84 cd bf a8 0f b1 62 bf 6a c5 3f
       -0.2306000240803112 0.16732017821243272
000470 2c 3f 6d e7 fb 02 b2 bf 0c 09 c0 6e 3d 53 c1 bf
       -0.07035803222720166 -0.13535278232308945
000480 6d 61 d7 c8 12 e0 e3 3f 77 a0 90 77 5b 71 c1 bf
       0.6211027071649774 -0.13627189005024196
000490 11 4b db f7 d4 16 b4 3f 91 a5 28 eb 94 85 f4 3f
       0.0784733872526824 1.2826127229585362
0004a0 91 70 a3 a9 e6 2a c7 3f 5d 53 81 52 c5 b2 f6 bf
       0.18099673541189934 -1.4186452124460722
0004b0 43 3a 16 33 70 0c a5 3f 4a 5e 8b 77 5f 66 96 3f
       0.04111052154177177 0.0218748966898075
0004c0 ab 16 bd 58 b9 ad ab 3f b1 fa f7 b8 9a e7 d5 3f
       0.05405978401408381 0.3422610098204287
0004d0 f3 15 0c c9 95 27 cd bf a5 6d 99 17 f3 17 b0 bf
       -0.22777054135092065 -0.06286544157176495
0004e0 09 9c f3 03 38 9e 94 3f 5c 0b e6 52 96 d6 a5 bf
       0.02013480686300898 -0.04265279542871411
0004f0 b4 d4 d6 6c e8 df a6 bf be 01 57 79 06 94 bc bf
       -0.04467703178981122 -0.11163368666075876
000500 ca dc 96 d7 41 41 dd bf c2 ef 67 d5 6b 0b bd bf
       -0.45710798314707957 -0.11345552406413531
000510 03 c1 1a 21 04 ff a3 3f 80 ac d7 f7 be 6a f2 3f
       0.03905499366863021 1.1510610276552882
000520 84 17 9e b8 82 d1 69 bf 48 8f 21 e5 38 6e c1 bf
       -0.003151660265703295 -0.13617621601144436
000530 89 c3 0b 7d 36 5c a2 3f 1b 00 b6 09 a5 70 96 bf
       0.035859778179548725 -0.021914080350598036
000540 72 ce 6a d7 03 81 c2 3f 22 11 74 63 30 2e b3 bf
       0.14456222551745018 -0.0749235384756202
000550 38 93 a0 a5 7a 08 c6 bf 90 02 58 65 89 ba 73 bf
       -0.17213376128452196 -0.00481656713736868
000560 01 38 80 f0 c9 36 e1 bf 52 d2 12 0e 7f ce ab bf
       -0.537938089111549 -0.0543098168067543
000570 04 02 3f cd 83 58 91 bf c0 9a 99 cf 07 c3 a2 bf
       -0.016939219858388213 -0.03664421471767332
000580 30 d4 8a 9f 40 05 a1 bf 0b b5 a0 37 7f 3e ff 3f
       -0.03324319789445729 1.9527580426177475
000590 cb 62 78 9c b1 66 98 3f 43 c7 fa 64 e0 85 a6 bf
       0.02382924573439275 -0.043990146948444074
0005a0 ec 94 ad 7a f1 c9 f6 3f 7d ca c1 8e 12 82 cd 3f
       1.4243025581466169 0.23053199739986843
0005b0 72 81 0e 6d 11 17 f3 bf b8 f6 26 5b c9 22 c6 bf
       -1.1931318531061064 -0.1729366011695015
0005c0 e2 74 59 2d 74 8b 9b 3f be 27 b7 40 82 ed f4 bf
       0.026899161594305172 -1.3079855468699715
0005d0 06 64 89 9e 70 ff a3 3f 6f fb ec b5 67 30 f7 bf
       0.039058226921675085 -1.4493176561806782
0005e0 a1 15 c8 d9 33 71 b2 3f 98 0b 1a 94 b3 4b f6 3f
       0.0720398337071715 1.3934818062996097
0005f0 e6 ad c4 3b 50 f5 b9 3f f2 19 a2 17 d4 53 86 3f
       0.10139943560778128 0.010902077647426876
000600 44 55 00 13 9b 95 be 3f d2 75 f0 38 9d 6e d0 bf
       0.11947030271433784 -0.25675135193327236
000610 f0 35 9c d3 82 e4 9a bf a9 4d 34 5e 6e 9e f0 3f
       -0.026262325444852352 1.0386794738632068
000620 f9 ef 3c 87 3d bc f9 bf 79 9a 92 11 47 2f b1 3f
       -1.6084571154342469 0.06712764910717252
000630 e6 32 eb c7 ca 8d fa bf 9b 3b 61 7f 4f f8 b5 bf
       -1.6596172150922768 -0.08582016811236175
000640 c6 8e f2 72 09 e4 d0 3f db f1 5e 68 19 2c af 3f
       0.2639182684454052 0.060883325567804035
000650 9e 56 d2 7b e4 be f3 bf 2d e3 16 61 99 7b 80 bf
       -1.2341046177656732 -0.008048246646340818
000660 65 3a 7f e1 d9 b9 d1 3f fe 46 7e aa f0 93 f3 bf
       0.2769684507483475 -1.223618188847865
000670 0b b4 8f 4d 6c 4c b3 bf 3c 77 8e 5e 72 ef c3 3f
       -0.07538487332904269 0.1557448350621885
000680 9c b8 78 e4 30 f2 c6 bf 01 55 5f 46 4e 6a 89 3f
       -0.1792660823425124 0.012409793398470816
000690 2b 1d 4b 24 d3 ea f8 bf b8 66 dc f0 cb 90 c0 3f
       -1.5573302667342641 0.1294188428953953
0006a0 e6 0b de 2c ee 1f b2 3f 37 85 0f 2d b9 3f b3 3f
       0.07079971881289246 0.0751910910617156
0006b0 34 a5 3d b8 d3 d8 a2 3f 08 54 e2 e4 2c c4 c7 bf
       0.03681050895722607 -0.18567429710370242
0006c0 bf 1c 96 65 f3 16 ae bf 42 7a 67 1d 16 90 b9 bf
       -0.05876885047023838 -0.09985483377338603
0006d0 2f e6 9e 5e 08 a2 bc bf 91 7a 12 ce 35 f7 97 3f
       -0.11184742269588165 0.023403969481132384
0006e0 dc 36 b3 f6 10 25 79 3f f6 26 e8 81 51 f6 bd bf
       0.006138864769310106 -0.11703977033189603
0006f0 3c f9 4c 5e 44 26 97 3f 89 06 3d 2e 56 a4 f4 bf
       0.02260691476407682 -1.290121250742603
000700 b5 90 4b 79 15 b5 d4 3f 37 10 33 f5 a1 ff f8 bf
       0.3235524830363475 -1.562410314379134
000710 5b 59 c0 d3 45 41 f5 3f c7 ff 8b cf 53 6c b4 bf
       1.328435732988132 -0.07977794472753806
000720 75 29 d2 19 75 4b 90 3f f9 92 46 e0 d9 79 b0 3f
       0.01591284723375837 0.06435929990272972
000730 ae da af f5 e7 2d b7 3f ca 2c b3 d3 76 05 d0 bf
       0.09054422138420179 -0.2503335063344819
000740 89 97 43 e4 41 d6 e2 bf 20 22 21 a2 90 5c f3 bf
       -0.5886544664651733 -1.2100988705807438
000750 c4 01 b1 d1 49 c4 b3 bf c2 dd f6 d7 fc 9a c8 3f
       -0.07721387261790996 0.19222984833844065
000760 43 d6 ed 8c a4 56 c8 bf 9b 20 14 91 67 d2 b3 3f
       -0.19014412766743946 0.07742926876028593
000770 8e a7 96 e9 8a 40 4e 3f c0 10 3d 6b bd a9 ab bf
       0.0009232214244338942 -0.0540293877989213
000780 04 0b e1 71 25 54 c3 3f eb b0 62 c7 e4 70 d8 3f
       0.15100544033528973 0.3818904826282636
000790 39 c9 e3 65 40 62 96 3f ea 3a ea 06 10 c0 b0 3f
       0.021859174937113954 0.06543064278433133
0007a0 25 93 c3 34 86 7a f5 bf 4f 5e bd a3 64 20 bd bf
       -1.3424131451694816 -0.113775529838102
0007b0 36 f5 93 ac 05 eb b0 3f 33 71 c6 cf 70 dc bb bf
       0.06608615363434897 -0.1088324076903902
0007c0 63 87 8d 0b 34 f8 b1 bf 54 33 4c 93 57 d8 b1 bf
       -0.07019353181888514 -0.06970736833700403
0007d0 a1 f5 22 00 ac c7 f8 3f 15 38 b0 7c fe 87 b3 bf
       1.5487480168661494 -0.07629385513448057
0007e0 4a 02 e5 2f c8 38 d7 3f e8 5e 9f 64 ab aa 97 bf
       0.362840697071111 -0.023111989990723197
0007f0 6a ac 68 9d 3a b1 38 bf 83 bd a4 5c 4a a9 b4 3f
       -0.0003767746069651192 0.08070816766552551

fc2.bias f8 [3]
000000 7b f7 f1 6a 95 91 80 3f 84 7a 56 21 27 df c1 bf
       0.008090178800781214 -0.13962258460829358
000010 42 72 18 2f 01 1d f3 bf
       -1.1945812072437012
