car_ros2/car_ros2/model.pth (torch, 107091 bytes, 4 tensors)

fc1.weight f8 [300, 40]
0	0xbfb1fd7d8256e3a9	-0.07027420456041845
1	0xbfbcac53a3a4b6ff	-0.11200449700546854
2	0x3f8900be85162699	0.012208450733641118
3	0xbf9765d7bbe2112a	-0.02284943660971909
4	0xbf7443e358f33c41	-0.0049475556144918395
5	0x3fb29ca80a5160a7	0.07270288707639115
6	0xbfaba47e04705780	-0.05398935131249427
7	0x3f9a7509a4baf5fb	0.025837088279095238
8	0xbf7670c361bc3969	-0.005478633127280788
9	0x3f9bd4eb6ea2df55	0.02717941153306865
10	0xbf74d1bbc83e9539	-0.00508282997535519
11	0xbfc1ea3a83c78513	-0.13996058878459702
12	0xbf8228d551461b88	-0.008866945784360217
13	0xbf8050bfc9490d04	-0.007966516809693854
14	0xbf74563743fc8626	-0.004965034371510002
15	0x3fb7ce5ffaca5966	0.09299278137982511
16	0x3fb56adad1214f65	0.08366172414508595
17	0xbf8d07fe0ee05082	-0.014175400570856537
18	0x3f90d7dcf982645a	0.016448452690927297
19	0xbf95f49331da1063	-0.021440792005265396
20	0x3f9610c5b7084c6c	0.021548356338894
21	0xbfb7f68b4de73f51	-0.09360571529327656
22	0x3fa67c4e30747921	0.04391712514392255
23	0x3f91d61e5c24d53d	0.017418360113159215
24	0x3f40f7c14bb0fc12	0.0005178159548292502
25	0xbfb7bdce179e3fd1	-0.09273994518866792
26	0x3fc7c3ddc7e26a04	0.1856648660658068
27	0xbf99bfd37922b31d	-0.025145820873763037
28	0x3f57273ea1f98b3a	0.0014131652495954065
29	0x3fa25711811626d9	0.035820528991349306
30	0xbfb0ffc99d95810c	-0.06640300843492158
31	0x3fe7af9e74a581cc	0.7401878622295555
32	0xbfc0b1aba70f6572	-0.13042207391007882
33	0xbf805938d4606c51	-0.007982677441807836
34	0x3f9571dabd044665	0.020942132746375814
35	0x3f8a35af3ae6c232	0.012797707543399903
36	0x3ff9a9224413350b	1.6037924441509996
37	0xbfd25020a2c6182f	-0.2861405934894518
38	0xbf6e929202755e79	-0.0037319995641771878
39	0xbfe2df99516e0411	-0.5897947874474331
40	0xbfcb9dd51bf68165	-0.21575416436554487
41	0x3fa1d24ed607a117	0.034807647349056996
42	0xbfc1b14b1866378b	-0.13822306338664378
43	0x3fc5b8213f330ebb	0.1696816977110894
44	0xbfbe65b5c98ba3a6	-0.11873947306197738
45	0x3fafae735a0a4d75	0.061877827397576114
46	0xbfc177c42d838381	-0.13646747801160689
47	0xbfb4a29a9cddf9db	-0.08060613946688681
48	0x3fd8b8a61a776d81	0.3862700708829934
49	0xbf623551eb50b187	-0.002222690580785339
50	0x3fb101f4df126c95	0.0664361042603779
51	0xbfb5815c9879271f	-0.08400515291682752
52	0xbf9b7a89b503de93	-0.02683463256195624
53	0xbfc1e97f2ac34302	-0.13993825519585107
54	0x3fb8b9980a628fbd	0.09658193830051594
55	0xbf6483ee5f487b71	-0.0025043159205461675
56	0xbf91182586fc7db5	-0.01669367443457555
57	0xbfd0080ba56a97dc	-0.25049105791037873
58	0xbfb1dc3ba5e01cfc	-0.06976673888867774
59	0xbfc49e0c36dbd7e4	-0.1610732334008268
60	0xbfae300523b3f81f	-0.05896011410548873
61	0x3f9e119624777248	0.029363962150329465
62	0xbf99288396c90829	-0.024568611219599888
63	0x3fa63451331f2e7d	0.043367898455099564
64	0x3fde97bd0d86425e	0.47801138230082596
65	0xbfc663266bf9f79d	-0.17490082046782343
66	0xbf774c650f67ca68	-0.0056880901015455634
67	0xbfb94df62154d7e5	-0.09884584726100305
68	0x3f76f16369d5c071	0.005601299604094932
69	0xbfb45a83a9b1b7e8	-0.07950613873410328
70	0xbfc660bad0282678	-0.17482695735843712
71	0x3fa3e4d133e4e944	0.0388551116797822
72	0xbfd7668d25367de0	-0.36563423761432823
73	0xbfb400397c8a0d8b	-0.0781284264613104
74	0x3fd6f98242a3bd02	0.35897881038449964
75	0xbfb1b0f9a9d1477e	-0.06910667797026623
76	0xbfa01f19ed9e0c84	-0.03148728395083203
77	0x3fd876e50ae3fdc9	0.3822567564347677
78	0xbfb5468a9bdf1f78	-0.08310762696703289
79	0xbfc79c9dba97bf1d	-0.18446704493498425
80	0x3fc22a6ec4ce9d1c	0.14191994294854104
81	0xbfbc1674cdecc327	-0.10971765544378496
82	0x3fa4557d702e0561	0.03971473688489869
83	0x3f91209602548d9b	0.01672586812231956
84	0xbf92158b900b6fd8	-0.01766031328848769
85	0xbf9b57be00ad48a8	-0.026701897422136384
86	0x3f7dcb57f98e0f98	0.007274001742988555
87	0xbfa08f53d6e173f1	-0.03234350202612991
88	0x3f92e51fc822505a	0.01845216425915939
89	0xbfa05e3c98a186b3	-0.03196896899386328
90	0xbfb2e10710494b83	-0.07374614856352761
91	0x3fae95a832f880ef	0.05973554250908985
92	0xbf6f6679c249de1b	-0.0038330438713349963
93	0x3f6be71f16ff14b3	0.0034061057303654495
94	0x3fa00749e9bc4f58	0.03130560854165648
95	0x3f952d749097f5bb	0.02068121082810646
96	0xbfb22c9047c32c9b	-0.07099248649608329
97	0xbfa4000ebc91e0ea	-0.039062939184931825
98	0x3f9a867e3fdc2477	0.025903675697041408
99	0xbf9140f279b6a4f5	-0.016849316290664402
100	0x3fb219ba4d84754e	0.07070507423892033
101	0xbf843145aa49c061	-0.00985960412910475
102	0xbf7df5de728042be	-0.007314557013174903
103	0x3fa221883283eed6	0.03541207901613823
104	0xbfa8a4bbf162b92f	-0.04813182183839825
105	0x3f9af347b7fc5f49	0.026318665127376382
106	0xbf81a446732a50f7	-0.00861411131817434
107	0x3fb1bae68aabc227	0.06925812612076553
108	0x3faac1a28b87fb4b	0.05225856736432507
109	0xbf95633856eb7439	-0.02088630705371861
110	0xbfc1bd8da2fb6819	-0.1385972066698862
111	0xbfb3f682c12e354b	-0.07798020569153612
112	0x3fc5034aceb4065f	0.1641629704754903
113	0x3f9882eef72976f1	0.023936971507615593
114	0x3fc69460910fe6bc	0.17640311320410784
115	0xbfb8e742859b55b9	-0.09727874528774451
116	0xbfd5f2dcb9d8b96b	-0.342948132983017
117	0xbfc2c38fb922948f	-0.14659306087302013
118	0xbfdb10e5d669d8cf	-0.42290636004271404
119	0x3fab3bf1cf63b90d	0.05319171578035951
120	0x3fb751a6139f8241	0.09108961085394986
121	0xbfc80ab99dd40916	-0.18782730299432931
122	0x3faa26a0a7f69037	0.0510759549172523
123	0x3fa2098492eb4f1f	0.03522886556097959
124	0x3f8b9d72aca3d905	0.013483901876025781
125	0x3fb6686acca73076	0.08753077980435528
126	0xbfca71daef2fc304	-0.2065995853331729
127	0x3f87c327fe100417	0.01160269970023546
128	0x3faa1c47ca0c8f0f	0.05099701253337063
129	0x3fa66c141c8454c3	0.04379332397562898
130	0xbfc52d2be2a23b29	-0.16544102254962326
131	0xbf6da67bec7b8662	-0.003619424856751861
132	0x3f90babacc1781ac	0.0163373171870959
133	0xbf9730aba6bd7010	-0.022646600772859016
134	0xbf5a11cc167bccc7	-0.0015911572499447844
135	0xbfd14dbe838e43c6	-0.2703701290820927
136	0xbfbd4a3eb198b36f	-0.11441413722850567
137	0x3fb0b9bc71020aba	0.0653341079615001
138	0xbfb5befe81a24157	-0.08494558968437126
139	0xbf89566f3d50f4db	-0.012371892031405476
140	0xbfc3bffad71249dd	-0.1542962598947061
141	0xbfd9d61c592aab99	-0.40369328220065764
142	0x3fb356b5d6f133c5	0.07554184434520923
143	0xbfb90ff1cb899a30	-0.09789954394509759
144	0xbfc7bd680e7f6254	-0.18546772678270662
145	0xbfbe41d606dce3be	-0.11819207828092623
146	0xbfd29802fa2e0907	-0.29052805358527717
147	0x3fc99f190847cdee	0.20016777901001553
148	0xbfbbe2bb21f2399c	-0.10892839030041163
149	0xbfd7d456b02a9374	-0.3723351211904664
150	0x3fdfa62efeef2be6	0.4945180406181734
151	0xbfe44fbc55044b8f	-0.6347333584293312
152	0x3fdcdb483d8fdcfc	0.4508839226904937
153	0xbfb8e52e145100df	-0.0972470092392572
154	0xbfef1c48a60e013d	-0.972202610326384
155	0xbfd12167a5d9a0fc	-0.2676638717298514
156	0xc00942081e66fac4	-3.15724204780358
157	0xc0033ca3cfd8ea49	-2.4046093214103945
158	0x3fa70a331be0dc7e	0.04499969210922304
159	0x4019b12c2d75cea3	6.423020086589221
160	0x3fa7b6c251ba3430	0.04631621596954749
161	0xbf88d44120cda7a2	-0.01212359315259787
162	0xbfb94787bd3551a8	-0.09874771470396715
163	0xbfa043bebf2a4157	-0.03176685412938934
164	0xbfb513c7c116d440	-0.08233307327357497
165	0x3f9118a6446d0b64	0.01669559281004797
166	0x3fc25e54bcaa04b5	0.14350375377765592
167	0x3fc1a18d08281132	0.13774264238612371
168	0x3fc035479a918131	0.12662596747669277
169	0xbfce7d2e9da7b403	-0.23819525430681673
170	0xbfa59e84ccb886ff	-0.04222502707513164
171	0xbfc3c0c50dfb95f9	-0.1543203657412702
172	0x3fb96f6e0c50d11b	0.09935653496433298
173	0x3fca30a22cf14f42	0.20460917658294347
174	0xbfc00235f623acdd	-0.12506746786616577
175	0x3fc66443ff983beb	0.1749348638554403
176	0x3f95d2331aae14e5	0.021309660437982898
177	0xbf9b4980e781b3f7	-0.026647581224484154
178	0xbfd3dc44751ce1b5	-0.31031905590819103
179	0x3f6c4e72790d2b51	0.0034553752706520187
180	0xbfb5fe01ec2a2db2	-0.0859070970129128
181	0x3fae1cc4aa9cdd5a	0.058813234164001485
182	0x3fac3a9b0a95030c	0.05513462547469858
183	0x3fb3afc8495da896	0.07690097609671151
184	0x3fa42012412213ba	0.03930718464929535
185	0xbfa19cfb41abe1be	-0.034400798574953026
186	0x3f891eb23980d088	0.012265579585893485
187	0x3fb83c35d541b402	0.09466873604260687
188	0xbfd1c38111b4e582	-0.27755762795603556
189	0x3fd13cfd3284af89	0.26934747632434913
190	0xbfbe93ebf49c85b5	-0.11944460603674296
191	0x3fb86f9954cd074b	0.09545286484083453
192	0xbfb1949fc9e0f218	-0.06867407492331556
193	0xbfc6e1a7be6c3c82	-0.17876145170200536
194	0xbfb27e939668782f	-0.07224390432426796
195	0xbfc2c073b75c9bff	-0.14649816945276936
196	0xbfd03957cd55ab97	-0.25349993755542627
197	0x3fc5c488905677f0	0.17006022498838957
198	0x3fd9c191b756606e	0.4024395265964874
199	0x3fba0ca2856e7cb4	0.10175529248816667
200	0xbf9126bb0a9e528c	-0.016749308131311966
201	0xbfc20a5dbf3d4f5f	-0.14094135129800642
202	0xbfc222e084adb9c2	-0.14168936232040436
203	0xbfb303c4da3cca4b	-0.07427625968993216
204	0x3fca5c9139a461f9	0.20594992937618864
205	0xbfb1d2d872a45b21	-0.06962349699857075
206	0xbfa693f020eff6f6	-0.0440974273878804
207	0xbfccdd2a413e5f34	-0.2254994219372236
208	0xbfc1156f81ceb884	-0.13346666181809408
209	0x3fba944d83efc478	0.10382542105777925
210	0x3fc1ba6c0f109a39	0.13850165114964044
211	0xbfc14eb6eec88afc	-0.13521467837662005
212	0x3fbede741d448e49	0.12058187212510875
213	0xbfad3bfbdcede421	-0.057098265379814224
214	0xbf95d826a97a2591	-0.021332363218368015
215	0x3fba58845f383a15	0.10291316342065955
216	0xbfb9b057667e9b24	-0.10034700634296861
217	0x3fabc8aadf6a5d6a	0.05426534631004183
218	0xbfa71b15418f3779	-0.04512850213323722
219	0xbf8de2365d502458	-0.014591622088135178
220	0xbfba4208c684212d	-0.10257010313592181
221	0xbfc81bc1402a2097	-0.1883470118812098
222	0xbf6edaa26786cb8b	-0.003766362377257198
223	0xbf9ca437ce513503	-0.02797019192467066
224	0x3fc6b2a1fb679aa1	0.1773264386713054
225	0xbfc32b98eb7cf18e	-0.14976798532906027
226	0xbfc8b70c1e7d40dd	-0.19308616150602279
227	0xbfca11bda1b43663	-0.2036664046831219
228	0xbf93557eb0cfcbee	-0.018880824605684347
229	0xbfc061db0d3c0f50	-0.12798631807538152
230	0x3fa5160a16c0dcf8	0.04118377235175247
231	0x3fc0750c3ba2142c	0.12857201492093517
232	0x3fac1260505d54ea	0.054827699480179806
233	0x3fae9fea6fcb43c9	0.059813810488442316
234	0x3fb7819cebababdd	0.0918214869849829
235	0xbf89fd56325329ed	-0.012690232668679047
236	0xbfa230fccf0546e1	-0.03552999522311296
237	0xbfb4124b705026fe	-0.07840415470141335
238	0x3fd33326fa7bb97b	0.29999708615550674
239	0xbfc6ffe1f62adf72	-0.17968391914268583
240	0xbfbf2339747e1733	-0.12163123220497311
241	0x3fc465a3cf8c85a6	0.1593518031523164
242	0xbf9f6bf195625f7a	-0.03068520998257849
243	0x3f8a695e6e887bb2	0.012896287677959115
244	0xbfb747a49c777964	-0.09093693561542221
245	0xbfb08f14cab095f4	-0.06468324612122683
246	0x3fd1650c20f15f02	0.27179244248462464
247	0x3fac6739cb490e3c	0.05547505003462702
248	0x3f82b90b63a1df19	0.00914200685313875
249	0x3fa56d1ca94ad6f1	0.04184808317715561
250	0xbfa48ad54bbca252	-0.04012171315691106
251	0xbfb1edcd3c47320d	-0.07003481599458201
252	0x3f93ab9190e64a00	0.019209169835059825
253	0x3f7eb50ac6616a92	0.007496873940989206
254	0x3f899d990e3ee917	0.012507625338788615
255	0x3fb1d1d68e625d41	0.06960812545945762

fc1.bias f8 [300]
0	0x3fd33cc195e3aaf5	0.30058326375608085
1	0xbfdcfec7836c4124	-0.4530504973818259
2	0x3fc1c559bc9695cd	0.13883516033562984
3	0xc0092b1d58d97e1b	-3.146052068841312
4	0xbfd750b3678d3122	-0.3643005858655376
5	0xbfc2b6b06ebebadf	-0.14620023162338833
6	0xbff5bc1bba1d3e56	-1.3584248800360874
7	0xc009e19c1d8e3524	-3.2351610478423414
8	0x3fa89f1a3cf864d4	0.04808885568872659
9	0xbfed30d1f39f237c	-0.9122094877467215
10	0xbff0e625c7ef2870	-1.0561883745126828
11	0xbffa5931d5d23670	-1.646776042212334
12	0x3fc3819c373e3e17	0.15239288995188424
13	0xbfda3b7b76749dbb	-0.4098805100242903
14	0xbfe5ef00d7a005b9	-0.685425206320523
15	0xbfb1805b1fa3edbf	-0.0683648063895168
16	0xbfdbdb0caaa8d41b	-0.43524471918073154
17	0xbff60665fcf5f4f4	-1.3765621072082554
18	0xbfd519f501818e16	-0.3297092928607709
19	0xbfeee5c4b3b08f52	-0.9655478963436315
20	0x3fc22f6ff80d8aba	0.14207267391164696
21	0xbfc078e74d405f5e	-0.1286896826938983
22	0xc00641baf0670f82	-2.782094839234504
23	0xc0116dc4590cf359	-4.3571943201212315
24	0xbfd44461ec9a9e09	-0.316673737581795
25	0xbfe93f9664df4cc9	-0.7890121431504663
26	0x3ffdb2be94cb38fe	1.8561387836703598
27	0xbffacf135d619c4b	-1.6755555770594295
28	0x3fe7355db901fe30	0.7252644170220659
29	0xc002ff76a19426f2	-2.3747379897439425
30	0xc00fcb2711ed8b05	-3.9741956139199623
31	0xbff21941c66414e2	-1.131166243519424
32	0xbfe9c77743de6041	-0.8055988622245495
33	0x4005650c646923fa	2.6743400425516457
34	0x3ffb92238528cc1b	1.7231784059083626
35	0xbfce478e49a5af0d	-0.23655871006064225
36	0xc00005ba11ffbc9c	-2.0027963071984924
37	0x3ff24378e2f79a94	1.141472708311686
38	0xbff5c21e01701bd5	-1.359891896836179
39	0xbfb0c1a3da9e697b	-0.06545471274731611
40	0xc011030106b2a48a	-4.252933602002608
41	0xbfbf0e80582a521e	-0.12131502296899341
42	0xbfd9cfffff861df4	-0.40332031205659225
43	0xbfd4d7625052b02f	-0.3256459984211259
44	0xbfd2fbc88e3aea5d	-0.2966176403967092
45	0xbfaf128123c5e42e	-0.06068805276567733
46	0x400108730f465e8a	2.1291257088994984
47	0xc01097b61d9c842a	-4.148155653646464
48	0xbffa1cf1857e5210	-1.6320662703120696
49	0xbfbd59c4c893bfc2	-0.11465101143744419
50	0xbffc97db1d4d8cb7	-1.7870741982122078
51	0x3fafdc7c52706364	0.06222904688201572
52	0xbfc197801fd34315	-0.13743592790572082
53	0xbfad0072f346d17c	-0.056644050785879835
54	0x3fe0db87d0d9152f	0.5267981604635333
55	0xbfcd3e683612ae55	-0.2284670127895533
56	0xbffdf655aa6aed32	-1.8726402909222313
57	0x3fc8bf2f6baad520	0.19333451039498417
58	0xbfd6fba7ae801ce4	-0.3591098026376598
59	0xc00b458d8ee03da9	-3.4089614069159393
60	0xbfd8713b62e286c6	-0.38191113144612776
61	0xbfcff04dac076161	-0.24952097797246167
62	0xbfcc397c7efc1d95	-0.22050434303694702
63	0xbfd3fdae0502493c	-0.3123583840289432
64	0xbfc4198881a26f79	-0.1570292122822783
65	0x4003c4ac2b8c5b83	2.4710315134247494
66	0xbfdd0ef1befb86b7	-0.45403712893139975
67	0xbfec8f55cee5460e	-0.8924969712190334
68	0xbfe2c531b12801d5	-0.5865715465625337
69	0xbfe8edb1850ab276	-0.7790153120491385
70	0x3ffbf6028db5ca0f	1.7475610290099473
71	0xc00fd670cd25b52d	-3.9797073390133364
72	0xc003d0cc4c952f2a	-2.476952169707052
73	0xbff8c6d5a00cd623	-1.5485435726126375
74	0xc01715d98af6668b	-5.7713376725092855
75	0x3ff65a78afd79235	1.3970877522307437
76	0x3fdecedd960e47c4	0.4813760724438192
77	0xc00646c1599b3c30	-2.784548473405742
78	0x3fc4e1e825cb1b1d	0.1631441292322159
79	0xbfeccfc262a77e7a	-0.9003612448540956
80	0xbfd685a8cbf38afe	-0.35190792004702576
81	0xbff79f4f059c6500	-1.4763937205482875
82	0xc00f81a3ad1f48ce	-3.9383004689380874
83	0xbff776a58f203ec9	-1.46646648319795
84	0xbff5e01bf7e1be76	-1.367214172638254
85	0x3ff25cc0b012b697	1.147644698892156
86	0xbfd1331c65ef8192	-0.2687445636238631
87	0x3f969c82d153195f	0.02208141710868838
88	0xbf97423c81e6aeaa	-0.022713609150442217
89	0xbfaa5cee97d0ec28	-0.051490264923323814
90	0xbfa8c4eb8c177bb2	-0.04837738118271008
91	0xbfcee12e9626b340	-0.24124700862503268
92	0xc00b51121b023209	-3.4145853147549627
93	0xc0128809ea4e3e21	-4.632850323701434
94	0xbfaea9de17102961	-0.05988973647625318
95	0xbfe108d1f0638087	-0.532326669224873
96	0x3fdcf1ea98efad32	0.4522654050367293
97	0xbfce75cca85d3914	-0.2379699537363612
98	0xc02bc5ef5436d26f	-13.88659156007017
99	0xbff004576f40de00	-1.0010599466166923
100	0xc0067be15f94b1ba	-2.8104884593251116
101	0x3fc55f780be51868	0.16697598057561724
102	0xbfc532b1ca59e469	-0.16560957317759353
103	0x3fa4b9389a8c4c86	0.040475624910095084
104	0x4002904894f223c5	2.3204509388346843
105	0xbfde16fcf4f98a33	-0.47015308306996245
106	0xbfc89737656fde41	-0.19211475804307734
107	0xc011c627090f3787	-4.4435082831895505
108	0xbfd401a7d0d9c74b	-0.312601045566329
109	0xc012f6b3a54445d1	-4.740919668476139
110	0xbfc36367464025a6	-0.15147105150417167
111	0x3feb090be0fbf5a0	0.8448542970870001
112	0xbfe17b1b6ea1b37b	-0.5462777291082682
113	0xbfc91cf8b1f4ccfa	-0.1961966389586463
114	0x3fd35628fa987191	0.30213379356589437
115	0xbf90668b58b666a5	-0.01601617554624703
116	0xbfd3974410cfc664	-0.306107536714171
117	0xc002d9462bc3d627	-2.356090871728856
118	0xbfdb4d72f8829e52	-0.4266021181924532
119	0xbfb72350d31c7969	-0.09038262514193253
120	0xbfad2f026403fbea	-0.05699927779095744
121	0x3fb56636597e6bb0	0.08359088597209907
122	0xbfb3ffbed7925dea	-0.07812111628515309
123	0xbfd8630ecd9200da	-0.3810460097811422
124	0x3fc3f063bde09c2f	0.1557736088882122
125	0x40025db7e725328d	2.2957609232165113
126	0x4000e7897dff3cbb	2.113055214263651
127	0x400bc2843c77c4b7	3.469978783040087
128	0xbffcc60b24237111	-1.7983504687936753
129	0xc00b6ac5be335c48	-3.427134977285764
130	0xbf9857be892801c0	-0.023772217866282253
131	0xc010a1fba2974697	-4.158186474307192
132	0xbfc6c8dd38b5470f	-0.1780048872847648
133	0xbff46ba34f11e47b	-1.276278790346878
134	0x4002972ba7c59a1a	2.3238137347391445
135	0x3fdc08982a4e57ec	0.43802456027458336
136	0xbfc9c8c822fccdc2	-0.20143987377524125
137	0x3fd2b8a52e668b7c	0.2925198510294462
138	0x3fbcd16e5a073fbe	0.11257066438633864
139	0x400228bc6bb11eb2	2.2698906339099603
140	0xbfdc464a562d7cf4	-0.44179018417157967
141	0xbfe6d81b83fc5b93	-0.71388030794593
142	0xbfd782320d163740	-0.36732150342946923
143	0xbfe5c34f03488c6a	-0.6800913871887933
144	0xbfd6ccd9fe7f1a57	-0.3562531457249966
145	0xbfb30e606a9e50cb	-0.07443811991680886
146	0xbfc3f40936067fdb	-0.15588488710363788
147	0xbfbb4fdf3a59bcbe	-0.10668749975751532
148	0x3faa4afa6854dd94	0.05135328792169527
149	0xbff44ce645c04bd4	-1.268774292436082
150	0xbfd4792a3e994f81	-0.31989532578631247
151	0x3ff17261582cb072	1.0904248661345517
152	0xc0018a038bb31099	-2.192389575388074
153	0xbfcf2672980fcfa1	-0.2433608286370346
154	0xbfe0697ae1187b86	-0.5128759762190931
155	0xbfcd1d7dcc4df6f5	-0.22746250606353838
156	0xc01271cf423db243	-4.6111421919018225
157	0xbfbebc177fccc2f8	-0.12005755300630117
158	0xbfe1d05675912823	-0.5566818519812425
159	0xbffbd9341f5b2d55	-1.7405282235002535
160	0xc007563739431992	-2.9170975183107624
161	0x40024ddc77258a91	2.2880181606609047
162	0xbfd7f925342ed5b9	-0.37458162399283484
163	0xc00309f3019427d0	-2.379858028730247
164	0x3fc34ad2b06eb0b5	0.15072091688978664
165	0x3fe196d68131422f	0.5496628306664827
166	0x3fa22747a7bb60f5	0.035455931878177006
167	0xbfc39fdca6ccd465	-0.15331609863793286
168	0xbfc33185e2430f1c	-0.14994882152506583
169	0x40007e1c67ba85cf	2.061577616100045
170	0xbfac4633003315d2	-0.05522307755886015
171	0xc00467a0e65e8263	-2.5505998609153706
172	0xbfd3be54ac8ad2e2	-0.30849186754066527
173	0x3fff5d2407877f96	1.9602394384491837
174	0x3f9ccb4440651a49	0.028119150572161442
175	0xbfbd0bf66903f8ee	-0.11346378387313269
176	0xbf8122ad1dbfa2f8	-0.008366920919756535
177	0xbfe73e74f463fb47	-0.7263741276982295
178	0x3ffa6839c306d4da	1.650445710967054
179	0xc002aeb787468003	-2.3353109901800067
180	0xbfd90801820eaacb	-0.3911136407938726
181	0x3ff70ed0bd6dd18b	1.4411170386857488
182	0xbf6edf4861221af6	-0.0037685788784672615
183	0x3f8ac6c5383d5ed3	0.013074436930465982
184	0x3fcb2238c5bc7d2a	0.2119818654545978
185	0xbfe5c9687a058f4a	-0.6808359511601136
186	0xbfd9f8885a638709	-0.4057942278578684
187	0x3ff16e89a9bbf5fc	1.0894867544405988
188	0xbfd1d47b4de90d01	-0.2785938511699016
189	0xc000af2196ea568b	-2.0855132856621075
190	0xbfd820c9bc5546d2	-0.37700122253327806
191	0xbff761d0bbccc548	-1.4613807044919032
192	0xbfd6a836ac7ae860	-0.35401694148789
193	0xbfe44fd75db75029	-0.6347462492362911
194	0xbfd156b899f8bb1c	-0.27091803585328633
195	0xbfcd5c9d622879c9	-0.22938887875439054
196	0x400430b8cea053c1	2.523789991634175
197	0xbf81afc86b591c73	-0.008636060501102194
198	0x3ff9c9f32e7fbdd4	1.6118041817061242
199	0x3fa5ac9461381db4	0.04233230292089321
200	0xc029ccfce7533213	-12.90036700144359
201	0x3fe7e40075144251	0.7465822493268864
202	0xc003a0bc6e0908fd	-2.4534844013697907
203	0x3ff4eedbf9f2b653	1.3083152545545047
204	0xbfff3e2f656074f0	-1.9526819191008222
205	0x3feaf867d81eae83	0.8428229542818858
206	0xbfdd42906ea7f942	-0.45718775564445846
207	0xbfb55e0f92a5d8e7	-0.08346650438565782
208	0xbfdb03ff086999f2	-0.42211891004117696
209	0xbfd1438bb6b5713a	-0.2697476658120369
210	0xbfe5771b62125c2c	-0.670789424463583
211	0xbfb82f0b1e099847	-0.09446782573067579
212	0xbfe7dc3e6e41f55a	-0.7456352380246856
213	0xc006c4692075ac77	-2.8459036384497796
214	0xbfbf0adff0cd3661	-0.121259685792404
215	0xbff8630b17775af3	-1.524180499711005
216	0xbfff2c6e7d86f0c8	-1.9483475592997355
217	0x3fb640792cc7dd9b	0.08692128508834289
218	0xbfc4d569db07dd80	-0.16276286311015653
219	0xbfb57990f95c67a8	-0.0838862046042822
220	0xc001ae9a2366b262	-2.2102549329486445
221	0xbfe8a0570585a83a	-0.7695727451184731
222	0xbf9a983a7175bbc5	-0.02597132985595942
223	0xbfde3b262ee0ca99	-0.47236017778338063
224	0xc006020ee0ccc807	-2.751004940270835
225	0xbfe1d0e03c850d07	-0.5567475492502191
226	0x3fc3666bf6bf1968	0.1515631632630161
227	0x3f93812879246f90	0.01904738654512489
228	0xbfd15526f47f3120	-0.2708222758926855
229	0xbfeef419c30d9bae	-0.9672974404937713
230	0xbfde8bb324a0fa51	-0.4772765977576557
231	0xbfe207720c2a99c8	-0.5634088742852379
232	0xbf8bef82aa4e6006	-0.013640423605281182
233	0xbfd646599ae6abdc	-0.3480438244538939
234	0xbff44ee3f3a8f85f	-1.2692603605242068
235	0xbfc2cbf4383adb23	-0.14684918161011593
236	0xc01847ca6eb35d9c	-6.070108155915843
237	0xbfc755a5bcedfd4f	-0.18230125165062325
238	0xbf9e583d59432dfe	-0.02963348252596453
239	0xbfdeef590b5a5d57	-0.4833586321705829
240	0x3ffba8e022afe6d1	1.7287293772664507
241	0xc014607db16e50a6	-5.0942294810849145
242	0xc0075727d766a619	-2.917556460208982
243	0x3fd62f32c4589798	0.3466307561342261
244	0xbfb310e73667cc88	-0.07447667196520247
245	0x3f838ebbf5c4d99f	0.009549587667248725
246	0xbfe3ab1bcedc35a9	-0.614637283347908
247	0xbfbb8e789cdc0e70	-0.10764268712596858
248	0xbff3660f404ded1c	-1.2124168884173008
249	0xbfa311ee15de1012	-0.03724617020546374
250	0xbfe3ef9d9737047c	-0.6229999497810605
251	0xbfd590997e95a1b0	-0.3369506584336035
252	0xbfd9ee18acbdffc7	-0.4051572501120941
253	0x3ffecd25bc86ecff	1.9250848163927115
254	0xc018d43df30160ef	-6.207267567595621
255	0xbff2e2795953866f	-1.1802915086085723

fc2.weight f8 [3, 300]
0	0xbfbe378075cc750d	-0.11803439022010682
1	0x3f6fa514c9184237	0.003862896534663453
2	0xbff09aeadef99577	-1.0378216466864083
3	0xbfa655b90faaaf66	-0.04362276378864642
4	0xbf613c8b210684b1	-0.002104064689959794
5	0x3f704026435232cc	0.003967427696932101
6	0xbf87f6e8a94c8297	-0.011701409975615902
7	0xbf70fce9662e06f9	-0.004147445407285615
8	0xbfe0848c2772aaad	-0.5161801119296193
9	0x3f8165a7c85ffdf1	0.008494673540552862
10	0xbfabbfc417c72165	-0.054197433378763184
11	0xbfa04a519fad0218	-0.031817007772137085
12	0xbfee4e8db5b95e8c	-0.947089056901818
13	0xbf7595716000ea97	-0.005269472952984209
14	0x3f8563391e83151e	0.01044315933575973
15	0xbf61ca75c8efe876	-0.002171735809949611
16	0xbf385cb4fe0d7e77	-0.0003717367053947882
17	0xbfaebab708b32829	-0.06001827222060314
18	0xbfb2e84008ca387f	-0.07385635580632942
19	0x3f83b42026417e65	0.009620906035876684
20	0x3f64879d7010de05	0.0025060725170325004
21	0xbf7cf2d354b928df	-0.007067513953709275
22	0xbf70d2be3913d7e9	-0.004107230242189155
23	0x3fa0a58ff92b7cbb	0.03251314083694853
24	0x3f4f2b018f817dc8	0.0009511716480225469
25	0x3f7849b21ce563ee	0.005929656747263741
26	0xbfb16af21b9badae	-0.06803811239267674
27	0xbf98df36f4144b18	-0.024288996360222276
28	0xbfbfc2f319be20b7	-0.12406844500049173
29	0x3fc537c1c38f7cf3	0.16576406525471263
30	0xbfa92f34a3a8897d	-0.04918827531607215
31	0x3fa4f79ca5048376	0.04095162882209184
32	0x3fc24c4e797eb414	0.14295369083757292
33	0xbf985316aa053dc7	-0.023754457595087233
34	0xbfb3a98e638aa92c	-0.07680597238746562
35	0xbf7540661175aa6b	-0.005188368514931522
36	0xbfc3b64dec87cf91	-0.15400098847714763
37	0xbfad2035b1618df0	-0.056886365797961136
38	0x3f9e4f8b470d7af7	0.029600311481199317
39	0x3fe48c801f58bde2	0.6421509372939307
40	0xbf4d3889983dc8af	-0.0008917495583615954
41	0x3f772c4f95efe6c8	0.005657492524727643
42	0x3f6ed5c5b9da84cd	0.0037640439830544993
43	0xbf70506cae665ce8	-0.003982948814516642
44	0x3f80f7bc10d04a8e	0.008285016310798168
45	0x3fe3c0f3e8f652fd	0.6173038053553622
46	0x3faa32f5f78b8fb9	0.05117005011359716
47	0x3f7b095d2e76ec4c	0.006600727071993506
48	0xbfc5e8d52e765f04	-0.1711679913394094
49	0xbf735ccab832806f	-0.004727165101172755
50	0x3fa3ed4e0f223ce6	0.038919867846851905
51	0xbfe0f04b46a36c99	-0.5293327693610933
52	0x3fe8cf432ed30a8f	0.7753005899943036
53	0xbfd141f4c3c0ff79	-0.26965064159957525
54	0xbf91416664af11ac	-0.016851043601279578
55	0xbf518bde095498a0	-0.0010709446263006753
56	0xbf92a5fa52397f34	-0.01821128012522806
57	0xbfc0be5f4014972b	-0.1308096945660336
58	0x3f817a570b5f3c53	0.008534126314684231
59	0x3f97f3a2f37756ce	0.023390337095256446
60	0x3f610a84682345d9	0.002080210310943836
61	0x3f42d18bc54fc44f	0.000574296233592739
62	0xbf655bd27e960b94	-0.002607260820413024
63	0xbf8a4c956f4e8801	-0.012841384372055844
64	0xbf7e6f2752340c45	-0.007430223081658365
65	0x3fa52bc1a3f1d840	0.04134945989874028
66	0xbf79c3495c196d0c	-0.006289755403112506
67	0xbf7e81030259d5fa	-0.007447253946897709
68	0x3fa29a72f454b8b2	0.036334602666430085
69	0x3f8473583ac811b8	0.00998562745463337
70	0xbf86b8ae85e7a0a6	-0.011094439946603817
71	0xbf90201ad841b58e	-0.01574747033048634
72	0x3f926e18be6196b0	0.01799811040873206
73	0x3fb288dd79887de5	0.07240089623564179
74	0xbfb8677477c0af90	-0.09532859729432475
75	0xbfa2c3dfaa076c27	-0.036650647645466265
76	0x3fa264f3a962ecf4	0.03592645113664075
77	0xbfad114eb82b77b5	-0.056772670728363485
78	0x3fd3a5ecf80f43df	0.30700229858945066
79	0xbfb1ce2d2c371cea	-0.06955225305056315
80	0xbf709ebc454915b6	-0.0040576319048048395
81	0x3f90f56199f9b3c3	0.016561055205261754
82	0xbfba167c13706b5c	-0.1019055888613542
83	0xbf961eff01ab6ba6	-0.02160261581125735
84	0xbfa438d19aedd9d4	-0.03949599281525065
85	0xbf70aee4067cfd91	-0.004073038791659115
86	0x3f405d740d984ac4	0.0004994217553665127
87	0xbf45e8a5da74dc00	-0.0006686029272832128
88	0x3fee0a3c202262fb	0.9387493732093327
89	0xbf441f10a1cd3217	-0.000614054795371968
90	0xbf824f9d34dc1133	-0.00894091432156383
91	0xbf4f0916c09c27f3	-0.0009471284003847988
92	0x3f8f82b031ae4504	0.015385986820350535
93	0xbfbf91dad1ea3e3c	-0.12331931710127092
94	0x3fe12a0420239a25	0.5363789203373172
95	0x3f6729f5bbfb58a7	0.002827625226795655
96	0xbf9c1cfe2c7fe6f3	-0.0274543490085994
97	0x3f766ba9580021b3	0.005473767756491932
98	0x3fb02e104cfc11a9	0.06320287589557573
99	0x3f954780b8d18e53	0.020780574112349303
100	0xbf9260674353e6c7	-0.017945874676093234
101	0xbfa14f6b0d3d8d51	-0.033809037557854034
102	0xbfd0d26a22ce1077	-0.2628426875965099
103	0xbfd48969a158b960	-0.32088700062276665
104	0xbfa9d0cc6fadae9a	-0.05042113173734926
105	0x3f5be1751fa5e702	0.0017017024789240391
106	0x3f84334dac581a72	0.009863478490854425
107	0x3f92be6b452e0522	0.018304515931508843
108	0xbf7a60274ad8b688	-0.0064393553598570755
109	0xbfb0e2a75a2713ba	-0.0659584612941008
110	0x3fe5d9b3eb818318	0.6828250503277529
111	0x3fbfc958ed563bd4	0.12416606706959438
112	0x3fc046f2f151d8f9	0.12716519149007136
113	0xbf69e8c39e167419	-0.003162748399246695
114	0x3fa9fcc40ff2f375	0.05075657553377414
115	0x3fdaaa6eeafe5244	0.4166524214608993
116	0x3fd242892c44cb48	0.28531102488630156
117	0xbf8b6a23a8e72061	-0.013386038391118573
118	0xbf7023a90220c931	-0.003940258206102152
119	0x3fd73febbb05597c	0.36327641738662186
120	0xbf7c29049c77ef87	-0.006875055325050178
121	0xbfe7c19313fc29dc	-0.7423797025997447
122	0x3fe2a7f2e539513a	0.5830015637425625
123	0xbf90c300610b9c67	-0.016368871615580007
124	0x3fd40b28d3371516	0.3131811201713658
125	0x3fadf940acb85146	0.0585422716941673
126	0x3f900785bf9a0b4a	0.015653695887986964
127	0x3f985b96196bc3f6	0.023786874105045507
128	0x3fa1c30042c9d4cd	0.03469086470878722
129	0xbfc14ef20273232e	-0.1352217208825776
130	0xbfa2b1a7e6b28a0a	-0.03651165667658425
131	0x3f64cd3ca79314c5	0.0025392708454058132
132	0xbf65652e977ba8fa	-0.0026117238993396104
133	0x3f8332d952d01db6	0.009374330367804311
134	0x3faa66a6eff26cc3	0.05156442336120783
135	0xbf70f577c554243b	-0.00414034638857524
136	0x3fdea6ccd032c756	0.4789306672274639
137	0x3f980d11c2966c14	0.02348735571068168
138	0xbff2102cd5e462aa	-1.1289490084802005
139	0xbfaf36cad5d2bc03	-0.06096490726610428
140	0x3fc4d658c1594f68	0.1627913421713132
141	0xbf705eb7459217ce	-0.003996578126253382
142	0x3f8428f16a23b471	0.009843717624301558
143	0xbf8cfddc68feda3f	-0.01415607638760463
144	0x3f73b751e31044b0	0.004813499327626022
145	0x3fe8d8098e4f8dc9	0.7763717441088654
146	0x3f7acffd85a12cf4	0.006546011276508102
147	0x3fd38eee632da425	0.30559882817630274
148	0x3f7c0e92fc02dc6e	0.0068498365000585325
149	0x3f721182e193a0de	0.004411231283690335
150	0xbf4b2f78a81bfd67	-0.0008296336311274633
151	0x3f7dcd69d9b034a1	0.007275975683126352
152	0x3fc6cab2af9dd69c	0.17806085181262155
153	0xbf253ff05f0bae95	-0.00016212281436566293
154	0xbf7395503f394ddd	-0.004781068291396432
155	0x3fa5829c467f74b4	0.04201210365838773
156	0xbf9f665e5f02c0a9	-0.030663942860599622
157	0x3fcb3b4815b6998a	0.21274663028925672
158	0xbf85aff39307cce8	-0.010589507030977122
159	0xbfa7353e7d9f80ad	-0.04532809527859292
160	0x3f7368cb3c1e2abe	0.004738611112666545
161	0x3fc9a848b375e245	0.2004481197616476
162	0xbf813aac88af429d	-0.008412692948611517
163	0x3f9f0c492bff6ecb	0.03032030421296276
164	0xbff380465889e58f	-1.218817087034356
165	0xbfa2fff3b13ffb9c	-0.037109008204416954
166	0xbfe5291212bb96c1	-0.6612635007738491
167	0x3ef87f54986ff63d	2.336252648759404e-05
168	0x3f5a5300407fb2f4	0.0016067030392107858
169	0x3fb0960ae7ad34a9	0.06478946834723111
170	0x3fda2aabda6b2777	0.4088544495576722
171	0xbfa7a6912a1325ad	-0.04619268072708436
172	0xbf639b989ffb0374	-0.0023935299830956606
173	0xbfa251862a831087	-0.03577822941727598
174	0xbf40eb15f8615b19	-0.0005163056637325941
175	0x3f68e88fae806c2f	0.0030405813486260795
176	0xbfe40536f01319b9	-0.6256365479428531
177	0x3f88919870f58d3e	0.011996451327553555
178	0xbfa278f1d0bba7e3	-0.036078984003168356
179	0x3f84098425dd8d81	0.009783775716363465
180	0x3f491fdd8f7e9fc6	0.0007667381132607724
181	0x3f9545b4857e27ad	0.02077371659064624
182	0x3ff0988e4a4e0509	1.0372450735597474
183	0xbfe980a94f98ae11	-0.7969557337395959
184	0xbf7ec24218c569d4	-0.0075094777970101285
185	0xbf50a9b0e0359d8e	-0.0010170199683104705
186	0xbf98e324482dd22e	-0.024303976922469932
187	0x3fb08513922cdec2	0.06453058546764637
188	0xbf64705dd5d4f602	-0.002494986793549315
189	0x3f680fb2d63edafc	0.0029371731670509976
190	0x3f91de3a103bd583	0.01744929050524525
191	0x3fa098337c5af06f	0.032411202364046036
192	0xbf82ffe538c0e3f4	-0.009277144236067493
193	0x3f88b029707f7882	0.01205475210730023
194	0xbf53b02bf2809a29	-0.0012016705677610018
195	0x3f934d3a132d92a6	0.01884928457310999
196	0xbfa11608f318c626	-0.033371238398455724
197	0xbfd2db1b43ecae9c	-0.2946231997800426
198	0xbf984e1b10108bed	-0.023735449653155816
199	0xbf4a199ebb523675	-0.0007965111787073391
200	0x3fb24e4e2a8f91ec	0.07150734461863067
201	0x3fc1f5b3cdf31dee	0.14031074100624558
202	0xbf8b166eef93968d	-0.013226381956381839
203	0xbf86b854b0516485	-0.011093770628735075
204	0xbf9f9417558e774d	-0.03083836040206416
205	0xbfa3ff241bcb17e3	-0.03905594672464454
206	0x3f830d80565f4f42	0.009303095470307835
207	0x3fe70ff5259a93ba	0.7206979498338264
208	0x3f799cdbb586d7b3	0.0062531072984963075
209	0xbfcb3af6514180b4	-0.21273688285419257
210	0xbf92cfc6a389798f	-0.018370727283007645
211	0x3fe8bb581a6cf620	0.7728691593289945
212	0x3fddfff4daa9e9ec	0.4687473426235147
213	0xbf91acc1c6639d70	-0.0172605779015646
214	0x3f8517fd7b8cf5a4	0.010299663861242099
215	0x3f9b495f9c552c24	0.02664708511046511
216	0x3f957e629d4d2279	0.0209899338254069
217	0xbfef4bde413ea2c7	-0.9780112528142916
218	0x3fe05d8e0d250b12	0.5114202744228769
219	0x3fdf4845f3763f5e	0.48878620887352564
220	0x3fafd8d1b43dc9a2	0.06220107388698472
221	0xbf7a098a8e1a550e	-0.006356755476777621
222	0x3fe2f0703285b0e2	0.5918503748667059
223	0x3f8c81d7cba21560	0.013919530774965494
224	0xbf8ac267e14b9762	-0.013066112101522701
225	0x3fd2a63edf9c3f38	0.2913968261427615
226	0xbfa163ea5ea062d3	-0.033965419818007846
227	0xbfb55cf028d48eeb	-0.08344937321504246
228	0xbf524c5dd36425c4	-0.0011168400065478682
229	0x3fa71460d088f1f1	0.04507734819023657
230	0xbf5951b1a4182112	-0.0015453562522243541
231	0xbf871d5f18bc21eb	-0.01128649038538839
232	0x3f6aa2d4631cf7bb	0.0032514713465436585
233	0xbf63b83e27091034	-0.0024071897426285686
234	0xbf669dd18ad6396f	-0.002760800611844853
235	0x3f74fbd00a3ddaa5	0.0051229597628351985
236	0x3fa7f04a27f68c0e	0.046755139711670876
237	0xbf5c7d446054172c	-0.0017388503777637327
238	0x3f90088305d91841	0.015657469970641328
239	0xbf54334f45ca6a7a	-0.0012329363009146153
240	0x3fc11f9a94e103aa	0.133776972479635
241	0x3f64fa0fb5a91cdd	0.0025606448009828212
242	0x3fb0cf0b4f729937	0.0656592434848776
243	0x3fa9e1afdb97fc5a	0.05054997974001969
244	0x3fe992fba1fb22b2	0.7991922534648295
245	0xbfe19cb643501f1b	-0.5503798784929786
246	0x3f8912864035c81b	0.012242363771950029
247	0x3fd61ddd77db453c	0.34557282166231906
248	0xbf8326752d66e6a5	-0.00935069603734757
249	0x3fe3744ca9408fa5	0.6079467111307976
250	0xbfbf7e384921dd53	-0.12301971230941904
251	0xbf461078810136b6	-0.0006733501813955464
252	0x3f72293a52f89350	0.004433849171196894
253	0x3fa05f8c6a1e37ca	0.03197897715936866
254	0xbfbc91ca433138a2	-0.1115995801967267
255	0xbf9e8532882920ae	-0.029804982719981048

fc2.bias f8 [3]
0	0xbfd068647e927698	-0.2563716159873848
1	0x3fccd71534b456c8	0.22531380723437722
2	0x3fbbf6b197f12762	0.10923299750825557
