car_ros2/car_ros2/model_haha.pth (torch, 16943 bytes, 5 tensors)

fc.0.weight f4 [50, 21]
-0.13991784 -0.024199732 -0.14447273 -0.16491425 -0.06391322 0.007889103 0.21855104 -0.17025487
-0.007274441 -0.058699913 0.0856087 -0.026305994 -0.122141406 0.20460896 0.6254828 0.8121439
-1.0651541 -0.94196844 -0.29994524 -0.25997984 0.5086427 0.17786518 0.048890702 0.014443531
-0.11540901 0.0029669781 -0.00029987752 -0.27125823 -0.014208103 -0.0020111364 -0.005049381 0.016383804
0.003335394 0.018783582 -0.36513713 -0.048485983 0.051831085 1.9847016 0.16135503 -0.1478456
0.05669489 -1.178304 0.24192026 0.46549734 0.38512897 -0.19866736 0.032550592 -0.002004655
-0.005415994 0.08351587 0.016121626 -0.008951829 0.063281804 -0.011234276 0.020000895 -0.0021599585
0.31514534 -0.0040946854 0.20695505 0.44450265 0.44937414 0.49426138 -0.007407889 0.05278833
-0.0069028526 0.024050834 -0.31629077 0.23800437 0.024610229 -0.24920864 0.07238512 0.0048893387
-0.03890082 -0.00024422407 -0.009181072 0.057601426 -0.36834264 0.027124682 1.119553 1.5387254
-0.4447653 0.22587033 -0.26704654 0.43285573 0.07929971 -0.038875777 -0.083695814 -0.2476663
-0.029334622 -0.011412073 -0.16781701 -0.11359114 -0.013424039 -0.9153228 -4.003517 -0.8720294
-4.531573 0.04389697 -0.085957974 -0.020108806 1.5000477 -0.06826715 0.118374415 -0.009383525
-0.17758721 -0.040727146 0.19549385 -0.11043223 -0.008642228 -0.015734466 0.0022038778 0.3858231
-0.05241086 0.00015388845 -0.042455617 0.019139467 -0.19847721 0.09022144 -0.8227643 -0.44678408
-0.77913785 0.13611622 0.18453544 0.0946549 0.3976516 0.29190102 -0.09267792 -0.27990964
-0.28940803 -0.006365014 0.0070382413 0.005700534 -0.243048 -0.031594273 -0.00081890915 0.013867692
0.020578897 -0.0006074745 0.03985815 -0.16647545 -0.20554885 -0.7529159 0.90570605 -0.28513888
0.16028818 -0.4241703 1.3898585 0.16230124 0.44188324 0.23951316 -0.004118106 0.016595883
-0.004795774 0.3494908 -0.10018283 -0.015764827 -0.01924833 -0.04004309 -0.048139565 -0.044489216
0.1505395 -0.102093086 -0.14405836 0.9536173 -0.49078897 0.2935805 -0.53253824 -0.9896988
-0.008919367 -0.014108425 -0.22081956 0.1965141 -0.13093519 -0.012454278 -0.2735401 -0.101476595
-0.008164899 0.26533893 0.17388633 0.22598003 0.1906741 0.1730177 -0.34232575 -0.71751875
1.7028503 -0.18962069 0.4526245 -0.10491713 -0.39537108 -0.0797112 0.15659994 0.32043302
-0.23119079 0.02387331 0.021052785 0.019969422 0.076614834 -0.011043562 0.11865979 -0.09194085
0.07093263 -0.17782015 1.086727 -0.15336317 -0.11673209 -0.44218642 0.011911065 0.67163795
-0.014569718 -0.0945153 0.071671434 -0.7096031 -0.04953993 0.18493237 0.019951655 -0.0016905284
0.74220335 0.102969006 0.0073783104 -0.017802073 -0.043842558 -0.053400174 -0.046383865 -0.028840398
0.71738493 -0.42630836 -0.9161487 -0.120952986 0.8506177 -0.39026928 0.68298143 0.34248835
-0.0344123 -0.019297605 -0.24398874 0.0073460313 0.0022397642 -0.13790704 0.0070515634 -0.011471841
0.0010834207 0.05465677 0.021469098 0.02957493 0.036874153 -0.42956182 0.56700575 -0.68948144
0.037510846 0.023783965 0.106079996 1.4526515 -0.059923876 0.84016865 -0.084026635 -0.24358383
00000000: 9f46 0fbe 843e c6bc a9f0 13be 48df 28be
00000010: efe4 82bd 4c41 013c d8cb 5f3e 4b57 2ebe
00000020: 6f5e eebb 526f 70bd 9d53 af3d ab7f d7bc
00000030: 4625 fabd 0385 513e a41f 203f aae8 4f3f
00000040: f856 88bf d824 71bf 6c92 99be 141c 85be
00000050: 6836 023f 4a22 363e 9e41 483d 8fa4 6c3c
00000060: 8f5b ecbd a271 423b e138 9db9 5ce2 8abe
00000070: 1ac9 68bc 45cd 03bb 4775 a5bb 5437 863c
00000080: a096 5a3b 07e0 993c 41f3 babe 3d99 46bd
00000090: d54c 543d b40a fe3f 413a 253e d664 17be
000000a0: e738 683d aad2 96bf f2b9 773e ab55 ee3e
000000b0: a02f c53e 756f 4bbe c553 053d 8860 03bb
000000c0: a778 b1bb 5e0a ab3d 8011 843c b1aa 12bc
000000d0: e499 813d f80f 38bc ebd8 a33c 178e 0dbb
000000e0: bb5a a13e b62c 86bb 06ec 533e da95 e33e
000000f0: 5e14 e63e d40f fd3e e0bd f2bb 9338 583d
00000100: 5331 e2bb 4106 c53c ddf0 a1be 6bb7 733e
00000110: 649b c93c 8d30 7fbe a63e 943d bf36 a03b
00000120: 7756 1fbd 330b 80b9 356c 16bc 79ef 6b3d
00000130: 6897 bcbe 9534 de3c 834d 8f3f f4f4 c43f
00000140: 47b8 e3be 8d4a 673e 53ba 88be 449f dd3e
00000150: e367 a23d 353c 1fbd b668 abbd 3c9c 7dbe
00000160: 294f f0bc b4f9 3abc 39d8 2bbe 79a2 e8bd
00000170: 80f0 5bbc 9852 6abf d01c 80c0 523d 5fbf
00000180: a502 91c0 4fcd 333d bc0a b0bd 39bb a4bc
00000190: 9001 c03f a6cf 8bbd 496e f23d 5bbd 19bc
000001a0: 6cd9 35be 82d1 26bd 8a2f 483e 4b2a e2bd
000001b0: 2298 0dbc 91e5 80bc ef6e 103b 9b8a c53e
000001c0: c5ac 56bd 1e5d 2139 f1e5 2dbd 5fca 9c3c
000001d0: 9c3d 4bbe 05c6 b83d aea0 52bf e2c0 e4be
000001e0: 9475 47bf 0d62 0b3e dcf6 3c3e 6eda c13d
000001f0: fe98 cb3e 0d74 953e eccd bdbd 5150 8fbe
00000200: 4a2d 94be 9b91 d0bb 0ca1 e63b 8ccb ba3b
00000210: 93e1 78be ff68 01bd 10ac 56ba 5135 633c
00000220: 1395 a83c ec3e 1fba 4d42 233d 8a78 2abe
00000230: 667b 52be 19bf 40bf 5adc 673f b9fd 91be
00000240: 9622 243e d92c d9be e2e6 b13f 4c32 263e
00000250: 853e e23e f042 753e 2df1 86bb 17f4 873c
00000260: de25 9dbb 75f0 b23e a82c cdbd 3d25 81bc
00000270: acae 9dbc 3904 24bd fe2d 45bd 533a 36bd
00000280: 0727 1a3e 2e16 d1bd 0984 13be 4320 743f
00000290: b148 fbbe 2f50 963e 6d54 08bf e75c 7dbf
000002a0: 8922 12bc 0627 67bc 861e 62be fe3a 493e
000002b0: e013 06be 070d 4cbc 730d 8cbe f6d2 cfbd
000002c0: 12c6 05bc 81da 873e 420f 323e 4f67 673e
000002d0: 1240 433e 8d2b 313e 5245 afbe 4faf 37bf
000002e0: 00f7 d93f ed2b 42be 66be e73e cbde d6bd
000002f0: 146e cabe a03f a3bd bc5b 203e cc0f a43e
00000300: 47bd 6cbe f691 c33c e476 ac3c ea96 a33c
00000310: 3de8 9c3d 0ef0 34bc e703 f33d 7c4b bcbd
00000320: 2045 913d 7c16 36be df19 8b3f 3c0b 1dbe
00000330: 3c11 efbd 4266 e2be a126 433c 77f0 2b3f
00000340: d4b5 6ebc 3d91 c1bd 79c8 923d 8ca8 35bf
00000350: 62ea 4abd e95e 3d3e a771 a33c b894 ddba
00000360: 0a01 3e3f 6ae1 d23d c1c5 f13b a7d5 91bc
00000370: 4194 33bd 24ba 5abd 02fd 3dbd b342 ecbc
00000380: 8aa6 373f 1745 dabe b988 6abf 33b6 f7bd
00000390: 15c2 593f 60d1 c7be dfd7 2e3f a25a af3e
000003a0: e9f3 0cbd 0316 9ebc 2fd8 79be fab6 f03b
000003b0: 02c9 123b 8137 0dbe cd10 e73b 63f4 3bbc
000003c0: 9101 8e3a c7df 5f3d f6df af3c 2047 f23c
000003d0: 5a09 173d 87ef dbbe 4a27 113f db81 30bf
000003e0: f9a4 193d 97d6 c23c 7840 d93d 7cf0 b93f
000003f0: bd72 75bd 4b15 573f 2816 acbd 0a6e 79be

fc.0.bias f4 [50]
-0.59831 -0.5473015 0.12910552 0.036011774 -0.07297631 1.1617509 -0.25146335 -0.35554993
0.3152266 0.490634 -0.16190593 -0.06591377 -1.5478706 -0.87952024 -0.96402216 -0.09888882
-0.69173735 -0.40502885 0.083898984 -0.0012538866 0.1531774 -0.78592193 -1.0087845 0.24929655
-0.33434674 -1.0875124 0.52876306 1.6787965 0.42333275 -0.019340374 0.146123 1.0129144
0.84854966 -0.5485259 -0.30053848 -0.15429664 -0.4138402 -0.11216412 -0.51169 -0.2882749
-0.42319542 0.059723776 -0.112917095 -0.66882515 0.0017934085 0.25778353 -0.23474741 -0.031566862
-0.5856177 0.19821031
00000000: d82a 19bf f31b 0cbf 3d34 043e 1581 133d
00000010: 9b74 95bd 41b4 943f cebf 80be a40a b6be
00000020: 6265 a13e 6134 fb3e abca 25be ccfd 86bd
00000030: a020 c6bf 3d28 61bf 28ca 76bf 3986 cabd
00000040: b315 31bf f15f cfbe 3bd3 ab3d 7459 a4ba
00000050: 89da 1c3e 2e32 49bf da1f 81bf 9847 7f3e
00000060: 7f2f abbe 9b33 8bbf 045d 073f cee2 d63f
00000070: 12bf d83e b46f 9ebc 45a1 153e 2ea7 813f
00000080: 8d3a 593f 326c 0cbf 2ee0 99be f0ff 1dbe
00000090: dde2 d3be 4db6 e5bd 1efe 02bf c598 93be
000000a0: 12ad d8be eba0 743d 1441 e7bd 2038 2bbf
000000b0: ce10 eb3a 34fc 833e a061 70be 414c 01bd
000000c0: 0beb 15bf a5f7 4a3e

fc.2.weight f4 [50, 50]
-0.017147284 0.09613805 -0.029310398 0.06480856 -0.029392615 0.07507489 -0.09988091 -0.058328647
-0.18036261 -0.14321877 -0.051655833 -0.17581898 0.06628232 0.099137016 0.0024668293 0.060917504
-0.007959589 -0.12585692 -0.15589915 0.05944854 -0.06569329 0.08129809 0.028401751 -0.021633085
0.056562506 -0.10293149 -0.11092528 -0.16079117 0.011732553 -0.12781674 -0.09779666 -0.08138235
-0.0865848 -0.009753884 0.043866664 0.03746218 -0.015963402 -0.17351578 -0.15987892 -0.056665413
0.0036677509 0.0388839 0.043128222 0.071861096 -0.0778077 0.06977056 0.044077218 -0.037213214
-0.07603915 -0.07593979 0.081904925 0.0038596939 -0.13896836 -0.1427418 -0.12201998 0.060200598
-0.06695817 0.0072902236 0.04110826 0.081712954 -0.06667319 0.023117993 -0.0062814117 -0.111581914
0.019635256 -0.13827516 -0.15455702 -0.059265863 -0.04458484 0.07488733 0.084377795 -0.074361295
-0.11406872 0.06842242 0.08880181 0.04231213 -0.057316624 0.032034792 0.02059848 -0.10735132
0.054533444 -0.14217791 -0.14226376 0.054267023 -0.1264901 0.055697426 0.06913362 -0.07715013
0.08671319 0.05737219 -0.06719282 -0.16550478 -0.07273068 -0.08174778 -0.11550774 -0.17707622
-0.07101149 -0.05962117 -0.14888829 0.061655946 -0.1405858 0.40788162 0.2018549 0.04606527
0.27328598 0.09167616 0.2519116 0.07367827 -0.15460208 0.022117868 0.15066585 -0.1104796
-0.277636 0.056106202 -0.41389623 0.44293526 -0.28337267 -0.019925574 0.16725807 0.12365949
0.13016038 -0.0069062267 0.16739827 0.26470488 0.2968797 0.08038627 -0.08347382 -0.21740717
0.19244844 -0.09255567 -0.18581153 -0.12127653 0.21424349 0.10960915 -0.10826175 0.20006038
-0.3706225 -0.07033849 0.13500373 -0.008001141 -0.16124786 0.15107012 0.062155783 0.08505712
-0.10443432 -0.30251104 0.2856485 0.26941067 0.3118277 -0.06891497 -0.20842718 0.5857627
-0.06725042 0.27464437 0.77927005 0.50134265 -0.071086586 0.25506324 -0.85888815 0.14910161
0.111346856 -0.13105538 -0.97438616 -0.23331307 -2.630986 0.37486538 -3.360306 -0.0936456
0.49238995 -0.097066686 0.04296668 -0.21056795 0.03214401 -0.1733289 0.53825444 -0.41014463
0.042963766 0.043137345 0.26962447 -1.1208482 -0.31650037 0.10627667 -0.019388234 0.31576324
-0.28512594 -0.392567 -1.1624984 -0.047302347 -0.20096932 -0.1556731 -0.5715594 -0.04280417
-0.055517547 -0.15508376 0.08375093 -0.122333385 0.13815627 -0.20348653 0.69294274 -0.20654203
0.002424004 0.49477896 0.1672298 -0.124533966 0.34887815 -0.05194058 0.17481852 0.019443765
0.0061078477 -0.08025177 0.11806336 -0.017357891 -0.23405977 -0.1591204 -0.38814756 0.39098483
-0.46713412 0.14920774 0.09621518 0.16645887 -0.10291005 0.09079296 0.16368608 0.28566346
0.23310877 0.2160099 -0.074535795 -0.122232065 0.17757349 -0.110738456 -0.013840952 -0.15534057
0.36519215 0.2621091 -0.13178077 0.08772095 -0.2605118 -0.073629424 -0.028409554 -0.02296185
-0.10503361 0.15215074 0.21270782 0.13596377 0.085580654 -0.08460729 0.008269286 0.06302094
0.10294974 0.07859616 -0.0035519006 0.5734998 -1.0927434 -0.99120605 -0.081166044 0.0007429251
00000000: 7678 8cbc 07e4 c43d 5c1c f0bc 5aba 843d
00000010: c8c8 f0bc ddc0 993d 5d8e ccbd 05ea 6ebd
00000020: fab0 38be f1a7 12be 1195 53bd e409 34be
00000030: 06bf 873d 5908 cb3d 87aa 213b a284 793d
00000040: f068 02bc a3e0 00be 07a4 1fbe 5080 733d
00000050: 348a 86bd 9d7f a63d caaa e83c de37 b1bc
00000060: 16ae 673d bfcd d2bd cb2c e3bd 71a6 24be
00000070: e539 403c 64e2 02be 9e49 c8bd caab a6bd
00000080: 5f53 b1bd c1ce 1fbc 88ad 333d f171 193d
00000090: aec5 82bc 1fae 31be 4db7 23be fe19 68bd
000000a0: a65e 703b b944 1f3d 38a7 303d e92b 933d
000000b0: a559 9fbd dee3 8e3d 508a 343d e26c 18bd
000000c0: 6aba 9bbd 5286 9bbd c5bd a73d ebf2 7c3b
000000d0: b94d 0ebe e82a 12be 9ce5 f9bd e794 763d
000000e0: 5d21 89bd d4e2 ee3b 2361 283d 1f59 a73d
000000f0: f48b 88bd f261 bd3c 4dd4 cdbb 0f85 e4bd
00000100: 1eda a03c 0198 0dbe 3244 1ebe c3c0 72bd
00000110: 989e 36bd 875e 993d 44ce ac3d bc4a 98bd
00000120: dc9c e9bd 0e21 8c3d b9dd b53d 7c4f 2d3d
00000130: d6c4 6abd ea36 033d 25be a83c 02db dbbd
00000140: 765e 5f3d 1697 11be 97ad 11be 1947 5e3d
00000150: 9f86 01be fc22 643d ed95 8d3d e300 9ebd
00000160: af96 b13d 1aff 6a3d 649c 89bd 167a 29be
00000170: d3f3 94bd 616b a7bd 528f ecbd 7853 35be
00000180: 796e 91bd 5435 74bd 2c76 18be f28a 7c3d
00000190: b9f5 0fbe dcd5 d03e 0db3 4e3e f0ae 3c3d
000001a0: 24ec 8b3e b6c0 bb3d 8ffa 803e a2e4 963d
000001b0: 0250 1ebe 8830 b53c 2648 1a3e 2143 e2bd
000001c0: 4e26 8ebe 9ecf 653d 35ea d3be 69c8 e23e
000001d0: 3916 91be f53a a3bc b345 2b3e 3041 fd3d
000001e0: c348 053e a14d e2bb 746a 2b3e 6687 873e
000001f0: 9e00 983e 8fa1 a43d 52f4 aabd fc9f 5ebe
00000200: 3411 453e d48d bdbd 6145 3ebe d45f f8bd
00000210: a562 5b3e c37a e03d 56b8 ddbd a1dc 4c3e
00000220: 3bc2 bdbe a00d 90bd 6b3e 0a3e 3817 03bc
00000230: 291e 25be 20b2 1a3e 1097 7e3d 6d32 ae3d
00000240: a9e1 d5bd bae2 9abe 8540 923e 32f0 893e
00000250: e1a7 9f3e 4b23 8dbd ef6d 55be 8bf4 153f
00000260: 97ba 89bd 309e 8c3e 3e7e 473f fe57 003f
00000270: d895 91bd a697 823e 18e0 5bbf 18ae 183e
00000280: d209 e43d 6233 06be 5f71 79bf 9fe9 6ebe
00000290: 1362 28c0 5bee bf3e 410f 57c0 44c9 bfbd
000002a0: 891a fc3e e6ca c6bd d4fd 2f3d 209f 57be
000002b0: 70a9 033d 227d 31be 0bcb 093f 7afe d1be
000002c0: c6fa 2f3d c9b0 303d 380c 8a3e f477 8fbf
000002d0: 560c a2be 95a7 d93d 13d4 9ebc b8ab a13e
000002e0: 07fc 91be 8bfe c8be bfcc 94bf 1bc0 41bd
000002f0: e7ca 4dbe c568 1fbe b851 12bf 6d53 2fbd
00000300: 5e66 63bd 47ce 1ebe 9c85 ab3d ed89 fabd
00000310: d678 0d3e c65e 50be b264 313f c17f 53be
00000320: 0adc 1e3b ab53 fd3e 4a3e 2b3e aa0b ffbd
00000330: 28a0 b23e a5bf 54bd a003 333e 8848 9f3c
00000340: 5724 c83b 0a5b a4bd 34cb f13d 2332 8ebc
00000350: 5dad 6fbe 75f0 22be 47bb c6be 2a2f c83e
00000360: 342c efbe eac9 183e 770c c53d 3274 2a3e
00000370: 81c2 d2bd a9f1 b93d 539d 273e 7b42 923e
00000380: 11b4 6e3e b331 5d3e 39a6 98bd ce54 fabd
00000390: d3d5 353e d8ca e2bd 29c5 62bc 9911 1fbe
000003a0: 77fa ba3e 2a33 863e 8af1 06be 0ba7 b33d
000003b0: cd61 85be 06cb 96bd 27bb e8bc 7d1a bcbc
000003c0: dc1b d7bd 67cd 1b3e 14d0 593e 163a 0b3e
000003d0: e944 af3d 9646 adbd e67b 073c 1f11 813d
000003e0: 50d7 d23d 06f7 a03d 01c7 68bb e2d0 123f
000003f0: 04df 8bbf aebf 7dbf 623a a6bd dcc0 423a

fc.2.bias f4 [50]
-0.08172805 0.02777821 -0.08656518 -0.28395906 -0.07226333 -0.3083325 0.08992597 0.04688962
0.41840568 -0.07409371 -0.3430054 0.15880573 0.35604894 -0.079182856 0.093442686 0.053254444
-0.56077987 0.082282245 0.1914928 0.19587582 0.17718528 -0.0883596 0.15320389 0.11299159
-0.79941684 -0.17668371 -0.05813412 0.29628283 -0.0034378835 -0.53802013 -0.18229192 0.78705835
-0.0021663667 -0.6730031 0.34754562 -0.4026092 -0.73059195 0.490527 -0.5187909 0.03986975
0.026074601 -0.17267738 -1.0913404 -0.4919348 -0.20426056 0.20233944 -0.21020657 -0.064971484
-0.06678919 0.10312534
00000000: 0961 a7bd 218f e33c 1649 b1bd 1563 91be
00000010: ccfe 93bd c2dd 9dbe 1b2b b83d 550f 403d
00000020: 4539 d63e 71be 97bd 679e afbe f89d 223e
00000030: 0c4c b63e 9f2a a2bd e15e bf3d 5521 5a3d
00000040: 458f 0fbf 9883 a83d b016 443e ac93 483e
00000050: 0f70 353e e1f5 b4bd 7be1 1c3e 2268 e73d
00000060: 95a6 4cbf 93ec 34be 0b1e 6ebd 62b2 973e
00000070: 1d4e 61bb b0bb 09bf bcaa 3abe a87c 493f
00000080: 9af9 0dbb ee49 2cbf 80f1 b13e cb22 cebe
00000090: 1308 3bbf 5b26 fb3e 7bcf 04bf 774e 233d
000000a0: 679a d53c 57d2 30be 0bb1 8bbf e1de fbbe
000000b0: ae29 51be 1232 4f3e 6440 57be c50f 85bd
000000c0: c5c8 88bd 6133 d33d

fc.4.weight f4 [1, 50]
-0.041286256 -0.02710492 0.06095474 0.5423868 0.04155696 -0.35474178 -0.114876755 -0.5261614
-1.0732504 -0.022087162 -0.33749753 0.10813682 -1.6275489 -0.13815495 -0.07059043 -0.032783136
-0.52505 -0.38228142 0.23103562 0.21089064 0.16308223 -0.06281615 0.4094029 -0.38698822
-0.9165996 -0.054447874 -0.036360398 0.29894713 -0.0024590907 -0.47037 -0.37314513 -0.37964907
-0.5323443 -0.27394122 0.33770445 -0.5332542 -0.8043966 -0.58951676 -0.16262065 0.40618193
0.09020401 -0.090144254 -0.26806358 -0.81968963 0.036391802 0.44911304 0.021217925 0.11057492
0.1712972 0.17568727
00000000: c71b 29bd 230b debc adab 793d dcd9 0a3f
00000010: a237 2a3d b7a0 b5be 8144 ebbd 83b2 06bf
00000020: 4560 89bf 23f0 b4bc 7acc acbe d676 dd3d
00000030: 8653 d0bf 7e78 0dbe b791 90bd 9c47 06bd
00000040: ad69 06bf 64ba c3be 9a94 6c3e b7f3 573e
00000050: 07ff 263e c1a5 80bd 429d d13e 5223 c6be
00000060: 45a6 6abf bc04 5fbd a4ee 14bd 990f 993e
00000070: b228 21bb 56d4 f0be e10c bfbe 5d61 c2be
00000080: b747 08bf 0642 8cbe 99e7 ac3e 5983 08bf
00000090: f0ec 4dbf 92ea 16bf 0786 26be 14f7 cf3e
000000a0: e1bc b83d 8d9d b8bd a13f 89be 2ed7 51bf
000000b0: 920f 153d 25f2 e53e 37d1 ad3c 1b75 e23d
000000c0: 8868 2f3e 5de7 333e
